experiment_testing/mz-testing/checkpoints/ptbxl/125hz/cnn1d/fold_3/last.pt (torch, 628765 bytes, 26 tensors)

features.0.weight f4 [32, 12, 7]
00000000: 165d a23d 03ea e5bc 7633 f33d 87b9 1cbd
00000010: 18fb 97bd 7bc7 9abd 1a2c f43d d332 cbbd
00000020: ca9e 00be d30a 543d bfbd 0dbd 34b0 f03c
00000030: e7f2 533d cc61 bcbc 6950 c3bd c8b3 573c
00000040: ea7e eebb cb95 57bd 2239 adbd ac4f 50bd
00000050: 1d68 1e3d 2186 d33d 6dd2 063e a7ec b33c
00000060: 4716 7d3d 875b b6bd cb08 acbd d3dd 333d
00000070: 2d0c 143d ccc8 f93d 2d74 753d ee34 903d
00000080: 5c20 24bd 8140 81bd f1fb 45bc 81b0 c1bd
00000090: c9e7 0ebd f032 413d 89b0 cc3c a422 3cba
000000a0: 4ece 9b3c 3de0 46bd fa45 dcbc cfaf 07bd
000000b0: b42a 903d 3ec0 df3c e304 aabd 067b d6bd
000000c0: 4a7e 6cbd 32da 453b 3ce5 da3d b02d d93b
000000d0: a8cd 18bd 99e1 e03d 422e a13d 7a02 61bd
000000e0: e2de 793d 88bb e139 6ec7 973d 0655 943d
000000f0: 89a2 343d 7c30 c63d 2fa4 ecbb 79d1 5abd
00000100: f4d8 88bd 35b5 b9bd 7857 7c3d 59c7 313d
00000110: 1cd2 c0bd 6f18 bf3d 13f6 dd3a 6807 28bb
00000120: 2fef 953d 3385 c0bc 96a2 743d a589 3ebd
00000130: e08f 623d eabd 80bd ebf1 613d 0ecb 5cbd
00000140: 938d 1cbd 5b5c 783d 5ef6 8a3d b53f 72bc
00000150: 28e4 b63d df4d 813c 5096 e83d bc3f a43c
00000160: 541f afbd 3768 00be 2836 f9bd 1892 55bd
00000170: 7f50 a43c f3b9 fcbd 086d 96bd 909c e7bc
00000180: 26c1 9b3d 0fdb 043c 371c 563d 4095 06bd
00000190: 9e8f b3bd c193 263c 72cb 383d 7c37 d23d
000001a0: bb07 f63c 05e4 eabc d8e8 bfbc 653b b7bc
000001b0: e776 063d e279 a7bd 883e 6abd 2255 62bd
000001c0: eeb6 da3d 31d4 3a3c 091f 823c b529 05bd
000001d0: f1c0 d2bc 4cdd 043d 08c5 623d c781 8cbd
000001e0: 6585 dbbd cba7 10bb 0806 a6bd cd2f 9d3d
000001f0: bbfe 1b3d e9fb 6f3c bd7f a7bd 987f e4bc
00000200: 2745 b03d ddbc cd3d f411 0d3c bfce 163d
00000210: 5585 733c 8857 cebd 0205 a23c 594a eb3d
00000220: 080b d83d 1e85 5d3d ee7d adbc 8677 7bbd
00000230: 1154 8e3d ec9f 3a3c 4968 1c3c 7299 60bd
00000240: 7eb5 f03d b02c 9ebd 08b6 a0bd 38c4 54bd
00000250: d8e3 013e 80d0 a33d 6652 acbd a00e 843d
00000260: 08e3 b9bd 902e 6e3c a9bb e5bc 4b86 3abd
00000270: 492e b73d 18ea 6fbc 12bc 963d f036 c4bb
00000280: f293 a5bd 986b 363d 9e34 8cbd bd76 42bd
00000290: 83e5 81bd 06a2 f13c f9f9 0f3b 6255 ef3c
000002a0: 269f f9bd 03c1 06be 48b3 a63d ab8a b63b
000002b0: 6c9a c8ba c30b 193d 0630 da3d 2aaa 20bd
000002c0: 9611 d4bc b8fb 5d3d 06dd 0fbd c75b ab3c
000002d0: edc2 993d 366f d43d e184 a4bd a686 17bd
000002e0: dc07 bc3c fadd 2e3a 53d8 363d 72b3 3e3d
000002f0: bdf6 7b3d cbc5 3cbc 5ac2 14bd 40d1 dd3d
00000300: 4261 79bd 7547 32bc 4601 883c 805d ccbd
00000310: 115b a7bd 366d 44bd b794 2c3c 3c04 81bd
00000320: 6bed 733d a94b 883d dc53 8d3d 514e 71bd
00000330: 722d d2bd 5353 413d 293c a4bd f95b b0bc
00000340: b5d9 a1bd 4ee0 603d 9d5f 90bd cc9f aebb
00000350: 755c 173c 1229 63bc fab6 853d cb5a 4e3d
00000360: 6473 6c3d db2b b23c 8648 19bd 83f6 abbd
00000370: f268 043e 740d d5bc 2aeb 8bbd 7d6d cdbd
00000380: a5b0 cabc 3973 d1bd a398 34bc 1f00 ec3d
00000390: 7d9f 9b3d b431 253d edfd 523d c814 bdbd
000003a0: d24b a23a cf64 bfbd c776 923b 9fd2 00bd
000003b0: 88ae 133c bf7d 8d3d ee5d a13d 03ea 493d
000003c0: 3bcc 9dbd 0c97 f23d 32eb 9ebc e239 2bbd
000003d0: 227c 0fbd c488 1f3d 6109 32bd 1e64 573b
000003e0: 1762 443d 10a4 92bd a482 713c 2684 003d
000003f0: 5756 ad3d e649 013d 7154 52bd 06af 9b3c
0.07927911 -0.028065687 0.1187505 -0.03826287 -0.07420939 -0.07557579 0.11922474 -0.09921803
-0.12560573 0.051768135 -0.034604784 0.029380895 0.05174532 -0.022995852 -0.095368214 0.013165422
-0.007278313 -0.052633088 -0.08458163 -0.05085723 0.03867351 0.103283174 0.13166209 0.02196343
0.061788823 -0.08904176 -0.084001146 0.04391272 0.036144424 0.12196502 0.059925247 0.070413455
-0.040069923 -0.06311131 -0.012083993 -0.094574936 -0.034889016 0.04716772 0.024986522 -0.0007176793
0.019019272 -0.048553694 -0.026888836 -0.03312665 0.07039395 0.027313348 -0.08301713 -0.104726836
-0.057737626 0.003018987 0.10688254 0.006627761 -0.037305504 0.10980529 0.07870151 -0.054934002
0.061003573 0.00043055066 0.07411085 0.072427794 0.044100318 0.096772164 -0.0072217206 -0.053422425
-0.066820055 -0.090677656 0.061606854 0.043403003 -0.09415075 0.09330832 0.0016934298 -0.002563918
0.07321011 -0.023501014 0.059725367 -0.046517987 0.05531299 -0.06286223 0.05516235 -0.053904586
-0.038220953 0.060634952 0.06785272 -0.014785697 0.08930236 0.015784202 0.11356795 0.020049922
-0.08550897 -0.12539755 -0.121685326 -0.05214128 0.020057915 -0.123401545 -0.07345015 -0.028272897
0.076051995 0.008108868 0.052273 -0.03285718 -0.08767627 0.010167063 0.045115896 0.10264489
0.030032983 -0.028673181 -0.023426458 -0.022367189 0.032828238 -0.08177544 -0.05718854 -0.05525697
0.10679422 0.011403129 0.01588394 -0.032510478 -0.025726767 0.032437608 0.055363685 -0.068606906
-0.10718802 -0.0022072669 -0.08106619 0.07675133 0.038084727 0.014647462 -0.08178661 -0.027892873
0.0860694 0.100457884 0.008610237 0.036818262 0.014863332 -0.10075289 0.019777779 0.1148879
0.10548979 0.05408203 -0.021178212 -0.061393283 0.06949628 0.011390667 0.009546348 -0.054833837
0.11753367 -0.07723367 -0.0784722 -0.05194494 0.12684572 0.079987526 -0.08414154 0.06448102
-0.09076506 0.014537469 -0.028043585 -0.045538228 0.08944375 -0.014643215 0.0736009 -0.0059879944
-0.08084859 0.044536203 -0.068459734 -0.04747652 -0.06342604 0.029496204 0.0021969064 0.029215518
-0.12188558 -0.13159566 0.08139664 0.0055707297 -0.001530481 0.037364732 0.10653691 -0.03922478
-0.025887292 0.054195136 -0.035122894 0.020917786 0.07507882 0.10372774 -0.08033157 -0.036993645
0.022952966 0.00066706503 0.044639897 0.04655785 0.061514605 -0.011521767 -0.03631816 0.10830927
-0.060883768 -0.0108812945 0.01660217 -0.09978771 -0.081716664 -0.047955714 0.010533503 -0.06299636
0.05955259 0.06655056 0.069007605 -0.05891258 -0.10262574 0.047198605 -0.08019287 -0.021528231
-0.079028524 0.054901414 -0.07049487 -0.005329108 0.009238352 -0.013864772 0.06529041 0.050379556
0.057727233 0.021749428 -0.03742268 -0.08396628 0.12930658 -0.026007392 -0.06831963 -0.10030649
-0.024742434 -0.10227055 -0.01102272 0.115234606 0.07598779 0.040330604 0.051511694 -0.09232479
0.0012382215 -0.093453996 0.004469726 -0.031450864 0.009013779 0.0690875 0.07879244 0.049295437
-0.077049695 0.11845216 -0.01939926 -0.04180325 -0.03503049 0.03894879 -0.043465976 0.003286607
0.04794511 -0.07160199 0.01474062 0.031376027 0.08463734 0.031564616 -0.05135006 0.019004356

features.0.bias f4 [32]
00000000: 9663 93bc 340e 973c ecce c5bc e38a 0f3d
00000010: 73b1 5c3d 51e6 f2bc cc0f b33c abc1 a13d
00000020: a2ac 063c 966a 0bbd 20f0 c03d 8818 513d
00000030: 6f9d 9b3a 8bd0 3e3d e1f8 b0bd 0ec0 ca3c
00000040: 50b4 bcbc e012 cabc ec25 283d c3ad 86bd
00000050: b529 ce3b 7b0a be3d edbc 9d3d a3b6 b6bd
00000060: 9967 8c3c 0547 c6bd 170a 53bb d53a 033b
00000070: 5f43 d73d 423f 66bc f776 3f3d f04d dfbd
-0.017991822 0.01843939 -0.02414652 0.035044562 0.053880166 -0.029650839 0.021858118 0.07898267
0.00821987 -0.034037195 0.094208 0.051048785 0.001187248 0.0465856 -0.0864122 0.024749782
-0.023035198 -0.024667203 0.04105179 -0.06576111 0.006291593 0.09279343 0.0770205 -0.08921554
0.017139243 -0.09681515 -0.003220206 0.002002408 0.10510897 -0.014053168 0.046744313 -0.10903537

features.1.weight f4 [32]
00000000: f79b 7b3f 7b08 813f 8482 7a3f fb73 793f
00000010: b5b0 803f 3ed4 853f 57dd 7b3f 8753 773f
00000020: 15ca 823f e292 793f 8e6d 853f 256b 803f
00000030: d3c9 7e3f b875 7b3f 8276 7d3f 5d6c 6d3f
00000040: a8f2 833f bd7c 813f 0a9a 813f 270c 833f
00000050: d171 7f3f e65f 7e3f e684 823f 87d6 883f
00000060: 288f 893f 0e42 7a3f 06fa 823f 23cc 803f
00000070: 56e9 843f 27ef 763f 320c 7a3f cde5 733f
0.9828486 1.0080713 0.978554 0.974426 1.0053927 1.0455396 0.9838461 0.9661183
1.021792 0.9748975 1.0424058 1.0032698 0.9952671 0.982265 0.99008954 0.92743474
1.0308428 1.0116192 1.0125134 1.0238084 0.99783045 0.9936508 1.0196807 1.0690469
1.0746813 0.9775704 1.0232551 1.0062298 1.0383708 0.9645867 0.9767486 0.95272523

features.1.bias f4 [32]
00000000: 07f0 77bb 3e16 8d3c f3a7 9eba fcef cf3c
00000010: adb9 913d 269f 043d 2323 453d c9cc d8bb
00000020: 3e48 213d 132e 6fbc 5f06 f73c 2499 9d3d
00000030: ba94 023d e3db 303d 123d 943d 4ea3 75bd
00000040: d905 b93d f142 0b3d 24ce 243d ec82 6c3d
00000050: 4b4f 3b3d b17d 243d 9a3b 51bd 7005 093d
00000060: 8c48 013e 785f 4bbc ed25 793d 3d02 7abc
00000070: 4691 e93c bbd9 68bb 0995 9fbc 4605 04b9
-0.0037832276 0.01722252 -0.0012104496 0.025382988 0.07115493 0.03237834 0.048129212 -0.006616209
0.039375536 -0.014598387 0.030154405 0.07695225 0.031880118 0.04317845 0.07238211 -0.059970193
0.090343185 0.033999387 0.040235654 0.057742044 0.045729917 0.04015893 -0.05108223 0.03345245
0.1262533 -0.012412898 0.060827184 -0.015259323 0.028511655 -0.0035530168 -0.019480245 -0.00012590465

features.1.running_mean f4 [32]
00000000: d343 95bc 490d 973c 8b08 c7bc 696c 0f3d
00000010: 0dd9 5c3d 5fd7 f3bc 9b85 b43c 82f7 a13d
00000020: 8213 093c 2fc8 0bbd 7c1a c13d 2e05 513d
00000030: 21e2 8a3a 96d8 3e3d 1823 b2bd 457d cc3c
00000040: 0f29 bdbc 69aa c9bc 080f 283d e4a0 86bd
00000050: 22fb d83b 2507 be3d 421f 9e3d 0de6 b5bd
00000060: 5346 8c3c bf2d c6bd 9728 5dbb 6a67 253b
00000070: 8b88 d73d c768 6ebc 7fe3 3e3d 7280 dfbd
-0.018220818 0.018438952 -0.024296066 0.035015497 0.053917933 -0.029765783 0.022036364 0.079085365
0.008366467 -0.034126457 0.094288796 0.05103033 0.0010595956 0.04659327 -0.086981 0.024962077
-0.023090867 -0.02461739 0.04102996 -0.06573656 0.0066217342 0.092787065 0.07720806 -0.08881769
0.017123377 -0.09676694 -0.0033746117 0.0025238642 0.105240904 -0.014551348 0.046603676 -0.10913171

features.1.running_var f4 [32]
00000000: 5adc 3a3f faba 963e 650c e23e 8b30 363f
00000010: ee2e 553e 6825 fa3f 6714 0d3f a894 073f
00000020: 0861 8f3f 9ac6 d33e f17b 7f3f 9de7 b73e
00000030: 2fe1 be3e 11bc 233f 57a8 9a3f 5684 483f
00000040: 578d 453f fe36 2c3f 0ddf 193f a213 0d3f
00000050: 9922 593e 161c 603f f5cf 2a3f 3629 403f
00000060: 3f25 273f 03b0 db3e 8358 bf3e 0170 553f
00000070: 31c5 973f 0e35 593f d148 5a3f 0115 e03e
0.7299248 0.29439527 0.4415008 0.7116782 0.20818684 1.9542665 0.55109257 0.52961206
1.1201487 0.41362458 0.99798495 0.35918894 0.37281176 0.6395884 1.2082623 0.7832693
0.7716879 0.6727141 0.60105973 0.5510808 0.21204604 0.87542856 0.6672357 0.7506288
0.6529121 0.42907724 0.37372217 0.8337403 1.1857053 0.8484658 0.8526736 0.43766025

features.4.weight f4 [64, 32, 5]
00000000: d83b 99bd 26f6 f6bc 0c6b 10bc f4b1 363c
00000010: 2a78 913c 85b8 833d 053e 25bd 894f a83c
00000020: 73a5 883d c369 8e3d 79a8 853d b9d5 f8bc
00000030: 01d8 343c 33be 003d cfbd b3bd 8155 75bc
00000040: 201a 43b9 1a89 a73d 6ce1 9cbd 358c 46bd
00000050: 4232 80bd 3132 403c 2599 a73c fdfb 73bd
00000060: 752a 0c3d 7332 8d3b c3c3 bb3d dd61 72bd
00000070: dbd2 293d b7f2 d43c a4c4 9fbd e50a 8cbd
00000080: 65d4 22bc cd39 9abd 5456 eebc 1189 843d
00000090: a741 39bd 0705 ef3c c13c 21bd cdbe b73b
000000a0: e677 bdbd 8225 0c3d 50be 56bd 66d6 86bd
000000b0: 281d 84bd d547 c63b 324f 3fbd 611b 033d
000000c0: 05f1 be3c 9890 a6bd b25c 83bd 63e8 a53c
000000d0: 6348 b33d 5243 cb3d 6a8f 93bc 45b9 f7bc
000000e0: d1da 14bc 6291 55bd 81d9 76bd 80d3 753b
000000f0: 4b24 a5bc f303 2cbd f5d8 adbc fd5a 6c3d
00000100: ac70 163d 2bfa bfbd 9564 aebb c8de 88bd
00000110: 85cc 29bd 5384 c9bd e844 323b 79ba 4a3b
00000120: 5e42 5f3c 6154 973c 32d0 dd3c 2b0d b63d
00000130: b4b8 e7bb 4091 89bd 090e b6bc 14ee 3ebd
00000140: 43e2 be3c ff3e 31bd 6ed1 35bd 2be8 b43c
00000150: 086d 6fbd a17f 183d 1ece 5a3b db74 f13c
00000160: 2f3b 843d d928 953c bbcb e03c 57ab 91bd
00000170: a558 3bbd 4bff 26bd 1526 023c bec6 a93d
00000180: 8b58 2fbd c085 763d 7657 0fbd 8424 30bd
00000190: 25a7 f13b 5afe 8abc 5b7f b1bd be36 233d
000001a0: 6cae 55bd 0027 bfbd 4e72 ee3c adaf 303b
000001b0: 747f d2bd 4f82 a5bd d72b 09bd 4afd 4abb
000001c0: 76de 83bd 309f 73bd 94ae 173d 6c1e 863c
000001d0: cbba e33c 80f7 6e3d 3896 533d 90ea 9fbd
000001e0: 3dd1 3cbd 459a 84bd 3a03 40b9 e41f b5bc
000001f0: 949a 7e3d bb36 123d dd1b 1eba 50e3 ed3c
00000200: e268 7f3c 6bdb 0cbd 1703 79bd cfac 90bd
00000210: c475 cf3d b890 c83d d902 3bbb 0a80 9a3c
00000220: 914a edbc 5e9c c3bc 4703 8e3c 0a80 c1bc
00000230: 29ea bd3d 7015 34bc d563 1f3d 280a 51bd
00000240: 16ad 8bbd 80ed 6c3d 636b 6a3d f8d8 49bb
00000250: 1e97 eebc 8bb2 88bc 9c81 1d3d 160d ab3c
00000260: eb60 233d c7cb b9bd f2ed b33c eef1 5cbd
00000270: 1356 123d ef0e ca3c b3dc c0bc 23db bcbc
00000280: 0bed a13c 3b6e 85bd 89e8 d4bb 32dc 9a3c
00000290: 3c38 083d 7f7c abbd c033 913d 2af6 88bc
000002a0: b6aa 14bd 1311 123d 19c6 9bbd 96d2 883d
000002b0: fe18 a1bd 6b2f 713c 9841 6a3d 4326 c8ba
000002c0: 2b42 743d bdc5 843d 0817 26bd bee4 893d
000002d0: 52a7 03bd 9f92 923d f38a 933d 6928 67bd
000002e0: fbdd 54bd a4f8 b6bd c397 d7bd a09e debc
000002f0: f4b0 a33c 1c34 8e3d f197 cb3d 45a4 bc3d
00000300: bc5b 2ebd 1b9c 0ebd 649d 123c 69a6 8d3c
00000310: ce04 073d c530 a93d d49a 65bc 18af 933c
00000320: 1cb6 2cbb 7640 393c 123c 913d 5a6e 0cbc
00000330: 3be0 5cbd 2971 5f3c 9c2e 6fbd 4658 0d3d
00000340: 82ae b5bd 914f dcbc a871 e53a 416f 82bc
00000350: 6058 42bd 5708 9f3c a66e bb3d f18b ba3c
00000360: f989 3d3d cc70 94bc 32e0 14bd 3e7f a23b
00000370: ccbc 52bd fb17 29bc d3fb 1dbd 4c79 4a3d
00000380: 0700 31bd eb6b 8ebd f898 9c3d cfa6 c7ba
00000390: 3a14 b4bd 9ce6 48bb fae3 6bbd bffd 84bd
000003a0: d3a5 153d 36fd b7bd 07ad 9bbc 36a2 883d
000003b0: b13a 43bc c3b2 c03d acbd 543d 92ac 86bc
000003c0: 845d 3a3d d135 8dbc d120 45bd dd8d f03c
000003d0: ff99 5b3c 24e2 5cbd 6109 0c3d 33a3 af3d
000003e0: 09d7 d2bc 7d59 9bbc 5985 30bd 0920 013d
000003f0: 155e 25bd 47a6 0ebd 699b 4bbd ef1a e53d
-0.074821174 -0.03014667 -0.008814584 0.011150826 0.017757494 0.06431679 -0.04034235 0.020545738
0.06672182 0.06953766 0.06526274 -0.030375348 0.0110378275 0.031431388 -0.087764375 -0.014973999
-0.00018606381 0.08180447 -0.07660183 -0.048473556 -0.06259586 0.011730717 0.020458767 -0.059566487
0.034220178 0.0043089925 0.09168198 -0.05917536 0.041460853 0.025994642 -0.07801178 -0.068380155
-0.009938334 -0.07530556 -0.029093899 0.06471456 -0.045228627 0.029177202 -0.03936458 0.005607462
-0.092513844 0.034215458 -0.05242759 -0.06583862 -0.064508736 0.0060510435 -0.046706386 0.032008532
0.023308286 -0.08133048 -0.064141646 0.020252412 0.08754041 0.0992495 -0.018012721 -0.03023971
-0.009085373 -0.0521406 -0.06026602 0.0037510097 -0.020158907 -0.041995954 -0.021221617 0.05770396
0.036728546 -0.09373888 -0.005322049 -0.06683117 -0.04145481 -0.09839692 0.0027201716 0.00309339
0.013626663 0.018472852 0.027076814 0.0888923 -0.007071579 -0.06717157 -0.02222349 -0.046613768
0.02330125 -0.04327297 -0.04438918 0.022083363 -0.05845359 0.03723109 0.0033387016 0.029474666
0.06456601 0.018207954 0.027440896 -0.071127586 -0.045738835 -0.04077081 0.00794365 0.0828986
-0.04280905 0.060186148 -0.03499552 -0.043003574 0.0073746615 -0.016966987 -0.08666869 0.039847128
-0.052168295 -0.093336105 0.02910724 0.002696018 -0.10278216 -0.08081495 -0.033489075 -0.0030973726
-0.064389154 -0.059477985 0.037031725 0.016371928 0.02779903 0.058341503 0.05165693 -0.07808411
-0.046097983 -0.06474737 -0.00018311749 -0.022109933 0.062159136 0.035696726 -0.00060313736 0.029039055
0.015588971 -0.03438894 -0.060793962 -0.070642106 0.10129884 0.09793228 -0.0028535633 0.018859882
-0.02896622 -0.023878273 0.017335547 -0.023620624 0.09273178 -0.010991439 0.038913567 -0.051035076
-0.06820123 0.057843685 0.05723132 -0.003079949 -0.029124793 -0.016686698 0.038453683 0.020880263
0.03988735 -0.090720706 0.021964047 -0.05394166 0.035726618 0.024665324 -0.023542738 -0.023053711
0.019766351 -0.065151654 -0.006497447 0.018903825 0.033256754 -0.08373355 0.07089949 -0.016718943
-0.036295615 0.035660814 -0.076061435 0.06680791 -0.07866095 0.014720778 0.05719146 -0.0015270192
0.059633415 0.06483028 -0.040549308 0.06733082 -0.03214199 0.07156872 0.07204237 -0.056435023
-0.05196951 -0.08934143 -0.10526993 -0.027175248 0.019981839 0.06943533 0.0994109 0.092110194
-0.042567953 -0.034816843 0.008948658 0.017291265 0.032963566 0.08261255 -0.014013965 0.018027827
-0.0026353663 0.011306873 0.07091536 -0.008571232 -0.05392478 0.013637819 -0.05839406 0.034508012
-0.08871175 -0.026893409 0.0017505186 -0.01592219 -0.047447562 0.019413156 0.09151964 0.022771807
0.04627416 -0.018120192 -0.03634662 0.004959016 -0.051449582 -0.010320659 -0.038570236 0.049432084
-0.043212917 -0.069541775 0.07646364 -0.0015232208 -0.087929204 -0.0030655032 -0.057590462 -0.06493711
0.036535095 -0.08983843 -0.019003404 0.06671564 -0.011915849 0.09409096 0.051938698 -0.01643971
0.04549934 -0.017237576 -0.048127 0.02936452 0.013403415 -0.053926602 0.034188632 0.0857605
-0.025737302 -0.01896357 -0.04309592 0.03152469 -0.040372927 -0.034826543 -0.049708758 0.11186778

features.4.bias f4 [64]
00000000: 1ae0 57bd 6819 aa3d fb1b a2bd b350 72bd
00000010: e3a9 b4bc cc55 c63d 66ea 14bd a331 1d3d
00000020: 2152 703d c94b b3bc e0ac 55bd 0a84 cebc
00000030: 1e6b c2bb bb17 813c 5348 843c 0465 3abd
00000040: 1c35 113d d582 8fbd a152 99bd 0329 5dbd
00000050: d88c d33c 0c0f b8bb 5a18 913d a5c3 70bd
00000060: 1521 08bd 41ef 3fbd 1629 1c3d 7644 9bbc
00000070: 05a1 3dbd c4fa b23c 7761 b83d 4e99 cb3c
00000080: 4a52 61bd 80e1 723d b14b 903c 4faf fcbb
00000090: 5c5b 243c 5b5f 8d3d 6c32 ddbc cd16 873d
000000a0: 0af3 483d 0b6a 77bc c6bb 2bbd 29d3 283d
000000b0: 3a90 64bd 7a74 723d 7667 81bd 4a7f 22bd
000000c0: b442 95bd c475 8abd 1b73 67bd 8e26 7a3d
000000d0: cc06 7d3d 0e84 5139 a6c7 90bb e7f7 ab3d
000000e0: f55c 373d 9d0e ae3d 6dc9 67bc 35c8 24bd
000000f0: 0778 9bbc 88c6 4a3d a408 8a3c c283 7d3d
-0.052703954 0.08305627 -0.07915493 -0.059158992 -0.022053665 0.09684333 -0.036356352 0.038377415
0.058672074 -0.021886723 -0.05216682 -0.025209446 -0.0059331795 0.015758386 0.016147768 -0.045506492
0.03545104 -0.07007376 -0.07486463 -0.05399419 0.025823995 -0.005617028 0.07084723 -0.05878033
-0.033234674 -0.04685903 0.03812512 -0.018953543 -0.04629614 0.02184809 0.09002965 0.024853375
-0.055010118 0.059297085 0.017614217 -0.007711328 0.010031547 0.06902953 -0.027001582 0.06596146
0.049059905 -0.015100966 -0.04192712 0.041217003 -0.055801608 0.059193112 -0.06318562 -0.039672174
-0.07288113 -0.06760743 -0.056506258 0.061071925 0.06177406 0.00019980987 -0.004418331 0.08396893
0.044766385 0.08498881 -0.014147145 -0.040229995 -0.018978132 0.04950574 0.016849823 0.061893232

features.5.weight f4 [64]
00000000: 406c 833f 437c 7c3f ecef 823f 81b6 743f
00000010: 89a6 853f 604b 863f 1368 7c3f 8724 763f
00000020: 358c 7d3f 5b85 7c3f d29e 853f 6b4f 823f
00000030: 4379 763f b390 773f ef97 863f 591d 6c3f
00000040: 007e 7b3f ad27 783f 9de2 7c3f d700 813f
00000050: 7ece 793f c142 8d3f dd41 713f 42ec 813f
00000060: 9fac 823f 70bf 7b3f 94d6 733f acdc 833f
00000070: 5895 873f d21b 693f 29b3 873f a319 883f
00000080: 8979 823f 2ceb 733f f844 7f3f c333 603f
00000090: e703 7a3f b811 783f 58d7 7d3f c06d 7d3f
000000a0: 5e82 833f d432 823f 4a6d 7e3f 6bcf 833f
000000b0: e539 833f 47c4 773f a81f 893f 9320 7a3f
000000c0: 64e1 843f 9498 803f f5f9 803f 503e 833f
000000d0: cbc8 7a3f 40fd 6e3f 9618 763f fb58 7c3f
000000e0: ef07 813f af26 7d3f 53de 873f d4e2 6e3f
000000f0: 472a 8c3f 389d 813f 6f01 703f 1d2f 803f
1.026741 0.9862711 1.0229468 0.9559098 1.0441447 1.0491753 0.98596305 0.96149486
0.99042064 0.98640984 1.0439093 1.0180486 0.9627878 0.9670517 1.0515116 0.9223228
0.98239136 0.9693554 0.98783284 1.0078381 0.9758071 1.1035997 0.94241124 1.0150225
1.020893 0.98338985 0.95249295 1.0301719 1.0592451 0.91058075 1.060155 1.0632824
1.019334 0.9528072 0.9971461 0.8757898 0.97662205 0.96902037 0.99156713 0.9899559
1.027416 1.0171762 0.9938551 1.0297674 1.0252043 0.9678387 1.0712786 0.97705954
1.0381284 1.0046563 1.0076281 1.0253391 0.97962636 0.9335518 0.96131265 0.98573273
1.0080546 0.9888715 1.0614723 0.9331486 1.0950402 1.0126104 0.9375219 1.0014378

features.5.bias f4 [64]
00000000: 0275 8d3b 0bd9 b3bc e6bb 49bb 4cc7 a0bd
00000010: 4bbc 723c d1a6 eabc ed39 2cbd 57ca 9dbd
00000020: aaa8 38bc 8818 883b e66f 483c 1a5d 03bc
00000030: 2ea4 e8bd 0a36 b5bc 140f 59bd 5180 44bd
00000040: 7701 a2bc dea5 64bd c66e 1ebd 12b7 47bc
00000050: fa44 1ab9 8e6d b9bc d6ca a4bd b1f7 e5bc
00000060: fe7c 223d b628 ddbc 514f 98bd 1e75 823c
00000070: d06a 5e3c 952a 49bd 84a3 6e3c e287 573d
00000080: a001 abbc b900 28bd e265 a2bb dcbd a7bd
00000090: 3c98 93bc 8dde 66bd 8538 0fbd 1fa7 d8bb
000000a0: 87f6 073d 8e15 25bd 804d a0bc 1fac 963c
000000b0: 1289 a53b 0a0e 1fbd e79e f53c eaec aebc
000000c0: 4b48 ea3c 154c b5bc 955f 95b9 678d ca3b
000000d0: 9a80 e13b 233d 09bd 1747 90bc 566d 41bb
000000e0: 8af3 bf3c 4752 90bc 0c3d 533d 9720 0bbd
000000f0: 6d30 b9bd 0e47 60bc e556 97bc b84b 8cbc
0.004316927 -0.02195408 -0.0030782162 -0.07850513 0.0148154 -0.028643997 -0.04204743 -0.07704609
-0.011270681 0.004153315 0.01223371 -0.008017803 -0.1135944 -0.022120494 -0.052992895 -0.047973935
-0.01977609 -0.055822246 -0.03867986 -0.012189643 -0.0001471228 -0.022635248 -0.080465004 -0.02807221
0.039669983 -0.026996952 -0.074370034 0.015924986 0.013575271 -0.049112875 0.014565352 0.052619822
-0.020874798 -0.041016314 -0.004955993 -0.0819051 -0.018016927 -0.056364585 -0.03496601 -0.0066117193
0.03319409 -0.04030376 -0.019568205 0.01839262 0.0050517404 -0.038831748 0.029982997 -0.021353204
0.028598925 -0.022131005 -0.0002849071 0.0061814073 0.0068817856 -0.03350557 -0.017612023 -0.0029514632
0.023431558 -0.017617358 0.05157189 -0.033966627 -0.090424396 -0.013688816 -0.018474052 -0.01712595

features.5.running_mean f4 [64]
00000000: 6063 f4be dc46 1f3d 8050 58be 13a3 103f
00000010: 0501 bfbe 8d73 82be ee71 a1be 9038 ed3e
00000020: e197 cdbe 1cfa 1fbe 1bf2 5fbf c170 13bf
00000030: db6f 373f 3e2d 02bd 8fe0 903d e0de 8a3d
00000040: 906e 603d 41af 05bf d74d afbe 243f 07bf
00000050: 9cf6 1dbe a7e3 10be 9577 c93e e36d 7e3e
00000060: 3880 aebe cd01 6fbe 42f1 aa3e c415 d6be
00000070: 62a0 f5be 4b0b 403f 7483 c9be d7a5 02bf
00000080: a763 dbbe 97fc 043f f46f c0be 2aad 733f
00000090: 38bd 65be c74f 913f fd37 1fbe e648 cfbe
000000a0: a807 78be 14db 8dbd 472b f7bd e1ba aebe
000000b0: 63bc ccbe 7580 8abe fab0 47bf 9fa4 b13d
000000c0: 1ea8 aabe 33e4 0bbf 1727 dbbe 1a7a e13c
000000d0: e33c a3be 8561 e03c f01f d33e 3d57 77be
000000e0: 3636 b3be 69cb d1bc f2e5 0ebe ae86 b1be
000000f0: e852 9dbe 1c0d dabc fee2 283d 1cd0 443f
-0.47732067 0.038885936 -0.21124458 0.5649883 -0.37305465 -0.25478783 -0.31532234 0.46332216
-0.40154937 -0.15622753 -0.874788 -0.57593924 0.7165505 -0.031781428 0.07074081 0.06780791
0.05479294 -0.5222054 -0.34239075 -0.5283072 -0.15426105 -0.14149342 0.39349046 0.24846606
-0.34082198 -0.2334053 0.3338719 -0.4181348 -0.47973925 0.7501723 -0.39358103 -0.510343
-0.42849466 0.5194792 -0.37585413 0.951861 -0.22435462 1.1352471 -0.15548702 -0.40485305
-0.2422167 -0.069265515 -0.120688014 -0.34126952 -0.39987478 -0.2705113 -0.7800442 0.08673977
-0.33331388 -0.5464508 -0.4280326 0.027524043 -0.3188239 0.027390251 0.41235304 -0.24154373
-0.35002297 -0.025609689 -0.13954905 -0.34673065 -0.30727315 -0.02661758 0.0412321 0.7688005

features.5.running_var f4 [64]
00000000: 9f2e ff3e 93a7 e93e ce2f 933e c990 0e3f
00000010: 7139 d23e 254c a53e 70db ae3e 5db3 5b3f
00000020: 22c6 f43e 103e fa3e 5663 203f 3238 013f
00000030: eb41 6c3f 4cd5 a63e cd20 db3e b236 c13e
00000040: ecd1 0a3f 5075 523f 3d7d 4d3e 2dda 453f
00000050: 9bf7 8a3e 33ee 853e 57b9 113f bb73 183f
00000060: cc9c 973e 5cb8 3f3f 8c0e 2b3f 56da ac3e
00000070: 3350 ba3e 2aa6 733f a939 063f d43d 783e
00000080: 154e 5b3e 8ffb 8f3f cf93 903e e90e 6d3f
00000090: a22c bc3e 0cec 4a3f 99bc 693e 8dd6 963f
000000a0: ac29 c63e 3334 d83e 7a03 703e 4eb6 333f
000000b0: da1f 2c3f 9347 bb3e 3926 bd3e 697b b73e
000000c0: b81a b73e 7c9f 1a3f 8625 163f 4492 dc3e
000000d0: b5d4 623f eb8a c73e 42e5 363f 4ea6 e13e
000000e0: d0dd 873e fa0d 573e f99d 633e cb1a d33e
000000f0: 8a0a 733e 0ce2 9e3e 3e79 a53e 62c9 aa3e
0.49840257 0.4563566 0.2874741 0.55689675 0.4105945 0.32284656 0.34151793 0.8582056
0.47807413 0.48875475 0.62651575 0.5047637 0.9228808 0.32584608 0.42798463 0.37737042
0.54226565 0.82210255 0.20067306 0.77286035 0.27142033 0.26158294 0.5692343 0.5955159
0.29611814 0.74890685 0.6681907 0.33760327 0.36389312 0.9517542 0.5243173 0.24242336
0.21416505 1.1248645 0.2823777 0.92600876 0.36752802 0.7926643 0.2282585 1.1784226
0.38703668 0.42227325 0.23438826 0.7020005 0.672361 0.36578044 0.36943224 0.35836342
0.35762572 0.60399604 0.58651006 0.43080342 0.88605815 0.38973173 0.7144357 0.44072193
0.26536417 0.21001425 0.2222823 0.4123138 0.23734489 0.31031835 0.32319063 0.33356768

features.8.weight f4 [128, 64, 5]
00000000: ddf9 173d 5f00 a3bc 965a 183d 83b7 f13c
00000010: d169 13bd 7deb a23c 70cf 6d3d 648c 5dbd
00000020: fc82 bebb 11fd 36bd 4fc0 8abd ada9 0cbc
00000030: 54e7 f33b 5f90 063d 6c9f 7dbd 41b4 3a3d
00000040: 8aa9 3d3d 6a22 fb3c 552f e5bb 16c9 6cbd
00000050: d346 80bd 9597 373c 20ec 653b 71ee 0abd
00000060: 9e20 b23d c497 0bbd afa0 3bbd f048 b0bb
00000070: 359d 5ebd 1d96 86bd 2a73 20bd 81c7 273c
00000080: 6e26 653d 832f 4a3d 7467 7c3c 70a7 533d
00000090: bed0 b73b 2917 0c3d 01ec 883b d507 0bbd
000000a0: 3c85 f6bb 6bcc ff3c 49fd c63c 1d2f 0b3b
000000b0: acc2 133d 40a3 b6bc ea76 e83b 403b 5fbd
000000c0: 38e6 b4bc e58d b1b8 2c16 b4bd eb69 c7bc
000000d0: 4046 85bd 6330 d23b f9fc a53d d093 42ba
000000e0: c2dd 743d d979 2b3c 9b15 d23c 28b6 52bd
000000f0: 6fd4 943c b425 3abc 3516 49bd ddb6 a4bd
00000100: 37d6 53bd 0ebd 02bc 6d9a c73c b2c9 c0bd
00000110: 5a07 22bd 55cf bfbc 2a40 3dbd 9520 8cbd
00000120: e914 173c 5711 473c 1fbd 2bba 9420 f03c
00000130: 490f bebc 0861 883d 6f2e 5d3d 8b24 41bd
00000140: fa2d 2cbd 4b3d 1d3b 3cfb 49bd fc68 153d
00000150: 974f 95bd c0e0 0b3d cd35 ae3b 287a 143d
00000160: 784d d4bd 9eba 02be b179 943a 4b48 743c
00000170: 84f6 c3bc 8e4e 24bd 04da fabc c29c 5339
00000180: 0395 963d 00e6 a0bb c32a ccbc e01c 09bd
00000190: 9be8 61bb 4e9c 2cbc 8319 2cbd 60ee ad3c
000001a0: 25e4 693c 7d21 2dbd 524b 3abd 43b8 8cbd
000001b0: 5d8d acbd 2ab3 6f3d 8275 883c ba61 1a3d
000001c0: a39c 583d df2f 53bd 7b3e d2bd 2f4b e139
000001d0: 9d3e 213c 03f9 0d3d 197e 583d a045 a9bc
000001e0: 36c0 133d 87a9 10bd 55fc b83c 00b0 403c
000001f0: 803a 11bc cc80 373d 0e80 283d b8e4 3ebd
00000200: 716d 10bd 9f1f 96bd 9980 ac3c a9d1 583d
00000210: dabd e93c 2450 233d 2960 0bbd 1211 4abd
00000220: 06fa d2bd d172 55bd 745a 653d bdb0 a33d
00000230: 4435 163d 4e59 05bc 012d e33d 60ee a13d
00000240: 1da4 eebc 99ed ee3c 3bed 3a3d 049c 3f3c
00000250: 7276 aa3c 1d42 263d c119 5dbd 6933 dcbc
00000260: ae76 febc 1d49 aa3d 5c2c fd3d 63bf c5bb
00000270: 9bb7 a6bc 1cc3 07bd a527 12bd b767 7c3d
00000280: 37bc 88bc 2e4b 6dbc 6a85 c2bc 3700 b4bc
00000290: d363 c83c 3d67 383d 99bf 25bd ae26 ec3b
000002a0: 1fc3 d33a 894f dabb 4ee5 c4bc 8359 9b3c
000002b0: 6142 9bbc 83cb 88bb 46dd 123a 7efb 403c
000002c0: 2ecb de3b 08fc 9abc 5570 49bc a537 543c
000002d0: f3ef 69bc 16e9 bfbc 5ac3 3fbd b28c 44bd
000002e0: 7421 0abd 37ea 1a3d 3ae7 953b 8c6e daba
000002f0: 3828 89bd 7f08 95bb 9c63 82bc c62e 02bd
00000300: 16d2 593d b60f 203d e4b2 113c bd0f 0d3d
00000310: 10a9 2c3d 98cd 7e3d 6856 8dba a268 72bd
00000320: aa6b c23c af74 c83b 8e70 073d 51d1 fa3c
00000330: f6c6 8bbb fb08 25bd e131 dcbc f7ee 9ebb
00000340: 37ab 0bbd bf6d 183d 957f 6a3d 4b15 edbc
00000350: ecd4 5fbc 6072 e73c 560a d33c f90d 00bd
00000360: b861 813d 4083 1dbd e455 0cbd b6ea e3bd
00000370: 98d5 6e3d 1462 f53b 417b b8bc 1f91 c6bb
00000380: a617 b2bd f567 753c 3abe 07bd 40d4 5b3c
00000390: d7ba 073d 4f63 63bc 22ac a0bd 1def efbd
000003a0: 1608 57bd 0ff4 df3c 3ea4 cf3d 0497 2ebd
000003b0: 5a45 8a3d 0182 11bc 693b dcbb e490 04bd
000003c0: 43a8 473d 2fe1 edbc 05cf 0439 9f96 643d
000003d0: 4b53 1bbd 5617 b9bb 2751 f23c b785 163d
000003e0: 2f37 6b3d d017 90bd 9dc7 053d 6c85 4cbc
000003f0: d6a0 f23b 33de 0dbc ec15 acbc 0520 8e3c
0.037103523 -0.019897638 0.037195764 0.02950645 -0.035989586 0.01988768 0.058059156 -0.054088965
-0.0058139544 -0.044674937 -0.06774961 -0.008585376 0.007443348 0.032852527 -0.061919615 0.04558206
0.046304263 0.030656058 -0.006994168 -0.057808958 -0.06263509 0.011205574 0.0035083368 -0.0339188
0.086976275 -0.03408028 -0.045807537 -0.0053797886 -0.054349143 -0.065716006 -0.03917233 0.0102404365
0.055944853 0.049361717 0.0154055245 0.051673353 0.005609601 0.034201775 0.0041785245 -0.033943016
-0.007523207 0.031225404 0.024290698 0.0021237799 0.036074325 -0.02229464 0.007094254 -0.054499865
-0.022082433 -8.4664476e-05 -0.087932914 -0.024342498 -0.0650754 0.0064144596 0.08104891 -0.00074225385
0.059781797 0.010466062 0.025645068 -0.05144325 0.018167702 -0.011361528 -0.049093444 -0.08042691
-0.051717963 -0.007979644 0.024365628 -0.0941347 -0.039557792 -0.023414293 -0.04620377 -0.06842152
0.009221294 0.01215013 -0.00065513136 0.02931241 -0.023200648 0.06659132 0.05399936 -0.04715399
-0.042036034 0.0023992832 -0.04931186 0.036477074 -0.07290571 0.034149885 0.005316472 0.03624931
-0.103663385 -0.12766501 0.0011327771 0.014909814 -0.023921259 -0.040113978 -0.030621536 0.00020180925
0.073526405 -0.0049102306 -0.024922734 -0.033474803 -0.003447092 -0.010535313 -0.042016517 0.02123183
0.014275585 -0.042268265 -0.045481987 -0.06871083 -0.084254004 0.058520474 0.016657595 0.037690856
0.052883755 -0.051559325 -0.102658235 0.0004297136 0.009841588 0.034661304 0.05285463 -0.020663083
0.03607198 -0.035317924 0.022581259 0.011760712 -0.008864045 0.044800565 0.041137747 -0.046604842
-0.03526062 -0.0733025 0.021057414 0.052934323 0.028532911 0.03987135 -0.034027252 -0.049332686
-0.103015944 -0.05211145 0.055994466 0.079926945 0.03667189 -0.008138968 0.11092568 0.079067945
-0.02913099 0.02916603 0.045636397 0.011694912 0.020808432 0.040590394 -0.05397964 -0.026879983
-0.03106245 0.083147265 0.123619765 -0.006034778 -0.020351222 -0.033145055 -0.03568234 0.061622348
-0.01669131 -0.014483256 -0.023745257 -0.021972759 0.024461662 0.04502033 -0.040465925 0.0072067594
0.0016156173 -0.0066623134 -0.024035122 0.018963581 -0.01895255 -0.004174651 0.00056024303 0.01177871
0.0067991232 -0.018919006 -0.012294848 0.01295272 -0.0142784 -0.023426574 -0.04681716 -0.04798574
-0.03372331 0.03782102 0.0045746835 -0.0016665026 -0.06697124 -0.004548132 -0.015916638 -0.031782888
0.05317887 0.039077483 0.0088927485 0.034438837 0.042153418 0.06220779 -0.0010783197 -0.059181817
0.023732979 0.0061174254 0.033066325 0.030617388 -0.0042656614 -0.040291768 -0.026879253 -0.004850264
-0.03409883 0.037214037 0.057250578 -0.028940817 -0.013661604 0.02825278 0.025761764 -0.031263325
0.063174665 -0.038455248 -0.0342616 -0.11128752 0.058309168 0.0074884985 -0.02251971 -0.0060597803
-0.08695917 0.014978399 -0.0331404 0.013417304 0.03313717 -0.0138786575 -0.07845332 -0.11715529
-0.052497946 0.027338056 0.101387486 -0.04262449 0.06751509 -0.008881093 -0.0067209494 -0.03236474
0.04874445 -0.02903804 0.00012665622 0.055807706 -0.03792123 -0.005648534 0.029579712 0.036748614
0.057425674 -0.07035792 0.03266107 -0.012482982 0.007404427 -0.008658933 -0.021006547 0.017349252

features.8.bias f4 [128]
00000000: 4438 6ebc ce48 3a3d e6fd f9bc e7f6 97bb
00000010: 7757 843d bd8e d13c 9116 653d 1a09 c2bc
00000020: c80f 14bd 97a6 e4bc 3789 88bc 22e5 d4bb
00000030: 382d 113c e507 3dbc 9919 bb3c 39c2 90bc
00000040: f627 6f3c ad87 f73b a2fa 72bd 34fb 553d
00000050: a099 273d c38e 753c 0a4d bd3c 1063 1fbd
00000060: 8728 2ebc 63b1 c2bc 6373 f0bc e172 3bbd
00000070: bb9d 3d3d 2457 b6bc 6bb1 1cbd d26d 72bc
00000080: 42e1 7bbc 1d79 4cbd c9d9 7d3d 8442 02bd
00000090: e309 cf3c d602 323d 2089 adbc 9e1b 1abd
000000a0: 7eb6 eebc 293c 19bc 4fd0 423d 1957 99bc
000000b0: a546 333d fc50 133d 45ac 803b 75f6 4dbd
000000c0: e18a dfbc ad2e 083d b534 70bc d86b 0bbd
000000d0: 56a9 3dbd c2d6 853d ba13 df3c a737 b43a
000000e0: f7cd 623d eecb 55bd c02b 48ba 0bc8 25bd
000000f0: 0899 413d b2ee 0a3d c843 f4bc 60d7 bf3c
00000100: cd2b dc3c c67d 5fbc 2de0 a8bc f61c 6bbd
00000110: 60fc 613d 047a 10bd cfd9 bdbc 2392 233d
00000120: 1c14 003d e79d 8abc 34e5 83bd 15e9 0fbd
00000130: 3aed f83c 1fa2 2c3d 0f19 18bd ae8e 80bd
00000140: aae3 4f3d 1938 40bd 5d40 f8bc 239d 0cbd
00000150: 6485 c63b e5ee 803d 51a7 25bd 5bd4 023d
00000160: 5e29 663d 9673 843d e642 143d cc9a 1fbd
00000170: 1d17 49bd 414a 243d 0eab 513d fcf8 1d3d
00000180: 8e71 1e3d d28b e0bb 11e2 c13c 3351 143d
00000190: 9b1d f2bc f7f7 21bd 37dd 273c 17a5 1a3d
000001a0: e512 55bd 43ce 82bb 563a ecbc 7fe9 003d
000001b0: bae5 193d 8732 f4bb 367c 363d df52 25bd
000001c0: 6f01 3abd b1c7 adbc 7dc7 343d a356 15bd
000001d0: 755d 08bd a091 763d 7228 8fbc f4d2 8ebb
000001e0: d148 603c bec1 f4bc 7280 2b3c 0728 90bb
000001f0: 34d7 0c3d 58eb d93b fa0e edbb c397 013c
-0.014539782 0.04547959 -0.030516576 -0.0046375873 0.06461995 0.025580758 0.055929724 -0.02368598
-0.036147863 -0.027911467 -0.016666992 -0.0064970413 0.008860879 -0.011537527 0.022839354 -0.017670738
0.01459693 0.0075540156 -0.059321053 0.05224152 0.040917993 0.01498765 0.023108024 -0.038912833
-0.01062978 -0.023766225 -0.029351896 -0.045763854 0.046293 -0.022258349 -0.038255136 -0.014796691
-0.01537353 -0.04992019 0.061975274 -0.031801715 0.025273269 0.043459736 -0.02118355 -0.037623994
-0.029139753 -0.009352722 0.04756194 -0.01871829 0.043768544 0.035965905 0.003926786 -0.050283868
-0.027287902 0.03324764 -0.014661004 -0.034038395 -0.04630407 0.065351024 0.027231086 0.0013749496
0.055372205 -0.052196436 -0.0007635914 -0.04047398 0.047265083 0.033919044 -0.029817477 0.023418128
0.026876355 -0.013640827 -0.020614708 -0.057400666 0.055172324 -0.035272613 -0.023175148 0.03993429
0.031269178 -0.016920997 -0.064402014 -0.035134394 0.030386556 0.0421468 -0.037133273 -0.06277214
0.050754227 -0.0469285 -0.030304128 -0.034329545 0.006058382 0.062955655 -0.04044277 0.0319408
0.056191795 0.06467359 0.03619661 -0.038965985 -0.04909431 0.040109877 0.05118852 0.038567528
0.038682513 -0.0068526054 0.023667367 0.03621025 -0.029555133 -0.03954312 0.010245613 0.0377551
-0.052019972 -0.0039918735 -0.02883641 0.03147268 0.0375726 -0.0074523124 0.04455205 -0.040362235
-0.045411523 -0.021213384 0.04413556 -0.036459576 -0.033292253 0.060197473 -0.01747534 -0.0043586437
0.013689236 -0.02987754 0.0104676355 -0.004399303 0.03438492 0.0066503696 -0.0072344514 0.007909718

features.9.weight f4 [128]
00000000: 4acc 883f 943c 7e3f 57b9 853f 4ca2 813f
00000010: ab32 863f db52 833f f021 7c3f c7be 823f
00000020: 5358 7a3f 7f37 813f 533d 803f c8d3 803f
00000030: 5202 6b3f b7dc 7f3f b79f 843f 46e9 763f
00000040: e9c5 6d3f af41 733f d7b4 7b3f 4ef9 743f
00000050: b3ad 753f 28ed 783f c85d 753f 21de 7f3f
00000060: fea5 7f3f 4fc7 7b3f 16bd 843f aae6 753f
00000070: 4bcc 713f 4e30 703f c404 793f e35b 803f
00000080: 7b06 843f 8289 6e3f b939 803f e622 773f
00000090: 9a18 823f 6ddc 6c3f 15ad 8a3f 1232 803f
000000a0: bac9 7c3f 11e0 723f f803 833f 5a57 713f
000000b0: 38c1 763f 9e57 7b3f 52c0 893f 1909 833f
000000c0: 56a4 833f 8918 783f a607 783f 83ef 7d3f
000000d0: 3228 6a3f ccb2 813f 5794 733f d6dc 7a3f
000000e0: a114 823f 82a6 813f 3a94 743f dcd6 763f
000000f0: 93aa 723f c463 7d3f d2e2 6f3f feca 803f
00000100: ed07 6d3f 64ac 7a3f 8328 893f 6be4 7f3f
00000110: c414 833f 47c3 843f 37ec 813f 504f 7a3f
00000120: 75e2 7c3f 01a0 833f ae33 813f 540a 703f
00000130: d7b4 713f f8d4 743f 9c14 813f e80e 803f
00000140: 5421 833f 5263 7d3f b3a6 7a3f 5ecf 813f
00000150: e636 733f 9cbc 703f c623 743f 23e5 703f
00000160: b3cf 773f 1d26 7d3f 3965 813f 4518 803f
00000170: 9fc9 803f 620f 873f e3b6 6f3f a7d8 7e3f
00000180: 864c 7d3f 1381 733f 1c52 7f3f 2141 813f
00000190: 1c34 823f a23b 643f f860 7b3f 33eb 6a3f
000001a0: 0e71 7f3f 09f9 7b3f 1d27 7c3f 4e02 813f
000001b0: 2cdd 7b3f a957 8b3f 4e45 8d3f 6de7 723f
000001c0: e2e0 6e3f 2e16 843f 54ee 813f f318 8c3f
000001d0: 4979 813f 88d4 753f fedc 763f 218b 773f
000001e0: 2dc6 813f ba73 813f b5de 7b3f 02c5 683f
000001f0: 3420 793f 9e18 753f 85f8 6f3f dde8 6d3f
1.0687344 0.99311185 1.0447186 1.0127654 1.0484213 1.025966 0.98489285 1.0214471
0.9779102 1.0095061 1.0018715 1.006463 0.91800416 0.9994616 1.0361241 0.96449697
0.9288011 0.950221 0.98322815 0.9569291 0.9596817 0.9723687 0.95846224 0.99948317
0.9986266 0.98350996 1.0370204 0.9605509 0.9445235 0.9382371 0.97272897 1.0028042
1.0314478 0.9317857 1.0017616 0.96537626 1.0163758 0.92523843 1.083407 1.001528
0.9874531 0.9487315 1.0235586 0.9427391 0.9638858 0.9818057 1.0761817 1.0237151
1.0284526 0.9691244 0.9688667 0.9919359 0.91467583 1.013269 0.95148224 0.9799322
1.0162545 1.0128939 0.95538676 0.964216 0.94791526 0.98980355 0.93705475 1.0061948
0.9259022 0.979193 1.0715488 0.99957913 1.0240712 1.0372094 1.0150212 0.9777727
0.98783046 1.0283204 1.0093896 0.9376576 0.94416565 0.95637465 1.0084414 1.0004549
1.0244546 0.98979676 0.9791061 1.0141408 0.95005643 0.94037795 0.95367086 0.94099635
0.968013 0.9888628 1.0109016 1.0007406 1.006153 1.055157 0.9363844 0.99549335
0.9894489 0.95118827 0.99734664 1.0098001 1.0172153 0.8915349 0.9819484 0.91765136
0.9978188 0.9842687 0.9849718 1.0078828 0.98384356 1.0886127 1.1036775 0.9488438
0.93311894 1.0319269 1.0150857 1.0945114 1.0115138 0.9602742 0.9643096 0.9669667
1.0138603 1.0113442 0.983867 0.9092561 0.97314763 0.9574069 0.93738586 0.92933446

features.9.bias f4 [128]
00000000: f3b8 a2bc bdee 5cbb 76b8 f8bc be24 a8bc
00000010: f151 58bc 4d78 88bd e3b0 7ebd 2f30 20bd
00000020: 5cfc 6abd c32e 31bd 9992 9cbc 51a7 13bd
00000030: 446b e1bd c196 fabc 9fd4 cebd c951 2ebd
00000040: 4ddc 22bd c0e2 b4bd 8b20 8dbd c848 a4bd
00000050: 1501 6ebd d084 99bd e679 99bd 5296 54bd
00000060: 4b27 ed3b c20c 84bd 2440 b0bb b04d 0dbc
00000070: 24d9 01be 4c2c b3bd cc91 a0bd ffe6 e6bd
00000080: 325a dabd 288e d8bc 4c06 1bbe 41dc adbd
00000090: 773e 5e3c 97f3 e3bd 9788 a0bd 7e2f 83bb
000000a0: 5734 cdbc ab12 34bd 85f8 05bd a768 6bbd
000000b0: e050 98bc c65e cdbc 631a 7ebd 8642 a3bd
000000c0: 7232 d23b fd84 bcbd 154d 12bd a226 8cbd
000000d0: c891 06be f9d4 c9bd bb95 29bd 86e9 94bd
000000e0: 1b1a eebc ebf5 aebd ff81 29bd 5625 36bd
000000f0: 3a44 a3bd bd50 74bd d1c9 4dbd d95e 64bd
00000100: 9c35 abbd a27d bfbd 0058 03bd f3bb aabd
00000110: 6bc6 47bd 1a85 d7bc 739c 1cbd 2860 11bc
00000120: 2d6c 45bd ef7f bdbd 319f edbd 8e9d 54bd
00000130: 81c1 bdbd f988 09bc c923 98bb 3fed 903b
00000140: 4a38 22be 0b21 35bd 9d25 bcbd 6ebd c93b
00000150: 51b6 4cbd f946 57bd 63b7 d3bd 8d93 5ebd
00000160: 6a6a b3bd 9bfb 01be 8476 afbc d3ad ac3c
00000170: cd91 0bbe 3b63 ebbd 229d c3bd 8419 b2bd
00000180: 9d12 8ebc 83fc a7bd 49c9 a3bc 39cb 19bd
00000190: 0006 7cbd 7e85 b2bd be67 bdbd 6469 b1bd
000001a0: 5962 a7bd a5f0 aebd 6e5f febd 09e7 b9bd
000001b0: 1f9a a8bd a043 7bbd 5fd1 fbbc 178c bdbd
000001c0: 05de 9cbd ed6c b6bd 1efe 58bd 7f04 56bc
000001d0: 9125 15be bbf9 30bd 7676 84bd a9fb dfbd
000001e0: 5e12 acbd dd3c 1abc fb0d 0fbd e79f 00be
000001f0: dc9a 8dbc a317 29bd 7679 52bd c14e dcbd
-0.019863581 -0.0033711635 -0.030361395 -0.020525333 -0.01320313 -0.066635706 -0.06218041 -0.03910845
-0.057369575 -0.043257486 -0.019112872 -0.036048237 -0.110067874 -0.030589463 -0.10099148 -0.042558465
-0.039760876 -0.08832312 -0.06890973 -0.080216944 -0.0581065 -0.07496035 -0.074939534 -0.05190117
0.00723735 -0.06447746 -0.00537874 -0.008624479 -0.12680489 -0.08748683 -0.078403085 -0.11274528
-0.10661735 -0.026434973 -0.15139121 -0.08489276 0.0135646975 -0.111304455 -0.078385524 -0.0040034642
-0.025049372 -0.043963116 -0.03270771 -0.05747285 -0.018593252 -0.025069606 -0.062036883 -0.07971673
0.006414705 -0.09205053 -0.035718042 -0.06843306 -0.13141549 -0.098550744 -0.04140256 -0.072711036
-0.029065182 -0.08542999 -0.04138374 -0.0444692 -0.079719976 -0.05964731 -0.050241295 -0.055754516
-0.083598346 -0.093501344 -0.032066345 -0.0833663 -0.04877321 -0.026308585 -0.03823514 -0.008873023
-0.048198868 -0.09252917 -0.11602629 -0.05190807 -0.092654236 -0.008394473 -0.004642938 0.004422813
-0.15841785 -0.044220965 -0.09186862 0.006156615 -0.049978558 -0.05255792 -0.103377126 -0.054339934
-0.08760531 -0.12693636 -0.021418817 0.02107898 -0.13629837 -0.11493536 -0.09551455 -0.08696273
-0.01734286 -0.0820246 -0.019993441 -0.037547324 -0.06152916 -0.08716868 -0.09248303 -0.0866268
-0.08173055 -0.08541993 -0.124205455 -0.090772696 -0.08232521 -0.06134379 -0.030739484 -0.09255236
-0.07659534 -0.08907495 -0.05297672 -0.013062595 -0.14565112 -0.04320691 -0.06467907 -0.10936672
-0.08401941 -0.009413925 -0.034925442 -0.12560998 -0.017285757 -0.041282307 -0.051385365 -0.107572086

features.9.running_mean f4 [128]
00000000: 23b4 5bbf 0aa1 14bf 2927 e0bf 71a0 3cbe
00000010: b49c a7bf f4dd 06bc a363 88bf 2eeb 87bf
00000020: 9a99 b8be bdd6 6bbe 3a04 0abf d7d6 4b3e
00000030: 559a 92be 0b21 fe3d 71dc a6be dec9 0fbf
00000040: f786 51bf e6af 563f b7a8 b6bf 0127 39bf
00000050: 1bd0 7cbf 9b1a 00bf f906 2abf 5399 a13d
00000060: 78c6 00be 996c 0dbf afbc 473d 226c abbf
00000070: 2e8f c9bf 04d4 0dbf 11db 23bf 6230 9e3d
00000080: 8aa1 8d3e 1437 f7be 7387 25bf 3ac4 003f
00000090: 40da 87be 0495 bebe 6665 b8bf 8722 15bf
000000a0: 1d95 8fbe 2a1a 35be 1462 e23e c073 afbf
000000b0: 7d35 4ebf f0ce 5abe 229e adbf 0452 3fbf
000000c0: 9343 babf 6996 6dbf e036 c6be 70c3 a4be
000000d0: 5303 f73e 1f99 663c 1075 a4bf 4c10 e8be
000000e0: 9142 863e bf28 bbbe 9830 7cbe 8569 873c
000000f0: 7151 9bbf bee6 4d3e 4706 61bf 4d8e 62be
00000100: 424c 11be 8799 813f ba76 bfbe 95ce dbbd
00000110: 76ac 69bf 0147 ccbf 4652 cbbd 522c 8cbf
00000120: 2633 633e 36fd 17bf f06b 003f 4222 23bf
00000130: 34f7 95bf 9441 eabe 1f00 8ebf e43f cfbd
00000140: 62f6 8abe 4464 4abf f863 f7be a405 5f3c
00000150: ca3f 1dbf a441 aebf a9c9 8dbf e615 32bf
00000160: 57bd efbf b965 bbbe 2b44 d13d c03e dbbf
00000170: c0f7 26bf 969e ad3e 1884 3b3f e060 97bf
00000180: 8655 4e3d 74b3 cfbf 56f9 233e e691 88be
00000190: 8c0c 52be 67ef bbbc 8fd5 43bf 2233 15bf
000001a0: 31d5 5c3f ab64 20bf 793c 0cbf e00a 933f
000001b0: c0d9 59be 86d9 3abf 0143 14bf 379e dcbf
000001c0: 7818 b6bf e1ad bbbe c3a8 babf b1de bcbf
000001d0: 0069 be3e 7e1c 06bf 8d33 e9bf dbc4 64bf
000001e0: 3ced 6cbf c3d3 c5bf 7105 73be 5b84 513f
000001f0: b083 b0bf ddd5 4dbf 4dc1 bdbf ab36 3bbf
-0.8582174 -0.58058226 -1.7511951 -0.18420579 -1.3094697 -0.008231629 -1.0655407 -1.0618646
-0.3605469 -0.23031135 -0.539127 0.19906174 -0.2863337 0.12408646 -0.32590058 -0.561674
-0.81846565 0.8386215 -1.4270238 -0.7232514 -0.98755044 -0.50040597 -0.6641689 0.078905724
-0.1257571 -0.5524383 0.048763927 -1.3392375 -1.574682 -0.55401635 -0.64006144 0.07724072
0.27662307 -0.4828421 -0.64659804 0.5029942 -0.265337 -0.37223065 -1.4405944 -0.5825581
-0.28043452 -0.17685762 0.44215453 -1.3707199 -0.80550367 -0.21368003 -1.3563883 -0.7473452
-1.4551872 -0.9280763 -0.3871374 -0.32180357 0.48244724 0.014074593 -1.2848225 -0.45324934
0.2622266 -0.36554524 -0.24627912 0.016529808 -1.2134229 0.20107552 -0.87900203 -0.22124596
-0.14189246 1.0124978 -0.3739527 -0.10732762 -0.9127878 -1.5959169 -0.09927802 -1.0951025
0.2218748 -0.59370744 0.501647 -0.6372415 -1.1716065 -0.45753157 -1.1093787 -0.10119608
-0.271411 -0.79059243 -0.48318458 0.013612185 -0.6142546 -1.3613782 -1.1077167 -0.69564664
-1.8729657 -0.36601046 0.1021808 -1.7128525 -0.65221786 0.33910054 0.73248434 -1.1826439
0.05037453 -1.622664 0.16013083 -0.26673812 -0.20512599 -0.022941304 -0.7649774 -0.5828115
0.86262804 -0.6265361 -0.54779774 1.1487694 -0.21274471 -0.72988164 -0.5791474 -1.7235783
-1.4226217 -0.36656097 -1.4582752 -1.475546 0.37189484 -0.52387226 -1.8218857 -0.8936288
-0.9254949 -1.545525 -0.23732544 0.81842583 -1.3790188 -0.80404454 -1.4824616 -0.7313029

features.9.running_var f4 [128]
00000000: 6275 813f a914 333f 144e 803f 032d 273f
00000010: ce91 b23f c179 253f a399 b73f 87af ca3f
00000020: 858e 0b3f 1d97 483f d45f 293f 883a b43e
00000030: 5e0a 813f 2f3f 203f 5f73 343f 79c1 633f
00000040: 3840 673f 2c39 c73f a6d9 bc3f b1ca 873f
00000050: 5243 633f c3af 8a3f dc67 943f 6964 383f
00000060: aee1 db3e a522 813f f9ad ed3e 3299 cc3f
00000070: c5ff ff3f 98e9 f03e 449c a43f 8477 473f
00000080: f74f 1a3f 72cd 9a3f 6ba3 883f 8e71 9d3f
00000090: 393f 333f a020 2e3f 2d27 a23f 54c2 153f
000000a0: 28f1 873f 517b 153f 29b1 283f ebe9 f33f
000000b0: 7620 6b3f 7027 253f 99f6 b63f e89b 8e3f
000000c0: 693b 9f3f be0a 5b3f e7c4 303f fac2 1b3f
000000d0: 7d53 8d3f ca98 4e3f 82b6 c73f 1994 2b3f
000000e0: a694 f03e 35eb 153f d3eb 663f 90f7 b33e
000000f0: 71ae 1340 57c8 013f 2070 743f 3d01 253f
00000100: 4115 103f 4bd4 993f 6174 f23e 9fda 443f
00000110: cf88 ac3f 1eef 943f 4f86 c33e 8a77 0d3f
00000120: f123 1d3f 324a 8b3f 3171 5c3f 6cf0 843f
00000130: b814 543f b9cf 303f cc6c 8c3f 3b95 383f
00000140: 4144 233f bfc8 893f f437 5b3f 4940 d73e
00000150: c391 a63f ca71 903f 2c6c c03f 6d99 843f
00000160: 44e9 0240 082a 563f 1c88 113f 2e93 ee3f
00000170: 1487 bd3f 0370 083f a61b 483f 068a da3f
00000180: 29f9 0a3f 5289 c63f a0da 083f d3fe 103f
00000190: f388 963f 21c9 113f 71ae b93f 0e51 263f
000001a0: 4243 da3f 8a20 c33f 8955 893f c5a8 af3f
000001b0: 2f7a dd3e 69ac 623f eacc a63f 4afb 0c40
000001c0: 7d2d 733f 26f6 433f a5f0 e23f 4d73 af3f
000001d0: 4aae 9e3f d59d 5d3f 2af8 813f ef33 ee3f
000001e0: 7e2c 713f 2aef cb3f e27c 8b3f baad dd3f
000001f0: 9b0c 8e3f 1c37 703f 0f2a 473f bc18 b73f
1.0113947 0.699534 1.0023828 0.6530306 1.3950746 0.64638907 1.4343761 1.5834817
0.5451434 0.7835558 0.6616185 0.35200906 1.0081289 0.6259641 0.7048854 0.8896709
0.90332365 1.5564322 1.4753921 1.0608732 0.887746 1.0834888 1.1594195 0.72028214
0.42945617 1.0088698 0.46421793 1.5984251 1.999993 0.47053218 1.2860188 0.7791674
0.60278267 1.2093947 1.0674871 1.2300279 0.70018345 0.6801853 1.2668205 0.58499646
1.062047 0.5839129 0.65895325 1.9055761 0.91846406 0.645133 1.4294006 1.1141329
1.2440006 0.85563266 0.6905045 0.60844386 1.1041104 0.8070189 1.5602572 0.67022854
0.4698841 0.5856202 0.9020359 0.35149813 2.307522 0.5069632 0.9548359 0.64455014
0.5628243 1.2017912 0.47354415 0.7689609 1.3479251 1.1635473 0.38188407 0.5526053
0.6138297 1.0882018 0.86110216 1.0385871 0.82844114 0.6906696 1.0970702 0.7210271
0.6377602 1.0764388 0.8563225 0.42041233 1.3013233 1.1284726 1.5033011 1.0359322
2.0454874 0.83657885 0.5684831 1.8638666 1.4806848 0.53295916 0.7816719 1.7073371
0.5428644 1.5510657 0.53458595 0.5663883 1.1760544 0.56947523 1.450636 0.6496743
1.7051775 1.5244305 1.0729228 1.3723379 0.4325728 0.8854433 1.3031285 2.2028375
0.94991285 0.7654747 1.7729689 1.3707062 1.2396939 0.8656896 1.0153859 1.8609599
0.94208515 1.5932362 1.0897486 1.7318642 1.1097597 0.9383409 0.7779855 1.4304423
