experiment_testing/mz-testing/checkpoints/ptbxl/100hz/cnn1d/fold_3/last.pt (torch, 628765 bytes, 26 tensors)

features.0.weight f4 [32, 12, 7]
000000 a1 26 16 bd 5b 4d a3 3d 59 60 d1 3d 57 43 8c bd
       -0.036657933 0.07973739 0.10223455 -0.068487816
000010 d3 b5 c2 bd 0f 45 15 be 7e d7 15 bb aa 25 b7 bd
       -0.095073365 -0.14577125 -0.002286404 -0.08942731
000020 94 13 46 bc bf 74 99 bd 04 ca 82 bc bc 55 bd bb
       -0.012089629 -0.07492971 -0.01596547 -0.0057780426
000030 25 18 0c bd e0 fe 7a bd 00 6e ab bd d5 fb dc bb
       -0.034202714 -0.061278224 -0.0837059 -0.006743888
000040 0c c7 8f bd fa e8 23 bc 64 97 a8 3b 40 75 b2 3d
       -0.07020387 -0.010004276 0.0051450003 0.0871377
000050 9d 33 fc 3d 70 6c 9e 3d f6 56 cd bd eb bf 44 bd
       0.12314532 0.077355266 -0.10026352 -0.04803459
000060 db 7e be 3d e4 5b 33 bd 32 ae 98 3d 1d a8 85 3d
       0.093015395 -0.043788806 0.074551 0.06526206
000070 7b 49 6f 3d 43 e6 bc bd 31 de 7b bb 31 91 7a 3d
       0.058419686 -0.092236064 -0.0038431997 0.06117362
000080 48 24 59 bd 1c 08 06 bc 1f 5a 06 3d 55 cb 94 3d
       -0.053013116 -0.008180644 0.03280079 0.07265345
000090 43 58 a6 bc e2 ac a5 bd 94 fd 0c 3d a1 52 51 bc
       -0.020305758 -0.080896154 0.03442152 -0.012776048
0000a0 c4 52 9d ba e6 67 c9 3d c8 9c 45 bd 74 78 e8 bd
       -0.0012002815 0.0983427 -0.04824522 -0.113510996
0000b0 52 da 87 bd 1c 68 94 3b 91 67 c4 bc 36 1e 0c 3e
       -0.06633438 0.0045290124 -0.023975166 0.136834
0000c0 03 43 0a 3e 70 d7 8d bd ff 2f 09 be 1a f0 04 3d
       0.13502125 -0.06925857 -0.13397215 0.03245554
0000d0 a0 33 43 bd d9 2f d2 3d 47 80 e5 3d 5b 01 3b 3d
       -0.047656655 0.102630325 0.112061076 0.04565559
0000e0 76 d3 d9 bd c1 5f af 3d 7c 0f 33 bc ae a0 97 bd
       -0.10636036 0.085631855 -0.010928985 -0.07403694
0000f0 00 20 bd 3c 2f 2f ae 3d e3 5c 79 bd a1 12 6c bd
       0.023086548 0.08505093 -0.0608796 -0.057634953
000100 0c 66 7e bd b0 12 9b 3c 53 7f 39 3d e8 07 d9 bd
       -0.06210904 0.01892981 0.04528744 -0.10597211
000110 83 21 03 3d fe 69 d8 bd 92 1e a1 bc 7f a3 e3 bd
       0.03201438 -0.105670914 -0.019667897 -0.11115169
000120 92 bd af 3c a8 9b 9a bc 1c 92 b3 3d e9 e3 b5 3c
       0.021452699 -0.01887305 0.087681025 0.022203403
000130 6b d7 c5 bd be 68 f7 3c 9b ae a1 bd 57 74 21 3c
       -0.09660228 0.030201312 -0.078946315 0.009854398
000140 49 c7 b9 3c 2b 0d e4 bd 1a f4 8a 3d 09 d2 66 bd
       0.022678034 -0.11135324 0.0678484 -0.05635265
000150 09 1c 46 3d 34 4c ad 3d d0 30 b4 bd d5 94 d1 bd
       0.04836658 0.084618 -0.08798373 -0.102334656
000160 75 39 ff bc c5 4b 32 bd 37 74 ab 3d 3d d9 d0 3c
       -0.031155327 -0.04352929 0.083717756 0.025494212
000170 12 c0 f0 bc 55 c3 a3 3b 5c ea b6 3d 2e c5 39 3d
       -0.029388461 0.0049976506 0.08931419 0.04535406
000180 bb ba 45 bd 97 c1 20 bd 97 1f b7 3d 3e 0b 40 3d
       -0.048273783 -0.03924712 0.08941572 0.04688572
000190 58 4f 83 bd 50 64 7a bc 2d e8 b5 3d 8c 55 25 bc
       -0.06411618 -0.015282705 0.08882175 -0.010091197
0001a0 f6 33 cd bd 4a ad e1 3c 9e 6b 04 bd 61 91 39 bb
       -0.100196764 0.027548451 -0.032329194 -0.0028315412
0001b0 cd 51 c6 3d 05 09 cb 3d 4d 4b 8a bb 37 43 17 bc
       0.09683571 0.0991383 -0.0042204023 -0.009232334
0001c0 d6 e6 85 bc 95 37 f4 3d e3 29 99 bd 32 ee d2 3d
       -0.016345423 0.11924664 -0.074786924 0.102993384
0001d0 c1 e9 93 3d 6d f1 a6 3d 2f e3 88 bd 71 a1 7d 3d
       0.072223194 0.08151517 -0.06683957 0.06192154
0001e0 df eb f6 3d 72 72 5e bd 51 e5 af 3d 2e 7f dc bc
       0.120567076 -0.054308362 0.085886605 -0.026916113
0001f0 9e ab 32 bd 8c 4b 84 bd 17 61 20 3d 46 e9 b6 bd
       -0.0436207 -0.06459722 0.039155092 -0.08931212
000200 4a 30 d7 3d f2 99 df 3d 23 e4 aa bc fa 89 27 3c
       0.10507257 0.109180346 -0.020860737 0.010225767
000210 88 f1 15 3d 69 41 28 bc 46 62 17 3e ea 60 0f bc
       0.036607295 -0.010269501 0.14783582 -0.008751133
000220 a7 14 04 3b 39 0e 67 bd 5c 47 66 3d 62 4e c8 bd
       0.0020153911 -0.05641005 0.056220397 -0.09780575
000230 d2 b7 15 3e 1a 66 89 3b 89 2e ce 3d b3 e6 5f 3d
       0.14620903 0.0041930797 0.100674696 0.05466337
000240 42 17 bf 3d 5c 95 f2 3c 56 59 56 3d 23 49 49 3d
       0.09330608 0.029612236 0.05233129 0.049142014
000250 41 15 e6 bd 41 cd 73 3c 38 92 5b bd b7 ab 84 3d
       -0.112345226 0.014880479 -0.053606242 0.064780645
000260 61 c9 9e 3d af 9c f6 bd 5e 05 2a 3d ef 67 52 3c
       0.07753254 -0.12041604 0.041509025 0.0128421625
000270 39 79 e8 3c 5f 9a 9a bb de fb c6 bd 86 97 64 bd
       0.028378116 -0.0047181095 -0.097160086 -0.055808567
000280 fb 55 cf 3c 3a cb cf bd c6 55 9c bd 47 16 76 3d
       0.025309553 -0.10146184 -0.076335475 0.06007984
000290 59 ee 1e bd bb b8 26 bd 9a a3 27 3d 0b 6a c7 bd
       -0.038801525 -0.040703516 0.040927507 -0.09737023
0002a0 c8 af fe 3c 9f 90 06 3d 19 5e 62 3d 51 f1 65 bd
       0.031089678 0.032852765 0.05526552 -0.05613834
0002b0 0c 0a 03 3d c2 a5 05 3d 2b 5d 94 3c 29 96 b3 bd
       0.031992003 0.032628782 0.018110832 -0.08768875
0002c0 50 12 19 3d 32 e3 61 bd 92 7c 5e 3d 11 39 94 bc
       0.03737098 -0.05514831 0.05431802 -0.018093618
0002d0 0c 0f 3f bc 9a 0d 04 be e2 9b af 3c f0 7c 31 3d
       -0.011661302 -0.12895814 0.021436635 0.04333204
0002e0 4c 0a b2 bd c0 35 89 3c 83 fe dc bd 40 6f a0 bd
       -0.0869337 0.016749263 -0.10790732 -0.07833719
0002f0 41 d0 d8 3c 96 f8 53 3d ec 5d 83 bd cb 7e 28 bd
       0.02646649 0.051750742 -0.064143986 -0.041136544
000300 f9 db 8a 3d 3f 40 0c 3e a4 5d d6 3d d9 46 54 bc
       0.06780238 0.13696383 0.10467079 -0.0129563445
000310 c6 54 6a bd 72 75 cf b8 9a 5c 85 bd a6 92 ce 3d
       -0.057209753 -9.892405e-05 -0.06511803 0.10086565
000320 5f 00 97 bc 7c d0 2d bd f9 b8 83 bd e4 ab 84 bd
       -0.018432794 -0.042435154 -0.06431765 -0.06478098
000330 3f 61 b4 3d 48 cb 05 bd 01 87 cf bc 3c 71 01 be
       0.08807611 -0.032664567 -0.02533293 -0.12640852
000340 fb d1 7d bd 71 24 93 bd 81 f8 e7 bd ca 93 d2 bd
       -0.06196783 -0.07184685 -0.11326695 -0.10282095
000350 97 87 85 3d b2 e3 0f bd 04 6e f1 bd 88 97 ac 3d
       0.06520002 -0.035129257 -0.11788562 0.0842734
000360 f8 f6 ca 3d 5c 65 ba 3d 1d 9a 9d bd 75 a5 a2 3d
       0.09910387 0.09101364 -0.076954104 0.07941715
000370 48 38 90 3d 41 32 78 3d 4a c3 8c 3d 33 4a 0d 3c
       0.07041985 0.0605948 0.06873186 0.0086236475
000380 66 f5 bd bb 67 43 92 3d 4c 96 f8 3d e1 e3 e9 bc
       -0.005797076 0.07141762 0.12138042 -0.028551044
000390 ba 04 80 3d 95 c2 48 3d 52 1b d5 3d c0 83 70 3d
       0.062509015 0.049013693 0.104056016 0.058719397
0003a0 a5 84 bf 3c 3a 1d a4 bd a6 ac f6 3d a4 e9 a6 bd
       0.02337868 -0.08013387 0.12044649 -0.08150032
0003b0 48 e9 89 3d 4f 8d fc 3b a2 81 ab 3c d8 db fe bd
       0.06733948 0.007707275 0.020935837 -0.124442756
0003c0 27 c1 05 bd 4c 4d 6e bd 01 20 83 bc 22 4e 13 bc
       -0.032654908 -0.058179185 -0.016006472 -0.008990796
0003d0 31 a9 e3 bd 95 f4 29 3d 9e d6 3f bc dd 79 c3 bd
       -0.11116255 0.041493017 -0.011708884 -0.09544728
0003e0 86 dc cb 3d a4 8a 0b 3d b0 b6 8e ba e9 f4 81 3d
       0.09954171 0.034067765 -0.0010888185 0.06345541
0003f0 66 b1 75 3d 31 ed fc 3c bb 62 dc bd 52 9a 6f bd
       0.059983633 0.03087482 -0.10761019 -0.05849678

features.0.bias f4 [32]
000000 93 25 7e bd 70 4a 9d 3d 6a 29 ac 3c 40 94 6e bd
       -0.062047552 0.076802135 0.021015842 -0.05824685
000010 41 e4 aa bd 5e c3 29 3d 87 b3 d1 bd d8 b2 b5 3d
       -0.08344317 0.041446082 -0.1023932 0.08872002
000020 7a 26 88 3d 90 23 4e bd aa e8 8c 3d 4d 1a cb 3c
       0.06647964 -0.050326884 0.06880315 0.024792815
000030 9c 34 8d 3d 89 38 c6 bd 53 ac 93 bd 8f 98 29 3d
       0.068948 -0.09678752 -0.072106026 0.041405257
000040 e1 94 d1 bd 51 a9 e2 3c d9 02 c2 3c 9d 6b ad bc
       -0.102334745 0.027668627 0.023682998 -0.021169478
000050 91 19 9b 3c 96 39 d8 3d aa a0 60 3d bf 8e d5 bd
       0.01893309 0.10557859 0.05484072 -0.10427617
000060 45 a7 b1 3c 1e ff 90 bd 78 b6 a6 bd a4 a5 c1 3d
       0.021686206 -0.0707991 -0.08140272 0.094554216
000070 a0 e4 98 3d 1d 35 92 bd 33 75 97 3d 50 a6 a9 bc
       0.07465482 -0.07139037 0.07395401 -0.020709187

features.1.weight f4 [32]
000000 54 12 83 3f a0 ea 79 3f 8f b0 7e 3f 3c a3 7f 3f
       1.0239968 0.97623634 0.9948816 0.9985845
000010 ff e4 82 3f ce 44 7b 3f 7d be 80 3f 3d 22 83 3f
       1.0226134 0.9815186 1.0058132 1.0244824
000020 f3 0c 83 3f 5f 53 81 3f f3 0e 83 3f a3 b4 7b 3f
       1.0238327 1.0103568 1.0238937 0.98322505
000030 c2 0b 82 3f f0 04 81 3f c8 d6 79 3f e6 51 81 3f
       1.0159838 1.0079632 0.97593355 1.0103118
000040 ad 23 82 3f 3a 72 83 3f 6a 4a 84 3f 50 f5 82 3f
       1.0167137 1.0269234 1.0335209 1.0231113
000050 eb 0f 81 3f 7a 20 7f 3f 9b 30 79 3f 24 f4 78 3f
       1.0082983 0.9965893 0.9733979 0.9724753
000060 ab ec 7a 3f ec 3d 7c 3f 0f 1f 80 3f fd c6 7b 3f
       0.98017377 0.98531985 1.0009478 0.9835051
000070 7a 1d 7d 3f 46 da 81 3f fa 56 7b 3f b5 aa 7e 3f
       0.988731 1.0144737 0.9817959 0.9947923

features.1.bias f4 [32]
000000 64 45 84 3d ec 2c b1 3b 7d 70 45 3c fd d5 3d bd
       0.06458548 0.0054069664 0.012050745 -0.046346653
000010 4d 4d db 3c 16 9e a7 bc b3 9f 96 bc 62 25 40 3c
       0.026770258 -0.020461123 -0.018386697 0.011727663
000020 c0 d2 ad 3c 7c 95 88 3d a5 8c 0c 3d 82 07 31 ba
       0.021218657 0.06669137 0.034313817 -0.0006753133
000030 3b 58 13 3d 54 ae de bb d9 95 69 3d 43 b3 1b 3d
       0.035972815 -0.006795684 0.05702767 0.038012754
000040 5a ba eb 3c 76 ef 39 3d 43 f8 a8 3d 34 a2 b8 3d
       0.028775383 0.045394383 0.08250477 0.09015313
000050 3b 23 b4 3d 98 2e 1f 3c 29 47 8c bd 3e d2 50 bd
       0.08795782 0.009715699 -0.0684951 -0.050981753
000060 28 09 15 bb 0e 42 26 bc 60 1e 0c 3d ae 46 10 3d
       -0.0022741053 -0.010147585 0.034208655 0.035223655
000070 7b cf 32 3d e8 6a 79 3c c0 0a a6 3b ab 7f 19 3d
       0.0436549 0.015223242 0.0050671995 0.03747527

features.1.running_mean f4 [32]
000000 e0 67 7e bd 22 57 9d 3d 9b 83 ac 3c a7 36 6e bd
       -0.06211078 0.07682635 0.021058848 -0.05815759
000010 30 27 ab bd cb d0 29 3d 7e 66 d1 bd 7c c9 b5 3d
       -0.08357084 0.041458886 -0.10224627 0.08876321
000020 5c 7c 88 3d bc e5 4d bd cd 35 8d 3d 7c 25 cb 3c
       0.06664345 -0.05026792 0.06895027 0.024798147
000030 8b f7 8c 3d dc 6a c6 bd 32 7d 93 bd 42 bd 29 3d
       0.068831526 -0.096883506 -0.072016135 0.041440256
000040 31 a6 d1 bd 7c 04 e3 3c 96 fa c1 3c 31 05 ae bc
       -0.102367766 0.0277121 0.023679059 -0.02124271
000050 23 fa 9a 3c 31 7a d8 3d 12 b2 5f 3d 92 89 d5 bd
       0.018918103 0.10570181 0.05461318 -0.1042663
000060 f0 60 b2 3c 64 da 90 bd 79 b2 a6 bd a8 89 c1 3d
       0.021774739 -0.07072905 -0.0813951 0.09450084
000070 ea dc 98 3d 3e fe 91 bd 45 59 97 3d 36 81 a9 bc
       0.07464011 -0.07128571 0.07390074 -0.020691495

features.1.running_var f4 [32]
000000 d9 fc 52 3f 4b 60 9a 3e 5b d4 16 3f e3 f5 1c 3f
       0.82417065 0.3015159 0.5891778 0.61312693
000010 a7 ee 6e 3f 88 1b 62 3f e7 0d 2a 3f bd 89 8e 3f
       0.93332905 0.8832326 0.66427463 1.1135784
000020 a9 cd b3 3e 5b 06 a4 3e c3 92 11 3f e2 0c a2 3e
       0.35117844 0.320361 0.56864566 0.31650454
000030 2b 7e 89 3f 75 3f 41 3f ea 61 4a 3e a9 8b 9f 3e
       1.0741628 0.7548745 0.19763914 0.3116124
000040 09 ca 82 3e e4 72 c7 3f 06 85 0f 3f 02 50 fc 3e
       0.25544766 1.5581937 0.5606235 0.4927979
000050 19 cc 8f 3f 36 a9 94 3f 8e e6 be 3e 35 2c d6 3e
       1.1234161 1.1614139 0.37285274 0.41830602
000060 85 dd 70 3f 79 06 d0 3e b1 bd 93 3e 68 92 59 3f
       0.9408801 0.40629938 0.2885566 0.84989023
000070 7f 2c cb 3e 89 0c 43 3f 28 d0 c3 3e fb f8 bd 3e
       0.39682385 0.76191 0.38244748 0.3710402

features.4.weight f4 [64, 32, 5]
000000 24 86 18 bd e2 34 f1 ba fa 82 c2 3d eb b2 11 bb
       -0.0372373 -0.0018402601 0.09497638 -0.0022231888
000010 22 11 fa 3c e0 f1 8a 3d e7 64 f8 bc ec e6 48 bd
       0.030525748 0.06784415 -0.030321551 -0.04904835
000020 47 00 f6 3c 30 cd ef bc 84 53 72 bd 77 c5 73 3d
       0.03002943 -0.029272646 -0.059161678 0.05951449
000030 0f 05 4a 3d 53 0b 69 3d 32 4f 68 bb 0c 3e 58 bd
       0.04932123 0.056895565 -0.0035447595 -0.052793548
000040 ab 76 be 3b 89 d1 29 bc 95 5c 64 3d bc cd 77 bd
       0.005812486 -0.0103648985 0.055752356 -0.060498938
000050 87 6a 35 bd 07 99 39 3b d4 5e 4f 3d 83 66 5c 3c
       -0.044291046 0.0028319971 0.050627545 0.013452175
000060 8f 1c 0a bd 75 78 20 3b 68 93 51 3d 15 ff b3 bd
       -0.03371864 0.002448586 0.05116597 -0.087888874
000070 44 6f 38 3c af b4 31 bd 0a dd 79 bd b6 00 9c bc
       0.011256997 -0.043385204 -0.061001815 -0.019043308
000080 ce 56 7d bd 09 fc 91 bd b0 a2 99 bc b0 ee e4 3d
       -0.06185036 -0.0712815 -0.018754333 0.111783385
000090 d7 f8 c5 3c 3f 63 5c 3d 43 2c 82 bc 5b 94 a6 3d
       0.024166508 0.053805586 -0.015890246 0.08133765
0000a0 16 eb 27 3c 6c e3 63 bd 8a 1c 1e bd cf 6a f8 3c
       0.01024892 -0.05563681 -0.038601436 0.030324368
0000b0 15 70 af 3d e4 af c6 3d 12 f4 ac 3d 63 20 2d 3d
       0.085663 0.09701517 0.0844499 0.042267215
0000c0 fd de d3 bd f9 5c 7f bd 58 59 7c bc 9a bf d7 3d
       -0.10345266 -0.062344525 -0.015402161 0.10534592
0000d0 50 fd 9b 3d c0 14 3c bc f2 a7 72 bd f7 4c 7a bd
       0.07616675 -0.011479557 -0.059242196 -0.061108556
0000e0 f0 7e 09 bd 40 52 1b bd 7e 69 b6 3c 8c d7 b6 3c
       -0.033568323 -0.037920237 0.0222671 0.022319578
0000f0 76 0b 95 bd 67 2c 8f bd 50 3b 36 3d 5c 22 88 bc
       -0.072775766 -0.06990891 0.04449016 -0.016617946
000100 e4 19 55 3d 1f 66 4e bd fa 8c d9 3c 99 54 2a bd
       0.052026644 -0.05039036 0.02655648 -0.041584585
000110 4d d4 39 3d af 76 17 3d 1f fd 02 bd f5 7a 6e 3d
       0.04536848 0.03697842 -0.031979676 0.05822273
000120 43 94 33 3c 3a 35 66 3d 03 5d 05 bd 81 73 e0 3c
       0.010960641 0.056203105 -0.032559406 0.027398827
000130 9c fa c1 bc 5f 5a cf bc 7b b7 c1 bc a3 b8 31 bd
       -0.02367907 -0.025311647 -0.02364706 -0.043388974
000140 26 0a 63 3c 39 1f 4f 3d b9 70 96 3d 4a fe 27 b9
       0.0138574 0.050566886 0.07345719 -0.00016021091
000150 57 33 25 bd a9 fd 8a 3c 14 3b 31 3d 47 2b df 3d
       -0.040332165 0.016966658 0.043269232 0.108969264
000160 5a a5 68 bd c0 2a 61 bd dc 44 9a 3b 72 1f 66 bd
       -0.056798317 -0.05497241 0.0047079157 -0.056182332
000170 f2 d8 8c 3d 23 b3 b3 3d 22 43 98 3d 79 8a a3 3d
       0.068773165 0.08774402 0.074346796 0.07985396
000180 b8 ce 13 3d 51 67 a6 ba 4c 69 57 bd f8 92 d2 bc
       0.036085814 -0.0012695586 -0.052590653 -0.025704846
000190 7d ec 8f bd 1a 73 f5 bd e9 3d 8a 3c ed e3 b0 bb
       -0.070275284 -0.119848445 0.016875224 -0.0053982646
0001a0 be 6b e6 3d e1 6c 6a 3d c2 8d 64 bd a4 1a 2c 3c
       0.11251019 0.05723274 -0.055799253 0.0105043985
0001b0 04 c5 a7 3a b4 39 1c 3d 58 f9 2c bd 38 d8 a9 3d
       0.0012799804 0.038140967 -0.04222998 0.082931936
0001c0 65 b1 fc bc d9 26 90 bd ff 87 3e bd c8 7c e8 3c
       -0.030846307 -0.070386596 -0.046516415 0.028379813
0001d0 a4 20 4f 3d 9a db 7d 3c 74 ed 35 3d 8f 28 ef 3c
       0.050568238 0.015494252 0.044415906 0.029194145
0001e0 29 e3 69 bc 63 42 ca 3b 95 5c 5b bc c9 5d 46 3c
       -0.014275351 0.0061724647 -0.0133887725 0.012107321
0001f0 db 41 b0 bb 98 1f 13 3d 1d 62 d2 3d a1 c5 3b bd
       -0.0053789443 0.035918802 0.1027262 -0.04584277
000200 45 61 94 bd 14 5e 0e 3d 95 89 2d 3d 82 9d 8e bd
       -0.07245115 0.03475769 0.042367537 -0.06963636
000210 5c 4a 18 bd b2 d8 40 3d 61 ad fc 3c d6 45 ab bd
       -0.03718029 0.047081657 0.030844392 -0.083629295
000220 6f f2 4a bc e4 23 12 3d 4e 01 4a bd 6c f4 57 3c
       -0.012386902 0.03567876 -0.04931765 0.013180833
000230 e6 b7 de bc 1d 56 75 3d ce 6f da bc 65 28 ca bc
       -0.027187299 0.059896577 -0.02666464 -0.024677465
000240 35 6a ba 3d 81 a4 b9 bd c7 da e0 bd bc ae 51 3c
       0.09102289 -0.0906458 -0.109792285 0.012798008
000250 3a 70 a6 b9 b7 32 d1 3c f0 76 54 3d 31 b5 0a bd
       -0.00031745603 0.025536878 0.05187124 -0.033864204
000260 34 b0 a0 bc 0f 6b 9a bc 06 50 53 bd 95 43 b1 bc
       -0.01961527 -0.018849878 -0.05158999 -0.021638671
000270 17 58 3e 3d 7b 61 58 bd b2 ab 1b bd cd e5 49 3d
       0.046470728 -0.05282734 -0.03800554 0.04929142
000280 02 c7 5a 3c 5a 9c 6a bc 38 4d af bd 9d 7e 7b 3d
       0.013353111 -0.014319504 -0.0855965 0.061400045
000290 37 c1 a0 38 44 02 a6 3d a1 6b 49 3d bb eb 19 3d
       7.6653836e-05 0.08105901 0.04917491 0.037578326
0002a0 92 ab 5b bd 1c 1c 88 3c 0b b7 80 bd 85 9a ec 3c
       -0.05363042 0.016614966 -0.06284913 0.028882274
0002b0 fc 21 a6 bd 50 38 a9 bd 3b 78 41 3c d0 7c 1f bd
       -0.08111951 -0.08262694 0.01180845 -0.03893739
0002c0 dc 91 51 b9 e4 33 37 3b 4e 33 9b 3d 7d 2b 7f bc
       -0.0001998613 0.0027954513 0.07578145 -0.015574333
0002d0 e7 99 7d 3d 21 08 d5 3c 83 77 40 bd 44 00 96 bd
       0.06191435 0.026004853 -0.046988975 -0.073242694
0002e0 0a 93 0f bd 17 53 91 bc d7 f6 ac 3b 67 81 24 3d
       -0.035052337 -0.017739816 0.005278449 0.04016247
0002f0 a3 34 b1 bd 72 06 19 3d 58 bd a8 3d 63 48 e9 bb
       -0.08652618 0.037359662 0.082392395 -0.007119225
000300 ee ac 1f bd ed 84 ff ba 3e d7 86 3d 7f f3 4a bc
       -0.038983278 -0.0019494571 0.06584023 -0.012387156
000310 73 f3 4c bd 14 ab 73 bd c9 67 22 3d 04 a2 84 bc
       -0.05003686 -0.059489325 0.03964976 -0.016190536
000320 32 e1 86 bd 9d 16 8a 3c 98 c1 6d 3b 85 8e 6d bc
       -0.06585921 0.016856486 0.003627872 -0.014499311
000330 58 6c ef bb 72 cb 75 bd 20 b0 b1 bc 17 4c db bc
       -0.0073066168 -0.060008474 -0.021690428 -0.02676968
000340 86 4e 61 bd 0b ed b1 3b 81 00 68 bd 81 12 92 bd
       -0.055006526 0.005429869 -0.056641106 -0.071324356
000350 f2 04 5f 3d 16 98 64 3c 37 5c 4d bd 20 ab 05 3d
       0.054448076 0.013952276 -0.05013677 0.0326339
000360 1e 17 1a bd 14 92 4e 3d a6 6a a8 3c 36 98 d9 3c
       -0.037619703 0.05043228 0.020558666 0.026561838
000370 5d 28 85 bd ca 59 c6 bb 3c eb 26 bd 36 a1 35 bc
       -0.06501839 -0.006053184 -0.04075168 -0.011085799
000380 ad c8 aa bc cf 47 6c bc ac c6 c0 bc 24 19 f4 bb
       -0.020847643 -0.014421417 -0.023532234 -0.007449286
000390 25 ff 11 bd 71 74 0c 3d c2 e8 35 bd 48 32 a4 3d
       -0.035643715 0.034290735 -0.04441143 0.08017403
0003a0 7b 4c dc bc 96 42 c0 3b 30 0a b2 bc 14 b0 1c 3d
       -0.026891937 0.0058673127 -0.021733373 0.03825386
0003b0 8b 92 4e bd c7 2b 9d bd 0c 1f 7d 3d b0 e9 8e bd
       -0.050432723 -0.076743655 0.061797187 -0.06978166
0003c0 a9 dc b2 3c d4 58 7a 3d 28 b6 0c bd f7 e3 8f bd
       0.021833735 0.06111987 -0.034353405 -0.07025903
0003d0 eb 35 59 3d b8 c8 bd bd 76 39 a7 bd e1 a7 cd 3b
       0.053029936 -0.092668 -0.08165257 0.0062761162
0003e0 44 00 af bc bb f0 0b bc 92 50 44 3d 92 01 93 3d
       -0.021362431 -0.008541281 0.0479284 0.07178034
0003f0 5c 44 1e 3d ae 71 92 bb f4 73 3a bc 68 cf 7a 3d
       0.03863941 -0.004469118 -0.011380184 0.061232954

features.4.bias f4 [64]
000000 22 e2 ae 3b 16 01 9b bc d7 67 32 3d 8d 6f 54 3d
       0.0053370157 -0.018921416 0.04355606 0.051864196
000010 2d 9e 1c bd 03 9f ca bc 2c 9a 88 bd a6 f8 a1 bd
       -0.038236786 -0.024734026 -0.06670031 -0.07908754
000020 3d 7b 52 3d a6 f6 df 3c f7 8b 11 bc ef 77 b5 3c
       0.05138706 0.02733929 -0.008883468 0.022151915
000030 a8 a8 51 3d 4e 2a b2 bd 92 33 3d 3d eb f6 7a 3d
       0.051186234 -0.08699475 0.04619176 0.061270636
000040 d0 fe 80 bd 58 cc a6 bd bb 83 da 3b f1 29 a9 3d
       -0.062986016 -0.08144444 0.0066685355 0.08259953
000050 12 6e 8a bd dd a3 be bc 7a 95 2f bd e4 50 00 bc
       -0.067592755 -0.023271495 -0.04286716 -0.007831786
000060 65 89 58 bd 0c 08 9d 3c d0 37 d8 bd 9c bb 9b bd
       -0.052865405 0.019168876 -0.105575204 -0.07604143
000070 cc 5c f4 3c 2b 59 2a bc a8 04 b5 bd de 60 90 b9
       0.029829405 -0.010397236 -0.08838779 -0.00027537992
000080 8a 61 ba 3d 87 7f 76 3d 74 59 2f 3d 22 dc 95 bd
       0.09100635 0.060180213 0.04280992 -0.073173776
000090 1b 0d af 3d 12 4b 08 3d ba 50 81 3c 8c 45 8c 3d
       0.085474215 0.033274718 0.015785564 0.068492025
0000a0 81 eb 08 bd a1 95 10 bc 68 c5 8f bc 24 38 a1 3b
       -0.03342772 -0.008824737 -0.017550185 0.0049200226
0000b0 76 ca f1 b9 f5 5d 03 3d 9d af 62 3d d1 45 65 3c
       -0.00046117947 0.032072026 0.05534326 0.013993696
0000c0 2b d4 4c 3c 2a f9 ff 3c 61 f0 a5 bd 6c 82 16 bc
       0.012501757 0.03124674 -0.08102489 -0.009186368
0000d0 da 7d c7 3d ca 44 e0 3c 33 95 b4 3d 19 73 ba 3d
       0.09740801 0.027376551 0.0881752 0.091039844
0000e0 fa 52 83 3d 11 fc 9e 3d 40 c0 07 3d 83 25 7f 3d
       0.06412311 0.077629216 0.03314233 0.062291633
0000f0 a5 5f f4 bc 66 57 aa bd b6 39 0e 3d 6a 46 e5 3c
       -0.029830763 -0.08317451 0.034723006 0.027987678

features.5.weight f4 [64]
000000 f1 96 7b 3f 16 88 82 3f 70 64 89 3f 1e 05 83 3f
       0.98277193 1.019778 1.0733776 1.0235937
000010 08 66 80 3f 32 33 7e 3f 51 cc 64 3f e6 0d 7e 3f
       1.0031137 0.9929687 0.8937426 0.9923996
000020 c1 fe 85 3f ee 04 82 3f 5c 87 7e 3f 67 32 87 3f
       1.046837 1.0157754 0.9942529 1.0562257
000030 45 eb 7d 3f 05 25 78 3f 3e a5 80 3f 5f 78 82 3f
       0.9918712 0.9693149 1.0050428 1.0192984
000040 25 64 7b 3f 16 a2 7b 3f 98 c0 79 3f 19 3c 81 3f
       0.98199683 0.982942 0.975595 1.0096465
000050 c0 c5 81 3f 1c b8 78 3f 6c ee 7f 3f 38 01 78 3f
       1.0138474 0.9715593 0.9997318 0.9687686
000060 40 98 80 3f 5f 95 7a 3f a4 f6 7c 3f d9 75 78 3f
       1.0046463 0.9788417 0.98813844 0.9705482
000070 26 0b 80 3f 21 a2 72 3f da a1 80 3f 4b 04 7d 3f
       1.0003402 0.9477864 1.0049393 0.98834676
000080 e3 8e 74 3f 08 36 83 3f 1d 1b 81 3f 60 92 81 3f
       0.9553053 1.0250864 1.0086399 1.0122795
000090 26 7d 7f 3f ba b0 7e 3f d7 83 81 3f c9 51 82 3f
       0.99800336 0.99488413 1.0118359 1.0181209
0000a0 c7 25 7d 3f c8 37 84 3f c8 27 73 3f 8e 9f 89 3f
       0.9888577 1.0329523 0.94982576 1.0751817
0000b0 78 72 7e 3f 11 66 7e 3f d2 4f 76 3f 29 97 75 3f
       0.99393415 0.9937449 0.96215546 0.9593378
0000c0 da ca 71 3f 73 d8 83 3f ef 87 7c 3f 25 e0 77 3f
       0.9445015 1.030043 0.9864492 0.9682639
0000d0 4b c2 7f 3f a9 3e 7c 3f 5a 8a 7b 3f 3d 99 7e 3f
       0.9990584 0.9853311 0.9825798 0.99452573
0000e0 ca 01 81 3f 42 6b 80 3f a9 95 77 3f 00 5d 8b 3f
       1.0078671 1.0032732 0.9671274 1.0887756
0000f0 bd 60 6d 3f a8 4f 8a 3f 87 f2 84 3f da 70 88 3f
       0.92725736 1.0805559 1.0386513 1.065944

features.5.bias f4 [64]
000000 0f 99 23 bd e4 52 72 bc d3 70 0e bd 4e 30 81 bc
       -0.03994089 -0.0147902705 -0.034775566 -0.015770104
000010 5b 54 62 bd ea c7 f2 bc 82 84 bd bd 2e 41 ab bc
       -0.05525623 -0.029636342 -0.092537895 -0.020905104
000020 74 78 c6 3c 51 98 80 3c 62 95 05 bd e1 0c a2 3c
       0.024227358 0.01569763 -0.032613166 0.019781532
000030 8a 91 a3 ba 97 04 41 bd 70 43 ad bc ad a1 d0 3c
       -0.0012479287 -0.047123518 -0.02115032 0.025467718
000040 15 bc 88 ba 61 4d 80 3c 96 9f 19 bd 6c 2e 1e ba
       -0.0010432029 0.015661897 -0.03750571 -0.0006034139
000050 63 f3 10 bd f1 18 65 bd 56 0e df bb 5e 1e 1b bd
       -0.03538836 -0.05593199 -0.006807129 -0.037870757
000060 8d c2 5f bd 24 52 23 bd 06 79 4f 3c 16 db 77 bc
       -0.054628897 -0.039873257 0.012663132 -0.015127918
000070 4f 88 91 bc ce 53 e9 bc 1d 7c 0a bd 59 08 14 bd
       -0.017765192 -0.028482344 -0.03380977 -0.036140773
000080 16 25 3e bd 27 cb 5f bc 61 ab 11 bb 74 23 fe bc
       -0.046422087 -0.013659275 -0.0022227394 -0.031022765
000090 bc de e1 bc 38 1e 39 bd 9b d6 aa bc 48 a6 50 bc
       -0.027572028 -0.045194834 -0.020854285 -0.012734957
0000a0 3b ec ca 3b c3 48 f1 3c db e0 7a bc ba 88 1c bd
       0.0061927116 0.02945364 -0.015312399 -0.03821633
0000b0 8b 8f ab bd a4 b8 47 ba b1 ed 60 bc 8b 6a bc bc
       -0.08376988 -0.0007618761 -0.013728545 -0.023000022
0000c0 7c d5 e9 bc 86 61 5a bd 1d 84 27 bd 42 56 26 bd
       -0.02854418 -0.05331566 -0.040897477 -0.040609606
0000d0 fe 42 bf bc d1 90 14 bd a1 ce 24 bd ef 32 88 bc
       -0.023347374 -0.03627092 -0.04023612 -0.01662585
0000e0 76 56 f2 bb 58 2b e8 bb 27 a6 70 bd 30 8d 86 bb
       -0.007395561 -0.007085245 -0.058752205 -0.0041061863
0000f0 39 37 6a bd fc 51 a8 bc a0 20 49 3c 12 f9 81 bc
       -0.05718157 -0.020546906 0.012275845 -0.015865836

features.5.running_mean f4 [64]
000000 e2 89 0a 3e 10 9b de be 7f 86 2e be d0 fc c2 3e
       0.1352916 -0.43477678 -0.17043494 0.38083506
000010 5e 84 9f bc d5 91 70 be 34 08 11 bf 13 43 f8 be
       -0.019472297 -0.2349313 -0.5665314 -0.48488674
000020 20 00 13 bf 2e 6c 97 be 4a 54 a4 bd 3c b1 2f bd
       -0.57422066 -0.29574722 -0.08023889 -0.042893633
000030 7a 5a 76 be f1 83 a8 be 79 75 3c 3e 7f da 6d be
       -0.24057952 -0.32913163 0.18404187 -0.23227881
000040 10 e0 68 be 20 dc 98 be 6a c5 ab be 14 a0 1d be
       -0.22741723 -0.29855442 -0.33549052 -0.15393096
000050 f4 d5 01 bf 56 b4 c0 3e 5b b3 f6 be f7 5d 14 3e
       -0.5071709 0.37637585 -0.48183712 0.1448897
000060 4f a8 e5 be 4a 2d 14 be 16 f8 ad be 53 b9 ee be
       -0.44854972 -0.14470401 -0.33978337 -0.46625766
000070 56 48 6b be 26 71 59 3e 3d 16 4c bf c2 be 0a bf
       -0.22976813 0.21234569 -0.7972143 -0.54197323
000080 6a 4e 5f 3f 62 cd fb be b2 c1 38 be a2 2f 38 be
       0.87229025 -0.49180132 -0.18042639 -0.1798692
000090 cf 49 91 3e c0 a8 06 bf b2 a7 8b be 9e e5 b9 be
       0.28376624 -0.5260124 -0.2727638 -0.36307997
0000a0 47 2d d1 be 8b cf 09 be 34 b6 cd be 93 3a a5 be
       -0.40854856 -0.13458078 -0.40178072 -0.3227125
0000b0 f4 d9 aa be bc dd fa 3e 82 b5 38 3e 3b c3 d7 bb
       -0.3336941 0.48997295 0.1803799 -0.0065845526
0000c0 f6 24 00 be c8 35 5f bf d6 1a 93 bd d9 dd 33 bf
       -0.125141 -0.8719144 -0.07182853 -0.7026039
0000d0 df b0 a6 3d dd 06 1a 3d 10 14 a6 be 24 79 36 3e
       0.08139204 0.0376042 -0.3243718 0.17819649
0000e0 61 3c e4 bc 67 3e ac be 72 67 8b 3a 80 b5 d1 be
       -0.027860822 -0.3364136 0.0010635688 -0.40958786
0000f0 2c 6c ef 3e 5f 25 2c be 1e f9 9b bb 4c ff ec be
       0.46762216 -0.16811131 -0.0047599217 -0.46288526

features.5.running_var f4 [64]
000000 5c 37 12 3f 31 4f b4 3e 4a 76 8e 3e d5 71 2f 3f
       0.5711572 0.35216668 0.27824622 0.6853307
000010 22 a4 f5 3e 2a 45 a2 3e eb 26 c6 3e 49 c0 d6 3e
       0.47976786 0.31693393 0.38701567 0.41943577
000020 6e f5 47 3f 4b bd 93 3e 65 ac 83 3e a9 5e 65 3e
       0.7810887 0.28855357 0.25717464 0.22399391
000030 b1 80 f9 3e 4a 0d fb 3e bf f6 73 3e be 8c a0 3e
       0.48730996 0.49033576 0.23824595 0.31357378
000040 77 1f 24 3e e7 0f a1 3e fe 03 9b 3e 92 99 80 3e
       0.16027628 0.31457445 0.30276483 0.25117165
000050 2c 0d 74 3e 36 c7 dc 3e 47 11 64 3e ce b8 99 3e
       0.2383315 0.43120736 0.22272216 0.30023807
000060 b2 e6 c1 3e a8 42 ac 3e 9e b6 24 3e 6c 22 4c 3f
       0.3787132 0.33644605 0.16085288 0.79740024
000070 70 47 35 3e 4f ce 68 3e a3 34 d7 3e 8c 86 b8 3e
       0.17703032 0.2273495 0.42032346 0.3604015
000080 b1 50 2c 3f 1d 58 61 3f 6b aa 82 3e 51 ae 5f 3e
       0.67310625 0.88025075 0.25520644 0.2184384
000090 f4 11 14 3f f0 ff 7a 3f 06 be 98 3e 21 c4 ba 3e
       0.57839894 0.9804678 0.29832476 0.3647776
0000a0 5c 96 ab 3e 5d 98 06 3e 3a 7a 2a 3f 5b d7 89 3e
       0.33513153 0.1314406 0.6659275 0.26922116
0000b0 bd 7f 49 3e 44 2e b9 3e df 2e f9 3e 67 cb 33 3e
       0.19677635 0.3616811 0.48668572 0.1755806
0000c0 43 83 44 3e 3f a6 12 3f de 95 48 3e 18 60 24 3f
       0.19190697 0.5728492 0.1958842 0.6420913
0000d0 22 c4 f9 3d 6b 13 b1 3e 75 62 f3 3e 5b 37 18 3e
       0.121956125 0.34585127 0.47536054 0.14864866
0000e0 55 f1 b0 3e 34 3d de 3e 2e 56 c2 3e 9f c2 de 3e
       0.34559122 0.4340607 0.37956375 0.4350786
0000f0 87 ea 2c 3f 27 91 9c 3e e7 be 45 3e 13 a2 c9 3e
       0.6754536 0.30579492 0.19311105 0.39381465

features.8.weight f4 [128, 64, 5]
000000 c1 5b 0a 3d e8 8f f2 bc 22 99 40 bc 1a 64 47 bd
       0.03377891 -0.029609635 -0.01175526 -0.04867945
000010 84 bb 44 bb 83 60 2c bd fa 0d 87 3d 38 86 60 3c
       -0.0030018995 -0.04208423 0.06594463 0.013703875
000020 3c b4 17 3c 9d c9 85 3d be 72 87 bc ff 62 53 3d
       0.00925928 0.06532595 -0.016534206 0.051608082
000030 65 20 84 bd ad 76 9d bc e1 f5 6d bc b3 45 37 bc
       -0.06451491 -0.019221628 -0.014523954 -0.011186051
000040 3d 20 83 bc b4 a5 af 39 c3 c4 26 bd 62 b5 ce bc
       -0.016006583 0.0003350206 -0.04071499 -0.025232974
000050 58 f0 59 3d 87 0d d9 bc 34 93 a5 bd a9 3f 71 bd
       0.053207725 -0.026495708 -0.080847174 -0.0588986
000060 0d 8d 39 bd 93 a1 52 3d 43 9d 7f bb f1 33 84 bc
       -0.045300532 0.05142362 -0.0039003647 -0.016138049
000070 08 66 e3 3c 5c 81 a1 3c 4f 1e 27 bd 69 a1 c5 3c
       0.027758613 0.019715004 -0.04080039 0.024124818
000080 9f d5 32 3d 89 6d d1 bc 2c 03 38 3d 36 31 a1 bc
       0.043660756 -0.025564926 0.0449249 -0.019676786
000090 79 5d af bc 2f 3e 1f bd 1d 27 9a 3a 8d 71 4a 3b
       -0.021406876 -0.038877662 0.0011760924 0.0030890435
0000a0 2d e2 82 3d 49 2b b3 3d 6f d9 36 3b b3 ed 59 bc
       0.06390796 0.0874849 0.0027900597 -0.013301301
0000b0 f7 d1 8b 3d e0 91 9c bc d2 9e 77 bb e5 93 6a 3d
       0.06827157 -0.019112527 -0.0037783873 0.05726995
0000c0 ab 87 0a 3d 9d 99 11 3d 9b 5b ea 3c 94 79 fc 3c
       0.03382079 0.035546888 0.028608134 0.030819692
0000d0 62 f6 47 bc ec 6c 1a bd 5c 8d 20 3d 30 1b 58 3d
       -0.012204738 -0.037701532 0.03919731 0.052760303
0000e0 c5 a4 05 bd 44 e7 6c ba e2 1d 40 bd 92 b6 74 3b
       -0.03262784 -0.0009037147 -0.0469035 0.0037340266
0000f0 f7 a4 d2 3c a3 85 86 3c ff e6 8b 3c c4 2a 0f bd
       0.025713427 0.016421145 0.017077921 -0.034952894
000100 7e 9c df bc 1c d7 20 3d d9 d3 b4 bb 49 89 79 3d
       -0.027296301 0.039267644 -0.0055184183 0.06092194
000110 44 57 0f bd 8f 35 60 bd 93 36 b1 bb 7f a4 f7 bc
       -0.034995332 -0.054738577 -0.005408117 -0.030229805
000120 c9 dd 96 bd 70 65 30 bd 0d 9c b2 bc 19 2a ac bd
       -0.07366521 -0.04306549 -0.021802926 -0.08406467
000130 9c c0 19 3b 6e ab 48 3d cf 3d 28 bd 9c 21 04 bc
       0.0023460751 0.048991613 -0.04107457 -0.008064654
000140 24 74 bd bd 60 95 9a bd 16 66 ad 3c 95 5d b7 bd
       -0.09250668 -0.07548022 0.021166842 -0.08953396
000150 93 95 3b bd 10 4b a4 bc bd c2 e3 bb cf 30 4d bd
       -0.045796942 -0.020055324 -0.006950705 -0.050095376
000160 a7 a5 a9 3c 83 9a 66 bd 73 44 1a bd 5c 3a 46 bd
       0.020708872 -0.056299698 -0.037662935 -0.0483955
000170 65 bd 14 3d be d0 21 bd 7f d0 e5 3c c8 24 97 bc
       0.036313433 -0.039505713 0.02805352 -0.018450156
000180 15 46 84 bc 0e 9d ff 3b 85 3c 78 bd 66 c8 d4 3c
       -0.016146699 0.007800705 -0.06060459 0.025974464
000190 f4 b4 2f bd ff fc 34 bd 42 fe 0d bc 8b 3f 5f 3d
       -0.04289718 -0.04418659 -0.008666577 0.05450396
0001a0 e0 f3 f4 bc d0 f8 62 bc 56 bc 08 3d 2f d0 22 bd
       -0.029901445 -0.013853267 0.033382736 -0.03974932
0001b0 1f 00 6a bb 51 af da bc a4 24 7c 3d 3c 49 5d bd
       -0.0035705639 -0.026694926 0.06155838 -0.05402492
0001c0 ba c8 a3 3c 9d 19 15 bd ab a7 9d bb 71 cf a6 bc
       0.019993175 -0.03640138 -0.0048112473 -0.020362588
0001d0 00 e8 10 3d 53 69 21 bd 4c cb 3a 3d 1e d3 35 bd
       0.035377502 -0.039407086 0.045604035 -0.04439079
0001e0 ae 38 6d bd fd c8 e8 3b 93 57 e8 bb 42 70 d9 bc
       -0.057915382 0.007104038 -0.007090518 -0.026542787
0001f0 1d f1 70 3d 74 54 a6 39 a5 00 9a bd 8a e1 b7 bc
       0.058823694 0.0003172491 -0.07519654 -0.022446413
000200 c4 22 09 3d 0d 71 27 bd e7 65 a1 3c f4 a1 13 3d
       0.03348042 -0.040879298 0.019701911 0.036043122
000210 ba 19 89 3c 1e 3a 84 bc 02 ee 34 bd e8 4a 8c bc
       0.0167359 -0.016140994 -0.044172294 -0.017125562
000220 08 ac 93 3b 57 e0 09 3d 5f 5c 0d bc 0c 75 91 3c
       0.0045065917 0.033661213 -0.00862798 0.017756008
000230 1b 0f ef bc e2 6d 00 3c 3b cc 1c 3d 60 c2 4c bd
       -0.029182008 0.007838698 0.038280707 -0.049990058
000240 00 36 4f 3a fa 25 16 3d 1b c1 ab 3c e9 09 a0 bd
       0.000790447 0.03665731 0.020966103 -0.0781439
000250 f1 47 7e bd 28 9b 66 bc 55 71 72 3d 66 e4 37 3d
       -0.062080327 -0.014075078 0.059190113 0.044895552
000260 9d 3f 9e bb c6 67 5e bc 69 bd 40 3d 3d 7e c3 3c
       -0.0048293606 -0.013574546 0.047055636 0.023863906
000270 32 5c 32 bd 3e 4e ca bc 9e 38 08 bd d1 3d b3 3c
       -0.043544956 -0.024695512 -0.03325712 0.021880062
000280 8d bc d0 bb 19 38 02 3d d3 1c 72 3c 15 08 10 bc
       -0.0063701333 0.03179178 0.01477738 -0.008790989
000290 9e ab a4 bc 38 46 33 3c 11 86 fd bc 1b ab d4 bc
       -0.020101365 0.010942034 -0.030947717 -0.025960496
0002a0 9f 4a a7 bd ee 3b 15 bc 0a 23 9f bd ed 44 f8 3b
       -0.0816853 -0.009108527 -0.07770355 0.007576576
0002b0 bf c6 77 3d 16 d3 3a bd 46 b0 9c bd 99 64 08 bc
       0.060492273 -0.045611463 -0.07650809 -0.008324766
0002c0 33 46 59 3d 1e 1b 22 bc 90 ec a2 3c 9f d8 2f bd
       0.053045463 -0.009894161 0.019888192 -0.042931195
0002d0 dc 16 59 38 e7 eb 7a bd c2 e3 93 bd ab d0 49 3d
       5.175812e-05 -0.06126013 -0.07221176 0.049271267
0002e0 5e 05 51 bb 00 c2 8b 3c dd 36 3f bd c1 c7 81 3c
       -0.0031894068 0.01706028 -0.04668318 0.01584232
0002f0 50 d4 f4 bb 1c c1 45 bc 2e 98 1f 3d ee 13 19 3d
       -0.0074715987 -0.012069967 0.03896349 0.037372522
000300 62 dc 09 bc 1d 2b 5e bc 2d 25 31 3d ea f8 d7 bc
       -0.00841436 -0.013560084 0.043248344 -0.026363809
000310 16 1c 82 bc 3d 5d 9b bc 30 c6 af 3c 65 0b 27 3d
       -0.015882533 -0.018965358 0.021456808 0.04078235
000320 53 61 db bc 97 09 9a bc c6 39 25 bd 90 de 54 3c
       -0.026779806 -0.0188034 -0.0403383 0.012992516
000330 7b 85 53 bc d4 6b ae 3d 6d f9 6e 3d 03 74 03 bd
       -0.012910242 0.0851666 0.05834334 -0.03209306
000340 c3 e2 05 3d 10 91 0e 3c b1 32 88 3b a5 a0 88 3c
       0.03268696 0.008701578 0.0041564335 0.016678164
000350 d9 3d 8e bd a0 99 23 bd 1c 0f 55 3b a4 7a 99 bc
       -0.0694539 -0.03994143 0.0032510227 -0.018735237
000360 37 de 5f 3d e8 ab 4d 3c 16 b9 8d bd 1b 79 f1 3c
       0.05465528 0.012553193 -0.06920068 0.029476693
000370 f3 a4 59 3d 30 34 ea bd 97 62 58 bd 0b ad af 3c
       0.053135823 -0.11435735 -0.052828398 0.021444818
000380 14 94 b5 3c bf 67 b1 3c bb 4c db bb 68 28 db bc
       0.022165336 0.021655915 -0.0066924966 -0.026752666
000390 8c 5f 12 bc 5a 5e 02 3c 74 b6 1e 3d 1c 4a 52 bd
       -0.008933913 0.0079570655 0.03874822 -0.051340207
0003a0 6f 26 77 3b 8e b8 f3 bc 44 1e 2b bd 63 f2 e7 3c
       0.0037712117 -0.029751088 -0.04177691 0.028313821
0003b0 c9 9c 4f bb e8 a5 47 bd 3d cb 53 bb 8c e1 f7 bc
       -0.0031679145 -0.048742205 -0.0032317184 -0.030258916
0003c0 3d 19 3a bd b4 19 9e bc 73 38 8c bb c8 d6 39 3d
       -0.045434225 -0.019299366 -0.00427919 0.045370847
0003d0 32 97 2b 3d 4b 95 0a bd d5 96 d9 3b c1 d0 f4 3c
       0.041892238 -0.033833783 0.006640295 0.029884698
0003e0 63 8c cc bb f0 33 2b bc d4 b0 0c 3d 9e ae 33 bd
       -0.0062423213 -0.010449395 0.034348324 -0.0438677
0003f0 4a 38 c0 bc f6 24 59 3d 67 88 07 bd 26 12 37 3d
       -0.02346434 0.053013764 -0.033089068 0.044695042

features.8.bias f4 [128]
000000 1a 4b a9 3c 3e 86 75 3c ef 6e dd 3c 8a c8 5b 3d
       0.020665694 0.014985619 0.027030436 0.053658046
000010 7c bc 57 3c 5b 4c ee bc 2b 63 fa bb 3b 12 18 3d
       0.013167497 -0.029089143 -0.0076412163 0.03712676
000020 82 c6 e2 bc e5 f0 88 3c 29 d6 f6 bc af 1b 24 bb
       -0.027682547 0.01671643 -0.030131416 -0.0025040915
000030 04 cb 9b 3c eb 1e 44 3d d6 cf 42 bd 68 02 ff 3c
       0.019017704 0.04788105 -0.04756149 0.031129077
000040 31 b0 19 3d 80 b0 f1 39 4f a1 60 3d 9f c4 1f bd
       0.037521545 0.00046098605 0.054841336 -0.03900587
000050 96 be 29 3c a9 07 11 bd de 1a 7d bd 63 6c 71 bd
       0.010360381 -0.035407696 -0.0617932 -0.058941256
000060 b2 4f 4a bd ba 14 ba 3c 37 a4 66 bc 8d f4 28 3c
       -0.04939241 0.022714961 -0.014077238 0.010312212
000070 68 85 1c 3c 6e 0b 44 bd 20 b6 83 bd d7 1b 66 bd
       0.009553291 -0.047862463 -0.06431222 -0.056178894
000080 47 4f 81 3d 13 a0 33 3c 4a 4c 03 bd 1e 6e 9d 3b
       0.06313949 0.010963458 -0.032055177 0.0048043868
000090 66 9f fe bc 9a 22 2d bd c8 64 65 bb 9a 03 76 bd
       -0.031081866 -0.042269327 -0.0035002697 -0.06006203
0000a0 b6 b4 2d bd fd 5f 1d bd f1 32 05 3b 3a 1d 61 3d
       -0.042408668 -0.03842162 0.0020324553 0.054959513
0000b0 a6 ad 09 bc 14 c5 5c 3d d9 2e 9b 3b 57 1c 2a bd
       -0.008403217 0.053898886 0.0047358093 -0.041530933
0000c0 ae ce 1d bd 90 b6 5f 3c e6 ba f5 3b a3 cc 70 3d
       -0.038527183 0.013654366 0.0074990867 0.058788907
0000d0 97 70 88 bd 41 cc 3f 3d a3 fa 4a 3d 6b e8 d2 bb
       -0.066621 0.04682565 0.049555432 -0.006436398
0000e0 92 e7 5c 3d af 01 a9 3c 94 2d 26 bc 5f 8b ab 3b
       0.05393178 0.020630686 -0.010142703 0.00523512
0000f0 34 36 82 3c c1 93 f3 3c 93 3e db bb 13 d5 05 bd
       0.015894987 0.02973354 -0.006690809 -0.032673907
000100 3c 5a 39 bd a8 67 90 bc 85 1c a2 bc 65 4c a9 3c
       -0.04525207 -0.017627552 -0.01978899 0.02066631
000110 f5 62 e1 bc 14 67 86 3c 39 98 f8 3c a0 3a ab bc
       -0.027513007 0.016406573 0.030346023 -0.020901978
000120 14 70 7f bd e2 e8 8f bc 23 c1 91 bd 74 63 0a 3d
       -0.062362745 -0.017567102 -0.07116916 0.033786252
000130 61 26 b1 bb 0f c2 33 3c 69 6c 8a bc af 62 72 bd
       -0.0054061865 0.01097156 -0.016897397 -0.059176143
000140 f2 e5 81 3d d5 a7 17 bd c1 85 da 3b 2d dc ab 3d
       0.06342687 -0.03702529 0.0066687767 0.083916046
000150 d7 9d 05 bd 34 42 ee bc f9 3c 4c bd 8f 8d 25 3c
       -0.03262123 -0.029084302 -0.049862836 0.010104551
000160 aa 3c 1b bd 17 4b 00 bd e8 4a fe 3b 43 7f 08 bb
       -0.03789965 -0.03132161 0.0077603944 -0.0020827807
000170 57 75 d8 3c f4 a3 82 bc ca ae dc 3c 63 f6 d5 bb
       0.02642314 -0.01594732 0.026938815 -0.0065296157
000180 a1 d6 18 3d 8b 25 64 bd 17 e1 14 bd c2 29 a0 bc
       0.03731406 -0.055699866 -0.036347475 -0.019551162
000190 06 52 bb 3a 96 33 69 3d fc 88 3a bd 85 24 74 3d
       0.0014291413 0.05693396 -0.045540795 0.05960514
0001a0 c2 33 bb bb f6 dd 00 3d aa a7 c4 3b ae f5 19 bc
       -0.005712957 0.03146168 0.0060014324 -0.0093969535
0001b0 a6 24 72 3d 04 d7 45 bc 79 ac 2d bd a3 72 12 bd
       0.059116982 -0.0120751895 -0.04240081 -0.035753857
0001c0 0c 56 ad bc 8a 0c 21 3d ad 19 87 bd a8 2b 4f bc
       -0.021159194 0.0393186 -0.06596694 -0.012644686
0001d0 e0 6f 51 3d 94 ce b6 bc a0 a4 0c bd 5f 9a 1f bd
       0.051132083 -0.022315301 -0.034336686 -0.03896558
0001e0 e3 c6 c0 3c b1 45 17 bc 05 77 69 bd 14 7f 0c bc
       0.023532337 -0.009232924 -0.05699827 -0.00857522
0001f0 78 bd 03 3c a1 c9 40 bc de 59 db ba 66 d6 d5 bc
       0.008040778 -0.011766822 -0.0016735157 -0.02610321

features.9.weight f4 [128]
000000 95 8e 76 3f e2 1d 7c 3f 46 98 83 3f 79 dc 7d 3f
       0.9631131 0.984831 1.0280845 0.9916454
000010 43 cc 8a 3f d5 e5 71 3f a4 86 7a 3f 2c 8e 7d 3f
       1.0843586 0.9449132 0.97861695 0.9904506
000020 23 43 6f 3f 81 b0 77 3f 3d 9e 6b 3f 1d 67 89 3f
       0.9346182 0.967537 0.9203833 1.0734593
000030 81 5a 82 3f 5b da 73 3f 7d ae 80 3f 51 ba 79 3f
       1.018387 0.9525506 1.005325 0.9754992
000040 64 80 7c 3f b9 cc 7d 3f 35 fd 71 3f 1b 06 7c 3f
       0.9863341 0.99140507 0.9452699 0.98446816
000050 10 37 7c 3f cb 83 7c 3f ec 23 7e 3f 07 39 7a 3f
       0.9852152 0.986386 0.9927356 0.97743267
000060 cd 02 84 3f 5c d7 76 3f 88 87 72 3f d4 cd 80 3f
       1.0313355 0.9642236 0.94738054 1.0062814
000070 5d 90 6f 3f fe 28 85 3f 52 5f 78 3f cb 60 7e 3f
       0.93579656 1.0403135 0.9702045 0.99366444
000080 dc 7f 70 3f f8 15 81 3f c7 4f 79 3f b1 86 77 3f
       0.939451 1.0084829 0.97387356 0.966899
000090 ff d6 7f 3f f1 02 7e 3f b7 6f 7a 3f 66 77 84 3f
       0.99937433 0.9922324 0.97826713 1.0348938
0000a0 38 97 7e 3f 09 d8 83 3f 82 40 83 3f 73 60 82 3f
       0.9944949 1.0300304 1.0254061 1.0185684
0000b0 73 6c 75 3f dd 09 79 3f fd 33 78 3f 7e cf 87 3f
       0.95868605 0.97280675 0.9695433 1.0610197
0000c0 2b 2e 7a 3f fc 3b 85 3f 62 9f 82 3f 85 ec 82 3f
       0.97726697 1.0408931 1.020489 1.022843
0000d0 ce fb 78 3f 94 8f 7f 3f c8 c9 7d 3f a5 66 7c 3f
       0.97259223 0.9982846 0.9913602 0.98594123
0000e0 5f 5e 7d 3f 31 4a 78 3f e9 24 77 3f 20 aa 7d 3f
       0.98972124 0.9698821 0.96540695 0.99087715
0000f0 b3 61 85 3f f3 f5 81 3f dc 03 83 3f a3 ed 7d 3f
       1.042044 1.0153183 1.0235553 0.9919073
000100 d0 78 6f 3f bd fb 83 3f 42 87 72 3f 8c 56 71 3f
       0.9354372 1.03112 0.9473764 0.94272685
000110 e0 36 7e 3f f4 bc 72 3f a4 6e 7b 3f b6 5b 75 3f
       0.9930248 0.9481957 0.982157 0.95843065
000120 19 04 86 3f fe 02 7a 3f 47 e8 83 3f 75 80 73 3f
       1.047 0.97660816 1.030526 0.95117885
000130 0a 99 85 3f 31 4f 80 3f ad 5b 7b 3f b4 b8 7b 3f
       1.0437329 1.0024167 0.9818676 0.9832871
000140 a8 fe 78 3f ec d9 74 3f 46 64 82 3f f4 08 7c 3f
       0.97263575 0.9564502 1.0186851 0.9845116
000150 00 e8 88 3f 87 28 84 3f 3e 4c 85 3f 68 51 87 3f
       1.0695801 1.0324868 1.0413892 1.0571718
000160 30 01 80 3f fb b4 73 3f 7c 1d 80 3f 65 83 82 3f
       1.0000362 0.9519803 1.0008998 1.0196348
000170 12 7b 82 3f 09 03 81 3f 97 5e 89 3f 09 a1 78 3f
       1.0193808 1.0079051 1.0731992 0.9712072
000180 e1 fd 74 3f 63 64 86 3f ff 85 70 3f 63 32 75 3f
       0.9569989 1.0499386 0.9395446 0.9578001
000190 ad 69 80 3f aa 7c 81 3f b0 b1 7b 3f ce 15 79 3f
       1.003225 1.011617 0.98318005 0.97298896
0001a0 00 cb 73 3f bf 70 70 3f 41 db 83 3f 50 57 71 3f
       0.9523163 0.93922037 1.0301286 0.94273853
0001b0 2f cf 80 3f a2 a0 81 3f 7c 61 77 3f a8 d2 7e 3f
       1.0063227 1.0127146 0.96633124 0.99540186
0001c0 17 5e 81 3f 99 89 6c 3f d0 36 7a 3f 72 b2 7e 3f
       1.0106839 0.9239746 0.9773989 0.99491036
0001d0 08 30 80 3f d9 4f 72 3f 70 ba 75 3f 3d c1 82 3f
       1.0014658 0.9465309 0.95987606 1.0215222
0001e0 6b 67 7a 3f 97 fa 80 3f 90 a8 82 3f 40 76 6c 3f
       0.97814053 1.0076474 1.0207691 0.92367935
0001f0 fd 1b 84 3f ba f3 66 3f 75 8b 83 3f 75 7c 7e 3f
       1.0321041 0.9021565 1.0276934 0.99408656

features.9.bias f4 [128]
000000 bb 94 7a bd 6b 2f bc bc 8b a3 85 bd 60 80 82 bd
       -0.061176997 -0.02297183 -0.06525334 -0.06372142
000010 be 71 cb bd f6 e5 8a bd 2c 8e d3 bc 59 c7 72 bd
       -0.09933804 -0.06782143 -0.025824629 -0.059272144
000020 5e bb 92 bd 89 45 a9 bd 4b 91 8d bd 0d 5a b8 bd
       -0.07164644 -0.08265216 -0.06912478 -0.09001551
000030 bd ad 49 bd 1d 5e d1 bc 95 dd 0e be f9 dd 6e bd
       -0.049237955 -0.025557572 -0.13951714 -0.05831716
000040 84 27 45 bd a5 5f 31 bd 19 92 6e bd f1 90 74 bd
       -0.04813339 -0.043304104 -0.0582448 -0.05970854
000050 a0 d2 8b bd 6b 30 61 bd 60 a8 82 bd 15 d8 d3 bd
       -0.06827283 -0.054977816 -0.06379771 -0.10343949
000060 d2 ed 1b bd e6 d3 11 bd c2 72 e7 bd 14 de 03 bd
       -0.0380686 -0.035602473 -0.11301185 -0.032194212
000070 89 74 7f bd 40 47 83 bc 9b 9f 38 bd 7c 19 03 bd
       -0.062366996 -0.016025186 -0.045074087 -0.032006726
000080 5b b4 32 bd 06 ec 05 be 32 f9 a9 bc 6b be 85 bd
       -0.04362903 -0.13078317 -0.020748708 -0.0653046
000090 3d fe 43 bd 6a 34 35 bd 18 f4 0a bd 64 7e a0 bd
       -0.047849882 -0.04423944 -0.033924192 -0.07836607
0000a0 cd b4 99 bc 36 9b 29 3b 01 63 09 be 2e 96 64 bd
       -0.01876297 0.0025879866 -0.13416673 -0.055807285
0000b0 89 25 09 bd 8b 13 61 bd c2 da 26 bd dc 47 2f bc
       -0.033483062 -0.05495028 -0.040735967 -0.010698285
0000c0 24 0b f9 bc 31 8c 87 bd 62 99 ba bd b1 22 a5 bd
       -0.03040082 -0.06618536 -0.09111287 -0.080632575
0000d0 50 79 19 bd 2c ea 25 bd c7 5f 68 bd 4b 8b ae bd
       -0.03746921 -0.040506527 -0.056731965 -0.08522662
0000e0 60 9b bd bd ce 55 a7 bc ea 8e 88 bd 8e c9 2e bd
       -0.09258151 -0.020426657 -0.06667884 -0.042672686
0000f0 d6 02 94 bd 8b f7 2a bd 27 90 67 bd 0a 11 29 bd
       -0.072271034 -0.04173998 -0.05653396 -0.041276015
000100 88 fd 2e bd 31 e7 87 bd 0f 25 cd bc 32 d1 fa bd
       -0.042722255 -0.06635893 -0.025042085 -0.12246932
000110 ea 3c 41 bd 3c b5 32 bd 9c c8 31 bd 20 d4 a1 bd
       -0.047177233 -0.04362987 -0.043404207 -0.07901788
000120 b5 8e 62 3c f7 0c ac bd 4b 39 02 bd 4f 89 a3 bd
       0.013827969 -0.0840091 -0.03179292 -0.07985174
000130 75 51 c7 bd d1 4c 93 bc cb dc 07 bd 69 e7 8f bd
       -0.097323336 -0.017980965 -0.03316955 -0.0702656
000140 2f 54 89 bd e3 ce 81 bd b4 b4 34 bd f1 20 85 bd
       -0.0670551 -0.06338289 -0.044117644 -0.06500424
000150 f0 72 8c bd 8e 48 ae bc b2 34 50 bd 9e f3 9e bd
       -0.0685786 -0.021274831 -0.050831504 -0.0776131
000160 dd 56 dc bc 51 b9 25 bd 03 51 d3 bd 61 62 3f bd
       -0.026896888 -0.040459935 -0.10318186 -0.04672468
000170 10 c0 af bd 99 fd 9a bd 07 e3 ac bd b5 a7 c0 bd
       -0.08581555 -0.07567901 -0.084417395 -0.094069876
000180 5f f4 49 bd db 62 95 bd 75 c2 99 bc 3f 45 bd bd
       -0.049305316 -0.07294246 -0.018769482 -0.09241723
000190 77 2e 4a bd d2 6f 66 bc 1a 5d 68 bd d4 47 8d bd
       -0.04936072 -0.014064746 -0.056729414 -0.06898466
0001a0 e0 ab 1b bd 22 43 5c bd 1a e7 9b bd 5c 52 cd bd
       -0.03800571 -0.05377496 -0.076124385 -0.100254744
0001b0 dd 86 62 bd 48 f0 14 bd 06 c3 78 bd 7d b4 df bd
       -0.055304397 -0.036361963 -0.060732864 -0.10923097
0001c0 1b f8 07 bc 5e 98 b7 bd 7a 4f 8d bd f4 d9 85 bd
       -0.008298899 -0.089646086 -0.068999246 -0.06535712
0001d0 d2 fa e7 bd ff 7b 62 bd f0 a9 32 bd 71 d6 02 be
       -0.11327137 -0.055294033 -0.043619096 -0.12777115
0001e0 76 f7 b9 bd e7 84 5f bd c6 0a 08 bd f3 82 ee bc
       -0.090804026 -0.054570105 -0.0332134 -0.029115176
0001f0 38 82 b0 bd 65 a5 66 bd ee 11 38 bd e4 81 e4 bc
       -0.08618587 -0.056310076 -0.044938974 -0.027893968

features.9.running_mean f4 [128]
000000 5e e3 0c bf f8 81 4b bf aa 80 f2 be 6e 41 28 bf
       -0.55034435 -0.7949519 -0.47363788 -0.6572484
000010 f0 4b 82 bf f1 63 8e bf dd fe 12 be e4 fb 17 bf
       -1.0179424 -1.112425 -0.14355035 -0.5936873
000020 8d 83 e2 be e3 04 58 bf 27 d3 9a bf ef 01 a5 be
       -0.4424099 -0.84382457 -1.2095689 -0.32228038
000030 4f 7c 58 3e 08 f3 77 bf ea 5b 70 be b1 ae 56 be
       0.2114117 -0.9685521 -0.23472562 -0.20965077
000040 a2 b5 d0 bf 68 06 a1 bd 97 5d 21 be 88 00 15 bf
       -1.630543 -0.0786255 -0.15758358 -0.58203936
000050 c3 8d 2d bf e3 e8 b9 bf b2 8c 6d bf f9 41 5e be
       -0.67794436 -1.4524196 -0.9279281 -0.21704854
000060 f2 2a 93 bf 4b 5f cd be f8 ae 57 be e7 b2 89 bf
       -1.1497481 -0.40111765 -0.21062839 -1.0757722
000070 05 e9 2d bf 3b 4f 09 3f f8 ba 09 bf 83 66 e7 be
       -0.67933685 0.5363652 -0.53800917 -0.45195398
000080 9d c0 90 bf 35 f4 46 bf 41 96 df be 09 11 06 be
       -1.1308781 -0.7771638 -0.43669322 -0.13092436
000090 3c b5 52 3e 24 2a 47 bd 7b ad b0 bf 81 97 74 3d
       0.20576948 -0.048624173 -1.3802942 0.059714798
0000a0 70 67 2a bf 46 65 52 3d e2 13 4f be 1e 51 ef bf
       -0.66564083 0.051366113 -0.20222428 -1.869663
0000b0 40 ab 4d bf 4c 1e 05 be 98 9e 51 bd 74 de 85 bf
       -0.8033943 -0.12999839 -0.051176637 -1.0458512
0000c0 ab 5b 74 be 77 af a5 bf b0 f3 4a 3e 10 bb a0 3e
       -0.23863094 -1.2944173 0.19819522 0.31392717
0000d0 fe 25 c3 be f8 9c 15 3e 4c fc 59 3e 36 03 28 be
       -0.38114923 0.1461066 0.2128765 -0.16407475
0000e0 3a 13 fb be df bd 26 bf 14 e1 d3 be 1b 3f c0 bf
       -0.49038106 -0.6513347 -0.41382658 -1.5019258
0000f0 ff 5b 7b 3d 21 67 c6 3e e2 63 12 bf a4 4d e6 3e
       0.06136703 0.38750556 -0.5718366 0.4498111
000100 bf da 35 bf 41 0d 2a 3e a4 4a 71 bf cf 26 2a bf
       -0.71036905 0.16606618 -0.9425452 -0.6646547
000110 2e f0 dc 3e db aa 36 bf ef 9d 42 bf 52 8e 9a 3f
       0.43151993 -0.71354455 -0.7602224 1.2074683
000120 c2 75 6b be 43 4d 9a 3f 0d 37 0d 3d fd b6 1d bf
       -0.2299414 1.2054828 0.03447633 -0.6160734
000130 5a 6c de 3d ae 0e 25 3f 14 f2 64 bd eb 32 dc 3e
       0.1086051 0.64475524 -0.055894926 0.43007597
000140 c6 fa 62 bf dd 85 e1 bf 47 d6 86 3e e7 13 e0 be
       -0.886639 -1.7618977 0.26335356 -0.43765184
000150 6c cf 57 bf 81 db d9 be 79 0f a7 bf a5 c9 6f bf
       -0.84300876 -0.4255028 -1.3051597 -0.9366706
000160 08 57 71 bf 49 c1 94 bf 1e d7 6a be a6 07 58 be
       -0.94273424 -1.1621486 -0.22933623 -0.21096668
000170 80 95 b6 3e 8f cb 22 be 0a ee 8b bf 57 e2 6b be
       0.35660934 -0.15897964 -1.0932019 -0.2303556
000180 a4 59 25 bf 9a 9e e6 be e2 53 d6 be 3a 76 86 be
       -0.64589906 -0.45042878 -0.41860873 -0.26262075
000190 ce a2 26 be 36 82 87 be 8f e0 28 3f 23 88 ed bd
       -0.16273043 -0.2646653 0.6596765 -0.11598232
0001a0 3d f3 66 bf be d0 ac be 86 e6 01 3f 9e 4a b8 be
       -0.902149 -0.33753008 0.50742376 -0.35994428
0001b0 63 44 3c 3f 2b aa 1b be a7 44 3b 3f 04 40 3b 3e
       0.7354185 -0.15201633 0.7315163 0.18286139
0001c0 9b bc 16 3e b7 4c 1c 3f 76 00 b3 be f0 d7 c3 be
       0.14720385 0.6105456 -0.3496129 -0.38250685
0001d0 f9 49 88 3e bc fd 49 be 36 94 fe 3e 0e 7b a3 be
       0.26618937 -0.19725698 0.4972245 -0.3192982
0001e0 6f 06 ad 3f 46 33 d4 3e f6 3f 71 bf 3b 1e ce 3d
       1.3517588 0.4144537 -0.9423822 0.1006436
0001f0 17 f2 5c bf 45 37 95 be 76 0e b8 bf 37 40 b6 be
       -0.863069 -0.2914373 -1.4379413 -0.35595867
