experiment_testing/mz-testing/checkpoints/ptbxl/100hz/cnn1d/fold_5/last.pt (torch, 628765 bytes, 26 tensors)

features.0.weight f4 [32, 12, 7]
0.120345585 -0.04127527 -0.1003081 0.06349356 -0.0068792105 -0.0035099627 0.13149287 0.02727325
0.052345738 -0.059317164 0.075169 0.08381035 -0.037259355 0.05710605 -0.01669399 0.045178846
0.019559653 -0.00034082917 -0.10183938 0.052632928 0.01342835 -0.0029524823 -0.096145056 -0.080826536
0.121693656 0.07176891 0.018625207 -0.052100524 0.11332098 0.08973988 -0.073783815 -0.053125598
-0.0816452 0.030452408 0.1035625 -0.07850383 -0.066951916 0.011521391 -0.014863959 0.06672984
-0.08110889 0.027429687 -0.0040953527 0.07188795 -0.001079322 -0.104858376 -0.10655879 0.018073201
-0.07762355 -0.04095649 0.06434556 0.032159466 0.05305015 0.0013781434 -0.00590675 -0.097132616
-0.041403696 0.07226566 0.03265816 -0.082818486 0.016528198 0.020118684 0.030955669 -0.03934729
0.12704925 0.006638884 -0.034338515 0.13964967 -0.065661214 -0.057431404 -0.07836446 0.09838461
0.025948822 -0.013515124 0.08136566 0.09705546 0.0963884 -0.06776348 0.038972467 0.0026041078
-0.05331024 0.044296633 0.038412556 0.0028214653 0.038144387 0.071619935 0.056798812 -0.0380841
0.07781729 0.11198397 0.06068546 -0.116922155 -0.07435794 -0.07998738 0.06888389 0.10243471
-0.009443238 -0.011172257 0.043354522 -0.0008345238 -0.09254911 0.05845924 -0.06931939 -0.009210035
-0.04326919 0.12962261 0.12649368 0.102360845 0.01275501 -0.083610155 -0.0969184 -0.04524913
-0.12660295 -0.11250572 0.02218786 -0.077609666 0.061108567 -0.0680186 0.018637745 -0.014073063
-0.042415027 -0.059874207 0.08390155 0.09496257 0.09199601 0.0078042606 -0.099327035 -0.052461967
0.13467334 0.031050017 0.0051209135 -0.00075675914 -0.06550524 -0.029840367 0.01808872 0.14142969
0.15137812 -0.07663206 0.029551674 -0.01594259 0.043742426 -0.09022312 0.12561639 0.09608022
-0.014014562 -0.072616234 0.07146574 0.056305315 0.007213567 0.029363018 -0.08471009 -0.006506795
0.014460404 0.006195761 -0.030918326 0.107433304 0.041126925 -0.016234832 -0.047871817 -0.042469446
-0.08902692 0.03084712 0.07171634 -0.12785952 -0.017456774 0.0022913802 -0.06347174 0.091237634
0.14277169 0.0690856 0.0064881705 -0.058657326 0.01768641 -0.14589223 -0.17301829 -0.060610607
0.099648215 -0.052825864 -0.008200655 0.101274036 -0.035287105 -0.02842063 0.0484792 0.04374216
0.016664017 -0.046781942 0.024623627 -0.0024823581 0.021463696 -0.023045065 -0.034217454 -0.10089746
0.11026093 -0.019754685 0.07898889 0.024699828 0.026220517 0.09017257 0.021490678 -0.035136748
-0.018676614 -0.0023558943 -0.061280653 -0.07423748 0.011554674 -0.03240254 -0.038885932 0.056233533
-0.0663792 -0.00029018798 -0.12859273 -0.0042362898 0.1259124 0.10675913 0.021841442 0.12875302
0.10544905 0.08502431 0.05651733 0.052654512 -0.009215948 0.04993126 -0.035900325 -0.05964063
-0.016325232 -0.025231568 0.04044814 -0.012763306 0.06595805 -0.082019836 0.04322773 0.074821144
-0.09667333 -0.021609263 0.0068518333 -0.07845604 0.0046350886 0.08072683 -0.05665249 0.026661882
-0.026364334 0.07639668 -0.0035533404 -0.07413428 -0.07468632 -0.044747584 0.002226396 0.098190345
-0.057843085 -0.07954376 -0.055202108 -0.09857071 -0.10339113 -0.1106084 -0.08286842 -0.108549364
00000000: bf77 f63d 4210 29bd 556e cdbd e908 823d
00000010: 006b e1bb 6707 66bb 11a6 063e 276c df3c
00000020: 7c68 563d 8ef6 72bd 34f2 993d c3a4 ab3d
00000030: 449d 18bd 09e8 693d d6c1 88bc 740d 393d
00000040: 913b a03c 51b1 b2b9 2a91 d0bd a095 573d
00000050: 9502 5c3c 6f7e 41bb b3e7 c4bd 6288 a5bd
00000060: 863a f93d 94fb 923d e493 983c 5c67 55bd
00000070: d414 e83d 8bc9 b73d f81b 97bd 3a9a 59bd
00000080: 9935 a7bd 5477 f93c 9318 d43d 9ec6 a0bd
00000090: 161e 89bd 37c4 3c3c f687 73bc a8a9 883d
000000a0: 6b1c a6bd 39b4 e03c 4f32 86bb fd39 933d
000000b0: 0978 8dba fdbf d6bd 7f3b dabd 400e 943c
000000c0: 19f9 9ebd fec1 27bd 9bc7 833d a5b9 033d
000000d0: 1d4b 593d d2a2 b43a 698d c1bb 77ed c6bd
000000e0: ec96 29bd 0500 943d 90c4 053d bd9c a9bd
000000f0: 2566 873c f0cf a43c be96 fd3c a02a 21bd
00000100: 3319 023e ff8a d93b 8ba6 0cbd 5300 0f3e
00000110: 6379 86bd 313d 6bbd 8c7d a0bd df7d c93d
00000120: a092 d43c 8a6e 5dbc 0aa3 a63d 03c5 c63d
00000130: 4867 c53d 94c7 8abd 98a1 1f3d aea9 2a3b
00000140: d75b 5abd 6370 353d 7c56 1d3d 55e8 383b
00000150: 4a3d 1c3d 79ad 923d dfa5 683d 13fe 1bbd
00000160: ac5e 9f3d da57 e53d 5191 783d e274 efbd
00000170: fa48 98bd 6cd0 a3bd ff12 8d3d 4ac9 d13d
00000180: d0b7 1abc d80b 37bc 8394 313d f2c3 5aba
00000190: 638a bdbd f572 6f3d 53f7 8dbd b0e5 16bc
000001a0: 093b 31bd cabb 043e 8f87 013e 90a2 d13d
000001b0: 64fa 503c cd3b abbd 277d c6bd 2757 39bd
000001c0: 34a4 01be 6669 e6bd 51c3 b53c d1f1 9ebd
000001d0: fa4c 7a3d 564d 8bbd 2fae 983c b492 66bc
000001e0: 61bb 2dbd a83e 75bd 93d4 ab3d bc7b c23d
000001f0: 6768 bc3d e2ba ff3b f96b cbbd 5ce2 56bd
00000200: cfe7 093e 9b5c fe3c 56cd a73b 3f61 46ba
00000210: 9c27 86bd c973 f4bc cc2e 943c f2d2 103e
00000220: de02 1b3e 45f1 9cbd 5a16 f23c 099a 82bc
00000230: 422b 333d e6c6 b8bd 95a1 003e b5c5 c43d
00000240: 559d 65bc d2b7 94bd a15c 923d 67a0 663d
00000250: c95f ec3b b68a f03c 7c7c adbd f436 d5bb
00000260: 55eb 6c3c cf05 cb3b 6e48 fdbc fe05 dc3d
00000270: b574 283d e9fe 84bc 3d15 44bd 71f4 2dbd
00000280: bf53 b6bd 19b3 fc3c 04e0 923d 9bed 02be
00000290: 8201 8fbc fb2a 163b 79fd 81bd ccda ba3d
000002a0: be32 123e c07c 8d3d b89a d43b aa42 70bd
000002b0: 17e3 903c c664 15be b52b 31be d442 78bd
000002c0: 5d14 cc3d ef5f 58bd 0a5c 06bc c368 cf3d
000002d0: 3689 10bd 62d2 e8bc 2092 463d fb2a 333d
000002e0: fa82 883c 6c9e 3fbd 7db7 c93c 0faf 22bb
000002f0: a2d4 af3c 01c9 bcbc 9a27 0cbd 54a3 cebd
00000300: 7cd0 e13d 94d4 a1bc edc4 a13d 4b57 ca3c
00000310: 69cc d63c 65ac b83d 380d b03c 8deb 0fbd
00000320: b3ff 98bc 5965 1abb 6c01 7bbd d209 98bd
00000330: d14f 3d3c 87b8 04bd db46 1fbd 2255 663d
00000340: d1f1 87bd 5f24 98b9 d0ad 03be 93d0 8abb
00000350: 2eef 003e 88a4 da3d d3ec b23c d5d7 033e
00000360: acf5 d73d 3a21 ae3d b77e 673d 42ac 573d
00000370: 7dfe 16bc b984 4c3d 380c 13bd bc49 74bd
00000380: 7ebc 85bc 6fb2 cebc f3ac 253d 2f1d 51bc
00000390: 0415 873d 04fa a7bd 8f0f 313d d43b 993d
000003a0: abfc c5bd e905 b1bc 5885 e03b 8fad a0bd
000003b0: f1e1 973b 1c54 a53d 710c 68bd 056a da3c
000003c0: 04fa d7bc dd75 9c3d 29df 68bb b7d3 97bd
000003d0: 24f5 98bd 3e49 37bd bae8 113b 0518 c93d
000003e0: dfec 6cbd d7e7 a2bd 9b1b 62bd 71df c9bd
000003f0: bbbe d3bd a886 e2bd ebb6 a9bd 214f debd

features.0.bias f4 [32]
0.09278026 0.09976077 -0.08166303 -0.06896273 -0.13319837 0.055782635 0.016484862 0.020433055
-0.06802355 0.0013912013 0.0038602145 -0.10065822 -0.04482636 -0.098375276 0.096244186 -0.020485815
-0.040168207 0.009042499 -0.013098653 0.112086445 0.06152521 -0.081145994 0.064210266 0.024535842
0.05526678 0.078714855 -0.0799991 -0.016584128 0.114106305 0.09937609 -0.06322969 0.09634386
00000000: 9403 be3d 604f cc3d f23e a7bd 553c 8dbd
00000010: 2765 08be 557c 643d 430b 873c 3963 a73c
00000020: ee4f 8bbd f858 b63a a7fb 7c3b e625 cebd
00000030: d89b 37bd fa78 c9bd ac1b c53d ded1 a7bc
00000040: 6b87 24bd fd26 143c bc9b 56bc 948d e53d
00000050: dc01 7c3d df2f a6bd ac80 833d 64ff c83c
00000060: 6b5f 623d 4135 a13d 91d6 a3bd 70db 87bc
00000070: 91b0 e93d b185 cb3d 917e 81bd ee4f c53d

features.1.weight f4 [32]
0.9670405 1.0206468 1.043976 1.0704234 1.0063251 0.9655379 0.9575427 0.94751215
1.0061859 0.9944906 1.0481896 1.0363842 0.97095114 1.0067079 0.9718642 1.0368174
0.98627716 0.989298 1.0081358 0.9905894 0.97797555 1.0021375 1.0060515 1.0447475
0.997157 0.95834976 1.036339 0.9580672 1.0333948 1.0183816 1.0024832 0.9864802
00000000: f78f 773f 8ea4 823f 01a1 853f a203 893f
00000010: 43cf 803f 7e2d 773f 8521 753f 2890 723f
00000020: b3ca 803f f096 7e3f 142b 863f 3da8 843f
00000030: 4190 783f cedb 803f 18cc 783f 6fb6 843f
00000040: a97c 7c3f a242 7d3f 980a 813f 4497 7d3f
00000050: 9b5c 7a3f 0b46 803f 4cc6 803f 49ba 853f
00000060: ae45 7f3f 6956 753f c2a6 843f e443 753f
00000070: 4846 843f 545a 823f 5f51 803f f789 7c3f

features.1.bias f4 [32]
-0.016433662 0.039080895 0.066355966 0.026394984 0.037688233 -0.035669785 -0.032711264 0.033435788
0.016826656 -0.012948506 0.024209904 0.03357407 -0.051321246 0.035846323 0.0130584845 -0.0031789606
-0.026412498 0.019380504 0.0071127927 0.0008244343 0.023628911 0.018149048 0.0125901 0.0023494395
0.051347457 -0.0076995995 -0.017513692 -0.054954227 0.046856813 0.1054136 -0.001843158 0.054889105
00000000: e39f 86bc 4a13 203d a3e5 873d 4b3a d83c
00000010: fa5e 1a3d 7b1a 12bd 3ffc 05bd f7f3 083d
00000020: 0ed8 893c f825 54bc d953 c63c f784 093d
00000030: 3a36 52bd 98d3 123d 41f3 553c 1c56 50bb
00000040: 065f d8bc ddc3 9e3c 6e12 e93b d91e 583a
00000050: 6b91 c13c 50ad 943c b546 4e3c 0ef9 193b
00000060: b651 523d ec4c fcbb e078 8fbc af17 61bd
00000070: eeec 3f3d 16e3 d73d 1f96 f1ba 66d3 603d

features.1.running_mean f4 [32]
0.09271495 0.09969885 -0.08167401 -0.06878253 -0.13325076 0.05572134 0.016512461 0.020495553
-0.06797306 0.0013611465 0.0037263017 -0.100551605 -0.044672422 -0.09819952 0.09633885 -0.020469012
-0.04030189 0.009064967 -0.012939734 0.112032495 0.06166557 -0.08122215 0.064080715 0.024421236
0.055252448 0.07858895 -0.080159545 -0.016942292 0.11401497 0.09920753 -0.063502625 0.09648991
00000000: 56e1 bd3d e92e cc3d b444 a7bd dbdd 8cbd
00000010: e372 08be 0f3c 643d 2445 873c 4ae6 a73c
00000020: 7635 8bbd 7f68 b23a f834 743b 00ee cdbd
00000030: 6efa 36bd d41c c9bd 4e4d c53d a1ae a7bc
00000040: 9813 25bd 3a85 143c 2e01 54bc 4b71 e53d
00000050: 0995 7c3d cc57 a6bd c03c 833d 0b0f c83c
00000060: 6450 623d 3ef3 a03d b02a a4bd 90ca 8abc
00000070: ae80 e93d 512d cb3d aa0d 82bd 809c c53d

features.1.running_var f4 [32]
0.46109796 0.63853884 0.8155578 0.6220272 1.1196793 0.6093662 0.50584096 0.37032527
0.7839714 0.4421367 0.58082783 0.9149899 0.9371009 0.2221465 0.93500096 0.38374004
1.0358374 0.4650077 0.7637345 0.69210744 0.44031447 0.54392064 0.49303234 1.7363167
1.1367639 0.9716743 0.5727944 0.37918043 0.4095947 0.8038464 1.5000685 0.7370838
00000000: 0815 ec3e 4877 233f 65c8 503f 2d3d 1f3f
00000010: a751 8f3f 6cff 1b3f cb7e 013f 469b bd3e
00000020: 5ab2 483f be5f e23e 22b1 143f c73c 6a3f
00000030: d8e5 6f3f 5f7a 633e 395c 6f3f 9379 c43e
00000040: 5296 843f 7d15 ee3e 1b84 433f f42d 313f
00000050: e670 e13e 623e 0b3f bc6e fc3e a03f de3f
00000060: 7b81 913f a6bf 783f a7a2 123f f023 c23e
00000070: 66b6 d13e e1c8 4d3f 3f02 c03f 86b1 3c3f

features.4.weight f4 [64, 32, 5]
-0.033805277 -0.0060018906 0.030848213 0.064533666 0.03956255 0.078076825 -0.09569142 -0.0012076054
-0.013938459 -0.016416866 0.03414858 -0.024037832 0.00070321263 0.10258101 -0.02107668 -0.07472846
-0.096496284 -0.06593551 -0.04011583 0.105726786 0.02872957 0.032053433 -0.07333593 0.0017160025
-0.07457219 -0.039688047 0.045145832 0.093565546 -0.057225008 -0.050680235 -0.013936804 0.056476254
0.06757189 -0.056909382 0.013222886 0.03154957 -0.07715252 -0.018115606 0.005384305 0.026999338
0.0015927872 -0.0558673 0.032198448 -0.034704104 -0.01960573 0.0244028 -0.08134317 -0.09865469
0.04333976 0.047304362 0.033660144 0.10026254 -0.018868381 -0.01751101 0.055198867 -0.06370985
-0.034257114 0.007973235 -0.093861766 -0.026875451 -0.07175662 0.038845215 0.045141116 -0.025611194
-0.059718322 0.06874706 -0.00019876371 0.026063615 0.06145923 -0.04422966 0.0022842006 0.039148416
-0.078058265 0.061148323 0.04349793 0.053456385 0.014253882 0.018036207 -0.014092952 0.030628014
0.07404485 -0.010764639 0.044807874 0.06356631 -0.06639146 -0.022650601 -0.032404423 -0.035418008
0.051056165 -0.045398477 0.042852577 0.026100837 -0.05655155 -0.0038551579 -0.065145075 0.04155556
0.027687404 -0.006114071 0.046668362 -6.415616e-05 -0.066408396 0.026424523 -0.08703829 0.026718248
0.07048354 0.009091883 0.07155832 -0.02011494 0.04894813 -0.09941875 -0.051489793 -0.0039549656
0.008091058 -0.014583772 -0.085517585 0.050577737 0.043578994 0.08030499 -0.025951982 -0.05159631
0.049699802 0.02741576 0.01459426 -0.03274031 -0.04351143 0.051233016 -0.00018148542 -0.054484174
0.020282758 -0.019556478 0.004149693 -0.08815451 0.0544506 0.061063558 -0.015074217 0.02175536
0.005038537 -0.0129866395 0.007764001 -0.012903523 -0.021813164 0.09394846 -0.052496582 -0.0015548404
-0.07470458 0.032960594 -0.0022387528 0.045028284 0.002125115 0.055206273 -0.0829699 -0.08387212
-0.011251642 -0.10797343 -0.036376543 -0.033507466 0.0035546345 -0.055040337 -0.0281062 -0.0676393
-0.055809587 -0.019664101 0.078276694 -0.015694136 -0.0282209 0.0035432316 -0.069399714 0.010122331
0.066218734 -0.054438755 -0.046689086 0.11086824 -0.054816052 0.02771242 -0.007896116 -0.06595717
-0.017369881 0.10836651 -0.004102544 0.071616575 0.04516964 0.07619345 0.0021626286 -0.07669979
-0.05777621 0.062450312 0.05842074 0.04754381 0.06270654 -0.028993139 0.027208516 0.06110658
-0.05117939 -0.033138007 -0.04275204 0.07132364 -0.05250122 0.048540946 0.075722486 -0.08536461
-0.013344397 -0.008448407 0.06975899 0.023579158 0.029321488 -0.023627995 0.0018900078 -0.07529381
0.079764895 0.037877146 0.027362399 0.029577095 -0.0031780202 0.0054791435 -0.069904044 -0.060017582
0.0015988587 0.08639597 -0.09937341 0.042446904 -0.049757376 0.030907406 -0.040119905 0.0506783
-0.025836397 0.0044336477 -0.037716188 -0.050186187 -0.01788694 0.024594586 0.040659703 -0.0079646995
-0.05713399 0.08440868 -0.0418146 0.00461412 0.08077509 -0.062605165 0.034397453 0.011602455
0.087375104 0.006454535 0.048447326 -0.07080086 -0.06745725 -0.10515016 -0.017263753 -0.03965651
0.06553762 -0.015396345 0.05154891 -0.09045003 0.004988128 0.06451008 0.033773955 -0.026068613
00000000: 6777 0abd 82ab c4bb 64b5 fc3c 3a2a 843d
00000010: 570c 223d bee6 9f3d ddf9 c3bd 8348 9eba
00000020: 225e 64bc aa7c 86bc 62df 0b3d fdea c4bc
00000030: cd57 383a fe15 d23d 00a9 acbc 3c0b 99bd
00000040: d89f c5bd 3209 87bd 7f50 24bd 4987 d83d
00000050: 465a eb3c 764a 033d 2631 96bd 7deb e03a
00000060: 4eb9 98bd ef8f 22bd d6ea 383d 4b9f bf3d
00000070: c564 6abd 1496 4fbd 3157 64bc a553 673d
00000080: 2263 8a3d d019 69bd cea4 583c 1f3a 013d
00000090: 2402 9ebd 2e67 94bc d36e b03b b72d dd3c
000000a0: 12c5 d03a 1cd5 64bd 85e2 033d e425 0ebd
000000b0: 329c a0bc 61e8 c73c 3f97 a6bd 780b cabd
000000c0: 0885 313d 38c2 413d 38df 093d 7256 cd3d
000000d0: dd91 9abc 4073 8fbc 3518 623d 4f7a 82bd
000000e0: 3051 0cbd 2ca2 023c 993a c0bd e829 dcbc
000000f0: 23f5 92bd 291c 1f3d e4e5 383d 91ce d1bc
00000100: 339b 74bd 42cb 8c3d 3a6b 50b9 5d83 d53c
00000110: acbc 7b3d 292a 35bd 87b2 153b 175a 203d
00000120: 03dd 9fbd aa76 7a3d e32a 323d 15f5 5a3d
00000130: 1d89 693c abc0 933c 20e6 66bc 9ae7 fa3c
00000140: d4a4 973d 2b5e 30bc 7688 373d 0e2f 823d
00000150: 3ff8 87bd c18d b9bc 80ba 04bd 7912 11bd
00000160: 4520 513d c1f3 39bd 2f86 2f3d 6cd1 d53c
00000170: 99a2 67bd d1a6 7cbb c86a 85bd 2a36 2a3d
00000180: b2d0 e23c 8b58 c8bb 5327 3f3d 938b 86b8
00000190: 2001 88bd 3e78 d83c 2241 b2bd 3ae0 da3c
000001a0: ad59 903d 1ff6 143c 2b8d 923d 16c8 a4bc
000001b0: d67d 483d 0f9c cbbd f6e6 52bd a898 81bb
000001c0: 5b90 043c c6f0 6ebc d823 afbd 9a2a 4f3d
000001d0: e37f 323d f176 a43d 4099 d4bc a756 53bd
000001e0: 0592 4b3d 0497 e03c c31c 6f3c b41a 06bd
000001f0: 0b39 32bd b6d9 513d 1f4d 3eb9 cc2a 5fbd
00000200: 0728 a63c e834 a0bc 26fa 873b 5a8a b4bd
00000210: 9807 5f3d c81d 7a3d d9f9 76bc 4c38 b23c
00000220: 501a a53b eac5 54bc 2969 fe3b 4c69 53bc
00000230: 85b1 b2bc 0d68 c03d a806 57bd c9cb cbba
00000240: b7fe 98bd b001 073d 0ab8 12bb 946f 383d
00000250: 8345 0b3b f91f 623d 1fec a9bd 25c5 abbd
00000260: cf58 38bc 2c21 ddbd 92ff 14bd 203f 09bd
00000270: dff4 683b fa71 61bd f93e e6bc 7986 8abd
00000280: 9898 64bd 9c16 a1bc 884f a03d fd90 80bc
00000290: 842f e7bc 9035 683b 7021 8ebd 22d8 253c
000002a0: b09d 873d 2cfb 5ebd 0e3d 3fbd e30e e33d
000002b0: cc86 60bd 2805 e33c b65e 01bc 8e14 87bd
000002c0: 484b 8ebc 43ef dd3d a26e 86bb b6ab 923d
000002d0: cd03 393d 500b 9c3d e3ba 0d3b c814 9dbd
000002e0: bfa6 6cbd e6cb 7f3d 964a 6f3d 4cbd 423d
000002f0: 496c 803d 0583 edbc 65e4 de3c e54a 7a3d
00000300: 7ba1 51bd b8bb 07bd c31c 2fbd 2112 923d
00000310: 850b 57bd dfd2 463d 6414 9b3d a4d3 aebd
00000320: 75a2 5abc 306b 0abc cddd 8e3d 1429 c13c
00000330: 9e33 f03c 7f8f c1bc 23ba f73a a433 9abd
00000340: c75b a33d 1125 1b3d 1c27 e03c aa4b f23c
00000350: 5546 50bb 638a b33b da29 8fbd ffd4 75bd
00000360: cc90 d13a 5ff0 b03d 4984 cbbd cedc 2d3d
00000370: 64ce 4bbd 8731 fd3c c554 24bd 0d94 4f3d
00000380: daa6 d3bc 2248 913b 4a7c 1abd 0890 4dbd
00000390: a287 92bc 967a c93c ca8a 263d 5f7e 02bc
000003a0: 5505 6abd 75de ac3d c945 2bbd 0b32 973b
000003b0: 696d a53d 2337 80bd 58e4 0c3d 3918 3e3c
000003c0: b8f1 b23d 9080 d33b b470 463d 0b00 91bd
000003d0: 0727 8abd f858 d7bd b76c 8dbc dd6e 22bd
000003e0: 9638 863d f440 7cbc f324 533d de3d b9bd
000003f0: 7373 a33b dc1d 843d 8f56 0a3d d88d d5bc

features.4.bias f4 [64]
0.06227627 0.040344995 -0.003208176 -0.035039544 -0.016543658 0.023812132 0.041778352 -0.08065713
0.023866175 0.00048964017 -0.012320793 -0.014950797 -0.06735879 -0.056477863 -0.038071543 0.02295616
-0.00269059 -0.048265733 -0.037416026 0.0043442426 0.044988494 0.024102055 0.041726198 0.010439205
-0.084659904 -0.032742534 -0.009827535 -0.08908738 0.0069412496 -0.062944494 -0.045142815 -0.04940247
-0.06285841 -0.061213784 0.044681396 0.053761926 -0.08212557 -0.02670483 0.042778257 -0.021984115
-0.010654742 0.008576218 0.03605339 -0.036675785 0.054774884 -0.021967055 0.029212268 -0.07603319
0.063276894 0.05751307 0.008388854 0.056614585 0.071118616 -0.04809719 -0.034653917 -0.08746007
0.04909161 0.044996396 0.0043745707 -0.014081044 -0.019267831 0.030497663 -0.036327463 -0.008928233
00000000: 6715 7f3d cb40 253d 4340 52bb a085 0fbd
00000010: 9186 87bc a911 c33c c71f 2b3d 912f a5bd
00000020: ff82 c33c 325b 003a 27dd 49bc 30f4 74bc
00000030: 68f3 89bd 5555 67bd e8f0 1bbd 8f0e bc3c
00000040: 9c54 30bb 4ab2 45bd 8c41 19bd 265a 8e3b
00000050: db45 383d ac71 c53c 17e9 2a3d 3309 2b3c
00000060: 2c62 adbd 091d 06bd ab03 21bc 7273 b6bd
00000070: 6c73 e33b 0be9 80bd ace7 38bd 3f5a 4abd
00000080: e9bb 80bd 4ebb 7abd d703 373d 7735 5c3d
00000090: 7331 a8bd 16c4 dabc 4138 2f3d 0818 b4bc
000000a0: 3a91 2ebc 4483 0c3c b8ac 133d 5939 16bd
000000b0: a15b 603d 41f4 b3bc 914e ef3c 4ab7 9bbd
000000c0: 5197 813d d392 6b3d 6771 093c b2e4 673d
000000d0: a3a6 913d 8f01 45bd 44f1 0dbd 441e b3bd
000000e0: 4914 493d 244e 383d 8f58 8f3b 2eb4 66bc
000000f0: 92d7 9dbc 3cd6 f93c 1bcc 14bd b947 12bc

features.5.weight f4 [64]
0.9617574 0.9559949 1.1047059 0.98575944 1.0289679 0.97057205 0.9679708 0.9720077
0.93246835 1.0070693 0.99866533 1.0468262 1.0885532 1.0682296 0.9870338 1.002175
0.9904766 0.9989581 1.0356338 0.9265634 1.05737 1.0285213 0.9500068 0.9798195
1.0216898 1.0005568 1.0317404 1.0225929 0.9723303 0.9303078 1.0036767 0.9783001
0.9543802 1.0039126 1.0235666 0.9196946 1.0831845 0.98627424 1.0456192 0.9887976
0.9940491 0.9652828 0.98528403 1.0518577 1.0258998 0.9859138 1.1031479 0.99029547
1.0997474 0.9281479 0.96045446 0.9877067 1.0135019 0.9726033 0.99819654 0.96616256
1.0134935 0.9980061 0.9849109 0.99433875 1.017043 0.99332064 0.990318 1.0509759
00000000: bc35 763f 15bc 743f 0167 8d3f bb5a 7c3f
00000010: 38b5 833f 6977 783f efcc 773f 7fd5 783f
00000020: 3fb6 6e3f a6e7 803f 88a8 7f3f 67fe 853f
00000030: b655 8b3f bfbb 883f 3fae 7c3f 4547 803f
00000040: e08f 7d3f b8bb 7f3f a68f 843f 4233 6d3f
00000050: e657 873f 96a6 833f a533 733f 73d5 7a3f
00000060: bbc6 823f 3f12 803f 1210 843f 53e4 823f
00000070: a3ea 783f a728 6e3f 7a78 803f e071 7a3f
00000080: 4352 743f 3580 803f 3b04 833f 1b71 6b3f
00000090: caa5 8a3f 787c 7c3f dad6 853f d721 7d3f
000000a0: 007a 7e3f c61c 773f 933b 7c3f 46a3 863f
000000b0: af50 833f d964 7c3f f333 8d3f 0184 7d3f
000000c0: 86c4 8c3f 1a9b 6d3f 58e0 753f 59da 7c3f
000000d0: 6eba 813f 88fc 783f cf89 7f3f 6e56 773f
000000e0: 28ba 813f 547d 7f3f 1f23 7c3f fc8c 7e3f
000000f0: 772e 823f 434a 7e3f 7b85 7d3f 6186 863f

features.5.bias f4 [64]
-0.017105976 -0.036255762 0.0068509304 -0.0051236087 -0.03456759 -0.04441907 -0.054388467 -0.05219534
-0.06363748 -0.01083082 -0.026757266 0.035400163 0.018078089 -0.02239883 -0.06691333 -0.034800384
0.013474674 -0.025261303 0.0004328276 -0.029576857 0.041447483 -0.022560887 -0.039572056 -0.02272421
-0.036702886 -0.013952671 -0.007961509 -0.046057902 -0.033409048 -0.03203013 -0.062414512 -0.03310362
-0.019458964 -0.010289242 0.05642929 -0.04443882 0.05047066 -0.033150986 0.013033706 -0.00027935774
-0.009537356 -0.04043748 -0.008780003 -0.030694954 -0.038076147 -0.014661815 0.017741144 0.046164624
-0.004941997 -0.041168388 -0.032765515 -0.024443561 -0.0095917275 -0.042046327 -0.0022865608 0.006060907
-0.0011668657 -0.02241077 -0.037395284 -0.058982864 -0.013503516 -0.06588668 -0.031785168 -0.028872913
00000000: d521 8cbc ec80 14bd c57d e03b f2e3 a7bb
00000010: bf96 0dbd c5f0 35bd 71c6 5ebd c8ca 55bd
00000020: 5e54 82bd c073 31bc 0e32 dbbc c3ff 103d
00000030: 8018 943c c07d b7bc db09 89bd d98a 0ebd
00000040: e1c4 5c3c cbf0 cebc 23ed e239 2a4b f2bc
00000050: d6c4 293d 9cd1 b8bc 4f16 22bd 1f28 babc
00000060: c455 16bd be99 64bc fd70 02bc 36a7 3cbd
00000070: edd7 08bd 0732 03bd 5ca6 7fbd a997 07bd
00000080: 6868 9fbc 3594 28bc 6622 673d 7b05 36bd
00000090: 53ba 4e3d 54c9 07bd 538b 553c c376 92b9
000000a0: 9242 1cbc c5a1 25bd 00da 0fbc fc73 fbbc
000000b0: bcf5 1bbd 1c38 70bc e055 913c 1e17 3d3d
000000c0: 7af0 a1bb 2fa0 28bd 2235 06bd dd3d c8bc
000000d0: 9f26 1dbc c538 2cbd 20da 15bb 939a c63b
000000e0: 84f1 98ba cb96 b7bc cc2b 19bd 0498 71bd
000000f0: da3d 5dbc 98ef 86bd 2a31 02bd e386 ecbc

features.5.running_mean f4 [64]
-0.088296995 0.10652792 -0.4806003 -0.06713096 -0.17234327 -0.027273059 0.29115084 -0.6601519
0.55246633 -0.32024574 -0.1289445 -0.4839391 -0.5827956 -0.49669728 -0.21276014 -0.34055138
-0.25861716 -0.7989718 -0.2748964 -0.16382468 -0.20905413 -0.49781066 0.20771441 0.08265226
-0.5529994 -0.49838746 0.027464192 -0.68844074 0.23243995 -0.2969431 -0.43820965 0.31204367
0.42704448 -0.017503912 -0.10641963 0.70591486 -0.7607206 -0.6985771 -0.0036426957 -0.48080188
-0.051199567 0.2554835 0.20169738 -0.27015927 -0.32363826 0.018608322 -0.32521787 -0.28253806
-0.22736031 0.37012392 -0.041108556 -0.3048608 -0.38226318 -0.24950927 -0.18215895 0.35789016
-0.59715706 -0.17346616 -0.32147896 0.44998902 -0.5502046 -0.08615122 -0.81781894 -0.46765262
00000000: 0ed5 b4bd 4f2b da3d 3e11 f6be f57b 89bd
00000010: c17a 30be c06b dfbc b911 953e b7ff 28bf
00000020: 6f6e 0d3f 40f7 a3be 070a 04be dec6 f7be
00000030: 1832 15bf 1b4f febe cbdd 59be c05c aebe
00000040: 7869 84be 6a89 4cbf 39bf 8cbe a8c1 27be
00000050: 4912 56be 0ae1 febe 16b3 543e 9745 a93d
00000060: 5e91 0dbf a42c ffbe 96fc e03c a73d 30bf
00000070: bd04 6e3e ed08 98be 045d e0be 30c4 9f3e
00000080: 93a5 da3e 5d64 8fbc 89f2 d9bd d6b6 343f
00000090: 96be 42bf f3d5 32bf 4bba 6ebb aa2b f6be
000000a0: a3b6 51bd bcce 823e c289 4e3e 5152 8abe
000000b0: eab3 a5be 7b70 983c f582 a6be d4a8 90be
000000c0: 24d1 68be e280 bd3e 7261 28bd b716 9cbe
000000d0: 00b8 c3be 5c7f 7fbe e087 3abe 613d b73e
000000e0: 49df 18bf 1da1 31be e498 a4be f664 e63e
000000f0: 35da 0cbf 0d70 b0bd 955c 51bf 2a70 efbe

features.5.running_var f4 [64]
0.2196318 0.23249452 0.27146262 0.5134661 0.117992 0.68744767 0.5040222 0.43732136
0.79602593 0.26564696 0.09660203 0.35770735 0.3531873 0.23047045 0.21006295 0.7868678
0.31767675 0.672818 0.51490504 0.42839766 0.34399047 0.58175004 0.2625197 0.2071414
0.44588834 0.21226645 0.31973502 1.0874494 0.60004985 0.29624313 0.22824994 0.26848748
0.31814677 0.24541914 0.25387973 0.7353486 0.41067716 0.8562373 0.19683573 0.28597996
0.34903118 0.646922 0.31066692 0.18328382 0.52114296 0.39047918 0.20945224 0.28980082
0.16771998 0.31163338 0.30117187 0.44174322 0.31418705 0.23213755 0.49359986 0.3374491
0.35998562 0.13335992 0.2528476 0.20361932 0.5632821 0.21253046 0.8078595 0.39375776
00000000: 29e7 603e 0b13 6e3e 26fd 8a3e 8472 033f
00000010: caa5 f13d 92fc 2f3f 9907 013f 96e8 df3e
00000020: 5bc8 4b3f e102 883e 49d7 c53d 6b25 b73e
00000030: f7d4 b43e 7200 6c3e be1a 573e 2b70 493f
00000040: 87a6 a23e cd3d 2c3f d1d0 033f f056 db3e
00000050: 851f b03e 92ed 143f fb68 863e e01c 543e
00000060: 7a4b e43e 605c 593e 4fb4 a33e 8b31 8b3f
00000070: de9c 193f 2ead 973e 5aba 693e 3177 893e
00000080: 22e4 a23e 284f 7b3e 86fc 813e ce3f 3c3f
00000090: 4744 d23e 5e32 5b3f 4e8f 493e f76b 923e
000000a0: 37b4 b23e ae9c 253f bc0f 9f3e c1ae 3b3e
000000b0: a069 053f e3ec c73e a67a 563e c660 943e
000000c0: c9be 2b3e 698e 9f3e 3333 9a3e 2b2c e23e
000000d0: 20dd a03e 77b5 6d3e 1fb9 fc3e 21c6 ac3e
000000e0: 0950 b83e 818f 083e 3e75 813e 9581 503e
000000f0: 4133 103f 96a1 593e e1cf 4e3f 9e9a c93e

features.8.weight f4 [128, 64, 5]
-0.05126398 0.026917676 -0.07853506 0.029275926 0.023680272 0.013412445 0.011936496 -0.03148219
-0.00935201 -0.045083836 0.006274991 -0.040633924 -0.037308857 0.032349683 0.02949797 -0.0019588787
0.0150778 -0.032964926 -0.055026483 0.0019016042 -0.02203376 0.077256545 0.043175075 0.011274345
-0.012675867 -0.01757492 0.039762106 0.061844144 -0.028381048 0.023825958 0.0072059305 -0.02961591
-0.05588828 -0.0153633645 0.0232644 -0.00442864 -0.017654754 -0.008991586 0.03731418 0.0385552
-0.08952203 0.022892695 -0.031227378 0.022544356 0.04201359 0.029739534 -0.019754998 0.027633008
-0.008058382 0.014437877 0.048265304 0.009570711 0.013548781 0.026780456 0.06822182 0.01855061
0.025983844 -0.028427273 -0.0053493623 0.00311963 0.01304022 0.018035816 -0.019693544 0.030304415
0.0045367125 -0.030087987 -0.042022906 -0.0027215926 0.020223346 0.01901001 -0.028994534 0.010243035
-0.048688907 0.016600614 -0.07583331 0.044800628 -0.015339485 0.024910226 0.045715507 0.03561824
0.017090615 -0.0025565706 -0.022437446 -0.035708226 0.0188412 -0.010725272 -0.01088497 0.007340734
-0.025722463 -0.05316083 0.040666446 0.043785986 -0.018725665 0.045503892 -0.00869632 0.031490676
-0.015327311 0.027203683 0.0059185517 -0.0036694584 -0.091880165 -0.030153962 0.029604103 -0.017250104
0.0036964642 -0.056922596 -0.017540922 -0.072615825 0.04133068 0.0061278227 0.00091844006 0.010540473
0.017245708 0.013283606 -0.049853638 -0.053724676 -0.044160362 0.031436373 -0.02424569 0.054174673
0.022739826 -0.019412989 -0.07345629 -0.0003476643 0.018215604 0.029657226 -0.013036004 0.020496905
-0.02431865 0.021707918 0.01820391 -0.07935348 0.010737161 -0.014469215 0.030664481 -0.054547463
-0.016110558 0.056099433 -0.008811066 -0.024157392 -0.008281889 -0.0046489374 0.024877304 0.045768056
-0.012966869 -0.045152932 0.030414162 0.06510047 0.051725063 0.010093592 -0.007643021 0.057182614
-0.02984962 -0.0023921726 -0.00958603 0.05938117 0.0017256285 -0.032257345 0.025971364 -0.043262154
-0.005247391 -0.057396173 -0.011028316 0.007968529 -0.047575854 0.008292075 0.04928141 -0.011272696
-0.027736824 -0.034717996 -0.024683343 -0.030200275 -0.03146461 0.039663225 -0.044524543 -0.029934973
-0.013217986 -0.027509646 -0.043518405 -0.016360251 -0.0070621744 -0.08500149 -0.037233923 0.014103657
-0.012446091 -0.06158192 -0.027189266 -0.055063996 0.0033226695 0.03506672 -0.022404997 0.031767733
0.09012303 0.061839078 -0.024534304 -0.03685651 0.022796536 0.03497223 -0.04632016 -0.028720887
0.048740204 0.038872335 -0.010333011 -0.02894396 -0.011668024 0.0041810195 -0.012437544 -0.023679662
0.042942684 0.013155199 -0.039789565 0.061203845 0.056966532 -0.048558585 -0.023140607 -0.011937564
0.020828502 0.010131443 0.03924364 0.027215775 -0.016813181 -0.028839773 0.03529172 0.021555567
-0.049510337 0.03916476 -0.03285539 -0.0021968202 -0.058714632 -0.05891263 0.025648262 0.016819665
-0.0067637567 0.000507179 -5.265552e-05 -0.038054332 -0.024446864 -0.016977487 -0.002723783 0.035496783
-0.043113843 0.0150761055 0.040050026 -0.063801534 -0.05627857 0.043657057 0.0039399522 0.06433023
-0.031054623 -0.044942945 -0.060539674 0.0055471496 -0.008660263 0.082723066 0.010578906 -0.09846539
00000000: 2efa 51bd 7582 dc3c fdd6 a0bd 11d4 ef3c
00000010: 21fd c13c dfbf 5b3c 4b91 433c 78f3 00bd
00000020: 2c39 19bc d4a9 38bd 719e cd3b c26f 26bd
00000030: 2cd1 18bd 1a81 043d baa5 f13c 8860 00bb
00000040: e008 773c 3b06 07bd 7363 61bd 403f f93a
00000050: 2580 b4bc ae38 9e3d 59d8 303d 08b8 383c
00000060: 71ae 4fbc 47f9 8fbc 97dd 223d 4950 7d3d
00000070: 5f7f e8bc a82e c33c ba1f ec3b 119d f2bc
00000080: 1ceb 64bd 9fb6 7bbc fc94 be3c 201e 91bb
00000090: b4a0 90bc 7251 13bc c1d6 183d 0fec 1d3d
000000a0: 5357 b7bd 7689 bb3c 8fd0 ffbc f1ae b83c
000000b0: 7116 2c3d 53a0 f33c 3cd5 a1bc 9e5e e23c
000000c0: 4e07 04bc d88c 6c3c d7b1 453d 79ce 1c3c
000000d0: b5fb 5d3c b062 db3c e2b7 8b3d 73f7 973c
000000e0: 12dc d43c 50e0 e8bc b449 afbb b572 4c3b
000000f0: a6a6 553c d9bf 933c 5b54 a1bc f740 f83c
00000100: b4a8 943b 157b f6bc 3620 2cbd bf5c 32bb
00000110: 6eab a53c e1ba 9b3c f285 edbc 67d2 273c
00000120: 056e 47bd 03fe 873c 7f4e 9bbd dd80 373d
00000130: 7752 7bbc 8810 cc3c 2f40 3b3d 6ee4 113d
00000140: 9e01 8c3c 238c 27bb bcce b7bc ca42 12bd
00000150: dc58 9a3c 0db9 2fbc e056 32bc 8a8a f03b
00000160: eab7 d2bc 2cbf 59bd dc91 263d ef58 333d
00000170: 9166 99bc 4a62 3a3d 027b 0ebc 5efc 003d
00000180: 671f 7bbc 42da de3c 69f0 c13b 4c7b 70bb
00000190: ab2b bcbd 7105 f7bc 4e84 f23c 1750 8dbc
000001a0: 6140 723b ab27 69bd fbb1 8fbc 9bb7 94bd
000001b0: 5c4a 293d e7cb c83b 78c3 703a f3b1 2c3c
000001c0: df46 8d3c 7ba3 593c 5433 4cbd 680e 5cbd
000001d0: 7fe1 34bd 6dc3 003d e69e c6bc 43e6 5d3d
000001e0: df48 ba3c fd07 9fbc 4070 96bd b646 b6b9
000001f0: e438 953c b6f3 f23c f794 55bc 20e9 a73c
00000200: e837 c7bc ced4 b13c 5e20 953c 1484 a2bd
00000210: ebea 2f3c 4910 6dbc 1434 fb3c 296d 5fbd
00000220: 4afa 83bc 85c8 653d 4a5c 10bc b9e5 c5bc
00000230: c3b0 07bc 1d56 98bb 7dcb cb3c 4977 3b3d
00000240: fe72 54bc 48f2 38bd 1f27 f93c 6553 853d
00000250: a9dd 533d 985f 253c 4f72 fabb 5138 6a3d
00000260: 3187 f4bc ffc5 1cbb b90e 1dbc ab39 733d
00000270: 7c2e e23a 4720 04bd e6c1 d43c a833 31bd
00000280: 4ef2 abbb 4018 6bbd 1cb0 34bc 6f8e 023c
00000290: e6de 42bd 7cdb 073c 4edb 493d 1db1 38bc
000002a0: 5638 e3bc 7534 0ebd b934 cabc 9166 f7bc
000002b0: 09e1 00bd e875 223d 5e5f 36bd 303a f5bc
000002c0: 4090 58bc e95b e1bc 5b40 32bd ef05 86bc
000002d0: d069 e7bb 4315 aebd 9982 18bd 0613 673c
000002e0: b0ea 4bbc 533d 7cbd 06bc debc c98a 61bd
000002f0: 25c1 593b 1fa2 0f3d af8a b7bc e21e 023d
00000300: 6c92 b83d f94a 7d3d 2afc c8bc daf6 16bd
00000310: cdbf ba3c 0b3f 0f3d 35ba 3dbd 1148 ebbc
00000320: cfa3 473d 9938 1f3d ca4b 29bc e21b edbc
00000330: 3d2b 3fbc ef00 893b d7c6 4bbc dafb c1bc
00000340: abe4 2f3d e788 573c 62fa 22bd e2b0 7a3d
00000350: bd55 693d 5ee5 46bd 5f91 bdbc c695 43bc
00000360: 89a0 aa3c 5afe 253c f0bd 203d 9ef3 de3c
00000370: ccbb 89bc 6341 ecbc 0d8e 103d 4d95 b03c
00000380: 5acb 4abd 3a6b 203d 6093 06bd 87f8 0fbb
00000390: c17e 70bd 5f4e 71bd 4e1c d23c 65c9 893c
000003a0: 81a2 ddbb 35f4 043a 6fda 5cb8 dcde 1bbd
000003b0: ca44 c8bc 5f14 8bbc 7f81 32bb 1365 113d
000003c0: 2498 30bd c501 773c 7f0b 243d 61aa 82bd
000003d0: 5c84 66bd bed1 323d b71a 813b 91bf 833d
000003e0: 4466 febc 1816 38bd 73f8 77bd ddc4 b53b
000003f0: c7e3 0dbc b66a a93d 2653 2d3c 39a8 c9bd

features.8.bias f4 [128]
-0.02698897 0.032217897 0.0037590347 -0.037076987 0.034432013 -0.06263628 -0.050750274 0.011715794
-0.023374448 -0.017957909 -0.0059991516 0.0054705786 0.0119039845 0.0032188108 0.0073738117 0.05595377
-0.014936888 0.033530734 -0.015720678 -0.013157296 0.0039985804 0.044482652 -0.021224938 0.049871184
0.015172178 0.02159481 0.036894362 0.05560401 -0.056542005 -0.041483704 -0.04754855 0.021748887
0.01990583 0.039875384 0.03565676 0.004245502 0.0013643829 0.024538431 0.00990098 -0.015770778
-0.01726113 0.03130484 0.022138573 -0.023587618 -0.028937023 -0.037937343 0.021411993 -0.055485595
0.0032970554 -0.025226127 0.041237645 -0.05144647 -0.038495664 0.06810237 0.01679763 0.05075218
-0.0075459094 0.048122127 -0.0037389395 -0.07756405 0.057172507 -0.035943855 0.051782023 -0.017681422
-0.067175075 -0.056961764 0.04422591 0.03417954 -0.0490586 -0.04315175 -0.028439466 0.037887663
-0.04525583 -0.013163383 -0.03184482 0.06238485 0.051050097 -0.03313902 0.06184765 0.04198252
-0.041800123 -0.0035363752 0.048636183 0.03349734 -0.012944786 0.05704342 0.016712595 -0.006004153
0.012678477 0.015016361 0.03861688 0.026956744 0.04807704 0.027437318 0.02546935 -0.030963652
-0.03670662 -0.046293456 0.016080722 -0.052230634 -0.010259836 -0.05619087 -0.020292936 0.017256824
-0.030767765 -0.0012289024 -0.0075113736 -0.02423843 0.009767267 0.02616629 -0.05252335 0.060260702
0.046954963 0.05741198 0.05357975 0.019224431 -0.053219084 0.025560727 0.037991703 0.03095135
-0.022293134 0.050908267 0.042840965 -0.020354882 -0.016338654 0.02219429 -0.013881038 0.005691153
00000000: f917 ddbc eaf6 033d 235a 763b 0ade 17bd
00000010: 9508 0d3d 7347 80bd 85df 4fbd 9af3 3f3c
00000020: c57b bfbc 771c 93bc 8894 c4bb 8a42 b33b
00000030: ee08 433c aff2 523b 04a0 f13b c82f 653d
00000040: d9b9 74bc 8657 093d a7c8 80bc b391 57bc
00000050: 8606 833b 7133 363d ecdf adbc ba45 4c3d
00000060: ba94 783c 99e7 b03c 8b1e 173d 08c1 633d
00000070: 9798 67bd d1ea 29bd 45c2 42bd b92a b23c
00000080: 8d11 a33c 5f54 233d d30c 123d da1d 8b3b
00000090: 18d5 b23a d204 c93c b837 223c b831 81bc
000000a0: 3767 8dbc 8139 003d f45b b53c d23a c1bc
000000b0: 560d edbc 3064 1bbd 3468 af3c dd44 63bd
000000c0: 6913 583b 06a7 cebc cee8 283d 89b9 52bd
000000d0: a1ad 1dbd 4179 8b3d 2f9b 893c 85e1 4f3d
000000e0: ad43 f7bb b51b 453d ff08 75bb e7d9 9ebd
000000f0: b82d 6a3d dd39 13bd 6319 543d a1d8 90bc
00000100: 1693 89bd bd50 69bd 3a26 353d d8ff 0b3d
00000110: acf1 48bd e4bf 30bd e2f9 e8bc 1830 1b3d
00000120: 2d5e 39bd 3bab 57bc b76f 02bd 4287 7f3d
00000130: e819 513d c8bc 07bd f653 7d3d ddf5 2b3d
00000140: 9b36 2bbd 88c2 67bb bc36 473d 8234 093d
00000150: 5e16 54bc 5ca6 693d dae8 883c 7cbe c4bb
00000160: 63b9 4f3c 2f07 763c bc2c 1e3d 64d4 dc3c
00000170: 6eec 443d 3ac4 e03c 19a5 d03c 7ca7 fdbc
00000180: ae59 16bd 359e 3dbd b8bb 833c caef 55bd
00000190: df18 28bc 6628 66bd 5f3d a6bc 2f5e 8d3c
000001a0: ae0c fcbc 1f13 a1ba f821 f6bb ac8f c6bc
000001b0: e306 203c b05a d63c b922 57bd edd3 763d
000001c0: d953 403d d328 6b3d 7176 5b3d 8e7c 9d3c
000001d0: 41fc 59bd bb64 d13c 309d 1b3d b08d fd3c
000001e0: 17a0 b6bc 3085 503d 027a 2f3d 48bf a6bc
000001f0: a4d8 85bc cdd0 b53c 4b6d 63bc da7c ba3b

features.9.weight f4 [128]
0.9017607 0.9854223 0.9677805 1.0123824 1.0060842 0.95347863 0.9707086 0.97213006
0.90190667 0.9428548 1.018781 1.0137792 0.9873706 1.0209552 1.0097321 0.86090845
1.0059803 0.9812626 1.0464808 0.9458885 0.97122806 0.96850085 1.0448366 1.0159091
0.9283126 1.0097449 1.1015707 0.9851392 1.0032198 1.0602615 0.99431294 1.0096283
0.95087594 0.9733473 0.97388506 0.9138769 0.97129416 0.9890626 0.9664188 1.0186757
1.0308423 1.0362351 0.9637859 0.9945433 0.9214308 0.93065447 1.0240003 1.0016441
0.9931617 0.9088872 0.97527605 1.1035824 0.9750033 1.0238225 1.018256 1.0604342
0.9020832 1.0047282 0.99894357 1.0378401 0.9796902 0.99963266 1.0121057 1.0067168
1.0130992 0.9356977 0.97916466 1.0012721 0.9943881 1.0257262 1.0278416 0.96975374
0.9874119 1.0044831 0.9619611 1.0118684 1.008951 0.97111166 1.0227324 0.99090075
1.0451623 0.94946873 0.93124497 1.0269756 0.99245167 0.9652207 0.95354205 0.9120225
1.0383096 0.9879175 1.0069152 0.94336015 1.0065622 1.0222014 1.1111866 0.9482305
0.95407724 0.9122629 1.0316321 0.9557437 0.9534157 0.8814089 1.0264752 0.8843398
1.0424509 1.0231322 1.0575875 0.9569709 0.9961415 0.946516 0.982906 1.0031949
0.96712184 0.91066366 0.96670127 1.0410815 0.96267176 0.9425741 0.9734978 1.0977527
1.0039421 1.0382726 0.9843433 1.0060371 0.96661353 1.0072016 0.9887919 0.910603
00000000: cad9 663f a344 7c3f 76c0 773f bf95 813f
00000010: 5ec7 803f 2d17 743f 5c80 783f 84dd 783f
00000020: 5be3 663f ef5e 713f 6a67 823f 84c3 813f
00000030: 52c4 7c3f a9ae 823f e73e 813f 7f64 5c3f
00000040: f6c3 803f 0734 7b3f 15f3 853f c025 723f
00000050: 67a2 783f acef 773f 35bd 853f 4f09 823f
00000060: e5a5 6d3f 523f 813f 4500 8d3f 1532 7c3f
00000070: 8269 803f a6b6 873f 4b8b 7e3f 803b 813f
00000080: 9b6c 733f 4a2d 793f 8850 793f d6f3 693f
00000090: bca6 783f 3533 7d3f 3967 773f f763 823f
000000a0: a4f2 833f 5aa3 843f acba 763f 649a 7e3f
000000b0: e4e2 6b3f 5f3f 6e3f 7112 833f e035 803f
000000c0: d83f 7e3f d5ac 683f b1ab 793f 3042 8d3f
000000d0: d199 793f 9e0c 833f 3656 823f 4fbc 873f
000000e0: edee 663f ef9a 803f c4ba 7f3f f2d7 843f
000000f0: facc 7a3f ede7 7f3f ae8c 813f 19dc 803f
00000100: 3cad 813f e289 6f3f 89aa 7a3f af29 803f
00000110: 3890 7e3f ff4a 833f 5090 833f c841 783f
00000120: 07c7 7c3f e792 803f 1543 763f e784 813f
00000130: 4e25 813f c69a 783f e5e8 823f acab 7d3f
00000140: e1c7 853f 6210 733f 1266 6e3f f073 833f
00000150: 5011 7e3f b418 773f 551b 743f 4e7a 693f
00000160: 54e7 843f 29e8 7c3f 99e2 803f 0d80 713f
00000170: 08d7 803f 7fd7 823f 5d3b 8e3f 3cbf 723f
00000180: 683e 743f 108a 693f 850c 843f 9eab 743f
00000190: 0d13 743f 03a4 613f 8a63 833f 1864 623f
000001a0: 086f 853f fff5 823f 075f 873f 0bfc 743f
000001b0: 2103 7f3f df4e 723f ba9f 7b3f b168 803f
000001c0: 4c95 773f 4121 693f bc79 773f 2942 853f
000001d0: a871 763f 894c 713f 2737 793f 2983 8c3f
000001e0: 2d81 803f 1ee6 843f ecfd 7b3f d3c5 803f
000001f0: fc73 773f fbeb 803f 7721 7d3f 471d 693f

features.9.bias f4 [128]
-0.06552558 -0.08129292 -0.034657575 -0.07404287 -0.051786534 -0.08598834 -0.025713356 -0.09745696
-0.091551304 -0.05491524 -0.064097434 -0.055704374 -0.054213237 -0.05014164 0.02012025 -0.10808998
-0.06238269 -0.01217078 -0.013832574 -0.09541964 -0.08905426 -0.06359975 -0.06616709 -0.0066100312
-0.04479101 2.2394766e-05 -0.045095634 -0.012100641 -0.021769175 -0.07978617 -0.016544763 -0.10760561
-0.031154511 -0.02191716 -0.047524765 -0.03744261 -0.09123665 -0.042426072 -0.10774203 -0.09867015
-0.035507824 -0.1165649 -0.027413916 -0.06847279 -0.019072654 -0.1640134 -0.065036915 -0.042875547
-0.05926941 -0.06592077 -0.110384755 -0.08353167 -0.02883784 -0.08510791 -0.03977146 -0.07172083
-0.11175989 -0.048064742 -0.08916538 -0.01652223 -0.06544477 -0.13656613 -0.0051103467 -0.053292315
-0.10699863 -0.027547352 -0.046721086 -0.0113376565 -0.0265918 -0.12676255 -0.004486373 -0.04119285
-0.08454807 -0.09063372 -0.062709324 -0.0694223 -0.03227845 -0.043968603 -0.07218634 -0.042549632
-0.10640043 -0.040517136 -0.034589473 -0.05246016 -0.12175834 -0.0533767 -0.045674447 -0.086418435
-0.11945753 0.004405864 -0.035406068 -0.044451147 -0.10084336 -0.06636143 -0.07230738 -0.04183838
-0.045200136 -0.058643997 -0.019442173 -0.054466043 -0.06106111 -0.070642926 -0.07860699 -0.08186365
-0.018902995 -0.057544377 -0.09966766 -0.04835409 -0.116661996 -0.029360846 -0.05022334 -0.1324035
-0.06981501 -0.06738461 -0.065460324 -0.07832735 -0.07860479 -0.090887055 -0.09228686 -0.09595921
-0.07921493 -0.088534705 -0.16827007 -0.08218623 -0.079057105 -0.012745696 -0.014624416 -0.06927959
00000000: 4632 86bd e77c a6bd 1af5 0dbd caa3 97bd
00000010: 1e1e 54bd a81a b0bd d1a4 d2bc 8497 c7bd
00000020: 407f bbbd cdee 60bd 8445 83bd 452a 64bd
00000030: b30e 5ebd 5261 4dbd 39d3 a43c 485e ddbd
00000040: fe84 7fbd f467 47bc 05a2 62bc 5f6b c3bd
00000050: 1462 b6bd 9640 82bd 9c82 87bd f698 d8bb
00000060: c776 37bd 65dc bb37 33b6 38bd c441 46bc
00000070: 4555 b2bc ee66 a3bd e288 87bc 5460 dcbd
00000080: bf37 ffbc 9e8b b3bc 54a9 42bd 6c5d 19bd
00000090: 48da babd f6c6 2dbd daa7 dcbd 9313 cabd
000000a0: a770 11bd 94b9 eebd 2693 e0bc 763b 8cbd
000000b0: 413e 9cbc 21f3 27be 1332 85bd 459e 2fbd
000000c0: 7bc4 72bd 7801 87bd 6711 e2bd a712 abbd
000000d0: 553d ecbc 0e4d aebd 66e7 22bd 5fe2 92bd
000000e0: 5fe2 e4bd 89df 44bd 579c b6bd a159 87bc
000000f0: e807 86bd fed7 0bbe b274 a7bb 0b49 5abd
00000100: 1922 dbbd fcaa e1bc 9c5e 3fbd 94c1 39bc
00000110: 0cd7 d9bc 0bce 01be 6d02 93bb d5b9 28bd
00000120: 8a27 adbd 2c9e b9bd bf6d 80bd 472d 8ebd
00000130: 6836 04bd 6c18 34bd 6fd6 93bd 8648 2ebd
00000140: 78e8 d9bd 4cf5 25bd b1ad 0dbd 77e0 56bd
00000150: 705c f9bd 87a1 5abd 2115 3bbd 26fc b0bd
00000160: 26a6 f4bd 115f 903b f405 11bd 6812 36bd
00000170: f786 cebd 80e8 87bd e415 94bd b95e 2bbd
00000180: c723 39bd b034 70bd 3145 9fbc c917 5fbd
00000190: 371b 7abd 3dad 90bd b4fc a0bd 21a8 a7bd
000001a0: 74da 9abc a7b3 6bbd 8f1e ccbd f00e 46bd
000001b0: 7cec eebd 2886 f0bc fdb6 4dbd c894 07be
000001c0: 2cfb 8ebd f100 8abd 1010 86bd 176a a0bd
000001d0: 8cfb a0bd fe22 babd e500 bdbd 4386 c4bd
000001e0: 703b a2bd af51 b5bd fd4e 2cbe 4151 a8bd
000001f0: b1e8 a1bd 53d3 50bc 3f9b 6fbc 75e2 8dbd

features.9.running_mean f4 [128]
-0.51332635 0.6918566 0.024079472 0.28788665 -1.3276895 -0.69294566 -0.117782 -0.20018105
0.24164383 -1.1428776 0.1236768 0.1171389 0.58603764 -0.7081766 -0.7926722 0.40615574
-0.022400297 -0.54745483 -1.7212238 -0.4409734 -0.39033493 -0.33290523 -0.33957958 0.20586962
-0.42367923 -0.13945167 -1.2758262 -1.1682665 -0.50347054 -1.0198668 -0.16265269 0.23598981
-0.63877857 -0.36452836 -0.3712566 -1.0831083 -0.52207184 -1.5059972 0.076476656 0.2715046
-1.6764058 -1.1616569 -1.1045176 0.0455183 0.17312072 -0.21487981 0.04133802 -0.13097812
-1.6698745 -0.77741235 0.49540493 -1.0294249 -1.5493381 0.13507053 -0.18259339 -0.17496587
-0.11634384 -1.4429383 -0.19807497 0.51433027 1.2375321 -0.3185938 -0.9065251 0.19983089
0.09376255 -0.77885 -0.12942803 0.095497034 -0.24432643 -0.07091263 0.3659745 -0.05496139
0.37652418 -1.1080102 -0.33437634 0.05278847 -1.4199969 -0.26738882 -0.25199622 -0.074553385
0.16681944 0.20716189 -1.4003865 -1.16464 0.031567506 -0.35392204 -0.2893684 0.19911183
-0.0069010747 -0.46896356 0.05129037 -0.748716 0.50173604 -0.047458004 -1.141983 0.055937197
0.3683213 -0.4588817 -1.5557895 -0.62059057 -0.3477577 -0.13208094 -1.3264208 0.78499043
0.26432392 -1.0506471 0.022331726 -0.91512656 -0.7127232 -0.8971076 -0.12293691 -1.0783926
-0.46644652 -0.18766788 -0.18920788 0.35007018 -1.1488446 -0.17981194 -0.37693936 -1.0218832
-0.6704948 0.47808325 0.31762648 0.25530353 0.65169346 0.2524162 -1.5803041 0.7609615
00000000: 5b69 03bf 841d 313f 5042 c53c e165 933e
00000010: bbf1 a9bf e364 31bf b037 f1bd 43fc 4cbe
00000020: 7b71 773e d049 92bf 434a fd3d 85e6 ef3d
00000030: 9006 163f 104b 35bf 91ec 4abf a5f3 cf3e
00000040: d480 b7bc 0026 0cbf 1051 dcbf 44c7 e1be
00000050: fbd9 c7be 8e72 aabe 60dd adbe 7ccf 523e
00000060: 7cec d8be 6bcc 0ebe 464e a3bf c289 95bf
00000070: 72e3 00bf ff8a 82bf 6d8e 26be 50a7 713e
00000080: fe86 23bf 76a3 babe 5815 bebe 4ba3 8abf
00000090: 80a6 05bf 84c4 c0bf cb9f 9c3d a702 8b3e
000000a0: 7794 d6bf 2cb1 94bf d560 8dbf 6671 3a3d
000000b0: 8f46 313e 7409 5cbe 0e52 293d 211f 06be
000000c0: 73be d5bf 7f04 47bf b7a5 fd3e 32c4 83bf
000000d0: b650 c6bf ee4f 0a3e c3f9 3abe 412a 33be
000000e0: ae45 eebd 34b2 b8bf 2ad4 4abe 26ab 033f
000000f0: 7467 9e3f ba1e a3be 0712 68bf 78a0 4c3e
00000100: 9406 c03d b762 47bf c888 04be f393 c33d
00000110: b530 7abe a43a 91bd 0261 bb3e 321f 61bd
00000120: c7c7 c03e 47d3 8dbf 6033 abbe b938 583d
00000130: 75c2 b5bf 30e7 88be a605 81be 72af 98bd
00000140: b7d2 2a3e 3f22 543e dd3f b3bf ec12 95bf
00000150: ee4c 013d 4535 b5be 1828 94be f9e3 4b3e
00000160: 6922 e2bb fe1b f0be da15 523d daab 3fbf
00000170: c671 003f 5363 42bd 802c 92bf 671e 653d
00000180: 9c94 bc3e 8bf2 eabe 1c24 c7bf 06df 1ebf
00000190: 4c0d b2be 3a40 07be 28c8 a9bf 22f5 483f
000001a0: 7755 873e 9b7b 86bf 06f1 b63c bc45 6abf
000001b0: 0775 36bf d8a8 65bf 59c6 fbbd c508 8abf
000001c0: 14d2 eebe 022c 40be b6bf 41be 663c b33e
000001d0: 570d 93bf 9f20 38be 32fe c0be 12cd 82bf
000001e0: 8ca5 2bbf 54c7 f43e f09f a23e 25b7 823e
000001f0: 62d5 263f b23c 813e 6847 cabf 5fce 423f

features.9.running_var f4 [128]
0.24950118 0.8223441 0.4332325 0.33529863 1.0367286 0.90411294 0.79901826 0.49847087
0.9176267 1.0301734 0.5437162 0.60508066 0.6009648 0.74494773 1.0503601 0.7580251
0.5177204 0.5632717 1.5564038 0.54107016 0.41809067 0.79901975 0.3989173 0.38774025
0.7505777 0.48283428 1.0473908 1.0644604 0.5521352 0.9825456 0.651416 0.6598696
0.5630486 0.42238817 0.5311801 0.59761655 0.39403147 1.0088772 0.70397216 0.6832524
1.2231197 0.7699035 0.7614329 0.52049774 0.383768 0.4712883 0.5329401 0.28838173
1.2311195 0.7167026 0.8560453 1.0097798 0.7568672 0.53577566 0.5060441 0.6632563
0.6035804 1.2072589 0.4726682 0.47103918 0.6598315 0.6569499 1.0502107 0.6959715
0.6308214 0.97863775 0.43142596 0.4251069 0.48758414 0.8179253 0.47518906 0.49667764
0.72038954 1.0624378 0.48528332 0.51487267 1.2192286 0.7414987 0.76007414 0.62293226
0.51079166 0.6432824 1.8208648 0.9431677 0.6451816 0.6127208 0.7445843 0.7206992
0.64039004 0.7989553 0.5349112 0.48271644 0.5400388 0.6124734 0.8444376 0.93293095
0.33081093 0.5056247 1.1715859 0.40071926 0.53374696 0.7038382 1.0439128 0.526489
0.31196353 0.71662813 0.45400316 0.90998495 0.5713879 1.1965265 0.62119406 0.9548418
0.45372608 0.7843026 0.6768697 0.52305377 0.49476618 0.77173483 0.9197782 1.0575707
0.46218172 0.57631415 0.58733404 0.55284345 0.6078979 0.43822247 1.5087906 1.0299506
00000000: 3d7d 7f3e 2585 523f a6d0 dd3e 43ac ab3e
00000010: 86b3 843f f273 673f 768c 4c3f 9337 ff3e
00000020: 95e9 6a3f b9dc 833f fc30 0b3f 91e6 1a3f
00000030: d4d8 193f e5b4 3e3f 3372 863f ef0d 423f
00000040: 5389 043f 9332 103f 3d38 c73f 9383 0a3f
00000050: fb0f d63e 8f8c 4c3f e33e cc3e e485 c63e
00000060: dc25 403f 0e36 f73e e710 863f 3d40 883f
00000070: bc58 0d3f 1c88 7b3f 33c3 263f 37ed 283f
00000080: f423 103f 4343 d83e 6bfb 073f 66fd 183f
00000090: 7ebe c93e e322 813f 8537 343f a1e9 2e3f
000000a0: 308f 9c3f 6518 453f 44ed 423f 573f 053f
000000b0: 3d7d c43e b34c f13e c36e 083f c5a6 933e
000000c0: 5395 9d3f d279 373f c925 5b3f 7740 813f
000000d0: 0cc2 413f 9828 093f 1b8c 013f 2acb 293f
000000e0: 3f84 1a3f 7687 9a3f 9101 f23e 0c2c f13e
000000f0: b8ea 283f de2d 283f 4e6d 863f 302b 323f
00000100: 837d 213f 0188 7a3f dde3 dc3e 9da7 d93e
00000110: a1a4 f93e 8d63 513f fb4b f33e 884c fe3e
00000120: 736b 383f f6fd 873f 0e77 f83e b2ce 033f
00000130: af0f 9c3f dcd2 3d3f 3894 423f 7d78 1f3f
00000140: 3ec3 023f 28ae 243f 1912 e93f 7073 713f
00000150: 9f2a 253f 45db 1c3f 149d 3e3f be7f 383f
00000160: 9af0 233f 5688 4c3f f1ef 083f 9c26 f73e
00000170: fc3f 0a3f 0fcb 1c3f 102d 583f 90d4 6e3f
00000180: 0d60 a93e 9f70 013f 87f6 953f 132b cd3e
00000190: a4a3 083f be2e 343f ef9e 853f fcc7 063f
000001a0: afb9 9f3e f174 373f 1a73 e83e c6f4 683f
000001b0: 7a46 123f c827 993f 9306 1f3f 8370 743f
000001c0: c94e e83e 0ec8 483f 5547 2d3f dae6 053f
000001d0: fe51 fd3e 6a90 453f 9676 6b3f 7a5e 873f
000001e0: 15a3 ec3e 5389 133f 865b 163f 2687 0d3f
000001f0: 329f 1b3f b25e e03e 0d20 c13f 6cd5 833f
