experiment_testing/mz-testing/checkpoints/ptbxl/62hz/cnn1d/fold_2/best.pt (torch, 628765 bytes, 26 tensors)

features.0.weight f4 [32, 12, 7]
00000000: 9894 a0b9 cede e53c 4fd6 4bbd 32a2 9a3d
00000010: 5f56 ff3d e0c3 53bc 68da a4bc 5e68 e2bc
00000020: 76c0 363d ea00 863d 8aaf 31bd 178e d0bc
00000030: 159e a83d 96a9 633d 774e 8c3d 00f1 3f3d
00000040: dda6 cfbd 5a71 943d 91ac ddbd 30a8 963d
00000050: f86b 5dbc 1d2a 48bd 85cf df3c 8c53 cb3c
00000060: 0fbb 1b3b 679d 33bd 744f 123d 9638 c7bd
00000070: ea11 ae3d 943d c53d 0365 003c c4a0 c03d
00000080: 4495 073d 0895 c23d f582 98bb 590f d7bc
00000090: 80f4 be3d 35bf ae3d 648f b8bb 9d96 823d
000000a0: b226 ab3d 3fd9 73bd c5a4 5b3d 2033 963b
000000b0: adba e3bc e3e9 093d 7074 6abd af4e ab3d
000000c0: e2f9 4fbd 51b5 2e3d ad64 f73d 63a6 583b
000000d0: 94f4 953d c1ad 75bc 7c66 6f3c 5e20 88bd
000000e0: 11b3 533d 4c28 a73d e00c bdbc 1400 d6bd
000000f0: 90ef a9bb 703a 9dbd 9b44 65bd e6c5 ba3c
00000100: 8ddb 50bd 4d6c ebbc 2bc3 7e3c 65c9 b93d
00000110: 45fd bdbd bc46 a5bd 8efb a73d 9e5a 18ba
00000120: 2f7a d13d 4fd2 2c3d 0363 553d 5b61 9b3d
00000130: eba0 913d ee40 2dbc a095 83bd 37bb 703d
00000140: 4c59 94bd fc6b d3bd 57f4 3fbc 6bc9 903c
00000150: 2e02 d8bd edea 573a 2127 b03c 0490 953d
00000160: 9a35 bf3d a565 ed3d 5cb9 91bd 826b a1bd
00000170: da48 933c 519f b53d 6c85 843d b592 753d
00000180: f9fb 36bd 1785 09bd ae51 d73d b12c 1dbd
00000190: d811 383d 2089 dc3c 0bcf 88bd a9f7 743d
000001a0: 1f57 0b3d 8bca b93d 25a8 aa3d f471 7c3d
000001b0: 792c 83bd 0583 1dbd e406 b93d 429c 7d3d
000001c0: d083 dfbd c487 04bd e9cb aa3c ee49 b13d
000001d0: 0413 923d 2342 893d a339 9b3d 7bfa 2bbb
000001e0: 217b c13d c07a 4fbd 06c3 2d3d 7e77 313d
000001f0: 5baa 66bd 2d92 e83b ea35 023e 6c3a 3a3d
00000200: 75f9 a0bd 0290 c23d 813b 48bd 6c0b b9bc
00000210: 4fc3 80bd 0fe2 bf3c eba8 e33c 70c4 6fbd
00000220: ca30 d53d 114b 77bd ac34 3f3d 2bf5 40bd
00000230: 2308 493d 2be5 2dbd 879b bdbc dc42 c2bd
00000240: 24a0 d9bd e099 aa3d 64d5 94bd ef97 eebd
00000250: 6899 6a3d f77a 10bd d79d fabb a28a 323d
00000260: 90bc 67bd da0a a3bc aecb b2bc 9490 0a3d
00000270: 41d1 873d d533 b63d 5804 553d f626 25bd
00000280: 4884 a6bd cd84 80bd 969b d5bd 2af9 623d
00000290: e98a fa3d 6f15 61bc 228e d2bd b22d 303d
000002a0: 6a35 5ebd 92e2 c7bc 8376 6e3d a695 aa3d
000002b0: 12f7 3e3d c61b 5e3d f647 363c 2357 e23d
000002c0: c53b bc3c fbc5 9fbd e524 1839 872f 13bd
000002d0: 517b 783c 12b7 b23d 7e4f 083e 496c 993d
000002e0: 8cda 76bd 5ff5 e4bd 4a4a 8b3d 9a17 9abd
000002f0: bbf3 993d f39a 9b3d 8eda ab3d 53ec 0d3c
00000300: 3a6c d53d 1ea8 7d3d 969e 06bc 1af6 d53d
00000310: 6bf9 293d 53b5 9fbd ec02 c1bb 6299 a43d
00000320: b545 263d 8368 d9bc cc61 823d d811 b93d
00000330: 85ea b53c e677 24bd 31d4 ce3c 9e88 77bd
00000340: 3bce b73d ac9c c3bd 3cbe c53d ed4e ddbd
00000350: a3f5 133d 6360 afbd 5472 833c c923 a93d
00000360: 1cb9 8abd c76b c93d 5f15 d6bd 3d87 8dbd
00000370: e554 d2bd b3ae 7e3d 71b5 973d 4e81 57bd
00000380: cf74 a4bc 13b8 90bd d2c2 0a3d f6b5 cb3d
00000390: 6efe e8bc e213 c3ba a787 33bd 9a1d 1dbd
000003a0: 6bd0 e2bc 4490 4cbd 19ed 73bc 2a6e 363c
000003b0: 3b27 dc3c 8c4b abbd d06a 843b 0e31 f33c
000003c0: a0ec 223d 337b 293a 1a24 1d3d 7304 123c
000003d0: 2520 f0bd 598b b53d 5f8f 4abd cf77 ce3b
000003e0: ac7d 493c 5e00 8a3d 45f6 283d d996 c2bc
000003f0: 03b7 513c ecbf 3bbd bbfb 753c b5c8 63bd
-0.0003062829 0.028060343 -0.049764927 0.075504676 0.12467646 -0.012925118 -0.020123675 -0.027637657
0.04461714 0.06543143 -0.043380298 -0.025458379 0.08233277 0.05558165 0.068509035 0.046860695
-0.101392485 0.072481826 -0.1082393 0.07356298 -0.013514511 -0.048868287 0.027320633 0.024820112
0.0023762619 -0.043851282 0.035720304 -0.0972759 0.084995106 0.09630886 0.007836583 0.094056636
0.033101335 0.09501082 -0.004654283 -0.026252436 0.093239784 0.085325636 -0.005632328 0.063763835
0.0835699 -0.059533354 0.053623933 0.0045837313 -0.027798975 0.033670317 -0.05723995 0.08364617
-0.050775416 0.042653386 0.12079749 0.0033058159 0.0732204 -0.014995039 0.0146118365 -0.066467986
0.051684443 0.08161983 -0.023077428 -0.10449234 -0.005186029 -0.07677162 -0.05597363 0.022799443
-0.05099063 -0.028738165 0.015549461 0.09071616 -0.09276823 -0.08070132 0.08202277 -0.0005811843
0.10228383 0.042192753 0.052096378 0.075869285 0.07110771 -0.0105745625 -0.06425023 0.058772292
-0.072435945 -0.10323331 -0.01171597 0.017674169 -0.10547291 0.0008236606 0.021503033 0.073028594
0.093363956 0.11591653 -0.071154326 -0.078818336 0.017979074 0.08868278 0.06470761 0.059954364
-0.044673894 -0.03357419 0.10513626 -0.0383727 0.044938892 0.026920855 -0.06680115 0.0598065
0.034018632 0.09071835 0.08332852 0.06163211 -0.06404967 -0.038455028 0.090345174 0.061916597
-0.10913813 -0.03235604 0.020849185 0.08656679 0.07132533 0.06702068 0.07579353 -0.0026241827
0.09447313 -0.050654173 0.042422317 0.043326847 -0.056314807 0.0070975036 0.12715879 0.04546587
-0.0786008 0.095001236 -0.048884872 -0.022588454 -0.06287252 0.023423223 0.027790507 -0.058536947
0.104096964 -0.060374323 0.04668109 -0.04710881 0.049080025 -0.04245488 -0.02314545 -0.09485409
-0.106262475 0.083301306 -0.072672635 -0.11650073 0.057275206 -0.03527352 -0.0076482105 0.04358924
-0.05657631 -0.019902635 -0.021825638 0.033829287 0.06631709 0.08896605 0.052006096 -0.04032036
-0.081306994 -0.0627533 -0.10430066 0.055413403 0.12233526 -0.01373802 -0.10281016 0.04301233
-0.05425016 -0.02440003 0.05821849 0.083293244 0.046622343 0.054225706 0.011125555 0.11051776
0.02297772 -0.07801434 0.00014509594 -0.035933997 0.01516612 0.08726324 0.13311574 0.07491357
-0.060267016 -0.11179613 0.06801279 -0.07524033 0.07517191 0.075979136 0.083912954 0.008662301
0.10421033 0.061927907 -0.008216521 0.10447331 0.04149763 -0.07798257 -0.005890241 0.08037068
0.04059382 -0.026539093 0.063663095 0.090366066 0.022206554 -0.040153407 0.025247665 -0.060433023
0.08974882 -0.09551367 0.09655425 -0.108060695 0.03612293 -0.08563306 0.016045727 0.082587786
-0.06773588 0.0983501 -0.10453295 -0.0691056 -0.102700986 0.062178325 0.07407654 -0.05261355
-0.02007523 -0.07066359 0.0338772 0.09946816 -0.028441634 -0.0014883245 -0.04383054 -0.03835831
-0.027687272 -0.04994227 -0.014888071 0.011134664 0.026874175 -0.08364019 0.0040410534 0.029686477
0.039776444 0.00064651965 0.038364507 0.008912194 -0.11724881 0.08864469 -0.049453136 0.0063009034
0.012298029 0.06738351 0.041250486 -0.02375357 0.012799981 -0.045837328 0.0150136305 -0.05561133

features.0.bias f4 [32]
00000000: e0e8 80bd ba65 adbd e2fa 01bd ae4c 263c
00000010: 8530 9c3d 4a34 12bc 0584 81bc 5dfc 60bc
00000020: 95e1 8e3d 3e6e a6bd 1140 8a3d e2c4 5abd
00000030: 6af4 373d 241e a6bd 6f93 c1bd 0c3e c43d
00000040: 3182 883c a6c6 b43d 91b0 babd 8369 ef3d
00000050: 7aa0 723d 6640 723d 79c4 5bbd 75eb 81bd
00000060: 9e10 9abd 7e46 2a3d f911 09bd f7b1 a13d
00000070: 9be3 2dbd a428 403d 667a 133d 4c41 813d
-0.062944174 -0.084666684 -0.0317334 0.010150118 0.07626442 -0.0089235995 -0.015810022 -0.013732043
0.0697662 -0.08126496 0.06750501 -0.05341042 0.044910826 -0.081112176 -0.09451949 0.09582147
0.016663643 0.08826952 -0.091157086 0.11690047 0.059235074 0.059143446 -0.053654168 -0.06343738
-0.07522701 0.041571133 -0.033464406 0.07895272 -0.04245339 0.046913758 0.0360054 0.063112825

features.1.weight f4 [32]
00000000: 5b02 7b3f c8fb 7c3f 9e8c 803f f019 853f
00000010: a56b 7d3f ba10 763f ae4c 7f3f 4b69 7f3f
00000020: f0ea 7a3f 52dc 7b3f efea 823f f196 803f
00000030: 980c 833f 7b16 803f 01c3 7e3f b0c3 853f
00000040: 2fff 7d3f 3770 813f 5ecf 7c3f 5265 813f
00000050: 621c 803f e605 793f f050 7e3f f32e 7c3f
00000060: d408 803f 87b9 813f db81 7f3f d446 803f
00000070: 9772 823f 80b3 823f d7bb 793f 8446 833f
0.9805047 0.9882169 1.0042913 1.039854 0.9899238 0.9611927 0.9972638 0.9977004
0.98014736 0.9838306 1.0227946 1.0046064 1.0238218 1.000686 0.995163 1.0450344
0.99217504 1.011237 0.9875392 1.0109046 1.0008662 0.97274625 0.9934225 0.9850914
1.0002694 1.0134743 0.9980752 1.0021615 1.019122 1.0211029 0.97552246 1.0255895

features.1.bias f4 [32]
00000000: bd01 1ebd 6a2e 1f3d e9a2 253d fd97 443d
00000010: 264c 973c d3c2 b8bc f605 a83c 7b98 5d3d
00000020: 85dc f73b 0020 dabb 0a48 873d 3583 223d
00000030: 7d6e ec3b 679e 433d 1ffb d93c 0bf1 743d
00000040: e74e a4bc 4e06 ae3d 7f9d 55bc 2c3c 013d
00000050: 6d7d b23d 7679 91ba b1ba 6d3b 5776 4e3d
00000060: bc62 263d abec ec3c d652 323c 56e0 5239
00000070: 8fdb 303d 7548 bf3b bd74 36ba ad7b 283d
-0.038575877 0.038862623 0.040438566 0.04799651 0.018468928 -0.022553837 0.020510655 0.054100495
0.00756413 -0.0066566467 0.06605537 0.03967591 0.0072153197 0.047758486 0.026609002 0.05980019
-0.020057155 0.08497296 -0.013038038 0.031551525 0.08715329 -0.001109882 0.0036274607 0.050405826
0.040621504 0.028921446 0.010884007 0.00020110732 0.043178137 0.005837495 -0.00069601444 0.04113357

features.1.running_mean f4 [32]
00000000: d612 82bd f2c4 adbd 25bc 01bd d74e 2e3c
00000010: 83ff 9c3d b481 11bc a170 80bc 9187 65bc
00000020: 8a5a 8e3d e422 a6bd 78b3 8b3d 08fd 59bd
00000030: b1a3 373d ce93 a6bd 72bc c0bd 495e c23d
00000040: 918f 893c 30cb b43d 733e bbbd 8d9e ee3d
00000050: 24c4 763d 2332 733d afb5 5ebd 6a81 81bd
00000060: 99c2 99bd 26f5 2b3d 0d55 08bd f0d8 a13d
00000070: 64fb 2ebd 7773 3f3d 08d5 123d db5f 883d
-0.06351249 -0.0848483 -0.03167357 0.010638914 0.076659225 -0.008881021 -0.015678706 -0.014009372
0.06950863 -0.081121236 0.0682134 -0.053219825 0.044833843 -0.0813366 -0.09410943 0.0949064
0.01679209 0.088278174 -0.091427706 0.11651335 0.060245648 0.059373986 -0.054372486 -0.06323512
-0.0750782 0.04198184 -0.033284236 0.07902706 -0.042720214 0.046740975 0.035847694 0.06658908

features.1.running_var f4 [32]
00000000: db6c e33e 31a6 563f 5bac 793e 3490 623f
00000010: 802b 113f d144 f83e 9f4b ec3e d4ac 1b3f
00000020: fc07 563f 3f7b ad3e 5b1b 6c3e c00a 0f3f
00000030: dbc3 fb3e b264 383f 128d 483e 46ff d03e
00000040: 1c43 133f ab59 053f 4f31 013f b6b1 593f
00000050: 35a5 993e 89c4 0f3f 65b2 1a3f dda3 ea3e
00000060: 23ed 263e 661d cb3e 5ba4 aa3e 8d8e 2c3f
00000070: 35b9 2f3f adb6 d53f 86c5 ed3e 45bd 103f
0.44418988 0.8384734 0.24382155 0.88501287 0.56707 0.48490003 0.46151444 0.6081059
0.83605933 0.33883092 0.2305731 0.5587578 0.49172863 0.7202865 0.19585064 0.40819758
0.57524276 0.5208995 0.50465864 0.8503679 0.30008855 0.56159264 0.6042846 0.45828143
0.16301398 0.39670867 0.33328518 0.67405015 0.6864198 1.6696373 0.4643976 0.565388

features.4.weight f4 [64, 32, 5]
00000000: 2b98 e6bc 9ffa 1338 c9fb 09bb 45e5 fcbc
00000010: 9f5f 24bd 878b a23c 670c 7abb a74e 323d
00000020: 37ec 8c3c 1fcc 9fbd fb94 bfbc c485 d6bc
00000030: a27d f6bc ce43 4e3b c7ce b73c 7d30 06bc
00000040: af64 103c 0189 0abd 6b2c c33d 74c9 b33d
00000050: 1cd8 fe3c d012 973d ba1b cebc e7a2 5c3d
00000060: 996e 76bb 0f4e 49bd 251b a1bb 9e4a 743c
00000070: 8093 4d3d c842 8b3d cf33 06bb 19f3 163d
00000080: b117 a1bc b2c8 593c 0c3d db3c 6c3b 7f3d
00000090: 077d 71bd 97b9 90bd 6092 a63c af8e 9dbc
000000a0: 6210 153d 7373 81bc ecea 4ebd 89bc b9bd
000000b0: 8182 e33c e306 47bd 24f1 42bd 85fd f4bc
000000c0: f56f f4bc dda3 943d 1c69 0a3c fea9 823c
000000d0: 42e3 773d 4bdb 2dbd de13 883c 0af8 63bd
000000e0: 8e9e 7dbc 4971 943c e567 773c a8f2 8b3d
000000f0: d1a7 833c 8e62 0c3d 4bcb 29bd fd84 40bd
00000100: dc9e 7a3d 65e5 953d 78d9 9c3c f2c7 a4bd
00000110: 1ba5 d53b b0b8 413d 74dc 2dba c69e 8f3d
00000120: 78e1 993d 30c9 4f3d 84d9 bb3c 000f 4d3c
00000130: 848d 73bd aded b0bd f4ab 923d cfee 653d
00000140: 64bd 993d 283c 83bb 328a 58bd 1552 61bd
00000150: 478c 24bc e58f 87bd 37f3 e93c a157 72bd
00000160: be72 72bd 812e d93c 61d0 1fbd b170 20bd
00000170: 46f6 69bc b3b3 6abd b303 753d 4a5c 94bd
00000180: 9800 78bb 03a5 2bbd db78 a13c f5ad 69bd
00000190: c228 853d 3193 a23c f865 f53c 2a95 06bd
000001a0: 7599 abbd 023e 3cbc 0bc4 283b 4209 d1bc
000001b0: 265d 5bbc cc39 0c3d 2f57 eebc 439d 7a3d
000001c0: fe29 3c3a 73e5 703d 3e60 ee3c dad6 7ebd
000001d0: 254f 28bd 0efa c9bc 0a90 4f3d dca1 74bd
000001e0: 839c 6e3d 21f0 d73b 7fc9 263d 750a 7fbd
000001f0: 1a4c 14bd ef2d 10bd af8f 283d dad0 383d
00000200: 313f 93bc 6474 69bd 0219 88bb 142a 7bbd
00000210: 744d 61bd 7af4 55bd 1e7c 293d 3488 533d
00000220: d731 90bc fcce c1bd 5202 043b 8d79 153d
00000230: 6563 57bd fba1 1a3d 63f1 71bd 740a bdbd
00000240: 06f8 42bd 8b24 05bd 51f7 a1bc f2a1 4cbc
00000250: f422 76bd 53fd 83bd 8dca 6e3d c365 8dbd
00000260: 0fe2 82bd 61df 7f3c de3a b23d cb7e b63b
00000270: 940e 953d f106 04be 3167 ccbd cb17 703c
00000280: d300 503d c189 55bd 66b2 9d3d be43 eabb
00000290: 24d2 09bd 83d2 993d 5e28 51bd f0fc c6bc
000002a0: 9b71 3c3b 2b6e 49bc ba39 b1ba 6838 71bc
000002b0: 4864 b4bc 1ab6 803c d1ee 18bd 81e4 ccbd
000002c0: 683d ccbc 92f7 ac3d f27f 313d 3313 473d
000002d0: 9caa 8c3d 70da 413d 0bbd 0fbd 2557 933d
000002e0: 6fef 2c3d 8cb7 6a3d 4af2 d73c b84f 4abd
000002f0: e19d 073d 1227 c53c fb14 1bbd 9c93 8bbd
00000300: e3b5 89ba d66f 9a3c b109 eb3c 7d18 493d
00000310: 595d db3c 6575 82bd d99e 92bc dbb7 0dbd
00000320: 8926 ea3b 4872 f13b 6422 dcbd 5d34 8e3d
00000330: cc0a 85bc 21de 81bd 2c22 cebd a900 90bc
00000340: 388b 4b3c 31ff 8cbd 27f5 37bd fc75 73bc
00000350: 48a4 51bd 3f9d 27bc fa1c c93d 8791 003d
00000360: 9fe5 233d e5ea 733d 9cfb 8d3d 9f09 0bbd
00000370: 8541 05be 21f7 0f3c 6097 82bd f19b 423d
00000380: 4f74 65bd 7493 a0bc 4558 3cbc 587a 8cbd
00000390: 10ba 363b 04f3 b43d 9517 01bd 88ac ab3c
000003a0: 6041 35bd a737 01bd 83a9 36bd cc1f 0ebd
000003b0: 722a 55bd 2d93 98bd cc50 c63d 4e18 973d
000003c0: f122 983d 4dd8 073d 9372 29bd c8f2 373d
000003d0: 2d04 3fbd ab5f c4bd d267 8fbd 7ee0 74bc
000003e0: 2dc8 c2bc 95a2 8a3d 83c4 32bd 136e 26bd
000003f0: 2b5f 8f3d 8d96 253a 9f68 893d 18db 40ba
-0.028148731 3.528094e-05 -0.0021054617 -0.030871043 -0.040130254 0.019841922 -0.0038154365 0.04353204
0.01720248 -0.07802605 -0.02338647 -0.026186831 -0.030089203 0.003147352 0.022437466 -0.008190271
0.008813067 -0.033822063 0.095299564 0.087786585 0.031108908 0.07376635 -0.025159705 0.053866293
-0.0037602542 -0.049146708 -0.004916566 0.014910368 0.050189495 0.06799847 -0.0020477658 0.03685293
-0.019664617 0.013292478 0.026762508 0.06231253 -0.058957126 -0.070666485 0.020333469 -0.019233076
0.036392577 -0.01580212 -0.050517008 -0.09069163 0.02777219 -0.048590552 -0.04759325 -0.029906044
-0.029838542 0.07257817 0.008447912 0.0159502 0.060519464 -0.042445462 0.016611036 -0.05565647
-0.015479697 0.018120425 0.015100454 0.068333924 0.016071232 0.034273677 -0.04145364 -0.047001828
0.061186656 0.07319144 0.019146666 -0.08045949 0.0065199262 0.047295272 -0.00066322763 0.070127055
0.07513708 0.050728977 0.022930868 0.012515783 -0.05946113 -0.08639083 0.07161704 0.05613595
0.075068265 -0.004004974 -0.05286617 -0.05500992 -0.01004321 -0.066192426 0.028558357 -0.0591656
-0.059191458 0.026511433 -0.039017085 -0.03916997 -0.014279908 -0.05730028 0.05981798 -0.07244165
-0.003784215 -0.041905414 0.019710949 -0.057050664 0.065019146 0.019845577 0.029955849 -0.032857098
-0.08378879 -0.011489393 0.0025751616 -0.02551711 -0.013388908 0.034234807 -0.029094307 0.061185133
0.0007177888 0.05881257 0.029098626 -0.062216617 -0.041091103 -0.024655368 0.050674476 -0.059724674
0.05825473 0.006589905 0.040719505 -0.062265832 -0.03620539 -0.035200056 0.041152652 0.04512105
-0.017974468 -0.056995764 -0.004153372 -0.061319426 -0.055005506 -0.052235104 0.041378133 0.051643565
-0.01760189 -0.09463307 0.0020142985 0.036492873 -0.052585024 0.037752133 -0.059068095 -0.092305094
-0.047599815 -0.032505553 -0.01977125 -0.012489783 -0.060091928 -0.06444802 0.058298636 -0.06904175
-0.063907735 0.0156172225 0.08702634 0.005569314 0.07278171 -0.12893273 -0.0998062 0.01465411
0.050782036 -0.052133325 0.077000424 -0.007149189 -0.03364767 0.07510855 -0.051063888 -0.024290532
0.0028754238 -0.0122943325 -0.0013521232 -0.014722921 -0.022020474 0.015711833 -0.037337128 -0.10004521
-0.024931625 0.08445658 0.04333491 0.048602294 0.06868479 0.04732746 -0.035092395 0.07194356
0.04222053 0.05730395 0.02636065 -0.049392432 0.03310955 0.024066482 -0.037861805 -0.06815264
-0.0010506477 0.018852156 0.028691145 0.04909562 0.02677791 -0.063700475 -0.01789801 -0.034599166
0.007145707 0.0073683597 -0.10748747 0.06943581 -0.0162405 -0.06341196 -0.100651115 -0.01757844
0.012423329 -0.068846114 -0.04491153 -0.014859673 -0.05118206 -0.0102303615 0.0981998 0.031388786
0.040013906 0.059550185 0.06932756 -0.033944722 -0.13013275 0.0087869475 -0.06376529 0.047512
-0.056019124 -0.019601561 -0.0114956545 -0.06859273 0.0027881898 0.08835414 -0.03151663 0.020956293
-0.0442518 -0.031547215 -0.044595253 -0.034698293 -0.052042432 -0.074499466 0.096833795 0.073776826
0.074285395 0.033165265 -0.041369032 0.04490927 -0.04663484 -0.0958856 -0.07002224 -0.014946101
-0.023777092 0.06769291 -0.04364444 -0.04063232 0.07000574 0.00063166843 0.06709408 -0.0007356866

features.4.bias f4 [64]
00000000: cb0f 1a3d 5e9e d5bc da96 34bd a195 8c3c
00000010: 722d 1c3c 1c2e b43d 24c0 273d fd1a 7abd
00000020: 3e9f a3bd d1ee 4bbd fa5f 07bd 16d8 92b8
00000030: b88f 0e3b 8e70 4f3d 57ed 1abd e00c 3fbb
00000040: f5da 36bc 0d07 9d3c 8e09 a3bc 4f64 a33d
00000050: 2bac 5e3c ea6e 103c 8f08 bbbb b5c9 09bd
00000060: 5f2c eb3d 98f5 78bd 1589 04bd effd c63a
00000070: 6cc7 09bd fb5e 203d 4814 223d cf7b c3bd
00000080: 45ec 46bd 4303 983d 5ab1 303d c68c f8bc
00000090: cb49 afbc 672d 65bd 4335 8f3d 203b a8bd
000000a0: b9c1 0fbd 9b34 cc3b dce1 703d 2711 33ba
000000b0: 57c2 5b3d fffb 263d 2245 b1bc 3279 90bb
000000c0: 90bb d83c 60d5 813d 9248 39bd cd02 03bd
000000d0: ff63 08bd 91a4 9e3d 2134 b9bc 39c1 7c3d
000000e0: 4f12 403d dfa7 25bd 1370 f0bc e63f 773d
000000f0: b562 a63d 1434 b43c 57b0 a9b9 7661 8cbc
0.037612718 -0.026076492 -0.044089176 0.017161192 0.009532319 0.08797857 0.040954724 -0.061060894
-0.079893574 -0.0497883 -0.033050515 -7.002072e-05 0.0021753144 0.05064445 -0.037824 -0.0029151961
-0.011160602 0.019168401 -0.019902017 0.07978117 0.013590853 0.0088155065 -0.0057078074 -0.03363963
0.114830725 -0.06078109 -0.032357294 0.0015181879 -0.03363745 0.03915308 0.039570123 -0.09545099
-0.048565168 0.07422497 0.043137886 -0.030340564 -0.021397492 -0.055951502 0.06992581 -0.08214402
-0.035096858 0.006231857 0.058809146 -0.0006830864 0.053652134 0.040767666 -0.02163941 -0.004408979
0.026456624 0.06339526 -0.045235224 -0.031985093 -0.03329849 0.07746232 -0.022607865 0.06170771
0.04689246 -0.040443297 -0.029350316 0.060363673 0.081242956 0.021997489 -0.00032365575 -0.017136317

features.5.weight f4 [64]
00000000: 14f4 843f 29a1 7b3f 2356 833f 680f 7f3f
00000010: 2b84 763f 0416 803f e3c8 7d3f 9800 7e3f
00000020: d260 823f 397c 803f b9f5 813f 2a39 853f
00000030: 20cf 7f3f 13de 793f ba1e 833f c30a 823f
00000040: 84ae 763f 8a81 7a3f 8afe 793f 9a60 823f
00000050: 60d7 863f 2adc 803f 13c2 7d3f 75c4 803f
00000060: e97c 843f e50e 793f d9a8 7d3f 4cf9 713f
00000070: 6cd2 6e3f 779f 813f da3a 783f 1925 823f
00000080: b922 7a3f 7035 843f 7958 833f 0b72 7e3f
00000090: 29e6 7a3f fb54 8a3f 252e 793f 799e 833f
000000a0: c397 7b3f 4b92 7e3f c624 793f 0834 813f
000000b0: 88bb 803f 991b 803f 5959 783f 2e74 7c3f
000000c0: 9787 7e3f 8823 813f 287b 7f3f 3420 773f
000000d0: 5e66 803f 5713 863f 7dd3 803f c586 7a3f
000000e0: 0159 803f d6d9 893f 43f1 7d3f 9b45 763f
000000f0: ccba 7f3f 965e 803f 20b9 803f f627 813f
1.0386987 0.98292786 1.0260662 0.99632883 0.9629542 1.0006719 0.99134654 0.99219656
1.0185797 1.003791 1.0153114 1.040807 0.9992542 0.97604483 1.0243752 1.0159534
0.9636004 0.9785391 0.9765402 1.018573 1.0534477 1.0067189 0.9912426 1.0059954
1.035062 0.9728835 0.99085766 0.9452102 0.9328983 1.012679 0.969648 1.0167571
0.9770923 1.0328808 1.0261375 0.99392766 0.98007447 1.0807184 0.97336036 1.0282737
0.98278445 0.99441975 0.97321737 1.0094004 1.005723 1.0008422 0.97011334 0.98614776
0.99425644 1.0088968 0.99797297 0.96533513 1.003124 1.0474652 1.0064541 0.9786189
1.0027162 1.0769603 0.9919626 0.9619996 0.99894404 1.0028865 1.0056496 1.009032

features.5.bias f4 [64]
00000000: 7eab 62bc fc01 a4bd e821 043c 9768 55bd
00000010: 8dda 973c 4123 d53b c7fc 2abd a395 87bb
00000020: 848e 9e3c 4090 b2bc a2f8 2fbd dfab f6bb
00000030: 3b00 ae3c a015 03bc 8586 e0bc 0fc9 073d
00000040: e277 06bd 02ad 31bd 41de 55bc e35d 22bc
00000050: 2e56 8e3c ff5a 0bbd 335b 09bc a39e 613c
00000060: 8623 d6bb 5907 80bb 78fd 09bd eec4 76bc
00000070: 6bc6 6fbd 3395 80bd 0e1c 34bd 0b65 52bc
00000080: a3be 11bd bb26 813c 3e84 6a3c 4365 95bc
00000090: 88a8 31bc b4c3 9d3c 8e36 543c 1e42 a2bc
000000a0: e50d 37bc 62e2 64bc e3ed 77bd 0306 6c3b
000000b0: b566 773c bcc0 35bd 5f42 71bc 0220 afbc
000000c0: ab93 28bc 7ecb c43b 5819 27bd 484b f6bc
000000d0: 44db e9bb e1f1 2abc 27c3 1bbd 6279 e33c
000000e0: 7b93 c7bc 3541 8dbb f4b8 2cbd 56b2 6dbc
000000f0: af55 0dbd a7eb 963c 5ed2 59bb ef49 473c
-0.013834832 -0.08008191 0.0080647245 -0.052101698 0.01853683 0.0065044467 -0.041744974 -0.004137711
0.019355066 -0.0217973 -0.042961724 -0.007527813 0.021240344 -0.008000761 -0.027407894 0.03315073
-0.032829173 -0.043377884 -0.013053478 -0.00991008 0.017375078 -0.034022328 -0.00838356 0.013770732
-0.0065349964 -0.003907126 -0.033688992 -0.0150616 -0.058538835 -0.062784575 -0.043972068 -0.012841473
-0.035582196 0.015765538 0.014313756 -0.018236762 -0.010843404 0.019258358 0.01295246 -0.019806918
-0.011172746 -0.0139699895 -0.0605296 0.0036014325 0.015100171 -0.04437326 -0.014725297 -0.021377567
-0.010289113 0.0060057035 -0.040795654 -0.030065194 -0.007136734 -0.010433645 -0.03802791 0.02776784
-0.024362316 -0.004310752 -0.042168573 -0.014507851 -0.034505542 0.018422915 -0.003323696 0.012163623

features.5.running_mean f4 [64]
00000000: 5d00 93be 0a72 34be acde a3be c181 e13e
00000010: 46d4 95bd f8c1 0dbf 4195 d03d 3a4f dcbe
00000020: dd2b d5be 93c4 16be 5caf 1ebe 636e 61bf
00000030: f461 4ebe f255 743d 70bc 2abf 5261 32be
00000040: 6a03 aa3d eeca 06be dc89 5cbe ccfc 0d3c
00000050: 0eb4 1fbe bde3 50bd a448 b4bd 88ed a2be
00000060: 69f5 e0be eaa2 5f3e 9f28 52be 6f05 233e
00000070: 055b 5ebe dc26 1ebf c357 bcbe ce68 88bf
00000080: 61e8 42be 372b 11bf 39b5 77bd 5833 c2be
00000090: 8883 0cbe 33b8 bfbe 8e39 f3bd 0000 20bf
000000a0: 40cd debe b904 74bd 2a56 88be dcad 1dbf
000000b0: c507 e53d 3737 fd3c 4050 21bf c43d 42bf
000000c0: 1eb1 003d 5590 47bb bdd6 f6be 7ead 6f3e
000000d0: 342a c6be 9b60 8fbe 080d 783e cc6e 02bf
000000e0: 6b09 b1be 34c3 7bbe 6209 bd3d 72c9 133f
000000f0: 836d 0cbf 3cad e6be 2837 b1be 84c1 d5bd
-0.28711215 -0.17621627 -0.32005823 0.44044307 -0.073158786 -0.553741 0.10184718 -0.43029195
-0.41635028 -0.14723425 -0.15496582 -0.8805906 -0.20154554 0.059652276 -0.6669378 -0.17419937
0.083014324 -0.13163349 -0.21536964 0.0086662285 -0.15596029 -0.05099844 -0.088029176 -0.31821847
-0.43937233 0.2183949 -0.20523308 0.15920042 -0.21714409 -0.61778045 -0.36785707 -1.0656984
-0.19033958 -0.56706566 -0.06047556 -0.37929797 -0.1372205 -0.3744522 -0.11876212 -0.625
-0.43515968 -0.059574816 -0.26628238 -0.61593413 0.111831225 0.030910118 -0.63013077 -0.75875497
0.031418912 -0.0030451019 -0.48210707 0.23406026 -0.38704073 -0.28003392 0.24223721 -0.5095031
-0.34577498 -0.24586183 0.09230305 0.57729256 -0.548546 -0.45054042 -0.34612393 -0.10437301

features.5.running_var f4 [64]
00000000: 1ca0 7e3e 3219 b43e 3b06 7f3e 70fb 093f
00000010: 68d5 573e 1d79 9a3e cd58 7c3e 39f3 fc3e
00000020: c768 d83e 5a2f 103e b9d9 0e3e ad9f 243f
00000030: 9d5d a73e de1f 823e 3e7c e33e 8a85 753e
00000040: 0f59 f93e 9adb bf3e 5fbd 7b3e f8f9 cb3e
00000050: d617 fc3e 66de 3f3e 03ca 943e 10f8 983e
00000060: b4da e83e 713c 813e 87fe 1a3e 6391 133e
00000070: 5ce7 7a3e 3962 c13e 8495 f33e aace 053f
00000080: f737 813e 9b8b c33e 21fd a63e a7db 203f
00000090: e205 913e de19 b43e a942 8e3e 9bd0 bb3e
000000a0: 0dd8 503e c267 373e 7eb2 ca3e 0c72 873e
000000b0: 35e1 693e cacf 1d3e c125 a03e 9f75 c53e
000000c0: 1738 3d3e bc0e 943e 1d01 233f 2b66 9e3e
000000d0: 455f 493e 323c 3e3e 2a70 033f dcc2 233f
000000e0: 6f29 b23e 092a 7c3e e2b9 053f 44f6 e73e
000000f0: 70bd 2e3f b512 a33e 3814 1f3e 54c5 193e
0.24865764 0.35175472 0.2490472 0.5389929 0.21077502 0.30170527 0.2464325 0.49404314
0.4226744 0.14080563 0.13950242 0.64306146 0.3268861 0.25414938 0.44430727 0.23976722
0.4870076 0.3747223 0.24583958 0.3983915 0.49236935 0.18737182 0.29060373 0.29876757
0.45479357 0.25241426 0.15136157 0.1441093 0.24502319 0.3777025 0.4757501 0.5226847
0.2523801 0.38192448 0.32614997 0.6283516 0.283248 0.35175985 0.27785233 0.3668259
0.20394917 0.17910674 0.39589304 0.26454198 0.22839816 0.15411296 0.31278804 0.385663
0.18478428 0.2891749 0.63673574 0.30937323 0.19665249 0.1857765 0.51343024 0.63969207
0.34797236 0.2462541 0.5223676 0.45305073 0.6825781 0.3185021 0.15535057 0.15016681

features.8.weight f4 [128, 64, 5]
00000000: 1f1a 55bd 46ad a13c 0a81 75bc c7d6 963d
00000010: ba7f 593b b957 483d fe72 c3bc 3b93 ba3c
00000020: 943b 8abd 8e0e dabc 47e0 743d 5873 893d
00000030: c970 ac3d 9daa 783c f85d b93d 6dbc 8e3c
00000040: 330f 903c 9e61 6ebd 005f 673b b5a3 4d3d
00000050: de86 933c e353 1dbd a649 a23c 5842 c63c
00000060: 1711 bbbc 79d7 8a3d 2325 243c 3a0c e2bb
00000070: 8ac0 223d 801e 873c b067 64bc 2582 0a3d
00000080: 08a4 02bd d261 71bc 9c28 773d db26 c3bb
00000090: b0d8 18b9 665e 263d b4ac 3b3d 5e9b 28bd
000000a0: 65e6 01bd f796 0b3d c7cc f83b e8ca 0cbd
000000b0: 77a9 0539 149b 2dbd 209b 8abc 4534 f2bb
000000c0: 3a10 ee3a 8329 343d b128 2abd 2546 f3bb
000000d0: ba0c 9a3d 3609 30bb ee5e 41bd 14cc e5bc
000000e0: f36a bebc f77e 2cbd 2159 613c 3941 433d
000000f0: 853c 4a3d 7e8c e9bc eaaf 1a3d 1bf8 6e3d
00000100: c7b6 dd3b d64d 513d 2447 313d 9dd7 a6bc
00000110: 4c5b b2bc 9dfa d83c 83ec 383d 323f 663d
00000120: 99d4 053d 5f81 c43c c855 f83c 348d 28bd
00000130: af57 45bc d689 bbbc 16f0 193d edb3 103d
00000140: e8eb 9ebc 572a d03c a5fb 94bb 8bc5 14bd
00000150: d3e1 583d 70ef 723c b22b b3bc f24d 433d
00000160: 895c 29bd 37fa ccbc 2fc9 5f3c a03f 803c
00000170: b753 39bc 6c02 a23c 729d aabc 2305 29bc
00000180: 37be e3bc 4f99 3b3d 53c6 643c 9b27 02bd
00000190: f056 2d3d de5b 6cbd f50a b7bd 3a46 24bd
000001a0: 6323 163d 8f47 953c 0108 23bc bd6f 733d
000001b0: a61c 2e3d b673 dd3b f892 573d a8ef 323c
000001c0: ce18 89bd f69e 57bd ff50 1b3d 849e 9a3b
000001d0: 014f 293d f6b3 26bd 4d03 8d3d 83f6 763d
000001e0: 0d79 a63c 0915 373d 5ef9 e23c a556 e2bc
000001f0: f352 8b3a eaba 39bd e33e 903c d009 d8bc
00000200: ee4a 46bc 41af bebb b9a6 69bd b528 3abc
00000210: a079 83bc c127 cf3c adfe e2b7 e77b 523c
00000220: 0e1a ba3b 27ee 7ebd f27e 0fbd 3060 0d3d
00000230: b60a 783d f2fe 2e3d 1366 9ebc aad6 783d
00000240: d6e6 7e3d a099 11bc 356e d83b a19a c03c
00000250: 9f57 0cbc 5b3b 2ebc 7323 de3c 6e4b 24bd
00000260: bed6 4cba 5ae9 583d 5a5e 13bd e08f 6dbc
00000270: b3a7 27bd 6858 19bc 1ddf 70bc 2019 d8bb
00000280: 92f4 0dbb 78b5 33bc 4590 d93b 17e3 7fbd
00000290: f4f9 0a3d 2a3c 59bd a65b 183c d002 1f3d
000002a0: cfa7 db3c 370b 0ebc d430 473d a8cd 96bd
000002b0: 5182 313c 081d fa3c 3f5a da3c b9cc 75bd
000002c0: de03 293d 4ede 873c 1276 fbbb 3f15 583d
000002d0: 6dd7 aabc 220b 0b3d 895e 85bb f5a6 5cbc
000002e0: 4f0d 6a3d ca01 16bc b012 2f3d b2b8 24bd
000002f0: 238b 82bd 3e05 b5ba a344 323c dd73 6d3d
00000300: 1905 8abc 7bcb c0bb 1c77 4e3c 5d29 533c
00000310: 2a56 523b 70ca 88bc 3bc1 ccbc ddc1 8a3a
00000320: 5204 c83c 3f18 8c3c 90bd 98bd 0b27 49bc
00000330: 3d56 13bc 71f4 b83c 0b28 84bd 6dcd 0f3d
00000340: a1df 273d fb58 1c3d 909e 23bc ad77 703d
00000350: 65e8 113c 1a11 2abd 53ee d53c 1007 953d
00000360: afc1 e1bc bdc4 84bd f8a8 8bbd 518d 4ebd
00000370: ab24 013b 8aec 7f3c c4af 003d 116d a93d
00000380: 12f5 1c3d 0658 9cbb 6e92 2b3d d8f5 e13c
00000390: f0f2 39bc 8bba dc3c d62a 8d3b 5899 493b
000003a0: cc77 bbbc b43f 1c3d a747 0d3c 6ef5 0f3c
000003b0: 166c 713d 40b9 8cbd 22e7 06bd 5563 44bb
000003c0: 82ae 82bc ac2b 83bc 0149 113c 19b9 e63c
000003d0: cfb7 11bd ada5 c7bb 24bf 62bd 249b 83bd
000003e0: d3ad 56bc 0574 613d 79ac 4bbd 9f01 9fbc
000003f0: ace5 82bd d2db 1a3c 0382 a43c 2828 523c
-0.052026864 0.019735944 -0.014984379 0.07365184 0.0033187703 0.048911784 -0.023858543 0.022775283
-0.06749645 -0.026618268 0.0597842 0.06711453 0.084199496 0.015177396 0.09051126 0.017423833
0.017585373 -0.058198564 0.0035304427 0.05020495 0.018008646 -0.03841008 0.019810509 0.024201557
-0.022835298 0.067793794 0.01001862 -0.00689843 0.0397344 0.016494036 -0.013940737 0.03381552
-0.031894714 -0.014732795 0.060341462 -0.0059555597 -0.00014576572 0.04061737 0.045819 -0.041163795
-0.031713862 0.03407952 0.0075927707 -0.034373194 0.00012746999 -0.042384222 -0.016919672 -0.007391485
0.0018162795 0.0439849 -0.041542713 -0.0074241334 0.07521959 -0.002686096 -0.047209673 -0.028051414
-0.023244357 -0.04211327 0.01375416 0.047669623 0.049374122 -0.028509375 0.03776542 0.05834208
0.0067661735 0.05109962 0.043280736 -0.020366484 -0.02177205 0.02648669 0.04514743 0.05621261
0.032673452 0.02398747 0.030314341 -0.041150287 -0.012044831 -0.022892874 0.03758248 0.03532784
-0.019399598 0.025410814 -0.0045466 -0.036321204 0.052949738 0.014827594 -0.021871421 0.047681756
-0.041348014 -0.025021655 0.013658806 0.015655339 -0.011311463 0.019776545 -0.020827029 -0.010316166
-0.027800662 0.045800503 0.0139633 -0.031776052 0.04231924 -0.0577048 -0.08937637 -0.040106036
0.03665484 0.018222598 -0.009950639 0.059432734 0.04250779 0.0067581786 0.052630395 0.010921396
-0.06694184 -0.05264183 0.03791904 0.0047186036 0.04133511 -0.040698968 0.06885395 0.060293686
0.020321393 0.044697795 0.027706798 -0.027629206 0.0010629579 -0.04534427 0.017608112 -0.026371866
-0.012102826 -0.0058192317 -0.057043765 -0.011362244 -0.016049206 0.02528751 -2.7059892e-05 0.012846923
0.0056793755 -0.06223884 -0.035033174 0.03451556 0.06055709 0.042723604 -0.019335782 0.060751595
0.06223186 -0.008886725 0.0066049346 0.023511233 -0.008565812 -0.010634269 0.027116513 -0.040110998
-0.00078139815 0.052956916 -0.035978653 -0.0144996345 -0.040931415 -0.009359457 -0.014701632 -0.006594792
-0.0021660668 -0.0109685585 0.0066395127 -0.06247243 0.03392978 -0.053035893 0.009299194 0.03882104
0.026813416 -0.008669666 0.04863055 -0.073634446 0.0108342925 0.030531421 0.02665436 -0.060009692
0.041263454 0.016585495 -0.007673987 0.052754637 -0.020854676 0.033946164 -0.0040701074 -0.01346754
0.0571416 -0.0091557 0.04274243 -0.0402152 -0.063741945 -0.0013810766 0.010880622 0.057971824
-0.016848134 -0.0058836318 0.01260164 0.01288828 0.0032094815 -0.016698092 -0.024994483 0.001058634
0.024416123 0.017101405 -0.07458031 -0.012277375 -0.008992729 0.022577496 -0.0645295 0.03510802
0.040984754 0.038170796 -0.009986535 0.05870788 0.008905505 -0.041520216 0.026114618 0.07276738
-0.027558176 -0.06482837 -0.068193376 -0.05042774 0.0019705694 0.01562036 0.031417623 0.08272756
0.038319655 -0.0047712354 0.041887693 0.027583048 -0.011349425 0.02694442 0.004308085 0.0030761566
-0.022884272 0.03814669 0.00862304 0.008786542 0.05894097 -0.06871271 -0.03293527 -0.0029966433
-0.015952352 -0.016012035 0.008867503 0.028164433 -0.035575684 -0.006092748 -0.055358067 -0.06426075
-0.013102966 0.055042285 -0.04972503 -0.019409953 -0.06391463 0.009451823 0.020081526 0.012826957

features.8.bias f4 [128]
00000000: 0be4 bf3c f144 60bc 8bed 533d c0ce 38bd
00000010: 37ce 243d 65a3 6f3d 3b83 e53c 1324 053d
00000020: b1b8 f23c c5c0 3dbd 1acb 32bd a26e 32bd
00000030: 8369 9a3c a2df 393d bfef 0bbc ecbd 403d
00000040: ef61 0cbc e34f 1fbd 1b49 1b3d e05e 0dbc
00000050: 80f0 583d f8a3 52bd 9b22 debc e632 953c
00000060: b59f dd3c 713a 3c3d fccf 3abd 0528 a33c
00000070: f43d 37bd edfb 08bd e35e b03c 36be adbc
00000080: 2bbb 28bd 11ab 813c 91e5 83bb b932 fb3c
00000090: d897 a5bb 132a 8cbb edd2 24bd 30cc 263d
000000a0: e350 273b b17c f13c 9b1a 383b 405e 993b
000000b0: 7ba4 99bb 254f 05bd 89bb 9e3c fae3 333d
000000c0: 6edc bcbc b609 053d b643 85bc 10b3 503d
000000d0: 57f8 15bd f983 c23b 7f88 273d 8ccf f33a
000000e0: 019f 8e3d d35e 873c 0f82 8c3c c481 39bd
000000f0: 71c0 2c3d 5c7e 683d 26ec 3d3d c2ed 033b
00000100: 183d 9cbb 3344 2c3d 7348 e7bc ea1f dc3c
00000110: 54a7 1ebd 9d49 153d ce3c 103d 1456 dfbc
00000120: ce08 d0bc 89f8 0ebc dff8 303d a0e2 01bd
00000130: 8d33 31bd a336 9b3d 7a50 63bd 138e f13c
00000140: f42a 4b3d e4c1 4d3d 6a86 323c ff7d 223c
00000150: 5006 203d 2aa6 5e3d ebec 073d e742 833c
00000160: c877 cb3c 357d 813c ede8 06bc 6001 443a
00000170: 13f6 453d 4f7e 5abd 5562 d43c a3e3 a2bc
00000180: 1765 043b 47d3 073d a163 aa3c b627 bdbc
00000190: 92f6 c5bc 3172 2bbd 83a6 323d 7590 21bd
000001a0: c321 aebc fa9d e9bb 9f0e 153d e9fc ecba
000001b0: 7a01 73bd 8c47 283d 80ec 003d 5e34 983c
000001c0: 59e9 543d b12f d73b bf2f b13c 99d8 103d
000001d0: cde1 28bd 42c7 4ebd 022f 16bd b750 0ebc
000001e0: 9a8b 273d e3a7 23bd 2d61 b03c 8a20 a1bc
000001f0: 5c99 9b3b 0248 10bd 4dec d33c a1c6 233d
0.023424169 -0.013688312 0.05174021 -0.045119047 0.040235724 0.058505435 0.028016677 0.032505106
0.029629083 -0.046326417 -0.043650724 -0.04356254 0.01884914 0.04537929 -0.008541047 0.047056124
-0.008568271 -0.038894545 0.037911516 -0.008628577 0.052963734 -0.051425904 -0.02711611 0.018212747
0.027053693 0.04595417 -0.045608506 0.019916544 -0.044736817 -0.03344338 0.02152962 -0.021208864
-0.041194122 0.015828641 -0.004025169 0.030663835 -0.0050535016 -0.0042774766 -0.040240217 0.040722072
0.002553039 0.029478403 0.002809203 0.004680425 -0.004688797 -0.03254618 0.019376533 0.043918587
-0.023054328 0.032479964 -0.016267639 0.050952017 -0.03661379 0.0059361425 0.040901657 0.0018601282
0.06963921 0.016524708 0.01715186 -0.04528977 0.042175714 0.05676113 0.046367787 0.0020130728
-0.004768025 0.042057227 -0.028232789 0.026870687 -0.038733795 0.036447156 0.035214238 -0.027262725
-0.025394823 -0.008726248 0.043206092 -0.031710267 -0.043262053 0.075787805 -0.05549667 0.029486692
0.04960151 0.050233737 0.010896305 0.009917735 0.03906852 0.054357685 0.033184927 0.016023112
0.02483739 0.015806774 -0.008234245 0.00074770115 0.048330378 -0.053343114 0.025925795 -0.019883936
0.0020201856 0.033160474 0.02079946 -0.023090225 -0.024165425 -0.04185695 0.04361583 -0.039444406
-0.021256333 -0.007129428 0.036390897 -0.0018080744 -0.05932758 0.041083857 0.031475544 0.018579658
0.05198035 0.0065669646 0.021629212 0.035362814 -0.041230965 -0.050482996 -0.036665924 -0.008686236
0.04090462 -0.03995503 0.021530712 -0.019668836 0.0047485065 -0.035224922 0.025869513 0.03998435

features.9.weight f4 [128]
00000000: 5122 843f 80b6 7b3f 0910 7c3f 51b7 903f
00000010: 6e41 773f afb7 733f de69 743f 42c4 753f
00000020: 3c2f 833f fa99 803f f9f2 7d3f f960 763f
00000030: ada6 7c3f da7c 7a3f 936b 783f b19a 863f
00000040: c845 703f 9ad6 733f c224 703f 094a 713f
00000050: e7d4 7d3f 0291 7d3f 0b91 783f 2389 7c3f
00000060: 6fbf 853f 2f77 823f 44e4 6e3f 72bb 7f3f
00000070: 9363 763f cd51 833f 504f 833f 5cce 733f
00000080: 5927 863f 894f 7f3f 61c5 783f ddee 813f
00000090: a6f6 7f3f c559 783f bd48 763f d4f8 873f
000000a0: 4475 733f 82d1 833f a642 6f3f b1e6 813f
000000b0: 9fb2 763f a877 783f c8ca 793f 524b 723f
000000c0: c1fd 723f 9ff4 743f 6575 843f 144b 7d3f
000000d0: 9d2e 873f b064 753f 934e 813f 6909 863f
000000e0: 6b7b 823f 4852 793f 7f0f 7d3f 983e 6b3f
000000f0: cb79 7d3f 151b 793f f6c7 7f3f 9614 803f
00000100: b350 823f 457c 823f 73fb 823f 7298 7c3f
00000110: 9335 7f3f 6b2a 7a3f 12f7 793f ad91 743f
00000120: f302 803f 7ae1 773f e752 793f 7eeb 823f
00000130: e49c 7c3f 198c 873f 4de4 823f 2903 7e3f
00000140: d4f4 6e3f eef0 7a3f 0b87 833f a2ca 743f
00000150: 99d8 703f 638a 6d3f 25bf 723f 12d9 813f
00000160: 7a43 7a3f 3069 7b3f 8844 7b3f 1546 7b3f
00000170: e602 7e3f c33f 833f bf4c 7c3f b91c 7d3f
00000180: 41e8 833f 8e43 833f 0429 863f 3626 6f3f
00000190: b201 7e3f fd10 7e3f 9809 7c3f 61e1 803f
000001a0: c221 783f 7b8d 743f f2a6 7f3f 74da 813f
000001b0: 2409 863f 55d7 7c3f 1de1 7d3f 47bf 773f
000001c0: ac54 783f f881 7b3f 411b 6e3f c7f6 743f
000001d0: 4182 773f 4f9d 7e3f 2f5a 7d3f 0094 843f
000001e0: 536d 803f 1c52 853f 8317 803f caa6 743f
000001f0: baf7 833f d720 7d3f 4e76 7a3f 3fda 6d3f
1.0322973 0.9832535 0.9846197 1.1305944 0.9658421 0.95202154 0.9547404 0.9600259
1.024879 1.004699 0.9919887 0.9624172 0.9869183 0.9784676 0.97039145 1.0515958
0.9385648 0.9524933 0.9380609 0.94253594 0.9915299 0.9904939 0.9709632 0.98646754
1.0449046 1.0192622 0.93317056 0.99895394 0.9624569 1.0259339 1.0258579 0.95236754
1.0480758 0.99730736 0.97176176 1.015102 0.9998573 0.9701198 0.9620474 1.0622811
0.9510081 1.0298312 0.9346107 1.0148526 0.96366304 0.9705758 0.97575045 0.9464618
0.9491845 0.9568576 1.0348326 0.98942685 1.05611 0.9585676 1.0102104 1.0471622
1.0193914 0.97391176 0.9885177 0.91892385 0.99013966 0.9730695 0.9991449 1.0006282
1.0180877 1.0194174 1.0232986 0.98670113 0.9969112 0.97720975 0.97642624 0.95534784
1.00009 0.96828425 0.97392124 1.0228117 0.98676896 1.058963 1.0225922 0.9922357
0.9334233 0.9802388 1.0275587 0.95621693 0.940805 0.92789286 0.94822913 1.014437
0.9775921 0.9820738 0.98151445 0.9815381 0.9922317 1.0253834 0.98554605 0.9887195
1.0305253 1.0254991 1.0481267 0.9341768 0.99221337 0.9924467 0.9845214 1.006878
0.9692651 0.9552838 0.99864113 1.0144792 1.047154 0.9876607 0.9917162 0.9677624
0.970042 0.9824519 0.93010336 0.9568905 0.96683127 0.99458784 0.98965734 1.0357666
1.0033363 1.0415683 1.0007175 0.95567 1.0309975 0.98878235 0.9783677 0.9291114

features.9.bias f4 [128]
00000000: c100 44bd 6b4a 35bd e2ef 0fbd c21f dbbd
00000010: 0a94 18bc 1120 0abd 8856 85bd 8599 81bc
00000020: ebb9 c2bd 766e 88bd a77b 75bd 48d2 bbbc
00000030: 0bab 90bc 19e3 5ebc 9807 70bd 510c 35bd
00000040: 560d 34bd 769e 61bc d4b8 d7bc 5dc8 54bd
00000050: 5d25 9cbc 456e cdbc 3b2a 44bd 1daf 68bc
00000060: 34f1 b6bd aaf1 11bd 10e6 8bbd ba25 a2b9
00000070: ef9e dfbc cd5b 88bc cccf 98bd a932 37bd
00000080: 3dc1 45bd 932a 6fbd 630b 323b e145 08bd
00000090: 0bbd 82bd 9b18 14bc 9b3f 2cbc ea1c 81bd
000000a0: 56ea b2bc 8b19 92bd a287 c6bc 189a a3bd
000000b0: 0ffd 1dbd eb81 25bd 4a97 a0bc b480 2fbd
000000c0: 1473 61bd 342d 1abd 9271 02bd 2da2 48bd
000000d0: f616 18bc 40d4 6ebd 2a5c d8bc 8ec6 3bbd
000000e0: fd79 39bd 0b66 35bd 9c57 4dbc 7f78 75bd
000000f0: 0074 11bd 9f21 89bd c337 0dbd 1083 bbbc
00000100: 8a21 8abd 2f97 77bc 690f 4abd 93bd 3cbd
00000110: 3143 f6bc a858 f2bc cae4 38bd a434 98bd
00000120: 3ab2 98bc 2896 51bd c8b2 28bd 8866 98bd
00000130: ccac 15bd 45ed f7bc 5fb2 ccbc e62d 183b
00000140: 3e35 a2bd 1ef0 3cbd 5ea2 3dbd 5c94 9bbd
00000150: a441 82bd ace4 7ebd cfcd 1bbd cebf 0bbd
00000160: c64a 41bd 3cd4 cebc 4596 a3bc 1edb 1c3c
00000170: b298 94bd 5fec 46bd ed59 33bd dcb4 a4bb
00000180: 3966 c4bd 669f 08bd 24a9 e6bd e621 debd
00000190: 5e63 87bc fdb2 d2bd 7411 dfbc ca97 97bc
000001a0: 5ffa 0fbd b9af 06bd 3196 59bd 13b1 14bd
000001b0: 6378 3dbd c056 2cbd e7f1 c1bd 105f 8dbd
000001c0: cb68 0bbd 1ef3 f7bc fc00 6abd a4c2 acbc
000001d0: 1d82 85bd 29ed 35bd 4788 adbc 3a91 85bd
000001e0: 1fe0 98bd 577f 85bd 6dab 1bbd c6a8 26bd
000001f0: 6a38 bbbc 25c9 82bd 922a 49bd 3bf4 85bd
-0.04785228 -0.044260424 -0.03514088 -0.10699417 -0.009312639 -0.033721987 -0.06510645 -0.015820274
-0.09508117 -0.06661694 -0.059932377 -0.022927418 -0.017659685 -0.013603949 -0.058600992 -0.0442012
-0.04395803 -0.01377069 -0.02633325 -0.051948894 -0.019060785 -0.025076995 -0.047891837 -0.0142019065
-0.089327246 -0.03563086 -0.0683099 -0.00030927156 -0.027297465 -0.016645337 -0.07461509 -0.044726048
-0.04827999 -0.05839021 0.0027167432 -0.033269767 -0.06383713 -0.0090390695 -0.010513212 -0.06304343
-0.021840256 -0.07133778 -0.024234597 -0.079883754 -0.038571414 -0.040407103 -0.01960339 -0.04284735
-0.055041388 -0.037640765 -0.03184659 -0.048982788 -0.009282818 -0.058307886 -0.026411135 -0.045843653
-0.045282353 -0.04428677 -0.012533095 -0.059929367 -0.035511017 -0.06695866 -0.034477007 -0.022889644
-0.06744678 -0.015111729 -0.049331103 -0.04607923 -0.030061336 -0.02958329 -0.045140065 -0.074319154
-0.018639673 -0.05116859 -0.041186124 -0.07441431 -0.036541745 -0.030264506 -0.024987398 0.0023220717
-0.079203114 -0.04612743 -0.046297424 -0.07596657 -0.06360176 -0.062229797 -0.03803807 -0.034118466
-0.04719045 -0.025247686 -0.019969115 0.009573726 -0.07255687 -0.048565265 -0.04378693 -0.005026443
-0.0958981 -0.03335514 -0.1126273 -0.10846309 -0.016526874 -0.102880456 -0.027230002 -0.018504996
-0.03515088 -0.032882426 -0.05312175 -0.036301684 -0.046257388 -0.04207492 -0.09469967 -0.06902897
-0.034035485 -0.030267294 -0.057129845 -0.021088906 -0.06518958 -0.044415627 -0.021183146 -0.065218404
-0.07464623 -0.06518429 -0.03800528 -0.0406883 -0.022854049 -0.063860215 -0.049112864 -0.06540724

features.9.running_mean f4 [128]
00000000: a055 d73e 3fb8 b3bd 22fc 1dbf 14b8 87bf
00000010: 8d0d e8be 17e7 ab3e 85b7 8cbf d316 c1be
00000020: 849f 01be c54b 15be 32a8 1abf 5e92 2cbf
00000030: 7cd4 1bbf 047b 22bf 8f83 f4be d256 c4bf
00000040: fa77 83be d67c f6be 5a56 85be 5261 5fbf
00000050: e423 de3d 929a 99bf 1571 a9be 2891 303e
00000060: 03cf 5b3c 691e 7a3f e81a 50bf b87b f5be
00000070: a4f8 6cbf d06a e93c 1db8 32bf cbc2 61bf
00000080: f5f2 88bf cabe 84be 8154 02bf 5275 e6be
00000090: ed08 9dbf ca66 e1be 9a4b a3bf 0499 a3bf
000000a0: 86b4 aabe 452c 27be 1a51 3dbf 9738 f93b
000000b0: c3cc efbe 03d4 68be 78e1 e63e ab30 5dbf
000000c0: 8022 223f 8e2e 2abf 874c 3b3f 7e5c c8be
000000d0: d0a7 a8be cdb3 8dbf ce52 f1be eb9c 54bf
000000e0: 0e5f 81bf f004 903e 782a 43be b768 95bd
000000f0: 6a38 4fbf 2ca5 f23e 72c4 37bf a257 65bf
00000100: 2330 713e 2d9f 273f 5d44 c1bf 946f f03c
00000110: 798a 06bf 77f8 36be 65e0 d3be 77c4 65bf
00000120: f0ca 6fbf 305c 7fbf 54ec 493f 1219 163f
00000130: fd5d 89bf 38d3 e0be 3d43 e1be 5c82 10bf
00000140: 99e5 4d3e 62dd 09bf a868 413e 0cde d5bd
00000150: 7a7d 91bf 6e6b 6a3e 4468 e2be d2e6 6ebf
00000160: 3fb7 c1be 5887 273e b0c8 4abf cbfe f2be
00000170: 4cd9 0fbf 2874 bb3e a4d0 2fbf 44f2 fdbe
00000180: f225 2dbf cef7 313e 11f4 8dbf bf23 423e
00000190: 9b15 8dbf 52fa 65bd db4c 2cbf aca9 2ebf
000001a0: 53f7 1ebe 44b9 75bf 525b 77be 1826 4b3f
000001b0: ad21 27bf 301d 8abe e40d 183f 17ca 2ebf
000001c0: 37ba b5be ae60 adbe 9774 19bf a0fe c6be
000001d0: b6a7 c23e e980 a03e 13b2 25bf 4e32 0abe
000001e0: 8424 80bf 218b 02bf 0948 193f 0e1d 50bf
000001f0: 501a 443f 8ffa adbd 45b0 32be effa febe
0.42057514 -0.087753765 -0.6171285 -1.0603051 -0.45322838 0.33574745 -1.0993506 -0.37712726
-0.12658507 -0.14579685 -0.60412896 -0.6741084 -0.608711 -0.63468957 -0.4775662 -1.5338995
-0.25677472 -0.48142117 -0.26042444 -0.87257874 0.10846689 -1.2000296 -0.33094087 0.17242873
0.013416055 0.9770265 -0.81291056 -0.47945952 -0.92566895 0.028493315 -0.69812185 -0.88187855
-1.0699145 -0.2592681 -0.5091019 -0.45011383 -1.2268349 -0.44023734 -1.2757447 -1.2781072
-0.33340853 -0.16325481 -0.73951876 0.007605623 -0.46835908 -0.22737126 0.45093894 -0.86402386
0.6333389 -0.66477287 0.73163646 -0.39133066 -0.3294053 -1.1070496 -0.47133487 -0.8305194
-1.0107133 0.28128767 -0.1905917 -0.072953634 -0.80945456 0.4739164 -0.71784127 -0.8958684
0.23553519 0.6547726 -1.5098988 0.02935008 -0.5255504 -0.1786822 -0.41382137 -0.89752907
-0.93669033 -0.9975004 0.78876233 0.58632004 -1.0731808 -0.43911147 -0.4399661 -0.5644891
0.20107116 -0.5385343 0.1888758 -0.10442743 -1.1366417 0.22892544 -0.44220173 -0.93320954
-0.37835118 0.16360223 -0.79212475 -0.47460017 -0.56190944 0.36612058 -0.68677735 -0.49598897
-0.67636025 0.17379686 -1.1090108 0.18958949 -1.1022218 -0.056146927 -0.6730477 -0.6822765
-0.15524034 -0.9598582 -0.2415593 0.79355 -0.6528576 -0.26975393 0.59396195 -0.68277115
-0.35493633 -0.33862823 -0.59943527 -0.38866138 0.38018578 0.3134835 -0.64724845 -0.13495752
-1.0011144 -0.50993544 0.5987554 -0.81294334 0.7660265 -0.08495056 -0.17450054 -0.49800822

features.9.running_var f4 [128]
00000000: adff b53e 23ac b83e 06f3 af3e 36f3 4f3f
00000010: 73e0 e53e 7c87 ca3e 2766 733f cbfb 8b3e
00000020: be0c f53e 8b3f fa3e 45e6 033f c555 a23e
00000030: 9490 8b3e 605c b03e b3e9 d43e 805d 943f
00000040: be38 b83e f88a 2e3f 491a fd3e c3f9 423f
00000050: eebd de3e 6720 833f 4d57 0a3f 6512 9e3e
00000060: 2ce7 0b3f d1a7 213f 936e 1d3f c812 193f
00000070: d4f7 303f 5b35 df3e 4935 453f 2545 dc3e
00000080: f42d 7a3f 1619 383f f858 d93e 268d 8e3e
00000090: 1efb 153f 9582 b63e ffe2 0b3f ee44 a63f
000000a0: ae18 373f 6f96 053f 2506 683f eaec 2d3f
000000b0: 76e0 cf3e e462 da3e 78fc d13e ad4e 843f
000000c0: 9fe9 bd3e 7181 2d3f eb0c 8d3e be00 0a3f
000000d0: 1f99 183f e37f 073f 04a9 9f3e 8182 2e3f
000000e0: d5a5 3e3f 8eb1 b13e e3d8 a23e d7d5 1e3f
000000f0: 43db 2b3f d7c7 b83e 8612 223f bd30 6a3e
00000100: 1205 fa3e 897e e63e 35cf 9d3f 5f59 833e
00000110: fa01 173f fc18 853e b81f f23e 7b2b e93e
00000120: de2c d33e 6288 343f 433d f03e 95d2 113f
00000130: eaf4 2c3f 2ed4 313f 9688 aa3e 5b79 cf3e
00000140: 1f53 353f 9704 353f 2758 b53e 5c34 e03e
00000150: 123e c43e 49d9 043f 1f92 0c3f c889 2e3f
00000160: ae5a c13e c5cb 823e cf59 3c3f 2213 da3e
00000170: 7496 063f 6710 8b3e 62ba a03e e3d8 f43e
00000180: 7db2 023f edcb f23e ea12 6f3f ad34 023f
00000190: a5b3 283f 1368 ee3e c340 f63e b4b9 143f
000001a0: 8ba3 a93e 4e61 193f 6649 053f b680 0a3f
000001b0: e653 033f 1494 9a3e 9935 c43e 4176 393f
000001c0: f3f7 2b3f 57a7 e93e e12c 333f 40de 2b3f
000001d0: af02 a83e c17c c33e 64b2 443f 8218 013f
000001e0: 7af4 463f 72fa 1b3f d6ce 803e f282 fc3e
000001f0: 01f4 fb3e 866c af3e c1f9 773e bb5c b63e
0.35546628 0.3606883 0.343651 0.81230485 0.44897804 0.3955649 0.9507775 0.2734054
0.47861284 0.48876604 0.5152324 0.31706062 0.27258742 0.34445477 0.41584548 1.1591034
0.3598079 0.681808 0.49434116 0.76162356 0.4350428 1.0244263 0.5403946 0.3087341
0.54649615 0.6314669 0.6149685 0.5979428 0.69128156 0.43595394 0.7703443 0.43021503
0.9772637 0.7191328 0.4245069 0.27842063 0.585863 0.356465 0.54643244 1.2989786
0.71522033 0.5218267 0.90634376 0.6793963 0.40600938 0.42653573 0.4101293 1.033651
0.370923 0.67775637 0.27548918 0.5390738 0.59608644 0.52929515 0.31183636 0.68167883
0.7447179 0.34705776 0.31806096 0.62045044 0.6713144 0.36089966 0.63309515 0.22870155
0.48831993 0.45018414 1.232886 0.25654122 0.5898739 0.25995624 0.47289824 0.45540985
0.41245168 0.70520604 0.4692174 0.5696195 0.6756121 0.69464386 0.33307332 0.40522274
0.7082996 0.7071013 0.35418817 0.43789947 0.38328606 0.5189405 0.54910463 0.6817899
0.37764496 0.2554609 0.7357454 0.42592722 0.52573323 0.27160951 0.313922 0.4782172
0.510536 0.47421208 0.93388236 0.50861627 0.65899116 0.46563777 0.48096284 0.5809586
0.33132586 0.599141 0.5206512 0.5410265 0.51299894 0.301911 0.38322142 0.72446066
0.67175215 0.45635483 0.69990355 0.67136 0.32814547 0.38181117 0.768347 0.5042802
0.7771679 0.60929024 0.25157803 0.49318653 0.49209598 0.34262484 0.24216367 0.35617623
