experiment_testing/mz-testing/checkpoints/ptbxl/500hz/cnn1d/fold_2/best.pt (torch, 628765 bytes, 26 tensors)

features.0.weight f4 [32, 12, 7]
-0.14246884 -0.011402893 -0.1433128 -0.071907565 -0.09967526 -0.001429486 -0.040818855 -0.023831835
0.031371504 -0.016335618 -0.00045497433 0.06544451 -0.041135818 0.10883765 0.045600217 -0.11468607
-0.068289235 -0.05708834 -0.070069365 -0.090579085 0.025356136 0.11776171 0.12745368 -0.005844046
0.1590785 0.050272282 -0.039991528 0.05318421 0.10295268 0.020050665 -0.0007255741 0.063390344
-0.015374152 0.021322837 0.041254096 -0.057816196 0.083794974 0.042098824 0.016052231 0.08061966
-0.004567776 -0.042103402 -0.040673424 -0.05897687 0.12383181 -0.0077826013 0.060926445 0.03566757
0.13789344 0.040212303 -0.016062284 -0.029908175 -0.02981442 -0.016341439 0.08772958 -0.05935073
-0.1153528 0.028860291 0.086701766 0.012019719 -0.02481035 0.065705314 0.078257084 0.057068154
-0.11853641 0.052000713 -0.0012965963 -0.039770946 -0.018520473 0.034004543 -0.06920012 -0.054659277
0.056600984 -0.065672345 -0.09845027 0.10787018 -0.0014250827 -0.023746172 0.10954936 -0.044635776
-0.09059487 0.011428273 0.085657515 0.09943749 -0.07709719 -0.08668526 0.055715118 -0.055385448
-0.011677917 0.09086615 -0.015617486 -0.039890524 -0.020612894 -0.060027268 0.00038601444 0.0046384074
-0.032460656 0.101837605 -0.14791751 -0.01529466 0.022058593 -0.08368935 0.07316062 0.028689127
0.03943501 0.049501505 -0.031389423 -0.06717068 -0.063287914 0.08305084 0.0005574492 -0.013092609
0.044707485 0.08617642 0.09647112 0.08263388 0.0805894 0.11545352 0.029839788 -0.07390467
-0.06250898 -0.0036135984 0.10810171 0.05791865 0.0955728 -0.012686994 0.06591652 0.02821108
-0.065491185 -0.032129414 -0.025874956 0.08932871 0.038539074 -0.03447859 0.08934713 -0.071338
0.093574755 0.0581656 -0.0011455882 -0.040892012 0.12192668 -0.05112602 0.07011537 0.04278509
0.123852246 -0.013324103 0.082743324 -0.02180001 0.019583212 0.02290704 -0.06040106 0.06217233
0.016972305 0.082717866 -0.065517716 0.034132965 0.05412413 -0.07511177 0.068326525 -0.04078776
0.020236917 -0.10635479 -0.058091417 -0.03190625 -0.090288475 -0.036734663 0.12504992 0.07055218
0.07283718 0.09273344 0.008503997 -0.07413608 0.06419772 0.029278684 -0.02378923 -0.075434856
0.07219242 0.004529827 0.050042834 -0.040681258 0.053484686 0.05999445 0.017049016 0.059963066
0.041813303 0.07118689 0.09660203 0.10590969 -0.021446507 0.084753826 -0.035276473 0.14545774
0.051804617 0.15552069 -0.019299047 0.088886335 0.05595294 0.055393368 0.04266682 0.110533476
0.10815446 -0.009630671 -0.010006494 0.12634706 -0.023873586 0.031478126 -0.08396897 -0.071550645
-0.036617026 0.020078098 0.021118635 -0.054159015 -0.11065275 -0.0061679184 -0.052571993 0.041531675
0.09766958 -0.0012380184 0.08112523 0.09684607 0.016219541 0.088718176 0.02641614 -0.0034778223
0.039703224 -0.070143074 0.0899515 -0.058627598 -0.07411612 -0.019309707 -0.096735805 -0.11805374
-0.06683235 0.07184105 0.058197167 0.08417265 -0.024059728 -0.057184067 -0.020129364 0.08999067
0.026109438 0.10948063 -0.05405634 0.12370674 0.13703348 -0.06518696 0.07608813 0.09190943
0.017441368 0.0019707836 0.082548164 0.08531816 -0.08290829 0.08060003 -0.0454024 -0.09401476
00000000: 5ae3 11be 33d3 3abc 97c0 12be 4644 93bd
00000010: 8b22 ccbd 975d bbba ac31 27bd fb3a c3bc
00000020: 687f 003d 46d2 85bc 9f89 eeb9 c507 863d
00000030: 087e 28bd 46e6 de3d 4bc7 3a3d 88e0 eabd
00000040: 3adb 8bbd 77d5 69bd 8780 8fbd 8781 b9bd
00000050: acb7 cf3c 0d2d f13d 3883 023e 697f bfbb
00000060: 79e5 223e 4fea 4d3d 28ce 23bd b0d7 593d
00000070: dbd8 d23d 4b41 a43c 7434 3eba ccd2 813d
00000080: dee3 7bbc 3bad ae3c 0efa 283d add0 6cbd
00000090: b39c ab3d d16f 2c3d f87f 833c ec1b a53d
000000a0: 48ad 95bb 9e74 2cbd 2d99 26bd bb91 71bd
000000b0: 889b fd3d 3105 ffbb 028e 793d 2818 123d
000000c0: f033 0d3e a8b5 243d 0d95 83bc fd01 f5bc
000000d0: 5f3d f4bc 7bde 85bc 91ab b33d c019 73bd
000000e0: 173e ecbd 6b6c ec3c b290 b13d 5bee 443c
000000f0: 133f cbbc 8290 863d 4045 a03d 4cc0 693d
00000100: 38c3 f2bd b3fe 543d 8df2 a9ba dce6 22bd
00000110: 3fb8 97bc 5948 0b3d cbb8 8dbd 68e2 5fbd
00000120: 6fd6 673d 397f 86bd 4ca0 c9bd 0aeb dc3d
00000130: d7c9 baba 5587 c2bc 6a5b e03d 01d4 36bd
00000140: ce89 b9bd a73d 3b3c 356d af3d e2a5 cb3d
00000150: 22e5 9dbd 0b88 b1bd 8935 643d dadb 62bd
00000160: bc54 3fbc 0818 ba3d 7ce0 7fbc 3f64 23bd
00000170: 5fdc a8bc 27df 75bd fb61 ca39 c8fd 973b
00000180: 77f5 04bd 3c90 d03d b077 17be 7496 7abc
00000190: 39b4 b43c 5265 abbd 3cd5 953d 7605 eb3c
000001a0: 9b86 213d 17c2 4a3d 3292 00bd c890 89bd
000001b0: 189d 81bd 8f16 aa3d c821 123a 6282 56bc
000001c0: 321f 373d 437d b03d a792 c53d f43b a93d
000001d0: 0e0c a53d e572 ec3d 9272 f43c 555b 97bd
000001e0: b504 80bd 1fd2 6cbb 6e64 dd3d 1b3c 6d3d
000001f0: acbb c33d 1cdd 4fbc 3eff 863d ec1a e73c
00000200: 3e20 86bd 229a 03bd b7f7 d3bc f9f1 b63d
00000210: 26db 1d3d 6c39 0dbd a1fb b63d a819 92bd
00000220: 1fa4 bf3d 0d3f 6e3d 9027 96ba 627e 27bd
00000230: b2b4 f93d 8469 51bd a698 8f3d 6b3f 2f3d
00000240: 3fa6 fd3d 574d 5abc 5575 a93d ef95 b2bc
00000250: f96c a03c 8ba7 bb3c 1a67 77bd 6aa8 7e3d
00000260: 8109 8b3c fc67 a93d 272e 86bd 02cf 0b3d
00000270: 44b1 5d3d 33d4 99bd c7ee 8b3d 1111 27bd
00000280: e4c7 a53c 8ad0 d9bd 44f1 6dbd 21b0 02bd
00000290: 2ae9 b8bd 1677 16bd 160d 003e a97d 903d
000002a0: a92b 953d 08eb bd3d 5954 0b3c a8d4 97bd
000002b0: 187a 833d dad9 ef3c a2e1 c2bc 977d 9abd
000002c0: 9fd9 933d f16e 943b b7f9 4c3d 64a1 26bd
000002d0: c212 5b3d bebc 753d 61aa 8b3c d59b 753d
000002e0: 6d44 2b3d 6fca 913d 49d7 c53d 2ee7 d83d
000002f0: 96b0 afbc 6a93 ad3d 107e 10bd e0f2 143e
00000300: 1431 543d d140 1f3e 0919 9ebc 0a0a b63d
00000310: e92e 653d 28e4 623d 67c3 2e3d 605f e23d
00000320: 1680 dd3d f6c9 1dbc 47f2 23bc 2061 013e
00000330: 8a92 c3bc 35ef 003d ecf7 abbd 2589 92bd
00000340: bcfb 15bd d37a a43c fd00 ad3c d8d5 5dbd
00000350: e99d e2bd 401c cabb bb55 57bd 1e1d 2a3d
00000360: fd06 c83d 0145 a2ba fc24 a63d 3b57 c63d
00000370: d8de 843c e0b1 b53d a966 d83c 2dec 63bb
00000380: d99f 223d 2ca7 8fbd 7e38 b83d 7e23 70bd
00000390: 31ca 97bd 642f 9ebc 6c1d c6bd 29c6 f1bd
000003a0: 66df 88bd 6721 933d 2760 6e3d b662 ac3d
000003b0: e818 c5bc d739 6abd 56e6 a4bc 074d b83d
000003c0: 76e3 d53c 6137 e03d 2e6a 5dbd f659 fd3d
000003d0: 8152 0c3e be80 85bd 18d4 9b3d 033b bc3d
000003e0: 33e1 8e3c 4328 013b 030f a93d 4abb ae3d
000003f0: d2cb a9bd a111 a53d def7 39bd cf8a c0bd

features.0.bias f4 [32]
0.075468354 -0.06076179 -0.022801006 0.047084074 -0.04817426 0.01941269 -0.053017 0.06742117
-0.01888264 0.02039629 -0.088227175 0.021854555 0.0032598432 0.09463615 0.02144467 0.051876232
0.013461768 0.031572692 0.039366804 0.13577582 -0.032155022 -0.055294517 -0.06583329 0.008347187
0.09499895 -0.005234887 -0.08589709 0.0049277977 -0.108591214 0.05646961 -0.069470495 0.09999598
00000000: 278f 9a3d 5be1 78bd 2dc9 babc 3bdb 403d
00000010: 5f52 45bd 5d07 9f3c 5b28 59bd 1c14 8a3d
00000020: c4af 9abc 1f16 a73c 73b0 b4bd 5308 b33c
00000030: 18a3 553b 99d0 c13d bcac af3c 2c7c 543d
00000040: bf8e 5c3c 5e52 013d 163f 213d d108 0b3e
00000050: fcb4 03bd 817c 62bd 9bd3 86bd a4c2 083c
00000060: cf8e c23d 6a89 abbb d0ea afbd 5d79 a13b
00000070: 1265 debd ae4c 673d 8c46 8ebd b1ca cc3d

features.1.weight f4 [32]
0.9881639 0.9748258 0.99887574 0.94964814 1.0574017 0.9948112 1.0343746 0.9926837
0.966493 1.0540583 0.9812395 0.9757512 0.9964938 1.025916 1.009689 0.9308972
1.0157677 1.0064788 0.9873179 1.0179244 0.9784786 1.0170187 0.97943276 1.0035332
0.97216195 0.9879046 1.0275736 1.028716 1.0213208 0.9883062 0.97931796 1.0267009
00000000: 4ff8 7c3f 2f8e 793f 52b6 7f3f 241c 733f
00000010: f058 873f f2ab 7e3f 6366 843f 8520 7e3f
00000020: 166c 773f 62eb 863f 8332 7b3f d5ca 793f
00000030: 381a 7f3f 3751 833f 7d3d 813f 474f 6e3f
00000040: ad04 823f 4cd4 803f dec0 7c3f 594b 823f
00000050: 937d 7a3f ab2d 823f 1bbc 7a3f c773 803f
00000060: 9bdf 783f 51e7 7c3f 8887 833f f7ac 833f
00000070: a4ba 823f a301 7d3f 95b4 7a3f ef6a 833f

features.1.bias f4 [32]
0.007679216 0.013540281 -0.025435127 -0.090937376 -0.006954748 -0.031782895 0.018876798 -0.008954972
-0.060654078 -0.011986937 -0.059683587 0.030623665 -0.077083506 -0.016575871 0.022370424 -0.04854573
-0.030272936 -0.0052706213 -0.034090582 0.02274158 -0.051629383 0.04712244 -0.04875043 0.019655183
0.048654445 0.041910507 0.0027922054 -0.026503514 -0.03505825 -0.0019075046 -0.0640572 0.0648188
00000000: efa1 fb3b 0ed8 5d3c 545d d0bc 603d babd
00000010: a8e4 e3bb c82e 02bd 84a3 9a3c e0b7 12bc
00000020: 6970 78bd dc64 44bc c776 74bd 7bde fa3c
00000030: f5dd 9dbd 1fca 87bc 2e42 b73c e3d7 46bd
00000040: f3fe f7bc 2db5 acbb 91a2 0bbd 8d4c ba3c
00000050: 5579 53bd 7603 413d 88ae 47bd e803 a13c
00000060: e249 473d 5aaa 2b3d 6ffd 363b e61d d9bc
00000070: 3d99 0fbd 3c05 faba 6c30 83bd b8bf 843d

features.1.running_mean f4 [32]
0.07547981 -0.06086227 -0.02284697 0.047093406 -0.04815839 0.019444395 -0.052958563 0.06739816
-0.019224366 0.02031694 -0.08821931 0.021865668 0.0032839424 0.09464155 0.021461196 0.051095143
0.013306033 0.03156839 0.039333783 0.13574734 -0.032171033 -0.05511253 -0.06583808 0.008273928
0.094999015 -0.0052325143 -0.08589381 0.0048953323 -0.10841944 0.056358777 -0.06978345 0.10000853
00000000: 2995 9a3d b74a 79bd 9229 bbbc 04e5 403d
00000010: bb41 45bd da49 9f3c 14eb 58bd 0c08 8a3d
00000020: 6b7c 9dbc b66f a63c 53ac b4bd a11f b33c
00000030: 6937 573b 6ed3 c13d 64cf af3c 2449 513d
00000040: 8c01 5a3c db4d 013d 761c 213d 5a01 0b3e
00000050: c6c5 03bd adbd 61bd 1ed6 86bd 5f8f 073c
00000060: d88e c23d 8375 abbb 18e9 afbd 0669 a03b
00000070: 030b debd 76d8 663d a0ea 8ebd 46d1 cc3d

features.1.running_var f4 [32]
0.78040457 0.7496221 0.31598708 0.7233059 0.5814933 1.1203972 0.45687538 0.97506124
0.8496345 0.77263445 0.7526058 1.1719747 0.53836393 0.50697714 1.5463755 0.94662136
0.42149335 0.6154928 0.28639305 0.7222745 0.5951555 0.23543411 0.46175513 0.71744674
0.34762055 0.24749698 0.8648508 0.1998945 1.3924496 1.7477121 1.0491962 1.6449891
00000000: 98c8 473f 3ce7 3f3f 0fc9 a13e 932a 393f
00000010: bfdc 143f 2d69 8f3f 92eb e93e 9d9d 793f
00000020: a681 593f 5fcb 453f c6aa 403f 4403 963f
00000030: 38d2 093f 41c9 013f a2ef c53f c755 723f
00000040: facd d73e f090 1d3f 1ca2 923e fbe6 383f
00000050: 1c5c 183f a415 713e 2b6b ec3e 97aa 373f
00000060: 52fb b13e d96f 7d3e dd66 5d3f 25b1 4c3e
00000070: ca3b b23f 08b5 df3f 104c 863f 018f d23f

features.4.weight f4 [64, 32, 5]
-0.09098282 0.04783161 0.050826594 -0.01756285 -0.045935676 0.011591569 0.03577465 0.041710112
0.04256178 -0.019154 -0.029657304 -0.014016199 0.011720884 -0.07328398 0.0417036 0.0057155094
0.0649336 0.015952203 -0.027737608 0.044667456 -0.014583169 0.036672547 0.008283882 -0.052643728
0.0033391572 0.088331856 -0.0031483828 -0.011530856 -0.06650112 -0.069928564 0.06265476 0.034843005
0.014299381 -0.029437084 -0.0047603096 0.010799743 0.051348053 0.07829185 0.018448742 -0.017767746
0.044867404 -0.070050724 0.078615814 0.021013616 -0.047172662 -0.033158015 -0.10025972 -0.07598027
-0.07222619 -0.050897636 -0.059400987 -0.034214135 0.028325735 -0.057594784 -0.017179783 -0.10842764
0.021501182 -0.09220065 -0.11500009 -0.094582416 -0.029198652 -0.023008527 0.015197128 0.035817835
-0.05422483 0.055592008 0.017714355 0.026034964 -0.07031651 -0.08629088 -0.06755347 0.041635573
-0.09515716 -0.003203503 -0.10807989 -0.04438646 -0.034402847 -0.06205154 -0.065687135 0.06910267
0.03474166 -0.0788357 -0.07880213 -0.071940556 0.042712815 0.031441342 0.039763264 0.023410937
0.060173932 -0.07225965 -0.013391356 0.045775615 -0.0034676283 0.07645092 -0.058698535 0.025849683
-0.039457925 -0.08460796 -0.059647173 -0.11396625 -0.05603789 -0.06870045 -0.024064537 -0.04700079
-0.11187712 0.022278577 0.08266801 0.041478314 -0.020406565 0.057569068 0.08004576 -0.041474048
0.04945212 -0.028994562 0.01923812 0.03714085 0.009269367 0.05749726 0.053210456 0.063678235
-0.058678742 -0.043298714 0.010624859 -0.06062111 -0.011735345 0.028632782 -0.02203692 -0.06673289
-0.06844285 0.031536963 -0.04330774 0.0613301 -0.052801535 -0.056821026 -0.038003337 0.026628664
0.03946851 0.036544953 0.008523659 0.07959836 0.07055861 -0.043357167 -0.054338258 -0.05764705
-0.096456245 -0.05556045 -0.07440581 -0.028805947 -0.022312427 0.03614659 0.045511857 -0.019729031
0.033764936 0.04780907 0.070413955 -0.09399208 -0.08469524 -0.008001406 0.043229282 0.0074879928
0.009870408 0.009760957 -0.06280278 -0.096920446 -0.026958894 -0.009144812 0.06921625 -0.062342726
0.06384593 -0.020895706 -0.010286432 0.0038350627 0.019157145 -0.012558697 -0.03665119 0.013540633
0.036654435 0.03882134 -0.0028812294 -0.064770825 0.08035381 -0.04463681 0.016874678 0.0064414255
0.015361845 -0.04630022 -0.073350504 -0.02932186 -0.044464838 -0.00064385816 0.03295391 -0.04196982
0.042874325 -0.0018886874 0.05104997 0.0030252477 -0.060711846 0.06053563 0.001587841 0.000106926505
0.10428809 -0.015271135 0.1006302 0.040953215 -0.003356511 0.012802343 -0.055386923 -0.07455861
-0.06446504 -0.02201342 0.020886911 0.0036852795 0.009542771 -0.06338609 -0.0287757 0.04454932
0.0050086235 0.02073736 -0.019564224 0.031150507 0.030688854 -0.032302413 -0.083010264 -0.011008895
0.0132797845 0.08561679 0.069047734 -0.051835045 -0.028334342 0.013048061 -0.04622545 0.05031035
0.06586496 0.032810166 0.07171555 0.047122482 0.054735374 0.049039435 -0.052974787 0.011147022
0.0107533 -0.03990228 -0.07645361 -0.016048007 -0.101225525 0.055803683 0.07218072 -0.03475893
-0.039478924 0.013105212 0.039985307 0.0029624812 0.04885133 0.01057757 -0.002283874 0.057836764
00000000: 3355 babd 14eb 433d 8c2f 503d f7df 8fbc
00000010: 0c27 3cbd 90ea 3d3c 7088 123d 39d8 2a3d
00000020: 4355 2e3d d9e8 9cbc e0f3 f2bc 33a4 65bc
00000030: f308 403c e915 96bd 65d1 2a3d 2b49 bb3b
00000040: e8fb 843d 32ae 823c fb39 e3bc 39f5 363d
00000050: 3eee 6ebc f435 163d 1fb9 073c f3a0 57bd
00000060: c3d5 5a3b 55e7 b43d 1955 4ebb eaeb 3cbc
00000070: bd31 88bd b536 8fbd 2451 803d 8ab7 0e3d
00000080: f347 6a3c 0a26 f1bc 5ffc 9bbb 68f1 303c
00000090: 5652 523d 7a57 a03d d121 973c aa8d 91bc
000000a0: e2c6 373d c176 8fbd 5401 a13d bf24 ac3c
000000b0: 1f38 41bd b3d0 07bd f854 cdbd 8b9b 9bbd
000000c0: 53eb 93bd 0a7a 50bd 734e 73bd 1f24 0cbd
000000d0: 5f0b e83c 82e8 6bbd 9ebc 8cbc 4f0f debd
000000e0: 3f23 b03c b2d3 bcbd 2b85 ebbd 6db4 c1bd
000000f0: 0332 efbc 617c bcbc 60fd 783c b9b5 123d
00000100: db1a 5ebd 72b4 633d b21d 913c 4747 d53c
00000110: 1a02 90bd 46b9 b0bd 7959 8abd 108a 2a3d
00000120: c2e1 c2bd ddf1 51bb fd58 ddbd 94ce 35bd
00000130: 00ea 0cbd c129 7ebd fa86 86bd b385 8d3d
00000140: 454d 0e3d 9d74 a1bd 0363 a1bd 9255 93bd
00000150: a2f3 2e3d a3c8 003d cede 223d 4bc8 bf3c
00000160: f178 763d defc 93bd 6b67 5bbc 367f 3b3d
00000170: 2641 63bb 4d92 9c3d e06d 70bd b7c2 d33c
00000180: a29e 21bd f046 adbd 9850 74bd 2367 e9bd
00000190: fd87 65bd d2b2 8cbd fe22 c5bc e683 40bd
000001a0: d51f e5bd 9081 b63c d84d a93d 2ae5 293d
000001b0: ab2b a7bc 8bcd 6b3d 08ef a33d b1e0 29bd
000001c0: 4e8e 4a3d 0186 edbc 4399 9d3c 0121 183d
000001d0: 8bde 173c 3f82 6b3d 35f3 593d bc69 823d
000001e0: 1f59 70bd fe59 31bd e313 2e3c d74d 78bd
000001f0: 9b45 40bc 4c8f ea3c c586 b4bc 41ab 88bd
00000200: c42b 8cbd e72c 013d 7563 31bd 4535 7b3d
00000210: 6c46 58bd 2abd 68bd 63a9 1bbd 5b24 da3c
00000220: bba9 213d 29b0 153d d1a6 0b3c 7704 a33d
00000230: 0881 903d 4997 31bd cb91 5ebd 501f 6cbd
00000240: da8a c5bd 5b93 63bd 1362 98bd 73fa ebbc
00000250: 8dc8 b6bc 720e 143d a46a 3a3d c79e a1bc
00000260: 1a4d 0a3d 72d3 433d 3135 903d eb7e c0bd
00000270: b374 adbd 5418 03bc 3011 313d d65d f53b
00000280: 7eb7 213c 6cec 1f3c be9e 80bd 3a7e c6bd
00000290: e6d8 dcbc 1fd4 15bc 40c1 8d3d 165b 7fbd
000002a0: a8c1 823d 792d abbc 6c88 28bc ad55 7b3b
000002b0: 72ef 9c3c fec2 4dbc 8f1f 16bd 88d9 5d3c
000002c0: f622 163d 2003 1f3d 02d3 3cbb 91a6 84bd
000002d0: 8a90 a43d 16d5 36bd c43c 8a3c 9812 d33b
000002e0: 3fb0 7b3c 4da5 3dbd ca38 96bd 6634 f0bc
000002f0: c320 36bd 97c8 28ba aefa 063d 8ce8 2bbd
00000300: fd9c 2f3d d58d f7ba c619 513d 3c43 463b
00000310: fcac 78bd 35f4 773d 1a1f d03a bb3d e038
00000320: fe94 d53d c833 7abc 3517 ce3d 8fbe 273d
00000330: e9f8 5bbb ebc0 513c 66dd 62bd 2fb2 98bd
00000340: 3f06 84bd 7d55 b4bc 071b ab3c bb84 713b
00000350: 4859 1c3c 91d0 81bd 04bb ebbc 5979 363d
00000360: 611f a43b 65e1 a93c 2745 a0bc 592f ff3c
00000370: 3167 fb3c 894f 04bd 4901 aabd a75e 34bc
00000380: 7493 593c db57 af3d e668 8d3d fc50 54bd
00000390: 6c1d e8bc 89c7 553c e656 3dbd 3a12 4e3d
000003a0: 35e4 863d f463 063d 9adf 923d 8103 413d
000003b0: 3332 603d 93dd 483d 17fc 58bd 00a2 363c
000003c0: 9c2e 303c 9370 23bd b693 9cbd 1c77 83bc
000003d0: 544f cfbd 6792 643d 7cd3 933d 615f 0ebd
000003e0: a7b4 21bd 3eb7 563c a2c7 233d 3026 423b
000003f0: 5518 483d 8b4d 2d3c 0cad 15bb 3ee6 6c3d

features.4.bias f4 [64]
-0.008060149 -0.07292073 -0.037138507 0.089970745 -0.020540861 -0.01458512 -0.053140588 0.030051563
-0.041606843 0.08832497 -0.06385873 -0.05136877 0.029253833 0.012900295 0.033072975 0.025179463
0.004413261 0.05849002 -0.009877159 -0.019336348 -0.12651397 0.012679044 0.020262111 0.074430905
0.05067732 0.041320216 -0.04224429 0.044223804 0.004491973 0.006357632 0.03060497 -0.020847382
0.063008636 0.0066871177 0.053386133 0.022648208 -0.09426987 0.069161825 0.04954319 0.05662772
0.011178714 -0.07054602 0.0065064277 0.08424671 0.101374485 -0.024037031 -0.09924788 0.024671784
-0.08362666 -0.022244647 -0.09342639 0.064281665 -0.021821734 0.04267103 0.08392618 -0.06672565
0.107838 0.03361573 0.062194854 0.089943305 0.039550442 0.067533135 -0.053075872 -0.03749242
00000000: b70e 04bc 7757 95bd 8c1e 18bd 9542 b83d
00000010: 4f45 a8bc 6df6 6ebc f2a9 59bd b22e f63c
00000020: f06b 2abd b9e3 b43d 5ec8 82bd 0f68 52bd
00000030: bca5 ef3c c25b 533c 8777 073d 2945 ce3c
00000040: 1e9d 903b 3b93 6f3d cfd3 21bc 4367 9ebc
00000050: e18c 01be c4bb 4f3c bafc a53c 3b6f 983d
00000060: 0693 4f3d 633f 293d 5908 2dbd 0524 353d
00000070: 6731 933b af53 d03b 46b7 fa3c 21c8 aabc
00000080: ac0a 813d 9c1f db3b 6bab 5a3d bc88 b93c
00000090: 9010 c1bd b7a4 8d3d cded 4a3d 78f2 673d
000000a0: ed26 373c 6f7a 90bd df33 d53b 8a89 ac3d
000000b0: 6d9d cf3d 4fe9 c4bc 7942 cbbd 7b1c ca3c
000000c0: 7444 abbd 683a b6bc 5656 bfbd 1ba6 833d
000000d0: 7ec3 b2bc d1c7 2e3d 7de1 ab3d 75a7 88bd
000000e0: 2bda dc3d a6b0 093d 08c0 7e3d 3234 b83d
000000f0: a5ff 213d d04e 8a3d 1666 59bd a791 19bd

features.5.weight f4 [64]
1.014868 0.99834526 0.9782587 0.9890601 0.88476 0.86049014 1.0216193 1.0532262
1.0062844 1.0035731 1.0137695 0.97228605 1.0070201 0.9899858 1.0352049 1.014097
1.0173316 0.990798 1.0256954 1.0037892 0.97689295 1.0280192 1.0086534 1.0113032
1.0511264 1.0385342 1.0106776 1.0397608 0.91468215 0.99630904 1.0155238 1.0221629
1.0114676 1.0162033 0.9160432 0.9273842 1.1151917 0.9766743 0.9632051 1.0049233
0.9765683 0.9888406 0.9919067 0.9503426 0.95030797 1.0190595 0.9763683 1.0815613
1.0211746 0.9382126 0.97055143 0.9988064 1.0265906 1.0345075 1.069282 1.0034161
0.9639124 1.0222863 0.93092144 1.0299275 0.96951073 1.01468 0.95376796 0.9810769
00000000: 32e7 813f 8e93 7f3f 2a6f 7a3f 0b33 7d3f
00000010: a27f 623f 1549 5c3f 6cc4 823f 1ed0 863f
00000020: edcd 803f 1575 803f 33c3 813f bde7 783f
00000030: 09e6 803f b66f 7d3f 9881 843f eecd 813f
00000040: ec37 823f f0a4 7d3f fd49 833f 2a7c 803f
00000050: a815 7a3f 2296 833f 8e1b 813f 6272 813f
00000060: 4f8b 863f b0ee 843f e25d 813f e216 853f
00000070: 9c28 6a3f 1c0e 7f3f affc 813f 3cd6 823f
00000080: c577 813f f312 823f cf81 6a3f 0d69 6d3f
00000090: 9abe 8e3f 5407 7a3f 9c94 763f 54a1 803f
000000a0: 6100 7a3f a824 7d3f 99ed 7d3f a749 733f
000000b0: 6247 733f 8b70 823f 46f3 793f 9a70 8a3f
000000c0: d9b5 823f b32e 703f 0f76 783f c7b1 7f3f
000000d0: 5267 833f be6a 843f 3cde 883f f06f 803f
000000e0: f7c2 763f 47da 823f de50 6e3f aad4 833f
000000f0: db31 783f 09e1 813f 232a 743f db27 7b3f

features.5.bias f4 [64]
0.041804757 -0.018596563 -0.048326258 -0.015095016 -0.13055618 -0.083750166 -0.012295788 -0.048503205
-0.09800409 -0.10218245 -0.027009258 -0.003937031 0.0020800736 -0.12360004 -0.05661591 -0.030109154
-0.0037834933 -0.048758086 0.037517253 0.019322695 -0.050018296 0.022823624 -0.015472449 -0.1233935
0.045508187 0.0020287526 -0.013417698 -0.011200803 -0.07599991 0.0025596358 -0.041936643 -0.009447751
-0.06283503 -0.0031308448 -0.059654173 -0.0063582296 0.034766223 -0.026270585 -0.045831632 0.054816104
-0.03306464 0.03826938 0.0024328816 -0.025705596 -0.04985732 0.021963524 -0.023521943 -0.033090882
0.018421633 -0.05609211 0.0021618612 0.042126745 0.028752197 0.044577155 0.08472162 0.005906936
-0.034049124 -0.04361618 0.00887154 0.033453614 -0.014843822 0.013316862 -0.023876242 -0.059219502
00000000: 773b 2b3d d257 98bc c1f1 45bd 1651 77bc
00000010: 85b0 05be 3585 abbd 4674 49bc 4cab 46bd
00000020: 5eb6 c8bd 0845 d1bd 8542 ddbc 3602 81bb
00000030: d851 083b 0522 fdbd 16e6 67bd 79a7 f6bc
00000040: 7cf4 77bb 8fb6 47bd b1ab 193d a14a 9e3c
00000050: fcdf 4cbd 9cf8 ba3c 2880 7dbc bbb5 fcbd
00000060: cb66 3a3d d2f4 043b e8d5 5bbc 9383 37bc
00000070: d7a5 9bbd 90bf 273b c2c5 2bbd bdca 1abc
00000080: a7af 80bd dc2e 4dbb ef57 74bd b258 d0bb
00000090: 0767 0e3d 6935 d7bc f3b9 3bbd da86 603d
000000a0: ca6e 07bd 5ac0 1c3d fb70 1f3b 8b94 d2bc
000000b0: 3037 4cbd d9ec b33c 17b1 c0bc 4e8a 07bd
000000c0: f7e8 963c d7c0 65bd 03ae 0d3b 188d 2c3d
000000d0: ba89 eb3c 8996 363d 8782 ad3d f88e c13b
000000e0: 1877 0bbd e1a6 32bd f059 113c a806 093d
000000f0: 8133 73bc f82e 5a3c 1c98 c3bc 2690 72bd

features.5.running_mean f4 [64]
-0.5297115 -0.32557067 -0.39168268 -0.6153708 0.5660995 0.8910465 -0.56696427 0.3303522
0.7131538 -0.0040891585 -0.5032944 -0.32381514 -0.0642477 -0.025704958 0.16698062 0.34086174
-0.014151245 -0.21727102 0.11595983 0.19500571 0.06598961 -0.21556763 -0.55700374 0.17664114
-0.5295917 -0.17425576 -0.8428183 -0.22399963 -0.5775566 -0.21081185 -0.4229444 -0.49077988
-0.4147295 -0.18289946 0.5495328 0.41288817 0.21725571 0.14295508 -0.3585102 -0.35731658
0.032477193 0.12151355 -0.40103397 -0.21838391 0.41827178 0.09421354 -0.5272991 0.45473
-0.58835006 0.71892744 -1.0955108 -0.39710462 -0.6312195 0.16257025 -0.6009024 -0.48716983
0.9356305 0.56518173 -0.04157254 0.08139399 -0.49653137 -0.23967117 -0.1031094 -0.10398939
00000000: 2c9b 07bf 33b1 a6be a28a c8be f188 1dbf
00000010: e6eb 103f a01b 643f 9224 11bf ec23 a93e
00000020: 3f91 363f 59fe 85bb e7d7 00bf 19cb a5be
00000030: 4c94 83bd 3493 d2bc f8fc 2a3e 6e85 ae3e
00000040: a0da 67bc 4b7c 5ebe 597c ed3d 94af 473e
00000050: 9025 873d c3bd 5cbe cc97 0ebf 6ae1 343e
00000060: 5293 07bf 1a70 32be f1c2 57bf 2960 65be
00000070: c0da 13bf 10df 57be 2b8c d8be 8047 fbbe
00000080: 6d57 d4be ff49 3bbe 2eae 0c3f 1466 d33e
00000090: 4878 5e3e d162 123e a68e b7be 33f2 b6be
000000a0: ce06 053d 19dc f83d 5354 cdbe 08a0 5fbe
000000b0: b827 d63e 07f3 c03d 13fd 06bf 5fd2 e83e
000000c0: 1c9e 16bf a10b 383f b339 8cbf 4c51 cbbe
000000d0: 9a97 21bf d178 263e bdd4 19bf 536e f9be
000000e0: 7b85 6f3f c0af 103f f847 2abd e4b1 a63d
000000f0: 5c39 febe 5c6c 75be 052b d3bd 64f8 d4bd

features.5.running_var f4 [64]
0.76600695 0.5305336 0.44375843 0.92658436 0.82258064 0.6447881 1.0024413 0.53829336
0.86381024 0.26761612 0.8404656 0.95537436 0.40516743 0.3124555 0.2897742 0.7444987
0.47287428 0.17246139 0.76708794 0.4334081 0.41834196 0.36951268 0.8684085 0.22570038
0.3818358 0.5090298 0.81454074 0.2850061 0.4464653 1.3826337 0.46976238 0.9171888
0.5447024 0.3248919 0.9297571 0.34559697 0.40942177 0.21590786 1.062208 0.2811949
0.14116032 1.3249971 0.9234193 0.46987185 0.33174416 0.22097826 1.3188497 0.3929285
0.5260573 0.7404781 1.2863368 0.6589934 1.2598839 0.5872161 0.53622496 0.31875643
1.5749316 0.60087746 1.2265439 0.32807407 1.0573648 0.29116347 0.53365296 0.84000957
00000000: 0819 443f 0dd1 073f 4e34 e33e a234 6d3f
00000010: a594 523f d510 253f ff4f 803f 98cd 093f
00000020: ab22 5d3f fb04 893e c128 573f 6a93 743f
00000030: 1b72 cf3e 2bfa 9f3e 495d 943e 7897 3e3f
00000040: 941c f23e b899 303e e05f 443f abe7 dd3e
00000050: eb30 d63e c430 bd3e 0550 5e3f 001e 673e
00000060: fb7f c33e c74f 023f be85 503f 52ec 913e
00000070: 1a97 e43e 24fa b03f b284 f03e e3cc 6a3f
00000080: 9e71 0b3f 3b58 a63e 9004 6e3f 16f2 b03e
00000090: bb9f d13e f316 5d3e 6ff6 873f c7f8 8f3e
000000a0: 558c 103e 8199 a93f 3565 6c3f 0b93 f03e
000000b0: 5fda a93e 2048 623e 11d0 a83f ed2d c93e
000000c0: b1ab 063f f98f 3d3f afa6 a43f cbb3 283f
000000d0: e043 a13f cb53 163f 0a46 093f 0b34 a33e
000000e0: 5c97 c93f 1bd3 193f 64ff 9c3f 53f9 a73e
000000f0: bb57 873f 6113 953e 7b9d 083f de0a 573f

features.8.weight f4 [128, 64, 5]
-0.049747493 0.009998614 0.013734206 -0.0494846 0.03939447 0.0112868715 0.02938121 -0.037457526
-0.06470245 -0.053464998 -0.09751845 0.0077577634 -0.0008522104 0.022131609 0.008820938 -0.07240019
0.040568106 0.031623796 0.043139663 0.06046286 0.04333157 -5.1220075e-05 -0.050571077 0.044595044
-0.00468049 -0.04149051 -0.045579974 -0.0069429628 -0.02523386 0.03568357 -0.069933586 -0.037475538
-0.011673132 0.0269551 0.055128824 -0.07615652 -0.10848996 -0.0152203785 -0.038646325 0.08630207
-0.004419044 -0.039936133 0.029918779 0.007478608 0.015449781 -0.061022524 0.03603157 0.037887767
0.048485044 0.04150134 0.0150788715 -0.025353203 -0.0541468 0.03458798 -0.06414484 0.0015730826
-0.011259578 0.018417662 -0.0036050444 0.06885939 0.004006094 0.043149117 -0.03365276 0.045508515
0.018212803 -0.07577137 -0.034782536 -0.045683235 -0.07146181 0.0074849417 -0.10717548 -0.0474978
-0.09390377 0.024744151 0.028500553 0.048529297 -0.0094240075 -0.08142197 -0.049573876 0.013423237
-0.019517517 0.022981575 -0.046270184 -0.008320448 0.055303846 0.0022872712 0.043387238 0.072660916
-0.024323188 -0.01768077 -0.070040144 0.011786774 -0.0018796532 0.010769069 0.061312526 -0.023892246
-0.034049317 0.011874295 0.020370018 0.07539971 -0.07625599 -0.082057044 0.040881947 0.03628103
0.04229536 0.037327196 -0.06711097 -0.05327269 -0.045306846 -0.013071284 -0.06512941 0.035942003
0.001914781 0.019254224 -0.012081953 0.013407201 -0.10623964 -0.062235475 0.0020923396 -0.091037184
-0.0069624064 -0.030115668 -0.060006063 -0.08537328 -0.10043156 0.031130102 -0.036265895 -0.012946186
0.04790808 0.051692046 -0.07974195 -0.048304513 -0.021740165 0.021693083 0.0078086467 0.0028487495
-0.007871067 -0.022050062 -0.0047199954 0.012215407 0.02325125 0.037007842 0.004594586 0.0040125395
-0.013662808 -0.03751248 -0.004629559 -0.014382413 -0.018632783 0.02138738 -0.06542565 0.038755916
-0.0024087469 0.03383773 -0.028212002 -0.01750694 0.01276075 -0.05600983 -0.039114263 -0.020751752
-0.010423532 -0.036187105 0.042099286 0.010066229 -0.04135896 -0.017589167 -0.03881968 -0.037744485
-0.0130938385 0.028483845 -0.055834085 -0.010586996 -0.047421776 0.01267007 -0.0033861396 -0.10399664
-0.09133285 -0.07266459 -0.041649777 0.04259396 -0.15363574 -0.14141338 -0.12866513 -0.09882524
-0.008001312 -0.05357623 -0.047267538 -0.03326552 -0.035570655 0.062168613 -0.019457217 0.020509217
0.043374144 0.044722293 0.042909835 -0.026544683 0.017444566 -0.050134473 -0.00288305 0.009142649
-0.043127444 -0.07527196 -0.013132802 0.010530591 -0.038542107 0.02824698 -0.06571526 -0.0351346
-0.026550319 0.015479435 0.019140396 -0.056901846 -0.0098116165 0.016012201 -0.039073985 -0.009169644
-0.024211764 -0.056719285 -0.02360605 -0.004777299 0.0663031 -0.039290994 -0.039494555 0.064605646
0.040852085 -0.037578363 -0.048882075 -0.040775865 -0.03529496 0.05176455 0.04808223 0.02306489
-0.013547907 0.049077835 0.01001388 -0.07698249 -0.08560708 -0.1389606 0.0002587899 0.07012971
-0.014933351 -0.031773698 0.019442255 -0.008107751 -0.020983435 -0.019664157 -0.028294198 0.024221536
-0.025706973 0.018148001 0.03229378 0.0018437542 -0.032613643 0.02884253 0.039357334 0.0028090558
00000000: 07c4 4bbd 3ad1 233c 6f05 613c 5db0 4abd
00000010: 195c 213d 92ec 383c ddb0 f03c 106d 19bd
00000020: b882 84bd 1dfe 5abd c1b7 c7bd d634 fe3b
00000030: df66 5fba 594d b53c b285 103c 8d46 94bd
00000040: be2a 263d f487 013d 37b3 303d e7a7 773d
00000050: 727c 313d 23d5 56b8 9e23 4fbd 4ba9 363d
00000060: cc5e 99bb f4f1 29bd 11b2 3abd cb81 e3bb
00000070: 3db7 cebc ef28 123d 5739 8fbd f37f 19bd
00000080: aa40 3fbc f1d0 dc3c c3ce 613d f3f7 9bbd
00000090: fc2f debd e55e 79bc 9c4b 1ebd 24bf b03d
000000a0: a1cd 90bb 1294 23bd 3a18 f53c 1c0f f53b
000000b0: 1421 7d3c c1f2 79bd d795 133d 3430 1b3d
000000c0: 4198 463d 4ffd 293d 5f0d 773c 85b1 cfbc
000000d0: 09c9 5dbd 20ac 0d3d 5f5e 83bd e52f ce3a
000000e0: 187a 38bc a3e0 963c 9c42 6cbb 2706 8d3d
000000f0: 8d45 833b 21bd 303d 7ad7 09bd 2367 3a3d
00000100: 0433 953c 052e 9bbd 2278 0ebd 581e 3bbd
00000110: 925a 92bd 3e44 f53b d17e dbbd 0e8d 42bd
00000120: 9f50 c0bd 3fb4 ca3c fe79 e93c a8c6 463d
00000130: 2767 1abc 90c0 a6bd fa0d 4bbd 23ed 5b3c
00000140: 33e3 9fbc db43 bc3c ce85 3dbd 7d52 08bc
00000150: 4986 623d 0be6 153b d1b6 313d 3fcf 943d
00000160: 6c41 c7bc 43d7 90bc 3571 8fbd 501d 413c
00000170: b25e f6ba c070 303c d822 7b3d acb9 c3bc
00000180: 4c77 0bbd 678c 423c 06df a63c 2a6b 9a3d
00000190: 1a2c 9cbd 860d a8bd d473 273d 6b9b 143d
000001a0: e63d 2d3d 67e4 183d 7a71 89bd 7734 5abd
000001b0: ac93 39bd f028 56bc 9162 85bd ec37 133d
000001c0: 64f9 fa3a 09bb 9d3c 62f3 45bc e0a9 5b3c
000001d0: 2b94 d9bd a0ea 7ebd a21f 093b b471 babd
000001e0: e624 e4bb 22b5 f6bc ebc8 75bd 30d8 aebd
000001f0: 10af cdbd 8e04 ff3c 8c8b 14bd 3d1c 54bc
00000200: 433b 443d 0abb 533d bf4f a3bd f4da 45bd
00000210: 6e18 b2bc b1b5 b13c addf ff3b 16b2 3a3b
00000220: a6f5 00bc 55a2 b4bc 31aa 9abb 2123 483c
00000230: 6879 be3c 8995 173d 2e8e 963b 9f7b 833b
00000240: f8d9 5fbc b0a6 19bd 8eb3 97bb 36a4 6bbc
00000250: c7a3 98bc 9634 af3c e2fd 85bd 86be 1e3d
00000260: 11dc 1dbb 6e99 0a3d db1c e7bc b76a 8fbc
00000270: 7712 513c 906a 65bd 4736 20bd 94ff a9bc
00000280: 76c7 2abc ee38 14bd 4d70 2c3d d3ec 243c
00000290: 0368 29bd 2817 90bc 6301 1fbd f699 1abd
000002a0: 8a87 56bc f456 e93c 48b2 64bd 1475 2dbc
000002b0: 563d 42bd 2096 4f3c ffe9 5dbb 31fc d4bd
000002c0: b80c bbbd 2cd1 94bd f598 2abd 0177 2e3d
000002d0: b052 1dbe abce 10be cbc0 03be e364 cabd
000002e0: ef17 03bc c072 5bbd 9b9b 41bd 6d41 08bd
000002f0: 89b2 11bd 84a4 7e3d be64 9fbc f202 a83c
00000300: 16a9 313d b92e 373d 39c2 2f3d 3c74 d9bc
00000310: e8e7 8e3c ce59 4dbd 8df1 3cbb 0dcb 153c
00000320: 67a6 30bd 2f28 9abd f72a 57bc 8088 2c3c
00000330: 54de 1dbd 3666 e73c b995 86bd 4ce9 0fbd
00000340: 0e80 d9bc 759d 7d3c 52cc 9c3c e911 69bd
00000350: e7c0 20bc 052c 833c 0b0c 20bd 463c 16bc
00000360: c057 c6bc 7b52 68bd 7a61 c1bc e38a 9cbb
00000370: ebc9 873d 98ef 20bd 0bc5 21bd f74f 843d
00000380: 8454 273d c5eb 19bd 9238 48bd 9804 27bd
00000390: 7391 10bd 1107 543d dff1 443d 95f2 bc3c
000003a0: 0af8 5dbc d705 493d 4211 243c ffa8 9dbd
000003b0: c452 afbd b04b 0ebe 31ae 8739 2aa0 8f3d
000003c0: 04ab 74bc 2325 02bd 5d45 9f3c 5fd6 04bc
000003d0: 74e5 abbc ba16 a1bc 3cc9 e7bc 3e6c c63c
000003e0: 6e97 d2bc 1eab 943c 7c46 043d 20aa f13a
000003f0: e295 05bd 2b47 ec3c 2835 213d 2318 383b

features.8.bias f4 [128]
-0.027398203 0.04575446 -0.033195216 0.03713247 0.0044431067 -0.04017247 0.06649634 0.06343375
0.02814254 -0.08013756 0.048811655 -0.018880563 -0.05672912 0.04063542 0.023617778 -0.00050266174
-0.063836746 0.058394086 0.036901325 0.034620978 0.028933356 0.0228567 -0.055828024 0.052276574
-0.009460637 0.02090681 0.049709722 0.0078382185 0.03363157 0.04749569 -0.010674689 0.025474254
0.02545517 0.051171366 0.01699151 -0.048743013 -0.055655215 -0.087484054 -0.05627385 -0.039945602
0.014859744 0.03394312 -0.067343496 -0.009755806 0.026414791 -0.047089223 0.026995637 -0.010067302
-0.010777017 0.07015756 -0.044403903 -0.08939518 -0.042334616 0.024630649 -0.033152927 0.028034985
-0.05874138 0.049677376 0.07503078 -0.03235546 0.0041853623 0.066990934 0.020392269 0.028975435
0.05234145 0.024457328 -0.015306562 0.031190226 0.04174669 -0.03507508 0.002573382 0.016571146
0.0011444384 -0.040509325 0.023855558 -0.05648553 -0.045658194 -0.017661743 -0.036442317 0.037739262
0.012296415 0.033971958 -0.026470944 0.042583063 0.05044974 -0.05204947 0.05097101 0.07430034
-0.031532574 0.033759948 0.039749555 -0.017205665 -0.056216687 0.008144847 -0.009758839 0.04022876
-0.02349955 0.0017688161 -0.013908839 0.07190769 0.04845534 0.04763791 -0.010989157 -0.06352646
0.038824882 -0.069728516 -0.032400604 -0.021361964 -0.033287168 0.008584825 -0.031505555 -0.035373088
-0.021339847 -0.018399296 -0.007468712 -0.0056806044 -0.08743532 0.0077741314 -0.027302887 0.019666744
-0.04146169 -0.00767366 0.018879788 0.054017898 -0.0032102037 0.05953365 -0.0628635 0.01381744
00000000: 3272 e0bc 0769 3b3d b5f7 07bd 3818 183d
00000010: 7b97 913b e38b 24bd 3c2f 883d 8ee9 813d
00000020: 2f8b e63c 291f a4bd bbee 473d 69ab 9abc
00000030: cb5c 68bd 5371 263d 127a c13c 0fc5 03ba
00000040: d7bc 82bd a32e 6f3d d825 173d bace 0d3d
00000050: a505 ed3c f93d bb3c edab 64bd f61f 563d
00000060: ca00 1bbc c244 ab3c 6c9c 4b3d df6b 003c
00000070: 42c1 093d d78a 423d e4e4 2ebc 62af d03c
00000080: 5c87 d03c 1199 513d c731 8b3c c1a6 47bd
00000090: b9f6 63bd d72a b3bd 697f 66bd 009e 23bd
000000a0: 4976 733c f107 0b3d 63eb 89bd d1d6 1fbc
000000b0: d563 d83c a1e0 40bd f425 dd3c 53f1 24bc
000000c0: 1692 30bc c4ae 8f3d dee0 35bd d214 b7bd
000000d0: 1067 2dbd 37c6 c93c 5dcb 07bd a0a9 e53c
000000e0: cd9a 70bd 817a 4b3d bda9 993d 2987 04bd
000000f0: 5d25 893b 8b32 893d b00d a73c e45d ed3c
00000100: fd63 563d bc5a c83c 60c8 7abc a582 ff3c
00000110: 94fe 2a3d e3aa 0fbd 30a6 283b 36c0 873c
00000120: fb00 963a 1bed 25bd bb6c c33c 5f5d 67bd
00000130: 1604 3bbd 5caf 90bc 8a44 15bd 7c94 1a3d
00000140: e776 493c 2e26 0b3d 98d9 d8bc 946b 2e3d
00000150: 63a4 4e3d d331 55bd fac6 503d c72a 983d
00000160: 4d28 01bd df47 0a3d 6ed0 223d e5f2 8cbc
00000170: 7843 66bd f771 053c 8ae3 1fbc eac6 243d
00000180: 2182 c0bc 9fd7 e73a e6e1 63bc 5744 933d
00000190: 1b79 463d f81f 433d dd0b 34bc 291a 82bd
000001a0: d706 1f3d d3cd 8ebd 7fb6 04bd 49ff aebc
000001b0: 2058 08bd 5ea7 0c3c f80b 01bd 5fe3 10bd
000001c0: e7d0 aebc 1fba 96bc 19bc f4bb 5d24 babb
000001d0: 4a11 b3bd 24be fe3b 4eaa dfbc 271c a13c
000001e0: bcd3 29bd 5373 fbbb c9a9 9a3c df41 5d3d
000001f0: 4862 52bb 8ed9 733d 94be 80bd 8b62 623c

features.9.weight f4 [128]
0.9388548 0.9310283 1.0327504 0.9248682 0.9808734 1.0220356 1.0068432 0.9432101
0.87641495 0.9652792 0.8936181 0.98986024 0.98137695 0.9210967 0.9993274 1.089831
1.0494418 0.98460895 1.0313362 0.96412843 1.005808 1.0241708 1.0494837 0.92920583
0.970775 0.9615637 0.9562652 0.9869446 0.99298686 0.9272895 0.9749811 0.9158447
0.9890524 0.9775642 0.99364054 1.0036937 0.88222367 0.9856984 0.93196005 1.0233797
1.0276519 1.0074451 0.94212794 0.999137 1.0300114 0.96385574 1.0469481 0.9428586
0.9534647 0.9752286 1.0130119 0.9601974 1.0365852 1.0377705 0.96073735 0.9202842
0.97562855 1.0302988 1.053041 0.9329946 0.9173636 1.0148116 1.0048633 0.97060585
0.9523852 0.96090615 0.9453782 0.9764607 0.9643186 0.9262889 0.92401254 0.9770147
0.96238875 0.95724213 0.9988031 1.0337204 0.95968777 0.99037313 0.93057483 0.9966267
0.97894156 1.0029876 1.0251362 0.9799225 1.0139638 0.9774724 1.0028715 0.97617173
0.8879307 0.97781456 1.0237173 0.9544794 0.9867273 0.99891996 0.98905754 0.98932177
1.0589559 0.96360636 0.8869365 1.0178471 0.95559907 0.9818935 0.9773219 0.9244255
0.9651077 0.9802472 1.041534 0.9165657 1.0274473 0.9964336 0.9012305 1.0200393
1.0151389 0.9929325 0.9381463 0.93148106 1.0380628 1.1015031 0.9272582 0.95408696
1.0007088 0.9886886 0.9904209 1.0264939 0.98741144 1.1030031 1.0024123 0.9996889
00000000: ca58 703f df57 6e3f 2a31 843f 2ac4 6c3f
00000010: 851a 7b3f 10d2 823f 3de0 803f 3876 713f
00000020: bb5c 603f 8a1c 773f 28c4 643f 7b67 7d3f
00000030: 853b 7b3f fecc 6b3f ecd3 7f3f 957f 8b3f
00000040: 1c54 863f 550f 7c3f d302 843f 1fd1 763f
00000050: 51be 803f 0718 833f 7b55 863f 6fe0 6d3f
00000060: b684 783f 0a29 763f cccd 743f 67a8 7c3f
00000070: 6334 7e3f d862 6d3f 5d98 793f cc74 6a3f
00000080: 8a32 7d3f a641 7a3f 3a5f 7e3f 0979 803f
00000090: 69d9 613f bb56 7c3f ef94 6e3f 1bfe 823f
000000a0: 198a 833f f6f3 803f 4c2f 713f 71c7 7f3f
000000b0: 6ad7 833f 40bf 763f 6502 863f 2e5f 713f
000000c0: 4316 743f 95a8 793f 60aa 813f 7fcf 753f
000000d0: d3ae 843f aad5 843f e2f2 753f bf97 6b3f
000000e0: cbc2 793f d5e0 833f 0cca 863f bcd8 6e3f
000000f0: 57d8 6a3f 59e5 813f 5c9f 803f a079 783f
00000100: 84cf 733f f2fd 753f 4e04 723f 54f9 793f
00000110: 95dd 763f 4521 6d3f 168c 6c3f a31d 7a3f
00000120: 1c5f 763f d20d 753f 8fb1 7f3f f350 843f
00000130: 19ae 753f 1889 7d3f 273a 6e3f ed22 7f3f
00000140: ea9b 7a3f e661 803f aa37 833f 33dc 7a3f
00000150: 91c9 813f a23b 7a3f 185e 803f 64e6 793f
00000160: 6d4f 633f 0e52 7a3f 2b09 833f c358 743f
00000170: 299a 7c3f 38b9 7f3f e032 7d3f 3144 7d3f
00000180: de8b 873f e8ae 763f 450e 633f d048 823f
00000190: 24a2 743f 5f5d 7b3f c531 7a3f 26a7 6c3f
000001a0: 4c11 773f 7bf1 7a3f fc50 853f 0da4 6a3f
000001b0: 6583 833f 4616 7f3f 0bb7 663f a690 823f
000001c0: 12f0 813f d330 7e3f 5b2a 703f 8b75 6e3f
000001d0: 3edf 843f 0efe 8c3f cb60 6d3f 0b3f 743f
000001e0: 3a17 803f b21a 7d3f 398c 7d3f 2764 833f
000001f0: ffc6 7c3f 352f 8d3f 0c4f 803f 9deb 7f3f

features.9.bias f4 [128]
-0.18691114 -0.046250876 0.009212821 -0.089908384 -0.033605047 -0.07443505 0.02625629 -0.041371804
-0.086086705 -0.05455659 -0.15915489 -0.14552033 -0.1420991 -0.08432061 -0.04752492 -0.02799221
-0.16433193 -0.18725508 -0.039218664 -0.018069059 -0.046960607 -0.015257311 -0.14375196 -0.036488086
-0.05665734 -0.048397604 -0.092624396 -0.10199856 -0.15479317 -0.06603633 -0.10755826 -0.09713261
-0.007981632 -0.13079485 -0.0031616983 -0.04264541 -0.13776682 -0.15369101 -0.090420626 0.00082326855
-0.032036446 -0.11194485 -0.056060925 -0.16665491 -0.12433694 -0.109041356 0.008930836 -0.061432954
-0.08274262 -0.12950183 -0.055550445 -0.027056132 -0.19655178 -0.050087243 -0.14106524 -0.059015267
-0.025603829 -0.041447636 0.017119782 -0.075567506 -0.1560273 -0.00633813 -0.028247418 -0.11446665
-0.11224382 -0.08510626 -0.09819834 -0.22277513 -0.060263235 -0.20677648 -0.16448198 -0.028367516
-0.11061031 -0.11666634 -0.25450292 -0.009870624 -0.049795255 -0.19662005 -0.15974557 -0.00632909
-0.0689584 0.02733106 -0.030995673 -0.13638406 -0.019482212 -0.03394123 -0.060623217 -0.06430966
-0.085281275 -0.0738523 -0.049491674 -0.034331284 -0.028296992 -0.019917164 -0.2132329 -0.061337914
-0.1777178 -0.06252159 -0.17748284 -0.18804552 -0.042996626 -0.08009402 -0.046896335 -0.041368276
-0.20085925 -0.09652182 -0.14777166 -0.11005261 -0.23918653 -0.18368502 -0.08778507 -0.15011671
-0.15658952 -0.14308609 -0.066475034 -0.18193847 0.00811216 -0.046851028 -0.17184578 -0.13378702
-0.082176775 -0.15502569 -0.012090705 -0.19748783 -0.15610744 -0.1837287 -0.032615565 -0.15120856
00000000: a265 3fbe 8f71 3dbd 5ff1 163c e321 b8bd
00000010: 72a5 09bd 6771 98bd 6e17 d73c 7b75 29bd
00000020: 3a4e b0bd bb76 5fbd 80f9 22be 4803 15be
00000030: 6d82 11be 49b0 acbd 7ea9 42bd eb4f e5bc
00000040: a146 28be ccbf 3fbe c0a3 20bd 9005 94bc
00000050: c459 40bd cdf9 79bc b733 13be 8874 15bd
00000060: 8711 68bd 913c 46bd dcb1 bdbd 9fe4 d0bd
00000070: 1a82 1ebe 0e3e 87bd 8147 dcbd 76ed c6bd
00000080: 64c5 02bc 16ef 05be 7f34 4fbb f4ac 2ebd
00000090: bf12 0dbe 2d61 1dbe 732e b9bd 9ed0 573a
000000a0: a638 03bd 5743 e5bd 24a0 65bd 96a7 2abe
000000b0: 5ea4 febd 1351 dfbd a452 123c 1fa1 7bbd
000000c0: f674 a9bd 219c 04be dd88 63bd d2a4 ddbc
000000d0: df44 49be 4828 4dbd 6873 10be feb9 71bd
000000e0: 1fbf d1bc ffc4 29bd c93e 8c3c 23c3 9abd
000000f0: 9fc5 1fbe 17b0 cfbb 2167 e7bc 7e6d eabd
00000100: 17e0 e5bd 314c aebd 361c c9bd 2a1f 64be
00000110: 95d6 76bd 37bd 53be f76d 28be fe62 e8bc
00000120: a987 e2bd c3ee eebd 354e 82be 66b8 21bc
00000130: 1cf6 4bbd c456 49be 5894 23be 4164 cfbb
00000140: 103a 8dbd 63e5 df3c a3ea fdbc 43a8 0bbe
00000150: 2999 9fbc f605 0bbd 0d50 78bd c8b4 83bd
00000160: f3a7 aebd e03f 97bd c8b7 4abd f69e 0cbd
00000170: 18cf e7bc 5229 a3bc ba59 5abe 773d 7bbd
00000180: a8fb 35be 520b 80bd 10be 35be 018f 40be
00000190: 3b1d 30bd 5508 a4bd 5f16 40bd c871 29bd
000001a0: 0cae 4dbe 3bad c5bd 7451 17be 4363 e1bd
000001b0: 50ed 74be ed17 3cbe a9c8 b3bd 32b8 19be
000001c0: 0159 20be 2985 12be 1024 88bd 144e 3abe
000001d0: dde8 043c dde6 3fbd 57f8 2fbe 77ff 08be
000001e0: 4c4c a8bd 0ebf 1ebe 1818 46bc 403a 4abe
000001f0: a1da 1fbe 6023 3cbe e697 05bd 6bd6 1abe

features.9.running_mean f4 [128]
-1.3249823 -0.42192963 -1.4122663 0.8261871 -0.77236736 -0.91615975 -0.33895358 -1.0164993
-1.3396171 -0.8007219 -1.4560009 -0.4613339 -0.8448133 -1.1803006 -0.5630697 -0.76684475
-1.1699344 -0.7012366 -0.021288112 -1.3820335 -1.2081468 0.24096467 -0.9959979 0.042184833
-1.2387196 -1.0235276 -1.2013266 -1.270696 -0.63303834 -1.0169324 -0.8725555 0.083130665
-0.5942566 -0.070796326 0.021844108 -1.5464958 -1.0567602 0.04129359 -1.5831354 -1.7723205
-1.4908324 -0.36674157 -0.31321764 -0.0061482014 -0.62095153 0.07636751 -0.78223526 -1.7361104
-0.6598008 0.57258534 -0.9995014 -0.52417254 -0.91131043 -0.40410417 -0.22147538 -0.52114546
-1.2319437 -0.69692284 -1.3575794 -0.8362753 -1.0561785 -0.11745176 -0.8556174 -0.7163544
0.149472 0.36160624 -1.2770146 1.4096413 -0.59873617 0.9973911 0.005089823 0.32882708
-0.23976758 -0.18611172 0.36844045 -1.4531496 -1.5813242 -0.3759856 0.8935255 -0.7936944
-1.2370207 -1.8296713 -1.0702364 0.36156064 -1.1560972 -0.0028356297 -0.75623775 -0.54463285
-0.3786987 -1.1063149 -0.39705545 -0.5203944 -1.4845918 -1.4654301 -1.1326343 -0.42182234
-0.43365583 -1.256751 -1.1329783 1.1339315 -1.5729803 -0.6541126 0.34384453 -0.67625695
-0.20054336 -1.1765963 -0.7275598 -0.91286075 -0.44401848 -0.4130283 0.22212356 -0.5484143
-0.61543435 0.29892763 -1.4463884 -1.0640872 -0.13712175 -0.44931567 0.63254595 1.3410826
-0.39768243 0.961526 -0.36227348 -0.61193573 -0.9306782 -0.14397264 -0.7605759 0.06273553
00000000: 0599 a9bf 2907 d8be 24c5 b4bf ff80 533f
00000010: deb9 45bf 7289 6abf 538b adbe a61c 82bf
00000020: 9378 abbf 1cfc 4cbf 3d5e babf f533 ecbe
00000030: af45 58bf 1714 97bf 5625 10bf f04f 44bf
00000040: 69c0 95bf 3e84 33bf 6864 aebc 79e6 b0bf
00000050: 8ea4 9abf 71bf 763e b8f9 7ebf 01ca 2c3d
00000060: 5d8e 9ebf f402 83bf 12c5 99bf 2ba6 a2bf
00000070: cd0e 22bf d72a 82bf cc5f 5fbf 6940 aa3d
00000080: 3321 18bf aafd 90bd 6af2 b23c 93f3 c5bf
00000090: eb43 87bf 7823 293d 2ea4 cabf 66db e2bf
000000a0: 99d3 bebf 8dc5 bbbe 105e a0be da76 c9bb
000000b0: aef6 1ebf 9266 9c3d 9240 48bf de38 debf
000000c0: b5e8 28bf f494 123f 53df 7fbf 2c30 06bf
000000d0: a44b 69bf bee6 cebe 71ca 62be ca69 05bf
000000e0: 55b0 9dbf 8969 32bf 29c5 adbf 2316 56bf
000000f0: db30 87bf 8c8a f0bd be09 5bbf 0163 37bf
00000100: 300f 193e 7424 b93e 3775 a3bf 206f b43f
00000110: c646 19bf 0655 7f3f 88c8 a63b 065c a83e
00000120: a285 75be 1294 3ebe 3aa4 bc3e ce00 babf
00000130: d568 cabf 2f81 c0be 16be 643f 8e2f 4bbf
00000140: b256 9ebf ab32 eabf 82fd 88bf 7a1e b93e
00000150: fefa 93bf f9d5 39bb cc98 41bf 0f6d 0bbf
00000160: cce4 c1be ba9b 8dbf da4a cbbe 9138 05bf
00000170: 1b07 bebf 3793 bbbf 29fa 90bf 19f9 d7be
00000180: 2308 debe 37dd a0bf 6f05 91bf ab24 913f
00000190: 6b57 c9bf ec73 27bf 640c b03e 2d1f 2dbf
000001a0: 3d5b 4dbe b59a 96bf 5c41 3abf 3eb1 69bf
000001b0: 6456 e3be 7278 d3be 5c74 633e e164 0cbf
000001c0: 1b8d 1dbf 0b0d 993e 4123 b9bf 0234 88bf
000001d0: a569 0cbe b40c e6be 88ee 213f 98a8 ab3f
000001e0: 089d cbbe 9126 763f e97b b9be d2a7 1cbf
000001f0: ed40 6ebf 906d 13be 1ab5 42bf 7c7b 803d

features.9.running_var f4 [128]
1.8180879 1.302526 1.9784024 2.0345824 0.9251028 0.8217661 1.6382715 1.6850561
1.3741379 1.0157211 3.1482677 0.80530375 1.8942457 1.3536971 0.8109425 1.0480614
2.139831 1.6667544 1.2043191 2.7637124 0.89671147 1.3073878 1.2074842 0.69815207
1.4676552 1.1207529 1.2239347 0.7171035 1.4988717 1.3333956 1.1192347 0.6711023
0.80206656 1.22046 0.8306274 1.344108 1.6741076 0.78698987 2.7925563 2.146147
1.5298827 0.7819536 1.0927085 0.5807581 1.0009155 1.0818406 0.9730188 1.8112205
0.95986617 0.8046634 1.7941105 1.6228023 1.5271147 0.71522367 1.2167388 2.1156313
1.7808695 0.8309559 1.502248 1.1212064 1.2548255 1.0031763 1.4179065 1.2332494
0.93617666 1.1708688 2.0779855 1.046113 1.6213449 0.9816802 2.257631 0.88670194
0.73187196 0.9899627 1.1745702 1.0733788 1.3626392 0.865528 2.1799963 1.5444967
0.73309267 2.1972752 1.1249335 1.0293523 2.7323906 0.9158046 1.0864645 0.6564522
0.6153585 1.7121117 0.9882802 2.0525246 1.32291 1.5076733 1.95862 0.90436
1.0578083 0.9768112 1.2967533 2.177675 1.701179 0.83942115 0.81151795 0.8382303
2.3266203 1.1209774 1.2218399 0.7346705 0.98489606 0.89984447 1.0913486 1.022477
1.115999 0.7274608 1.6683553 0.65631145 1.4277395 0.6926726 1.7956446 2.3062077
1.0786641 3.0403728 1.1903698 1.5595309 1.3417788 0.7724402 0.6179144 0.9103784
00000000: 1bb7 e83f 2cb9 a63f 4a3c fd3f 9936 0240
00000010: 89d3 6c3f 435f 523f e1b2 d13f ebaf d73f
00000020: c0e3 af3f 2603 823f 387d 4940 6328 4e3f
00000030: a576 f23f f245 ad3f ed99 4f3f e026 863f
00000040: fef2 0840 3558 d53f 2127 9a3f aae0 3040
00000050: e28e 653f 7c58 a73f d88e 9a3f 18ba 323f
00000060: 20dc bb3f d574 8f3f e4a9 9c3f 1894 373f
00000070: 07db bf3f b5ac aa3f 1543 8f3f 5ccd 2b3f
00000080: 3c54 4d3f 0938 9c3f ffa3 543f bb0b ac3f
00000090: 2849 d63f 2b78 493f 3eb9 3240 795a 0940
000000a0: 32d3 c33f 1c2e 483f dfdd 8b3f 90ac 143f
000000b0: 001e 803f c179 8a3f c317 793f 13d6 e73f
000000c0: cab9 753f 6cfe 4d3f 6aa5 e53f fcb7 cf3f
000000d0: 7f78 c33f e618 373f 19be 9b3f 8166 0740
000000e0: 88f3 e33f 87b9 543f aa49 c03f b183 8f3f
000000f0: 1f9e a03f 1568 803f f67d b53f 1edb 9d3f
00000100: 46a9 6f3f 07df 953f b7fd 0440 08e7 853f
00000110: 3b88 cf3f 654f 7b3f 077d 1040 e6fe 623f
00000120: f65b 3b3f 326e 7d3f 5158 963f 7a64 893f
00000130: f66a ae3f 3e93 5d3f 0f85 0b40 11b2 c53f
00000140: f6ab 3b3f 28a0 0c40 d2fd 8f3f d1c1 833f
00000150: 7ddf 2e40 2c72 6a3f 4511 8b3f 400d 283f
00000160: 2288 1d3f 7a26 db3f eeff 7c3f 905c 0340
00000170: 1d55 a93f 70fb c03f 0fb4 fa3f 2384 673f
00000180: 4366 873f 4c10 7a3f 03fc a53f 075f 0b40
00000190: 3cc0 d93f 4ee4 563f a4bf 4f3f 4396 563f
000001a0: 59e7 1440 307c 8f3f 4065 9c3f 5e13 3c3f
000001b0: 2622 7c3f 355c 663f 50b1 8b3f 87e0 823f
000001c0: 0ed9 8e3f df3a 3a3f ab8c d53f 0704 283f
000001d0: 2bc0 b63f fe52 313f afd7 e53f e898 1340
000001e0: aa11 8a3f 7895 4240 0a5e 983f b59e c73f
000001f0: 68bf ab3f a4be 453f a32f 1e3f 8f0e 693f
