experiment_testing/mz-testing/checkpoints/ptbxl/500hz/cnn1d/fold_2/last.pt (torch, 628765 bytes, 26 tensors)

features.0.weight f4 [32, 12, 7]
00000000: 1f7b 11be 9188 30bc c3e2 11be 06f7 90bd
00000010: bd09 c9bd a828 9438 65b6 20bd 6edc b3bc
00000020: f568 083d 4098 6dbc a028 a23a 486f 893d
00000030: 022b 22bd c59b e13d cf27 3d3d 92df e9bd
00000040: 503a 8bbd 8ec5 69bd 8be8 8fbd f9c7 b9bd
00000050: 13ed cb3c da06 f03d 54a5 013e 38f4 dfbb
00000060: 72c6 213e 059c 483d d1a3 28bd 4f2c 553d
00000070: 1672 d23d 0c87 a43c 95a6 c0b9 7169 833d
00000080: e377 68bc a4c5 b83c 6d79 2f3d 9e11 67bd
00000090: 3e1d ae3d 206d 303d 79a3 883c 44ad a53d
000000a0: 70f1 91bb 6990 2dbd f933 29bd 1312 74bd
000000b0: 783d fc3d b237 0abc 5aa5 773d e6ef 103d
000000c0: 6afe 0c3e 7deb 233d c671 84bc 570f f5bc
000000d0: 1c33 f3bc 7a9c 83bc 947c b43d cb1f 71bd
000000e0: ef57 eebd 0da4 e53c 4b37 b03d 3f1d 3d3c
000000f0: 6340 cdbc 5e89 863d ef83 a03d f64a 673d
00000100: baa2 f3bd 214a 543d 1765 9cba d314 21bd
00000110: a6a3 91bc 7661 0f3d 016d 8dbd 9318 5ebd
00000120: 5a0c 6b3d 5854 84bd efd3 c6bd d51b e03d
00000130: d42d 5339 e936 b7bc 1e4a e33d de9c 30bd
00000140: 6448 b6bd c4d5 583c 8da7 b33d 4517 d03d
00000150: d67b 9bbd 0886 afbd 48e4 663d 3a3a 62bd
00000160: 662e 46bc 5e31 b93d f06d 84bc 3dd8 21bd
00000170: 829b a7bc 5343 76bd aadc aa39 2885 9b3b
00000180: f145 04bd 2f0d d13d 3756 19be b3df 8bbc
00000190: ec8b a73c 9716 adbd afdc 953d 35b1 ec3c
000001a0: d293 233d 5ff7 473d ad96 02bd 3f00 8abd
000001b0: 8a8f 81bd c88d aa3d 6076 4f3a 25b8 51bc
000001c0: ae98 393d ee55 b13d 0be4 c53d ddab a73d
000001d0: c3a5 a13d dc06 e93d f673 e53c 9a36 97bd
000001e0: d142 80bd 028c 7cbb e687 dd3d 73ff 6e3d
000001f0: c285 c43d df1c 4abc d23e 893d 2126 f03c
00000200: 67e2 83bd aa0e fdbc 3c82 c8bc a4df b93d
00000210: a7c8 233d 8cdb 02bd d390 bb3d 8d4c 8ebd
00000220: 10d1 c23d cd6a 733d 3446 6fb9 e643 24bd
00000230: 2055 fc3d b7e2 4ebd 896c 8f3d 9c9c 2c3d
00000240: 6285 fb3d 586f 6fbc 75bf a63d 6521 abbc
00000250: 4af5 a13c 5c8a b83c a74d 7abd 692e 7b3d
00000260: 6461 843c ed39 a83d 1a36 86bd 9104 093d
00000270: c5bd 583d f0f5 9cbd 7c91 883d 22da 2dbd
00000280: d891 993c 72f4 d8bd 21d9 6dbd 0ecb 03bd
00000290: 5b9d b9bd b389 17bd f3de ff3d 88c8 903d
000002a0: 4dc0 933d 7300 bd3d a56f 073c 9fd0 98bd
000002b0: 5d0b 823d 2b5b ec3c 2449 c5bc 74e1 9abd
000002c0: 1158 933d fbb6 853b e84c 4a3d 89d2 29bd
000002d0: ca87 573d e0a5 713d af99 753c 8641 6c3d
000002e0: b46a 203d 7595 8c3d b621 c13d 33b7 d33d
000002f0: c0cb c4bc b05b b03d 5820 0bbd 5a54 163e
00000300: 3da8 5a3d 7afe 203e 089a 91bc e40b b93d
00000310: a0ba 6a3d 105c 693d cca3 363d 1dd4 e53d
00000320: bd61 e03d d3d1 00bc 9d87 04bc 4527 013e
00000330: 6738 c8bc 67bb f83c 4de3 aebd 49e1 95bd
00000340: e681 1ebd e579 903c 36ee a03c d124 62bd
00000350: 541c e4bd eff4 d8bb 6548 58bd 1879 293d
00000360: b7b6 c73d 2978 1cbb 8aaf a43d b894 c53d
00000370: fa6a 843c 2641 b63d ee03 dc3c bd27 3dbb
00000380: 42bf 1c3d 2cda 91bd 7fe8 b63d a7f5 70bd
00000390: 4949 97bd f430 99bc 964b c4bd 6712 f6bd
000003a0: 8bcc 8cbd 98c8 8f3d 7233 693d 9189 aa3d
000003b0: fd2d cabc 17b3 6bbd 791b afbc aef2 b53d
000003c0: 8b4a cd3c 356c de3d 6b51 60bd 5b02 fc3d
000003d0: 93a7 0b3e 4cbe 85bd c24f 9b3d 2b48 bb3d
000003e0: 2d96 893c fae3 9a3a 772c a73d 41bf ac3d
000003f0: 4568 a9bd fa42 a63d 306f 36bd 46bb bebd
-0.14207123 -0.0107747475 -0.14246659 -0.07078366 -0.098163106 7.064763e-05 -0.039236445 -0.021955695
0.03330322 -0.014501631 0.0012371726 0.06710678 -0.039591797 0.11016039 0.046180543 -0.11419596
-0.067982316 -0.05707317 -0.07026776 -0.09071345 0.02489332 0.11720057 0.12660724 -0.006834533
0.15798357 0.048976917 -0.041171852 0.05204421 0.102756664 0.020083927 -0.00036745207 0.06416596
-0.0141887395 0.02255518 0.04284041 -0.056413285 0.08501671 0.04307282 0.016679512 0.080896884
-0.0044538304 -0.04237405 -0.04130933 -0.05958755 0.12316412 -0.00843613 0.060460426 0.035385035
0.13768926 0.0400195 -0.016167533 -0.029914541 -0.029687457 -0.016065825 0.08812824 -0.05886821
-0.11637866 0.028032327 0.08604296 0.011542617 -0.025055116 0.065691695 0.07837664 0.056467973
-0.11896272 0.051828507 -0.0011931983 -0.0393265 -0.017778229 0.035005055 -0.069055565 -0.054222655
0.057384826 -0.064614 -0.09708392 0.109428085 0.000201396 -0.02236505 0.11098121 -0.04311835
-0.08900526 0.013234559 0.08772192 0.10160688 -0.07591979 -0.08570486 0.05637005 -0.05523131
-0.012096023 0.09042619 -0.016165704 -0.03951286 -0.020459894 -0.0601228 0.00032589334 0.004746098
-0.032293264 0.10207593 -0.14974295 -0.017074442 0.020452462 -0.08451574 0.07317483 0.028893093
0.039935894 0.048819896 -0.031881977 -0.06738328 -0.06326206 0.08327824 0.00079140626 -0.012800251
0.045311622 0.08658968 0.09662636 0.08187077 0.07892945 0.113782614 0.028009396 -0.07383461
-0.06262744 -0.00385356 0.10816936 0.058349084 0.09595825 -0.012335985 0.06701435 0.029315056
-0.06439667 -0.030890781 -0.024476163 0.09075859 0.03998628 -0.031947657 0.091584824 -0.06948195
0.09512532 0.059428025 -0.00022818969 -0.040103815 0.12320924 -0.05050918 0.07003123 0.04214154
0.122813 -0.014613949 0.08141986 -0.020889947 0.019770283 0.022526912 -0.06110921 0.061323557
0.01615972 0.082141735 -0.06553288 0.03345162 0.052915353 -0.07664096 0.06668374 -0.042444356
0.018746302 -0.10593499 -0.0580684 -0.03217607 -0.09063216 -0.036996555 0.12493696 0.07069498
0.07214413 0.09228601 0.008266364 -0.07461666 0.063498236 0.028852066 -0.024082728 -0.07562533
0.07194532 0.004080651 0.04938975 -0.041460548 0.052619733 0.05899608 0.014990254 0.057679676
0.03916426 0.06864444 0.09430258 0.10337677 -0.024022937 0.08611238 -0.033966392 0.14680615
0.0533831 0.15722075 -0.017773643 0.09035471 0.057306886 0.056972563 0.044589803 0.11222098
0.10956142 -0.007862526 -0.008088973 0.12612636 -0.024440957 0.030362798 -0.08539448 -0.0731836
-0.0386981 0.017636249 0.019644838 -0.055210892 -0.11138216 -0.0066209952 -0.052803416 0.04137525
0.09751647 -0.0023875332 0.08041294 0.096475065 0.016164292 0.08899145 0.026857343 -0.0028862797
0.038268335 -0.07121691 0.08931064 -0.058828022 -0.07387025 -0.0187001 -0.095847294 -0.12015229
-0.06874951 0.07020682 0.056933828 0.0832702 -0.024680132 -0.05754384 -0.021375405 0.08884178
0.025059959 0.108604826 -0.054765146 0.12305137 0.13638143 -0.06530437 0.07583572 0.09144624
0.016795242 0.001181721 0.08162778 0.08434916 -0.08271841 0.081182435 -0.04453963 -0.09313063

features.0.bias f4 [32]
00000000: 0367 983d 500b 80bd 9fb8 bbbc e34b 443d
00000010: cd85 43bd e664 9f3c eade 59bd 786f 873d
00000020: d804 90bc 20cb af3c 5e13 b0bd e643 ce3c
00000030: ce16 8e3b 274f c13d 365f bb3c 4376 5b3d
00000040: 40be 673c 2255 013d 1145 2a3d 08eb 0a3e
00000050: 87ad 03bd 34c2 64bd b0b5 85bd b24d f93b
00000060: 868c c23d f54c adbb 3a7c abbd 6a3a 963b
00000070: b03f ddbd 277d 653d 3ea9 8ebd 2d23 ca3d
0.07441523 -0.06252158 -0.022915183 0.047923934 -0.047735024 0.019457292 -0.053191103 0.06613058
-0.017580435 0.021459162 -0.08597444 0.02517886 0.0043362146 0.09438925 0.022872549 0.05357958
0.01414448 0.03157533 0.041569773 0.1356622 -0.03214791 -0.05584927 -0.06528795 0.007608139
0.09499459 -0.005288715 -0.08373304 0.0045846 -0.10803163 0.056027558 -0.06965874 0.098699905

features.1.weight f4 [32]
00000000: 0962 7c3f 53aa 793f 46c0 7f3f 1903 733f
00000010: 502c 873f d8f0 7e3f 8208 843f 1e93 7e3f
00000020: cd84 773f c7ad 863f 4a62 7b3f 8e2c 7a3f
00000030: 847f 7f3f 5b46 833f a526 813f 492e 6e3f
00000040: 0e06 823f 22da 803f 6077 7c3f ad1c 823f
00000050: 85cc 7a3f b831 823f b8f4 7a3f d872 803f
00000060: 658f 793f f039 7d3f 8981 833f 49cf 833f
00000070: 767e 823f 1fa2 7c3f 7238 7b3f 7165 833f
0.9858709 0.9752552 0.9990276 0.949266 1.0560398 0.9958625 1.0315096 0.99443233
0.9668701 1.0521783 0.9819685 0.97724235 0.9980395 1.0255846 1.0089918 0.93039376
1.0158098 1.0066569 0.9861965 1.0165001 0.9796832 1.0171423 0.9802966 1.0035048
0.9748443 0.9891653 1.0273906 1.0297633 1.0194843 0.9868488 0.98133004 1.0265332

features.1.bias f4 [32]
00000000: c8b7 ff3b 6644 663c c044 c8bc 7886 bdbd
00000010: 6b88 e3bb dda1 f9bc d00d 9a3c 67a6 04bc
00000020: f973 71bd dc3a 39bc 065c 75bd 809a 013d
00000030: 6f7f 9abd 8d24 83bc dff6 a73c 2bdd 4dbd
00000040: 3b85 e0bc affd b5bb 458a 0dbd aec5 b93c
00000050: 7503 50bd ad25 483d 9ee3 4dbd 9e38 ab3c
00000060: 740e 4a3d bac3 303d 1d6a 5d3b eaf0 d7bc
00000070: 2b86 0fbd ac05 33ba 6129 86bd 725d 863d
0.007803891 0.014054393 -0.024446845 -0.092541635 -0.0069437525 -0.03047269 0.018805414 -0.008096314
-0.05894849 -0.011305537 -0.059902214 0.031641483 -0.07543837 -0.01600864 0.02050346 -0.05025975
-0.02740728 -0.005553923 -0.034555692 0.022677269 -0.050784547 0.048864055 -0.0502659 0.02090102
0.04933019 0.04315541 0.0033785172 -0.026359994 -0.035040062 -0.0006829153 -0.06550861 0.06560792

features.1.running_mean f4 [32]
00000000: bc5e 983d 820d 80bd 9eb1 bbbc 4e55 443d
00000010: 6a8f 43bd bb50 9f3c 0df7 59bd c66e 873d
00000020: 971b 90bc c737 af3c c232 b0bd 9759 ce3c
00000030: a604 8e3b d74e c13d 1058 bb3c b272 5b3d
00000040: 50fc 673c 3842 013d 0f68 2a3d 02e6 0a3e
00000050: e9a5 03bd 1ec6 64bd 75a5 85bd 384f f93b
00000060: b695 c23d a710 adbb 1a83 abbd a85b 953b
00000070: 2b44 ddbd 6468 653d 6596 8ebd c74a ca3d
0.07439944 -0.062525764 -0.022911843 0.047932915 -0.047744192 0.019447675 -0.05321412 0.06612925
-0.01759128 0.021388901 -0.08603431 0.025189204 0.00433405 0.09438866 0.02286914 0.05357618
0.014159277 0.03155729 0.041603144 0.13564304 -0.032140646 -0.055853 -0.06525699 0.0076083206
0.09501211 -0.005281526 -0.08374615 0.0045580454 -0.10804018 0.056007758 -0.06962279 0.09877544

features.1.running_var f4 [32]
00000000: d78d 3a3f f14a 453f d22e 9c3e f91a 393f
00000010: 5343 093f d101 8d3f d16f e93e 6ce8 713f
00000020: ac04 563f 9a75 423f f7ee 393f 108d 8b3f
00000030: fdeb 0a3f 66f1 f63e 6d30 be3f c5fc 6b3f
00000040: 57f2 bc3e 28cf 1b3f 4573 8f3e a2af 333f
00000050: 3cd8 193f dbce 6b3e a17a d53e 11ee 363f
00000060: 6fe4 993e d7ab 653e 467f 563f 9fe2 443e
00000070: 8cfc b43f 7021 dc3f e7b6 813f ab07 cd3f
0.7287268 0.77067477 0.3050447 0.7230678 0.53618354 1.1016179 0.45593122 0.9449527
0.8360088 0.75960696 0.72630256 1.0902424 0.5426634 0.48231047 1.4858528 0.9218257
0.3690364 0.6086297 0.2801763 0.7018987 0.6009557 0.23028128 0.4169512 0.7145701
0.30057094 0.22428833 0.83787954 0.19227074 1.4139571 1.7197704 1.0133942 1.6017965

features.4.weight f4 [64, 32, 5]
00000000: 7f21 bcbd a539 413d 89cd 4e3d 4528 91bc
00000010: 77a9 3cbd 74d2 383c ac06 113d ad16 293d
00000020: 0f7d 2c3d ccaf a0bc f0a4 fcbc 34cf 78bc
00000030: 17e7 2d3c bd5c 98bd bd3e 263d 6b25 bb3b
00000040: d4f6 843d 9576 833c b7fa e1bc 54e3 373d
00000050: 3d06 76bc 2bec 153d 4320 0c3c 64a8 54bd
00000060: 23f4 913b 1adc b63d 4813 0ebb cf55 2bbc
00000070: 88e6 85bd f035 8dbd 73a2 803d 452b 103d
00000080: d865 6e3c dc51 eebc 30d8 8fbb e056 363c
00000090: b375 533d 67d0 a03d 9b53 983c 42fa 8fbc
000000a0: 0b2f 373d d162 8fbd e12e a13d f1da ae3c
000000b0: 465c 3fbd 5719 04bd 6cd8 cbbd 4757 9abd
000000c0: a4ab 92bd 1d9d 4dbd 4d3a 6fbd efaf 08bd
000000d0: 518a ed3c c9f4 69bd 212b 89bc 7621 debd
000000e0: f4b2 ae3c de2c bdbd 9bb0 ebbd a5e7 c1bd
000000f0: 1adc efbc eb24 bfbc 8d5e 723c 0644 113d
00000100: 60de 5fbd a053 653d 1406 943c c502 d83c
00000110: 9c5d 8fbd 815d b0bd e36c 8cbd 6744 263d
00000120: ccf8 c4bd fbca 8bbb f88c dfbd 103c 3dbd
00000130: e826 14bd ff9f 82bd 5afb 89bd a528 8a3d
00000140: a50c 073d a345 a5bd 8a36 a5bd 2119 97bd
00000150: aa3f 283d 8332 033d bcda 243d 8c8f c43c
00000160: 1067 793d a60d 92bd 5d73 56bc 7dbd 3b3d
00000170: b933 6bbb c817 9c3d 6180 72bd 280e d43c
00000180: 151c 20bd 2b78 acbd 3cbc 72bd 1f6e e8bd
00000190: 0991 61bd ec1f 8bbd 7c9b c0bc f282 3fbd
000001a0: 45e2 e4bd 06a7 bc3c 6f3d aa3d ab37 2b3d
000001b0: 2b95 a5bc 260b 6c3d 27f9 a33d 6372 2abd
000001c0: f0e0 493d 2931 efbc 51a6 9c3c 1148 173d
000001d0: 03d5 153c 370a 6b3d 47a2 593d 252f 823d
000001e0: c615 72bd 5d41 33bd 607e 253c b9b5 79bd
000001f0: 2435 47bc 1a1d eb3c b8c7 b4bc 6105 89bd
00000200: 159b 8cbd b753 003d 6827 2ebd 75fb 7e3d
00000210: 35a2 53bd f2b0 63bd 1169 16bd 2483 ce3c
00000220: f896 1b3d d034 0f3d b355 df3b 546f 9f3d
00000230: a5be 903d 7e96 2fbd b162 5bbd af53 68bd
00000240: 9c4c c3bd 3dc5 64bd 72ad 98bd def4 eabc
00000250: 638b b3bc f1f2 153d 6463 393d d021 a3bc
00000260: 7c7c 093d 7d1a 433d 0b86 8f3d 087a c2bd
00000270: 4500 afbd 469b 0abc fc7e 303d 9c7b fc3b
00000280: ce42 343c 27da 313c 48c0 7cbd bac3 c4bd
00000290: 97e4 d9bc 15c0 f5bb 69f0 8f3d 3d50 7cbd
000002a0: d540 833d 3374 afbc 66a7 09bc 8665 b73b
000002b0: 4801 aa3c 35bb 32bc 585a 11bd 00ef 433c
000002c0: de99 0e3d 5684 173d 5e09 94bb 698e 87bd
000002d0: 1201 a23d b91f 39bd 2814 8a3c 690f d93b
000002e0: 122e 7c3c 235a 41bd 4a9f 98bd 9c45 fbbc
000002f0: 03ac 3bbd e970 03bb 59e8 023d f83e 2fbd
00000300: 18ee 2d3d e0c7 00bb 6d01 513d fa02 7e3b
00000310: e8e3 74bd e497 7a3d ff58 ed3a 8810 8db8
00000320: 530d d83d 7a5c 60bc cbe6 d03d b94f 2c3d
00000330: 6d21 3cbb 46e7 663c 1a37 5fbd 368e 98bd
00000340: 0e3e 85bd 0b85 bcbc 0cb1 b13c 9798 993b
00000350: e9fc 273c f389 81bd 1047 f2bc f314 2c3d
00000360: cf8b 243b f0b7 953c 54ac b1bc 600b f13c
00000370: 0130 f13c 1796 08bd aa79 adbd e376 5bbc
00000380: f85a 2d3c f4c5 b43d 8b58 933d 4365 48bd
00000390: 03e1 d1bc f419 803c 7b2b 43bd b564 483d
000003a0: 9635 843d 6f9a 013d a3fc 903d 6624 413d
000003b0: 4477 5e3d b16b 453d bd8b 5ebd df3b 1c3c
000003c0: 5754 393c 797a 25bd 376d 9ebd 4523 89bc
000003d0: 0998 d1bd a131 693d 0cd4 953d 38ad 0bbd
000003e0: 0be3 21bd 677b 4e3c bb19 213d aaa4 1c3b
000003f0: a60c 443d 6f8d 143c fed5 87bb 2354 633d
-0.091860764 0.047174115 0.050488982 -0.017719397 -0.04606005 0.011280645 0.035406753 0.04128139
0.042111453 -0.019615076 -0.030840367 -0.01518612 0.010614178 -0.074395634 0.040587176 0.0057112477
0.06492391 0.016047755 -0.02758537 0.04489453 -0.015016136 0.03660218 0.008552614 -0.051918402
0.004454152 0.089287 -0.0021678973 -0.01045747 -0.06538111 -0.068950534 0.06280985 0.035197515
0.014550649 -0.029091768 -0.004389785 0.011129111 0.05162592 0.078522496 0.018594554 -0.017575387
0.044722598 -0.070012696 0.078702696 0.021344634 -0.04671886 -0.03225073 -0.099533886 -0.07536178
-0.07161644 -0.050198663 -0.05840521 -0.03337091 0.028996618 -0.05711821 -0.016744198 -0.10846226
0.021325566 -0.09237073 -0.11508294 -0.09468011 -0.029279757 -0.023333034 0.0147930505 0.035465263
-0.054655433 0.055987954 0.018069305 0.026368508 -0.070002764 -0.086115845 -0.06856706 0.040592577
-0.09617767 -0.0042661405 -0.109155595 -0.04619986 -0.036169916 -0.06378173 -0.06737395 0.067460336
0.032971043 -0.08069923 -0.08067043 -0.0737784 0.04107634 0.032030594 0.040247664 0.02399423
0.060889304 -0.071315095 -0.013089028 0.045835007 -0.0035888983 0.076217234 -0.059204463 0.025885656
-0.03908928 -0.08421358 -0.059261546 -0.11349129 -0.055069957 -0.06793198 -0.02351164 -0.04675574
-0.1117597 0.023028862 0.08312499 0.041801136 -0.02021273 0.05762782 0.080065064 -0.041612994
0.049286783 -0.029198246 0.019122275 0.036933962 0.009145024 0.05738279 0.053133275 0.06356648
-0.059102796 -0.043763507 0.010100931 -0.06096432 -0.012158666 0.0287004 -0.02206789 -0.06690479
-0.06865517 0.031329837 -0.04251805 0.062251527 -0.051668365 -0.05558867 -0.036721293 0.025209017
0.037985772 0.034962475 0.006815636 0.07784906 0.070676126 -0.04286813 -0.053560916 -0.056720432
-0.095360965 -0.055852164 -0.07454957 -0.028681215 -0.02191705 0.03660864 0.045260802 -0.019913584
0.033565983 0.047632683 0.070079885 -0.09495932 -0.08544973 -0.008459872 0.04308985 0.007705165
0.011002256 0.010855234 -0.06170681 -0.096076444 -0.026598258 -0.0074997046 0.070282765 -0.06159996
0.0640885 -0.021417713 -0.008401727 0.0055968193 0.020752564 -0.010908891 -0.03548655 0.0119588375
0.034814708 0.03699144 -0.004517718 -0.066189595 0.079103604 -0.04519627 0.016855314 0.0066241515
0.015391843 -0.0472051 -0.07452257 -0.03067284 -0.04581834 -0.0020056313 0.031959865 -0.04278466
0.042463392 -0.0019650385 0.05102675 0.0038759098 -0.05978766 0.06118001 0.0018108188 -6.726483e-05
0.105494164 -0.013693923 0.1020027 0.042068217 -0.0028706447 0.014093226 -0.05449591 -0.074489996
-0.065059766 -0.023012659 0.021690868 0.0046873796 0.01025317 -0.0632514 -0.0295749 0.042012166
0.0025107746 0.018276185 -0.021688618 0.02942437 0.029441835 -0.03334626 -0.08470471 -0.013395044
0.010580771 0.08826819 0.071946226 -0.048924696 -0.02561999 0.015637375 -0.047648888 0.048924167
0.06455533 0.03164142 0.07079437 0.047153853 0.05431296 0.048198406 -0.054332484 0.009535759
0.011311612 -0.040400002 -0.07735675 -0.01674045 -0.102340765 0.056932095 0.07315835 -0.03410074
-0.039523166 0.012602664 0.03933118 0.0023901858 0.047863625 0.0090669235 -0.004145383 0.05550016

features.4.bias f4 [64]
00000000: db9a 08bc d937 97bd 9def 16bd 88f9 b83d
00000010: 531a a3bc ab8e 64bc 622c 5ebd ff60 f53c
00000020: 0b4c 27bd 7042 b43d d85c 82bd 9b66 52bd
00000030: f35c e93c 787a 5b3c 5790 063d 092d ce3c
00000040: 980f a73b 4617 6d3d c406 28bc 2a97 a5bc
00000050: 5ef8 febd 6ea2 583c 3b29 ab3c b832 9c3d
00000060: 519e 4d3d 516d 2d3d d1b6 31bd ba1b 423d
00000070: 501e e03b cb19 b83b 5713 fc3c 512e a0bc
00000080: 3c1b 7c3d 4d54 e33b 2593 573d f87c bb3c
00000090: 6c8f c3bd a24a 8c3d f6f9 453d 4f04 6b3d
000000a0: f47a 2c3c 4dd7 8cbd cc35 b23b 3b3e aa3d
000000b0: 02f0 d23d 1f04 bdbc 2395 c9bd c606 ca3c
000000c0: 3903 acbd 1cff b2bc f497 bfbd 15b9 833d
000000d0: 8854 96bc 5720 2f3d 18fb aa3d f326 89bd
000000e0: 8b87 dd3d 1b65 073d 28af 7e3d 3115 b93d
000000f0: c01b 213d 97cb 8e3d efa7 63bd 5d0c 13bd
-0.008337702 -0.07383699 -0.036849607 0.09031969 -0.019910013 -0.01395003 -0.054241545 0.029953478
-0.040844005 0.088017344 -0.06365365 -0.051367383 0.028486704 0.013395898 0.032852497 0.025167959
0.0050982945 0.057883523 -0.010255519 -0.020213682 -0.12449716 0.01322232 0.020893684 0.07626861
0.05019981 0.04234058 -0.043387238 0.047389723 0.006839551 0.005618309 0.03077094 -0.019553335
0.06154941 0.0069375397 0.052630562 0.022886738 -0.0954884 0.068501726 0.048334084 0.057377156
0.010527361 -0.06877003 0.005438542 0.08312651 0.10299684 -0.023073254 -0.09842899 0.024661433
-0.08399052 -0.021850161 -0.09355155 0.06431786 -0.018350855 0.04275545 0.083486736 -0.06696882
0.108168684 0.033055406 0.06217876 0.09037245 0.039333105 0.069724254 -0.055580076 -0.035900462

features.5.weight f4 [64]
00000000: fedd 813f 5974 7f3f a884 7a3f d03e 7d3f
00000010: be58 623f 184e 5c3f 16e0 823f 0898 863f
00000020: dec8 803f 668b 803f 07ab 813f 9ee6 783f
00000030: 86d9 803f abc9 7d3f 4564 843f ffdf 813f
00000040: 272f 823f 39d8 7d3f 6902 833f 506e 803f
00000050: 0f00 7a3f 6fc2 833f 052d 813f 467e 813f
00000060: f87f 863f 90e3 843f 725d 813f d31c 853f
00000070: 974f 6a3f a406 7f3f 141d 823f a1e7 823f
00000080: 3e8c 813f d421 823f 5d35 6a3f 61dc 6d3f
00000090: dfa1 8e3f f301 7a3f e8d4 763f a2ab 803f
000000a0: fe32 7a3f afcd 7c3f 9811 7e3f 4f91 733f
000000b0: 0f47 733f c069 823f b61a 7a3f 1041 8a3f
000000c0: d3a6 823f 96b8 6f3f ae30 783f 5a0d 803f
000000d0: c38f 833f cc2c 843f ac92 883f 41a2 803f
000000e0: 7798 763f 8ecd 823f 335f 6e3f 15db 833f
000000f0: 80d8 783f 20e2 813f cd0e 743f c934 7b3f
1.0145872 0.9978691 0.9785867 0.9892397 0.8841666 0.8605666 1.0224636 1.0515146
1.00613 1.0042541 1.0130318 0.97226894 1.0066383 0.99135846 1.03431 1.0146483
1.017064 0.99158055 1.023511 1.0033665 0.9765634 1.0293711 1.0091864 1.011666
1.0507803 1.0381947 1.0106642 1.0399421 0.91527694 0.9961951 1.0165124 1.0226938
1.0120924 1.0166574 0.91487676 0.92914397 1.1143149 0.97659224 0.9641862 1.0052378
0.9773406 0.9875135 0.99245596 0.951436 0.950303 1.0188522 0.9769701 1.0801105
1.0207161 0.9364103 0.9694928 1.0004075 1.0278248 1.0326171 1.0669761 1.0049516
0.9632639 1.021898 0.9311401 1.0301234 0.9720535 1.0147133 0.95335084 0.9812742

features.5.bias f4 [64]
00000000: 5e5e 2f3d c59a a5bc eb4c 47bd 532f 68bc
00000010: d11e 08be d859 adbd 2774 38bc acbe 48bd
00000020: 457f ccbd 505d d0bd 5f1b efbc d7d4 83bb
00000030: eeda 353b fedd febd d76a 65bd 5687 f0bc
00000040: 23fb a1bb 2c15 4cbd 217b 123d 1731 a03c
00000050: 55c5 4fbd 72d0 b63c 5037 71bc 8117 00be
00000060: 49cf 3b3d b299 d23a e613 6abc 56e3 3fbc
00000070: f853 97bd d381 fc3a 458e 2cbd b830 1dbc
00000080: 058b 82bd cf01 80bb 6dc9 79bd d006 e5bb
00000090: 236e 0a3d 66ad d8bc 9bd1 41bd 8461 563d
000000a0: 4743 0ebd 45a0 1d3d 0772 0f3b c634 d3bc
000000b0: 1891 50bd 27ce ac3c 6cc7 aabc d3f8 05bd
000000c0: dc3d 8b3c 25af 6dbd 7697 2a3b 99fc 303d
000000d0: de30 ed3c 058e 2f3d 979b a73d 5b99 be3b
000000e0: ad4c 0ebd 9d6b 38bd 2cc0 2a3c 7e49 0a3d
000000f0: 7b96 67bc bbd0 303c 253c c4bc 15fb 75bd
0.042814605 -0.020215401 -0.04865734 -0.014171439 -0.13293006 -0.08464402 -0.011258162 -0.049009964
-0.09985212 -0.10174048 -0.029187856 -0.004023175 0.00277489 -0.124446854 -0.056010094 -0.029361408
-0.004943268 -0.04982488 0.035761956 0.019554658 -0.0507253 0.022316191 -0.01472266 -0.12508966
0.04585198 0.0016067533 -0.014286971 -0.011711916 -0.07389063 0.0019264765 -0.042127866 -0.009594135
-0.06374172 -0.0039064656 -0.06098311 -0.0069893375 0.03379644 -0.02644987 -0.047319036 0.052339092
-0.03473213 0.038482923 0.0021888034 -0.025782 -0.050919622 0.021094395 -0.020847045 -0.032708
0.01699727 -0.05802836 0.002603022 0.043209646 0.028953966 0.04286005 0.08183973 0.0058166212
-0.034741092 -0.045024503 0.010421794 0.033761494 -0.014134998 0.010791953 -0.02395446 -0.060053904

features.5.running_mean f4 [64]
00000000: 9755 0abf 24f5 b0be 706d c5be 45bb 1cbf
00000010: 944a 163f 73a6 653f c2d8 14bf 5c4c 9e3e
00000020: b8ca 3d3f 0297 03bd a37d 09bf 67cb abbe
00000030: 8fe0 c1bd df82 a1bc 9871 ed3d 5e3e af3e
00000040: 5c38 40bc 257f 4ebe 4c97 893d 8ff0 243e
00000050: 186f 923d e0fb 5ebe 1afc 15bf e5df 353e
00000060: 127b 03bf 8291 57be 92d7 58bf ae93 81be
00000070: a046 14bf 8ca9 82be 985f d4be c8e4 0abf
00000080: e09f c7be e1fa 4ebe 8605 0b3f 4d1e b93e
00000090: f36b 393e df46 083e b4cc b4be 2474 a5be
000000a0: f0a3 d63c dad8 ba3d e117 cbbe 1b7e 6dbe
000000b0: daef d43e b8b2 963d 8c5f 06bf d2e9 e23e
000000c0: 1e7b 13bf e97a 3f3f 8f0f 8dbf 9ed2 b8be
000000d0: 8100 22bf 8205 1b3e 0569 1abf cc82 f7be
000000e0: 7a68 713f f4f7 113f e3d3 9ebd f7eb 6b3d
000000f0: 06d5 00bf 48b0 72be b0e4 09be 8c82 fcbd
-0.5403685 -0.34562027 -0.38560057 -0.6122325 0.5870755 0.89707106 -0.58143246 0.30917633
0.7413745 -0.032126434 -0.5370733 -0.3355362 -0.09466659 -0.019715725 0.11593932 0.3422727
-0.011732187 -0.2016569 0.06718311 0.16107391 0.07150096 -0.2177577 -0.585878 0.1776119
-0.51359665 -0.210516 -0.84703934 -0.25307983 -0.57920265 -0.2551998 -0.41479182 -0.5425534
-0.38989162 -0.2021289 0.54305303 0.3615593 0.18107586 0.13308285 -0.35312426 -0.3231517
0.026201218 0.091233924 -0.39666656 -0.23192637 0.41589242 0.07358307 -0.5248954 0.44319016
-0.57609737 0.7479692 -1.1020373 -0.36098188 -0.6328202 0.1513882 -0.603165 -0.48341978
0.94300044 0.5701897 -0.07755258 0.05759808 -0.5032505 -0.23700058 -0.13466144 -0.12329587

features.5.running_var f4 [64]
00000000: aad8 443f 018f 083f 37c7 df3e 7fd9 733f
00000010: d374 3f3f 2c87 293f 1709 763f 4b49 023f
00000020: 83d0 6c3f c5c3 8f3e 1efe 4f3f ec07 793f
00000030: 5811 d63e 4785 a53e 56c5 8f3e 6026 343f
00000040: 80f9 d63e f9b1 2f3e 5867 4e3f bbb4 cc3e
00000050: 7ba6 d73e 5e31 b43e 75c3 663f d200 5d3e
00000060: e257 bf3e 8ab1 ed3e 0141 503f 27b2 933e
00000070: 662c e43e d28b b33f eca5 e13e 5e53 663f
00000080: 80eb 053f e4f2 a53e 2bbc 633f 5614 b23e
00000090: b9e6 d33e 7d56 6a3e 45fa 7f3f 20db 893e
000000a0: 3bc3 163e 13ff ad3f 2b63 673f ebe7 e93e
000000b0: f9b8 ac3e 4654 5e3e fe34 a03f 7144 c23e
000000c0: 9c33 053f fd75 373f d974 a93f c745 1e3f
000000d0: a380 a03f 0f72 153f ebe4 0d3f 431d a83e
000000e0: f26c c03f fded 203f 9e94 a03f 104d a43e
000000f0: 15b9 7b3f 14fd 903e 057b 043f 70fd 523f
0.76893103 0.53343207 0.43706676 0.9525375 0.74787635 0.6622188 0.9610762 0.50893086
0.92505664 0.28079048 0.8124713 0.9727771 0.41810107 0.32328245 0.28080243 0.70371056
0.41987228 0.17157735 0.8062644 0.39981636 0.42119202 0.35193914 0.90141994 0.21582344
0.37371737 0.46424514 0.8134919 0.28846857 0.44565123 1.4027045 0.440719 0.8997096
0.5231247 0.32411873 0.88958997 0.3478114 0.41386965 0.22884555 0.99991256 0.26924992
0.14722912 1.3593467 0.90385693 0.45684752 0.33734873 0.21711835 1.2516172 0.37942842
0.52031875 0.7166441 1.3238784 0.6182522 1.2539257 0.58377165 0.55427426 0.32834825
1.5033247 0.6286314 1.2545354 0.32090044 0.9832929 0.28318083 0.5175021 0.82417965

features.8.weight f4 [128, 64, 5]
00000000: 9389 4bbd ef47 2c3c 7a2c 6b3c 5a4a 4cbd
00000010: 8f86 213d 2868 243c 062e ea3c 9c99 1bbd
00000020: 5813 86bd a376 5fbd dd5d c5bd ca58 063c
00000030: a350 35ba 11d5 b93c ace1 1a3c 6008 95bd
00000040: 5dcc 233d 9f6b 003d 670e 303d 6f16 783d
00000050: da4e 313d 62d6 173a 0354 4dbd 7fd4 363d
00000060: 7f50 9cbb b385 2abd 3ebf 34bd fbd8 a1bb
00000070: 24d2 c9bc e13f 0f3d 8cf5 8fbd ff5e 1abd
00000080: 7444 43bc cea9 d93c 6a68 5d3d 4312 9bbd
00000090: 73a3 dcbd ad2c 76bc 360d 1fbd 0753 b03d
000000a0: bdcc 9fbb 58f5 20bd f035 ff3c 8918 0d3c
000000b0: 4913 863c 2f14 74bd d9e5 203d 3b5b 253d
000000c0: 6957 4a3d c486 323d 07b3 613c 67ed d9bc
000000d0: 4b8c 61bd d161 0a3d d130 85bd bf7f 123b
000000e0: 8a65 2abc cabb 9d3c b000 20bb 28db 8e3d
000000f0: cd9a a13b 383a 323d 3dc8 09bd e944 3b3d
00000100: cdc9 953c 8383 9abd 2067 0abd 4807 3bbd
00000110: b1fe 93bd e51d f93b c9cf dcbd df57 40bd
00000120: 52cb c0bd 9956 c33c bbac e93c 0e15 483d
00000130: de8a 0cbc 008a a3bd 0c67 45bd 9448 6c3c
00000140: ccd4 98bc a8ad c83c 0648 37bd 0bed fdbb
00000150: 0c18 633d f63b d73a fbcd 2d3d 065f 953d
00000160: f474 bcbc 00ce 87bc b673 8ebd 1fad 4f3c
00000170: e673 8aba 1f73 393c 625a 7a3d bc99 c8bc
00000180: 4673 09bd 8b4a 533c 3ad1 ad3c 2dec 9b3d
00000190: 8fa8 9bbd 3c69 a5bd ced5 2b3d 4006 133d
000001a0: 2a4b 2b3d 9a5b 1c3d 2bb6 84bd 1989 54bd
000001b0: 46f8 3bbd b5c7 62bc 1ffd 84bd 4164 133d
000001c0: 2542 a93a 8124 913c 4f12 5ebc 55d9 583c
000001d0: a397 dcbd 9a75 85bd 5057 2ab9 d11f bfbd
000001e0: 25eb fabb 0be1 fdbc 656d 76bd e39c aebd
000001f0: d3e1 cebd 6fe9 f33c 52d7 17bd 4ec0 53bc
00000200: 4019 423d 9e06 4f3d dffa a2bd e9c2 46bd
00000210: fc4f b4bc 9a98 ae3c ad2b f83b 06db 473b
00000220: 3b3f dabb 2058 abbc 22f3 94bb dbcf 533c
00000230: 4f75 bf3c d86c 183d 7e1f b13b b2d8 a03b
00000240: 3532 56bc 7f16 18bd 4615 93bb 9c7b 63bc
00000250: 240e 93bc dfa1 b13c d5e1 87bd ec1a 1d3d
00000260: b14e 0cbb f58a 093d 006c eabc 647a 8fbc
00000270: 6e46 593c 5e99 65bd 1ba3 25bd 4048 b5bc
00000280: 06e8 31bc 4cab 14bd 2aae 2c3d 307a 223c
00000290: b103 27bd 56bc 85bc 2b30 1abd 04a5 19bd
000002a0: fd4e 53bc 6058 e43c 6b1c 66bd 0140 29bc
000002b0: 02ca 3fbd e3f6 573c fa0d 6abb 6372 d4bd
000002c0: d344 babd 09ba 94bd 306e 27bd 5c1c 2f3d
000002d0: df20 1ebe a54f 10be 8346 03be 4e65 ccbd
000002e0: b782 11bc 40bd 5cbd cde2 44bd f89d 0abd
000002f0: 2684 10bd 9e8f 803d 45bc a9bc 7328 9e3c
00000300: 5b4b 2f3d 2f46 383d 563f 303d 63b1 d9bc
00000310: 89fc 8e3c a556 4dbd 5448 60bb 6851 0c3c
00000320: 8546 31bd 0b91 9bbd 8b35 5fbc 7f9b 513c
00000330: 4f46 17bd 8118 e53c 5f63 86bd b8a4 0dbd
00000340: 4cff d5bc f9f9 7c3c 103b a03c b01b 66bd
00000350: 43f5 14bc e2c3 7e3c ef25 23bd ddf3 19bc
00000360: 5ac1 c8bc 411b 6bbd 1e6d cbbc a5cd d6bb
00000370: 642f 883d 6282 21bd 0b8b 22bd 80bc 833d
00000380: e20c 263d 2250 16bd 8b8e 40bd c355 23bd
00000390: 3197 12bd 84e0 513d 7047 3e3d bebf b03c
000003a0: 57d9 75bc f345 443d 10b9 1f3c c81a 9fbd
000003b0: f00a afbd af3b 0fbe e747 beba a49a 8c3d
000003c0: 8efd 69bc 9ab0 fcbc a802 a53c 1428 0bbc
000003d0: cc0c aebc bbfa 9abc d2d1 dcbc 0934 cc3c
000003e0: 2dc4 d3bc a569 8e3c fe3c 093d fa36 493b
000003f0: 13ff 01bd 941a ef3c 5854 223d 9ce7 2f3b
-0.049691748 0.010515197 0.014353866 -0.049875595 0.039434966 0.010034598 0.028586399 -0.03798829
-0.06546658 -0.0545565 -0.096370436 0.00819988 -0.0006916618 0.022684606 0.009453218 -0.07276988
0.039989818 0.031352635 0.042982485 0.06056827 0.04328809 0.00057921384 -0.050128948 0.044636246
-0.004770338 -0.04163141 -0.044127695 -0.004939196 -0.024636336 0.03497303 -0.07029256 -0.03768825
-0.011918176 0.026570227 0.054054655 -0.075718425 -0.10773363 -0.0150253 -0.03883096 0.08609586
-0.0048767016 -0.039296478 0.03115365 0.008611807 0.016366618 -0.05958956 0.0392817 0.040370207
0.049399767 0.043585554 0.013775594 -0.02660246 -0.055065434 0.03378469 -0.065034516 0.0022353975
-0.010400185 0.019254584 -0.0024414472 0.069753945 0.004931784 0.043512553 -0.033638228 0.045720015
0.018284703 -0.07544615 -0.033789754 -0.04566124 -0.07226313 0.0076024407 -0.107818194 -0.0469588
-0.0941378 0.023845004 0.028524747 0.048848204 -0.00857803 -0.07985306 -0.048193976 0.014421601
-0.018656157 0.024496868 -0.04474642 -0.007749205 0.055442855 0.0016421068 0.042432766 0.07293515
-0.023004986 -0.01657772 -0.06955664 0.012675553 -0.0010563105 0.011318951 0.061121352 -0.024487369
-0.0335572 0.01289619 0.021217931 0.07613406 -0.076005094 -0.080767125 0.041951947 0.035894632
0.04181973 0.038173296 -0.06480058 -0.05188856 -0.04589107 -0.013841559 -0.064935915 0.03598428
0.0012913389 0.017717602 -0.01355417 0.01323541 -0.1077111 -0.06516571 -0.0001624499 -0.093322404
-0.007657426 -0.030991098 -0.06016292 -0.085260175 -0.10101666 0.029774396 -0.03707058 -0.012924267
0.04738736 0.05054342 -0.07958006 -0.048525725 -0.022010796 0.021313 0.007573566 0.0030495538
-0.0066603697 -0.020916045 -0.0045455853 0.012927975 0.023371367 0.037213176 0.0054053655 0.0049086446
-0.013073494 -0.03713083 -0.00448862 -0.013884451 -0.017951079 0.021683631 -0.06634871 0.038355753
-0.0021409208 0.033579785 -0.028615952 -0.017514415 0.013261421 -0.056054465 -0.040438753 -0.022129178
-0.010858541 -0.036296174 0.042158283 0.009916827 -0.040775005 -0.016325157 -0.037643593 -0.037510887
-0.01289725 0.027874172 -0.056179445 -0.010330201 -0.04682351 0.013181421 -0.0035713897 -0.1037338
-0.090951584 -0.07262046 -0.040876567 0.042751655 -0.15442227 -0.14092882 -0.12819867 -0.0998026
-0.0088812625 -0.05389142 -0.048067857 -0.033842057 -0.035282277 0.06277393 -0.020719657 0.019306397
0.042796474 0.044988807 0.04302915 -0.026573842 0.017454403 -0.05013146 -0.0034222798 0.008564331
-0.043280143 -0.07596024 -0.0136236055 0.012793421 -0.036932286 0.027965786 -0.06561922 -0.034580916
-0.026122712 0.0154404575 0.019559413 -0.05617875 -0.009091678 0.015549632 -0.0398311 -0.00939652
-0.02450626 -0.05739904 -0.024832305 -0.0065552765 0.06649664 -0.039430983 -0.039683383 0.06432438
0.04053963 -0.036697514 -0.04701094 -0.03987671 -0.03578872 0.051239505 0.046454847 0.021575805
-0.015005431 0.04791827 0.009748712 -0.0776878 -0.08547008 -0.13987611 -0.0014517278 0.06865433
-0.014281644 -0.030845929 0.020142868 -0.008493442 -0.021246336 -0.018918386 -0.026955519 0.024927156
-0.02585038 0.01738436 0.033505432 0.0030702935 -0.0317374 0.029187478 0.039631218 0.002684093

features.8.bias f4 [128]
00000000: 956e ddbc 12be 363d c26a 08bd 48ad 1a3d
00000010: d6cb 963b d253 21bd 3edf 893d 49e7 833d
00000020: 60a4 e53c a70f a4bd 1ed5 463d a70f 9ebc
00000030: d3e4 69bd 99f5 263d aa20 c23c 3445 7bb9
00000040: ba9f 81bd 18cd 713d 6799 163d 6cdb 103d
00000050: 7b76 e63c d122 b93c c6eb 67bd cf1a 5a3d
00000060: 9c69 16bc dbd9 ad3c e15d 473d fc5f cd3b
00000070: 6c30 093d 72c7 413d 2985 28bc eef1 cb3c
00000080: 3822 c73c bbd5 563d 5712 8a3c e47c 45bd
00000090: 0cb5 62bd 48f7 b2bd 8d10 69bd 3e6c 1fbd
000000a0: 220f 9a3c 999b 093d 7898 8bbd 219a 25bc
000000b0: 9cd7 d13c b5d5 41bd 574b de3c 7819 08bc
000000c0: aeb5 31bc 2380 903d 72c3 32bd 45f3 b6bd
000000d0: 42f2 30bd 19aa d03c c02a 0abd 0370 f63c
000000e0: 739f 70bd 700d 4a3d 1e2d 9c3d 5580 03bd
000000f0: 1ca9 bb3b 2727 8a3d 9dbe a53c 5717 ed3c
00000100: 2f92 553d 1183 c83c c057 74bc 324e 053d
00000110: de12 2d3d 2345 10bd 6f70 2c3b 46e7 963c
00000120: 0f61 913a c50f 28bd 4596 c43c e79a 5bbd
00000130: a06c 38bd 8279 94bc 575f 15bd 7d7b 223d
00000140: 93e5 353c c001 0d3d 49ca d8bc 2f02 2a3d
00000150: 9f44 4e3d 65c9 55bd d079 413d 35a1 9c3d
00000160: 1984 01bd 9c88 0d3d 9209 193d 2501 8ebc
00000170: 0e81 63bd ca44 393c f2f0 20bc bd67 1f3d
00000180: 0964 b5bc 7333 e73a b5d5 5cbc 7b34 8e3d
00000190: a8e9 493d 2077 423d a6be 2ebc 7a31 82bd
000001a0: 3cb8 263d 4beb 8fbd 5013 07bd 9cbc aebc
000001b0: ca5a 03bd 488a 043c 0d47 07bd 1e98 09bd
000001c0: 09b6 bdbc af79 89bc cca2 f5bb 5f6a efbb
000001d0: 53b3 aebd 4c74 223c ba6a e1bc 5b8e a43c
000001e0: ceb8 2bbd 7923 f0bb 84a0 ab3c 3b28 5d3d
000001f0: 4a28 7abb 8222 6e3d 7bec 7bbd ed3c 763c
-0.027030269 0.04461486 -0.033304937 0.03776291 0.004601936 -0.039386578 0.06732033 0.064405985
0.028032482 -0.08010798 0.04854309 -0.019294573 -0.05710299 0.040761564 0.023697216 -0.00023963006
-0.063292935 0.059033483 0.03676739 0.035365507 0.028132668 0.02259961 -0.056621335 0.053248223
-0.009180453 0.021222046 0.048673514 0.0062675457 0.033493444 0.047309346 -0.010285654 0.024895635
0.024308309 0.052449923 0.016854448 -0.048214808 -0.05534844 -0.087385714 -0.05690055 -0.038921587
0.018806044 0.033595655 -0.068161905 -0.010107548 0.025615506 -0.047322948 0.027135534 -0.0083068535
-0.0108465385 0.0705569 -0.043643422 -0.08933119 -0.043199785 0.025471734 -0.033732176 0.030082708
-0.058745813 0.04932922 0.07625793 -0.03210481 0.0057269465 0.06745749 0.020232493 0.028941793
0.052141365 0.02447656 -0.014913499 0.032545276 0.04225432 -0.035222184 0.0026312133 0.018420827
0.0011091548 -0.041030664 0.023997435 -0.053614523 -0.045025468 -0.018124346 -0.036467876 0.03966855
0.011102098 0.034425497 -0.026463645 0.04150599 0.05035841 -0.052194018 0.04723531 0.07647935
-0.03162012 0.03455411 0.037362643 -0.01733453 -0.055542998 0.0113079045 -0.009823071 0.038917292
-0.022142427 0.0017639234 -0.013478686 0.069436036 0.049295098 0.047476888 -0.010665571 -0.06357093
0.040703043 -0.070273004 -0.032977402 -0.02133017 -0.032069005 0.008089609 -0.033026744 -0.033592336
-0.02315809 -0.016781656 -0.0074962135 -0.0073063816 -0.08530297 0.009915423 -0.027516712 0.020087412
-0.04192429 -0.0073284474 0.020950563 0.053993445 -0.0038170987 0.058138378 -0.061504822 0.015029174

features.9.weight f4 [128]
00000000: 5b60 703f 9344 6e3f 6f2d 843f 6f77 6c3f
00000010: 49e7 7a3f ffaa 823f 2bb2 803f 084e 713f
00000020: 3435 603f 1d15 773f 6776 643f 1783 7d3f
00000030: ab62 7b3f 4fbe 6b3f e8b9 7f3f 9467 8b3f
00000040: 125f 863f aa1e 7c3f b904 843f 0ec4 763f
00000050: 05ee 803f f218 833f 4c6f 863f fbf6 6d3f
00000060: 7d9a 783f e940 763f e0b7 743f c1f4 7c3f
00000070: e68f 7e3f ba81 6d3f b25f 793f eb87 6a3f
00000080: b95b 7d3f f749 7a3f 8d4a 7e3f 4baf 803f
00000090: d2ac 613f a11f 7c3f 0457 6e3f 6102 833f
000000a0: cd9b 833f 99dd 803f d021 713f fab4 7f3f
000000b0: d121 843f 7fc8 763f 680b 863f 9b65 713f
000000c0: 9c0c 743f abab 793f d3b1 813f 9d9a 753f
000000d0: 55b6 843f 5fb5 843f 70ef 753f 309a 6b3f
000000e0: 0ebe 793f e4ed 833f bee1 863f 6879 6e3f
000000f0: 4079 6a3f 3cd1 813f 7975 803f 2c86 783f
00000100: 889c 733f a427 763f 571d 723f 72f4 793f
00000110: 839c 763f be48 6d3f 1d30 6c3f 69e6 793f
00000120: ce64 763f fad8 743f 76c4 7f3f ef69 843f
00000130: e9f4 753f 8b7c 7d3f 05fc 6d3f 2908 7f3f
00000140: 02ae 7a3f 9e6c 803f 3a08 833f 06c9 7a3f
00000150: c7b3 813f b449 7a3f 8f43 803f 59f9 7a3f
00000160: 99dc 623f 1a47 7a3f b20d 833f c425 743f
00000170: 07ef 7c3f 7ccc 7f3f 1443 7d3f d506 7d3f
00000180: 508f 873f a75f 773f ebe2 623f 0651 823f
00000190: e9ac 743f d78b 7b3f a634 7a3f 9418 6c3f
000001a0: 30d7 763f 13e9 7a3f e750 853f 5169 6a3f
000001b0: 289b 833f 5e1d 7f3f 09b2 663f 618f 823f
000001c0: e7d7 813f f768 7e3f eb1d 703f 7259 6e3f
000001d0: 54d2 843f ffe3 8c3f f76b 6d3f b3f2 733f
000001e0: 7335 803f d0e6 7c3f c574 7d3f 0564 833f
000001f0: c4fa 7c3f 6437 8d3f ff58 803f edef 7f3f
0.93897027 0.93073386 1.0326365 0.9236974 0.98009163 1.0208434 1.0054373 0.9425969
0.8758118 0.9651659 0.8924317 0.9902815 0.9819743 0.9208726 0.99893045 1.0890985
1.0497763 0.9848429 1.0313941 0.96392906 1.0072638 1.0241988 1.0502715 0.9295499
0.9711073 0.96192795 0.9559307 0.98810965 0.9943832 0.9277607 0.97411644 0.91613644
0.9896808 0.9776911 0.99332505 1.0053495 0.8815433 0.9848576 0.93101525 1.0235101
1.0281922 1.0067626 0.9419222 0.99885523 1.032282 0.9639968 1.0472231 0.9429566
0.9533174 0.9752757 1.0132393 0.95939046 1.0368143 1.036785 0.9606848 0.92032146
0.97555625 1.0306973 1.0537641 0.93154 0.9159126 1.0141978 1.003585 0.9707973
0.9516072 0.96154237 0.9457602 0.9763862 0.9633257 0.9268912 0.92260915 0.97617203
0.96247566 0.9564358 0.9990915 1.0344828 0.9607683 0.9901816 0.92962676 0.99621826
0.97921765 1.0033147 1.0236886 0.9796299 1.0132989 0.9776871 1.0020617 0.98036724
0.88617855 0.9776474 1.0238554 0.95370126 0.98802227 0.99921393 0.9893048 0.9883855
1.059061 0.9663033 0.886275 1.0180976 0.9557634 0.98260254 0.97736585 0.92225003
0.964221 0.98011893 1.0415314 0.9156695 1.0281725 0.99654186 0.9011541 1.0200006
1.0144013 0.99378914 0.9379565 0.9310523 1.0376687 1.1007079 0.92742866 0.95292205
1.0016311 0.9878969 0.990063 1.0264899 0.9882014 1.1032529 1.002716 0.9997547

features.9.bias f4 [128]
00000000: 1a57 40be b9e8 3ebd dfdd 243c 32da b5bd
00000010: 6c41 0cbd f72b 9bbd 6dee d43c 14ce 2ebd
00000020: 470a b2bd ed5d 5ebd 4bfc 23be 87cc 15be
00000030: 93ea 10be 8296 adbd a5af 4dbd 40b7 e8bc
00000040: 189a 28be 556c 40be 8377 20bd ca96 8bbc
00000050: bd5e 45bd 8a06 7fbc e0ca 13be 2493 18bd
00000060: 9777 6cbd 92ec 48bd a634 c0bd 177d d6bd
00000070: 2566 1dbe 690c 88bd 7a2c dfbd 01c7 c7bd
00000080: db24 1cbc 710e 05be b234 7abb b9a2 30bd
00000090: e002 0ebe 7d5d 1ebe c0fa b7bd f95a a83a
000000a0: 8a42 05bd 78b7 e7bd 308a 6dbd f5da 2abe
000000b0: 82ef fdbd 30eb e1bd 19b3 173c e555 80bd
000000c0: 79a9 aebd 8da1 04be e8b8 64bd 0adb e6bc
000000d0: 63df 49be 5e9d 53bd dd49 10be 9716 75bd
000000e0: 5892 ccbc c4aa 2dbd 3e92 913c 8aa9 9fbd
000000f0: d439 22be 4648 e2bb cc13 eebc 8878 ecbd
00000100: 9aaa e5bd 08ca acbd 1f93 cabd 37cb 65be
00000110: d60f 79bd 819f 54be 30fd 28be 1042 f0bc
00000120: f41f e2bd 84d1 f0bd 4e86 82be 8d24 29bc
00000130: 1efd 4ebd 6712 49be a0fe 23be 8e05 d0bb
00000140: a357 92bd 3a3d e93c 1312 04bd b24b 0abe
00000150: 49dd 99bc 8283 08bd b0ae 7cbd 5e46 85bd
00000160: 9fa8 b2bd 2ff6 99bd 9e83 4abd a1e0 0dbd
00000170: bd38 e2bc 04af 9ebc 899d 5abe b771 81bd
00000180: 823a 37be 98f3 74bd 2f43 36be c8fe 40be
00000190: c4ef 2fbd cb61 a7bd 4ffe 3ebd d093 27bd
000001a0: 47ac 4dbe 9967 c2bd c2b2 16be 5ae2 e0bd
000001b0: 4a4d 75be b690 3cbe e9e9 b2bd 7d8a 1abe
000001c0: dec6 20be a2fd 10be ae57 88bd 5471 3cbe
000001d0: 0a59 e93b bcbf 45bd 3bbf 30be 59ed 09be
000001e0: ada3 a6bd 2e16 1fbe 98ab 4abc 85a6 4abe
000001f0: 4ce6 1fbe ebce 3cbe 1a12 12bd df26 1cbe
-0.18783227 -0.04660866 0.010062664 -0.08879508 -0.03424208 -0.07576745 0.025992597 -0.042677
-0.086933665 -0.054288793 -0.16014211 -0.14628802 -0.14151983 -0.08475973 -0.050216336 -0.028407693
-0.16465032 -0.18791325 -0.039176475 -0.017039675 -0.048186053 -0.015565524 -0.1443286 -0.0372497
-0.057731237 -0.049053736 -0.09385042 -0.10473078 -0.15370996 -0.06642992 -0.10897155 -0.09754754
-0.009530271 -0.1299379 -0.0038178382 -0.043123934 -0.13868284 -0.1546535 -0.08983374 0.0012844495
-0.03253416 -0.11314291 -0.057993114 -0.16685088 -0.12399198 -0.110311866 0.009259009 -0.06266383
-0.08528418 -0.12952252 -0.055840403 -0.028180618 -0.19714122 -0.05166375 -0.14090677 -0.059835996
-0.024972126 -0.042399183 0.017769929 -0.07796009 -0.15842372 -0.0069055883 -0.029062174 -0.11546427
-0.1121418 -0.08436972 -0.09891342 -0.22440802 -0.060806118 -0.20763971 -0.16502833 -0.029328376
-0.11041251 -0.11758712 -0.2549309 -0.010323656 -0.05053436 -0.19635926 -0.160151 -0.0063483184
-0.07145622 0.028471578 -0.0322438 -0.13505438 -0.018782275 -0.03332854 -0.061690032 -0.06507562
-0.08723568 -0.07517659 -0.049441926 -0.03463805 -0.027614946 -0.019370563 -0.21349157 -0.063205175
-0.17893413 -0.05980262 -0.17799066 -0.18847191 -0.042953268 -0.081729494 -0.046629246 -0.04091245
-0.2008525 -0.09492416 -0.14716628 -0.10980673 -0.23955265 -0.18414578 -0.08736021 -0.15091892
-0.15700862 -0.14159253 -0.066573486 -0.18402606 0.00712121 -0.048278555 -0.17260449 -0.13469447
-0.081366874 -0.15535805 -0.012370013 -0.19790085 -0.15615195 -0.18438308 -0.035661794 -0.15249203

features.9.running_mean f4 [128]
00000000: bee9 a6bf 3bd9 f0be 1946 b3bf 2385 513f
00000010: 5c80 49bf aa13 74bf c44d c9be d818 86bf
00000020: bff5 aabf cab4 4bbf 3ec7 babf 8d77 e7be
00000030: 451e 53bf 52a8 94bf 750b 10bf d8cf 4cbf
00000040: 6825 97bf 61e6 32bf 097f 10bd 96d4 afbf
00000050: 8e53 97bf 7775 723e 6e4a 7dbf df8e 353d
00000060: ba95 9fbf b870 81bf 7a93 97bf e015 a4bf
00000070: 5cd9 1cbf b65f 83bf 1867 68bf 3820 873d
00000080: f8a9 15bf d3d9 74bd 67eb 96bb b891 c3bf
00000090: bb51 84bf f2ff 923c a371 c9bf ead1 e4bf
000000a0: 1ffc bdbf 0041 d4be 886d c0be ec26 9ebc
000000b0: 2604 11bf 572a 523d 0f18 48bf dae3 dcbf
000000c0: efaf 27bf 58bd 0f3f 1a59 7cbf 0b32 16bf
000000d0: ec7b 72bf 8cfe c4be 36c0 69be 80b2 10bf
000000e0: eb73 9abf 007f 35bf 7cfb aabf 19a6 58bf
000000f0: 1ae8 89bf 3f33 2abe 1e95 5cbf 6ca1 34bf
00000100: 100f 0c3e 7adc a83e 2198 a2bf 1a8d b83f
00000110: c11a 13bf e32e 7f3f 85c9 b93c f515 a73e
00000120: 905a 76be eee0 55be 8bfb c03e 9842 b9bf
00000130: e67c c8bf 7cf9 c3be 1203 703f 1ff1 58bf
00000140: 9e71 9fbf 0c85 e8bf cfc7 8fbf 8420 c03e
00000150: 92e4 95bf 3ad0 18bd bf58 47bf d0c3 fdbe
00000160: e043 ddbe 7033 8dbf 3770 d3be 7103 1bbf
00000170: 9eaa bbbf 80ba bbbf 9505 93bf a8df d9be
00000180: 0ab0 e3be 3de6 a4bf c440 90bf 0c2e 963f
00000190: bbfc c7bf 72a1 25bf 42f0 953e fd9b 34bf
000001a0: c496 3bbe f923 98bf 2ab6 41bf 41f5 75bf
000001b0: f6a3 dabe 0b5c cbbe 07a0 8a3e 082e 0dbf
000001c0: 9f08 1bbf ba05 8f3e 8e3a b6bf ebb9 8bbf
000001d0: 84f4 42be d82f e9be 5e33 2b3f 1af1 ac3f
000001e0: a9b0 bebe 589a 7c3f 4d72 d3be d660 25bf
000001f0: 287d 6cbf a437 29be c86f 44bf f14a 7e3d
-1.3040082 -0.47040734 -1.4005767 0.81843776 -0.78711486 -0.95342505 -0.39317143 -1.0476332
-1.3356246 -0.7957274 -1.4592054 -0.45208398 -0.8246806 -1.1613867 -0.5626748 -0.80004644
-1.180829 -0.6988278 -0.0352774 -1.3736751 -1.1822374 0.23677622 -0.98941696 0.044325706
-1.2467568 -1.0112524 -1.1841881 -1.2819176 -0.61269164 -1.0263584 -0.9078231 0.06597942
-0.58462477 -0.059778046 -0.004605699 -1.5278845 -1.0337442 0.01794431 -1.5737804 -1.7876561
-1.4842566 -0.4145584 -0.37583566 -0.019305669 -0.56646955 0.05130991 -0.7816171 -1.7257035
-0.6550283 0.5614829 -0.9857346 -0.5867011 -0.9472034 -0.38475454 -0.22827229 -0.5652237
-1.2066625 -0.7089691 -1.3357997 -0.84628445 -1.0773957 -0.16621111 -0.86165035 -0.7055881
0.13677621 0.3298071 -1.2702676 1.4418061 -0.574627 0.9968092 0.0226791 0.3263394
-0.24057984 -0.20886585 0.37691912 -1.4473448 -1.5663116 -0.3827628 0.93754685 -0.8474292
-1.2456548 -1.8165603 -1.1232852 0.37524807 -1.1710379 -0.037307955 -0.7786979 -0.49563456
-0.43215847 -1.1031322 -0.4129655 -0.60552126 -1.4661443 -1.466629 -1.1486079 -0.4255345
-0.44470245 -1.2882763 -1.1269765 1.1732802 -1.5624002 -0.6469947 0.29284865 -0.7055052
-0.18319231 -1.1885978 -0.75668585 -0.9607735 -0.42703217 -0.3971866 0.27075216 -0.55148363
-0.6056003 0.27934057 -1.423662 -1.0916113 -0.19038588 -0.45544314 0.66875255 1.3511078
-0.37244156 0.9867301 -0.41298142 -0.64600885 -0.92378473 -0.16525131 -0.76733065 0.06208319

features.9.running_var f4 [128]
00000000: 0f86 e53f 74eb 9d3f 3a7a ec3f fbad f33f
00000010: 2eac 673f b60b 543f 16e4 cb3f 474a d33f
00000020: bd1f aa3f 28a6 753f fb28 4040 7e54 3b3f
00000030: 58e1 e33f 9ad3 a33f 359f 4f3f 6798 833f
00000040: 0a14 0240 3805 d23f 4262 973f ad01 2b40
00000050: eba6 4f3f 9d2a a83f 2a0a 983f d6c1 2b3f
00000060: 4e19 b03f 2eda 8a3f c465 943f 86da 343f
00000070: 04c7 b53f b6c6 9a3f 335d 8e3f 0383 1f3f
00000080: 718e 463f c63c 903f a1b5 3d3f 1182 a23f
00000090: b3f9 d53f 1adb 3f3f 068d 2740 8485 0740
000000a0: 3909 b73f 0601 463f f446 833f 47b1 093f
000000b0: 3e20 653f b620 783f 4345 6d3f 5796 d13f
000000c0: cb86 733f f4ee 3d3f 7041 df3f 0fe0 ce3f
000000d0: 5afd c93f 61bc 2e3f 5457 8c3f 29bb 0340
000000e0: af19 d33f ab6d 453f ee31 b23f 4e45 913f
000000f0: a0a4 9c3f 8c87 693f 26d9 ad3f 8715 993f
00000100: ac31 543f 1e31 953f 19e2 0540 5fee 683f
00000110: 4b89 be3f 7802 543f 252a 0640 6ccd 583f
00000120: a018 313f af2d 6a3f 8cc0 823f ca51 813f
00000130: 4775 9f3f 9472 503f 4c77 ff3f 218a c53f
00000140: 5112 383f 0d82 0640 f8a9 8d3f 446c 6d3f
00000150: f493 2b40 f09f 543f 0844 8a3f e2c6 113f
00000160: 2ebc 2b3f 2a50 cc3f 5a13 733f ab91 0040
00000170: 3766 a53f b981 bc3f d969 f83f b4e1 603f
00000180: 32d3 853f f36e 6e3f 9d94 a93f aa77 fe3f
00000190: 2d1e c93f 1bb6 4a3f 5bed 3e3f 5b66 5c3f
000001a0: a82d 0d40 371b 943f 8494 873f 61ec 343f
000001b0: 5ad5 723f d2af 493f 166b 753f 749a 753f
000001c0: e1a9 833f c971 2c3f 0548 bf3f 5e9d 2e3f
000001d0: 048e b23f 1320 2f3f 2783 d33f 73c9 0440
000001e0: fb68 803f 11c6 3540 2265 943f 6bbf c03f
000001f0: 6e04 a63f 27b5 3c3f 20c7 133f ebe1 603f
1.7931536 1.233748 1.84748 1.903747 0.904971 0.8283037 1.5928981 1.6507043
1.3290936 0.9595666 3.0025012 0.731758 1.7803144 1.2798951 0.81102306 1.0280885
2.032473 1.6407843 1.1826861 2.6719773 0.8111407 1.3138005 1.1878102 0.67092645
1.3757722 1.0847833 1.1593556 0.7064594 1.420136 1.2091892 1.1122192 0.62309283
0.775611 1.1268547 0.7410527 1.2695943 1.6716827 0.749437 2.6179824 2.1175241
1.429969 0.7734531 1.0256028 0.5378613 0.8950232 0.9692491 0.9268381 1.6374005
0.9512755 0.7419274 1.7441845 1.6162127 1.5780442 0.68256193 1.096415 2.0582983
1.6492213 0.77120465 1.3921487 1.1349275 1.223774 0.91222453 1.3581893 1.1959695
0.82888293 1.1655614 2.091925 0.90988725 1.4885648 0.82816267 2.0963223 0.8468845
0.691782 0.9147596 1.0215011 1.0103085 1.2457665 0.8142483 1.9958282 1.5432779
0.7190295 2.1016877 1.1067495 0.92743325 2.6809053 0.83056545 1.0802011 0.56944096
0.67084014 1.5961964 0.94951403 2.0088909 1.2921818 1.4727088 1.9407302 0.87844396
1.0455077 0.93138045 1.3248478 1.9880269 1.5712334 0.7918412 0.74580926 0.8609368
2.2059116 1.1570805 1.0592198 0.70673186 0.948568 0.78783906 0.95866525 0.959388
1.0286218 0.6736112 1.4943854 0.68208873 1.394959 0.68408316 1.65244 2.0747955
1.0032037 2.840214 1.1593363 1.5058416 1.2970102 0.73713917 0.57725716 0.87844723
