experiment_testing/mz-testing/checkpoints/ptbxl/62hz/cnn1d/fold_1/last.pt (torch, 628765 bytes, 26 tensors)

features.0.weight f4 [32, 12, 7]
000000 d4 8e dc 3d ea c7 0c 3e d8 76 27 3d d4 f2 e5 3d
       0.1076943 0.13748136 0.040884823 0.112279564
000010 c0 3f 17 bd 55 b9 bb bc 6b 4f cd bd 06 48 c7 3d
       -0.03692603 -0.022915522 -0.100249134 0.09730534
000020 2c f9 01 3e f2 41 5f bd d6 22 c4 3d 6e 26 2a 3b
       0.12692708 -0.05450625 0.09576957 0.0025962847
000030 6e c0 ba 3c 5b 6a 3d bd ed 93 8e 3d e6 55 f6 bc
       0.022796836 -0.046244007 0.06961808 -0.030070256
000040 c2 d5 66 3d 74 9d d9 3b 89 18 49 bd ac af 16 bb
       0.0563562 0.0066410843 -0.049095664 -0.0022992892
000050 86 b6 87 bd 16 69 22 bd 06 b3 aa bd 8e da b2 3c
       -0.066266105 -0.039651 -0.08334927 0.02183273
000060 53 8e bb bd ef 18 9b bc 6b fd 2b 3d 34 90 5b 3b
       -0.091580056 -0.018932788 0.041989725 0.00335027
000070 59 00 4b bb 9c 10 c2 bd d3 07 0b 3e ca 0d a5 bd
       -0.003097555 -0.09475824 0.13577203 -0.08059271
000080 66 d1 bc 3d d1 39 56 3d 79 8d a2 bc 0e e1 af 3d
       0.09219627 0.05230123 -0.01984285 0.08587848
000090 20 6f 96 3c 07 8d ab 3d a3 cf 54 3c a8 90 04 bd
       0.018363535 0.08376508 0.012988958 -0.032364517
0000a0 de bd 08 3a b2 13 82 bd a1 4e 69 3d 9b 0b bf 3d
       0.00052162807 -0.06351413 0.056959752 0.093283854
0000b0 c0 6a 41 3d 5c 5f 70 bd d2 44 de 3c 89 c5 50 bc
       0.047220945 -0.05868469 0.027132425 -0.012742409
0000c0 6e 43 47 3d c5 08 56 bd 18 3a ea bd 8f 7c 32 bd
       0.04864829 -0.052254457 -0.11436862 -0.04357582
0000d0 0d 3c c0 bd ae 90 80 3d 7a 3a 10 bb 03 81 f3 3c
       -0.09386454 0.062775955 -0.002200751 0.029724604
0000e0 1c 7a 9c 3d b9 fc d5 3c 91 e6 e7 3d 16 97 45 bd
       0.07640478 0.026121484 0.11323274 -0.04823979
0000f0 38 6b 7c 3c b7 e3 7b bd 87 0f c2 3c d7 d9 69 bd
       0.015406422 -0.061496463 0.023689045 -0.057092514
000100 d0 b4 39 bc d8 07 73 bd 51 b7 99 3d 95 82 ae bd
       -0.011334613 -0.059333652 0.07505668 -0.08521
000110 c2 37 d7 bd e6 a0 fd bd 68 d1 c6 3d 39 8b 83 3b
       -0.10508682 -0.123842046 0.0970791 0.0040143994
000120 23 50 90 3d fa 1e da bd 89 c1 f6 bd ff db 0b be
       0.07046535 -0.106504396 -0.12048633 -0.1365814
000130 9c ea e9 bd 2d 61 24 3d ee 81 c5 3c 4f 0e 94 3d
       -0.11421701 0.040131737 0.024109807 0.07229292
000140 1d 76 81 bd a1 c4 aa bd 27 43 8a 3c 19 c5 c1 bd
       -0.063213564 -0.08338285 0.016877724 -0.094614215
000150 25 16 c5 3d a7 67 00 bc 8a 18 28 3d 27 43 fc bd
       0.09623364 -0.007837213 0.041039027 -0.12317496
000160 2e d8 db bd 36 58 69 bb 90 f6 86 3a c2 71 89 3b
       -0.107345924 -0.0035605556 0.001029687 0.004194469
000170 b5 be bc 3d b0 50 80 3d 12 bf f6 bd 75 e2 f0 bd
       0.09216062 0.0626539 -0.120481625 -0.11761943
000180 48 d2 67 3d c8 48 65 bd 18 5d 19 bd 15 05 e2 bd
       0.056597024 -0.055977613 -0.037442297 -0.110361256
000190 1e c6 a7 bd 9e 00 89 3c 2f 0e 9c bb 2f 41 54 bd
       -0.08192085 0.016723927 -0.004762433 -0.051819976
0001a0 94 21 bf 3c e4 e7 de bd 53 4b fc bd 2e 2e 49 bd
       0.023331441 -0.108840734 -0.123190545 -0.049116306
0001b0 0f 06 5f bd f8 c5 49 3b a4 c2 20 3e 84 f3 50 3d
       -0.054449137 0.0030788165 0.1569925 0.051013485
0001c0 81 50 3a 3d 7a 43 c5 bd e6 f1 69 bd 4d 1c 18 bd
       0.04548693 -0.09632011 -0.057115458 -0.037136365
0001d0 ec 7f b1 3c 8e 4a cd bd 09 cf a7 bd 01 25 66 bd
       0.021667443 -0.10023986 -0.08193786 -0.056187633
0001e0 42 af 41 3b 82 aa 6f bd f2 69 d7 bc 2b f1 aa bd
       0.0029553925 -0.05851222 -0.026295636 -0.083467804
0001f0 dc 6c 9d bd ee ca 69 bd db 9f 3a bd ed 9d d5 bd
       -0.07686779 -0.057078294 -0.045562606 -0.104305126
000200 9c dc 6a 3d c2 86 de bc aa 36 cb 3d cc 81 1e 3d
       0.057339296 -0.027163867 0.09922536 0.038698003
000210 87 ef c9 bd fd 9c 9b 3d d6 8e dd bc 93 37 62 bd
       -0.09860139 0.075983025 -0.027045649 -0.05522878
000220 8d 77 88 bd 6e 7b ed bd 92 c6 ec 3c e7 f2 46 bd
       -0.066634275 -0.11595808 0.02890328 -0.048571493
000230 e8 8f 88 3d 66 56 5b bd b1 c0 a1 3d 95 b4 29 bd
       0.06668073 -0.053549193 0.07898081 -0.041431982
000240 7e 5f 00 bc f4 53 c0 3c 6f 28 77 3d 32 d3 cc 3d
       -0.007835267 0.023477532 0.060341295 0.1000122
000250 ec c3 00 3e 08 27 cc bd 03 b0 12 3d e4 82 41 bd
       0.12574738 -0.09968382 0.03581239 -0.047243968
000260 f5 95 e8 bc 9b d8 bd bd 06 95 ae 3d d1 c6 9a bd
       -0.028391818 -0.0926983 0.08524518 -0.075574525
000270 c9 0c d1 3c f6 60 da 3c c8 f7 c7 3c 00 ad 79 bd
       0.025518792 0.026657563 0.024410143 -0.060956
000280 1f ce 98 3d 8e 41 16 3d c1 a1 a1 3c dc 39 e7 bd
       0.074611895 0.03668361 0.01973045 -0.11290333
000290 5b 1e 35 3d 26 01 df bc f2 e0 45 bd 91 91 c8 3d
       0.044218402 -0.027222227 -0.048310228 0.097933896
0002a0 73 5a ca 3c 66 d1 12 bd dd 1c 9c bc 95 de 97 3c
       0.024701333 -0.03584423 -0.019056732 0.018538753
0002b0 77 fd 80 3d 6c 08 6e bd 3a 66 99 bd 24 fa a5 bd
       0.062983446 -0.0581135 -0.07490201 -0.08104351
0002c0 cc 22 c3 bd 65 47 30 3d 47 9f d3 3d e3 d1 ac bd
       -0.09528121 0.043036837 0.10333114 -0.0843847
0002d0 3e 51 47 3b bf 9a 7f 3d 70 37 ea 3b fa 39 2e bd
       0.0030413414 0.062403437 0.007147722 -0.04253576
0002e0 a5 ab 26 3d 62 aa 85 3d 8f 22 46 3d 90 91 c6 bb
       0.040691037 0.065266386 0.0483728 -0.006059833
0002f0 f2 25 87 bc 9f a4 27 3d 2a 71 d8 bc 59 12 19 bd
       -0.016497586 0.04092848 -0.026421148 -0.037371013
000300 dd ea 72 3d b7 18 ab 3d b7 84 03 3d ce 8e b4 bc
       0.059306014 0.08354323 0.03210899 -0.02204075
000310 f7 e5 74 3c 9d 02 22 3b 54 7c 42 3d 09 13 1f 3d
       0.014947406 0.0024720796 0.04748185 0.038836513
000320 f7 01 be bd 60 a7 47 bd d2 a2 b2 3d 74 26 c6 3c
       -0.092777185 -0.048743606 0.08722462 0.024188258
000330 31 db 9e bb af 9b 60 bd 69 63 38 bd a8 f2 9e bd
       -0.004847907 -0.05483597 -0.04501668 -0.07761127
000340 45 84 a6 bc 61 99 8a 3d 55 b4 28 3c ac d0 5f 3c
       -0.020326743 0.06767536 0.010296901 0.013660591
000350 47 23 03 be b9 61 c5 bd e4 70 3f bd 83 7d 07 3e
       -0.12806426 -0.0963778 -0.04673852 0.13231473
000360 05 b8 63 3b 67 61 ff 3b 5a f5 b0 3d 07 2e 17 bd
       0.0034747135 0.0077935937 0.08640547 -0.03690913
000370 bd f0 97 bd 60 33 a9 3d 15 41 ff 3b ae b2 c7 bc
       -0.07418964 0.08261752 0.007789741 -0.024377193
000380 0b a8 6a bd 37 ff d2 3d 0e 4c b9 3d 2b 98 82 3d
       -0.057289165 0.103025846 0.090477094 0.0637668
000390 e3 07 99 bd a0 07 95 bd aa f2 d3 bd 63 78 f2 3d
       -0.074722074 -0.07276845 -0.10349019 0.11839368
0003a0 c3 cf 95 3d d7 fc ec 3d 2f 3a c0 3d 93 d9 15 3d
       0.07315018 0.11571663 0.09386098 0.036584448
0003b0 91 4e 07 3c d8 0b 58 bd 78 42 bc bd 29 54 d6 bd
       0.008258478 -0.05274567 -0.091923654 -0.10465271
0003c0 b2 fe e7 3c d2 33 3f bd 77 b3 51 bd 46 45 e6 bd
       0.02831969 -0.04668028 -0.05119654 -0.112436816
0003d0 b0 0c b3 bc 70 04 ef bd 35 d9 c7 bd bd 2d 02 3d
       -0.021856636 -0.11670768 -0.09758226 0.0317819
0003e0 35 17 c6 bc 97 2b 4c 3d 3d 5e ac bd df 61 b8 bd
       -0.024180988 0.049846258 -0.08416412 -0.090030424
0003f0 a6 01 1b 3b cf 57 b3 3b 85 ab c3 3c 2c c0 ce bd
       0.0023652106 0.005473114 0.023885498 -0.100952476

features.0.bias f4 [32]
000000 04 81 cb bd 3c f5 4f 3c 10 53 5d 3d f2 26 c9 3d
       -0.09936717 0.012692746 0.054034293 0.09821881
000010 b0 41 d9 3c 19 bb 31 bd b5 9a e7 3d 16 27 95 3c
       0.02652058 -0.04339132 0.11308805 0.018207114
000020 7e 09 5a 3d c7 52 4a bd 72 be 5c bb bd 94 89 bd
       0.05323171 -0.04939535 -0.003368285 -0.06717823
000030 05 2b de 3d e4 67 e8 3c b4 37 a8 bd e0 f7 2a 3c
       0.10848049 0.028369851 -0.082137495 0.010435075
000040 d1 1a 44 bd ac 4e 2f bb bc 26 ec 3c d0 46 cd bc
       -0.047877137 -0.0026749773 0.028827064 -0.02505818
000050 14 02 f2 3b 7d 6a 4f bd 0a 10 67 3c 9e 05 73 bd
       0.0073855016 -0.050638665 0.014102945 -0.05933153
000060 14 2e 70 3b 01 a5 f5 3d 15 8c d1 3d 89 f8 0c 3d
       0.0036648558 0.119943626 0.10231797 0.03441671
000070 26 23 e4 3d 9f 72 c4 3d dc 51 67 ba 0f 71 92 3c
       0.111395165 0.09592175 -0.00088241487 0.017876176

features.1.weight f4 [32]
000000 b1 4c 81 3f 76 6f 83 3f 43 87 7d 3f ec ab 7f 3f
       1.0101529 1.026839 0.9903452 0.99871707
000010 83 31 86 3f 3c 1d 85 3f 86 71 7e 3f e8 b3 7c 3f
       1.048386 1.0399547 0.99391973 0.98712015
000020 90 37 80 3f 9c 96 7e 3f 0f 9b 83 3f a5 3f 72 3f
       1.0016956 0.9944856 1.0281695 0.94628364
000030 90 f1 82 3f 23 71 7e 3f d0 84 7b 3f cf 68 80 3f
       1.0229969 0.9939138 0.9824953 1.0031985
000040 5d 06 81 3f b4 7f 77 3f 1f c2 7e 3f 21 4e 76 3f
       1.0080067 0.96679235 0.99514955 0.96212965
000050 60 91 6c 3f fc c4 7e 3f b5 18 84 3f d2 80 86 3f
       0.92409325 0.99519324 1.032004 1.0508063
000060 37 98 78 3f a9 c0 82 3f 46 ce 81 3f ae c9 7f 3f
       0.9710726 1.0215045 1.0141075 0.99917114
000070 5d 56 80 3f 32 0a 81 3f 73 2a 80 3f da 01 7d 3f
       1.0026356 1.0081236 1.0012954 0.9883095

features.1.bias f4 [32]
000000 6c 3e a8 3c 9a 6b 3a 3c 88 30 42 bd f4 9e 62 bc
       0.020537578 0.011378193 -0.047409564 -0.013831843
000010 23 0a ee 3d e7 5a 04 3d 3b d1 cd 3c f8 8e f7 bc
       0.11623027 0.032313254 0.025124183 -0.03021954
000020 83 3c 88 3c c5 06 3b bd 50 e3 a7 3d b6 e2 56 bc
       0.016630417 -0.045660753 0.08197653 -0.013115576
000030 7a 8c 98 3d c4 d3 fc 3d 2b 72 a3 3a 22 ef fc 3b
       0.07448669 0.123450786 0.0012469938 0.0077189365
000040 1a c6 ba 3c b1 5d 22 3d 6c 09 50 bc 16 36 23 bd
       0.02279954 0.039640132 -0.012697559 -0.039846502
000050 45 3d 93 bc bc a4 a6 3c ca f5 ed 3d dc ce aa 3d
       -0.017973552 0.020342223 0.11619146 0.083402365
000060 36 db 8b 3d b4 46 f7 3d 9b af 5c 3d cc 68 f5 3c
       0.068289205 0.120740324 0.053878408 0.029957198
000070 3f fc b3 3d 69 f5 ae 3c c9 cc 36 3d 41 2e 79 3c
       0.087883465 0.021357255 0.044628892 0.015208782

features.1.running_mean f4 [32]
000000 e4 3c cb bd fd 00 50 3c ab 2e 5d 3d 50 ef c8 3d
       -0.09923723 0.012695548 0.053999584 0.0981127
000010 78 e2 d8 3c 82 02 32 bd 9a a3 e7 3d 0f 3a 92 3c
       0.026475176 -0.043459423 0.113105014 0.01784995
000020 97 fc 59 3d 4a 69 4a bd 3c d2 5e bb 60 f9 89 bd
       0.053219404 -0.049416818 -0.0033999821 -0.06737018
000030 5c c9 dd 3d d0 26 ea 3c 74 57 a8 bd 70 aa 2c 3c
       0.10829422 0.02858296 -0.08219805 0.010538682
000040 e6 09 44 bd 75 c6 2b bb 1b 06 ed 3c 51 c7 cc bc
       -0.047861002 -0.002621082 0.028933575 -0.024997385
000050 1e 7d ee 3b 92 42 4f bd 45 4a 69 3c 59 dd 72 bd
       0.0072780987 -0.050600596 0.014238899 -0.059293125
000060 3f 85 72 3b 18 a6 f5 3d 5d c7 d1 3d c8 fd 0b 3d
       0.003700569 0.119945705 0.10243104 0.03417757
000070 f1 57 e4 3d 3a 22 c4 3d 90 54 72 ba c7 2f 93 3c
       0.11149586 0.09576841 -0.0009244168 0.017967118

features.1.running_var f4 [32]
000000 2b 64 93 3f 2e 6a 55 3f 46 82 1c 3f f9 93 61 3f
       1.1514944 0.8336514 0.6113628 0.88116413
000010 7c b6 70 3f bd 10 0c 3f 25 46 1f 3f ee 64 78 3f
       0.9402845 0.5471304 0.6221641 0.97029006
000020 d2 c4 a0 3e 55 5b d5 3e af 62 a4 3e 57 0e 6f 3f
       0.31400162 0.41671243 0.3210654 0.93381256
000030 a6 ee a2 3e c8 bd 0e 3f e5 de fd 3e dc 37 d9 3e
       0.318227 0.55758333 0.49584118 0.4242543
000040 65 bc f2 3e 8d c0 e9 3e 9a 80 81 3f 00 17 db 3e
       0.4740936 0.45654717 1.0117371 0.42790985
000050 74 08 0c 3f 8b 2a 66 3f 39 62 ae 3e 71 3d 0c 3f
       0.547004 0.89908665 0.34059313 0.5478125
000060 f0 3a 80 3e 0e 06 f1 3e d0 57 b0 3f 75 22 7c 3f
       0.25044966 0.47074932 1.3776798 0.9849008
000070 65 cf 24 3f da f9 b3 3e 5b 9d 1d 3f a3 1a 29 3f
       0.6437896 0.3515156 0.6156823 0.6605627

features.4.weight f4 [64, 32, 5]
000000 7a e3 07 3c 1c 11 ad 3d f3 8f 9c 3d e5 12 aa bc
       0.008293981 0.08450529 0.07644644 -0.020760963
000010 f5 10 11 bc 7d 0e f4 bc 1b ef 04 3d 5f 2d 9d bd
       -0.0088541405 -0.029792065 0.03245459 -0.076746695
000020 59 3f 23 3c 35 eb d1 bc 3a 43 bd ba 22 c1 bc 3c
       0.009963834 -0.02562485 -0.0014439591 0.023041312
000030 98 b2 65 bd 43 1b 53 3d 0d 22 b6 3c 50 86 ae bd
       -0.056078523 0.05153967 0.022233034 -0.08521712
000040 42 46 9d 3d 28 77 9a 3d 8c 0a 58 3d 27 bc d5 3b
       0.07679416 0.075422585 0.052744433 0.0065226736
000050 cd 4f 9c 3c 99 0b 18 bd e0 c9 ae bc 70 af d0 3c
       0.01908102 -0.037120435 -0.021336496 0.02547428
000060 29 96 0a 3d dd a4 13 3d 8f 68 a0 bd 2d 32 94 3d
       0.03383461 0.036045898 -0.07832443 0.07236133
000070 6e d9 12 bd 52 4a 90 3c 9e a5 8b 3d 69 c7 57 3d
       -0.03585189 0.017613564 0.06818698 0.052680407
000080 80 b3 88 3d 82 38 04 3d 97 aa 51 3d 90 22 19 bd
       0.06674862 0.032280453 0.051188078 -0.037386477
000090 fd b9 b6 3d 79 61 60 bc f4 4f 75 3d a9 53 7d bb
       0.08922193 -0.013695114 0.059890702 -0.0038654602
0000a0 28 87 a5 3d 79 4f a3 3d 06 7c 8a bd 16 24 57 3d
       0.0808242 0.079741426 -0.06761937 0.05252465
0000b0 3d 88 28 bd d2 ba 7d bd 49 18 4e bd 53 f1 18 3d
       -0.041145552 -0.061945744 -0.05031613 0.03733952
0000c0 11 39 00 bd 0f fc 13 3c 60 a6 5a bd 9c fa 5b 3d
       -0.031304423 0.009032263 -0.053381324 0.053705797
0000d0 0c 86 d7 bd 05 19 35 bc 3d b5 7a bd 6e cc 4c 3c
       -0.10523614 -0.011053328 -0.061208 0.012499912
0000e0 ed 9d c3 bc 80 ab 44 3d 7d fe 96 bc cb 60 d2 bc
       -0.023879016 0.048015118 -0.018431896 -0.02568092
0000f0 23 4f 66 bc d1 22 ef bc 8f b4 84 3d 20 b7 28 bd
       -0.014056954 -0.029191406 0.06479751 -0.041190267
000100 0d 79 e8 bb 4e cb 21 3d 53 9f 9b bd b5 c3 fa 3d
       -0.0070945085 0.039500527 -0.07598748 0.122443594
000110 a5 13 9c bc eb ab 40 bd 71 40 39 bd 8a ec f8 bc
       -0.019052336 -0.047038954 -0.04522747 -0.030386228
000120 f0 96 9f bc 39 3c 6b bd 59 1c 6b 3b 69 73 2f 3c
       -0.019481152 -0.05743048 0.003587505 0.010708668
000130 27 31 a2 3d 63 b2 89 3d 08 61 47 3d a2 01 80 bb
       0.07919531 0.06723478 0.04867652 -0.0039064446
000140 36 92 12 3d 16 09 a0 3d c6 f5 98 3d 35 a5 f7 bc
       0.03578397 0.07814233 0.074687526 -0.030230144
000150 4c 05 1d 3c f5 3d 72 bd df 10 03 3d 65 af 08 bb
       0.009583782 -0.059141118 0.03199851 -0.0020856496
000160 9a a2 60 3d 03 e7 83 3d c1 cd da 3c a0 24 37 bd
       0.05484257 0.06440546 0.02670944 -0.044712663
000170 e6 d7 a7 bd da 9b b3 3c 14 87 40 bc 5a 27 ba bc
       -0.08195476 0.021924902 -0.011750955 -0.022723842
000180 3a 41 87 3d 9c 2f 8a bb 15 a3 ee bb 7e da 8b 3d
       0.06604238 -0.0042171013 -0.0072826245 0.068287835
000190 a3 7b 31 3d 7b 8e 32 bd 96 9d 2a 3d 0f a5 52 3d
       0.0433308 -0.04359291 0.041654192 0.051426943
0001a0 90 4d 42 bd c0 58 f5 3c 32 b7 da 3c 92 4f 80 3c
       -0.04743725 0.029949546 0.026698682 0.015662942
0001b0 74 be a9 3d ad 79 c4 bd 1a 66 69 3d 5a e1 1a bd
       0.08288279 -0.0959352 0.056982137 -0.03781257
0001c0 06 ca ab bc 95 43 40 3d 24 4b 4a bd 6a 4b 02 3d
       -0.020970356 0.04693945 -0.049388066 0.0318102
0001d0 26 8c 7d 3d 77 a0 37 bd 7f 75 10 bd fd 11 df 3c
       0.061901234 -0.044830766 -0.035268303 0.027230257
0001e0 ab 8a 86 3d 56 25 ed bc 3a 37 28 3d be a8 75 3d
       0.065694176 -0.028948467 0.041068293 0.05997538
0001f0 a2 f2 ef 3c dc a2 89 bd db dc b5 3d 13 bf 3e 3d
       0.029290501 -0.06720516 0.088800155 0.04656894
000200 79 f4 95 3b 30 9f 83 3d 89 ad 87 bd 0a b0 6c 3c
       0.0045762626 0.06426847 -0.06624896 0.014446268
000210 48 33 d2 bc 46 0d 0a 3d 6c e0 f6 3c 4b 12 53 3d
       -0.025659218 0.033704065 0.03013631 0.051531117
000220 c6 54 5a 3d 11 05 8f bd 96 1c 01 bd b0 22 b4 bb
       0.053303503 -0.06983388 -0.031521402 -0.005497299
000230 a2 41 21 3c 37 ad 56 bd e6 66 0e 3e 88 2a cd 3c
       0.009842308 -0.052411284 0.1390644 0.025044695
000240 aa 6f 9f bd b9 92 ff 3c 93 03 f5 3c c4 47 44 bd
       -0.0778497 0.031197893 0.02990893 -0.047920004
000250 70 3e 75 3c 09 98 40 bd c8 b5 85 bb 74 6c 3c 3d
       0.0149685 -0.047019992 -0.004080508 0.046001866
000260 8c b8 30 3d 7f 8e 8a 3c d1 db 97 bd d7 3a c0 3c
       0.043144748 0.01691365 -0.074149735 0.023465557
000270 64 12 06 3d 9c b0 30 3d 03 f4 4b bb f8 45 ba 3c
       0.032732382 0.043137178 -0.0031120784 0.022738442
000280 ca 1a 79 bd 88 1d a7 bd e2 ab dd bd 3a 57 df bd
       -0.060816564 -0.081599295 -0.108238 -0.10905309
000290 a7 ce a0 bd 04 49 97 3d f4 98 e9 bb 92 eb be bd
       -0.07851916 0.073869735 -0.007128829 -0.09322275
0002a0 da 6c 7c bd 97 c6 e2 bc 91 44 60 bd 06 a5 b8 bc
       -0.061627246 -0.027682586 -0.05475289 -0.022539627
0002b0 75 4b 03 bd 27 3a 85 bc 73 43 dc 3c 46 66 f5 ba
       -0.032054383 -0.01626308 0.026887631 -0.0018722496
0002c0 c9 cb fc 3c 17 bd 42 3d 65 1c 46 3d d0 5d cc bc
       0.030858891 0.04754361 0.048366923 -0.024947077
0002d0 cd bb bb bc b8 dd 03 3d e8 64 e6 3a de 44 a9 3d
       -0.022916699 0.03219387 0.001757768 0.082650885
0002e0 5a 7b 0f 3d d5 be a9 bd f8 11 1a be 13 17 15 3b
       0.035029747 -0.082883514 -0.15045917 0.002274935
0002f0 28 47 86 3d e3 3e 53 3d cf 82 6e bd 53 38 79 3d
       0.06556541 0.051573645 -0.058230218 0.06084473
000300 d2 f0 3b 3d aa 4b 19 3c b8 c9 d1 bb 7d 1d e9 bc
       0.04588396 0.009356419 -0.0064022206 -0.028456444
000310 9e fe 6c bd 19 be 25 3d 23 96 1b 3d 3b 03 34 3d
       -0.05786001 0.040464494 0.03798498 0.043948393
000320 ce 3c b1 ba 79 a4 29 3d 97 33 5e 3d 26 d5 9a 3d
       -0.001352215 0.04141662 0.05424842 0.07560186
000330 3f ad e9 bc f4 6f 28 bd 38 8e 07 bc 36 5d e7 3c
       -0.028524993 -0.04112239 -0.008273654 0.028242689
000340 7b 40 e5 3c f8 1a 3f 3c 1a ef 34 bd b3 e6 47 bd
       0.027984848 0.011664145 -0.044173338 -0.048803996
000350 9a 04 d2 bc 4a e8 ec 3d fe 1e 5a bd eb cb 37 bd
       -0.02563696 0.11567743 -0.053252213 -0.044872206
000360 d3 c7 92 3d e3 2e 58 3b 05 85 e0 bc 7d 82 a9 bd
       0.0716702 0.003298693 -0.027407179 -0.08276842
000370 58 66 7a bd ff 8a 5a 3d f5 4b cf bd e7 a9 e8 3c
       -0.06113276 0.053355213 -0.101219095 0.028401328
000380 69 5a fa 3c 4d 94 69 3b 2c b3 59 bc 1e 66 1d 3d
       0.030560689 0.0035641373 -0.013287347 0.038427465
000390 b7 2c c9 3c 7b 29 5a 3d 6c d5 4c 3d 15 7f 60 bd
       0.024557455 0.053262215 0.050008222 -0.054808695
0003a0 3d 9e 23 3d 44 f9 e8 3c e5 b9 60 bd 98 6c 2c 3d
       0.03994583 0.028439172 -0.054864783 0.04209575
0003b0 09 62 f7 bc 81 c6 c2 bc 3e 76 2d 3d 5f 3e 9d bd
       -0.030198114 -0.023776295 0.042349093 -0.07677912
0003c0 90 72 4c bc 36 1b 53 bd fe bf 04 3d 95 50 98 3d
       -0.012478486 -0.051539622 0.03240966 0.07437245
0003d0 ba 6f 58 bd ec 7c 96 bd 6a 2d 9b bc 6f 6c 2a bd
       -0.052840926 -0.07348046 -0.018942554 -0.041607317
0003e0 a3 90 37 bd 51 b8 40 bd 5c 9e a2 3c ba 27 63 bd
       -0.04481567 -0.047050778 0.019850902 -0.055457808
0003f0 f3 5b 3b bc d0 ea 48 bd 9c 01 88 bd 42 03 30 bd
       -0.011435497 -0.04905206 -0.06640932 -0.042971857

features.4.bias f4 [64]
000000 a9 e4 83 3c e7 25 4e bd 06 ef 8e bc e9 16 9e bd
       0.016100245 -0.050329115 -0.01744796 -0.077192135
000010 2a bd 86 bc be 02 c5 3d a2 c5 90 3c ea 95 69 bc
       -0.016447622 0.09619664 0.017672364 -0.014256934
000020 e5 e9 3d 3d 8e fa 66 3d c6 72 84 3d 1e be 9e 3d
       0.046365637 0.05639129 0.06467204 0.07751106
000030 cd c0 78 bd 17 2f ad bd bf 16 07 bd 5c 4a 32 bd
       -0.060730744 -0.08456247 -0.032980677 -0.043527946
000040 f7 cb ea 3c 81 69 57 3d b4 aa c3 3d 89 de 88 3d
       0.028661711 0.05259085 0.095540434 0.0668307
000050 1a 21 83 3c 3c 34 44 3d a2 1a 9c 3c b7 ca 96 3d
       0.016006995 0.047901377 0.019055668 0.073628835
000060 68 04 90 bd a5 82 61 3b b2 65 23 3d 5b c4 9f 3c
       -0.070320904 0.0034410146 0.039891906 0.01950281
000070 f5 a9 2b bd b3 52 30 bd a8 88 9f 3c b3 4d fb bc
       -0.04191013 -0.043047618 0.019474342 -0.030676698
000080 a1 e7 56 bd a5 9e 4a bd 10 67 ea 3c a4 53 8c bd
       -0.052466992 -0.0494677 0.028613597 -0.06851891
000090 ea 78 13 3d 17 e5 1d bd aa 11 61 3d 27 8a 80 3c
       0.036003985 -0.038548555 0.054948486 0.015690876
0000a0 54 75 55 bb 38 54 11 3d e5 57 60 bb 4e 2a 23 3d
       -0.0032571154 0.035480708 -0.0034232077 0.039835267
0000b0 fe bd 4c bc 0f ea 8d bc 02 1a 4a bc f6 f6 eb bc
       -0.01249647 -0.017323522 -0.012335302 -0.028804284
0000c0 c0 24 02 3d 47 5d e0 3c d1 f7 f7 3c fd 42 a2 bc
       0.03177333 0.027388228 0.030269535 -0.019807333
0000d0 9c 40 81 3b 54 56 63 bc 86 ae ee bc df de a5 3c
       0.0039444696 -0.013875563 -0.029135954 0.020247875
0000e0 b5 0d 13 3d 3b 0f 20 bd 5c 49 81 3d 90 30 85 bd
       0.035901744 -0.039077025 0.0631282 -0.06503403
0000f0 1c fc df bc 96 b4 5a 3d bb 8c d2 bc 68 47 55 3d
       -0.027341895 0.053394876 -0.025701871 0.05207005

features.5.weight f4 [64]
000000 3f ec 69 3f ae 57 7f 3f ec 44 7a 3f cb a6 7b 3f
       0.9137611 0.99743164 0.97761416 0.9830138
000010 95 e7 7e 3f 2a db 81 3f 7d 58 77 3f 6d 02 7a 3f
       0.99572116 1.0145009 0.966194 0.9765995
000020 3d 30 7d 3f e4 96 78 3f 51 3b 82 3f 82 93 81 3f
       0.9890173 0.9710524 1.0174352 1.0123141
000030 6e f4 8c 3f fe 5d 71 3f c5 f6 7c 3f 83 1a 79 3f
       1.1012094 0.94284046 0.9881404 0.9730608
000040 9b 47 7c 3f ad 02 7b 3f 87 71 76 3f dd 5d 82 3f
       0.9854676 0.9805096 0.9626698 1.0184895
000050 53 94 85 3f 6a af 86 3f 13 f6 7d 3f eb 1b 78 3f
       1.043589 1.0522282 0.99203604 0.969176
000060 59 84 76 3f 05 c3 81 3f ef 25 82 3f e9 72 7d 3f
       0.96295696 1.013764 1.0167826 0.99003464
000070 6f a4 7b 3f 72 70 80 3f 21 6b 7e 3f 22 1c 8f 3f
       0.9829778 1.0034316 0.99382216 1.118046
000080 3b 2f 7f 3f 49 cd 86 3f 64 c9 84 3f 91 21 77 3f
       0.9968144 1.0531398 1.037396 0.96535593
000090 fc 12 82 3f 23 4c 6d 3f 57 eb 81 3f 4b eb 7e 3f
       1.0162044 0.926943 1.0149945 0.9957778
0000a0 5e ba 69 3f b1 54 81 3f 4f b8 80 3f 22 8c 74 3f
       0.913 1.0103971 1.0056247 0.95526326
0000b0 38 ed 80 3f 5a 64 77 3f 59 2e 84 3f 18 2a 84 3f
       1.0072393 0.966375 1.0326644 1.0325346
0000c0 fc 13 7d 3f 16 43 82 3f c5 36 82 3f 1b 5c 74 3f
       0.9885862 1.0176723 1.0172964 0.9545304
0000d0 3f 2f 77 3f 8b c0 82 3f 77 4e 75 3f c6 45 77 3f
       0.96556467 1.021501 0.9582285 0.9659084
0000e0 e7 64 7c 3f 91 15 83 3f 15 92 80 3f d3 0b 83 3f
       0.98591465 1.0240957 1.0044581 1.0237983
0000f0 34 48 7d 3f b2 0b 84 3f 9e 29 7a 3f f2 da 84 3f
       0.989383 1.0316069 0.9771975 1.0379317

features.5.bias f4 [64]
000000 7d 67 70 bd d5 2b 92 bd 94 f3 30 bc e6 fd 2c bc
       -0.058692444 -0.071372665 -0.010800261 -0.010558581
000010 68 d8 06 bd f5 4b 73 bc 97 5a e7 bc e2 e5 11 bd
       -0.032921225 -0.014849653 -0.028241439 -0.035619624
000020 f2 c2 84 bd 07 e1 2c bd d1 d5 f2 bc 84 94 7a 3d
       -0.06482495 -0.04220679 -0.029642971 0.06117679
000030 af 0c 5e 3d 59 2a a0 bd 01 e6 ec 3c 20 f1 0b 3c
       0.054211315 -0.07820577 0.028918268 0.008541375
000040 3a 61 f0 3b 54 96 67 bd 42 28 31 bd e0 7e a3 3c
       0.007335809 -0.05653985 -0.043251283 0.01995796
000050 af f2 76 bc 22 f0 1b 3d 7d e6 89 bd 3e 82 12 3c
       -0.015072509 0.038070805 -0.06733415 0.008942185
000060 bd 15 49 bd dc 24 9d bc 48 0e 55 3b b9 f9 d7 bc
       -0.049092997 -0.019182615 0.0032509733 -0.026364194
000070 f3 ac e2 b9 23 f5 47 bd 9e 29 d8 bd 63 4a ce bc
       -0.00043234936 -0.048817765 -0.10554813 -0.025181955
000080 15 67 03 3c 56 ff f1 bc b8 c0 4a bb 4e 4b 9c bc
       0.008020182 -0.029540699 -0.0030937623 -0.019078877
000090 b5 f7 05 bc a9 ed 85 bd 5b 0b 3c 3b ef db 11 bc
       -0.008176734 -0.06539471 0.0028693292 -0.008902534
0000a0 42 00 5e bd 88 e9 79 bc 56 a8 09 bd f7 af 2b bd
       -0.054199465 -0.015253432 -0.033607803 -0.04191586
0000b0 9c 77 c9 bc 1e 8b ae bd 88 62 a1 3d d4 59 59 bd
       -0.024593167 -0.08522628 0.078801215 -0.053064182
0000c0 4a 18 65 bd a0 6e 93 bc 67 83 da bc 85 d8 2d bc
       -0.055931367 -0.017997086 -0.026673986 -0.010610704
0000d0 e2 c6 57 3c 32 45 4a bc d6 82 aa bd 2e bd 94 bd
       0.013169976 -0.012345599 -0.08325736 -0.07262646
0000e0 ad 3e 88 3c a3 93 99 bc 1d af 13 bd f4 2f 05 bd
       0.016631449 -0.018747156 -0.036055673 -0.032516435
0000f0 43 f1 8b bc 69 b6 b9 bd 10 a7 5a bd 78 f3 88 3c
       -0.017082816 -0.09067995 -0.05338198 0.016717657

features.5.running_mean f4 [64]
000000 60 02 1b 3f 4e 8f 14 bf ef d9 98 be 1e 7f f6 be
       0.605505 -0.58031166 -0.2985377 -0.48143858
000010 5f 5c 8f bf f2 5f 81 bd 2b 1b fb be ee 49 a1 be
       -1.1200064 -0.06317128 -0.49044165 -0.31501716
000020 3e 58 e9 bc 96 f9 90 be 7f 97 11 bf 1c 58 d0 be
       -0.02848446 -0.2831542 -0.5687179 -0.40692222
000030 58 51 37 be 53 60 78 3e 83 5c d9 be 52 77 c1 bd
       -0.17902124 0.24255495 -0.42453393 -0.09446587
000040 07 c7 c7 be ef 2e 69 3e 9f 01 1c 3e 23 8a ff bd
       -0.39019033 0.2277181 0.15234993 -0.12477519
000050 62 fa 1b bf 50 8a 4f bf 3c 2b 28 be d6 2f f4 bd
       -0.6092893 -0.81070423 -0.16422743 -0.119231865
000060 d0 41 15 3f 02 08 a8 bd 40 b8 bd bc b3 1d 94 bd
       0.58303547 -0.08204652 -0.023159146 -0.07232227
000070 66 63 07 bf 48 15 13 bd 33 d8 7c be c3 70 ea be
       -0.52886045 -0.035908967 -0.24691848 -0.45789155
000080 f4 21 29 bf 99 5d 12 bf a6 9e 1f bf 95 b4 2f 3e
       -0.66067433 -0.5717407 -0.62351453 0.1715873
000090 09 0d 64 be 59 98 f6 bc 39 b6 be bd 95 7a 66 3e
       -0.22270598 -0.030101942 -0.093121 0.22507699
0000a0 68 c2 8a 3e 7a e4 e1 bd ec 94 2c 3e 2e 9a a5 3e
       0.27101445 -0.110299066 0.16853684 0.32344192
0000b0 b4 39 d4 3b 50 b5 d5 3c 21 3f 0f bf b0 0c 27 bf
       0.0064766053 0.026087433 -0.559557 -0.65253735
0000c0 22 bf ee 3d 48 6b e0 be 46 6f 52 b9 eb f3 0e bf
       0.116575494 -0.4383185 -0.00020068613 -0.5584094
0000d0 c8 b5 ea be 1e 67 48 bf 6a 65 56 be 97 fd 07 3e
       -0.45841813 -0.78282344 -0.20937124 0.1328033
0000e0 cc ae b3 be f1 da 94 bd 9a 2a e9 be 4a ee ab be
       -0.35094297 -0.07268322 -0.45540315 -0.33580238
0000f0 8d 3a 9a 3d 18 cd b0 bc 66 d0 74 bd 3e 53 9c be
       0.07530699 -0.021582171 -0.059769057 -0.3053226

features.5.running_var f4 [64]
000000 61 3c d3 3e e6 57 e5 3e d1 69 d6 3e b1 61 b6 3e
       0.41257003 0.44793624 0.41877607 0.35621408
000010 24 20 ae 3f c4 14 54 3e bd 51 b2 3e 03 a0 83 3e
       1.3603559 0.20711046 0.34827986 0.25708017
000020 1a 37 b9 3e d5 c7 d9 3e 78 8a c2 3e 05 3c 00 3f
       0.36174852 0.42535272 0.37996268 0.5009158
000030 0f 53 37 3e 36 07 01 3f 3e 93 ea 3e b6 60 8e 3e
       0.17902778 0.5040163 0.45815462 0.2780816
000040 48 3d cb 3e a2 09 14 3f 19 65 b4 3e 64 56 9a 3e
       0.3969519 0.578272 0.3523338 0.30144036
000050 9f f6 06 3f f3 9c 6d 3f 82 5e ba 3e eb a1 9a 3e
       0.52720064 0.9281761 0.3640023 0.3020166
000060 26 d5 d8 3e 78 b3 5c 3e d4 4d f6 3e 81 78 51 3e
       0.4235012 0.21552837 0.48106253 0.20456125
000070 8f 03 fc 3e da ef 0a 3f 84 00 37 3f 63 d7 de 3e
       0.49221465 0.54272234 0.7148516 0.43523702
000080 d4 30 26 3f f6 d9 ff 3e 43 16 52 3f fb 78 c4 3e
       0.64918256 0.49970978 0.8206522 0.3837355
000090 1a 30 fc 3e f4 de 10 3f 22 d6 b9 3e 63 66 00 3f
       0.4925545 0.565902 0.36296183 0.5015623
0000a0 56 25 04 3f fb 5c 69 3e b9 7c be 3e a0 a6 d8 3e
       0.5161947 0.22789375 0.3720453 0.42314625
0000b0 bb 52 81 3e 9c f6 17 3f 78 d6 2a 3f 8b f5 07 3f
       0.2525843 0.5936067 0.66733503 0.53109044
0000c0 34 46 ff 3e 52 d5 57 3e 8a c3 8b 3e 73 fa dc 3e
       0.49858248 0.21077469 0.27297622 0.43159828
0000d0 44 3d ae 3e e8 eb 26 3f ce 4c b9 3e 43 56 e8 3e
       0.34031117 0.65203714 0.3619141 0.45378312
0000e0 64 0c f0 3e 70 06 b7 3e 08 79 3b 3f e1 35 94 3e
       0.46884453 0.357471 0.73231554 0.28947356
0000f0 86 09 31 3e f1 00 17 3f 61 64 8d 3e b8 47 b9 3e
       0.17288789 0.5898581 0.27615646 0.3618753

features.8.weight f4 [128, 64, 5]
000000 a3 08 bd 39 8d ea 5b 3d a2 b1 23 bc 43 0d c5 bc
       0.00036055324 0.053690482 -0.009991081 -0.024054175
000010 f5 01 2c bd 3b de c2 3c a7 52 d6 ba d1 f1 5a 3c
       -0.041994054 0.023787608 -0.0016351537 0.013363318
000020 19 15 cf 3c 3b ea 84 bc 45 3d 3a bd 04 4e 66 3c
       0.025278615 -0.016224971 -0.045468587 0.014056686
000030 f3 9f 36 bd 95 8f c7 3c 5f 5f 39 3d 66 3b f3 3c
       -0.044586133 0.024360457 0.04525697 0.02969141
000040 d2 b2 1b 3d af 82 0c 3d e6 29 9f bc d8 2e 98 3c
       0.038012333 0.034304317 -0.019429158 0.018577024
000050 61 f7 87 3d 65 17 37 3c ea 2d b3 3c 2b c8 89 bd
       0.06638981 0.011175011 0.02187248 -0.06727632
000060 9c 70 1e bd 02 06 47 bc 8b 01 cc 3c 75 14 79 3d
       -0.03868161 -0.0121474285 0.02490308 0.060810525
000070 71 3e b7 bc 94 b7 93 bb 1d 5d 0e 3d c2 94 82 bc
       -0.022368642 -0.004507968 0.03475677 -0.015940074
000080 a9 e3 0c bb 18 80 2a bd f2 9f 2d 3b 61 42 9c 3c
       -0.0021498 -0.041626066 0.002649304 0.01907462
000090 50 88 92 3c 15 86 fd 3c b3 c7 4c 3d 51 ac 1c bc
       0.017887264 0.030947724 0.049995136 -0.009562568
0000a0 ac 47 f9 bc f8 0d 77 bc f4 13 0d bd 6e 73 fb 3b
       -0.030429684 -0.015079014 -0.034442857 0.0076736724
0000b0 52 b7 29 3d 06 c9 9e 3d 5b 6f cd bc c2 f0 a8 bc
       0.041434593 0.07753186 -0.025077512 -0.020622615
0000c0 55 6d 1b bc 64 97 3b 3d 5b 74 bf bc 1d 32 46 3d
       -0.009486516 0.045798674 -0.023370912 0.048387635
0000d0 43 fd b7 3c e9 65 9a 3d bf 55 61 b9 e0 c7 0b 3d
       0.022459632 0.07538969 -0.00021489615 0.034126163
0000e0 39 ed df 3c 3e ca ad 3c b8 cc 5f bd 2c 81 90 bd
       0.027334796 0.0212146 -0.054638594 -0.070558876
0000f0 a8 b5 62 3c 9a d4 46 bc 02 cc 45 3d af db 5d 3c
       0.013837256 -0.012135649 0.04829026 0.013541146
000100 b4 0a 9d b9 3c df 2f 3d bb 02 dc bc f0 0e cc bc
       -0.00029953348 0.042937502 -0.02685677 -0.024909467
000110 d5 88 69 bd b3 31 87 bd 84 1c 2e 3d 01 d6 33 3c
       -0.05701526 -0.06601276 0.042507663 0.0109763155
000120 8b 5f 8e 3d aa 21 31 bc 66 2b 5c bd 2d c7 df bc
       0.06951817 -0.010811249 -0.053752325 -0.027316654
000130 fd 04 48 bc f7 e1 54 bc f1 b0 bb 3c 9c 15 12 3d
       -0.012208221 -0.012993327 0.02291152 0.03566514
000140 0e 08 c8 3d ba 34 82 3c ca 6e 8d bc 56 62 3e bd
       0.09767161 0.015894283 -0.017264742 -0.0464805
000150 2c 61 73 3c b1 4f 05 3d b7 a0 78 3c 16 dc 46 bd
       0.014854711 0.032546703 0.015175036 -0.048549734
000160 b6 05 64 3b 1f 30 30 3c 42 07 be 3c 7c 9f 34 3c
       0.0034793443 0.01075366 0.02319682 0.011024352
000170 b1 2c 88 bc e3 3d a8 ba dd d0 9f ba f1 f0 e3 3c
       -0.016622873 -0.0012835826 -0.0012192983 0.02782485
000180 7e 43 e6 3c 57 24 60 3d 1a 0c 63 3d 2f 99 2d 3d
       0.028108355 0.054722156 0.055431463 0.042382415
000190 c3 25 e2 bd e3 27 86 bd e7 39 40 3d eb 01 84 3b
       -0.11042359 -0.065505765 0.04693022 0.004028549
0001a0 6f d6 e4 3c 3b 0f 0a 3d 49 28 53 bc d7 f6 dc 3b
       0.027934281 0.03370593 -0.012888023 0.006743293
0001b0 65 b4 19 bd bb c9 0f bb 56 18 f0 3c 5f 0d 19 3d
       -0.037525553 -0.002194031 0.02930848 0.037366267
0001c0 8e 9a 80 3d 4a 9c 1d bd a5 0c a4 3c 5e b3 50 3c
       0.06279479 -0.038479127 0.02002556 0.012738077
0001d0 35 5c 9b 3d ce 36 13 3d 0c d3 98 bb f4 28 fd 3c
       0.075859465 0.035940938 -0.0046638306 0.030903317
0001e0 f8 55 47 bd 80 6c 36 bb 26 a7 89 3a d8 23 67 bd
       -0.04866597 -0.0027835667 0.0010502085 -0.056430668
0001f0 34 f1 93 3c 6e 84 4b 3c 40 ef 5e 3d ca 84 69 bc
       0.01805935 0.01242171 0.054427385 -0.014252851
000200 0f fd 06 3d 12 e4 e6 3c a7 72 0d bd b4 9e 48 bd
       0.03295618 0.028184924 -0.03453317 -0.048979476
000210 d8 47 4a 3d 88 c1 9f 3d dd 48 6c 3d ae 90 88 3d
       0.04938492 0.07800585 0.057686675 0.066682205
000220 d8 f6 35 3d 08 3e 3a bb 06 83 36 bd 94 f1 36 3d
       0.04442486 -0.002841832 -0.044558547 0.04466398
000230 de 69 17 bc f4 98 33 3d 17 54 c8 bb cb 55 59 bb
       -0.009241549 0.04384704 -0.00611354 -0.003316271
000240 2b c6 5e bd 92 bb c3 bc 38 2a 83 bd 7a 32 8d 3d
       -0.054388206 -0.023893151 -0.06404537 0.06894393
000250 e3 0d e3 bb f1 6a 36 bd 8d bb 39 bc e7 e9 03 bd
       -0.0069291457 -0.04453558 -0.0113362195 -0.03220549
000260 c4 7e c7 3c 04 c2 8f 3d 33 49 00 3d 1a ff 66 bd
       0.024352439 0.070194274 0.03131981 -0.056395628
000270 96 72 d5 bc 8e 23 8b bc 5e 8c c5 bd ee 82 57 3c
       -0.026055615 -0.016984727 -0.096459135 0.013153775
000280 a8 5b 6a bd 9e c5 f5 3c 11 c0 ba 3b 18 12 ad 3c
       -0.057216316 0.030001458 0.0056991656 0.021126792
000290 68 05 7f 3c a4 2d 0c 3d 2e eb b9 3c 57 a5 08 3c
       0.015565254 0.034223214 0.02269515 0.008340201
0002a0 24 a0 aa bd da e2 ca 3c 58 c2 37 3d aa f0 73 3d
       -0.08331326 0.024766374 0.044863075 0.059555687
0002b0 b9 f7 39 3d 4f 56 91 3c 7d bd 90 3c 47 5f 13 bc
       0.045402262 0.01774135 0.01766848 -0.008994884
0002c0 f3 5a ba 3b ba d6 84 3d 34 9b 8f bb 01 19 c5 3c
       0.0056871115 0.06486268 -0.0043825153 0.024059774
0002d0 4b 07 f4 3c fd f9 f5 bb 9b af a2 3a 25 4f 6f bd
       0.029788634 -0.0075066076 0.0012411954 -0.058425087
0002e0 4d 32 5b 3d 66 c6 e9 3c 28 43 5c 3d 42 47 b4 bc
       0.053514767 0.028536987 0.053774983 -0.022006635
0002f0 cf 64 41 bd e1 e1 17 3c 67 f4 32 3c 45 18 09 bd
       -0.04721528 0.009270162 0.010922528 -0.03347041
000300 c7 96 8a 3c 1d 12 15 bc 34 ba bd 3d 2e e9 16 bd
       0.0169176 -0.009098557 0.09264031 -0.03684347
000310 8f 7a bb 3c 36 8d 65 bc a0 52 93 3c ad dc 4d 3d
       0.022885589 -0.014010718 0.017983735 0.05025928
000320 76 ea ba 3c 38 96 10 3d 9d da ab bc 7c 45 47 bd
       0.022816878 0.03529951 -0.020978266 -0.04865025
000330 22 3e 98 bd 45 3a b2 3d 4c 89 57 ba 16 32 88 3c
       -0.07433726 0.0870252 -0.0008222058 0.016625445
000340 36 ef 43 bd cb 88 d8 3c f6 aa 4c bd 9b 36 0d bd
       -0.04783555 0.026432415 -0.04996773 -0.034475904
000350 91 e7 3a bc ac f9 f7 bc 98 a6 8c 3d 36 6e 02 bd
       -0.011407749 -0.03027042 0.06867713 -0.031843387
000360 ca e4 8d 3d aa 8a 0e bd 2e eb 83 bc 19 4e 18 3d
       0.06928404 -0.03480021 -0.016103353 0.037183855
000370 d4 ce 1a bd 2d 4f 89 3c be a3 f6 3b c3 09 36 3c
       -0.037794903 0.016761387 0.007526844 0.011110726
000380 9c 15 de 3c d2 f8 1c bd 2c 0a 66 3d e4 3a fd bc
       0.027109914 -0.03832323 0.056162044 -0.03091187
000390 88 03 45 3c 12 6a 66 bc 67 98 c8 3c d9 b0 ed b9
       0.012024768 -0.014063375 0.024486734 -0.00045335924
0003a0 70 56 a3 bb 35 47 7d bc 0b 8c 9f bd e7 91 b5 bc
       -0.0049846694 -0.015458872 -0.07790383 -0.022164298
0003b0 e3 1e 47 bb e0 f4 c8 bc 2b 46 83 bc 7b 0b b3 3a
       -0.00303834 -0.024530828 -0.01602467 0.0013660038
0003c0 4b 2c 6f bc ea a1 05 bd e1 71 2b bd 31 c8 22 3d
       -0.014597963 -0.032625116 -0.04185665 0.0397417
0003d0 10 e0 e6 3b ac 82 a8 3c c4 52 33 3c 53 f5 16 3d
       0.0070457533 0.020570122 0.010945026 0.036855053
0003e0 f3 12 74 bd 10 66 62 bd 90 22 4a 3c d1 ba 16 bb
       -0.059588384 -0.055273116 0.012337342 -0.0022999535
0003f0 88 6c 67 3d a8 2e ab bc cd f8 24 bb ce 77 29 3c
       0.056499988 -0.02089627 -0.002517271 0.010343505

features.8.bias f4 [128]
000000 bf e1 9d 3b d2 84 6a 3d a1 db b5 3a a6 8c 67 bc
       0.004818171 0.057255574 0.0013874659 -0.014132654
000010 0b bf 12 3d c3 f2 4d 3d 7a 99 1e bd 8b 78 b6 bb
       0.035826724 0.050280344 -0.038720585 -0.005568569
000020 b0 bc 5a 3d dc 83 23 3d f9 52 37 3d 45 a8 d6 3c
       0.053402603 0.039920673 0.044756863 0.026203284
000030 64 41 41 ba 7b 79 b9 bc c3 48 27 3d 69 c8 0e 3d
       -0.00073721097 -0.022640934 0.040840875 0.034859095
000040 2b b3 01 bc 80 cd b7 bb b2 c5 af 3c e2 c0 69 bc
       -0.007916252 -0.0056092143 0.021456573 -0.014267178
000050 90 95 e5 bc 82 7a bd bc ed 03 da bc a3 08 18 3b
       -0.028025419 -0.023129705 -0.0266132 0.0023198507
000060 d8 86 27 bd 58 0b be 3c b0 f7 29 3d 8e 70 f1 3c
       -0.04090008 0.023198768 0.04149598 0.029472616
000070 f2 3b 5b 3d 26 c5 27 bd 50 89 5f 3d e5 a1 42 bc
       0.053523965 -0.0409595 0.05457431 -0.011879419
000080 3e 0b 93 3c ad 52 91 bc 42 ec 4d 3d cc 27 1e 3d
       0.017949697 -0.017739618 0.05027414 0.038612172
000090 e3 27 97 bc a4 4e 4e bd 92 d5 43 3d e4 ae 4a bd
       -0.018451637 -0.050367966 0.0478111 -0.049483195
0000a0 09 e0 f0 3c ea 5d 49 bc 73 8c 62 bc 49 b3 66 3d
       0.029403703 -0.012290457 -0.013827431 0.056323323
0000b0 e2 ae 3c bd 28 92 ab 3a 43 1b 0f bc 64 e1 c1 3c
       -0.04606522 0.0013089823 -0.008734527 0.023667045
0000c0 40 e7 6a 3d 45 7b 22 39 f2 37 24 bd 85 6f 39 3d
       0.057349443 0.00015495445 -0.040092416 0.04527237
0000d0 45 db 57 bd 9a fd 6b bd b8 85 29 3d 6a b1 3a bd
       -0.052699346 -0.0576149 0.04138729 -0.04557935
0000e0 df eb ea 3c a4 29 b3 3b 29 fb f6 3b 9c c5 62 3d
       0.028676925 0.0054676104 0.007537265 0.055364236
0000f0 07 49 1d bd ef b4 42 3d 25 29 01 3c 37 6e 92 3c
       -0.038399722 0.047535833 0.007883345 0.01787482
000100 47 d8 42 3d 5c ed 23 3c 8c 29 0c 3d 4c 03 12 bc
       0.04756954 0.010005321 0.03421931 -0.008911919
000110 6a 4e ae bc 17 e4 b1 3c 45 c0 34 bd ee b4 49 bc
       -0.021277625 0.021715207 -0.044128675 -0.012311203
000120 b2 03 16 3d 94 56 88 bc 5b 41 42 3d 26 44 70 bd
       0.036624618 -0.016642846 0.04742561 -0.05865874
000130 f7 43 9e 3b e3 1f cc 3c a0 25 46 bd 84 40 8b 3c
       0.0048298794 0.024917549 -0.048375726 0.016998537
000140 65 d3 b2 3c 54 3e 5d bd 45 80 af bb 78 0e d2 bc
       0.021829316 -0.05401452 -0.005355867 -0.025641665
000150 76 79 ee bc 59 af 22 bd c0 72 24 bd ec 02 3d bc
       -0.029110651 -0.039718006 -0.040148497 -0.011536341
000160 e7 2f a0 bc a2 42 8d 3c 87 31 92 bc e8 27 a2 3c
       -0.019554092 0.017243687 -0.017845882 0.01979442
000170 fa bc 0a 3d 77 a2 1c bb 15 b7 e0 3c f3 1c 11 bc
       0.03387163 -0.0023900548 0.02743105 -0.008857
000180 a5 c9 22 3d e3 a6 de 3c 72 1a 62 3c c8 6b 39 bd
       0.039743084 0.027179187 0.01380025 -0.045268804
000190 cb 45 e9 bc 6a da 7e bc 4e 06 c7 3c 69 dc 3a 3c
       -0.028475663 -0.015555004 0.024294998 0.011405089
0001a0 9e 17 a2 3c a1 6b 08 3d da 2d 4b bd cd be 3b bd
       0.019786652 0.033305768 -0.049604274 -0.04583626
0001b0 66 8f 11 3c 27 45 f8 3c 9e 9d ea 3c 2d 47 aa 3c
       0.0088842865 0.030306412 0.02863961 0.020785892
0001c0 08 e0 2e bd 92 8b fc bc 08 4e 59 3c e8 b5 1e 3c
       -0.04269412 -0.030828271 0.013263233 0.0096869245
0001d0 83 10 fa bc d3 2a 0b 3d 9b 99 04 3c 98 c3 0f bb
       -0.030525452 0.033976387 0.008093263 -0.0021936651
0001e0 3c 7b 27 bb ad a7 7b 3d 8f 36 54 bd 06 93 9a bd
       -0.002555563 0.061439205 -0.051809844 -0.07547574
0001f0 40 b8 66 3c 4a 0a 6f bc 46 b9 e4 bc 8c 03 ef bb
       0.014082015 -0.014589855 -0.027920377 -0.007294124

features.9.weight f4 [128]
000000 9a f5 7a 3f 64 e3 89 3f 51 d8 71 3f 6a 12 82 3f
       0.9803101 1.0772519 0.944707 1.016187
000010 03 d7 8b 3f 20 6d 81 3f 74 51 78 3f 90 ae 73 3f
       1.0924991 1.0111427 0.9699929 0.95188236
000020 bc a9 81 3f fe 8f 7f 3f d5 16 82 3f db 1f 83 3f
       1.0129924 0.9982909 1.0163218 1.0244097
000030 5e a8 7f 3f e6 8f 7c 3f 18 1f 78 3f 65 35 6e 3f
       0.9986628 0.9865707 0.96922445 0.93050224
000040 d5 e2 74 3f 88 9b 76 3f b2 de 84 3f 50 cd 81 3f
       0.9565862 0.9633107 1.0380461 1.0140781
000050 a0 f4 69 3f a4 b9 72 3f 2e d7 71 3f 6b d8 85 3f
       0.91388893 0.94814515 0.94468963 1.045667
000060 50 95 85 3f 57 49 6f 3f 9c 44 7a 3f 60 f4 81 3f
       1.0436192 0.9347128 0.9776094 1.0152702
000070 84 89 71 3f 8e 6d 7f 3f df 7b 6a 3f 2f 82 83 3f
       0.9435046 0.9977654 0.9159526 1.0274104
000080 81 5e 85 3f db 0e 89 3f a5 3a 7f 3f c8 64 7f 3f
       1.0419465 1.0707659 0.9969886 0.99763155
000090 5b ff 84 3f 3c e4 70 3f df 20 76 3f c1 7a 81 3f
       1.0390428 0.9409826 0.9614391 1.0115587
0000a0 55 fc 78 3f 3b f7 89 3f 45 76 81 3f 67 e0 7b 3f
       0.9726003 1.0778574 1.0114218 0.98389286
0000b0 9f 87 7c 3f 02 18 74 3f 2d e7 78 3f 4a a8 82 3f
       0.9864444 0.95349133 0.97227746 1.0207608
0000c0 c9 08 7c 3f bd ed 7f 3f 54 27 81 3f 86 43 81 3f
       0.98450905 0.99972135 1.0090127 1.0098732
0000d0 a5 5f 81 3f 32 8a 7e 3f f3 a2 73 3f 4a d4 77 3f
       1.0107313 0.9942962 0.95170516 0.968083
0000e0 7a d2 84 3f 62 56 83 3f 00 0b 8c 3f 06 57 7b 3f
       1.0376732 1.0260737 1.0940857 0.9817966
0000f0 52 58 7b 3f 57 4b 79 3f 55 3b 7d 3f 90 07 82 3f
       0.9818164 0.97380584 0.9891866 1.0158558
000100 b2 1c 75 3f b5 85 87 3f 85 1d 81 3f 8b 89 71 3f
       0.9574691 1.0587679 1.0087134 0.943505
000110 93 8f 83 3f 3f dc 6f 3f e3 7c 7a 3f 93 a7 71 3f
       1.027819 0.93695444 0.9784681 0.9439632
000120 16 29 81 3f 81 58 88 3f ee 60 75 3f 8a 56 6f 3f
       1.0090663 1.0652009 0.9585103 0.93491423
000130 64 aa 7a 3f 09 0d 73 3f 72 2f 7b 3f 25 0c 85 3f
       0.97916245 0.94941765 0.9811927 1.0394331
000140 79 af 80 3f c8 ce 82 3f 90 06 7d 3f 20 e1 7a 3f
       1.005355 1.0219355 0.9883814 0.97999763
000150 83 e8 6c 3f 93 20 7c 3f 64 74 6b 3f f2 f3 7c 3f
       0.92542285 0.98487204 0.91974473 0.9880973
000160 ad 9f 5a 3f c6 f8 81 3f d9 0d 88 3f 57 60 87 3f
       0.85399896 1.0154045 1.0629226 1.0576276
000170 af 5d 7b 3f fd ab 77 3f 56 8d 7d 3f 2f 4e 7a 3f
       0.98189825 0.9674681 0.99043787 0.9777555
000180 e1 ac 7a 3f 93 cc 7c 3f 86 23 71 3f 96 d6 74 3f
       0.9792004 0.98749655 0.9419483 0.9563993
000190 43 49 73 3f 32 6a 78 3f 49 8f 7f 3f bd d1 6b 3f
       0.95033664 0.9703704 0.9982801 0.9211691
0001a0 ec 33 80 3f 87 d7 72 3f bc aa 75 3f 01 c4 85 3f
       1.0015845 0.9486012 0.95963645 1.0450441
0001b0 7f b1 82 3f 97 96 7b 3f 45 97 7e 3f f0 03 7c 3f
       1.0210418 0.98276657 0.9944957 0.9844351
0001c0 d2 ae 77 3f 1f 33 69 3f a9 71 81 3f c2 94 78 3f
       0.9675113 0.9109363 1.0112811 0.97101986
0001d0 23 22 76 3f 6f 53 82 3f 55 b9 82 3f d9 7b 7c 3f
       0.9614584 1.0181712 1.0212809 0.98626477
0001e0 79 61 7b 3f 59 3f 81 3f 75 19 84 3f fb 70 86 3f
       0.98195606 1.0097457 1.0320269 1.0503229
0001f0 d0 14 61 3f 90 0b 7a 3f 2c 5d 71 3f bb d9 78 3f
       0.8792238 0.9767389 0.94282794 0.9720723

features.9.bias f4 [128]
000000 1c 0e b5 bd c4 ff 49 bd d5 6d 85 bd 8a 6e 91 bc
       -0.08840582 -0.049316183 -0.065150894 -0.017752904
000010 c5 dc bc bd 13 c2 9c bd 20 0c 24 bd 21 7e 21 bd
       -0.09221796 -0.07654204 -0.040050626 -0.039426927
000020 80 9b 39 bd c9 b4 49 bd c1 c8 f4 bc f5 14 9b bc
       -0.045314312 -0.049244676 -0.029880883 -0.018930892
000030 96 9e 5a bd 50 23 a5 bd 6a 28 69 bd ea f1 94 bd
       -0.053373896 -0.08063376 -0.056923307 -0.07272704
000040 a8 b2 8f bd aa 4c 8d bd 75 9c 37 bc dd ff 93 bd
       -0.07016498 -0.06899388 -0.011206736 -0.072265364
000050 d6 b9 95 bd 66 ee 02 bd e5 74 77 bd d6 71 f8 bd
       -0.07310836 -0.031965636 -0.060414214 -0.121310875
000060 ae ec 35 3b cf 68 ab bc 90 42 ce bd 43 e2 9b bd
       0.002775948 -0.020924 -0.100712895 -0.076115154
000070 34 96 ee bc 23 2d 93 bc 64 2f 61 bd e8 b6 98 bd
       -0.029124357 -0.017965859 -0.054976836 -0.074567616
000080 60 3a 96 bc 26 4c 59 3b 5f 55 3d bd fb 3c da b9
       -0.018338382 0.003315696 -0.046223994 -0.00041625634
000090 d7 09 8f bd 56 71 9b bd 56 06 f5 bc 1f ba 20 3c
       -0.06984299 -0.075899765 -0.029910248 0.00981
0000a0 02 80 86 bd 94 10 68 bd ef ab 71 bd 50 10 21 bd
       -0.06567384 -0.056656435 -0.05900186 -0.039322197
0000b0 14 b0 3e 3b b1 39 97 bd d5 ad 00 be dc d0 92 bd
       0.002909665 -0.07384051 -0.12566312 -0.07168743
0000c0 bc eb 9b bd 7d 20 91 bd d2 e7 f7 bc cb 62 99 bd
       -0.07613322 -0.07086275 -0.030261908 -0.074895464
0000d0 c0 67 5c bd 74 fc 8b bd b8 b6 d1 bc 47 07 b4 bc
       -0.05380988 -0.06835261 -0.025599822 -0.021976126
0000e0 e3 d0 e7 bc 2c 79 25 bd 31 9f 68 bd 81 e3 91 bd
       -0.028297847 -0.04039876 -0.05679244 -0.07123471
0000f0 df 86 5f bd 98 30 31 bd 5f d3 af bd 68 a6 21 bd
       -0.054571982 -0.043259233 -0.08585238 -0.039465338
000100 7e ea c0 bd 5a b4 8a bd 1f 1a e6 bc bb 61 00 be
       -0.09419726 -0.067726806 -0.028088627 -0.12537281
000110 69 3b 57 bd 42 70 45 bd be 15 a5 bd 12 92 a7 bd
       -0.052546892 -0.04820276 -0.080607876 -0.081821576
000120 df b3 e7 bd 58 86 dd bc f1 4a b1 bc f4 f6 64 bd
       -0.113136046 -0.0270416 -0.02164218 -0.055899575
000130 76 93 38 bd fe a0 99 bd 72 ee a5 bd 2c 64 0c be
       -0.045062505 -0.0750141 -0.081021205 -0.13710088
000140 32 af da ba f9 23 a9 bd e5 f4 e3 bd 4b 8a 59 bd
       -0.0016684292 -0.08258814 -0.11130694 -0.053110402
000150 7b e8 d8 bd 66 70 f6 bd 15 82 19 bd e5 41 50 bd
       -0.10591217 -0.12033157 -0.03747757 -0.050844092
000160 76 a5 bc bd 1c 7e fc bc d8 e9 a8 bd 58 da c3 bc
       -0.09211247 -0.030821852 -0.08247727 -0.023907825
000170 19 0e 28 3c b9 c5 e4 bc 09 c3 a9 bd b5 6c 70 bd
       0.010257267 -0.027926313 -0.08289153 -0.05869742
000180 be 0c cd bd 40 8c 93 bd 80 a3 3d bd a2 a9 22 bd
       -0.10012196 -0.07204485 -0.046298504 -0.039712556
000190 a5 a3 06 bd 69 24 5b bd 64 f3 d8 bb 3e 4b 9e bd
       -0.032870907 -0.05350152 -0.0066208113 -0.07729195
0001a0 50 9d 2e be 2f 49 a8 bd 65 23 42 bd 58 67 41 bd
       -0.17052197 -0.08217084 -0.047397036 -0.047217697
0001b0 dd 2c 77 bd 76 c6 c4 bd 3f ed e6 bd 22 58 b3 bc
       -0.06034552 -0.09608166 -0.1127572 -0.021892611
0001c0 9c d0 18 bd 10 b9 8b bd 4d c3 75 3a ec fd 14 bd
       -0.03730832 -0.06822407 0.00093751104 -0.03637497
0001d0 62 68 74 bd b1 02 7e bd dc 86 7b bd fe 0b 2b bd
       -0.05966986 -0.062014285 -0.06140791 -0.041759484
0001e0 32 cb 7d bd db 11 2b bd f0 19 e7 bc cc bb f2 bc
       -0.06196136 -0.041765075 -0.02821061 -0.029630564
0001f0 a8 60 bc bd d1 d7 19 bd 59 49 87 bd 43 51 e5 bc
       -0.09198123 -0.037559334 -0.06605787 -0.02799285

features.9.running_mean f4 [128]
000000 63 27 19 3f 34 1e 91 bf de f9 95 be 85 23 22 3f
       0.59825724 -1.1337342 -0.29292196 0.6333545
000010 f3 1a c6 bf 0c 46 a8 bf dc e3 c0 bf a1 09 82 be
       -1.5476974 -1.3146377 -1.5069537 -0.2539797
000020 e1 25 18 3f 52 fc 88 3f a9 05 27 bf 41 83 67 3f
       0.594328 1.0702002 -0.6524301 0.9043465
000030 b7 c8 49 bf f8 4d 78 bf bc 9b 1d bf 1f 67 9b bf
       -0.7882189 -0.9699397 -0.61565757 -1.2140845
000040 bf 06 e8 3e 4f 31 20 bf 5e cc ed be ba fe 99 bf
       0.45317647 -0.6257524 -0.46444982 -1.2030861
000050 03 d1 d2 bd e8 fa 0f bf b0 5f 76 bf 2d 7e 0f bf
       -0.10293772 -0.5624223 -0.9623976 -0.56051904
000060 96 d5 50 bf cf 0b 6d 3f e0 ed 84 3e 1a 46 8e 3f
       -0.81575906 0.92596143 0.25962734 1.1115143
000070 5e 9e 5c be 25 3f fa 3d c6 35 96 3e 8c 2c 0b 3f
       -0.21544787 0.12219075 0.293379 0.5436485
000080 62 11 94 bf dc 81 fa be 6b 61 6d bf 27 20 52 be
       -1.1567805 -0.489272 -0.92726773 -0.20520078
000090 a1 f0 b8 3e 36 a0 98 3e d8 2d 69 bf 8a 4a cd bd
       0.36121085 0.2980973 -0.91085577 -0.10023983
0000a0 81 ee 3b be ca 7a a3 bf e4 58 be 3e de 89 15 3e
       -0.18352701 -1.2771847 0.37177193 0.14603373
0000b0 10 4a e7 3e 2b fe 19 bf 5c 8d 89 bd e8 fb 1b c0
       0.45173693 -0.60153455 -0.06716415 -2.4372501
0000c0 48 04 e2 be b6 62 b8 bf 28 e9 ea bf 28 cc 96 3e
       -0.4414389 -1.4405124 -1.8352404 0.29452634
0000d0 aa 30 1c 3f 9c 23 69 bf 8e 6b 5d bf 90 e8 16 bf
       0.61011755 -0.9106996 -0.8649224 -0.5894861
0000e0 51 cb be 3e 28 6f 60 bf 90 47 23 bf 2a 17 4f be
       0.37264493 -0.8766961 -0.6378107 -0.2022368
0000f0 b9 aa 5b bf 70 6d 5b bf f2 50 dd be 62 fa 03 3f
       -0.8580738 -0.85713863 -0.4322582 0.5155393
000100 41 98 41 be e8 cd ad bf 1b 2c e3 be d8 37 98 3e
       -0.18905737 -1.3578463 -0.44369587 0.29730105
000110 76 b1 bb bf 71 ff 06 bf 90 69 9c bf b3 c9 0e bf
       -1.4663532 -0.5273352 -1.2219715 -0.5577652
000120 37 e3 f0 3e 8b f9 e8 bd 04 5e 88 3e b0 b4 f3 bc
       0.4704835 -0.113757215 0.26634228 -0.029749244
000130 2b e3 99 be 88 e6 ae 3f 4d b9 56 3e 4a 21 8a bf
       -0.30056128 1.3664103 0.20969124 -1.0791409
000140 aa ae 04 be 36 18 7d bf c7 72 0d be 8e 4e ad be
       -0.12957254 -0.9886507 -0.13813315 -0.33848995
000150 64 06 ac 3f 26 45 8d be c7 96 d4 be de 13 08 bf
       1.343945 -0.2759182 -0.41521284 -0.53155315
000160 9d 01 37 3f 66 9e ab 3c be 1d 7f bf 25 ae d5 bf
       0.71486837 0.020949554 -0.9965476 -1.669377
000170 c2 84 1c bf e1 4e e4 3d d4 dc f0 3e fc f4 76 bf
       -0.6114007 0.111478575 0.47043478 -0.96467566
000180 e4 af 97 be 30 65 3b 3f 7a 28 20 bf 44 7b 28 3e
       -0.2962638 0.73201275 -0.6256176 0.16453272
000190 1b dd 19 bf f6 7c 73 bf 7c d7 54 bf 85 b3 14 3f
       -0.60103005 -0.9511255 -0.83141303 0.58086425
0001a0 06 f0 e3 be 7a 02 65 bc 0a 39 b0 bf 00 49 d0 bf
       -0.4451906 -0.013977641 -1.3767407 -1.6272278
0001b0 f7 56 a4 bf db ff a6 bf a5 b4 63 bf fc 23 05 3f
       -1.283904 -1.3046831 -0.88947517 0.5200803
0001c0 c0 53 84 bf 94 30 4c 3d 3b 75 e7 3e c2 83 33 be
       -1.0338058 0.049851015 0.45206627 -0.1753073
0001d0 bd 59 1a bf 85 a7 ef 3d b6 98 0f 3f 8f 51 6b bf
       -0.6029318 0.11701874 0.56092393 -0.91921324
0001e0 74 6f 02 3f b6 b8 ab be 81 88 e1 3e e1 8d eb be
       0.50951314 -0.3353936 0.44049457 -0.46006683
0001f0 4e 87 f0 3e 41 70 ed be b0 ad a6 3c 71 4d 3b bf
       0.4697823 -0.46374705 0.020346493 -0.7316504
