experiment_testing/mz-testing/checkpoints/ptbxl/250hz/cnn1d/fold_3/best.pt (torch, 628765 bytes, 26 tensors)

features.0.weight f4 [32, 12, 7]
0.049032908 -0.050486818 0.020430138 -0.0022189033 -0.014489284 -0.022750108 -0.09644773 0.03449884
-0.08612926 0.06701021 -0.08169553 -0.02090791 -0.049716093 -0.092856176 -0.055578977 0.0068300595
0.07895994 -0.010669382 0.09126892 -0.028914846 -0.0775419 0.06524179 -0.078912266 0.08240062
0.10338765 -0.019654827 0.104523055 -0.03961712 0.057554655 0.039187703 -0.051674977 0.047361124
-0.003545113 0.046830125 -0.06272418 0.055241045 0.030453788 0.0028789777 -0.054008488 0.04881903
0.12803102 -0.063120805 0.011883518 0.08031617 -0.024792083 0.0029067914 0.10412409 0.18919897
0.10861746 0.04590174 -0.048386347 0.04320574 0.052205365 0.042844653 -0.0641489 0.052247606
-0.02504255 -0.04000775 0.060201652 -0.067030415 0.07400695 -0.09529375 0.00456475 -0.11468922
-0.008215995 -0.09192368 -0.103921644 0.063775904 -0.06725162 -0.08413479 0.046236962 0.021182626
0.00037726585 0.087567545 -0.10812616 -0.08978013 -0.09464352 0.06309905 0.054732885 0.07358034
0.11142693 -0.04341126 0.028725127 -0.062459037 -0.055900734 0.08258285 -0.035920262 0.08388539
-0.075827554 0.04579343 0.09375073 -0.050103363 -0.051403936 0.043944743 -0.07943987 0.0058119437
0.014125329 -0.014973539 0.12342356 -0.09027954 0.09441853 -0.07931036 -0.029238049 -0.023516135
-0.08989629 0.026786847 0.032861475 0.023223089 0.09550045 -0.04176548 0.00054306455 0.09428422
-0.021017456 0.036471076 0.025019838 -0.07971057 0.025678545 0.08032228 -0.039100703 -0.0033011057
-0.08747407 0.03658889 -0.043594684 -0.06237935 0.100282215 0.10984722 -0.07791927 -0.09694555
-0.034291983 0.024664 -0.018682783 0.08418251 -0.075657934 0.05259197 -0.11830782 -0.007394913
-0.114742875 -0.13727657 -0.090050526 0.04577134 -0.08119945 0.07578892 -0.024268016 -0.02951643
-0.081437334 -0.08804971 -0.039950613 -0.028605387 -0.060976796 -0.037242398 -0.0053578275 -0.11219933
-0.00038833474 0.028593434 0.13262089 0.12473654 0.10030193 -0.047986094 0.028637804 -0.03373067
-0.06443352 0.12232618 -0.010651285 0.1269129 0.03034779 -0.014698509 0.031138415 -0.04328627
0.0425725 0.03335688 -0.115065515 0.034331 -0.13701938 -0.08435017 -0.1044495 -0.026268482
-0.051802862 0.076654725 0.09094487 0.024543561 0.037506003 0.047595344 -0.00069838465 -0.10664376
-0.09897615 -0.08616502 -0.073859975 -0.06896768 -0.09616455 0.054038893 -0.012730679 -0.062397406
-0.0485902 -0.015788954 -0.053082928 0.023077633 0.06401303 0.12501693 0.059276633 -0.06909008
0.10020271 -0.030281773 0.000593847 0.057350393 0.08334749 -0.006635361 -0.092403784 -0.045770265
-0.041347805 -0.07571393 0.08656168 0.06002078 0.034551423 -0.12076416 -0.037612446 -0.06427125
0.025567409 0.060807224 -0.12349764 -0.041758694 -0.048437454 -0.012859846 -0.1193034 0.013486418
-0.02197267 0.062276486 -0.07544182 0.00094999035 0.018450158 -0.013750084 0.03190079 -0.07956917
-0.012880558 0.0027236016 0.099207394 0.014526679 0.07853614 -0.054551523 0.023134934 -0.026092019
-0.01853411 -0.059824206 -0.051154014 0.09139483 0.024214415 -0.10215277 0.07066124 0.0796396
0.09560721 -0.08243673 0.09107171 -0.04020542 -0.010323919 0.07320959 0.016778644 -0.05763364
00000000: bbd6 483d 44cb 4ebd 1b5d a73c 056b 11bb
00000010: 7664 6dbc 6f5e babc 6386 c5bd a84e 0d3d
00000020: 8a64 b0bd a63c 893d fc4f a7bd 1147 abbc
00000030: 1aa3 4bbd 612b bebd c8a6 63bd b1ce df3b
00000040: c0b5 a13d a2ce 2ebc 33eb ba3d d4de ecbc
00000050: 4ace 9ebd 7d9d 853d c19c a1bd a8c1 a83d
00000060: e7bc d33d 2903 a1bc 2f10 d63d 9045 22bd
00000070: 6ebe 6b3d 4983 203d 24a9 53bd bdfd 413d
00000080: 2055 68bb f2d0 3f3d 8975 80bd 6f44 623d
00000090: 397a f93c 3bad 3c3b 0138 5dbd 77f6 473d
000000a0: 901a 033e 7b45 81bd 16b3 423c ce7c a43d
000000b0: c418 cbbc de7f 3e3b 033f d53d 60bd 413e
000000c0: d572 de3d 7703 3c3d c330 46bd 81f8 303d
000000d0: 4bd5 553d e07d 2f3d 8060 83bd 9601 563d
000000e0: 0926 cdbc 2bdf 23bd 0296 763d 3e47 89bd
000000f0: f590 973d 5f29 c3bd e693 953b 2fe2 eabd
00000100: 619c 06bc 7b42 bcbd dfd4 d4bd f19c 823d
00000110: 38bb 89bd dc4e acbd f862 3d3d 3087 ad3c
00000120: c4cb c539 9d56 b33d 4071 ddbd a5de b7bd
00000130: 76d4 c1bd 133a 813d 972f 603d 4ab1 963d
00000140: cd33 e43d 01d0 31bd f550 eb3c 0cd5 7fbd
00000150: 2bf8 64bd 3221 a93d 2021 13bd 1acc ab3d
00000160: 7a4b 9bbd e491 3b3d 6200 c03d 2f39 4dbd
00000170: ef8c 52bd 67ff 333d 5fb1 a2bd 1e72 be3b
00000180: ed6d 673c 9353 75bc 7ec5 fc3d 7be4 b8bd
00000190: 815e c13d 786d a2bd a284 efbc e9a4 c0bc
000001a0: 8c1b b8bd 1770 db3c c199 063d 593e be3c
000001b0: bd95 c33d 4812 2bbd 725c 0e3a 1618 c13d
000001c0: cd2c acbc b262 153d 67f6 cc3c 4c3f a3bd
000001d0: d05b d23c 0280 a43d 0f28 20bd 5d57 58bb
000001e0: 9b25 b3bd 3bde 153d 5790 32bd 7d81 7fbd
000001f0: c360 cd3d 94f7 e03d 2394 9fbd 638b c6bd
00000200: c075 0cbd 280c ca3c a30c 99bc e167 ac3d
00000210: 8cf2 9abd ad6a 573d 5f4b f2bd 0751 f2bb
00000220: 50fe eabd 3b92 0cbe 696c b8bd bb7a 3b3d
00000230: e64b a6bd 3937 9b3d b8cd c6bc 71cc f1bc
00000240: 9ec8 a6bd 6853 b4bd 41a3 23bd d855 eabc
00000250: cec2 79bd 7c8b 18bd b790 afbb c3c8 e5bd
00000260: 6899 cbb9 c73c ea3c c5cd 073e df75 ff3d
00000270: 196b cd3d 118d 44bd d499 ea3c 2c29 0abd
00000280: b9f5 83bd 2686 fa3d ba82 2ebc 75f5 013e
00000290: ee9b f83c 04d2 70bc fd15 ff3c f24c 31bd
000002a0: 8060 2e3d 39a1 083d 78a7 ebbd aa9e 0c3d
000002b0: cf4e 0cbe c8bf acbd 9fe9 d5bd 0031 d7bc
000002c0: 3d2f 54bd 27fd 9c3d 4e41 ba3d 940f c93c
000002d0: e59f 193d 56f3 423d cd13 37ba 0b68 dabd
000002e0: 02b4 cabd 4977 b0bd e643 97bd ed3e 8dbd
000002f0: ebf1 c4bd e357 5d3d 5694 50bc 6c94 7fbd
00000300: 8406 47bd d657 81bc 7c6d 59bd 4e0d bd3c
00000310: 4319 833d 7004 003e 0ecc 723d 1a7f 8dbd
00000320: 1437 cd3d 7b11 f8bc 66ac 1b3a 3fe8 6a3d
00000330: 17b2 aa3d 716d d9bb 323e bdbd 9a79 3bbd
00000340: 515c 29bd e80f 9bbd 4047 b13d 59d8 753d
00000350: cb85 0d3d 3353 f7bd 820f 1abd a5a0 83bd
00000360: be72 d13c ff10 793d 55ec fcbd 2a0b 2bbd
00000370: 5a66 46bd 1bb2 52bc 5755 f4bd 23f6 5c3c
00000380: 0700 b4bc a115 7f3d 3e81 9abd c608 793a
00000390: c924 973c 0848 61bc 67aa 023d 29f5 a2bd
000003a0: fa08 53bc 747e 323b 3f2d cb3d 4f01 6e3c
000003b0: 8ed7 a03d 6b71 5fbd 7985 bd3c eebe d5bc
000003c0: d9d4 97bc 3a0a 75bd df86 51bd 362d bb3d
000003d0: 4f5d c63c 7935 d1bd d7b6 903d 161a a33d
000003e0: b7cd c33d 97d4 a8bd ce83 ba3d 70ae 24bd
000003f0: a825 29bc e9ee 953d 5e73 893c 4011 6cbd

features.0.bias f4 [32]
0.042018645 -0.0801725 -0.03956015 -0.00022946335 0.014085568 0.09009246 -0.1590123 -0.061140437
-0.0927695 0.014379993 -0.004504816 0.08837385 -0.019757187 0.007844945 -0.09509968 -0.005416725
0.054065444 -0.09946052 -0.024835717 0.029304191 -0.0814111 -0.014869072 0.065369 0.0025489544
0.002504289 -0.11766298 -0.056566823 0.04215718 -0.06388567 -5.4868782e-05 -0.13099614 -0.04750791
00000000: be1b 2c3d 7b31 a4bd d309 22bd 199c 70b9
00000010: 27c7 663c 6582 b83d 1fd4 22be 656e 7abd
00000020: f0fd bdbd 109a 6b3c 239d 93bb 59fd b43d
00000030: d3d9 a1bc 1688 003c 9fc3 c2bd c87e b1bb
00000040: ba73 5d3d f5b1 cbbd 4674 cbbc 580f f03c
00000050: ddba a6bd 689d 73bc 2fe0 853d 5c0c 273b
00000060: ff1e 243b 4af9 f0bd 9db2 67bd 02ad 2c3d
00000070: 7dd6 82bd e822 66b8 da23 06be a797 42bd

features.1.weight f4 [32]
1.0333515 0.9925383 0.9936486 1.0094858 0.94159496 1.0017259 1.0340863 1.078423
1.0401368 0.9559372 0.9728778 0.9886879 1.014448 1.0038183 1.0113993 0.9998218
1.0255129 0.9890763 0.9899458 1.0442792 0.97126335 0.9778586 1.0184562 1.0144109
0.98786443 0.9802243 0.99400735 0.9892071 1.0045488 0.9613525 1.0155443 0.9396366
00000000: dd44 843f fd16 7e3f c15f 7e3f d536 813f
00000010: 5e0c 713f 8e38 803f f15c 843f c409 8a3f
00000020: 3423 853f 4db8 743f 850e 793f a61a 7d3f
00000030: 6fd9 813f 1e7d 803f 8875 813f 52f4 7f3f
00000040: 0244 833f 1b34 7d3f 176d 7d3f f1aa 853f
00000050: b7a4 783f f154 7a3f c65c 823f 37d8 813f
00000060: afe4 7c3f fbef 7a3f 4477 7e3f ad3c 7d3f
00000070: 0e95 803f 331b 763f 5bfd 813f 068c 703f

features.1.bias f4 [32]
-0.001074609 -0.061602805 -0.043458674 0.0057892064 0.012220653 -0.012235352 0.07237365 0.10011196
-0.035508998 0.023603212 0.022510372 0.005833007 0.11095401 0.052968014 -0.0012855266 0.1166558
0.052512173 0.028870024 0.048797812 0.07253027 -0.06887765 0.0054939515 0.1592127 0.040034685
-0.0077998177 -0.047944274 0.054979336 0.03486366 0.05737268 -0.017305328 0.054367583 -0.048283864
00000000: e5d9 8cba 3953 7cbd b901 32bd 62b3 bd3b
00000010: 2239 483c c976 48bc a338 943d 8007 cd3d
00000020: e271 11bd 865b c13c ac67 b83c cf22 bf3b
00000030: db3b e33d fdf4 583d 1d7f a8ba 3ce9 ee3d
00000040: 0117 573d d480 ec3c 37e0 473d c08a 943d
00000050: ba0f 8dbd 9b06 b43b a708 233e 69fb 233d
00000060: 9d95 ffbb 3761 44bd 0332 613d 32cd 0e3d
00000070: 9eff 6a3d e7c3 8dbc 8bb0 5e3d 4dc5 45bd

features.1.running_mean f4 [32]
0.041759193 -0.08038443 -0.039480776 -4.549729e-05 0.014230637 0.0901589 -0.15915866 -0.06114402
-0.09290461 0.014812669 -0.0046730353 0.08844844 -0.020669991 0.007817497 -0.095079295 -0.005357069
0.05402349 -0.099427804 -0.024952454 0.029260935 -0.081362695 -0.014875495 0.06761808 0.002423895
0.0023922888 -0.117896974 -0.05654776 0.042358074 -0.063748434 1.6204438e-05 -0.13201064 -0.047496326
00000000: b00b 2b3d 98a0 a4bd 98b6 21bd 58d4 3eb8
00000010: 9e27 693c 3ba5 b83d 7dfa 22be 2772 7abd
00000020: c644 bebd d6b0 723c 4320 99bb 7524 b53d
00000030: 1d54 a9bc f514 003c efb8 c2bd 5a8a afbb
00000040: bc47 5d3d cea0 cbbd 1769 ccbc a1b4 ef3c
00000050: 7ca1 a6bd 59b8 73bc 597b 8a3d 36da 1e3b
00000060: f2c7 1c3b f873 f1bd a09e 67bd a97f 2d3d
00000070: 8a8e 82bd c4ee 8737 cc2d 07be 828b 42bd

features.1.running_var f4 [32]
0.9874923 0.8502396 0.47741017 0.34759432 0.7617759 0.27160817 0.67468876 0.80849105
1.2984815 0.59059083 1.3464214 2.4672954 0.26551536 0.20128192 0.2405776 0.3931282
1.3833874 1.5767223 0.63716507 1.3732067 0.9538416 0.66078603 0.3930067 1.8612989
0.49089074 1.1183658 0.8054299 1.6501019 1.1371115 0.4015537 0.35873103 0.94986576
00000000: 4ccc 7c3f 4da9 593f 1b6f f43e e2f7 b13e
00000010: bf03 433f 3a10 8b3e 67b8 2c3f 45f9 4e3f
00000020: a434 a63f f630 173f 8957 ac3f 2be8 1d40
00000030: a1f1 873e d91c 4e3e f959 763e 1948 c93e
00000040: d712 b13f 09d2 c93f 401d 233f 3dc5 af3f
00000050: f72e 743f 4629 293f 2d38 c93e 0b3f ee3f
00000060: 0856 fb3e 9c26 8f3f a730 4e3f 8a36 d33f
00000070: df8c 913f 7298 cd3e 98ab b73e 672a 733f

features.4.weight f4 [64, 32, 5]
0.008867217 0.040906377 -0.011650598 -0.07043947 -0.07428136 -0.058542527 -0.07933172 -0.06807428
-0.027996304 0.06087295 0.04112389 0.012690497 0.064626336 0.012144844 0.044669386 -0.07520673
0.023321074 0.028951671 0.09314488 0.06445599 -0.0009625252 -0.057397917 0.012474905 0.065259084
0.004783695 0.055546507 0.06225207 0.06508847 0.014209121 0.06387846 0.0047488143 0.08680512
-0.0367561 0.037897114 0.051810447 0.028390313 -0.0642432 -0.0106432745 -0.023784025 -0.08639925
-0.018090008 -0.08337957 0.010413519 -0.09442377 0.008110108 0.034410607 0.08063403 0.09584496
0.081710435 0.082404464 0.0485479 0.017943533 0.03392118 0.028360397 0.08140355 -0.040237937
0.0179205 -0.037260473 -0.050327387 -0.016720798 0.02599288 0.040771086 0.057814296 -0.018615006
-0.053829234 -0.10370293 -0.00094521575 -0.0740947 -0.042563558 -0.05915625 -0.013503474 0.009475495
-0.030460222 -0.02937741 0.092507176 0.06285764 -0.032657873 0.08449827 0.06492731 0.06113018
-0.038892787 0.020100858 -0.08526189 -0.06590832 0.022387452 -0.033151 -0.0086950725 0.02822818
0.056102976 0.07978491 -0.035081252 0.105265036 0.017082503 -0.028776262 0.022208853 0.05126832
0.0064260396 0.008372867 -0.094533674 0.059433743 0.061452754 0.048454493 0.11309558 -0.008836451
-0.037978873 0.03659726 -0.05984808 -0.05990708 0.042688172 0.09827868 -0.021198597 0.0016561153
0.04644995 -0.007720387 0.02636108 -0.04294927 0.037703767 -0.03902298 0.052398723 0.018130608
0.03402484 -0.0060218954 0.051655587 -0.05207513 -0.010585414 0.024771398 -0.025107972 0.035765465
-0.017415075 0.013181799 0.05600233 0.035031993 0.0414567 0.02446404 0.035285972 -0.020913411
-0.00075313787 0.020070411 0.029403508 0.02926007 -0.05777275 -0.06053075 0.009472148 0.042189997
-0.019885542 0.05900351 0.09281878 -0.0385792 0.057603963 0.031327266 0.07046938 -0.037633143
0.0021961448 -0.096276715 0.044989526 0.10670498 0.024516892 0.056931645 0.019842135 0.0772829
0.06986692 0.031493608 -0.008609194 -0.005517605 0.06856482 -0.03440795 0.058736973 -0.023930795
0.05665922 -0.030379279 0.021501837 0.0060776607 0.025704453 0.006863708 0.06252464 0.010646318
0.06811726 -0.035918538 -0.014237178 -0.013908882 0.037972774 -0.08155561 0.060599886 -0.023978552
-0.079872414 -0.035369914 -0.05653133 0.04364609 -0.04885304 -0.019512042 -0.1323206 -0.048634946
0.031145083 -0.08400061 -0.0843814 -0.055671796 0.051613953 -0.04520594 -0.056698762 0.038140822
0.06294783 0.040270675 0.06338007 0.040414132 0.08231661 -0.02970131 -0.010148624 -0.07129447
0.057621356 0.042694684 0.02882546 0.042002063 0.0131095555 0.016430747 0.0054189297 -0.016123118
-0.05786156 -0.016107293 0.05434575 0.0858014 0.04528644 -0.033100225 -0.06824339 -0.011999476
-0.06528302 0.010495598 0.08533214 0.0015528871 -0.06517048 0.028599454 0.046513543 0.011079114
-0.016548773 -0.0228458 -0.0005631841 -0.14253272 -0.09122414 -0.041000772 -0.017692601 0.03759796
0.009652656 -0.047368906 -0.004563349 0.054072406 -0.08766276 -0.045048997 -0.0057809534 0.00036381476
0.0073894826 0.044518743 -0.052785974 0.053001598 0.0696769 -0.06981643 -0.037333224 -0.058935195
00000000: ce47 113c 728d 273d 26e2 3ebc 9242 90bd
00000010: d320 98bd 4aca 6fbd ab78 a2bd 876a 8bbd
00000020: 8158 e5bc ea55 793d 8671 283d cdeb 4f3c
00000030: d05a 843d 2bfb 463c 3ff7 363d fc05 9abd
00000040: d60b bf3c 0e2c ed3c bec2 be3d 8101 843d
00000050: f951 7cba 141a 6bbd 8b63 4c3c 8ea6 853d
00000060: 8bc0 9c3b bc84 633d 07fc 7e3d 1b4d 853d
00000070: 5fcd 683c b6d2 823d f19b 9b3b e2c6 b13d
00000080: 908d 16bd 013a 1b3d 3137 543d cd92 e83c
00000090: f091 83bd 2161 2ebc b7d6 c2bc 17f2 b0bd
000000a0: 7f31 94bc e8c2 aabd 779d 2a3c 4061 c1bd
000000b0: 42e0 043c 23f2 0c3d 7423 a53d 5d4a c43d
000000c0: cd57 a73d acc3 a83d 2ada 463d 51fe 923c
000000d0: eff0 0a3d 1054 e83c e8b6 a63d 89d0 24bd
000000e0: 03ce 923c 709e 18bd 1724 4ebd 0efa 88bc
000000f0: 05ef d43c 95ff 263d afce 6c3d 7f7e 98bc
00000100: 0b7c 5cbd 3462 d4bd 5bc8 77ba f6be 97bd
00000110: 2057 2ebd d34d 72bd ad3d 5dbc 1b3f 1b3c
00000120: b787 f9bc e5a8 f0bc 6774 bd3d 82bb 803d
00000130: 43c4 05bd 6e0d ad3d 9cf8 843d a463 7a3d
00000140: 0b4e 1fbd 8eaa a43c c99d aebd f1fa 86bd
00000150: e465 b73c 58c9 07bd c775 0ebc c93e e73c
00000160: 3ccc 653d 4566 a33d 5cb1 0fbd 3295 d73d
00000170: 9bf0 8b3c 32bc ebbc 57ef b53c bbfe 513d
00000180: 8791 d23b 592e 093c df9a c1bd cc70 733d
00000190: e2b5 7b3d 3878 463d a89e e73d c3c6 10bc
000001a0: bc8f 1bbd 02e7 153d 4323 75bd 2061 75bd
000001b0: cbd9 2e3d 5546 c93d aea8 adbc 0212 d93a
000001c0: 4e42 3e3d 4dfb fcbb 31f3 d73c 93eb 2fbd
000001d0: 446f 1a3d 8fd6 1fbd 0ba0 563d a486 943c
000001e0: a15d 0b3d 5253 c5bb cf94 533d bb4c 55bd
000001f0: 726e 2dbc 63ed ca3c 3caf cdbc cf7e 123d
00000200: 0faa 8ebc 79f8 573c b362 653d b57d 0f3d
00000210: 80ce 293d cf68 c83c 0688 103d 9a52 abbc
00000220: 3a6e 45ba b46a a43c a0df f03c d0b2 ef3c
00000230: 1ea3 6cbd 17ef 77bd 1131 1b3c 6bcf 2c3d
00000240: 01e7 a2bc aaad 713d c617 be3d 3905 1ebd
00000250: 22f2 6b3d 0551 003d 4052 903d 3625 1abd
00000260: 32ed 0f3b ba2c c5bd f046 383d 2488 da3d
00000270: a6d7 c83c 2831 693d f98b a23c 7f46 9e3d
00000280: 6316 8f3d 71ff 003d 940d 0dbc 07cd b4bb
00000290: b66b 8c3d 5aef 0cbd 2e96 703d 840a c4bc
000002a0: 8013 683d f7dd f8bc 9f24 b03c 1d27 c73b
000002b0: 2592 d23c f5e8 e03b eb0c 803d e56d 2e3c
000002c0: 1081 8b3d 511f 13bd 0d43 69bc 14e2 63bc
000002d0: 5789 1b3d a106 a7bd 9637 783d ab6e c4bc
000002e0: 2694 a3bd 0be0 10bd 658d 67bd 3ec6 323d
000002f0: 201a 48bd b8d7 9fbc 0d7f 07be 7035 47bd
00000300: f923 ff3c 8308 acbd 28d0 acbd 1c08 64bd
00000310: 2769 533d dd29 39bd f63c 68bd 8d39 1c3d
00000320: cbea 803d ddf2 243d 69cd 813d 4a89 253d
00000330: 9c95 a83d 2950 f3bc 6a46 26bc d602 92bd
00000340: 5f04 6c3d 9fe0 2e3d 5f23 ec3c 5b0a 2c3d
00000350: 76c9 563c c699 863c 4791 b13b a114 84bc
00000360: 3e00 6dbd 71f3 83bc a699 5e3d a5b8 af3d
00000370: 467e 393d 1a94 07bd 31c3 8bbd 7399 44bc
00000380: 1bb3 85bd bbf5 2b3c 9ec2 ae3d 3f8a cb3a
00000390: 1a78 85bd 6749 ea3c fc84 3e3d 2c85 353c
000003a0: 4b91 87bc 1d27 bbbc a5a2 13ba 19f4 11be
000003b0: b9d3 babd 6df0 27bd 13f0 90bc 5200 1a3d
000003c0: 2c26 1e3c e605 42bd 2588 95bb 077b 5d3d
000003d0: 8888 b3bd 4c85 38bd 276e bdbb 64be be39
000003e0: 7923 f23b 4959 363d 1b36 58bd 3418 593d
000003f0: c3b2 8e3d ebfb 8ebd b9ea 18bd 0866 71bd

features.4.bias f4 [64]
-0.021874085 0.010183155 -0.04248905 0.06504777 -0.062736444 0.06046755 0.0026095556 -0.030402116
0.05825812 0.060958445 -8.442387e-05 -0.1088718 0.03514712 0.070576824 0.06594903 -0.02416373
0.033804987 0.011431038 -0.10375646 -0.04552635 0.06347137 0.016819911 0.072092675 0.06377136
-0.04278454 -0.040279187 0.010494438 0.053756814 -0.038548395 -0.105590165 0.025674984 -0.052720297
-0.072591625 -0.043838516 0.030184679 -0.079766706 0.018140031 -0.078450635 -0.021825034 -0.05229272
-0.0469392 0.053949866 -0.061994784 -0.0056013567 -0.066214554 0.021128684 0.03055188 -0.008010179
-0.09015341 -0.026064336 0.03729787 0.044373713 0.060665123 -0.002707613 0.003486199 0.0583623
-0.045816503 0.09246869 -0.12221415 -0.027439194 0.017105049 -0.07658238 -0.0067761396 -0.03813146
00000000: 4831 b3bc 3fd7 263c 0009 2ebd c437 853d
00000010: f77b 80bd d2ac 773d 1405 2b3b dc0d f9bc
00000020: 11a0 6e3d 90af 793d b80c b1b8 2ef8 debd
00000030: 6df6 0f3d 958a 903d 4910 873d 04f3 c5bc
00000040: 1977 0a3d 4049 3b3c 447e d4bd d779 3abd
00000050: 47fd 813d e9c9 893c 53a5 933d 8f9a 823d
00000060: d83e 2fbd cafb 24bd ddf0 2b3c 1b30 5c3d
00000070: ece4 1dbd a83f d8bd 5854 d23c 3df1 57bd
00000080: ebaa 94bd 0490 33bd dc45 f73c ba5c a3bd
00000090: 679a 943c baaa a0bd 6aca b2bc e430 56bd
000000a0: 5243 40bd 89fa 5c3d 3eee 7dbd 968b b7bb
000000b0: 7f9b 87bd 1016 ad3c f047 fa3c 203d 03bc
000000c0: 5aa2 b8bd e084 d5bc a7c5 183d 36c1 353d
000000d0: fe7b 783d 3572 31bb b778 643b 4f0d 6f3d
000000e0: 16aa 3bbd 3960 bd3d 6a4b fabd 29c8 e0bc
000000f0: e31f 8c3c 39d7 9cbd 610a debb bc2f 1cbd

features.5.weight f4 [64]
0.9548775 1.0033035 1.0568324 0.95212793 0.95685345 1.013516 0.93306875 0.9832939
1.0282742 1.0919305 1.0393437 0.9383462 0.94380194 1.007199 0.9865633 0.9975334
1.0220315 0.97118896 1.044381 0.9391143 0.9943988 1.054406 1.0422573 0.99993193
1.0149779 1.0366683 1.0028349 1.0708358 0.9392514 1.029533 0.9795801 0.9830686
0.95634615 0.87253046 0.97405237 1.1049863 0.96359324 1.028061 0.98471 0.98929334
1.0104885 1.0460845 0.99237716 1.1543406 0.93620586 0.99303293 1.030064 1.0698388
0.97347057 0.99920344 0.98104185 1.0142212 1.0075634 1.0714417 1.0085732 1.0099156
0.9641245 1.0123656 0.9854135 0.9666299 1.0140522 0.9788232 1.0262961 0.99858904
00000000: da72 743f 406c 803f 4946 873f a8be 733f
00000010: 59f4 743f e4ba 813f 98dd 6e3f 26b9 7b3f
00000020: 7d9e 833f 61c4 8b3f 3709 853f 7537 703f
00000030: 019d 713f e6eb 803f 6a8f 7c3f 595e 7f3f
00000040: eed1 823f d79f 783f 47ae 853f cb69 703f
00000050: eb90 7e3f c7f6 863f b068 853f 8afb 7f3f
00000060: ccea 813f 8cb1 843f e55c 803f 2611 893f
00000070: c872 703f bdc7 833f c3c5 7a3f 62aa 7b3f
00000080: 1ad3 743f 285e 5f3f 7f5b 793f 3170 8d3f
00000090: 0cae 763f 8197 833f f415 7c3f 5442 7d3f
000000a0: b057 813f 19e6 853f 6e0c 7e3f 6fc1 933f
000000b0: 30ab 6f3f 6837 7e3f 23d9 833f 7af0 883f
000000c0: 5e35 793f cccb 7f3f 8f25 7b3f 00d2 813f
000000d0: d6f7 803f 0025 893f ed18 813f ea44 813f
000000e0: ddd0 763f 3295 813f 0f44 7c3f 0f75 773f
000000f0: 76cc 813f 2894 7a3f ac5d 833f 88a3 7f3f

features.5.bias f4 [64]
-0.066323616 0.008408537 -0.05419265 -0.07681177 0.008938633 0.030885493 -0.050696637 -0.0138733415
0.010238968 0.123768136 -0.017088233 -0.038432803 -0.07649563 0.030469071 0.0044404734 -0.022102833
-0.011600366 -0.02812261 -0.0071691982 -0.019733422 0.048227623 0.034290034 -0.030100908 0.030610444
-0.0073179794 0.00971464 -0.040769972 0.025237272 -0.043124612 -0.030311719 -0.0023358327 -0.023505278
-0.064026766 -0.055559766 0.01516731 0.044358637 0.014443263 -0.038987216 0.027452273 0.0012900601
-0.03667706 0.026750652 -0.039052337 0.114045516 -0.021804627 -0.0053910236 -0.020239417 -0.03159729
-0.022236744 0.011165 -0.03449613 0.013068469 0.06640821 0.021568397 -0.0057593193 0.039193556
-0.06184413 -0.0077464287 -0.061423894 -0.031274315 -0.005857168 -0.0017462815 0.019498559 -0.003573584
00000000: add4 87bd f6c3 093c 1df9 5dbd 7d4f 9dbd
00000010: 5873 123c 9303 fd3c 47a7 4fbd 034d 63bc
00000020: 58c1 273c 267a fd3d 9ffc 8bbc b76b 1dbd
00000030: bea9 9cbd 469a f93c 6481 913b 0011 b5bc
00000040: 760f 3ebc 6361 e6bc 98eb eabb fca7 a1bc
00000050: 548a 453d b573 0c3d 2e96 f6bc c1c2 fa3c
00000060: a9cb efbb 272a 1f3c 6afe 26bd 65be ce3c
00000070: 6fa3 30bd 4850 f8bc c514 19bb 248e c0bc
00000080: 7720 83bd a392 63bd 4f80 783c 67b1 353d
00000090: 70a3 6c3c 0fb1 1fbd 97e3 e03c 3c17 a93a
000000a0: af3a 16bd 2f24 db3c 58f5 1fbd b290 e93d
000000b0: 9e9f b2bc 2fa7 b0bb 22cd a5bc 296c 01bd
000000c0: d529 b6bc 67ed 363c d04b 0dbd 221d 563c
000000d0: 0701 883d 35b0 b03c acb8 bcbb 6c89 203d
000000e0: 4550 7dbd c1d5 fdbb 9f97 7bbd 7f19 00bd
000000f0: 7ded bfbb 7ce3 e4ba 71bb 9f3c ca32 6abb

features.5.running_mean f4 [64]
0.5119401 -0.2589022 -0.27482033 0.6462573 -0.52313733 -0.30213115 0.90856034 -0.37441802
-0.80215067 -0.37114596 0.496074 -0.7335373 -0.32859325 -0.9000734 -0.39356717 -0.33877376
-0.2443956 0.45354423 -0.31691933 -0.30020434 -0.30760854 -0.3122211 0.04601515 -0.31157133
-0.25402918 0.038317148 -0.12222499 -0.40031174 0.30783647 -0.34855944 0.62188077 -0.5605029
-0.26433104 0.22975498 -0.7766078 -0.8368323 -0.49809667 -0.7207264 -0.5859812 -0.4385344
-0.6302032 -0.125599 -0.5718348 -0.2789013 -0.10931046 -0.42336625 -0.4065972 -0.21519376
0.6952135 -0.6419615 0.58469594 -0.15637691 -0.36956957 -0.45996973 -0.4289336 -0.4046865
0.53315395 -0.344825 0.25277388 -0.49441946 -0.54792225 0.35362104 -0.21700285 -0.52028763
00000000: 820e 033f d48e 84be 40b5 8cbe 1e71 253f
00000010: 54ec 05bf efb0 9abe 6997 683f b8b3 bfbe
00000020: bf59 4dbf d806 bebe 69fd fd3e 1ac9 3bbf
00000030: 603d a8be 366b 66bf a381 c9be c173 adbe
00000040: d742 7abe f336 e83e 4043 a2be 62b4 99be
00000050: de7e 9dbe 72db 9fbe 627a 3c3d 4786 9fbe
00000060: 1d10 82be 71f2 1c3d 1851 fabd a9f5 ccbe
00000070: be9c 9d3e 6276 b2be 9433 1f3f 1e7d 0fbf
00000080: 6656 87be e444 6b3e c5cf 46bf a43a 56bf
00000090: 8706 ffbe 8681 38bf dd02 16bf 9587 e0be
000000a0: ff54 21bf 069d 00be c463 12bf 27cc 8ebe
000000b0: 2ade dfbd 76c3 d8be 822d d0be c15b 5cbe
000000c0: 83f9 313f 9757 24bf a2ae 153f 4521 20be
000000d0: 3938 bdbe 2781 ebbe 2f9d dbbe 1233 cfbe
000000e0: c77c 083f e78c b0be 946b 813e 8c24 fdbe
000000f0: a244 0cbf d10d b53e ff35 5ebe 9231 05bf

features.5.running_var f4 [64]
1.316903 0.5610315 0.19305931 0.6669705 0.5074567 0.6082241 0.7744652 0.23815183
0.5675522 0.81835854 0.31936178 1.3096617 0.38463637 0.77478373 1.4194314 0.2024526
0.26929307 0.54884964 0.33701414 0.2597218 0.88697493 0.5089233 0.6935163 0.7116329
0.38261923 0.17884944 0.42258707 0.3975027 0.97711796 0.32518262 0.27772817 0.51394737
0.31147474 1.0598457 1.114342 0.39967918 1.1145726 0.44119883 1.7364949 0.8719966
1.7439474 0.35449192 0.5126698 0.18536639 0.5290642 0.57803345 0.4149393 0.20394832
0.7762531 0.7107787 0.3449383 0.30338484 0.64605355 0.57329905 0.19283228 0.7816063
0.7131245 0.8292827 0.727917 0.7249848 0.55768067 0.3813234 0.43829182 1.4314518
00000000: 4790 a83f c39f 0f3f 57b1 453e 94be 2a3f
00000010: afe8 013f 93b4 1b3f 5a43 463f 13de 733e
00000020: 1a4b 113f f27f 513f 6383 a33e ffa2 a73f
00000030: 0fef c43e 3a58 463f eeaf b53f bc4f 4f3e
00000040: c8e0 893e 6981 0c3f 1e8d ac3e 41fa 843e
00000050: ca10 633f cc48 023f 498a 313f 932d 363f
00000060: abe6 c33e 4f24 373e 555d d83e 7985 cb3e
00000070: 6724 7a3f 567e a63e 6332 8e3e 0e92 033f
00000080: 9e79 9f3e 06a9 873f c2a2 8e3f c0a2 cc3e
00000090: 51aa 8e3f d0e4 e13e 7745 de3f 2b3b 5f3f
000000a0: ab39 df3f f77f b53e 543e 033f b0d0 3d3e
000000b0: c070 073f 00fa 133f ed72 d43e d4d7 503e
000000c0: 86b8 463f 98f5 353f c19b b03e 4255 9b3e
000000d0: c463 253f bac3 123f d375 453e 5a17 483f
000000e0: 548f 363f df4b 543f c558 3a3f 9b98 393f
000000f0: 29c4 0e3f d23c c33e c967 e03e d039 b73f

features.8.weight f4 [128, 64, 5]
-0.052442316 -0.00522104 0.04403924 0.0069383346 -0.039609406 0.010037992 -0.0063483026 -0.0025723854
0.05012568 -0.002779863 0.07919811 -0.033861548 -0.00690246 0.09109019 -0.0013407003 -0.021486979
-0.026278554 -0.016310237 -0.033982098 -0.044558935 0.016183628 0.0026409205 -0.07200296 0.005171143
-0.0710505 -0.0018890083 0.027242262 -0.032982316 -0.013467217 0.06498756 -0.06341287 -0.100242734
-0.030294698 -0.016952889 -0.006383897 0.019213615 -0.011800997 0.031046482 -0.029103545 -0.03567904
0.02572416 0.04087942 -0.064175844 -0.029300781 -0.04812351 0.012419455 -0.017244829 -0.0044898177
0.061327912 0.03700021 -0.022949379 0.022845654 0.043262105 0.030835375 0.032946818 -0.099939354
-0.05602195 -0.015603416 0.0045202896 0.013591659 0.016558133 -0.016774941 0.030447531 0.004955702
0.02891556 0.01306992 0.08083303 0.040376563 0.049344633 -0.06778314 -0.030511634 0.00067263714
-0.041773915 0.01254902 -0.04166524 0.04344335 -0.022153165 -0.018769123 0.025441134 -0.049113866
0.10425027 0.026451299 -0.074711375 -0.040514253 0.036732715 -0.045864817 -0.101664126 0.014252267
0.04641814 0.01490629 -0.01781394 0.07467893 0.09044443 -0.011861332 0.025660073 -0.054001063
-0.019012135 -0.009899935 0.029266765 0.038482107 -0.033119157 -0.079379104 -0.02790433 0.06864402
0.065302886 -0.0634669 -0.0038679882 -0.04849643 -0.0090883495 -0.086396 -0.00963805 -0.059804074
0.070430174 0.03332719 0.028550569 -0.0280649 -0.006378996 -0.011547792 -0.022147067 0.02350004
-0.046474118 0.021467842 0.051272962 0.056255944 0.06726947 0.019469269 0.00096533773 -0.04161219
-0.006963974 -0.030112231 -0.07195532 -0.07396581 0.010207321 0.023596825 0.0641415 -0.03338737
0.06379218 0.009306597 -0.090596996 -0.009779255 0.018492086 -0.049501464 0.028116088 0.051355954
-0.030095872 -0.0059682177 0.03483222 -0.0009402972 -0.026121087 -0.09081955 -0.06085147 0.036018673
-0.046139643 0.012547927 -0.006527089 0.0006277156 0.062038902 0.02107264 -0.03655351 0.015230965
-0.05366072 0.044040214 -0.03392639 0.021882465 -0.03985503 -0.039581873 -0.015369798 0.049958274
-0.007663753 -0.03472986 0.023911424 -0.03762244 -0.009438812 0.08116997 0.047950644 0.08649579
0.039644744 0.01529759 -0.062074956 -0.06725199 -0.090001106 -0.041167375 -0.03681505 0.028585898
-0.006126566 0.093562745 -0.029864864 -0.0789639 0.02758872 0.0029541918 -0.0037653402 0.026298292
0.04913527 -0.057924256 0.0032824397 -0.046810623 0.043585844 0.019549888 0.058171395 -0.029212875
0.018965682 -0.008165111 0.08299151 -0.01684669 0.0454031 0.05362274 0.027643796 0.03978195
0.06197878 -0.04746308 0.026647057 0.04452298 -0.04029586 0.0033294705 0.06376853 -0.005928041
-0.059313178 -0.0726715 -0.08654469 -0.052561764 0.01621663 -0.0365185 -0.03443111 0.076992415
-0.020859376 0.08289145 0.023599343 0.039600756 -0.03365341 0.028315542 0.040589184 0.037609424
-0.021581087 0.017981727 0.032862015 0.016301706 -0.017514056 -0.016095208 0.025922347 0.028157653
-0.0738962 -0.009706837 -0.077016786 -0.0266229 0.05654362 -0.05460932 -0.046130292 0.052539308
0.008850584 -0.010008625 -0.025949525 -0.0183514 -0.025139865 0.05927466 0.043744296 -0.080542326
00000000: c1cd 56bd 4215 abbb 7d62 343d f85a e33b
00000010: 793d 22bd 6476 243c 6c05 d0bb 7795 28bb
00000020: 9650 4d3d 5d2e 36bb 9e32 a23d 68b2 0abd
00000030: 082e e2bb 7e8d ba3d 70ba afba 7605 b0bc
00000040: 1f46 d7bc 0c9d 85bc d030 0bbd 6e83 36bd
00000050: 8793 843c 4b13 2d3b 4a76 93bd b172 a93b
00000060: ed82 91bd 9a98 f7ba 2a2b df3c 7718 07bd
00000070: 9aa5 5cbc 3318 853d 9bde 81bd 104c cdbd
00000080: 962c f8bc c9e0 8abc 0230 d1bb df65 9d3c
00000090: f858 41bc 3155 fe3c 8f6a eebc 2f24 12bd
000000a0: 79bb d23c 2e71 273d a06e 83bd 3108 f0bc
000000b0: 281d 45bd f87a 4b3c 0745 8dbc 521f 93bb
000000c0: fa32 7b3d 888d 173d 5600 bcbc cf26 bb3c
000000d0: 9b33 313d 789a fc3c 3ef3 063d 01ad ccbd
000000e0: 4677 65bd 78a5 7fbc f01e 943b 8daf 5e3c
000000f0: eca4 873c 9a6b 89bc 1a6d f93c 7163 a23b
00000100: 53e0 ec3c 3823 563c ca8b a53d e561 253d
00000110: 991d 4a3d e3d1 8abd 89f3 f9bc ea53 303a
00000120: 201b 2bbd 689a 4d3c 2ca9 2abd a7f1 313d
00000130: 8e7a b5bc b4c1 99bc ed69 d03c 9f2b 49bd
00000140: 2a81 d53d 65b0 d83c 4702 99bd 46f2 25bd
00000150: 0b75 163d bfdc 3bbd 4835 d0bd 5782 693c
00000160: f320 3e3d 8339 743c 8aee 91bc 44f1 983d
00000170: ee3a b93d 0856 42bc 1335 d23c 3830 5dbd
00000180: 56bf 9bbc 5633 22bc dbc0 ef3c 6a9f 1d3d
00000190: f4a7 07bd 8391 a2bd 9f97 e4bc 3c95 8c3d
000001a0: 85bd 853d effa 81bd 137e 7dbb 31a4 46bd
000001b0: 4de7 14bc 63f0 b0bd e9e8 1dbc 1ef5 74bd
000001c0: b23d 903d 1782 083d e2e2 e93c 5ce8 e5bc
000001d0: e606 d1bb f332 3dbc c46d b5bc 2883 c03c
000001e0: a55b 3ebd 54dd af3c 9903 523d a26c 663d
000001f0: 93c4 893d 047e 9f3c b80e 7d3a 8b71 2abd
00000200: 0c32 e4bb edad f6bc 505d 93bd 637b 97bd
00000210: 9b3c 273c 214e c13c 9e5c 833d 32c1 08bd
00000220: 79a5 823d b27a 183c eb8a b9bd 2b39 20bc
00000230: b77c 973c 0cc2 4abd b653 e63c 9f5a 523d
00000240: 9e8b f6bc 0a91 c3bb 3bac 0e3d 477e 76ba
00000250: e4fb d5bc 9aff b9bd 643f 79bd 5188 133d
00000260: ecfc 3cbd d295 4d3c 31e1 d5bb 488d 243a
00000270: 811c 7e3d 87a0 ac3c 22b9 15bd 4c8b 793c
00000280: 58cb 5bbd 8363 343d 66f6 0abd db42 b33c
00000290: 073f 23bd 9a20 22bd 9bd1 7bbc 0ca1 4c3d
000002a0: 3820 fbbb e640 0ebd e4e1 c33c fd19 1abd
000002b0: 3fa5 1abc 713c a63d e567 443d b424 b13d
000002c0: 8762 223d bea2 7a3c 4f42 7ebd 69bb 89bd
000002d0: 8052 b8bd 1f9f 28bd 61cb 16bd f92c ea3c
000002e0: 5cc1 c8bb d39d bf3d 29a7 f4bc d3b7 a1bd
000002f0: bd01 e23c 1d9b 413b edc3 76bb 846f d73c
00000300: 1142 493d fc41 6dbd 331e 573b 7fbc 3fbd
00000310: 1287 323d 1627 a03c 2145 6e3d d74f efbc
00000320: eb5d 9b3c f5c6 05bc 74f7 a93d 1202 8abc
00000330: 9af8 393d 85a3 5b3d 3e75 e23c 66f2 223d
00000340: 76dd 7d3d a668 42bd ee4a da3c ba5d 363d
00000350: 460d 25bd 3f33 5a3b 1399 823d 0340 c2bb
00000360: 60f2 72bd ccd4 94bd 583e b1bd 014b 57bd
00000370: bdd8 843c 6c94 15bd a307 0dbd 33ae 9d3d
00000380: 48e1 aabc fec2 a93d 6953 c13c 6734 223d
00000390: 28d8 09bd fff5 e73c d840 263d 570c 1a3d
000003a0: d2ca b0bc 6a4e 933c 529a 063d 288b 853c
000003b0: a379 8fbc 19da 83bc 1a5b d43c e1aa e63c
000003c0: e456 97bd 6d09 1fbc faba 9dbd 4518 dabc
000003d0: 489a 673d 06ae 5fbd 1ef3 3cbd 7533 573d
000003e0: 0a02 113c 37fb 23bc 1994 d4bc ad55 96bc
000003f0: 1ef2 cdbc fcc9 723d 382d 333d 60f3 a4bd

features.8.bias f4 [128]
0.010646876 0.019548347 -0.0072622783 -0.006539852 -0.03666709 -0.046566043 0.0052972166 0.06421478
0.025011344 0.016704155 0.026745686 0.009226161 -0.004511119 0.050841775 -0.0550047 0.015022218
0.014050543 -0.063196756 0.06594751 0.021919236 0.0036702645 -0.03763864 0.019489173 0.0044015814
0.041564822 -0.04967211 -0.035693794 0.020648528 -0.01124896 0.052477855 0.025028255 0.014840983
0.047722913 0.024071915 -0.040858462 -0.025846582 -0.0071585667 -0.055032223 -0.028057028 0.00976868
0.010645729 0.09484369 -0.0240145 -0.0022923045 0.020037716 -0.040914252 0.00280887 -0.018146139
0.015095375 0.05387951 0.008899642 -0.06923969 -0.040090583 -0.034598652 -0.040780537 -0.016399201
-0.055691715 0.038995795 0.05713625 -0.0062279054 -0.037649553 -0.025549836 0.017555289 -0.033448882
0.008125325 -0.039467786 -0.08781195 -0.021905908 -0.083744034 -0.014722358 0.0563319 0.03865001
0.051247865 -0.020977212 0.015504213 0.040226486 -0.065912105 -0.03715795 0.029613605 -0.014677164
-0.01568685 0.023395361 -0.027617898 0.023811512 0.0019159653 0.06775435 -0.037572842 -0.074055254
0.06012893 0.011485405 0.0017078111 -0.028574647 -0.017781053 -0.01102443 -0.045534525 -0.026412517
-0.03353154 -0.03355126 -0.006574012 0.045187604 -0.030799 0.015557249 0.03763956 0.0349851
-0.008935662 0.012973065 0.06917268 0.03355147 0.006393358 -0.013412128 -0.029545259 0.03803699
-0.061579347 0.04942745 -0.021695284 -0.05246835 -0.0043928716 0.03415823 0.0181691 0.0036928845
-0.08849972 -0.058102023 0.052593503 -0.05607595 -0.003934333 0.038851213 0.005364193 0.020149795
00000000: 3c70 2e3c db23 a03c 68f8 edbb 414c d6bb
00000010: 3b30 16bd 09bc 3ebd 4694 ad3b 0a83 833d
00000020: 97e4 cc3c 27d7 883c c519 db3c 5329 173c
00000030: 02d2 93bb 773f 503d 9c4c 61bd c01f 763c
00000040: 4034 663c 4d6d 81bd 7d0f 873d f88f b33c
00000050: d288 703b f92a 1abd c2a7 9f3c 243b 903b
00000060: e03f 2a3d fb74 4bbd a833 12bd 1a27 a93c
00000070: 8f4d 38bc 05f3 563d 0e08 cd3c 9827 733c
00000080: 1a79 433d 7732 c53c 345b 27bd 36bc d3bc
00000090: 6992 eabb 7869 61bd dad7 e5bc d00c 203c
000000a0: 6c6b 2e3c 693d c23d 0fba c4bc 7d3a 16bb
000000b0: 2326 a43c b495 27bd 0515 383b 36a7 94bc
000000c0: 9752 773c c3b0 5c3d cecf 113c 8acd 8dbd
000000d0: 0636 24bd 51b7 0dbd 7e09 27bd 9e57 86bc
000000e0: ff1c 64bd 0eba 1f3d b307 6a3d 7513 ccbb
000000f0: 6b36 1abd e44d d1bc 1cd0 8f3c b201 09bd
00000100: 1520 053c f9a8 21bd c0d6 b3bd 0574 b3bc
00000110: fe81 abbd 0c36 71bc 47bc 663d 794f 1e3d
00000120: 48e9 513d 67d8 abbc 6205 7e3c 87c4 243d
00000130: edfc 86bd ef32 18bd 3b98 f23c 7d78 70bc
00000140: b581 80bc a1a7 bf3c ee3e e2bc 5c10 c33c
00000150: 2121 fb3a cbc2 8a3d fbe5 19bd 48aa 97bd
00000160: c149 763d 482d 3c3c a2d8 df3a 6115 eabc
00000170: 92a9 91bc d09f 34bc 6982 3abd 105f d8bc
00000180: 5e58 09bd 0c6d 09bd cf6a d7bb a316 393d
00000190: 2f4e fcbc d5e3 7e3c f02b 1a3d 894c 0f3d
000001a0: e266 12bc fa8c 543c 68aa 8d3d 446d 093d
000001b0: 607f d13b 8bbe 5bbc e608 f2bc adcc 1b3d
000001c0: a03a 7cbd 7074 4a3d 4fba b1bc 0de9 56bd
000001d0: 14f2 8fbb 80e9 0b3d 5dd7 943c 5204 723b
000001e0: 573f b5bd 63fc 6dbd 496c 573d e5af 65bd
000001f0: 94eb 80bb 7322 1f3d 1dc6 af3b 2f11 a53c

features.9.weight f4 [128]
0.9425696 0.9661044 0.9702185 0.9672049 0.96562535 0.94871575 1.0536187 0.9713345
0.9485771 0.94280833 1.080921 0.9590988 1.1273338 0.9593379 1.0633628 0.9951376
0.99913585 0.91413605 0.97823894 0.96352834 1.0093385 1.0111471 1.001809 0.924673
1.0498039 1.0289757 1.0183822 1.0460045 1.0014908 0.9581177 1.0092069 1.0028343
0.9298733 0.99073046 0.975441 0.91896594 0.92457753 0.9710505 0.9124692 0.97722495
0.9690475 1.045342 0.9123629 0.97760195 0.9363589 0.9475603 1.0117866 1.0212896
1.0005172 0.9875068 0.99178594 0.9737297 0.95090866 0.9603803 0.9469822 0.9964107
0.9689092 0.9549922 0.89736223 1.0055164 0.9612049 1.0910383 0.99518627 1.0191575
1.0170146 0.9374986 1.0254892 0.94847906 0.96820945 1.0067825 0.961702 0.98390394
1.0058628 0.98355323 1.009917 0.9981286 1.0033039 1.0542111 0.9715934 0.9778899
1.0613701 1.0090392 0.9211934 0.95131737 0.96389127 0.97977877 1.0404072 0.9881382
0.9348025 1.0382212 0.9527507 0.92106235 0.98118407 1.0289235 0.95705426 0.9499455
1.0486772 1.0448458 0.9671038 1.0484402 1.0201787 1.0023506 0.94894147 0.9372288
0.9904061 1.0109506 1.0701634 0.9211439 0.9487013 1.0198703 0.9385888 0.9969267
0.95500624 0.95944685 0.9234112 0.97957355 0.99471897 0.9688479 0.9221106 1.038664
1.0078707 1.0382426 1.0122032 0.97985494 0.97272205 0.97683257 0.9830219 0.89623255
00000000: 3e4c 713f 9e52 773f 3d60 783f be9a 773f
00000010: 3933 773f 09df 723f fadc 863f 61a9 783f
00000020: f3d5 723f e35b 713f 9f5b 8a3f 8087 753f
00000030: 794c 903f 2b97 753f 461c 883f 56c1 7e3f
00000040: 5ec7 7f3f d204 6a3f de6d 7a3f cba9 763f
00000050: 0132 813f 456d 813f 473b 803f 5fb7 6c3f
00000060: f95f 863f 7ab5 833f 595a 823f 7ae3 853f
00000070: da30 803f 3447 753f b12d 813f e05c 803f
00000080: 2d0c 6e3f 83a0 7d3f 80b6 793f 5a41 6b3f
00000090: 1db1 6c3f c496 783f 9597 693f 6a2b 7a3f
000000a0: 7f13 783f c4cd 853f 9d90 693f 1f44 7a3f
000000b0: 38b5 6f3f 5093 723f 3982 813f 9eb9 823f
000000c0: f310 803f 3fcd 7c3f afe5 7d3f 5a46 793f
000000d0: c06e 733f 7cdb 753f 6d6d 723f c614 7f3f
000000e0: 6f0a 783f 5e7a 743f 88b9 653f c3b4 803f
000000f0: 8611 763f 25a7 8b3f 87c4 7e3f c173 823f
00000100: 892d 823f e9ff 6f3f 3b43 833f 86cf 723f
00000110: 93dc 773f 40de 803f 1a32 763f 21e1 7b3f
00000120: 1dc0 803f 25ca 7b3f f644 813f 5b85 7f3f
00000130: 436c 803f 64f0 863f 58ba 783f fe56 7a3f
00000140: fada 873f 3228 813f 55d3 6b3f 8989 733f
00000150: 94c1 763f c8d2 7a3f 102c 853f a0f6 7c3f
00000160: 374f 6f3f 6fe4 843f 78e7 733f beca 6b3f
00000170: e12e 7b3f c4b3 833f 8201 753f a12f 733f
00000180: 0e3b 863f 82bd 853f 1d94 773f 4a33 863f
00000190: 3795 823f 064d 803f d4ed 723f 3aee 6f3f
000001a0: 418b 7d3f d466 813f 1dfb 883f 16d0 6b3f
000001b0: 17de 723f 1c8b 823f 5b47 703f 9736 7f3f
000001c0: 4a7b 743f 4f9e 753f ad64 6c3f 55c5 7a3f
000001d0: e7a5 7e3f 6a06 783f 710f 6c3f f1f2 843f
000001e0: e801 813f 22e5 843f e08f 813f c6d7 7a3f
000001f0: 5004 793f b311 7a3f 53a7 7b3f 7f6f 653f

features.9.bias f4 [128]
-0.10096018 -0.037786484 -0.093257375 -0.09070053 -0.07064353 -0.09450395 -0.19781645 -0.09886896
-0.089057 -0.055684566 -0.21154958 -0.024649976 -0.20796883 -0.070988394 -0.25114954 -0.14005902
-0.04275059 -0.062562585 -0.092012145 -0.08499835 -0.067444555 -0.17548247 -0.05808204 -0.07102734
-0.044977 -0.14323956 -0.035354737 -0.28636888 -0.051105794 -0.05446256 -0.051920567 -0.2182155
-0.07696128 -0.11288977 -0.14731099 -0.09232824 -0.05004035 -0.11056379 -0.08744902 -0.06361371
-0.04786183 0.025726115 -0.017660402 -0.1352185 -0.084813915 -0.073395565 -0.07224914 -0.04895927
-0.027443612 -0.09226035 -0.047444675 -0.14757216 -0.14784548 -0.057524584 -0.06740113 0.009011769
-0.08069557 -0.047294527 -0.08415749 -0.0486069 -0.05796459 -0.079938956 -0.103722125 -0.06077283
-0.00796015 -0.063303865 -0.0621979 -0.033238947 -0.05206774 -0.0593019 -0.04896657 -0.060351737
-0.08277181 -0.023155896 -0.0011982018 -0.0503738 -0.058625754 -0.018696794 -0.09008423 -0.15972997
-0.07073669 -0.07029545 -0.056281336 0.003505961 0.032110773 -0.1256211 0.020511478 -0.02019401
-0.109422125 -0.06833731 -0.044604044 -0.05467726 -0.06553877 -0.11314906 -0.07868093 -0.11832695
-0.072532654 -0.0040470194 -0.12456573 -0.1251558 -0.012706719 -0.09175215 -0.09299684 -0.065695934
-0.010673549 -0.17243028 -0.09519886 -0.14320387 -0.10375413 0.024528952 -0.095704354 -0.083599105
-0.052505504 -0.0108289765 -0.08044121 -0.11305662 -0.05250975 -0.07681175 -0.083348975 -0.15759602
-0.08233651 -0.067782395 -0.06529301 -0.054127544 -0.0541368 -0.025063764 -0.10432922 -0.08804032
00000000: 36c4 cebd 00c6 1abd b9fd bebd 33c1 b9bd
00000010: 8ead 90bd 498b c1bd 6590 4abe cf7b cabd
00000020: 8463 b6bd 8015 64bd 74a0 58be bfee c9bc
00000030: c8f5 54be 5d62 91bd ac96 80be a26b 0fbe
00000040: 3e1b 2fbd d020 80bd dd70 bcbd 9d13 aebd
00000050: 5f20 8abd adb1 33be 6fe7 6dbd c876 91bd
00000060: ce39 38bd 64ad 12be 21d0 10bd f19e 92be
00000070: 4f54 51bd 2214 5fbd a9aa 54bd e273 5fbe
00000080: e09d 9dbd c032 e7bd b1d8 16be 9716 bdbd
00000090: 1cf7 4cbd 456f e2bd 7918 b3bd e847 82bd
000000a0: c40a 44bd 93bf d23c 8cac 90bc b876 0abe
000000b0: ebb2 adbd 6a50 96bd 5bf7 93bd 8489 48bd
000000c0: 6dd1 e0bc fff2 bcbd 5955 42bd 281d 17be
000000d0: ce64 17be e69e 6bbd 9b09 8abd 19a6 133c
000000e0: b843 a5bd e8b7 41bd c35a acbd 0718 47bd
000000f0: 476c 6dbd 09b7 a3bd 446c d4bd eeec 78bd
00000100: 4a6b 02bc 75a5 81bd 3ac3 7ebd 9025 08bd
00000110: fc44 55bd 8de6 72bd 2c91 48bd 6233 77bd
00000120: 4484 a9bd 6fb1 bdbc fb0c 9dba c254 4ebd
00000130: 8f21 70bd 052a 99bc 157e b8bd 4190 23be
00000140: 66de 90bd 10f7 8fbd 4287 66bd 44c4 653b
00000150: 9686 033d d1a2 00be b007 a83c e96d a5bc
00000160: b518 e0bd 6ef4 8bbd bbb2 36bd 43f5 5fbd
00000170: 3139 86bd b2ba e7bd 7823 a1bd 6655 f2bd
00000180: 008c 94bd dc9c 84bb 511c ffbd d828 00be
00000190: d82f 50bc 8de8 bbbd 2175 bebd 978b 86bd
000001a0: 1ce0 2ebc 9091 30be 9ff7 c2bd 09a4 12be
000001b0: 0c7d d4bd f1f0 c83c a500 c4bd 0236 abbd
000001c0: 0310 57bd 056c 31bc 5cbe a4bd 3b8a e7bd
000001d0: 7714 57bd 7b4f 9dbd deb2 aabd da60 21be
000001e0: 0ba0 a8bd 7fd1 8abd 57b8 85bd d8b4 5dbd
000001f0: 8dbe 5dbd 8652 cdbc 8faa d5bd 7c4e b4bd

features.9.running_mean f4 [128]
-0.45172554 -1.3527158 -0.08056339 -1.2070593 -0.86957467 -1.0720884 -0.2873184 -0.2073607
-0.7358388 -0.5181864 -0.53140694 -1.494715 -0.28708878 0.21632396 -0.4130421 0.24762511
-0.87513304 -0.63040733 0.097015046 -0.07016112 -0.0020322711 -0.28356308 -0.035975233 0.15447922
-0.9775921 0.5193235 -0.0318542 -0.15742028 0.07312338 -0.4628413 -0.10734374 -0.23070884
-0.33991528 0.44769493 0.0031459858 -0.78352743 -0.9146198 -0.72486573 -0.7185496 0.16997997
-0.3202256 -1.0522778 -0.8199948 -0.4656266 -0.23809983 0.22582881 -0.02216859 -0.13110493
0.062312897 -0.49914926 0.16742112 0.14969589 -0.6665659 -1.3248215 0.017860256 -1.1317654
0.15683752 0.10819713 -0.7890945 0.13701719 -0.7598335 -0.26226997 -0.3628075 0.34364527
-1.2348472 -0.61675423 0.1647988 -1.0351615 -0.07694948 -0.97284937 -0.49200597 -1.3656489
0.29558283 -0.55441874 -0.70737016 -0.78865457 -0.4843961 -1.191973 -1.3842689 -0.1381588
-0.076252684 -0.29243463 -0.34250832 -0.83394635 -1.1265736 -0.4567874 -1.291808 -0.8427922
-0.45793834 -0.51836675 -0.9887211 -0.965825 -0.44829106 0.57756555 -0.5687742 -0.6420072
0.026856808 -0.86075276 0.6470461 0.2741872 -1.7059461 -0.5956764 -1.1808147 -1.0188468
-0.01540546 -0.23805071 -0.17931022 -0.8150049 -0.030385565 -1.3123214 -0.4345768 0.120437786
-0.09030089 -0.5070094 0.3490366 0.88826114 -1.7164488 -0.22869743 -0.44299752 0.9956924
-0.387012 -1.3095052 -1.2373817 -0.31286246 -0.13983265 -0.18491986 -0.16759433 -0.50623035
00000000: 9248 e7be cb25 adbf 6bfe a4bd eb80 9abf
00000010: 729c 5ebf 313a 89bf 661b 93be 5d56 54be
00000020: ee5f 3cbf dda7 04bf 490a 08bf d252 bfbf
00000030: 4dfd 92be 0784 5d3e 417a d3be 7091 7d3e
00000040: b808 60bf 6062 21bf d3af c63d a2b0 8fbd
00000050: da2f 05bb 2e2f 91be c45a 13bd cd2f 1e3e
00000060: 7a43 7abf 63f2 043f 8d79 02bd c832 21be
00000070: b6c1 953d 89f9 ecbe 09d7 dbbd f03e 6cbe
00000080: 6009 aebe 4538 e53e e22c 4e3b 4195 48bf
00000090: 8624 6abf cd90 39bf def2 37bf 3b0f 2e3e
000000a0: 9cf4 a3be 0ab1 86bf 2eeb 51bf 9c66 eebe
000000b0: 71d0 73be ab3f 673e e79a b5bc 5f40 06be
000000c0: cf3b 7f3d 7e90 ffbe 7170 2b3e e149 193e
000000d0: 10a4 2abf c093 a9bf ac4f 923c b0dd 90bf
000000e0: 049a 203e 7596 dd3d 1902 4abf 3c4e 0c3e
000000f0: 7384 42bf 4048 86be e8c1 b9be 46f2 af3e
00000100: 790f 9ebf 9be3 1dbf 04c1 283e 2c80 84bf
00000110: b097 9dbd a80c 79bf 35e8 fbbe 95cd aebf
00000120: a256 973e 63ee 0dbf 3616 35bf 44e5 49bf
00000130: c402 f8be 9292 98bf b92f b1bf 8079 0dbe
00000140: 5e2a 9cbd feb9 95be 405d afbe 827d 55bf
00000150: 9033 90bf 0ae0 e9be f759 a5bf 3bc1 57bf
00000160: e576 eabe afb3 04bf d31c 7dbf 4f40 77bf
00000170: 6886 e5be 56db 133f 309b 11bf 955a 24bf
00000180: cf02 dc3c 4b5a 5cbf d0a4 253f 4462 8c3e
00000190: 715c dabf 407e 18bf f024 97bf 9269 82bf
000001a0: 2f67 7cbc 91c3 73be 199d 37be 29a4 50bf
000001b0: 26eb f8bc 26fa a7bf da80 debe 16a8 f63d
000001c0: acef b8bd 5ecb 01bf edb4 b23e 1565 633f
000001d0: 98b4 dbbf a92f 6abe 92d0 e2be b2e5 7e3f
000001e0: 7026 c6be de9d a7bf 8662 9ebf 822f a0be
000001f0: 4a30 0fbe a25b 3dbe d99d 2bbe 5098 01bf

features.9.running_var f4 [128]
1.0766597 1.5169952 0.46997163 1.3207517 0.9835074 1.3524815 0.55816 0.9722271
0.9752039 1.3526235 0.7080559 1.6491537 0.5858976 0.46839866 0.4451478 1.1603006
1.3248005 1.278826 0.46275795 0.52490544 0.528016 0.46462867 0.6057409 0.5758932
1.1166891 0.610574 0.560211 0.49382856 0.5237192 1.457042 0.33552808 0.5652628
0.40237874 0.4847559 0.7680846 1.2554698 1.9808333 0.5083658 0.83024734 0.374225
0.64215946 1.4724777 0.96912175 0.712788 0.8357963 0.73137236 0.84359133 0.37130123
0.6608175 0.99518204 0.48528907 0.8113598 1.1626867 2.2972288 0.45113483 2.2465749
0.58432555 0.3277645 1.2090507 0.5883178 0.8448628 0.40132287 0.42631203 0.46600077
1.1049815 0.9871838 0.41033778 1.3059638 0.6775707 0.64604175 0.74674255 1.1401114
0.61271644 0.54137623 0.7584074 1.1844594 0.84344965 0.87158144 1.1954404 0.6037535
0.3642926 0.47749877 0.6825176 1.8099908 2.6391432 1.076933 1.7485493 1.360369
0.80080163 0.86283594 1.2776899 1.3471696 0.40733844 0.64931315 0.39102244 0.65846354
0.56850326 1.070718 1.0288279 0.47147095 1.4785582 0.5859208 2.1504204 1.9173903
0.7303194 0.43997905 0.54661834 1.3974192 0.77336884 1.9671919 1.2158225 0.4082472
0.5764207 1.1604494 0.6757589 0.80201226 1.0803376 0.746102 0.901719 0.8391442
1.093094 1.2150532 0.86675066 0.60920167 0.5454803 0.57013613 0.7541606 0.98254323
00000000: fccf 893f e62c c23f 1fa0 f03e 640e a93f
00000010: 24c7 7b3f 1d1e ad3f 93e3 0e3f e0e3 783f
00000020: f6a6 793f c422 ad3f 2743 353f 7817 d33f
00000030: 63fd 153f f3d1 ef3e 6aea e33e bb84 943f
00000040: 1093 a93f 92b0 a33f 9cee ec3e 3460 063f
00000050: 0e2c 073f cfe3 ed3e d611 1b3f bd6d 133f
00000060: abef 8e3f 944e 1c3f fd69 0f3f 19d7 fc3e
00000070: 7612 063f 5a80 ba3f 56ca ab3e 10b5 103f
00000080: 9604 ce3e ed31 f83e 31a1 443f 3cb3 a03f
00000090: f28b fd3f 4324 023f 178b 543f 6b9a bf3e
000000a0: 9064 243f 267a bc3f 5d18 783f 4679 363f
000000b0: bff6 553f 383b 3b3f 9af5 573f 321b be3e
000000c0: 562b 293f 40c4 7e3f cf77 f83e 47b5 4f3f
000000d0: ebd2 943f cc05 1340 25fb e63e e2c7 0f40
000000e0: 5c96 153f c0d0 a73e 2cc2 9a3f ff9b 163f
000000f0: ee48 583f 317a cd3e 9245 da3e a797 ee3e
00000100: 0970 8d3f 14b8 7c3f cb17 d23e d229 a73f
00000110: 4675 2d3f fe62 253f 852a 3f3f 2cef 913f
00000120: fcda 1c3f a297 0a3f fd26 423f 5e9c 973f
00000130: 51ec 573f f61f 5f3f 3104 993f 978f 1a3f
00000140: 8f84 ba3e b87a f43e 79b9 2e3f c7ad e73f
00000150: b9e7 2840 f1d8 893f 77d0 df3f 9220 ae3f
00000160: 5601 4d3f d1e2 5c3f 588b a33f 0e70 ac3f
00000170: aa8e d03e 6339 263f 1834 c83e 1191 283f
00000180: 6e89 113f 4a0d 893f a2b0 833f a464 f13e
00000190: 6541 bd3f e8fe 153f 7da0 0940 0c6d f53f
000001a0: 36f6 3a3f ef44 e13e 2eef 0b3f a2de b23f
000001b0: 80fb 453f f2cc fb3f 12a0 9b3f c705 d13e
000001c0: 4f90 133f 9b89 943f 89fe 2c3f ad50 4d3f
000001d0: 8148 8a3f 8a00 3f3f 0ed7 663f 27d2 563f
000001e0: 81ea 8b3f dd86 9b3f 5fe3 5d3f a4f4 1b3f
000001f0: 99a4 0b3f 71f4 113f ab10 413f f487 7b3f
