experiment_testing/mz-testing/checkpoints/ptbxl/250hz/cnn1d/fold_5/best.pt (torch, 628765 bytes, 26 tensors)

features.0.weight f4 [32, 12, 7]
00000000: a112 05be 9b9b 81bd e424 213d 6340 363d
00000010: 2dd2 d0bc f1ed 743d 8097 373d 7abf 163a
00000020: 7376 2abd c8c0 203d eaab e83b 0e9a 63bd
00000030: 6676 6abd 4a57 f63c 7d61 c7bd 1d87 a6bd
00000040: 5274 f3bc cde2 75bd 96cb f63d cf2e 773d
00000050: 8ff3 7ebc 0deb b8bc 7238 3439 462f e23d
00000060: d37c e73d abee 3bbd 6a2d 4d3d a0c4 edbd
00000070: 6500 dd3c 4c51 403d e368 84bc 668a e2bc
00000080: 112e ecba cbe2 013d 68a2 2b3d a607 cc3d
00000090: 2277 e4bc 268b 2dbc e205 a13b 3349 d93d
000000a0: 8320 e53d 106f 72bd 7bd3 b63d 92f9 50bd
000000b0: be8c a93c 402d c93d 2432 9b3d d679 853d
000000c0: fcbf 5abd 523f f2bd 0d67 333d ab6e 7d3d
000000d0: 6694 9cbd 5318 c03d b8c7 67bd dbec f83a
000000e0: 3bcc 42bd df69 6abd 678e a2bc 5793 2c3d
000000f0: a77b b7bd 197a b03d 6d85 87bd 4d3e 88bd
00000100: ffcf e63c e488 c83c 6b3e aabd 26b6 c23d
00000110: e16f b63c 69f9 d8bd 0549 8f3d 4933 a23c
00000120: 4bf4 463c 9065 aebd 8c5e 903d 2c77 013e
00000130: 9d16 143e e9c2 bcbd 494f 8d3d a785 8e3d
00000140: 0056 073d bbd4 2d3d 9fdc 9e3d f119 d83d
00000150: 75a8 163d 6a21 32bd 8fe1 1abd fa4f b8bc
00000160: f898 f9bc 0733 003c e0c7 c3bd 86a6 b9bd
00000170: c944 773d 3f55 c23c c9ec 5ebd 52d8 f93d
00000180: f40c ea3d b5d3 f63d 1f39 d1bd adbe cc3b
00000190: de37 84bd 824b 91bd c974 783c 30a8 c13c
000001a0: 7b4f b0bd 1131 94bd 7560 c1bc 8905 4d3d
000001b0: bb93 b83c c536 37bd d4c6 723d ef84 75bd
000001c0: fb6a a0bd 7164 71bd ca2b 95bb abeb c73d
000001d0: 3fc5 bb3d a0fd a83d c609 9fbc ca2c acbd
000001e0: 528c cc3c 9d80 db3d e2fd 663d df1c 20bd
000001f0: 1116 6abd 4bee a73d c865 cc3d 3eb0 3b3d
00000200: ed4e 0b3e 7cf1 7d3d 24d8 1e3d d221 bd3c
00000210: 09f8 a7bd 73f8 eebd fc61 e5bd 2c32 96bd
00000220: ccce 993c ffe9 d4bd c996 e0bd e729 1f3d
00000230: b107 563d 4fab 873c bd1c 723d f706 65bd
00000240: 94a7 853c ce76 fa3b 08ea 193b 3177 45bd
00000250: 9491 ebbc 310d cd3c bc6d 39bd a872 913d
00000260: 4764 9f3c 8f45 6dbd 0415 efbd 848d c93c
00000270: c6dc 01be d9dc 1cbd 7ca0 9bbd 29f8 a83d
00000280: 5d1a 9fbd 565b 7abd 0ae9 45bd 255b 93bd
00000290: e6b5 32bd eacf a5bd 91c2 143d 76d7 a33c
000002a0: 53fc 72bd 5b63 c8bd de67 e0bd 4117 f4bc
000002b0: c9de 893d ef34 ed3d b8ba eb3d a6d2 8e3c
000002c0: ec40 a8bd c8a3 f73c a4bf 85bd 2bec 023d
000002d0: e109 c63c b88a 0abb 1a2f 59bd b993 d43d
000002e0: 521a 3dbd cdfd 37bd babb 9a3c 73d8 36bc
000002f0: 1c65 16bd 32de d43d ada6 7d3d aa1f 923a
00000300: 9053 153c ed76 4dbd 1db2 5a3d 3f2b 77bd
00000310: dcb3 7e3b 7f60 4ebd 8621 b7bd abd9 313d
00000320: 76a3 0dbd 36b3 14bd 9043 21bd 6be9 ec3c
00000330: b566 98bc 110a d83d f62c 9dbd f285 cfbd
00000340: c54f 9dbd 2a6e 183d cb4d f73d c5ae 743d
00000350: bb9f d2bd 3c57 6a3d 6173 c1bd 8b99 85bd
00000360: 9dcf 54bd 8d7e a53d e6e8 b0bd 1ef0 afbd
00000370: f01a 36bd 8e50 163c 91cf e63d 40d1 17bd
00000380: 7aa1 6abc 73fa 153d 9897 0dbe c07b d93c
00000390: 3d09 703d 0d04 bf3d 76f7 8cba 1fc3 9cbd
000003a0: a562 94bd 2664 96bd 7c96 e03d c1ea 863d
000003b0: 86b7 a83d f6a9 bebd 2b0a 01be 7f8c b1bd
000003c0: e064 953d ec26 d6ba 9cec da3d 4fb7 113d
000003d0: 20d5 793d 3f92 4cba 2587 8f3c 6aa7 6c3d
000003e0: c876 99bd 8bcd d7bc ec00 113d ed47 a63c
000003f0: bf97 9cbd c9c7 c83d fa8f 96bd 4f67 89bd
-0.12995388 -0.063285075 0.039341822 0.044494998 -0.025490845 0.05979723 0.044822216 0.0005750578
-0.04161687 0.03924635 0.007100572 -0.05556684 -0.05724182 0.03007092 -0.09735391 -0.081312396
-0.029718552 -0.060030747 0.1205055 0.060347375 -0.015560999 -0.022573018 0.00017187165 0.11044173
0.11303105 -0.04588191 0.05009214 -0.11609769 0.026977727 0.04695253 -0.016163295 -0.027653884
-0.00180191 0.031710427 0.04190293 0.09962396 -0.027888838 -0.010592258 0.0049140314 0.10609665
0.11187842 -0.05918795 0.089270554 -0.05101926 0.020696994 0.09823084 0.07577923 0.06517379
-0.053405747 -0.11828484 0.04379945 0.06187312 -0.07645492 0.093796395 -0.05658695 0.0018991487
-0.04755805 -0.057229873 -0.019843293 0.0421327 -0.08959132 0.08617038 -0.06617246 -0.06652508
0.028175352 0.024479337 -0.083126865 0.09507398 0.022270145 -0.10594446 0.06996349 0.019799845
0.012143205 -0.08515465 0.070492834 0.12643117 0.14461751 -0.09216864 0.06899888 0.06959086
0.033041 0.042439204 0.07756924 0.10551823 0.036781747 -0.043488897 -0.037812766 -0.022499073
-0.030468449 0.007824666 -0.095596075 -0.09064965 0.060368333 0.02372229 -0.054425035 0.12199463
0.11428252 0.12052099 -0.10215973 0.0062483163 -0.06455968 -0.0709448 0.0151645625 0.023639768
-0.0860891 -0.07235921 -0.023605565 0.050054107 0.02253138 -0.044729967 0.05927165 -0.05994123
-0.07832905 -0.05893368 -0.004552339 0.09761747 0.09168481 0.082515 -0.01941384 -0.0840698
0.024969254 0.107178904 0.056394465 -0.039090034 -0.05714995 0.08199748 0.09980351 0.045822375
0.13604327 0.061997876 0.038780347 0.023087416 -0.08201606 -0.11668482 -0.1120033 -0.07333788
0.018775366 -0.10396194 -0.1096626 0.03885832 0.05225343 0.016561178 0.05910944 -0.055914845
0.016315259 0.007643557 0.002348544 -0.048209373 -0.02875594 0.025030704 -0.045270666 0.07101947
0.019456996 -0.057927664 -0.1167393 0.024603613 -0.12681875 -0.038296554 -0.07598969 0.08250458
-0.077687 -0.06112226 -0.048317946 -0.07195119 -0.043630503 -0.08096297 0.036318365 0.0200002
-0.059322666 -0.097845756 -0.10957311 -0.029796245 0.06731946 0.11582362 0.11510223 0.01743443
-0.08215508 0.030229464 -0.06530693 0.03196351 0.024174633 -0.0021139812 -0.053023435 0.10379738
-0.04616768 -0.044919778 0.018888343 -0.011160004 -0.03671752 0.10393943 0.061926533 0.0011148353
0.009114161 -0.050162245 0.05339252 -0.060343977 0.0038864529 -0.050384995 -0.08941941 0.043420475
-0.034579717 -0.03630372 -0.039371073 0.028919896 -0.018603662 0.10548795 -0.07674591 -0.1013297
-0.076812305 0.037214436 0.12075385 0.059736986 -0.102843724 0.0572121 -0.09445835 -0.065234266
-0.051955808 0.08080778 -0.08638172 -0.085907206 -0.044459283 0.009174479 0.11270059 -0.03706479
-0.014320726 0.0366158 -0.1382736 0.026548266 0.05860256 0.093269445 -0.0010754901 -0.07654404
-0.072453775 -0.073433205 0.109662026 0.065877445 0.08238129 -0.09309761 -0.12601535 -0.08669376
0.07294631 -0.0016338504 0.10689661 0.035575207 0.060994267 -0.0007803775 0.017520497 0.057776846
-0.07493359 -0.026343128 0.03540127 0.020297969 -0.07646131 0.09803731 -0.0735168 -0.06709158

features.0.bias f4 [32]
00000000: ead8 1ebc 006f 083d 4f33 43bd bb91 ae3c
00000010: 060e 28bd c26f 003c 34f2 af3d 04b2 91bd
00000020: b66b 9abd 4823 2fbd 850d 0fbd c26b 33bd
00000030: 046c 703d e145 e13c 5584 8c3d 7bdb 9cbd
00000040: 8697 2fbc 09e0 993d 9867 223b 3350 163e
00000050: eebb c0bc c4d7 bdbd de87 433c cdd5 7dbc
00000060: bff1 22bd 43e8 443c c37b ac3c 7106 453d
00000070: 4d04 813d d95c 0ebe d412 8b3d c8b3 9d3d
-0.009695271 0.033308983 -0.047656354 0.021309724 -0.041029 0.007839145 0.085911185 -0.07114032
-0.075400755 -0.042758256 -0.034925003 -0.043803938 0.05869676 0.027499141 0.06861178 -0.0765905
-0.010717278 0.075134344 0.0024780985 0.14679031 -0.023527112 -0.0926967 0.011934249 -0.015492869
-0.03978133 0.012018266 0.021055108 0.048101846 0.062996484 -0.13902606 0.067907006 0.07700306

features.1.weight f4 [32]
00000000: 5d92 7f3f 32e9 803f 60a9 7b3f 82af 7f3f
00000010: 573e 833f 6294 773f 743e 803f c6f4 793f
00000020: 6a4e 7a3f 3daa 7f3f 1113 813f a4b8 833f
00000030: 1e01 7d3f 8156 723f 388b 753f a2ca 893f
00000040: 0e05 7b3f c999 7d3f 077e 823f cd44 813f
00000050: 0423 743f 557a 833f 2056 783f 5745 803f
00000060: 3fa5 7f3f 6d92 823f ca08 803f 800c 863f
00000070: 0dc8 843f 38b4 803f 512d 803f f460 7f3f
0.9983271 1.0071166 0.9830532 0.9987718 1.02534 0.9671079 1.0019059 0.9763912
0.977759 0.9986914 1.0083944 1.0290723 0.9882983 0.94663244 0.95915556 1.0764964
0.9805459 0.9906278 1.019471 1.0099121 0.9536593 1.0271708 0.97006416 1.0021161
0.9986152 1.0200936 1.0002682 1.0472565 1.0373551 1.0054998 1.001383 0.99757314

features.1.bias f4 [32]
00000000: 33ed 1b3c 4d07 00bc b95e 9b3d 319f 983c
00000010: 282d 88bb 10d8 843d c9c3 1dbd c6e4 383d
00000020: 3e37 3a3c be85 d33d 1c10 b43d 59ae f53b
00000030: 8fac 3d3b 4606 84ba 572e cd3c 181a 653d
00000040: caf7 793d 8339 fe3c 240b a83b 906a 3d3d
00000050: da79 1b3c 64f4 033d 17e5 b2bd ab6b 023d
00000060: 9429 c2bc 97a7 1b3d a7a9 01bd 3364 05bd
00000070: 4883 1f3d bb6b 263d 68b0 963d a3fa 00bd
0.009517002 -0.007814241 0.07586426 0.018630596 -0.0041557737 0.06486523 -0.038516793 0.04514005
0.01136571 0.10328244 0.08792135 0.0074975905 0.0028941964 -0.001007267 0.02504651 0.055933088
0.061027326 0.031033283 0.005128281 0.046244204 0.009489501 0.03221549 -0.08735102 0.03184096
-0.023701467 0.038001623 -0.031655934 -0.03256626 0.03894356 0.040630084 0.073578656 -0.031489026

features.1.running_mean f4 [32]
00000000: a3b9 21bc 6100 083d 5729 46bd b3c9 af3c
00000010: 22a8 27bd a100 f73b 0012 af3d 7ebc 93bd
00000020: 060a 9bbd 06ca 26bd f68e 0ebd 7fa9 31bd
00000030: 2ebb 633d 4e60 e33c a21d 913d 7009 9dbd
00000040: 4189 2abc 7db6 993d 6f28 313b 1d77 163e
00000050: 9925 c2bc ad0d bdbd 93f3 453c 2048 7dbc
00000060: b968 22bd b395 423c 1d4d 7a3c 320e 473d
00000070: b8d0 803d 8a99 0ebe 8a89 8a3d c7cd 9d3d
-0.009870919 0.033203486 -0.04837927 0.021458482 -0.04093183 0.007537917 0.08548355 -0.072136864
-0.07570271 -0.04072001 -0.034804307 -0.043374535 0.05559843 0.027755883 0.0708573 -0.07667816
-0.0104087 0.0750551 0.0027032157 0.14693876 -0.023699569 -0.09231124 0.012081998 -0.0154590905
-0.039650653 0.011876511 0.015277174 0.048597522 0.0628981 -0.13925758 0.06764515 0.077052645

features.1.running_var f4 [32]
00000000: 46f3 b43e 99e3 cc3e 16f5 0d3f 7fee 263f
00000010: b90b 803f 96b1 1e3f 4ee5 d13e a80c 503f
00000020: ca96 f93f 6fa8 bb3f a0f6 dc3e e1f9 5b3f
00000030: fca3 543f 6e2e 603f 2765 273f ead7 333f
00000040: 72c3 563e 308f 433f 1819 ce3f db4c 1e3f
00000050: 4f3a 8d3e c7c6 b13f 0627 163f 7400 013f
00000060: 9560 a73e 2613 463e 6198 6d3e 7d46 ed3e
00000070: 2145 1c3f bfd3 933e eec5 883f 90d1 8c3f
0.35341853 0.40017393 0.55452096 0.65207666 1.0003577 0.61989725 0.40995258 0.8126931
1.9499142 1.4660777 0.4315691 0.8592816 0.8306272 0.87570846 0.6538872 0.70251334
0.20972994 0.7639036 1.6101408 0.6183602 0.27583548 1.3888787 0.58653295 0.50391316
0.32690874 0.19343242 0.23202659 0.4634284 0.6104298 0.28872487 1.0685403 1.1001453

features.4.weight f4 [64, 32, 5]
00000000: 4d09 edbc 81e6 d33c 81e7 34bd d931 c53c
00000010: fd7e 253d e60e 9c3c 0a11 93bd e1c5 4b3c
00000020: aaea 1ebd 6471 663c 5131 b53d 0439 953b
00000030: ba32 293d 0f59 943d 8196 8c3d da32 29bc
00000040: 2467 16bd 22b0 2bbd 631f 2dbd b3e1 333d
00000050: fe8d 9bbd f87a a9bd 0236 b63c 0e9d d63c
00000060: e978 eb3c 1a0c 583d 32d9 b53a b7d4 1f3c
00000070: caef 663d 8376 943d d268 1dbd 2bbd 893d
00000080: a071 633d 8135 8b3d 69be 313c 6df7 4abd
00000090: 2263 c3bc eea0 48bb 506b 1abd 929a 573b
000000a0: f4d0 943d e237 263d 8136 9c3d 5e84 cd3d
000000b0: 5d90 a43c 9cae d1bd b90c dabd 14af 2e3b
000000c0: bf9e aebd 7ede 59bd 3748 1cbd fc9d 293a
000000d0: dbf4 58bd 2829 27bd 7835 ffbc 252b 283d
000000e0: 47b6 9b3c 4e67 20bd d67d 4ebb 7a4d 553d
000000f0: e2d8 b33c 2a8b 563b 47fd af3d ab8e d03c
00000100: 5909 aebc 6c77 993d a860 8b3d 4a9e 2d3d
00000110: 2cc3 5b3c a840 05bd 8b9a 8b3d 8af5 56bc
00000120: 1860 e93d 3af6 823d b208 b33d 73e3 4d3d
00000130: 786b 8fbc 8632 60bd 1369 e3bc 66eb 213d
00000140: 5bc7 a63c 58d5 29bd fb91 0e3d 117a 0cbd
00000150: dea1 873c 7395 38bd d2ac ea3c 8753 e43a
00000160: 63f5 3b3c 1d4a d7bc 2542 a5bc 8bb8 3e3c
00000170: 64c0 abbd d142 9a3c 3830 233d bf8e 883d
00000180: 80d7 833c b81b 793d a58f ad3c a37a 31bc
00000190: 2b22 f13c 5094 bc3b e770 f3bc a1d6 36bc
000001a0: 6854 d1bb 87a3 dabc 254d b93c 3928 dcbc
000001b0: 6ae0 eebc a893 303d 7c12 da3c 62d9 213d
000001c0: 647e 7c3d ebb2 91bd 162a 6abd e894 6dbd
000001d0: 8590 e5bc 970c 853c 6f0d 89bd f56e 783d
000001e0: 3f32 80bd 1643 8f3d dfea c8ba 986d 0bb9
000001f0: fce0 543d cf92 f23b bd44 46bd 01f5 7e3c
00000200: 0de5 4fbd 76ef 32bd cd78 c2bc 1fbe 123c
00000210: 727b 903d 8020 5e3c a667 b63c b781 3a3c
00000220: f771 763d 1278 94bd 7a9e a8bd e57b 48bd
00000230: 70bf 823d 50b6 943d f267 56bd dcd1 cd3c
00000240: 1b6e 96bc f7ef 2a3d f5e9 403d 7309 acbc
00000250: dd0f 943c de83 ae3c 39c7 b13d c024 a93d
00000260: dcff ef3c b303 933d 3fa9 953d a4f9 663b
00000270: d3f7 5f3d 7f65 c63c f428 88bb 5a8c 00bd
00000280: 0eda 513b 8217 2b3d 7792 56bd 5d5d ca3c
00000290: 9d8d 8a3d 1885 753d d9e2 023d eaac 90bb
000002a0: 4795 673c ba89 653c 8baf 6cbd ae9b ecbc
000002b0: 9f37 2f3d 9468 983d 86d7 3dbd c2d8 80bd
000002c0: 9fd5 533c af66 85bc af7a c1bc c83e 2b3d
000002d0: fe98 60bd cb94 c83c a2ae 32bb c0e7 c1bd
000002e0: 952b 99bd 9b8c 313c 94a7 d4bc 64a0 6abd
000002f0: dc2a 483d 6e38 0abd 9c42 c1bb 40ca e83c
00000300: 4e1e b6bd 47e9 b4bd ce99 cebc 947b 313d
00000310: 4b65 b53c 7197 03bd 764f b03c fa03 18bd
00000320: 02e2 30bc eb82 b9bd b70a 3f3d 0e64 163d
00000330: d031 21bd 9dcf adbd 711b 44bc 2340 f83c
00000340: e617 52bd 8cd3 133d e8f0 37bc 29d0 b6bc
00000350: cf24 bebd fc13 393d a34a 65bd 5dfb 953d
00000360: a537 83bc aa47 393d 866e 2a3d f58f cbbd
00000370: 9762 96bd 3715 843d 6174 86bc 3622 133d
00000380: fd6a 843d 2d6f 63bd 2395 2bbd 4ad0 81bd
00000390: 8c7b 58bc c95e 40bd b698 a5bd d82b 743a
000003a0: 4407 7ebc 62ae e03c 3e0c 043d 0f8f 88bc
000003b0: 9ee6 ebbc ae00 7b3d 02ca 923c 65d8 3f3c
000003c0: 44ca f93b 985f 40b9 f597 89bc 76f8 0f3d
000003d0: a4e3 a73d a2b9 453d b70d adbd bf76 a83c
000003e0: b296 dcbd cd26 8dbc 1cc7 903d 27ac 8ebd
000003f0: 17e8 ebbc cc32 02bd ab58 f03b 0204 6abc
-0.028935099 0.025866749 -0.04416609 0.02407162 0.04040431 0.019050073 -0.07180984 0.012437315
-0.03879801 0.01406512 0.08847297 0.004553916 0.041308142 0.07243549 0.06864644 -0.010327065
-0.036719456 -0.04191602 -0.04226626 0.043916415 -0.07595442 -0.082754076 0.02224255 0.026197936
0.028744178 0.052745916 0.0013873933 0.009755305 0.056381024 0.07249167 -0.038430043 0.06725534
0.055528283 0.067973144 0.01084862 -0.04955237 -0.023850981 -0.00306135 -0.037699997 0.0032898528
0.07266417 0.040580638 0.07627583 0.10035013 0.020088369 -0.10238382 -0.10646958 0.0026654648
-0.08526372 -0.0531907 -0.038154807 0.000647038 -0.052967887 -0.040810734 -0.031153426 0.04105677
0.019007815 -0.03916102 -0.003150811 0.05207584 0.021954004 0.0032736757 0.08593231 0.025458654
-0.021244692 0.07493481 0.06805545 0.042387284 0.013413232 -0.032532364 0.06816586 -0.0131200645
0.113952816 0.0639462 0.08741893 0.05026574 -0.0175073 -0.054735683 -0.027760064 0.039531134
0.020358732 -0.041463226 0.034807187 -0.0342961 0.016556676 -0.0450644 0.02864686 0.0017419913
0.011472079 -0.026280457 -0.020173142 0.011640678 -0.08386305 0.018830689 0.039840907 0.06667852
0.01609397 0.06081745 0.02118666 -0.0108324615 0.029435238 0.005754985 -0.029716922 -0.01115957
-0.006388236 -0.026689304 0.022619793 -0.026874648 -0.029159743 0.043109566 0.026620142 0.039513953
0.061643973 -0.07114204 -0.057169043 -0.058003336 -0.028023014 0.016241355 -0.066920154 0.060652692
-0.06259584 0.069952175 -0.0015328786 -0.000132969 0.051972374 0.007402755 -0.048405398 0.015561343
-0.05075555 -0.0436854 -0.023739243 0.008956461 0.07054795 0.013557553 0.02226622 0.0113834655
0.06016728 -0.07249464 -0.08233352 -0.04894628 0.0638417 0.07261336 -0.052345224 0.025124483
-0.01836305 0.041732755 0.04709812 -0.0210006 0.01807397 0.021303114 0.08680577 0.08258963
0.029296808 0.0717844 0.07307672 0.0035244012 0.054679703 0.024218319 -0.0041552726 -0.03138385
0.003202084 0.041770466 -0.052385774 0.024702722 0.06765292 0.05994138 0.03195462 -0.004415144
0.014134712 0.014009887 -0.0577846 -0.028882828 0.042777654 0.07441822 -0.046348117 -0.06291343
0.012929349 -0.016284315 -0.02361807 0.04180792 -0.054833405 0.024485013 -0.0027264734 -0.09468031
-0.07479016 0.010836746 -0.025958814 -0.057281867 0.048869 -0.03374522 -0.005897833 0.028416753
-0.08892499 -0.088335566 -0.025219824 0.043330744 0.022143027 -0.032126848 0.021522265 -0.037113167
-0.010796072 -0.09058174 0.046641078 0.036716513 -0.039354146 -0.08486865 -0.011969433 0.03030402
-0.051292323 0.03609042 -0.01122687 -0.022316055 -0.092843644 0.045185074 -0.055979382 0.07323334
-0.016017744 0.04523436 0.04160931 -0.09939567 -0.07343023 0.06449359 -0.016412916 0.035921298
0.06465719 -0.055525947 -0.041890275 -0.06338556 -0.01321305 -0.046965394 -0.08085768 0.00093143946
-0.015504662 0.027426902 0.032238238 -0.016669778 -0.02879649 0.061279945 0.01791859 0.011709307
0.007622989 -0.00018346158 -0.016796092 0.03514906 0.08197716 0.048272736 -0.084498815 0.020564435
-0.1077093 -0.017230416 0.07069227 -0.06966429 -0.028797192 -0.031786725 0.007334789 -0.014283182

features.4.bias f4 [64]
00000000: 3ec5 75bd 854a 253b 3199 4dbd c17f 933c
00000010: 4ac9 46bd 9869 54bc c794 6fbd 2423 f1bc
00000020: 870e 96bd fc0f e7bc 4e4a 94bc fdcb c23b
00000030: 484e 43bd 4e6c 8ebd e3ed fa3d f812 b1bd
00000040: 649b 1ebc 7b59 d63c d58e 253d 2f3e e73b
00000050: 5a41 a33d b640 0e3d 17ec 273d 5b08 8e3d
00000060: 6b89 1fbd 2ee0 5c3d 44cf d9bc 2343 273d
00000070: a912 363d dc7d 853d b413 113d e25b d4bc
00000080: 33c2 43bd 40e3 76bd 6690 743d 38dc 35bd
00000090: 2235 a7bc a080 f4bc 46b9 443d c283 973d
000000a0: 2016 093d 71a4 513d d012 9cbd b84c e33c
000000b0: 049d d43b 5858 8cbd a2ef 833d 5e67 b8bd
000000c0: c620 5a3d 5b90 083d 8979 2a3d ac2b 0b39
000000d0: b499 663d 4478 093d 32d6 563d f3ea 683d
000000e0: 9432 e4bc ebd5 983d 9945 45bd a25f 043b
000000f0: 215e 79bd fbb3 83bd d66b 00b9 b527 3abc
-0.060002558 0.002522142 -0.050194923 0.018005254 -0.048531808 -0.012964629 -0.058491495 -0.029435702
-0.073269896 -0.028205864 -0.018101837 0.0059447275 -0.047682077 -0.06954251 0.122524045 -0.08646196
-0.009680603 0.026165714 0.04041942 0.0070569734 0.07971449 0.034729682 0.040996637 0.069351874
-0.03894941 0.053924732 -0.02658809 0.04083551 0.04445139 0.065181464 0.03541918 -0.02592272
-0.047792625 -0.060275316 0.05970802 -0.04439947 -0.020411078 -0.02984649 0.048028253 0.07398178
0.033468366 0.051182214 -0.07620776 0.027746543 0.0064884443 -0.06852788 0.06442191 -0.09004091
0.05325391 0.033340793 0.04161981 0.00013272342 0.056298926 0.03356196 0.052450366 0.05686469
-0.027856149 0.074626766 -0.048162077 0.0020198603 -0.060880784 -0.06430813 -0.00012247203 -0.011362006

features.5.weight f4 [64]
00000000: 08fd 703f 8810 843f 654e 803f 32f8 7b3f
00000010: 06b7 773f 9854 753f b20e 833f c7e0 803f
00000020: 9e04 813f 1b4c 813f 54c7 893f a1cc 773f
00000030: f6a6 833f df48 833f f277 733f fc2c 7e3f
00000040: 6c5c 7e3f 3d37 813f 57d2 893f 1bdd 7a3f
00000050: 8c6a 813f 8c73 7e3f 8d11 833f 750f 7c3f
00000060: c684 803f 56f9 7f3f 241a 803f 9935 813f
00000070: d8b5 723f 5222 803f 3854 823f 20c6 8a3f
00000080: 5bc1 833f 3266 6e3f 427c 803f 8837 7e3f
00000090: 8468 7f3f 43de 843f c3e0 723f 51a4 853f
000000a0: 4f33 803f a790 7e3f 4fd9 8a3f f22d 783f
000000b0: 1452 803f 5deb 7d3f 847d 7e3f 3c81 7f3f
000000c0: f1b4 7c3f f320 823f 827a 733f 6745 7c3f
000000d0: e809 7d3f 82ef 7c3f b4f4 7d3f 05cc 8a3f
000000e0: 8b87 7e3f b57b 7d3f 7006 7b3f 9b0b 823f
000000f0: 9c46 803f 1f11 733f fbeb 803f 6ffe 7e3f
0.94136095 1.0317545 1.0023924 0.9842559 0.96763647 0.95832205 1.023886 1.0068597
1.0079534 1.010135 1.0763955 0.96796614 1.0285327 1.0256613 0.951049 0.9928739
0.99359775 1.0094982 1.0767316 0.9799363 1.011064 0.9939506 1.0239731 0.98461086
1.0040519 0.9998983 1.0007977 1.0094482 0.9480872 1.0010474 1.0181952 1.0841713
1.0293382 0.9312469 1.003792 0.99303484 0.99768853 1.0380329 0.9487421 1.044077
1.0015658 0.9943947 1.0847567 0.96945107 1.0025048 0.9918726 0.9941027 0.9980657
0.98713595 1.0166305 0.9510881 0.985434 0.9884324 0.9880296 0.9920151 1.0843512
0.9942557 0.99016887 0.980567 1.0159792 1.0021548 0.94948 1.0072016 0.99606985

features.5.bias f4 [64]
00000000: 7920 63bd 585c 813d a155 963b bf17 2fbd
00000010: 9dad 70bc 5b04 60bc 770c c1bc ed4c c2bb
00000020: a7c7 573a 3e3e f9bc 1677 eb3b 1939 e3bc
00000030: adad 0c3d 3164 8abc afb3 fcbc 0d77 e5bb
00000040: c078 6cbc 38c0 eabb e9cf ef3c 123a 9abd
00000050: 397f ac3c 822b cd3b f6da 393d 5eaa e13b
00000060: 5e5f 643b 543b aabc cdad 07bd 765f 0a3d
00000070: 0367 1cbd de0a a2bc 1cf6 6dbc 7e8e 623d
00000080: 092b c83c eb33 74bd 843d bf3c fcbc 9a3b
00000090: 00b3 43bc 8eb7 a83d 4a18 70bd c8aa 4cbc
000000a0: c660 2d3c 3cfc 0fbc 75f7 123e cdaf 3cbd
000000b0: e748 f43c 6a91 53bb b8b7 55bc e8fc 803b
000000c0: 6913 f3bc 9b18 1a3d b663 83bd 3563 26bd
000000d0: b307 01bd 3b3a 673c 0109 40bd 0840 9f3d
000000e0: 7cf5 0fbd 2577 d2bc d12f da3c 58d0 9cbc
000000f0: d68d eebc 2aad 8bbd fe10 fe3a 23fa 803b
-0.05545089 0.06316441 0.0045878445 -0.042747255 -0.01468983 -0.013672913 -0.023565514 -0.0059295804
0.00082313496 -0.030425187 0.007185827 -0.027737187 0.034345318 -0.016893478 -0.030847399 -0.0070027173
-0.014433086 -0.0071640275 0.029273944 -0.07530607 0.021056758 0.00626129 0.045374833 0.0068867644
0.0034846882 -0.020780243 -0.033124734 0.033782445 -0.038184177 -0.019780573 -0.014524009 0.055311672
0.024434583 -0.059619825 0.023344763 0.0047222357 -0.011944532 0.08238135 -0.058616914 -0.012491889
0.010582155 -0.008788165 0.1435221 -0.046066094 0.029819919 -0.0032282718 -0.01304429 0.003936399
-0.029672341 0.03762112 -0.06415503 -0.040621955 -0.031501483 0.014113004 -0.046883587 0.07775885
-0.03514622 -0.025691578 0.026634129 -0.019142315 -0.029120367 -0.06820138 0.0019383726 0.0039360686

features.5.running_mean f4 [64]
00000000: c3d0 9f3e 02fb 36bf ff3e dcbd 2098 8ebe
00000010: 1201 09bf c531 60bf da6f 5abe 519c ccbe
00000020: 94fc 87bf 0559 cdbe 918a fdbd 3f33 3a3f
00000030: 19d6 65be 63b8 093f 436f ffbe 86f0 3d3d
00000040: c992 2b3e 44dd d0be 0cdd 0ebf 5f18 183f
00000050: 82bc bcbe c066 0b3f e851 0fbf c3c9 f1bd
00000060: 233c 1cbf 1595 b8be 4d9e 20bf b576 01bf
00000070: 492b 143f 806d 2abf 9b9d 6cbf 8809 f6be
00000080: 37f9 f4be 8376 133f f621 38be 2328 11bf
00000090: ca02 debe b86d ffbe 1ec4 123f c176 81bf
000000a0: eed5 b4be d5be c43b 0d17 b7be 9820 563f
000000b0: 934a 45bf 91df 12bf fbb8 93be 26ab 22bf
000000c0: c52f a0be 3473 f3bd 5c3b 603e 4652 8c3e
000000d0: 983e b2be afbb 09bf d53f a2bc 7e79 d3bd
000000e0: d906 3e3f 941d 053f aafb e7be 0adc 2c3f
000000f0: f21f b2be ee88 ccbe 9121 513e 5b24 0cbf
0.3121396 -0.7147676 -0.10754203 -0.27850437 -0.5351726 -0.8757594 -0.2133173 -0.3996301
-1.0623956 -0.4010698 -0.12379945 0.72734445 -0.22444953 0.53796977 -0.49889573 0.04637196
0.16755213 -0.40793812 -0.5580604 0.5941219 -0.3686257 0.5445366 -0.55984354 -0.11806061
-0.6102926 -0.3605124 -0.6274155 -0.5057176 0.5787855 -0.66573334 -0.92427987 -0.48054147
-0.47846386 0.5760271 -0.17981705 -0.5670187 -0.43361503 -0.49888396 0.573305 -1.0114366
-0.35319465 0.0060041943 -0.35759774 0.83643484 -0.77066916 -0.57372385 -0.28852066 -0.635424
-0.31286445 -0.118872076 0.21897644 0.2740652 -0.3481338 -0.5380201 -0.019805828 -0.10325907
0.742292 0.5199826 -0.45309192 0.6752325 -0.34789997 -0.3994822 0.20422961 -0.54742974

features.5.running_var f4 [64]
00000000: 83f8 363f 1d45 d33e a287 073e a585 013f
00000010: 3cbe f63e 68f1 703f fe03 6d3e 34dd 213f
00000020: 5ffa 113f 1dd7 813e a942 303e 2270 063f
00000030: 9bec 783e 2ba4 163f 6a2f b33e 6e73 7f3e
00000040: a172 8c3e cde3 2f3e 1343 3c3f 613d f43e
00000050: b1b1 b33e d411 873e bbec 3f3f e662 043f
00000060: 5970 8c3e c728 d13e 372e d73e e5ac 093f
00000070: 1fe7 1f3f 7494 e73e ce09 033f b720 033f
00000080: 8e86 103f 7909 6a3f ce66 0f3f 55e5 823f
00000090: b5a1 be3e 9c58 e73e a605 653f e710 203f
000000a0: 4911 053f 9c9d 823e ca15 eb3e 874e f13f
000000b0: ff43 bf3e 8847 c53f 63cb cd3e 4d62 523f
000000c0: b9eb 8d3e 0cb9 1d3f 51c8 013f 092a 033f
000000d0: d265 2b3f 6bc1 d93e 23ea 0a3f d725 f63e
000000e0: fe73 0f3f b70c 2a3f b09b b93e 0114 5c3f
000000f0: 69a5 053f d5eb 283f 26d4 383e 867a 6c3f
0.7147295 0.41263667 0.13235334 0.5059455 0.48192012 0.94118357 0.23146054 0.63228154
0.5702266 0.2535943 0.17212929 0.5251485 0.24309008 0.5884425 0.34997112 0.24946377
0.27431205 0.17176743 0.7353985 0.47703078 0.35096505 0.2638079 0.749706 0.5171341
0.27429464 0.40851423 0.42027447 0.5377944 0.6246204 0.45230448 0.51186836 0.51221794
0.56455314 0.91420704 0.5601624 1.0226237 0.37232748 0.4518479 0.89461744 0.6252579
0.519795 0.2551087 0.4591506 1.885209 0.37356564 1.5412455 0.40194234 0.82181245
0.27718905 0.61610484 0.50696284 0.51236016 0.6695224 0.4253038 0.54263514 0.48075745
0.56036365 0.6642565 0.36251593 0.85968024 0.5220552 0.6598485 0.18049678 0.92374456

features.8.weight f4 [128, 64, 5]
00000000: 0418 2d3c 0c6a 413d 5d10 173c e0f9 1b3c
00000010: 1df3 26bd 95d0 803b 0370 493d 833c 17bd
00000020: b7a3 e43a 713a 2bbc 3c32 0dbd e107 083d
00000030: b6a6 c43b 743a 0abd c638 98bc 0995 77bc
00000040: b4b5 6abd cde1 863b 7ef3 af3c ca72 aa3c
00000050: 893e e4bc 49ac 733d bf89 0e3d 9aab 2fba
00000060: 91b0 99bc 9b15 59bb 2dbd 673d d9ed d3bc
00000070: 9c82 033d 484e 95bc 0e73 2ebd 239f eabc
00000080: c592 233d 1c0a 99bc 1770 103d fc88 91bc
00000090: f62d acbc 2736 66bd bf29 e0bc c88a 23bd
000000a0: aff9 5a3d 59fb edbc d427 243d 7261 23bc
000000b0: f4bd 54bd 2369 8ebc 70cc 523d a6d3 343d
000000c0: 6478 233d 8eb2 5e3b 65d0 13bd c095 84bd
000000d0: 1ad5 b0bd 3a3b 023c 841d dcbc 2367 21bd
000000e0: 0a25 d43c f2e3 48bd 0bfd e53b 1c90 8ebd
000000f0: a15c 8a3c c287 cfbb 1f45 2cbd 2aee a4bc
00000100: 59ac 98bd 0a4f 733c 49fa 8e3c 062c 4c3d
00000110: fc44 813c 541f 493d 0f23 ae3d ca43 023c
00000120: f446 433c 2a2f 0fbd 434f 0c3d 5091 80bd
00000130: b0b0 f8bc 4ec4 80bd 7ce8 0bbd ada4 713c
00000140: e1f9 893b f21a 1abd 4cb6 9a3c daf9 95bd
00000150: 6aaa 78bc e51d 3a3c d67a 7e3d daa5 1ebc
00000160: f86f 00bd e305 063c a028 483d d65d f4b9
00000170: 5a1b abbd 0f77 b6bd f2eb 98bd 350a 783b
00000180: 22b2 413c 3ef3 8a3c 2448 b5bc 8d5d fbbc
00000190: 5bc8 283d 82df 993c 8e01 f93c 0a73 073d
000001a0: 3e20 1fbc 35e8 19bd 7d23 09bd b3d4 25bd
000001b0: 8a39 0abd 12d6 4bbd 350a 36bc e99f 093c
000001c0: 4d57 4cba ae7f 603b 7f2f b83c 5cb5 39bd
000001d0: 0365 ffbc 1cbc 08bd 865d d5bc 69fe ad3c
000001e0: 0471 39bd 9eb3 8dbc 96d8 f4bc 1330 35bb
000001f0: 2f38 cabc 8e18 8eb9 2135 bc3c acf2 cb3c
00000200: 7c1d 1bbd b589 7c3d 8533 1b3d 4926 a53b
00000210: 8893 16bc 09fb 61bd 45b4 76bd bca0 6d3d
00000220: cf49 933b d237 f73c 61a7 91bd c0c7 c6bc
00000230: 56c5 353d cb82 f83b 3cb2 f03c 395e 2fbd
00000240: 5b6f 1c3d 16cb 8c3b e225 e0bc 2e64 313d
00000250: 25d3 98bc 7c03 b1bc 70f8 023a a815 583c
00000260: 6a4b 833d 72b5 643d c1ad ea3b a738 0b3d
00000270: 4cc3 d03b 2a8b 85bd ee41 86bd 5dee 2ebd
00000280: f9d5 afbd 2f71 c8bd 54a3 e1bd 8710 c0bd
00000290: 3f8a 753c dc9c 4abd 61c6 94bd 2f44 0b3c
000002a0: e57b f7bb 46cc 82bd 5074 dfbc 6f54 b9bc
000002b0: 6c7f 28bd febf f7bb abb4 9ebd de37 a2bc
000002c0: 4fe7 01bd d6e4 7fbd f34f c1bc e978 063c
000002d0: 098b bbbd f318 453b d223 0fbd d0a4 eabc
000002e0: 9fb1 de3c de06 2e3b b9fd 7b3b 6196 5abd
000002f0: 96c7 23bd fa9b 7bbd 379e b03b 1da0 c93c
00000300: 9662 2c3d d557 283d 00c1 2e3d e141 9abc
00000310: 7775 913d 60f6 783d 2b6c 163c d9c0 ffbc
00000320: 0fcf 413d b5f0 473d 3bbe b9bc 6249 d43c
00000330: 59f2 70bd 9064 acbc 042d 5fbb fe05 c9bb
00000340: 0f72 41bc 34ed a7bd d2f7 dabb e15e 08bd
00000350: 2600 1a3c e475 efba def0 a8bc 686b 75bd
00000360: 4b4a 91bd 3650 84bd b46d babc dca8 66bc
00000370: 1701 7c3d fafe 903d f3fa 07bd 5ed0 433d
00000380: c7ad 193c 42ab 8ebd 9eed 84bd b4b4 6d3c
00000390: 077a 353d 7f11 033d 4251 16bd 5e55 3ebd
000003a0: c5d4 dd3c d072 4bbc 4fca d2bc c83f cc3c
000003b0: df3e 20bd f272 eebc 3037 91bd 31ce 86bd
000003c0: 28c9 3cb9 fd74 e13c 6b62 973c d68d 4c3c
000003d0: f635 77bd 430f 843d 56a2 3c3d 897f 413d
000003e0: 319c 0b3d 58ae 62bc 04e3 7fbd e005 dcbc
000003f0: 84f7 8ebd b247 d0ba 5d2b 51bc cd52 6ebd
0.010564808 0.047220275 0.00922021 0.009520024 -0.040759195 0.003931115 0.04917909 -0.036922943
0.001744381 -0.010450945 -0.034471735 0.03321064 0.006001319 -0.03374715 -0.01858176 -0.015111216
-0.05730219 0.004116273 0.02147841 0.020806689 -0.02786185 0.059490476 0.034799334 -0.0006701291
-0.018760951 -0.003312445 0.056576896 -0.02587025 0.03210698 -0.018225804 -0.042590193 -0.028640335
0.039934892 -0.018681578 0.035263147 -0.017765515 -0.02101801 -0.056203987 -0.027363656 -0.039927274
0.053460773 -0.029050516 0.040077046 -0.009971963 -0.051938966 -0.017384117 0.051464498 0.044147156
0.039909735 0.0033980939 -0.036087412 -0.06473875 -0.08634396 0.007948691 -0.026869543 -0.039405
0.025896568 -0.04904551 0.0070186905 -0.069610804 0.016889872 -0.0063333223 -0.042058107 -0.020133097
-0.07454748 0.014850387 0.01745333 0.04984667 0.015779965 0.049102142 0.08502781 0.0079507325
0.011918772 -0.03495709 0.034255277 -0.06277716 -0.030357689 -0.06287442 -0.03415726 0.014748734
0.004210696 -0.037623353 0.018885754 -0.07323046 -0.015177349 0.0113596665 0.062128864 -0.009683097
-0.03135678 0.008180114 0.048866868 -0.0004660922 -0.08354826 -0.089094274 -0.07466878 0.003784788
0.011822255 0.01696169 -0.022129126 -0.030684257 0.0412067 0.018783335 0.03039625 0.033068694
-0.009712277 -0.037574966 -0.03348111 -0.04048605 -0.03374628 -0.0497647 -0.011110832 0.008399942
-0.0007794991 0.003425579 0.022483585 -0.045338973 -0.031176096 -0.03338252 -0.026045572 0.021239476
-0.045273796 -0.017297562 -0.029888432 -0.0027647063 -0.024684994 -0.00027102645 0.022974553 0.024895988
-0.037869915 0.061654765 0.03789093 0.0050399643 -0.009190448 -0.055171046 -0.060230512 0.058014616
0.0044948827 0.030177984 -0.07112003 -0.02426517 0.044377647 0.007583951 0.029381864 -0.042814467
0.038192134 0.0042966707 -0.027361814 0.04330843 -0.018655369 -0.021608107 0.00049961265 0.013188757
0.064108685 0.055837102 0.0071618264 0.033989575 0.0063709375 -0.06520684 -0.06555544 -0.04270779
-0.08585734 -0.09787213 -0.110174805 -0.09378152 0.014986574 -0.049466 -0.072644 0.008500143
-0.007552611 -0.06386618 -0.027277142 -0.022623269 -0.041137144 -0.007560729 -0.077493034 -0.01980203
-0.031714734 -0.062474094 -0.023597693 0.008207538 -0.09157378 0.0030074685 -0.03494627 -0.028643042
0.027184306 0.0026554386 0.003845079 -0.05336607 -0.03998526 -0.061428048 0.0053899544 0.02461248
0.042086206 0.04109939 0.042664528 -0.018830242 0.07102483 0.060781837 0.009181063 -0.031219887
0.047316607 0.04881354 -0.022673717 0.025913898 -0.05882487 -0.021044046 -0.003405393 -0.0061347475
-0.011806979 -0.0819954 -0.0066823745 -0.03329361 0.009399449 -0.0018269387 -0.020622667 -0.059916884
-0.070942484 -0.064606115 -0.022757389 -0.014078345 0.061524477 0.07079883 -0.03319831 0.047806136
0.009379811 -0.069662586 -0.064906344 0.014508415 0.044305827 0.031999107 -0.036698587 -0.04646813
0.027078995 -0.01241751 -0.025731234 0.024932757 -0.03912246 -0.029107545 -0.07090604 -0.06582297
-0.00018004014 0.027521605 0.018479547 0.012484988 -0.060354196 0.064482234 0.046053253 0.047240768
0.034084503 -0.013835512 -0.06247236 -0.02685827 -0.069808036 -0.0015890507 -0.012766686 -0.058184434

features.8.bias f4 [128]
00000000: e928 123d e069 c03c 7483 2cbd 3bb1 393c
00000010: 196a 5a3c dd04 8cbc 8eb8 8ebb 54ee 193d
00000020: d716 d13b 1621 4cbc 0fad 98bc fc79 94bb
00000030: 3340 7f3c 09ad 943c dc98 fdbc 351f 5f3c
00000040: d115 233a aa0e 0c3b e469 fcbc fa73 613c
00000050: 8ee7 3a3c cda3 14bd 9be0 5cbd 05c0 19bc
00000060: f936 8abc f19e bfbc 97a7 2f3d 0465 ac3a
00000070: d782 80bd 6eab fb3c f92e d2bc b346 223d
00000080: 0caa 9f3c 948b 40bd 5406 9abc 2744 123d
00000090: 95b9 35bd aa67 1ebc 04b0 10bd 95d9 203d
000000a0: 85aa 1dbd 2946 34bc 29a2 473d 4574 65bc
000000b0: f92c 4fbd 98e2 ac3d 8bb8 853d eaf3 2cbc
000000c0: 5cfa 1a3d bc7f 993c 4bf5 92bd 73c0 37bd
000000d0: df03 4fbd 678d 513d 8c7b 08bd 5fda 11bc
000000e0: 32da 863c c77e 0abd bd6d 5a3d 76f1 a03c
000000f0: 8491 263c cb9c 97bc 092f 143d e4a2 01bd
00000100: 1888 503d ab11 da3c ace3 c83c 3048 2b3d
00000110: 8d96 7abd c5a1 a43c cd2a 8e3c a4ae 4cbd
00000120: 2bea 1f3d 2a5d 53bb 1f0d 5ebd 3dbd 03bd
00000130: 02c1 193c d361 f7bc e0aa 7bbd 604e a7ba
00000140: 8328 673b ae46 e23c 0578 01bd a824 8f3c
00000150: 47f4 b4bc f4ce 1b3d 4f2f 7d3d 0b52 123d
00000160: 4ce1 2fbd 0f36 5abd a048 e53c 210f 48bc
00000170: 182f 3bbd cb9a a73d 116c 4e3d a634 513d
00000180: be2f b33c a8d7 27bd 35ca f73c 014f 5cbd
00000190: 06b4 40bd 3a8a 4dbc 9075 6abd a620 c53a
000001a0: e9ef 43bb d928 993c c9b5 583d 4ecc 5c3d
000001b0: a9e9 a13a 9f42 6dbc 58ce d83c 6bb5 14bd
000001c0: 040a 383a 4c06 6fbc 9b07 133d 37d0 a4bc
000001d0: c9d9 243d 0100 8abd aad0 8cbb 654c 30bd
000001e0: 9348 93bc a6b6 4f3d 23f5 053c e8c3 80bd
000001f0: 6af4 85bb e966 bd3c 1552 c13c 8237 513c
0.035683546 0.023487985 -0.04211755 0.011333759 0.01333096 -0.017092163 -0.0043554967 0.037580803
0.0063808965 -0.01245906 -0.018637208 -0.0045311432 0.015579271 0.018148916 -0.030956678 0.01361828
0.00062212074 0.0021371045 -0.030812211 0.013760561 0.011407746 -0.036289025 -0.053925138 -0.00938416
-0.016871916 -0.023391219 0.042884436 0.0013152664 -0.06274956 0.030721392 -0.025657164 0.039618205
0.019490264 -0.047008112 -0.018801846 0.035709526 -0.044366438 -0.00966827 -0.03532411 0.039270002
-0.0384927 -0.011003056 0.048738632 -0.014004772 -0.05058 0.08441657 0.065293394 -0.0105562005
0.037836418 0.018737666 -0.07175692 -0.04486127 -0.0505408 0.051160242 -0.03332095 -0.008902161
0.016461466 -0.03381231 0.05332731 0.019646388 0.01016653 -0.018507382 0.03617767 -0.031649485
0.05091104 0.026619753 0.024522625 0.04181689 -0.061178733 0.020096669 0.017354393 -0.049971238
0.03904168 -0.0032251575 -0.054211732 -0.032162894 0.009384396 -0.030198013 -0.061442256 -0.0012764446
0.003527195 0.027621593 -0.0316086 0.017473534 -0.022089137 0.038039163 0.061812695 0.035722774
-0.04293947 -0.05327421 0.027988732 -0.012210638 -0.04569921 0.08183821 0.05039603 0.0510756
0.021873351 -0.04097715 0.030247787 -0.05378628 -0.047046684 -0.012545163 -0.057241023 0.0015039637
-0.0029897636 0.018696235 0.05290774 0.053905778 0.0012352961 -0.014481216 0.02646558 -0.036305826
0.00070205354 -0.014588904 0.035895925 -0.020118816 0.04024676 -0.06738282 -0.0042973356 -0.043041606
-0.017978942 0.050711296 0.008176121 -0.06287366 -0.0040879743 0.02312036 0.02359871 0.012769582

features.9.weight f4 [128]
00000000: 0f45 853f ab96 763f 3e7c 853f c2d8 863f
00000010: 2ce1 7a3f 2992 7d3f 6028 773f 4f9d 883f
00000020: 7e88 783f ffb0 823f 3a88 843f 08c2 853f
00000030: 9d15 7e3f 4b0c 773f 961d 783f 377f 8b3f
00000040: 0a31 893f 2683 803f 087e 803f f983 7f3f
00000050: 93a2 7a3f 1158 873f 3e23 683f 2cd6 6f3f
00000060: fd09 743f 92bc 793f b28c 863f 341c 6b3f
00000070: 96f1 7c3f 7fdf 6a3f 0612 813f 98a2 793f
00000080: a3b8 843f a51c 843f 01f9 7e3f 8e3d 7c3f
00000090: fb66 693f e034 683f 39ce 793f 35da 883f
000000a0: eb73 793f 3081 703f 6e7e 813f 8647 7b3f
000000b0: 4af0 7b3f f8be 7e3f 1744 773f 710b 713f
000000c0: 70bb 823f 7020 793f 53ca 803f 536a 823f
000000d0: 7762 7c3f 904c 7e3f 15af 7e3f 3d83 773f
000000e0: e7cc 753f 731e 803f 94fa 733f 7f43 7b3f
000000f0: 3f64 713f 17cc 733f e210 733f d822 893f
00000100: b38c 783f 5516 743f de77 7d3f 2be8 7e3f
00000110: b322 773f 8d36 843f e9fe 793f c827 833f
00000120: a3d3 753f 58b5 7c3f acb5 7f3f a0d6 853f
00000130: 71a1 793f 1add 7f3f 0973 7a3f 7462 803f
00000140: 7f57 703f e485 7c3f c45a 823f 3ff4 733f
00000150: 26b8 823f a55f 833f ef10 6f3f 56ad 813f
00000160: 180c 7f3f cb6f 833f cb6d 7b3f 83ad 6b3f
00000170: 8491 693f 7513 803f 84eb 763f 56f0 723f
00000180: 62db 763f 7aaf 803f 2bd1 7f3f e708 843f
00000190: 669a 833f 053b 6f3f de69 803f bc48 803f
000001a0: 4e0b 7f3f 6da0 883f 485f 813f 9fe2 7f3f
000001b0: b198 733f d9b8 863f c447 7e3f 0c7d 7e3f
000001c0: 1876 753f 8637 7e3f 962e 7b3f ae77 7d3f
000001d0: e3f6 823f 9770 793f 457c 703f 41ad 7e3f
000001e0: c37b 763f b737 773f 2ab7 713f cee9 6d3f
000001f0: bd7c 7d3f 0eaf 753f 8df1 623f 507b 753f
1.04117 0.9632365 1.0428541 1.0534899 0.97999835 0.9905115 0.9654598 1.0673007
0.9708327 1.0210265 1.0354073 1.0449839 0.9925173 0.9650313 0.96920145 1.0898198
1.071809 1.0040023 1.0038462 0.9981075 0.9790432 1.0573751 0.90678775 0.93686175
0.9532774 0.9755336 1.0511687 0.9183991 0.9880613 0.9174728 1.0083625 0.97513723
1.0368847 1.0321242 0.995987 0.98531425 0.9117276 0.9070568 0.97580296 1.0691592
0.974425 0.93947124 1.0116708 0.9815601 0.98413527 0.99510145 0.9658827 0.94158083
1.0213451 0.9731512 1.0061744 1.0188698 0.98587745 0.99335575 0.99485904 0.9668463
0.9601578 1.0009292 0.95304227 0.98149866 0.9429359 0.9523329 0.94947636 1.0713758
0.9708969 0.95346576 0.9901103 0.9957301 0.9653732 1.0329148 0.9765459 1.0246515
0.96026057 0.9871421 0.99886584 1.0456123 0.97511965 0.9994675 0.9783178 1.0030046
0.9388351 0.986418 1.018395 0.95294565 1.0212448 1.0263563 0.93385214 1.0131023
0.9962783 1.0268492 0.98214406 0.9206163 0.91237664 1.0005938 0.9645312 0.94897974
0.964285 1.0053551 0.9992854 1.0315217 1.0281494 0.9344943 1.0032308 1.0022197
0.99626625 1.0673958 1.0107203 0.9995517 0.95154864 1.0525161 0.99328256 0.99409556
0.9588332 0.9930347 0.9811796 0.9901074 1.0231594 0.97437423 0.9393962 0.99483114
0.96282595 0.9656939 0.9442011 0.9293488 0.9901846 0.9597024 0.8864983 0.95891285

features.9.bias f4 [128]
00000000: eb2f d0bc b535 f9bc 5bdb 8dbd c675 723a
00000010: c2b0 2ebd da12 b1bc 8027 85bd 2411 35bd
00000020: 0500 c5bd c263 38bc a72e b8bd bebc 553d
00000030: 3699 60bd 0432 11bd 8aa8 debd 753e 04be
00000040: d70e 66be 67e5 34bb c686 ccbd f78a 5cbd
00000050: 40d8 b3bc f1a7 a0bd 620d aebd 554c 22bd
00000060: 5f8a 3fbd 243e 47bd 2b27 11bd 2087 c4bd
00000070: 6d97 03bd cc6b 32be b8c4 35bd 7201 0ebd
00000080: abc1 39bd 1ce5 d8bd c756 36bc 0f1e f3bc
00000090: 63fd f1bd 925e 84bd 5431 80bd f9fe 95bc
000000a0: 79a8 08bd 6fb6 87bd a7d5 7cbd 58eb 7dbd
000000b0: e1c9 acbc 65c6 11be cb37 a0bd ed9c 01bd
000000c0: 2bc4 a8bc 8b3c febc b522 95bc acb2 88bc
000000d0: 4e4a 5abd f0c8 20bd 7fd4 f1bd 6dcc 66bd
000000e0: 0494 d0bd 717a bdbd 0a6b 45bd 2187 67bd
000000f0: 3b8b a8bd 8e13 42bd 8daf 81bc c006 3fbe
00000100: 746e e2bc 643d 67bd 5d3a 69bd e614 d6bd
00000110: ee9a b9bd a0b4 b9bd dd10 2abc 3036 37bc
00000120: 8a43 a3bc b6e9 f7bc 2707 1abd a7b8 9dbd
00000130: 8be5 d1bc 726b cebd 4bd1 1abd 744c 9cbd
00000140: e21f 81bd 8cbe f4bd 4c95 acbd 7352 7ebd
00000150: 0931 99bc 39e8 43bd 5627 81bd 636f 32bd
00000160: 9fc3 fdbd ad03 ef3a 8814 edbc a821 aabd
00000170: eb94 c9bd 1154 42bd 3fcc 24bd adcb ddbc
00000180: d3a3 69bd 0082 e7bd 320b 94bc e085 bdbd
00000190: eb14 3abe c962 18bd 4590 57bc d3c3 93bd
000001a0: 5bde 37bc f96b 2d3c 55d3 47bd c1b6 97bd
000001b0: 1c23 63bd bce0 82bd a071 3ebd 31e8 e5bd
000001c0: 8c90 06bd e99d b6bd 14a6 97bd ef47 9cbd
000001d0: 62ed 5bbd b3f0 ccbc a4f1 a2bc d1cf d9bc
000001e0: 415b e8bd 384d 02bd dbfc adbc 36ea acbd
000001f0: 7e45 cfba 3a9b bcbd 4db5 bebd e1fc f5bd
-0.025413474 -0.030421117 -0.06926604 0.0009249117 -0.042649038 -0.021615434 -0.06501675 -0.0442058
-0.09619144 -0.011254253 -0.08993273 0.05218195 -0.054833613 -0.03544809 -0.1087199 -0.1291445
-0.22466598 -0.0027602555 -0.099866435 -0.053843465 -0.021953702 -0.07844532 -0.08498646 -0.039623577
-0.04676282 -0.048643246 -0.035437744 -0.095960855 -0.032126833 -0.17423934 -0.04437706 -0.034669347
-0.04535071 -0.10590574 -0.011129088 -0.029677419 -0.11815908 -0.0646335 -0.062594086 -0.018310057
-0.033363793 -0.06626593 -0.061727192 -0.06199202 -0.021092357 -0.14235838 -0.07823142 -0.031643797
-0.020601353 -0.031034729 -0.018205026 -0.01668676 -0.05329352 -0.03925413 -0.118081085 -0.0563473
-0.10184482 -0.092518695 -0.048197784 -0.056525353 -0.08229681 -0.04738193 -0.01583078 -0.18654919
-0.027640559 -0.05645503 -0.056940425 -0.10453205 -0.090627536 -0.090676546 -0.010379997 -0.011182353
-0.019929666 -0.03026281 -0.037604477 -0.07701235 -0.02562215 -0.10079087 -0.037797254 -0.0763177
-0.06304909 -0.119504064 -0.084269136 -0.06209035 -0.01870014 -0.047828887 -0.06306331 -0.043563258
-0.123908274 0.0018235348 -0.028940454 -0.08307201 -0.09842857 -0.047443453 -0.040233847 -0.02707466
-0.057041 -0.113040924 -0.018071745 -0.0925405 -0.18172042 -0.037203584 -0.013156955 -0.07215085
-0.011222447 0.010584825 -0.048785526 -0.074079044 -0.055453405 -0.06390521 -0.04649508 -0.112259276
-0.032852694 -0.08916838 -0.07404724 -0.07630908 -0.053693183 -0.025017118 -0.019890614 -0.026588352
-0.1134553 -0.031811923 -0.021238735 -0.0844311 -0.0015813557 -0.092092946 -0.09311924 -0.120111234

features.9.running_mean f4 [128]
00000000: 4139 83bf cc86 2cbe 041e 19bf 65e1 b0be
00000010: 4b25 56be afd2 bbbe 16f6 45be 8ed7 98bf
00000020: 4367 9d3e e0dc 18be b66c ffbe f1b1 93bf
00000030: 1df2 ee3a 139c acbf 8ffe 6d3f f7be 8ebf
00000040: 4d49 4bbf a280 92bf a353 36bc d31e a5bd
00000050: 3abc 95bc e7be 80bf ac6f 9dbf b307 aabe
00000060: a582 0f3f dd03 acbe 40c9 59bf 6064 633e
00000070: d6b5 c1be 9e90 3fbe 3929 33be 1586 033e
00000080: e51a 163e 135c c2bd 19f3 10bf 9717 afbf
00000090: 45ef 4abf e6c9 88bf 96b3 bbbd 2d34 8dbf
000000a0: d2dd 4dbd 7952 9abe 946b 86bf 1fae 4dbf
000000b0: 2c7d 26be 7b21 69be 3a43 233e 8b79 64bf
000000c0: 38c7 f5be 48ed 1fbf 4303 d33d ec20 153d
000000d0: 9fc1 13be 2039 95bd d695 b53c 38e7 09be
000000e0: 380c acbe 5862 f13e 10f5 12bf d38e 30be
000000f0: 3a88 b4be 9e1d 2abf 9e82 bebf 681a 12be
00000100: 39ad d7be 827a 6b3e 12c4 86bb d04f dabe
00000110: 1765 a23e 9920 1dbd 0185 66bf 31b3 51bf
00000120: 4b08 95bf 5960 813a f1a5 61be c964 753d
00000130: cac9 03bf 3c0f f23e 2d13 33bf c63b 003f
00000140: d08c 2bbf b21b 5d3f 9ae3 5abe c6c9 e1be
00000150: 59db f1be d462 6e3e 5239 4fbe f7bb c9be
00000160: 7bea 093f 0a17 9fbe b452 04bf 267f 1bbf
00000170: 1436 c8be 491e 83be 142d 33bf 5bc4 45bf
00000180: a99b 463e 0085 cfbe d263 5bbe 2210 ae3d
00000190: 91dc fcbe 9ade ffbe 747e 1ebe bd37 9ebd
000001a0: 9102 b0be b7dc a9be a2be 52bd 1f23 353e
000001b0: 6c7b 77bf 0683 50be b05a c1be 2723 703d
000001c0: fcb4 73bf b7a0 e7bd 7903 af3d 23be f53e
000001d0: f1af 3dbe 70ed 25be 9de4 5cbf 9eb0 72bf
000001e0: 8164 103d b8e9 b4bd 8f0c b0be 6353 8c3d
000001f0: ac6e 62bf 8f46 163f 047b 07bf 23fe 45bf
-1.0251848 -0.16848296 -0.59811425 -0.34546962 -0.20912664 -0.36684176 -0.19332156 -1.1940782
0.30742845 -0.14928007 -0.49887627 -1.1538678 0.0018230114 -1.348513 0.9296655 -1.1152028
-0.79408723 -1.1445506 -0.011128339 -0.0806252 -0.01827823 -1.0058259 -1.2299705 -0.33209
0.5605872 -0.33596697 -0.8507271 0.22206259 -0.37834042 -0.18707511 -0.17496194 0.12844117
0.14658697 -0.09490218 -0.5662094 -1.3679074 -0.79271346 -1.0686615 -0.09165113 -1.1031548
-0.050260372 -0.30141047 -1.050158 -0.8034381 -0.16258687 -0.22766678 0.15943614 -0.8924796
-0.48003554 -0.6247144 0.103033565 0.03640835 -0.1442933 -0.07286286 0.022166174 -0.13467109
-0.33603072 0.47145343 -0.57405186 -0.17241983 -0.35260183 -0.6645144 -1.4883611 -0.14267886
-0.42124346 0.22995952 -0.004112729 -0.42639017 0.3171775 -0.038361166 -0.900467 -0.8191405
-1.1643156 0.0009870633 -0.22035958 0.05991057 -0.5147978 0.47277248 -0.69951135 0.5009121
-0.6701174 0.86370385 -0.21375886 -0.44099253 -0.4723766 0.23279887 -0.2023671 -0.39401218
0.53873414 -0.31072265 -0.51688695 -0.6074089 -0.39103758 -0.25609043 -0.6999066 -0.7725274
0.19395317 -0.40531158 -0.21424797 0.08499171 -0.4938703 -0.4997452 -0.15477926 -0.07725475
-0.34376958 -0.33176205 -0.051451333 0.17689179 -0.966727 -0.20362481 -0.37764502 0.058627274
-0.95198035 -0.11309951 0.08545584 0.47996625 -0.18524148 -0.16203856 -0.86286336 -0.94800746
0.035252098 -0.08833641 -0.3438458 0.06851842 -0.8845012 0.58701414 -0.5292208 -0.77340907

features.9.running_var f4 [128]
00000000: d390 4f3f e4ce 3d3f 17c4 1d3f 0a64 043f
00000010: 004f ce3e 7e5b fe3e e5a6 c83e 115b 2b3f
00000020: a8b5 173f a853 fa3e d32a a63e 63ac bd3f
00000030: 7585 133f 3807 933f 278b 7a3f 89df 363f
00000040: 06d6 eb3e a754 0040 1ebf 003f dbb4 ca3e
00000050: 8991 493f 63d2 4a3f f9f2 ab3f 1a26 263f
00000060: d46f 393f f5c8 823f e6b5 373f 38f6 3e3f
00000070: 0e8b f43e 51e5 c43e f293 013f 0545 0d3f
00000080: 7370 e13e 0566 d73e db39 3e3f 586c f43f
00000090: f566 9e3e a834 d03f 5d73 193f b250 4b3f
000000a0: 7a78 153f ca2c 193f f39b 693f 862b 6f3f
000000b0: 599f 433f f304 ee3e 506e 873f 70a8 a23f
000000c0: 3293 443f eb3a ca3e dfe8 053f faed dc3e
000000d0: 7232 073f 01db 143f 780d 2a3f 6f34 1b3f
000000e0: 0d87 8d3f 7e38 ff3e 7067 403f 5eda b73e
000000f0: d602 463f 00c7 883f 251a 0d40 b570 c63e
00000100: 379a 5a3f c789 7f3e 4ffa ac3e 5591 e63e
00000110: 27d6 3f3f de4d cf3e 5af3 b63f 1bf3 4a3f
00000120: 596c 893f 6d92 eb3e ef18 293f 33ab 5f3e
00000130: f4cd 2e3f 99e9 133f d512 953f a7a0 523f
00000140: 6282 a33f b586 0b3f d00f ab3e 5090 453f
00000150: dcb1 503f 6821 e93e 0cbb 5f3f 1d03 483f
00000160: 8150 3a3f b512 e13e 7019 683f d0ca 183f
00000170: 3743 9e3f 3771 4e3f 8b45 793f 06c4 873f
00000180: a844 ea3e 39e6 e03e fec6 ea3e 925d 8e3e
00000190: a48b 253f 7908 403f f12f 873e 0596 023f
000001a0: b7e5 c93e 1ce0 c33e d3d1 c13e 3c2d 123f
000001b0: 9730 d63e 93e8 953e b1b1 e63e 148d 113f
000001c0: 71a8 ca3f aec2 043f f067 383f 126e 573f
000001d0: 19e0 a53e 7528 8c3e 5e72 c73f 7061 df3e
000001e0: c547 bf3e 9c46 053f 9e93 ee3e 32fb 0b3f
000001f0: 42b5 233f 0361 1c3f 2438 b73e 3e86 1c3f
0.8108036 0.74143815 0.61627334 0.5171515 0.40294647 0.49679178 0.3918983 0.6693583
0.5926156 0.4889195 0.32454547 1.4818233 0.57625514 1.1486578 0.9786858 0.7143484
0.46061724 2.0051668 0.5029162 0.39591107 0.78737694 0.79227275 1.3433524 0.6490189
0.7243626 1.0217577 0.7176193 0.7459445 0.4776234 0.38456205 0.5061637 0.5518344
0.44031104 0.42070022 0.7430703 1.9095564 0.30937925 1.626607 0.59941655 0.79420006
0.5838696 0.5983397 0.91253585 0.93425786 0.7641502 0.4648815 1.058054 1.2707653
0.767871 0.39498076 0.5230846 0.43150312 0.5281135 0.58146673 0.664268 0.6062688
1.1056839 0.49847788 0.75157833 0.35908788 0.7734808 1.068573 2.2047207 0.38757864
0.85391563 0.24954902 0.3378472 0.45032755 0.74936146 0.40489095 1.4293015 0.792772
1.073619 0.46010152 0.6605367 0.21842651 0.6828301 0.57778317 1.1646372 0.82276386
1.2774165 0.5450242 0.334105 0.7717333 0.8152139 0.455333 0.87394786 0.7812975
0.7277909 0.43959585 0.90663815 0.5968447 1.2364262 0.806415 0.9737174 1.0606697
0.45755506 0.43925646 0.45854944 0.27805763 0.646662 0.7501293 0.26403764 0.5101016
0.3943307 0.3825692 0.37855396 0.5710027 0.41833946 0.29279003 0.45057443 0.56855893
1.5832654 0.5185956 0.72033596 0.8415233 0.32397535 0.27374616 1.5581777 0.43629026
0.37359443 0.52060866 0.46596998 0.5468017 0.6394845 0.6108553 0.3578502 0.6114234
