experiment_testing/mz-testing/checkpoints/ptbxl/250hz/cnn1d/fold_5/last.pt (torch, 628765 bytes, 26 tensors)

features.0.weight f4 [32, 12, 7]
00000000: 9824 05be e4df 70bd 0821 323d c9c8 4b3d
00000010: 5c81 a4bc 9faf 793d 097b 383d 279a 123c
00000020: 5c27 1cbd 7aa6 233d 17bb 103c b267 51bd
00000030: 60db 4ebd c7d8 073d 5c79 dabd 1e39 c8bd
00000040: a704 37bd 87f8 91bd 1ce1 ef3d 28de 873d
00000050: 6e2f ffbb 354f a8bc d430 8d3b bdd0 ed3d
00000060: 17ea ef3d 48a8 36bd a4a3 4c3d 50f8 eabd
00000070: 9cb7 453d 0c3c 9d3d e651 223c 5c96 d4bb
00000080: 00d3 433c 0390 0c3d dcf3 293d 27d1 d63d
00000090: ebc8 e5bc f937 4cbc 7c81 843b c775 de3d
000000a0: 37bf f23d 9a5e 60bd 307b 9d3d 98b7 73bd
000000b0: 287d 813c de20 c33d 3066 9d3d f1c7 923d
000000c0: 6d08 2fbd 4869 fdbd 820b 413d 9d28 8c3d
000000d0: 3e2b 93bd 8354 c33d 997f 6bbd 5221 f4b9
000000e0: 021a 72bd 22b4 80bd dd3e b1bc fba7 1f3d
000000f0: 3938 bfbd 6b40 a63d 8f2e 97bd 3c98 94bd
00000100: ef26 ad3c 1607 723c eaff c9bd ef43 9f3d
00000110: 2cbf bc3b 11fc f8bd a0e4 953d b97b a83c
00000120: 39ad 423c 2633 b3bd 498a 933d b497 063e
00000130: 6212 153e 768e b4bd ba35 8a3d 1955 853d
00000140: 355f c03c edcd 083d 4e3e 8f3d 96ab c23d
00000150: 485b ec3c dce2 3fbd 0643 23bd 4085 01bd
00000160: 54c0 22bd 5597 05ba 3110 cdbd 714b a7bd
00000170: f52f 8d3d 6d02 ff3c 9b7d 4ebd 870b ff3d
00000180: 29ac ef3d 141f fe3d c7ca d4bd 4185 463b
00000190: fdf4 8ebd ef09 9cbd 05c0 333c 668d bc3c
000001a0: 23e1 a4bd 24b9 96bd 41c3 d8bc 971f 413d
000001b0: ed20 c73c a02c 2dbd 71d0 7d3d 4f17 6ebd
000001c0: 5ad4 9cbd 5725 5cbd e274 453b 86d9 d13d
000001d0: 0408 c43d cc8d aa3d f22e c2bc 6361 97bd
000001e0: 5d16 113d 2945 ed3d 5b60 813d 01ef 00bd
000001f0: c2b7 42bd a3ba c23d 67d3 c43d 3fa9 283d
00000200: 5a23 083e 78cb 763d ac5f 163d e47a ad3c
00000210: e632 a8bd a5a7 f6bd 63f6 f4bd 6a85 a8bd
00000220: 3f8d 073c 4aea f3bd dd76 00be b1ce d53c
00000230: 155c 9e3d 1696 1b3d acf8 9b3d 7e89 3abd
00000240: 70b9 903c 3015 8e3b bc42 12bb 3727 ddbc
00000250: 7f15 20bc 5404 243d ecbf 17bd 669a 953d
00000260: 9f91 953c 391b 72bd 9731 edbd 1159 bb3c
00000270: 26f8 07be ac94 4dbd e76a bbbd 9f16 873d
00000280: d12f bdbd 62d0 52bd 8e11 28bd ba06 8cbd
00000290: 38c6 3cbd 4f14 afbd bacb 033d 1b11 9e3c
000002a0: 310f 82bd 24b4 cdbd ac9b debd 960e e0bc
000002b0: 12dc 9a3d c8fc fe3d 839d 043e 41b0 7d3c
000002c0: 7101 a9bd 39b4 e43c 6de1 94bd 35b9 e03c
000002d0: eda6 8f3c c32c c4bb f976 76bd e642 cd3d
000002e0: 3253 55bd e895 57bd 664f 573c a572 9bbc
000002f0: 8d83 2ebd b199 df3d 8c2c 843d 026b 3e3b
00000300: 27f4 693c f48c 4ebd 1f77 573d 3ae6 86bd
00000310: 9bc1 0f3c 37ba 4abd faa2 b9bd c342 193d
00000320: edf6 26bd d599 26bd 1f18 28bd d17f fc3c
00000330: 6f30 6cbc 94a8 d73d 1c41 a7bd 36d7 d7bd
00000340: a2e7 aabd e9b9 0a3d fda8 073e fc75 883d
00000350: 949d c8bd 07c7 813d f125 adbd b909 5dbd
00000360: f61a 2abd 2cca b23d b13f b2bd 60ed b4bd
00000370: 4e9e 2ebd a345 703c ae6a f73d 1760 e5bc
00000380: 0c9c 99bc abaa e53c 4fc3 15be 2a6c bd3c
00000390: 7984 743d ecc4 c53d 7579 123b bb1f a9bd
000003a0: 3c26 a8bd c33a a8bd 44e9 d13d acee 693d
000003b0: b453 8c3d 4f5a e2bd 1628 02be 34ed bbbd
000003c0: 7ff8 8a3d 79db babb da4c d13d af76 c93c
000003d0: de1d 3c3d 4893 f8ba d664 633c aa03 593d
000003e0: afa8 9fbd 708d ffbc 901c c73c 8f40 7b3b
000003f0: a43f 92bd 8e95 c63d d62b 97bd 3906 92bd
-0.1300224 -0.05880727 0.043488532 0.04975203 -0.020081215 0.0609585 0.04503921 0.008947886
-0.038123474 0.039953686 0.008833668 -0.051124282 -0.05050218 0.03316572 -0.10667679 -0.09776519
-0.04468217 -0.07127481 0.11712858 0.0663417 -0.0077876365 -0.020545581 0.0043087993 0.11612079
0.11714571 -0.04459408 0.049960747 -0.11473143 0.048270807 0.07677469 0.009907221 -0.006487651
0.011952162 0.034317028 0.041492328 0.104891114 -0.028049907 -0.012464517 0.004043756 0.10862308
0.118528776 -0.05477772 0.07689512 -0.05950126 0.01580675 0.09527753 0.07685506 0.07167042
-0.042732645 -0.123735964 0.047130115 0.06843684 -0.07185982 0.09537604 -0.057494733 -0.00046564132
-0.059106834 -0.062843576 -0.02163642 0.038978558 -0.093368955 0.081177555 -0.07381927 -0.07255599
0.021136729 0.014772197 -0.09863265 0.07776629 0.005760094 -0.12157453 0.073189974 0.020566808
0.01188212 -0.0874999 0.0720411 0.13143808 0.14557794 -0.08816235 0.06748529 0.06510372
0.023482898 0.03339951 0.069943056 0.09505384 0.02885212 -0.04684721 -0.03985884 -0.031621218
-0.0397342 -0.00050960976 -0.10012854 -0.08168686 0.06893913 0.031129086 -0.050412755 0.124533705
0.11702759 0.124082714 -0.10390239 0.0030291828 -0.069803216 -0.07619082 0.010971074 0.023016643
-0.08050754 -0.073595315 -0.026460292 0.047149267 0.024307692 -0.042278886 0.061966363 -0.058127698
-0.0765769 -0.053746548 0.0030129482 0.102465674 0.09571841 0.08327827 -0.023704026 -0.07391622
0.035421718 0.11585457 0.063172065 -0.031477932 -0.047538526 0.095082544 0.09610634 0.04117703
0.13294736 0.060252637 0.036712334 0.021176763 -0.08212833 -0.120436944 -0.11961057 -0.08228572
0.008273422 -0.119099215 -0.12545343 0.026099535 0.07732407 0.03798493 0.0761579 -0.04554128
0.017666548 0.004336022 -0.0022317609 -0.026996238 -0.00977075 0.04004319 -0.037048265 0.0730484
0.018257914 -0.059107993 -0.11581724 0.022869619 -0.13278255 -0.050190613 -0.091512494 0.065961115
-0.09237636 -0.05146826 -0.041032366 -0.068372205 -0.046087474 -0.085487954 0.03217671 0.019295266
-0.06350554 -0.10044125 -0.10869536 -0.027350705 0.07561506 0.12450558 0.12950711 0.015483917
-0.08252228 0.027917968 -0.07269559 0.027432064 0.017535651 -0.0059867813 -0.060172055 0.100225255
-0.052081294 -0.052633196 0.013141489 -0.018975565 -0.042605925 0.10917986 0.06453809 0.002905548
0.014279402 -0.050427392 0.052603837 -0.06586881 0.0087741865 -0.049493995 -0.090642884 0.037417185
-0.04076283 -0.04067405 -0.04103863 0.030822666 -0.014415844 0.105302006 -0.081667155 -0.10539095
-0.08344962 0.033868704 0.13248058 0.06663129 -0.09795681 0.063367896 -0.084545024 -0.05396435
-0.04152962 0.087299675 -0.087035544 -0.08834338 -0.04263144 0.01466504 0.120808944 -0.02799992
-0.018751167 0.028035482 -0.14625286 0.023122866 0.05969665 0.096567005 0.0022350226 -0.08258005
-0.08210418 -0.08214333 0.1024957 0.05711238 0.068519026 -0.11052381 -0.12710604 -0.09176102
0.06785678 -0.0057024327 0.102197364 0.024592726 0.04592692 -0.0018964792 0.013879022 0.05298201
-0.07795846 -0.031195372 0.024305612 0.003833804 -0.07141045 0.09696494 -0.07381408 -0.07130093

features.0.bias f4 [32]
00000000: dcac 413b 6914 0c3d 5639 42bd eec4 e63b
00000010: a576 20bd 241b bfbb be0b a83d 480b d5bd
00000020: be3e bebd da6a 55bd 69c1 01bd a601 f4bc
00000030: a33d 703d 2509 5b3d 0fb8 753d 3057 bebd
00000040: 6201 d5bc 8815 953d 77fc fa3a 8436 183e
00000050: 1a0c aabc 4a8b dcbd b235 dfbb 895c 25bc
00000060: d9ce 2abd e3da f73b 1f2b 603d 8ab1 5f3d
00000070: e60e 5d3d 4be4 12be 316a 163d d03d b63d
0.0029552495 0.034199152 -0.04741796 0.007042519 -0.03917565 -0.005832093 0.08205365 -0.10402542
-0.09289311 -0.052103855 -0.03167859 -0.029785942 0.05865253 0.053475518 0.059989985 -0.092939734
-0.026001636 0.072794974 0.0019148727 0.14864546 -0.020757724 -0.10768755 -0.006811821 -0.010092863
-0.04170117 0.007563935 0.054728623 0.054612674 0.053969286 -0.143449 0.036722366 0.088985085

features.1.weight f4 [32]
00000000: a725 803f 9ce0 813f 1b24 7c3f 060e 803f
00000010: fdc2 823f 5a99 713f 261f 813f 6178 783f
00000020: 9b76 713f c1a9 803f b1b3 813f 332b 843f
00000030: 42fb 7b3f 9977 743f d6f8 703f c662 8c3f
00000040: 4e2f 7d3f 8056 7e3f a456 813f 4cd8 7f3f
00000050: 0664 713f e3a9 833f e7c4 783f e634 7f3f
00000060: e363 7f3f 474d 823f 20a0 813f 42a0 853f
00000070: e1f9 853f 96a6 813f 5032 813f d7e0 7e3f
1.001149 1.014667 0.9849259 1.000428 1.0215756 0.9437462 1.0087631 0.97058684
0.943216 1.0051805 1.0132962 1.0325683 0.98430264 0.9549499 0.94129694 1.0967643
0.98900306 0.9935074 1.0104566 0.9993942 0.9429325 1.028622 0.9717545 0.9969009
0.9976179 1.0179833 1.0126991 1.0439532 1.0466882 1.0128963 1.0093479 0.9956183

features.1.bias f4 [32]
00000000: cf6f 09bc 2120 d03b 2015 b83d 9576 eb3c
00000010: 3111 dfbb feaa 953d 45ef 4fbd 2a92 7c3d
00000020: b9c5 ae3c 8ad5 e73d f10b c23d 4788 a93c
00000030: 1edc a23b 2b31 81bb 2aed e23c ab20 533d
00000040: daf1 a53d 080b 893c 7b83 d33b 6a45 2c3d
00000050: 794a 85bb cb5d 803d 5839 d0bd a272 9d3c
00000060: 2397 33bd fe29 013d 847f 2abd 90cc 2ebd
00000070: 8da5 d93c 2d15 2a3d 388f c33d 60b8 58bd
-0.008388474 0.0063514863 0.08988404 0.028743068 -0.0068074693 0.07308005 -0.050765295 0.06166283
0.021334516 0.11320026 0.09474934 0.020694865 0.0049700877 -0.003942629 0.02770098 0.051544826
0.0810277 0.016728893 0.0064548827 0.042058386 -0.0040677157 0.062678896 -0.101671875 0.0192197
-0.043845307 0.031534187 -0.041625515 -0.042675555 0.026568199 0.0415241 0.09548801 -0.05291021

features.1.running_mean f4 [32]
00000000: 1149 393b 3f85 0b3d d16e 42bd 263e e73b
00000010: df5a 20bd d911 babb 407e a93d 152e d5bd
00000020: 0d2a bebd 7e99 55bd 90c6 01bd 8949 f5bc
00000030: 4480 703d e6e9 5d3d 0f9e 763d 2447 bebd
00000040: 484a d4bc dcf5 943d 1c36 f43a 5a78 183e
00000050: e4e7 a9bc 1e94 dcbd c9c0 debb 364f 15bc
00000060: 17f5 2abd 4d67 f93b 5f6b 603d 85e0 5f3d
00000070: ae4a 5d3d 4e95 12be b669 163d d432 b63d
0.002827231 0.03406262 -0.047468964 0.007056969 -0.03914916 -0.005678397 0.082760334 -0.1040918
-0.09285364 -0.052148335 -0.031683505 -0.02994229 0.058716074 0.05417814 0.06020933 -0.09290913
-0.025914326 0.072734565 0.0018631849 0.1488966 -0.020740457 -0.107704386 -0.006797884 -0.009113124
-0.041737642 0.0076111914 0.054789897 0.054657478 0.0540263 -0.14314768 0.036721908 0.088964134

features.1.running_var f4 [32]
00000000: 8a09 b83e 1a1f a23e 3ad8 293f 90d9 4b3f
00000010: a689 a03f bc47 423f fec0 0e3f bc78 8d3f
00000020: 5cc1 de3f 306e cd3f 5e91 db3e c3c1 3d3f
00000030: cc2b 673f 49cb 7c3f 9f67 203f 83cd 273f
00000040: 00cb 413e 5eb3 623f c578 d43f 30d7 0f3f
00000050: 21bb 913e cfed af3f 4b91 543f eae2 e03e
00000060: cb25 c53e bd0a 3e3e 7429 5a3e f157 083f
00000070: b3f1 4d3f 7b5c bf3e d3e1 8b3f aee6 993f
0.35944778 0.31664354 0.6634556 0.7962885 1.2542007 0.7589071 0.5576323 1.105247
1.7402759 1.6049252 0.42884344 0.7412378 0.90301204 0.9874769 0.62658113 0.6554796
0.18925095 0.8855494 1.6599356 0.56187725 0.2846308 1.3744448 0.830342 0.43923122
0.38505396 0.18558784 0.21304876 0.5325919 0.8044693 0.37375244 1.0928291 1.2023523

features.4.weight f4 [64, 32, 5]
00000000: 46b2 57bc 7981 0a3d b887 0abd 4bdf 1b3d
00000010: 21c7 683d 18a6 4c3c 5851 a2bd a1f3 d23a
00000020: fef0 3abd 01d3 6c3c 7db7 b63d 0644 003b
00000030: f070 063d d0d5 803d ac65 7d3d b352 bfbc
00000040: 5fac 53bd 6556 55bd 938d 3fbd 2238 323d
00000050: f059 95bd d161 9dbd 0236 ec3c 6c1f ff3c
00000060: 653e 043d 584a 413d 678c acbb 36f1 623b
00000070: cda6 523d ea27 8d3d b45c 09bd 275f ad3d
00000080: 4c2a 973d aa87 a83d 2ed2 8c3c 7f9c 4cbd
00000090: db67 f8bc 9108 47bc 1ec8 2fbd 2042 fd3a
000000a0: 4255 ad3d 2c57 213d 8445 8d3d 663d c33d
000000b0: ad4d a23c 8d4d d1bd 7091 dabd a5ba c939
000000c0: 63b4 babd 77df 70bd 942b 46bd 252b 7a39
000000d0: 4615 39bd 53aa 21bd 839b f0bc ec20 4c3d
000000e0: 8a0d c23c d706 2dbd 8397 81bb 1a04 683d
000000f0: eb60 ee3c 846a c13b 9ce5 ac3d f300 b43c
00000100: 9525 adbc 15e4 823d 2062 663d 6904 013d
00000110: c68b fb3b e55a ffbc 45cd ab3d 62ba abbb
00000120: 96e8 eb3d eb65 943d 3f68 cc3d 3b24 663d
00000130: 2ffb 7fbc dddc 4abd 38bf 8ebc 92cf 523d
00000140: 40c7 823c 03f9 50bd e87c c73c 2cb3 27bd
00000150: 51c9 573c 6c40 1bbd 28d2 e83c 011e 013a
00000160: dd17 e63b f5e3 01bd 88ec 4bbc af84 863c
00000170: 3aa3 aabd a290 c43c 1d91 433d 746a 943d
00000180: e834 423c 5867 713d 5e23 be3c 6c46 80bb
00000190: 42ac e13c ad3c 503a 0fa5 1cbd fef6 a2bc
000001a0: 83bd beba eb30 d9bc f9bb 573c 533e 05bd
000001b0: f970 01bd b0cb 2e3d 4571 da3c b986 3d3d
000001c0: 9986 923d 3c85 7dbd 76b2 56bd 70e6 95bd
000001d0: caff 38bd 6aa6 653b 58a0 9bbd 047e 6c3d
000001e0: ca90 6fbd ec9e 9b3d 46f2 7b3b 160b bc3b
000001f0: d10e 6f3d d7f9 793c f127 0bbd 72d8 e23c
00000200: 7e41 1fbd a905 0bbd 9d83 bdbc ee99 363c
00000210: 89b4 943d b988 8d3c 895f b43c 6670 6c3c
00000220: ca45 873d cad6 86bd d146 9cbd d8d5 2fbd
00000230: 0cca 8d3d cbb6 9e3d b016 47bd 173f df3c
00000240: 19f3 9bbc 4098 2e3d 4d28 2d3d 95ed d6bc
00000250: b165 283c 6006 4b3c 9002 bd3d 344b b43d
00000260: 4f40 073d e21d 973d 7800 a13d 73ac 133b
00000270: e46f 603d 6d66 d23c 6e7f b6bb ab32 02bd
00000280: 0ade a7bb eba5 293d c3a1 45bd 2763 fa3c
00000290: a057 973d f690 943d 2054 483d 63a8 5b3c
000002a0: d391 063d 6f93 cf3c f39e 76bd 3efa e7bc
000002b0: 2754 423d 9a36 ac3d 92ed 0cbd 90ca 83bd
000002c0: 67a3 7d3c 8948 51bc c071 a2bc 5bb4 383d
000002d0: a4fa 46bd 2296 ba3c bce3 8abb 0849 e5bd
000002e0: efa5 c3bd 45db ae3c 5cc4 65bc d17e 3dbd
000002f0: a044 7c3d 64db d0bc 4b0e 86bc 38e4 c23c
00000300: cdf0 c8bd d9d9 cabd d44e d8bc 75ff 4c3d
00000310: 9c95 9b3c a508 1fbd 8ebf 823c 893e 34bd
00000320: f78e a7bc 923d c1bd d109 473d 8dd5 2c3d
00000330: a8e3 01bd 82b2 93bd 26b0 d1ba b31c 203d
00000340: 4808 32bd 39b8 2f3d ee1f 19bd 6697 45bd
00000350: 2cad f7bd 6f6d a73c e8c4 6cbd 8979 9d3d
00000360: 0550 3dbc 69fd 373d 05ed f93c a00a f1bd
00000370: c53f a3bd 421d 873d 6bfa dabb ce6b 4f3d
00000380: a26f b03d b88f 93bd 6e66 61bd 463c 99bd
00000390: 933a 99bc 180c 3cbd ba72 b6bd 7845 36bb
000003a0: 067a 82bc d36d 083d 8144 2b3d 496a b4bc
000003b0: 753c 8bbc e2de ab3d 1427 ff3c 5075 8f3c
000003c0: b4b7 0bbb e530 19bc a4e8 7dbc eede 203d
000003d0: 3d5f 9b3d 671e 393d 39c1 bebd 17d7 d43c
000003e0: b9f2 e0bd 220e d9bc f214 9a3d c2e0 6fbd
000003f0: 5cc2 b3bc 4240 13bd f570 09bb 1bc9 5ebc
-0.013165062 0.03381488 -0.033820838 0.038054746 0.05683053 0.012490772 -0.07925671 0.0016094336
-0.045639984 0.014454604 0.08921716 0.0019571795 0.03282255 0.062907815 0.06186454 -0.023354864
-0.051678058 -0.052084345 -0.046765875 0.043510564 -0.07292545 -0.076846726 0.028834347 0.031142913
0.032286067 0.04719004 -0.0052657607 0.0034628636 0.051428605 0.06892379 -0.033535674 0.084654145
0.07381114 0.08229001 0.017190065 -0.049953934 -0.03032296 -0.0121480385 -0.042915456 0.0019322075
0.08463527 0.039389774 0.06898025 0.09533195 0.01981243 -0.1021987 -0.10672271 0.00038476769
-0.09116437 -0.058806863 -0.048381403 0.0002385793 -0.045186304 -0.039469074 -0.029371029 0.049836084
0.023688097 -0.04224285 -0.003954829 0.056644537 0.029098948 0.00590259 0.08442232 0.021973109
-0.021136085 0.063911594 0.056245923 0.031498346 0.0076765744 -0.031171272 0.083887614 -0.0052407244
0.115189716 0.07246002 0.09980821 0.056186896 -0.015623852 -0.049527038 -0.017425165 0.051467486
0.01596415 -0.051018726 0.024351552 -0.040942356 0.013170556 -0.037903234 0.028420523 0.00049254304
0.0070218877 -0.031711537 -0.01244653 0.01642069 -0.08331914 0.023994748 0.047745813 0.07246867
0.011853434 0.058936447 0.023210224 -0.003914645 0.02754796 0.00079436117 -0.03824335 -0.019893166
-0.0014552329 -0.026512584 0.013167375 -0.03253014 -0.03160188 0.04267472 0.02666534 0.04627106
0.07154579 -0.06189464 -0.052416287 -0.07319343 -0.045165814 0.0035041817 -0.075989425 0.057737365
-0.05848769 0.07598671 0.0038443967 0.0057386262 0.05836374 0.01525732 -0.033973638 0.0276911
-0.038880818 -0.033940945 -0.023134047 0.011145098 0.07260997 0.017277109 0.022018211 0.014431095
0.06605108 -0.065839365 -0.07630695 -0.042928547 0.06923303 0.07749709 -0.04860562 0.027251763
-0.019036816 0.042625666 0.042274762 -0.026236335 0.010278151 0.012391657 0.092290044 0.08803406
0.033020314 0.073787466 0.078614175 0.0022533208 0.054794207 0.025683606 -0.00556939 -0.031786602
-0.0051229047 0.041417997 -0.04824997 0.030564858 0.0738976 0.072542116 0.048908353 0.013406846
0.032853913 0.025338857 -0.06021018 -0.028317567 0.047443535 0.08408852 -0.034406252 -0.0643512
0.015480853 -0.012773641 -0.01982963 0.045093875 -0.048578873 0.022776667 -0.004238574 -0.1119557
-0.09553134 0.02134479 -0.0140238665 -0.04626352 0.061588883 -0.025495239 -0.016364237 0.023790464
-0.09811554 -0.099048324 -0.026404776 0.05004831 0.018992238 -0.038826603 0.015960481 -0.04400495
-0.020453913 -0.09435572 0.048593346 0.042195845 -0.03171125 -0.07211782 -0.0015997931 0.03908987
-0.04346493 0.042900298 -0.037383966 -0.048240088 -0.12093577 0.020437924 -0.057804972 0.076891966
-0.011554723 0.044919405 0.030508528 -0.11769605 -0.079711474 0.06597377 -0.006682684 0.05063992
0.08615042 -0.072051466 -0.055029325 -0.07482199 -0.018704688 -0.04590997 -0.08908601 -0.0027812403
-0.015927326 0.03330786 0.041813377 -0.022023337 -0.016996602 0.08392121 0.031146564 0.017511994
-0.0021319212 -0.009350036 -0.01549736 0.039275102 0.07586525 0.04519501 -0.09314198 0.02598147
-0.10983796 -0.026495997 0.07523526 -0.058563955 -0.021943264 -0.035949953 -0.0020971869 -0.013597752

features.4.bias f4 [64]
00000000: 474a 6fbd 161e b83c 8966 2abd fce4 68ba
00000010: 8434 89bd 76f3 aabc b31a 5dbd 80a9 ecbc
00000020: 2a4e 89bd e22f e8bc 9a27 34bd 8679 1dbb
00000030: 6e43 37bd 511c 75bd 8b75 e63d 4624 c4bd
00000040: 76ea 93bc 309c e23c 468c d83c a447 d73b
00000050: 50bd c33d 72c4 0e3d 4f15 2b3d 6bda 783d
00000060: 347f 21bd 9e93 0c3d 3371 263c 9e5e 5b3d
00000070: 129d 3d3d 737e 933d 8e2e 253d c2e7 cbbc
00000080: 2b08 45bd fd5f 47bd 95fe 5d3d fab9 08bd
00000090: a810 bdbb de9c 04bd 30f7 933d 1119 773d
000000a0: 2ea6 343d 0703 293d c6e6 46bd 7120 c03c
000000b0: 4cc0 3f3b 3f55 91bd 9aaf 463d ab0c bfbd
000000c0: fd18 2f3d d53f 0a3d 4181 3b3d 6f4e 05bd
000000d0: 2ee1 6b3d dbfd ef3c 9764 4e3d c03a 663d
000000e0: 54d1 32bd 5791 803d 2874 74bd a65e 60bc
000000f0: c2be 80bd 50ce 6fbd 04f0 dfbc 2231 dbbb
-0.058420446 0.022475284 -0.04160169 -0.0008884219 -0.0669947 -0.020868044 -0.05398054 -0.028889418
-0.06704362 -0.028343145 -0.04398308 -0.0024028732 -0.04474204 -0.059841458 0.11252888 -0.09577231
-0.018056136 0.027662367 0.026434075 0.0065698195 0.09557593 0.034855314 0.04176837 0.060755175
-0.03942795 0.034320466 0.010158825 0.05355703 0.046292372 0.07201853 0.0403276 -0.024890784
-0.048103493 -0.048675526 0.054197866 -0.033380486 -0.005769808 -0.032376163 0.07224882 0.06032664
0.044103794 0.041262653 -0.048559926 0.02345297 0.0029258905 -0.070963375 0.04850731 -0.09328588
0.04274844 0.03375228 0.045777563 -0.032545503 0.057587795 0.029295852 0.0503889 0.056208372
-0.043656662 0.062777214 -0.059681088 -0.013694441 -0.06286384 -0.058546364 -0.027336128 -0.0066892067

features.5.weight f4 [64]
00000000: a60a 6a3f 6dbd 823f e0bc 803f 8bfc 7b3f
00000010: 4111 783f 4613 713f 6d5e 853f 141e 803f
00000020: f4b8 7d3f a88b 803f 74e7 8d3f 49ae 703f
00000030: a1fa 843f 3dc4 823f 72bd 703f 62b4 7a3f
00000040: 08c4 813f c1a4 813f 7ffd 8a3f f08e 783f
00000050: 80f3 813f 54b0 7a3f b8c1 833f 02fe 7a3f
00000060: 5f87 7e3f bcc1 813f 313a 7d3f 23cd 823f
00000070: 5b34 693f 8211 813f a88a 823f 3b19 923f
00000080: cbbb 853f 5265 663f 8933 813f d80f 803f
00000090: b032 833f 1052 863f 5cd5 6b3f ae2d 863f
000000a0: b726 803f 1262 7e3f 3f8d 8c3f 70e2 723f
000000b0: 6c98 7f3f 53b3 7e3f 6aed 7d3f 5b48 7d3f
000000c0: 72c6 7c3f 78f3 813f 2d9a 703f aa73 7a3f
000000d0: c59f 7d3f 531f 7b3f 8fb9 7c3f dccb 8c3f
000000e0: d651 7d3f b77a 7f3f 43ca 793f 049b 813f
000000f0: a86e 813f 6740 723f eaea 813f 6753 833f
0.914225 1.0214058 1.005764 0.98432225 0.9690133 0.94170034 1.0419441 1.0009179
0.9911034 1.004262 1.1086259 0.9401594 1.0388986 1.0216137 0.9403907 0.9793149
1.0137949 1.0128404 1.0858611 0.97093105 1.0152435 0.97925305 1.0293493 0.98043835
0.9942531 1.0137248 0.9891692 1.0218853 0.91095513 1.0083468 1.0198565 1.141395
1.0447935 0.8999835 1.0093852 1.0004835 1.0249844 1.0493793 0.92122436 1.048269
1.0011815 0.99368393 1.0980605 0.94876766 0.9984195 0.9949238 0.9919039 0.9893853
0.98740304 1.0152426 0.93985254 0.9783274 0.99071914 0.9809467 0.9872064 1.0999713
0.98952997 0.99796623 0.9757425 1.0125432 1.0111895 0.9462952 1.0149815 1.0259827

features.5.bias f4 [64]
00000000: 25b8 a7bd e18d 703d 58a1 70bc 9942 7abd
00000010: 5dc8 45bc 3983 03bd d4e4 b8bc 53e0 63bc
00000020: f2fd 98bc 12a8 30bd 7131 803c 483b 31bd
00000030: 503c 073c 69f7 31bd 2753 94bd 0e8d c2bc
00000040: 2bc8 f9bb ba26 1cbc 75bf b3bb bcd9 c2bd
00000050: 1f8c dc3c a6ac 4fbc c54d 853d ccc0 49ba
00000060: 7eb3 a1bc 8175 1dbd 6364 82bd a8da 523d
00000070: ddf5 78bd 4b6b 94bc 2bd3 babc a28a b63d
00000080: e4ad b23c b55b d3bd a941 943c 0f9a 653c
00000090: 3c78 23bb 11ea 8a3d 887d bdbd 0e62 53bd
000000a0: 6bec bc3b ce8f 79bc a3e8 173e c481 93bd
000000b0: 41c0 663c 01be 43bc 37fd 12bc f889 debb
000000c0: 3117 d7bc 4496 7b3c 9151 bfbd b2c8 73bd
000000d0: 37c3 27bd a2af 873a d94f 95bd 2a1f 653d
000000e0: 1c73 2bbd d4a8 2dbd 3242 6f3c 399e 1dbd
000000f0: 7ef3 34bd 44fc 9dbd f764 96bc 2a9b 403c
-0.0818942 0.058729056 -0.014686905 -0.06109867 -0.012071696 -0.032107566 -0.022570051 -0.0139084635
-0.018675778 -0.043129034 0.015648575 -0.043269426 0.008254126 -0.04344884 -0.072424226 -0.0237489
-0.007622739 -0.0095307175 -0.00548547 -0.09514186 0.026922284 -0.01267544 0.06508974 -0.00076962705
-0.019738909 -0.03844214 -0.063668035 0.051478058 -0.06078135 -0.018117568 -0.02280577 0.08913161
0.021811433 -0.10320226 0.018097715 0.014013781 -0.0024943491 0.06782926 -0.09252459 -0.051607184
0.005765488 -0.01523204 0.14834838 -0.07202485 0.014083923 -0.011947156 -0.008971504 -0.0067913495
-0.026256176 0.01535565 -0.093417294 -0.05951757 -0.040957656 0.0010352025 -0.0729062 0.055937923
-0.041857824 -0.042397335 0.014603185 -0.03848097 -0.044177525 -0.077141315 -0.01835869 0.011755744

features.5.running_mean f4 [64]
00000000: 6497 ab3e a222 1dbf 50d6 6cbe cdd7 b3be
00000010: 8d4c 0ebf 0f66 70bf ad1d a8bd e68b 08bf
00000020: a9d4 88bf 59d4 00bf c2f3 22be 46a4 333f
00000030: 04cd 4ebe cd87 0f3f 6417 06bf 1c43 51bd
00000040: d772 d63b b679 dbbe 8aef d5be 5d01 043f
00000050: ffb2 c7be 5fb0 103f fa38 12bf 84c1 ebbd
00000060: b60e 17bf d0c8 e0be ada8 09bf 3378 f1be
00000070: 029d c13e d8a2 f8be ebbe 65bf 0e83 c6be
00000080: f1eb 06bf 9a3c 2b3f a25a 9dbe 1aef 45bf
00000090: b83b c8be 6b42 b1be cfd5 313f b108 89bf
000000a0: a9b4 84be 80f7 da3c 4818 b4be cfae 673f
000000b0: a967 12bf c6bf 41bf 7d46 99be a4b5 3ebf
000000c0: 3201 aabe 3bd2 59be f9e6 773e 65b8 a43e
000000d0: c138 e2be e2f5 05bf e1ad 96bd 8d0f 81bd
000000e0: 1c4e 483f 6f21 113f 09cc dbbe 5e8f 1e3f
000000f0: eed6 b1be a4ba 04bf 38a6 863c 6bbf 0cbf
0.3351394 -0.6138097 -0.23128629 -0.3512558 -0.5558556 -0.9390573 -0.08208785 -0.5333847
-1.0689899 -0.50324017 -0.15913299 0.70172536 -0.20195395 0.5606659 -0.5237944 -0.05108939
0.0065444517 -0.42866296 -0.41784316 0.5156458 -0.3900375 0.5651912 -0.5711819 -0.115115196
-0.5900682 -0.43903208 -0.53773004 -0.47162017 0.378151 -0.4856174 -0.8974444 -0.38771862
-0.5270377 0.66889346 -0.3073321 -0.77317965 -0.39108062 -0.34620985 0.6946687 -1.0705777
-0.25919083 0.026729345 -0.35174775 0.9050111 -0.5718942 -0.7568325 -0.2993659 -0.7449591
-0.33204037 -0.21271603 0.24209203 0.32171932 -0.44183925 -0.5232831 -0.073573835 -0.06301794
0.78244185 0.5669164 -0.42929104 0.6193751 -0.3473429 -0.5184729 0.016436681 -0.5497958

features.5.running_var f4 [64]
00000000: 9bc0 323f 1991 153f 5cbc 553e c302 0b3f
00000010: 99ca 293f b7ca a53f 8031 2b3e 5e7c 633f
00000020: 5112 2b3f 586f a03e 9e93 783e 556a f93e
00000030: 653f 6b3e f8b8 193f f8a7 de3e 05a7 b63e
00000040: 9101 973e 2726 633e 8b80 0c3f 4dfe 143f
00000050: e7bd f53e f975 a83e 74bf 803f 21b3 1e3f
00000060: 0673 a03e fe0e d93e ab12 ef3e c0ef 233f
00000070: dd3f 353f b717 f83e fcd4 163f 9f4a 0d3f
00000080: 2fb3 423f 4646 803f ef35 163f f17a b63f
00000090: eb22 ea3e 2095 9a3e 8222 783f f7cf 403f
000000a0: e590 ed3e 1b87 8f3e 4164 cc3e 134c 0540
000000b0: d588 c13e 2bd1 d33f 6822 bf3e 0ec2 823f
000000c0: 4066 993e b8b0 453f 89de 173f dbf2 113f
000000d0: 7ea4 4d3f 96e4 e53e f471 113f dbb0 d53e
000000e0: 36d0 1f3f 43da 593f a8c6 c03e 060f 723f
000000f0: 9d52 bc3e 4ff4 763f 5548 643e 6525 413f
0.6982514 0.58424526 0.20872635 0.5430109 0.66324764 1.2952489 0.16718102 0.88861644
0.66824824 0.3133495 0.24275061 0.48713937 0.22973402 0.60047865 0.43487525 0.356743
0.29493383 0.22182523 0.5488364 0.5820053 0.47996446 0.32902506 1.0058427 0.6199208
0.31337756 0.4239425 0.4669393 0.64037704 0.7080057 0.48455593 0.5891874 0.5519199
0.7605466 1.0021446 0.58676046 1.4256269 0.45729765 0.30191898 0.96927655 0.7531733
0.46399608 0.28032765 0.39920238 2.0827682 0.37799707 1.6548208 0.37330937 1.0215471
0.29960823 0.77222776 0.59323937 0.57011193 0.8032912 0.4490096 0.56814504 0.41736493
0.6242708 0.85098666 0.37651563 0.94554174 0.3678178 0.96466535 0.22293217 0.75447685

features.8.weight f4 [128, 64, 5]
00000000: b56d e1ba 660d 193d 4c7b 633b 3970 223c
00000010: 49c2 1abd 6932 953b 7636 3e3d e71f 2ebd
00000020: 5d23 00bc 6ef9 b7bc 028b 00bd 0e55 1c3d
00000030: 5465 b73c 98bf aebc b7d5 84bc a903 6abc
00000040: f0b8 79bd cb63 96ba 89e7 923c 2461 cc3c
00000050: 461a fdbc 6131 813d 02c4 2e3d 6480 773b
00000060: 73f0 99bc 14be e23b a6b9 843d 8658 acbc
00000070: 9f02 0d3d 1204 a7bc db76 56bd 41b1 03bd
00000080: d122 143d 9aeb 6bbc fe60 463d 192b 25bc
00000090: ffc9 c6bc c32a 78bd 0dfe 00bd 18e0 2abd
000000a0: 7fb3 453d c460 fabc 9d80 263d a58f 28bc
000000b0: 2984 63bd ec95 9abc c328 6f3d afda 4a3d
000000c0: dbed 3c3d e187 2e3c 82cb c1bc eb28 7bbd
000000d0: d627 c7bd e49c b3ba cc78 dcbc 2395 3dbd
000000e0: eb14 a23c 9138 58bd a1bb d93b 5c7f 8bbd
000000f0: 52d2 763c 987e 5cbc 5326 3cbd 36fa b5bc
00000100: a493 99bd d722 e83c d37f d53c f07e 693d
00000110: e194 eb3c 50af 7c3d de15 ab3d 115b 1f3c
00000120: a34e 5e3c a37c 17bd a0a5 073d 1b64 6dbd
00000130: c7a7 f6bc ab05 8cbd e0eb 14bd c584 ac3c
00000140: 0369 6039 7b17 2fbd 388d f33b 0937 a7bd
00000150: b5c6 c3bc d0d9 e43c fcd8 9b3d c93c 473b
00000160: c5e1 bdbc 8b57 973b 8ad4 673d e4b7 c03a
00000170: 8119 acbd 0bc9 bcbd 37c0 a0bd 42f3 90ba
00000180: 853a 623c beea 693c bc74 a9bc 30bf c8bc
00000190: 3591 2b3d 6d8f b33c 87c9 dd3c 59f9 dc3c
000001a0: 120c 41bc d403 27bd 26c5 12bd 88ff 22bd
000001b0: bedb e1bc 7f43 4cbd e924 03ba e6c9 423c
000001c0: 153f 16bc 43c8 a7bb deac 7e3c 111c 2fbd
000001d0: 717f eebc 2e7a f8bc 125c 8bbc 6ac7 113d
000001e0: 8c7c 68bd c7c3 ccbc f76c 02bd 5656 42bb
000001f0: b42b cbbc 7300 b3bb 182d d43c eb08 0c3d
00000200: 4ebc c5bc ad19 9f3d ae14 2a3d 9bba da3b
00000210: 2bd2 1ebc 78e1 63bd 21ee 6fbd f6ea 7c3d
00000220: c41e ae3b 91e2 983c c0cb bbbd eab9 27bd
00000230: 00c5 0d3d b211 3fbb 1c7d a53c 2c80 38bd
00000240: c093 1a3d 9d8f 32bc e430 d5bc b139 533d
00000250: b0b0 3abb e87f 15bc f590 87bb 9384 423c
00000260: 965f 823d 07a0 713d b787 2e3c bd25 873d
00000270: bb4b c63c 2f18 81bd f230 96bd 02e8 5bbd
00000280: 2e18 afbd b7ef d2bd 6e38 eabd fa4e babd
00000290: e003 873c 87d6 86bd 7706 adbd a3cc 5939
000002a0: 19d2 3abc c846 89bd 3699 1ebd f6e1 18bd
000002b0: 793b 81bd b2cb 15bd 3d57 c5bd 4d78 52bc
000002c0: 8050 07bd d621 85bd 7bd3 b1bc 6ef8 583c
000002d0: fd9e dabd 079e d7bb 749d 28bd 2d63 dbbc
000002e0: 46db 1c3d def6 593c 6585 1c3c 0564 66bd
000002f0: b4bf 49bd 62af 94bd edea 08bb 2072 bf3c
00000300: 180e 303d 5c2f 2f3d 2b7b 383d d6f9 b1bc
00000310: 3905 973d ace1 873d 4f5f 533c 4f0a f9bc
00000320: b872 563d b554 603d 1c0d 79bc 7662 a03c
00000330: 9f27 93bd 14dc 0dbd 2b88 51bc 9761 acbc
00000340: 268d c7bc 5e97 b2bd 7145 0dbc 5181 2abd
00000350: 6fba 9e3b c203 3bbc 76c9 0bbd 7306 a2bd
00000360: 29bb aebd 46ce 91bd c04e e3bc fdbb abbc
00000370: 7873 873d aa10 9a3d c1e6 f4bc 1044 383d
00000380: 60ec 9b3a 1085 8bbd 170f 8ebd 20fd 153c
00000390: 1b13 253d ead1 f33c e605 2cbd 7688 54bd
000003a0: f19e b73c 954d 99bc 78df f6bc 00ee e83c
000003b0: 6f63 19bd 3fc5 e6bc d850 93bd 0a70 85bd
000003c0: 3d67 b8bb 3823 c13c 7ec7 343c 52e4 9d3b
000003d0: d130 9bbd 691c 8b3d 676a 4d3d 46b9 3d3d
000003e0: 849a fb3c 486c 81bc b552 6fbd a455 a2bc
000003f0: 9213 87bd 7104 53ba fdf9 83bb f7f8 81bd
-0.0017198833 0.037366293 0.0034710942 0.009914451 -0.03778294 0.0045531285 0.046438657 -0.042510893
-0.007820931 -0.022457805 -0.03138257 0.038167052 0.022387184 -0.021331593 -0.016215188 -0.014283099
-0.060967386 -0.0011473832 0.01793267 0.024948664 -0.030896317 0.063082464 0.042667396 0.0037765736
-0.018791413 0.0069196317 0.06480722 -0.021038305 0.034426328 -0.020387683 -0.052359443 -0.032151464
0.036166016 -0.0143994335 0.048432343 -0.010081076 -0.024266241 -0.060587656 -0.03149228 -0.04171762
0.048266884 -0.03056372 0.04065 -0.010288154 -0.05554596 -0.018870316 0.058388483 0.04952496
0.046125274 0.010652513 -0.02365661 -0.06131832 -0.09724395 -0.0013703373 -0.02691307 -0.046284806
0.019785365 -0.05278832 0.0066446816 -0.06811401 0.015064793 -0.013457917 -0.045934986 -0.022214036
-0.07498863 0.028336925 0.026061928 0.057005823 0.028757514 0.06169063 0.0835378 0.009726302
0.013568553 -0.036984097 0.033116937 -0.057956796 -0.0301093 -0.068370186 -0.03635776 0.021059403
0.00021401425 -0.042747002 0.007432606 -0.08164794 -0.023898462 0.027935892 0.07609746 0.003040122
-0.023178944 0.00461859 0.056599177 0.0014703241 -0.08403302 -0.092180334 -0.07849162 -0.0011058825
0.013807897 0.014277158 -0.020685546 -0.024505228 0.041886527 0.021918977 0.027073635 0.026974367
-0.011782663 -0.040775135 -0.035832547 -0.039794475 -0.027570602 -0.049869057 -0.00050027535 0.011888957
-0.009170313 -0.0051203086 0.015544144 -0.042751376 -0.029113503 -0.030331697 -0.017011676 0.035590567
-0.056759402 -0.024995698 -0.0318422 -0.002965351 -0.024801113 -0.0054627 0.025900409 0.034188192
-0.024137642 0.07768569 0.041523628 0.006675077 -0.009693663 -0.055634946 -0.058576707 0.061747514
0.005313726 0.018662723 -0.091697216 -0.040948786 0.034611702 -0.0029154834 0.020201258 -0.04504411
0.03773856 -0.010898498 -0.02602429 0.05156869 -0.0028486662 -0.0091247335 -0.0041371533 0.0118724285
0.06365888 0.058990505 0.010652474 0.06598995 0.024206033 -0.06303441 -0.07333554 -0.053688057
-0.08549534 -0.10299628 -0.11436544 -0.09097095 0.01648134 -0.065838866 -0.08448499 0.00020770966
-0.01140263 -0.067029536 -0.038720332 -0.03732487 -0.06310172 -0.036571212 -0.0963578 -0.012846065
-0.033035755 -0.06500594 -0.021707287 0.013242824 -0.10674856 -0.0065801176 -0.041165784 -0.02678069
0.038295053 0.013303487 0.009553288 -0.05624773 -0.049255088 -0.07260014 -0.002089198 0.023369849
0.04298219 0.042769775 0.045039337 -0.021725576 0.07374043 0.0663484 0.012901141 -0.030400423
0.052355498 0.054768283 -0.015200879 0.0195782 -0.071852915 -0.03463371 -0.012788813 -0.021042628
-0.024359297 -0.08720277 -0.008622513 -0.041627232 0.004844002 -0.01141447 -0.034127675 -0.07911386
-0.08531792 -0.07119422 -0.027747512 -0.020963663 0.06613821 0.0752271 -0.029895188 0.044986784
0.0011896007 -0.06812489 -0.06936472 0.009154588 0.040301424 0.02976318 -0.041997813 -0.05188795
0.022414656 -0.018713752 -0.030135855 0.0284338 -0.037448343 -0.028170226 -0.07193154 -0.065155104
-0.0056275413 0.023576364 0.011033891 0.0048184777 -0.0757767 0.06792528 0.0501503 0.04631927
0.030713327 -0.015798703 -0.058428485 -0.019816227 -0.065955296 -0.0008049673 -0.0040276037 -0.063463144

features.8.bias f4 [128]
00000000: 469d 863c cc8d bc3c 6701 0dbd e64a 533c
00000010: 1158 993c fd18 8cbc e976 ca3a 7dfd 133d
00000020: e739 533c f021 cbbb 207a dfbb c0b0 643c
00000030: 003f 803b 87a8 243c 2c20 b2bc 4696 d23c
00000040: 570e b23c 7afe 943c 3b0a 8bbc 80b6 093d
00000050: 8d43 3b3c d33a 3dbd d8d3 5abd f0d2 50bc
00000060: 4579 5cbc af8d c5bc 65e4 4d3d bdd5 4d3b
00000070: e48a 76bd 152d 393d 95e3 fbbc 449c 253d
00000080: 429e 5f3c 5f71 82bd 1125 c6bc 71af c43c
00000090: 2112 4ebd 7315 2ebc ee95 72bc a584 523d
000000a0: 570e 4abd 3935 d5bb 1fb7 113d bc8c a8bc
000000b0: 6b74 34bd 5264 c13d 2bc8 2d3d 6ceb ebbb
000000c0: e4e4 343d 5045 003d 62b6 81bd e888 66bd
000000d0: c6aa 55bd cc1c 713d 943f c1bc af0b 2abc
000000e0: f17e 9a3c 7dd0 26bd cd69 5c3d 6b19 9d3c
000000f0: a66d 523c cbfe 85bc cfb2 0f3d 2edc 88bc
00000100: 46b2 8e3d f401 c03c 84d2 003c ff50 493d
00000110: 56e9 68bd bd83 cb3c 309e 063c f9b7 23bd
00000120: d220 2c3d 98c1 843c 35b2 53bd a4e0 1ebd
00000130: 18b0 3d3b 69ca f6bc ca41 7fbd 6b73 2bbc
00000140: aab9 563c 0ee0 0d3d d248 47bd 0326 aa3c
00000150: 58ae 93bb ce31 f73c 9b5f 803d e5f6 103d
00000160: 93a4 35bd 829c 83bd 0de3 8a3c ef36 45bc
00000170: a38b 2ebd b825 6d3d ad90 533d 6c21 463d
00000180: dffd 9f3c 41b0 14bd 2bf5 3c3d 9c81 67bd
00000190: e0d4 96bd 180d 74bc f5a2 86bd 4a81 f8bb
000001a0: a916 893c 8300 933c 435d 523d 2ce5 1c3d
000001b0: 1df4 533a e6ff 71bb 99ac e63c 901e 15bd
000001c0: ab77 24bc dbbd d1ba 631f f23c 3da4 e5bc
000001d0: a087 2c3d 2666 bebd a371 02bc cd0d 3cbd
000001e0: 596e 67bc 28a2 553d a2af b93c 7b95 5ebd
000001f0: ea99 543c 74fe 783c 21dd 023d d46f 5d3b
0.016432416 0.023016833 -0.034425166 0.012896275 0.018718751 -0.01710176 0.0015446815 0.036130417
0.012892223 -0.006199114 -0.0068199784 0.013958156 0.00391376 0.010049946 -0.021743856 0.025706422
0.021735353 0.01818775 -0.016972652 0.03362131 0.01142968 -0.046198677 -0.053424686 -0.012745604
-0.013456647 -0.024115412 0.050266642 0.0031407916 -0.06019105 0.04520901 -0.030748168 0.04043223
0.013648571 -0.0636928 -0.024187597 0.024009438 -0.050310258 -0.010625231 -0.014806254 0.05139603
-0.04933008 -0.006506589 0.03557503 -0.02057492 -0.044056337 0.09442963 0.042427223 -0.0071996953
0.0441636 0.0313161 -0.06333615 -0.056282908 -0.052164815 0.058865353 -0.023589887 -0.010378762
0.018859359 -0.040726174 0.053811837 0.01917716 0.012843525 -0.016356846 0.035082635 -0.016706552
0.06967597 0.023438431 0.007862691 0.04914951 -0.05686315 0.024843091 0.008216426 -0.039970372
0.042023487 0.016205594 -0.051683623 -0.038788453 0.0028944071 -0.030125814 -0.0623186 -0.0104645295
0.013105789 0.034637503 -0.04865343 0.020770079 -0.0045068674 0.030175116 0.06268235 0.035391707
-0.044346403 -0.06426336 0.01695397 -0.012037023 -0.042613637 0.0578973 0.051651645 0.048371717
0.019530235 -0.0363009 0.046132248 -0.05652009 -0.073648214 -0.0148957 -0.0657405 -0.007583772
0.016734438 0.01794458 0.051358473 0.038304493 0.0008085387 -0.003692621 0.028158473 -0.0364061
-0.010038297 -0.0016002016 0.029555982 -0.028032416 0.04212153 -0.09296827 -0.007961663 -0.0459116
-0.01412543 0.052156597 0.022666756 -0.054341774 0.012976149 0.015197385 0.031949166 0.0033788579

features.9.weight f4 [128]
00000000: 46db 853f 3f15 733f dff3 853f cebe 883f
00000010: f398 7a3f 526b 7e3f cac1 733f 2ba6 873f
00000020: 1910 733f e48c 823f 1e4c 843f 6e3d 873f
00000030: b28f 7b3f f96e 763f be40 723f bc14 8d3f
00000040: f35e 8c3f 4d6b 813f 45dd 7f3f ed35 803f
00000050: 5876 783f 0d7d 873f d799 663f 0b8a 6c3f
00000060: 9304 6d3f 2a88 763f 5693 863f 7b18 653f
00000070: 3817 7c3f 43d6 663f 67ca 803f d2a5 763f
00000080: 7630 853f 6669 843f fcbe 7d3f 91fe 7b3f
00000090: 8343 643f a454 653f 73b2 773f 11ae 893f
000000a0: ac3a 763f 2b6a 693f aa43 803f f925 7b3f
000000b0: ab49 7c3f 8d06 7d3f e3b2 713f 6a85 703f
000000c0: 2bfc 823f 240f 783f d659 803f fbc4 833f
000000d0: 507b 7b3f 6fd7 7b3f fb8f 7c3f f626 753f
000000e0: 14ba 703f 4628 803f f499 6f3f 730f 7c3f
000000f0: b912 6c3f 5348 6e3f c090 703f 2ba6 893f
00000100: f2ee 753f 7cf1 6f3f bb93 7d3f 55f3 7d3f
00000110: 851a 743f ae18 853f 0fd5 763f 2e2f 843f
00000120: 566f 723f f78e 793f d40e 7e3f fddf 843f
00000130: da61 7a3f d269 7e3f 134d 783f f2e1 7d3f
00000140: d8e9 6b3f b2e6 7b3f 0aa7 823f 38ca 733f
00000150: 82ee 823f cc3f 833f 990f 693f cdee 803f
00000160: 8267 7c3f a7c2 853f 936f 7a3f f4ea 673f
00000170: 6b24 613f f847 7f3f b032 753f b1dc 6e3f
00000180: ffb0 723f 7520 7f3f 87e5 7e3f 26f0 843f
00000190: 34bd 833f 27db 6b3f f72a 813f eb66 7f3f
000001a0: da8c 7e3f 94bd 8a3f 4b55 813f 9538 803f
000001b0: a181 6f3f bfee 863f 5017 7e3f c327 7f3f
000001c0: 8dcb 713f ec04 803f 5195 783f 6b52 7a3f
000001d0: dbfc 833f d316 763f 3845 6d3f 2f54 7e3f
000001e0: 32b8 743f e2ee 763f a366 6f3f 8bb7 6b3f
000001f0: a658 7d3f 5833 713f 5060 5b3f 2abc 723f
1.0457542 0.94954294 1.0465049 1.0683229 0.9788963 0.9938251 0.95217574 1.0597585
0.9494644 1.0199246 1.0335729 1.0565622 0.98266137 0.9626308 0.9463004 1.1021953
1.0966476 1.0110871 0.99947006 1.0016457 0.9705558 1.0585037 0.9007849 0.92398137
0.92585105 0.9630152 1.0513713 0.8949048 0.9847293 0.9017069 1.0061768 0.9634677
1.0405414 1.0344665 0.99119544 0.9843531 0.89165515 0.89582276 0.96756667 1.0756246
0.96183276 0.91177624 1.002065 0.98104817 0.9854991 0.9883812 0.94413584 0.93953574
1.0233206 0.968981 1.0027416 1.0294489 0.98235035 0.983756 0.98657197 0.95762575
0.9403393 1.001229 0.9359429 0.98461074 0.9221607 0.9307911 0.9397087 1.0753835
0.96067727 0.9372785 0.99053544 0.9919942 0.95352966 1.0398157 0.9641885 1.0326898
0.94701135 0.9748377 0.99241376 1.0380856 0.9780556 0.9938022 0.96992606 0.9917289
0.9215369 0.9839889 1.0207226 0.95230436 1.0229037 1.0253844 0.91039425 1.0072876
0.9859544 1.0450028 0.978265 0.90592885 0.87946194 0.9971919 0.9578047 0.933055
0.94801325 0.996589 0.9956898 1.0385787 1.0292115 0.92131275 1.0091237 0.99766415
0.9943367 1.0839105 1.0104154 1.0017267 0.93557173 1.054161 0.9925432 0.99670047
0.9445122 1.0001502 0.9710284 0.9778201 1.031154 0.96128577 0.92683744 0.99347204
0.9559356 0.96458256 0.93515986 0.9207694 0.9896339 0.9421897 0.85693836 0.94818366

features.9.bias f4 [128]
00000000: 91da 35bd b2b3 41bd ec20 03be b82c 0aba
00000010: cd1e 31bd 4c9f ebbc 24c6 e1bd 25d9 9dbd
00000020: 5ee9 01be 858e 00bd 8fa6 fbbd 5fb2 5e3d
00000030: 4e3a aabd 8735 05bd 734f 0abe 2947 38be
00000040: 2a38 95be 192c 313b 175e 00be 5207 69bd
00000050: bd3c 15bd f15a fbbd 7581 8abd 06e8 92bd
00000060: b676 6fbd c0d3 86bd 0e9e 4ebd 3ee2 0bbe
00000070: 42df 28bd df52 84be 29c8 6bbd f5e1 5fbd
00000080: 4907 7bbd 65a1 24be 381a 91bc 56fc cdbc
00000090: b24c 24be b127 9ebd b83c a7bd 99f3 1fbd
000000a0: 3ce7 4cbd 3409 0abe f9d9 d4bd c14d bfbd
000000b0: c07d 5cbd f87a 83be e712 ddbd f778 34bd
000000c0: 8fcd 4abc a2a8 5abd ee7d f1bc 2e54 86bc
000000d0: 64ec 6cbd d863 4dbd efd4 10be 568f 9abd
000000e0: dcde 0fbe ae69 08be 6fda 88bd 4286 73bd
000000f0: 5ca3 e2bd 7419 91bd d815 08bc 42d3 8cbe
00000100: d66f 30bd 9c50 bebd ade8 a3bd 03fe 20be
00000110: 6daf 02be edfc 07be 8109 7dbc 6a84 d1bc
00000120: 1258 98bc 6eeb 2abd ae7f 57bd c360 eabd
00000130: 4639 44bd 6f54 09be 18b1 79bd 3dc7 f1bd
00000140: bde7 9bbd 0b0e 27be 35c6 00be 876b a9bd
00000150: e58a 17bd f5bc 84bd 9064 b0bd 3730 95bd
00000160: a93f 39be 2755 86bb 53b1 69bd 60a9 ddbd
00000170: 80f2 1cbe 6253 89bd ff5b 8cbd 14c4 17bd
00000180: 2038 b4bd 59cb 28be 86c4 ecbc 3d15 08be
00000190: 6916 83be 67ca 69bd cd0a babb 9138 d5bd
000001a0: 446f 76bc 8d8c 853c 857d 95bd dde0 d8bd
000001b0: 1664 86bd 47b1 efbd 7c9b 76bd f9bb 1dbe
000001c0: e336 88bd 8f90 f1bd f665 c1bd e999 d3bd
000001d0: 2854 a4bd 3ed4 0fbd d715 85bc a24a 26bd
000001e0: 27cc 27be d094 33bd a620 43bd 2dd3 c1bd
000001f0: 8af5 97bc d8b9 efbd 235b 07be 11f8 30be
-0.044397894 -0.04729051 -0.12805527 -0.0005270946 -0.043242265 -0.028762482 -0.110241205 -0.07707433
-0.12686679 -0.031385917 -0.12287628 0.054369327 -0.08311902 -0.03252175 -0.1350687 -0.17995895
-0.29144412 0.002703434 -0.12535892 -0.056891747 -0.036434878 -0.12273205 -0.06762973 -0.07173161
-0.05846282 -0.06583357 -0.0504437 -0.13660523 -0.04122854 -0.25844476 -0.057563934 -0.05465885
-0.061286245 -0.16077192 -0.017712697 -0.025144737 -0.16044882 -0.07722414 -0.08165878 -0.039050672
-0.05002521 -0.13480073 -0.103931375 -0.09341002 -0.053830862 -0.25679755 -0.10794621 -0.044060674
-0.012378111 -0.053383477 -0.029478993 -0.016397562 -0.057842627 -0.050144047 -0.14143728 -0.075468704
-0.14049858 -0.13321564 -0.06682288 -0.05945421 -0.110663146 -0.07084933 -0.008305989 -0.27504927
-0.043075405 -0.09292719 -0.08003364 -0.15721898 -0.12762232 -0.13280077 -0.01544416 -0.025575835
-0.018596683 -0.04172843 -0.052612 -0.11444237 -0.047906183 -0.13411115 -0.060959905 -0.1180558
-0.0761256 -0.1631395 -0.1257561 -0.08272462 -0.036997695 -0.06481353 -0.08612931 -0.07284587
-0.1809069 -0.0040995064 -0.057053875 -0.10823321 -0.15326881 -0.06705357 -0.06853484 -0.03705223
-0.087997675 -0.16483821 -0.028902303 -0.13289352 -0.25603035 -0.05707779 -0.005677557 -0.1041118
-0.015041176 0.016302371 -0.072993316 -0.10589764 -0.06562059 -0.11703735 -0.060206875 -0.15403737
-0.06651094 -0.117951505 -0.09443276 -0.103320904 -0.08023864 -0.03511452 -0.016245766 -0.04059852
-0.16386472 -0.04384309 -0.047638558 -0.09464107 -0.0185497 -0.11705369 -0.1321836 -0.1728213

features.9.running_mean f4 [128]
00000000: 3f98 8ebf 0313 49be 115f 5fbf 78ef fbbe
00000010: 9fbb cabe 6bad c8be 9195 c1be e0db aabf
00000020: dec2 5f3e 9398 83be 0e87 d1be 423d 96bf
00000030: 6a1c 9bbd 4c35 b9bf 13d5 603f feb5 8cbf
00000040: 1e06 71bf de80 a8bf 1d6e 0dbe 5f24 31be
00000050: 5eed bdbd ed6f 91bf 9dcb a3bf 2438 b1be
00000060: ea18 103f b3d2 e9be 2d33 6abf 0a00 063e
00000070: a12e 05bf b753 8dbe fb0a b7be b23f 8dbe
00000080: 66b0 f53c 9d6e 40be 6570 08bf 6ed9 bcbf
00000090: eace 77bf c2bb 84bf 214d 3cbe b810 9fbf
000000a0: e37e b5be 5db9 e8be 7051 8dbf 729a 5abf
000000b0: 3110 8abe 89ee 5bbe af20 d23c a598 5abf
000000c0: 071a 23bf a104 1abf ca7a 27be a422 d3bd
000000d0: 283a aebe c33e e6bd 28c2 25be 8c01 9cbe
000000e0: faf9 1abf 8625 293f afb4 2bbf 3d8b d0be
000000f0: 7f97 08bf b80c 7dbf c52a debf 99f6 c3bd
00000100: 15f9 c9be 3d21 4bbd 7666 e6bd 48ef efbe
00000110: 210a ef3d 4739 eabd e8ba 7cbf 7893 75bf
00000120: 77db a0bf 299a 2bbe 71ee a3be 0461 303d
00000130: c08f dcbe da82 163f e9f8 46bf 8c56 be3e
00000140: 8eaa 63bf e950 593f 245f 9fbe 459a 4fbf
00000150: b3dc e0be ea74 693d d7f3 b9be 18d0 edbe
00000160: f8cf f53e dd8b 9ebe ce5a 0dbf 4791 e0be
00000170: 7a9b 34bf 734a f0be d6c7 31bf 43e2 84bf
00000180: cd1f 8fbd 8cde 23bf 6aeb 98be c8e7 ec3d
00000190: 2291 0bbf f3b7 f8be 9a1e 9fbe 056b 01bd
000001a0: ae84 aebe 9318 c0be 0976 31be 96c4 043e
000001b0: 626e 9dbf 0d92 4ebe 6447 0ebf 5407 d93c
000001c0: 3d00 85bf 1f30 59be 35c1 e4bd 43c5 053f
000001d0: 0fd2 fdbd 3d5d 81be 411d 91bf 3f89 87bf
000001e0: 0f33 0c3c 1dce e0be f6f3 06bf 22fe 8fbe
000001f0: a542 77bf b231 373f 5e59 43bf 4706 7fbf
-1.1140212 -0.19636159 -0.87254435 -0.49206138 -0.3959627 -0.39194807 -0.37809423 -1.334835
0.2185168 -0.25702342 -0.4092335 -1.1737444 -0.07573779 -1.446939 0.87825125 -1.099304
-0.9414996 -1.3164327 -0.13811536 -0.1729903 -0.0927379 -1.1362282 -1.2796513 -0.34613144
0.56288016 -0.45668563 -0.9148434 0.13085952 -0.52024275 -0.27602932 -0.35750565 -0.27587658
0.02999134 -0.18792196 -0.532965 -1.4753854 -0.968001 -1.0369799 -0.18388797 -1.2426977
-0.3544837 -0.4545392 -1.1040478 -0.85391915 -0.26965478 -0.21477713 0.02565035 -0.8538917
-0.6371159 -0.60163313 -0.16355434 -0.103093415 -0.34028745 -0.112424396 -0.16187346 -0.3046993
-0.60537684 0.6607288 -0.67072576 -0.4073123 -0.53356165 -0.9884753 -1.7356802 -0.09568519
-0.39447847 -0.049592245 -0.112500116 -0.46862245 0.11671854 -0.11436706 -0.98722696 -0.95928144
-1.2566975 -0.16758026 -0.32017854 0.04306127 -0.43078423 0.58793414 -0.77723557 0.37175405
-0.8893212 0.84889084 -0.31127274 -0.8109477 -0.4391838 0.056996264 -0.36318848 -0.46447825
0.4801023 -0.30966082 -0.5521668 -0.43860838 -0.7054974 -0.469318 -0.6944555 -1.038155
-0.069884874 -0.64011455 -0.29867107 0.11567646 -0.5451833 -0.48577842 -0.31078035 -0.031596202
-0.34085602 -0.3751875 -0.17330183 0.12965617 -1.2299311 -0.20172901 -0.55577683 0.026492752
-1.0390698 -0.21209763 -0.11169664 0.5225412 -0.12393581 -0.25266448 -1.1337053 -1.0588759
0.008557095 -0.43907252 -0.52716005 -0.28123575 -0.96586066 0.71560204 -0.7630824 -0.99618953

features.9.running_var f4 [128]
00000000: 3eb1 7a3f 1399 363f bdac 6e3f acf0 2b3f
00000010: 60ac f73e fa17 fd3e a100 1c3f bf65 763f
00000020: f52d 383f 13e8 153f c92f fa3e 1be6 c83f
00000030: 7928 413f c141 ef3f 1969 953f 067a 303f
00000040: 2145 ea3e a109 1340 a5bd 183f 6159 053f
00000050: c431 663f cbd0 653f d269 a53f 1e5d 3e3f
00000060: 9d04 573f c7db 903f 8cde 723f 11f2 193f
00000070: b698 2d3f 294d d33e 75e4 183f b3e4 223f
00000080: 2edd 363f 1626 0e3f ab38 5e3f 9b6d 3640
00000090: 2395 883e 166c ee3f 836d 253f 2b1f 833f
000000a0: 04b3 223f 4516 053f 8d08 903f d70b 7d3f
000000b0: e659 863f bbd8 db3e d439 8d3f ead0 b93f
000000c0: 3c8f 893f b01a 043f 6111 423f d2f7 013f
000000d0: fca3 3c3f e5ee 5e3f 5afd 553f 477e 363f
000000e0: 94b8 a43f c344 3f3f c76e 543f 2d7f 123f
000000f0: d133 3e3f ceb7 953f 716d 3b40 fe15 d23e
00000100: 3211 633f aaca c43e 1f22 033f 5631 f53e
00000110: 92f8 663f f3f7 fe3e 6c88 ee3f a4f8 8e3f
00000120: 8720 c83f b077 053f d511 213f 5eca b73e
00000130: cdb6 2b3f 56a8 3b3f 2772 923f e527 743f
00000140: 2a09 0540 3156 513f 6297 053f 16a9 6b3f
00000150: 9bef 633f 8466 193f e8b6 8f3f 683b 643f
00000160: 4f55 5c3f d226 133f 8a7c 853f fe41 083f
00000170: 5c65 eb3f 4430 9a3f 560c 723f ef94 ba3f
00000180: 21fc 303f eb96 393f 248f e43e ec1a dd3e
00000190: 25f7 f83e 6a0e 583f c36b ef3e b18e 0b3f
000001a0: 51ef 153f 852a 213f 8a5f 343f 93cf 203f
000001b0: 3319 4c3f 3a40 dc3e 8e8d ec3e 168f 173f
000001c0: d11b ff3f aa54 263f b587 743f 6512 6d3f
000001d0: 4839 003f d38e ae3e 3ec1 3140 a952 473f
000001e0: ed74 e43e 5b6d ab3e cefd 153f 0124 913f
000001f0: 804a 623f 8dc1 2a3f 181a f43e 8681 183f
0.979267 0.7132732 0.9323233 0.6716411 0.483737 0.49432355 0.6093846 0.96249
0.71945125 0.5855724 0.48864582 1.5695223 0.7545238 1.8691941 1.1672698 0.68936193
0.45755866 2.2974627 0.59664375 0.52089506 0.89919686 0.8977172 1.2922919 0.74360836
0.83991414 1.1317071 0.9487083 0.6013499 0.67811143 0.41269806 0.597236 0.6363022
0.71431243 0.55526865 0.8680522 2.8504398 0.26676282 1.8626735 0.64620227 1.0243887
0.63554406 0.51987106 1.125261 0.9884619 1.0496185 0.4293879 1.1033273 1.451688
1.0746837 0.5160322 0.7580777 0.5076877 0.7368772 0.87083274 0.8358971 0.71286434
1.2868829 0.747143 0.8298153 0.57225305 0.74297816 1.1696718 2.9285548 0.41032404
0.8869811 0.3843587 0.5122394 0.47889203 0.9022304 0.49798545 1.8635383 1.1169629
1.5634927 0.52135754 0.62917835 0.3589658 0.67075807 0.73303735 1.1441087 0.95373374
2.0786843 0.8177214 0.52184117 0.9205488 0.89037484 0.5992205 1.1227694 0.89153147
0.8606767 0.5748111 1.0428631 0.53225696 1.8390307 1.204598 0.94550073 1.4576701
0.6913472 0.7249591 0.44640458 0.43184602 0.48626056 0.84396994 0.46761903 0.54514605
0.5856829 0.62955505 0.7045828 0.62816733 0.7972595 0.4301775 0.46201748 0.59202707
1.9930364 0.6497294 0.9551957 0.9260619 0.50087404 0.3409334 2.7774196 0.77860504
0.44620457 0.3348187 0.585904 1.1339113 0.8839493 0.66701585 0.47676158 0.5957264
