experiment_testing/mz-testing/checkpoints/ptbxl/500hz/cnn1d/fold_4/best.pt (torch, 628765 bytes, 26 tensors)

features.0.weight f4 [32, 12, 7]
000000 64 f4 7d 3c 7c 66 bc bc 85 ae 01 3e b7 1c e9 bc
       0.015500162 -0.022998087 0.1266423 -0.028456075
000010 29 5c 00 3e d7 ce 80 bd cd 8a 04 bd 74 d4 ea 3d
       0.12535156 -0.062894516 -0.032358933 0.114663035
000020 a5 46 d7 3d 01 91 1e bd da 54 b8 bd 2c dc 64 bd
       0.10511521 -0.038712505 -0.09000559 -0.055874035
000030 e8 64 c4 3c 8e 69 53 bd a4 3b 9a 3d c9 37 c1 3d
       0.023973897 -0.051614337 0.07530907 0.09434468
000040 2c 67 cd bd 3c be 38 3d e1 64 de bd 22 63 88 bd
       -0.10029444 0.045103297 -0.10859085 -0.06659533
000050 d6 dd 05 3d f3 2a 1e bd 13 4e 91 bd 57 76 c6 bd
       0.032682262 -0.03861518 -0.070949696 -0.0969054
000060 08 04 8a bc e1 5d 13 3d b4 45 82 bd 8b ec 40 3d
       -0.016847625 0.0359782 -0.06360951 0.047100585
000070 e8 7a 2b bd a4 29 00 3e c2 94 0e 3c d0 14 3e bd
       -0.04186526 0.12515885 0.008702459 -0.046406567
000080 a2 1b 89 3d 18 28 93 bd 3e 2b 4c 3c ec ad 46 bd
       0.06694724 -0.07185382 0.012461482 -0.04850571
000090 af 5b d7 3c 6b 62 87 3a c3 0e a8 bd 15 4c ad 3d
       0.026288835 0.0010329013 -0.082059406 0.08461777
0000a0 da a1 b5 3d d0 18 bb bd 5b c9 dd 3c bf 5a d4 bc
       0.08868761 -0.09135592 0.027073553 -0.025922177
0000b0 bd 3b dc bd d1 7a 6f 3d b8 6e ea 3d e0 7e 81 3d
       -0.10753582 0.058466736 0.11446899 0.063230276
0000c0 fe cc 29 bc 19 34 06 3c c6 33 30 be b9 bb 4c bd
       -0.010363815 0.008191132 -0.1720725 -0.049983714
0000d0 ba 31 ef bd e7 36 c1 bd 30 08 ae bd 3f fc eb ba
       -0.116794065 -0.094343 -0.084976554 -0.0018004252
0000e0 c8 e3 21 3d f7 6c 3c 3d 73 f0 ca bd 01 c0 29 bd
       0.03952387 0.046002354 -0.09909143 -0.041442875
0000f0 d9 2e 9f bd 23 52 8f bb 0e 9e af bd 1b 18 11 bd
       -0.07772607 -0.004373805 -0.085750684 -0.03542338
000100 5c b1 78 bc 95 bb c9 bd 11 f0 89 3d 1c c2 09 39
       -0.0151790045 -0.098502316 0.06735242 0.0001313765
000110 27 36 f0 bd 61 17 9d 3d f8 5b b8 bc 51 c6 c0 3d
       -0.11729079 0.07670475 -0.022504792 0.09412826
000120 d3 6e bb bd 3e 35 92 3d d4 af 04 bd 13 6b 64 3d
       -0.091519974 0.071390614 -0.032394245 0.055766176
000130 8b 3c b9 bc 7c 64 af 3d b9 bc 85 3d 08 1b a2 3c
       -0.022611877 0.08564088 0.065301366 0.01978828
000140 12 36 22 3d 3b b0 dd bb d7 c3 f1 3c 35 b5 91 3c
       0.039602347 -0.006765393 0.029512329 0.017786602
000150 a7 a3 d4 bd be e4 e9 bd 3f 70 32 bc 6b d9 40 bd
       -0.10382777 -0.11420582 -0.010891019 -0.047082346
000160 72 13 b9 3d 11 c1 3a 3d 12 a2 be 3d 6c 16 0b bc
       0.09036912 0.04559428 0.09308256 -0.0084892325
000170 7e 6d 6b 3c 73 ca d7 bd 0e ca 28 3d f8 af 55 bd
       0.014369367 -0.10536661 0.04120832 -0.05216977
000180 c4 0a 4b bc cb 2c 6a 3d 8f 80 6b bc 2a 94 a9 3c
       -0.012392703 0.057171624 -0.0143739125 0.020700533
000190 1e 25 17 3b c2 42 c5 bd 1a 20 9d bd 49 d8 10 bd
       0.0023062895 -0.09631874 -0.076721385 -0.035362516
0001a0 56 09 69 3d 1b 67 ab 3d 73 af 00 3d 50 de 16 3d
       0.05689367 0.08369275 0.03141732 0.036833107
0001b0 41 6c 86 bb 80 a7 c8 3d bd 76 51 bd 45 7f ad bc
       -0.0041022603 0.09797573 -0.05113863 -0.02117885
0001c0 23 27 a4 bd 49 e9 3e 3c 7a c5 02 3d 86 54 9b 3a
       -0.08015277 0.011652299 0.03192661 0.0011850751
0001d0 87 5b 06 be 42 4e a9 3d 73 cb 5e 3d dc f7 db bd
       -0.13120852 0.082668796 0.054393243 -0.10740635
0001e0 89 1d f4 bd 97 2d ab 3d 1e 73 68 bd 76 e6 63 3d
       -0.11919696 0.08358305 -0.05675041 0.055639707
0001f0 f0 8d b9 bd e1 46 2a 3d 91 c4 b3 3d b1 9e a2 bd
       -0.090602756 0.0415715 0.087777264 -0.07940424
000200 a1 ab c5 bc bb 92 74 3a 59 b9 93 bd d7 95 79 bd
       -0.02412969 0.0009329726 -0.07213087 -0.060933914
000210 1c aa 1f bb ec 35 f6 3c 8e 33 1d 3e 07 35 32 3d
       -0.0024362868 0.030055009 0.15351698 0.043507602
000220 fa 97 24 3e b0 72 40 bd cc 7c 13 3e 96 96 7e bc
       0.160736 -0.046984375 0.14403075 -0.015538832
000230 8c 09 55 3d 53 a6 b1 3c f5 4d bb 3c 8e 33 c5 3c
       0.052011058 0.021685755 0.022864321 0.024072435
000240 77 69 ac 3d 3b 03 e1 bd 43 ca 78 bd 83 2f 88 bd
       0.08418553 -0.10986944 -0.060739767 -0.06649687
000250 62 1a e8 3d 63 30 dd bc 0b ce 28 bb 6c 01 f4 3d
       0.11333157 -0.027000612 -0.0025757577 0.11914334
000260 d7 f3 ce 3d e6 9e 7d bd e6 2f 79 3d 34 ec b2 bc
       0.101051025 -0.061919115 0.060836695 -0.021841146
000270 48 1f 81 3c e5 09 3b 3d 68 cd 7f 3b e5 27 a6 3d
       0.015761986 0.045663733 0.0039032344 0.08113078
000280 de e3 da bd 41 b8 c6 3c 5f 3c db bd cf eb 82 bd
       -0.106879935 0.024257781 -0.10704874 -0.06392633
000290 82 52 ce 3d 27 cc 47 bc ae 91 8f bd d4 a4 8c bd
       0.10074331 -0.01219467 -0.07010208 -0.06867376
0002a0 31 9d d7 bd 8b 48 a2 bd ef f1 dc bd 57 7d 45 bd
       -0.10528029 -0.07923993 -0.10788333 -0.048215237
0002b0 76 25 af 3d 49 25 72 3b 79 1d e9 bc cf 10 b4 bd
       0.08552067 0.0036948493 -0.028456436 -0.087922685
0002c0 74 3b 30 3d e9 cd b0 3d b6 14 a3 bd 39 85 82 3d
       0.04302545 0.08633024 -0.07962935 0.063730665
0002d0 e6 76 ca bd 48 3b 06 bd 18 52 c8 3d 00 66 93 3d
       -0.09885959 -0.03277138 0.09781283 0.07197189
0002e0 f9 c7 27 3d c7 d6 4c bd 95 21 a2 bd 4b 28 02 be
       0.040962193 -0.050009515 -0.079165615 -0.12710683
0002f0 fc e2 32 bd 8d cb 85 3d 09 a3 27 bd 3f 61 8c bd
       -0.0436735 0.06532965 -0.040926967 -0.06854486
000300 db ca 7d bd b1 1e 67 bd 30 02 ba bd 53 d1 5a bd
       -0.061961036 -0.056425754 -0.090824485 -0.053422283
000310 1d ea 84 3d a6 67 87 bd 87 87 90 3d 87 ff d1 3d
       0.06489966 -0.06611566 0.070571 0.10253816
000320 91 b8 f9 3d e2 ba 4e 3d 08 d5 02 3e 7d 42 1c 3e
       0.121934064 0.050471194 0.12776577 0.15259738
000330 80 d9 00 3e 60 f9 af 3d df 12 9a bd d6 03 b6 3d
       0.1258297 0.085924864 -0.075231306 0.088874504
000340 32 da b9 bd 48 9f d6 bd a8 c0 f9 bc 5a 33 15 3d
       -0.090748206 -0.10479599 -0.030487373 0.036425926
000350 90 47 44 3d 18 03 a1 3c ef a0 55 3d 60 3f e8 3b
       0.04791981 0.019654796 0.05215543 0.007087633
000360 43 b0 8a 3d db 0d 5f 3c 6b 3e 84 bb 62 fa 7d 3d
       0.067719005 0.013614143 -0.004035761 0.06200636
000370 83 c2 b3 3d fe 32 29 bc 92 89 42 bd 4b 41 85 3c
       0.087773345 -0.010327099 -0.04749448 0.016266486
000380 35 90 d8 3d 7c 95 10 bd 16 3d b3 3d 2c d2 14 3d
       0.1057438 -0.03529881 0.087518856 0.036333248
000390 d6 46 61 3d 0e 7a 42 3d ad 3d c5 bd fd 34 4c 3d
       0.054999195 0.04747968 -0.09630904 0.04985522
0003a0 69 51 23 3d 90 89 0d 3b d9 31 10 bd ff bd 6c 3c
       0.03987256 0.0021596886 -0.03520379 0.0144495955
0003b0 26 7d 01 be 66 01 aa bd ea 43 2f bb d6 20 c8 3d
       -0.12645397 -0.08301048 -0.002674336 0.09771888
0003c0 88 4a 87 3d a4 6f c7 3a 00 8f 97 bd b0 66 db 3d
       0.066060126 0.0015215767 -0.07400322 0.107129455
0003d0 cf 8a 78 3d 91 e9 1d bc 2d d7 c9 bc ed 58 96 3d
       0.060679253 -0.009638206 -0.024638737 0.0734118
0003e0 86 8a c6 3b f1 69 85 3d fc 90 55 bd 2c 5a 2b 3d
       0.0060589937 0.06514347 -0.05214022 0.04183404
0003f0 82 dd 88 3c 9b 7b 80 3d 03 9d c3 bd 62 47 95 3d
       0.016707186 0.06273576 -0.09551432 0.07289006

features.0.bias f4 [32]
000000 9b 73 95 3d 3e 33 b1 3d 9d 89 d5 3d 7b 8a 19 3b
       0.072974406 0.08652352 0.10426638 0.0023428488
000010 69 9f c9 3d 54 2c 96 3d 52 85 b6 3d af 15 6d 3d
       0.09844858 0.07332674 0.089121476 0.057882007
000020 bf d1 e1 3b 8c 7e da bc c2 47 94 bd 7f ab c2 3d
       0.0068914588 -0.02667167 -0.07240249 0.095053665
000030 0e 68 9a 3c 24 fd 9c 3d 44 37 3d 3d ce 21 5a bd
       0.018848445 0.0766547 0.046195284 -0.053254895
000040 04 67 ed bb a9 f0 b4 3b f4 8f 08 3e 8a 18 92 3d
       -0.0072449464 0.005521853 0.13336164 0.07133587
000050 75 97 a3 3d e0 67 77 3d af 81 93 bb a4 07 bb 3d
       0.079878725 0.060401797 -0.0045015435 0.09132317
000060 77 b0 bb 3d ee 33 b8 3d bc 13 de 3d a8 34 02 bc
       0.091645174 0.0899428 0.10843608 -0.007947125
000070 78 bc 16 bd 5c 29 85 bd d4 f3 8a 3d f2 c4 2a 3c
       -0.03680083 -0.06502029 0.06784788 0.010422932

features.1.weight f4 [32]
000000 72 98 80 3f c6 75 7e 3f aa c3 7a 3f 61 96 75 3f
       1.0046523 0.9939846 0.9795481 0.95932585
000010 10 77 7b 3f 3c f1 88 3f 79 a7 84 3f f9 d7 7c 3f
       0.9822855 1.0698619 1.0363609 0.9876705
000020 a9 c2 77 3f fa 87 83 3f 3b 51 78 3f 01 07 75 3f
       0.967814 1.0275872 0.9699895 0.9571381
000030 36 15 80 3f a3 99 79 3f 9e eb 82 3f 27 6c 7c 3f
       1.0006473 0.97500056 1.0228155 0.9860253
000040 ba 01 86 3f d0 e4 81 3f 6c 05 7c 3f 4e 8b 7a 3f
       1.0469277 1.0147953 0.98445773 0.9786881
000050 c1 0c 88 3f d1 97 7f 3f c0 ca 7b 3f 14 fa 7f 3f
       1.0628892 0.9984103 0.98356247 0.99990964
000060 dc c7 7d 3f d4 21 81 3f df dd 82 3f 6d e4 85 3f
       0.99133086 1.0088449 1.022396 1.0460335
000070 da 43 84 3f 6e e0 80 3f 62 8e 75 3f 65 6b 70 3f
       1.0333207 1.006849 0.95920384 0.9391387

features.1.bias f4 [32]
000000 23 90 84 bc 38 a5 8f 3d 84 74 3e 3d cd 9c b8 bc
       -0.016182011 0.07013935 0.046497837 -0.022535706
000010 63 4c 60 3b c7 c4 9c 3d 8f 35 15 3b bb f7 b1 3c
       0.0034225218 0.0765472 0.002276752 0.021724572
000020 a9 94 79 bc 6d dd df 3b a7 91 10 39 75 be 03 bd
       -0.015233197 0.006831816 0.0001378717 -0.032164056
000030 d2 cf e9 3c 07 e1 7a 3b ef 3c 24 bd 04 ad 5b 3d
       0.02854148 0.00382811 -0.040097173 0.053631797
000040 a6 56 c8 bc cc e9 62 bc 6e 4a df bb 05 d2 80 3b
       -0.02445538 -0.013849687 -0.0068142926 0.0039312863
000050 12 db 62 3a 9c 65 88 bc ba d8 09 bd ca 37 87 bb
       0.000865386 -0.016650014 -0.033653952 -0.0041265236
000060 74 9f 29 bd dd 24 34 bd 88 07 b0 bc 07 3f 9c 3c
       -0.041411832 -0.043980468 -0.021487966 0.019073023
000070 81 06 69 3d 00 b3 19 3e 97 c3 b1 bc 50 80 20 bc
       0.05689097 0.1500969 -0.02169971 -0.009796217

features.1.running_mean f4 [32]
000000 69 6c 97 3d b9 27 b1 3d 2e c0 d4 3d 4a 9c 36 3b
       0.073937245 0.086501546 0.10388218 0.0027864152
000010 02 40 c7 3d f9 1b 98 3d 1b 3a b6 3d 22 6d 6d 3d
       0.097290054 0.0742721 0.088978015 0.057965405
000020 af 61 e6 3b 40 fb da bc 6f 45 94 bd a1 2c c1 3d
       0.0070306878 -0.026731133 -0.07239806 0.094323404
000030 2a 0c 87 3c 76 33 9d 3d 4e 1b 47 3d 51 cd 5b bd
       0.016485292 0.07675831 0.048610024 -0.0536626
000040 4d d9 ec bb 70 5e b1 3b 37 94 08 3e b8 88 91 3d
       -0.0072280527 0.005412869 0.1333779 0.07106155
000050 03 ec a3 3d 07 fe 76 3d ea 19 93 bb ff bf bb 3d
       0.08004 0.060300853 -0.004489173 0.0916748
000060 4f e8 ba 3d e5 39 b7 3d 63 f0 dd 3d d2 bf 07 bc
       0.091263406 0.089465894 0.10836866 -0.00828548
000070 a2 3f 16 bd 9e 41 85 bd 8f b8 8b 3d 95 57 4f 3c
       -0.03668178 -0.06506656 0.06822311 0.0126551585

features.1.running_var f4 [32]
000000 1e d1 4c 3f 06 50 11 3f f8 4d 08 3f 4a c6 02 3f
       0.8000659 0.5676273 0.5324397 0.51083815
000010 41 28 6d 3f 05 7b c0 3e e6 48 78 3f 5a 1d 70 3f
       0.9263955 0.37593856 0.96986234 0.93794787
000020 ba 88 96 3e 27 85 02 3f ac 89 f9 3e 3d cb f9 3e
       0.2940119 0.50984424 0.48737848 0.4878787
000030 89 ee be 3e d7 81 88 3e 65 3f 87 3f 38 8a 89 3f
       0.37291363 0.2666156 1.0566221 1.0745306
000040 bf 73 69 3f a8 4c d5 3e f3 09 80 3f 92 3f a9 3e
       0.9119224 0.41660047 1.0003036 0.33056313
000050 45 04 4e 3f be 74 8e 3f bb 88 03 3f 65 1a 5c 3f
       0.80475265 1.1129377 0.5138051 0.85977775
000060 e0 af 8a 3e c5 6e a7 3f 8e b9 4a 3f e9 d3 75 3f
       0.27087307 1.3080679 0.79189384 0.96026474
000070 a0 30 c1 3f ba f5 1d 3f 20 cc b9 3e 30 83 69 3e
       1.5092964 0.61703074 0.36288548 0.2280395

features.4.weight f4 [64, 32, 5]
000000 3f f2 f9 3b 97 7e 12 bd 7b a5 bf 3d 5c df 19 3d
       0.007627755 -0.035765257 0.09357735 0.037566528
000010 26 c5 22 bd 36 65 90 3c f8 d7 41 bc f3 d1 ad bd
       -0.039738797 0.017626386 -0.011831276 -0.0848731
000020 2f fe 9c bb fe fa 4e 3d fe 88 5b 3d eb dd f5 3c
       -0.0047910432 0.050532334 0.053597443 0.030013045
000030 bb 51 e6 bd 5e 30 5d bd 63 a0 26 3d 38 5a 93 bb
       -0.112460576 -0.054001205 0.0406803 -0.004496839
000040 86 e8 7f 3d 2c 59 8c 3d 56 7a 97 3c 09 cb 11 3d
       0.06247761 0.06852946 0.018490952 0.03559402
000050 12 c1 c1 3c d5 c5 92 bd ac 8a a6 bc 61 61 e3 3c
       0.023651633 -0.0716664 -0.020329796 0.027756395
000060 83 4f 20 bd d7 57 08 be bb fb 8f bc df 2f c5 bb
       -0.03913833 -0.13314758 -0.01757609 -0.0060176696
000070 7a a6 14 3d 90 f3 b5 3c dd 1d 96 bd ea 83 e0 bc
       0.036291577 0.022210866 -0.07329915 -0.027406652
000080 a4 69 da 3b 1c 07 1d bd 54 44 06 3d b6 cd 16 bc
       0.0066654254 -0.03833686 0.032780007 -0.009204319
000090 34 6a 72 bc 02 c7 36 3c 88 d4 32 3c 18 60 ce bd
       -0.014795829 0.011155846 0.010914929 -0.10076922
0000a0 d2 20 c3 3b a8 de ab bd f6 4c 01 3d 07 f1 25 3d
       0.00595484 -0.08392078 0.031567536 0.040513065
0000b0 77 b2 ec bc d2 7f 4d bd ae 13 54 bd ac d5 e0 3b
       -0.028893692 -0.050170727 -0.05177658 0.006861409
0000c0 4a 49 b2 bd 40 a1 eb bd 73 0b 77 bd aa 4a 87 bd
       -0.08705385 -0.11505365 -0.060313653 -0.06606038
0000d0 d8 82 84 bd 17 ba e7 bc 58 d1 5f bd a9 f6 ec bd
       -0.06470269 -0.028286977 -0.054643005 -0.11570484
0000e0 94 cb bc bd fd 66 a3 bc 6c e6 4c bd b3 93 92 bd
       -0.09218517 -0.01994657 -0.050024435 -0.07157078
0000f0 2a c9 97 bd 37 6e e0 bd df a9 1d bc 7b 35 31 3b
       -0.07411416 -0.10958522 -0.00962302 0.0027039933
000100 df 9a 68 3a a1 e2 39 bd 56 47 0b bd 2e 75 0a 3d
       0.0008873175 -0.045382146 -0.034003578 0.033803158
000110 ed 8a 02 bd 19 d9 13 3d b0 d9 47 3d 3d f2 13 3d
       -0.03187077 0.036095712 0.048791587 0.03611969
000120 db f3 41 bd d0 86 01 3d 1c 4a d1 3c 30 58 eb 3c
       -0.0473517 0.031622708 0.025548033 0.028728575
000130 60 7c 8f 3b 41 d4 7d bc 61 f4 97 3c f9 e3 f3 3c
       0.0043788403 -0.0154925 0.018549146 0.029771792
000140 86 d1 98 bc 88 d7 c0 bc 68 bb 00 bd cc e5 39 3d
       -0.018654596 -0.023540273 -0.031428725 0.045385167
000150 03 78 6c 3d b3 da 65 3d 5d 03 62 bc 2e 02 96 bd
       0.05773164 0.05611677 -0.013794747 -0.073246345
000160 fa a5 83 bd aa 23 42 3d e5 a4 b6 3c 13 67 8b 3d
       -0.06428142 0.047397293 0.022295425 0.06806769
000170 18 86 9d 3d bb ba 01 3d 90 79 9f 3d d8 76 57 bd
       0.07691592 0.03167222 0.07786858 -0.052603573
000180 4d 6d 85 3d fa e4 99 bd c3 fe 63 bd 09 ee f3 ba
       0.06514988 -0.07514377 -0.05566288 -0.0018610369
000190 3a 01 f8 3c 03 df e2 bc f9 b0 80 3d 12 72 03 bd
       0.030274022 -0.02769423 0.06283755 -0.032091208
0001a0 6e 47 13 bd 21 2a 38 bd d0 d6 82 3d 19 d0 84 bd
       -0.035956793 -0.044962052 0.063886285 -0.06485004
0001b0 be 21 fa bc f2 de da bb 91 16 01 bc 34 c6 cc 3c
       -0.030533668 -0.006679409 -0.007878915 0.024996854
0001c0 07 b9 2b 3d a2 88 fe 3c 12 2e 40 bd d1 5b 6c bd
       0.041924503 0.031071011 -0.046918936 -0.05770475
0001d0 af bd 78 3d 6e 17 2a 3c 45 91 87 bc 71 11 f8 bb
       0.06072777 0.010381563 -0.016548762 -0.0075704386
0001e0 4d 02 82 bb 51 95 8a bc 71 eb a7 3d 27 6e c2 3c
       -0.0039675594 -0.016916903 0.08199204 0.023734165
0001f0 7b 4d 24 3d 4d ad 1f 3d dd de db 3c 6a 24 6a bd
       0.040112954 0.038983632 0.026839668 -0.057163633
000200 e4 9f 71 bd 85 48 9f 3b 49 b8 ac bd cb f8 3f bc
       -0.058990374 0.00486094 -0.08433587 -0.011717032
000210 aa c6 02 3c 4e 26 3d bd 9e e9 68 bd 66 89 3e bc
       0.0079819355 -0.04617911 -0.05686342 -0.011629438
000220 d3 01 a2 ba c0 6e 9b 3d 0b ce 5a bb 26 f4 54 3d
       -0.0012360163 0.07589483 -0.0033386971 0.05199065
000230 c8 82 ac 3d 0f b3 8c 3d d4 4a 8a 3d 26 42 4c bd
       0.08423382 0.0687009 0.067525536 -0.04986777
000240 8c 54 3f 3d ff 4f d0 bd 46 ee a0 bd c0 56 79 3d
       0.04671149 -0.10171508 -0.07857947 0.060873747
000250 3f 09 0e 3d 36 24 50 3d 08 c9 15 bb 29 6c 47 3d
       0.034676787 0.050815783 -0.002285542 0.048687134
000260 7e a3 48 3d c3 17 1b bd 15 c9 b9 bd 36 63 2f bb
       0.048984043 -0.037864458 -0.090715565 -0.0026762015
000270 18 ce b8 bb bc f1 38 bd ab d9 43 3c 21 9c 4a 3c
       -0.0056398027 -0.04515241 0.011953752 0.012366326
000280 aa f0 83 bd ac a4 ef bb 2b 9f 89 3d 76 6d 81 3d
       -0.064423874 -0.0073133316 0.06719812 0.06319706
000290 71 73 64 bd 5a 37 bf bd 27 ea 41 bd cb fa 60 bc
       -0.055774156 -0.09336729 -0.047342446 -0.013731669
0002a0 3e ff ad bd 6d 96 2d bd 6a 39 33 bd 44 30 89 3d
       -0.08495949 -0.042379785 -0.043755926 0.06698659
0002b0 ac 73 5b bb b3 7e 7d bd f6 22 a1 bd ef 00 88 3d
       -0.0033485694 -0.061888408 -0.078679964 0.06640803
0002c0 19 16 13 bc 1a 36 8f 3d 55 77 18 3d e6 ed 3d bd
       -0.008977436 0.06992741 0.03722318 -0.046369456
0002d0 8a 17 83 3b f2 04 a7 bd d5 86 9f bc 25 9c 70 3d
       0.004000609 -0.0815524 -0.019473473 0.05874266
0002e0 77 32 f4 bc 4c 7a dc 3d 06 39 a8 3d 5a e0 81 bc
       -0.02980922 0.10765514 0.08214001 -0.01585405
0002f0 ea 95 ce bd 63 f0 09 3d 80 9b 89 3d e5 a3 c6 bc
       -0.100871876 0.033676516 0.067191124 -0.024248073
000300 d6 3e eb 3c 82 cf 93 3d 45 f7 1f bb 4c 67 29 bd
       0.028716486 0.07217313 -0.0024408859 -0.041358277
000310 f3 c7 22 3c 30 14 f6 bd 5a 06 07 be 58 6b ca bd
       0.009935367 -0.12015569 -0.13186017 -0.098837554
000320 ce 20 9b bd 55 d1 07 3b ba 68 3c bd 78 44 78 bc
       -0.075746164 0.0020724137 -0.045998313 -0.015153043
000330 1b 69 89 bd 27 d8 1c 3d 7b ef 75 3c a8 03 97 3d
       -0.067095004 0.038292076 0.01501071 0.07373744
000340 16 ea 33 3d eb 08 9f 3d 14 6a 78 bc cc 9b 8c 3d
       0.043924414 0.07765373 -0.01516201 0.068656534
000350 01 96 83 bb f3 30 21 bd 63 3d d4 3a c0 6c d6 bd
       -0.0040156846 -0.039353322 0.0016192611 -0.10469961
000360 1c 05 89 bd a1 57 d9 bd f3 cd fd bd 5f 50 05 be
       -0.06690428 -0.10612417 -0.12392797 -0.1301894
000370 5d d1 47 3d 18 55 e8 bc 85 23 1a bc e1 22 15 3d
       0.04878365 -0.028360888 -0.009407883 0.036410216
000380 2f 7c 36 bd 9b b7 1f 3c ab 05 6d 3d 05 2d 31 bc
       -0.044552024 0.009748365 0.057866734 -0.010813956
000390 50 68 6c bd be e6 a1 3c a1 66 67 3d 95 db 6d 3d
       -0.057716668 0.019763347 0.05649436 0.058070738
0003a0 2c e3 a6 bb 75 ed 7d 3d fa 19 ae 3d be 3e 5f bc
       -0.005092999 0.061994035 0.085010484 -0.013625799
0003b0 27 29 72 3b 39 1f 59 bd 17 57 2b 3d d7 a2 38 bd
       0.0036950798 -0.053008292 0.041831102 -0.04507717
0003c0 c6 cd b5 3b b3 2c 99 bb 27 e2 8d 3a 6a bb 2b bc
       0.0055482117 -0.004674518 0.0010824845 -0.010481695
0003d0 0b c7 70 3c 2b bf 7d bb 82 11 02 3d fa a0 6d bb
       0.014695893 -0.0038718681 0.031754978 -0.003625928
0003e0 0f 24 37 bd fc e5 73 3d 4a a4 a2 3d 2e 9c 05 3d
       -0.044712123 0.059545502 0.07941492 0.032619648
0003f0 de 09 a9 bd 7e 17 93 bd f3 c6 15 bd 4f e1 0d 3d
       -0.08253835 -0.07182215 -0.036566686 0.0346387

features.4.bias f4 [64]
000000 1b 41 12 3d 81 7d bc bd 24 8f 7c 3d 92 59 02 bd
       0.03570662 -0.092036255 0.061659947 -0.031823702
000010 ac 1d 14 bc e4 45 7f 3d f4 f1 07 3d 07 07 99 3c
       -0.009040277 0.062322512 0.03318973 0.018680109
000020 ef 14 72 bd 33 9b a6 3d a2 3f 31 bd d0 e0 94 bc
       -0.059101995 0.08135071 -0.043273576 -0.018173605
000030 bb 79 31 3c 6a 3e 9f bc e2 61 48 bd ec 1c b2 bc
       0.010832245 -0.019438941 -0.048921473 -0.021742307
000040 05 7b 80 3b 42 3d 0e bd 68 e8 e6 3b b3 29 b9 3d
       0.003920915 -0.03472639 0.007046748 0.090411566
000050 eb 27 7f bd 00 c7 9d 3c dc 57 82 bd 4a 66 63 3d
       -0.062293928 0.01925993 -0.06364414 0.055517472
000060 dd 32 6e 3d bb 43 61 3d 20 a3 c8 3c 23 88 86 3c
       0.058153976 0.054996233 0.024491847 0.016422337
000070 ca 4f 19 3c 72 62 87 3c 55 3c 50 3c a1 20 d3 bc
       0.009357402 0.016526435 0.012709697 -0.025772395
000080 5b 2a 3f bc 01 15 a9 3d 08 b2 b1 3d 09 ec 95 bb
       -0.011667813 0.08255959 0.08676535 -0.0045752567
000090 75 74 07 3d a0 aa b3 bd 07 13 e3 3c c2 0a b9 3a
       0.033070046 -0.087727785 0.027719034 0.0014117586
0000a0 50 45 80 bd f3 7d 99 3c 09 20 01 bc 7f 71 d3 bc
       -0.0626322 0.018736815 -0.007881173 -0.025810955
0000b0 8c d4 30 3c fc 00 95 bd bc 09 e9 bc 68 d9 a4 3c
       0.010792863 -0.072755784 -0.028447025 0.020123199
0000c0 44 f8 36 3c d5 d8 a2 3d c9 ad 86 bb ab d6 6b 3d
       0.01116759 0.07951514 -0.0041100723 0.05757777
0000d0 44 f7 8b 3d 03 ed cc 39 a4 53 ac 3c af cf cb 3c
       0.068342716 0.000390865 0.021035977 0.024879305
0000e0 c6 22 6e 3d b2 92 ef 3c 09 ec 33 3c 3b ca 22 3c
       0.05813863 0.029244754 0.010981568 0.009935911
0000f0 81 0a b0 3d de 2f 06 3d 54 cd 8f bc 10 c8 a6 bd
       0.085957535 0.032760493 -0.017553963 -0.08143628

features.5.weight f4 [64]
000000 f2 e2 6f 3f f7 e3 84 3f 9f 8d 88 3f 93 23 7a 3f
       0.93705666 1.0382069 1.0668219 0.9771053
000010 1e af 7b 3f 64 f0 84 3f 5f 72 6d 3f 38 4b 81 3f
       0.9831408 1.0385861 0.9275264 1.010108
000020 db 31 82 3f 68 24 84 3f ea 6c 6e 3f 25 2c 80 3f
       1.0171465 1.032361 0.9313494 1.0013472
000030 64 bf 86 3f db 8d 80 3f f8 50 79 3f df 9f 83 3f
       1.0527158 1.0043291 0.97389174 1.0283164
000040 ee 45 89 3f b9 e7 7f 3f e8 c1 80 3f 13 a6 7a 3f
       1.0724466 0.99962956 1.0059175 0.9790966
000050 35 04 81 3f 5e e0 77 3f 73 c5 80 3f ed 27 72 3f
       1.0079409 0.9682673 1.0060257 0.9459217
000060 d5 00 6d 3f 29 a7 67 3f cc ff 7e 3f a7 cd 71 3f
       0.92579395 0.9048944 0.99609065 0.94454426
000070 ee 25 7b 3f 0f 33 6d 3f 7c 0b 80 3f 57 81 82 3f
       0.9810475 0.92656034 1.0003505 1.0195721
000080 c2 01 81 3f 8c e0 84 3f e3 28 7b 3f 97 89 82 3f
       1.0078661 1.0381026 0.98109263 1.0198239
000090 84 15 6b 3f 73 da 83 3f 2c 45 80 3f 47 35 87 3f
       0.91829705 1.030104 1.002111 1.0563134
0000a0 2e 2e 80 3f 59 ec 79 3f cd 57 85 3f 5d 74 7a 3f
       1.0014093 0.9762626 1.041742 0.97833806
0000b0 89 53 84 3f 4d 3f 8d 3f 53 da 75 3f c3 6a 74 3f
       1.0337993 1.1034943 0.9603626 0.95475405
0000c0 56 43 79 3f e2 a3 73 3f 48 8c 86 3f 30 48 80 3f
       0.9736837 0.9517194 1.051156 1.002203
0000d0 fc e3 80 3f 8f 21 81 3f 4c 51 94 3f 36 b9 72 3f
       1.0069575 1.0088366 1.158731 0.9481386
0000e0 ee e6 82 3f 89 1d 69 3f 5d de 85 3f e3 66 7a 3f
       1.0226724 0.9106069 1.0458485 0.9781324
0000f0 9e 54 80 3f b5 ce 7c 3f dd 7e 8a 3f 00 d2 78 3f
       1.0025823 0.9875291 1.0819966 0.97195435

features.5.bias f4 [64]
000000 a8 48 bb bc ff db c2 3d 8d 77 9c 3d d7 34 82 3c
       -0.022861794 0.09514617 0.0763999 0.015894337
000010 a6 62 70 3b f1 91 ca 3b 60 47 5e bd fa 82 52 bd
       0.0036679893 0.0061819484 -0.054267287 -0.05139444
000020 c9 77 1a bd a4 1d 32 bd 5f 49 e6 bd 7f 4e ed 3b
       -0.037711892 -0.0434853 -0.11244463 0.0072420235
000030 d3 d6 39 bd 94 77 7d bd 2f 4a 20 bc f7 97 02 3c
       -0.045370888 -0.061881617 -0.009783312 0.007970802
000040 85 6f 11 bd 9f 92 8b 3b 75 89 97 bc 82 c8 dc 3c
       -0.035506744 0.004259422 -0.018498162 0.026951078
000050 01 c4 35 3d a1 4e 21 3c 96 99 47 bd d6 08 a7 3b
       0.044376377 0.009845407 -0.048730455 0.005097489
000060 a7 8b cd bd 54 5e b4 bb 92 94 a0 bc ab 8b 34 bd
       -0.10036402 -0.005504409 -0.019602094 -0.04407851
000070 4f 79 3c bc 39 30 a9 bd df 1a 23 3d 95 61 5d 3d
       -0.011503532 -0.08261151 0.03982055 0.05404814
000080 26 f8 bd bc a3 71 18 3c 37 f0 7a 3d 93 2b 70 3d
       -0.023189615 0.009304437 0.061264243 0.058635306
000090 82 2b e9 bc 54 81 34 bc d5 60 7b bd 2b 7d d7 3d
       -0.028463129 -0.011017162 -0.061371643 0.10521921
0000a0 6d 10 e5 bc a5 bb 06 3b c5 89 9f 3c e1 04 2a bd
       -0.027961934 0.0020558622 0.019474873 -0.04150856
0000b0 cb b6 01 3b 85 03 a7 3d 73 cf 54 bd 0b 24 5a bd
       0.001979279 0.08154968 -0.05195565 -0.05325703
0000c0 f7 d9 eb bc 29 0a 80 bd 14 6a 0f bb 84 11 d0 bb
       -0.028790457 -0.06251938 -0.0021883296 -0.0063497443
0000d0 95 04 17 bd 23 9a 2c 3b f7 4c c3 3d bd bb d7 bc
       -0.036869604 0.002633699 0.09536164 -0.026334638
0000e0 bb ce 56 3d 17 8e 3d bd ec 5f 62 3c a6 a3 3f bd
       0.052443247 -0.046278086 0.013816815 -0.046786927
0000f0 af 8b 59 3c da 3f 21 bd 27 62 48 3d af 73 0b bd
       0.013277932 -0.039367534 0.04892173 -0.03404587

features.5.running_mean f4 [64]
000000 b6 cb 8c be 59 b5 fb be 10 d8 ed be 4e 10 27 be
       -0.2749917 -0.49161795 -0.46453905 -0.16314813
000010 83 91 73 be 5f 29 45 3e 5e 24 1f 3e fc f7 88 bd
       -0.23785977 0.19254063 0.15541217 -0.06687924
000020 84 9c 20 bf 06 f9 9f 3e e5 79 0b 3f dc b8 cc be
       -0.62738824 0.31244677 0.5448287 -0.39984787
000030 63 fe 57 3e 96 8b b7 3e 37 2f 3b bf 2f bb 01 bf
       0.21093135 0.35848683 -0.7311892 -0.50676244
000040 1c cf 97 3e 7f b8 a4 be 95 cf b3 3e c4 08 3d be
       0.296502 -0.3217201 0.3511931 -0.18460375
000050 9c 0b 1f bf 85 7b 06 bf 16 37 28 bf 9f a7 37 bd
       -0.6212709 -0.52532226 -0.65709054 -0.04483759
000060 de 7e 9d 3f 74 d3 2f be 09 46 aa be b8 61 57 3f
       1.2304342 -0.17170507 -0.33256558 0.8413348
000070 20 bc 4b 3f 3a 15 6c bc fe ba 35 bf cf d0 1b bf
       0.7958393 -0.014409358 -0.7098845 -0.6086549
000080 fa 6a 1b 3e ea ea b8 3d c8 89 1d bf 5b de 1b bf
       0.15177527 0.09029181 -0.6153836 -0.6088616
000090 8e 9f fe be 35 7b 4d bf 14 5d 17 bd 1b 10 36 bf
       -0.49731106 -0.80266124 -0.036954 -0.71118325
0000a0 29 90 e1 bd e6 05 3a bf 33 f0 9a be bd 5a fb 3d
       -0.110138245 -0.7266525 -0.30261382 0.12273166
0000b0 16 0f 11 bc b8 c7 97 bd 14 8a 61 3f 1d 4e f1 3e
       -0.008853694 -0.0741114 0.88101315 0.47129908
0000c0 d0 12 bd be 99 a8 3e bf ef b0 be bd a3 87 b7 be
       -0.36928415 -0.7447601 -0.09311091 -0.3584567
0000d0 b9 08 43 bf d3 0f 01 bf 98 9d 9a be 33 a8 93 3e
       -0.76185185 -0.5041477 -0.3019836 0.28839263
0000e0 f3 21 1c bf 3e d0 21 3f 23 a8 4d be e6 c4 16 3f
       -0.609893 0.6320838 -0.2008367 0.58894193
0000f0 a0 ed d4 be 57 95 32 bf 64 ee 13 3e 60 7b b7 3e
       -0.41587543 -0.69759125 0.14446408 0.35836315

features.5.running_var f4 [64]
000000 2a 97 a4 3e fb e8 a0 3f 23 e9 49 3f 62 54 d6 3e
       0.3214658 1.25711 0.78871363 0.41861254
000010 10 12 65 3e 29 e9 f0 3e fd 47 23 3f 5d cd 74 3e
       0.22370172 0.47052887 0.6378172 0.23906465
000020 af 92 70 3f 3c 9c 01 3f 92 ee 71 3f f7 df b5 3e
       0.9397382 0.5062902 0.94504654 0.35522434
000030 3c 78 1b 3e f5 63 3f 3f 71 30 6b 3f 4a 78 83 3f
       0.15182585 0.747619 0.9187079 1.0271084
000040 8a 59 20 3f 80 c3 e8 3e 10 bf 9c 3e 6e 36 98 3e
       0.62636626 0.45461655 0.3061452 0.29729027
000050 a3 19 75 3f 95 7f 31 3f bb 24 be 3e e6 de a0 3f
       0.95742244 0.693353 0.37137398 1.2568023
000060 df b8 b3 3f b3 0e 6d 3f 7e 69 0c 3f c1 a9 98 3f
       1.4040793 0.92600554 0.5484847 1.1926805
000070 39 e5 ff 3e d1 86 d1 3e 80 f5 3b 3f 10 a2 9b 3f
       0.4997957 0.4092317 0.7342148 1.2158833
000080 ab 71 4c 3e a8 be be 3e dd 07 00 3f 94 2a a9 3f
       0.19965236 0.37254834 0.50012 1.3216119
000090 ee b0 19 3f 35 46 e9 3e 05 19 19 3e 4a fa 2e 3f
       0.600356 0.45561376 0.1495095 0.6835066
0000a0 82 38 ad 3e 60 47 0a 3f 20 a8 ce 3e ff 14 1d 3e
       0.33832175 0.5401516 0.40362644 0.1534004
0000b0 eb dc 1c 3f 57 c2 b0 3e a1 61 47 3f 88 1a bb 3e
       0.61274594 0.3452327 0.77883345 0.3654368
0000c0 79 0b 50 3f 16 14 52 3f d7 2b 45 3e 3b e7 c2 3e
       0.81267506 0.820619 0.19255005 0.3806704
0000d0 6c 2f ad 3f e0 c7 ab 3e 6c 8d 8c 3e 06 21 0f 3f
       1.3530097 0.3355093 0.27451646 0.55909765
0000e0 3c ce e4 3e b4 33 14 3f e0 73 17 3f 68 ff 75 3f
       0.44688594 0.5789139 0.59161186 0.96092844
0000f0 47 4d 09 3f 5d 83 6a 3f c5 9f 0e 3f 1f ee a4 3e
       0.5363354 0.91606694 0.5571254 0.32212922

features.8.weight f4 [128, 64, 5]
000000 48 ad 74 bd 20 62 e4 bc b7 67 34 3d b2 f8 40 3d
       -0.059735566 -0.02787882 0.044044223 0.047112174
000010 d4 ee 37 bc 4b 95 d0 3d 4f e3 68 3d 2a c5 71 3a
       -0.011226375 0.101847254 0.056857403 0.00092228
000020 d6 8d 68 bd 51 e9 2e be 50 50 7f 3d 76 1b a6 3c
       -0.05677589 -0.1708119 0.06233245 0.020276766
000030 13 72 01 ba d1 a2 55 bd f4 6b 88 bd 97 0a 79 3c
       -0.0004937958 -0.052157227 -0.066612154 0.015200279
000040 7c 65 11 bd e8 10 07 bc 9c 8c bc ba 47 45 b5 bb
       -0.035497174 -0.008243777 -0.0014385167 -0.00553194
000050 9c e3 91 bd 7a 32 8b bc a9 a6 2e 3d 21 59 fc 3c
       -0.07123491 -0.016991843 0.04263941 0.030804219
000060 e6 89 9b 3c be e7 19 bd 40 75 a8 3c 99 29 a4 bc
       0.018986654 -0.037574522 0.020563722 -0.020039367
000070 82 10 8e bd 75 f4 6a bd 21 02 d5 3c 9b 8e ad 3c
       -0.06936742 -0.05736204 0.026001992 0.021186164
000080 35 ce 56 bd 97 e9 4d 3d 61 fb a0 3d c5 24 2f bd
       -0.052442748 0.050271597 0.07860447 -0.042759676
000090 e0 51 96 3d 66 85 54 3d 91 80 a7 3d 5c a8 14 3d
       0.07339835 0.05188503 0.08178819 0.036293373
0000a0 a0 0f a9 3c a9 71 1a 3d 8e 1c fb bc c0 0e 05 3d
       0.020637333 0.03770605 -0.030653264 0.03248477
0000b0 50 87 ef 3c 49 0c 20 bd 7a 45 89 bc 52 bc f0 ba
       0.029239327 -0.039074216 -0.016756762 -0.0018366671
0000c0 f4 eb ac 3c 1e d0 2b 3a 6d c5 0c bc a6 39 8a 39
       0.021108605 0.0006554144 -0.008591992 0.00026364363
0000d0 2e 37 f8 3c 26 87 47 3d 17 06 89 3d a6 fe 29 3d
       0.03029975 0.048712872 0.06690615 0.041502617
0000e0 7d a5 4d 3d bd 25 2e bd 55 3d 52 bd 19 69 ba bd
       0.05020665 -0.04251646 -0.051328022 -0.09102077
0000f0 b3 7f 07 be bd b8 6e bc a6 e2 8c bd 76 1c aa bc
       -0.13232307 -0.014570412 -0.06879167 -0.020765524
000100 d3 e5 94 3d 9e 30 a6 3c 7c 32 39 bd 8b 5d 9a bc
       0.07270398 0.020286854 -0.04521416 -0.018843433
000110 49 a4 42 3d 9e 35 0f 3d e1 b1 b8 bd df f7 49 bd
       0.047519956 0.034963243 -0.09018303 -0.049308654
000120 9f cc 81 bc 57 cb 5b 3d ff 05 b3 3c 85 5f a8 3d
       -0.015844641 0.053660717 0.021853445 0.08221344
000130 fd 2d 3c 3d c6 bc 1d 3d 7c d7 97 bc 95 24 89 3d
       0.045942295 0.038510107 -0.018535368 0.066964306
000140 a5 bc 05 bd 79 cf 99 bc 6b 17 8a bb bd 9c b0 bc
       -0.03265061 -0.018775688 -0.0042142174 -0.021559114
000150 09 6c 1c 3d 5d 27 0c 3d e2 2e 89 bc d1 96 9c bc
       0.038188968 0.034217227 -0.016745988 -0.019114884
000160 88 ee d1 bc b8 25 ad 3d ce 7e 63 bd b0 44 0f bd
       -0.025626436 0.0845446 -0.055540852 -0.034977615
000170 9c b0 2a 3c 2f 59 85 3d db 63 bd 3d 95 04 15 bd
       0.0104180835 0.06511151 0.092475615 -0.036381323
000180 ed 84 04 bd 84 04 26 3d 19 8e 4b bd ca 8c 90 bc
       -0.03235333 0.04053165 -0.04969606 -0.017645258
000190 b4 04 83 bd 8c 69 fd 3a ee f4 1f 3d 0d 92 04 bd
       -0.063973814 0.0019333824 0.039051943 -0.032365847
0001a0 91 2c 1f 3c fa a1 9b bd 5d 3c 5c bd 4a f7 a7 bc
       0.009715215 -0.07599254 -0.053768504 -0.020503659
0001b0 11 48 ef 3c f6 1d 3f 3d 8c 4c 97 3d a9 12 84 3d
       0.029209169 0.046659432 0.07387647 0.06448872
0001c0 a6 89 8c 3d 2b 46 81 3c 62 29 08 3d de 4f 87 bd
       0.06862192 0.015780529 0.03324259 -0.0660703
0001d0 8e a3 e2 3c a2 cb 84 bd 73 07 08 bc fb 42 ea bc
       0.02766588 -0.064841524 -0.008302557 -0.028596392
0001e0 28 de c6 bc d4 8e 08 3d 79 f6 dc bc 62 98 24 3d
       -0.024275854 0.033339337 -0.026972996 0.040184386
0001f0 fa e1 91 3d 3c ef 12 bd 61 6d 4e bd 96 dd 12 3d
       0.0712318 -0.035872683 -0.05039728 0.035855852
000200 1f 05 04 3d 10 fa 8d bc 96 53 df b9 a9 b4 6e bd
       0.032231446 -0.017331153 -0.0004259615 -0.05827776
000210 30 12 73 3d 3a 26 eb 3c 89 b4 08 3d f1 c3 ec 3c
       0.059343517 0.028704751 0.033375297 0.028902026
000220 b2 74 d4 3c 41 2d 46 bd ee 28 13 3c b0 60 5a bc
       0.02593455 -0.048383 0.008981926 -0.013328716
000230 a1 d6 b7 bc aa fa 42 bc dc 8b 16 bd 84 45 4e 3d
       -0.02244121 -0.011900583 -0.036754474 0.050359264
000240 e2 a6 94 3d 6c d5 75 bd 6d b5 86 bd a0 f9 2b bd
       0.07258393 -0.060017988 -0.06577573 -0.041986108
000250 35 df 62 3b a8 df d6 3c ca dc 91 bc b4 73 1e bd
       0.0034617905 0.026229694 -0.017805476 -0.03868456
000260 f2 35 9f 3b 55 ac 5a 3d 3a ef 89 3d 07 f8 3f 3d
       0.0048587257 0.053387005 0.06735082 0.046867397
000270 fd 5d c1 3d 09 70 88 3d 7e 71 b1 bb 2c 00 db bc
       0.09441755 0.06661994 -0.0054151407 -0.02673348
000280 7d 74 63 3d 03 b3 a9 3c 39 94 73 bd a1 a5 64 3d
       0.055531014 0.020715242 -0.059467528 0.05582202
000290 66 8b 27 3d 5a 41 e4 bc 8c d7 49 ba 77 6c 6d 3d
       0.040904425 -0.027863193 -0.00076996605 0.05796477
0002a0 bb 6c 80 3d 8b a8 fa 3c 7a a9 23 bd 0e 02 a3 bd
       0.06270739 0.030597946 -0.039956547 -0.07959376
0002b0 79 2f 2d bd f2 80 6f bd 1e 52 ea bb 56 c6 74 3d
       -0.0422816 -0.05847258 -0.0071509024 0.05975946
0002c0 cc 65 6d 3d 66 f1 af ba 4c 28 e1 bc 2d 82 f9 bc
       0.05795841 -0.0013423383 -0.027485035 -0.03045758
0002d0 38 9a 22 bd 01 dc b9 bc 4d 53 65 39 40 e2 fb 3c
       -0.039697856 -0.022687914 0.00021870174 0.030747533
0002e0 15 e1 14 bd cb eb 6b 3b 05 8a e6 bc f5 94 18 bd
       -0.036347467 0.0035998698 -0.028141985 -0.03725143
0002f0 b5 e2 ab bb 4a 2b 0c be 8d 5d c0 bc d0 d1 24 bc
       -0.0052455314 -0.13688388 -0.023482108 -0.010059789
000300 b1 5a 18 3d 20 c3 30 37 65 20 2b ba ab fe 5a 3d
       0.037195865 1.0535849e-05 -0.00065279595 0.053465527
000310 95 6a 5c 3d bf 50 2a bd 76 7f 9a bd 20 29 ad bd
       0.053812582 -0.04158091 -0.075438425 -0.084551096
000320 12 b2 42 bc eb 64 45 bd 06 de 27 3d ea 41 e6 bb
       -0.011883276 -0.048191946 0.040983222 -0.0070269005
000330 2d 1a 1e 3d 9e 2c 0e 3d 95 91 1d bd 96 37 81 bd
       0.038599182 0.03471052 -0.038468916 -0.0630943
000340 3b 0c f8 bc 75 74 2e 3d ec 14 b7 bd ef 0f 9f bb
       -0.03027927 0.04259153 -0.089395374 -0.0048541944
000350 3f 1e 72 3d d7 ca 14 3d d0 70 64 3d 2b 87 6a bd
       0.059110876 0.036326256 0.05577165 -0.057257812
000360 25 89 4b bd 3b a0 3a 3d 88 99 a2 3c e3 9f 64 3d
       -0.049691338 0.045562964 0.0198486 0.055816542
000370 3f 7a 90 bd 86 86 09 3c 3d 95 8b 3c 5a 41 19 bc
       -0.070545666 0.008393889 0.017038936 -0.00935396
000380 a5 0d 40 bc 34 58 83 bc 49 a5 47 3d 7b e9 f8 3c
       -0.011722003 -0.01603327 0.048741613 0.03038477
000390 5e b3 83 bc 42 34 21 bd 7d b1 e0 bc 35 7e 9b bd
       -0.01607674 -0.039356478 -0.027428383 -0.075924315
0003a0 80 fa 16 bd 65 7f 20 3b 43 84 2b bc 9f 3e 8b bd
       -0.03685999 0.0024489996 -0.010468545 -0.067990534
0003b0 d5 16 4a ba 3f 6a 3e bd b8 c9 06 3d 69 45 09 3d
       -0.0007709091 -0.046488043 0.032907218 0.03351346
0003c0 af 16 74 bd 40 f8 83 bd 35 7c 71 bc eb 6f 75 3d
       -0.059591945 -0.06443834 -0.014739086 0.059921186
0003d0 20 7e 45 3b 49 71 7a bd e6 56 2b 3c 86 22 80 3c
       0.003013499 -0.061143193 0.01045773 0.015641462
0003e0 4f c9 09 3c d9 d0 f9 bb 89 ba 45 3c f7 4e 50 3d
       0.008409812 -0.0076237735 0.012068399 0.050856557
0003f0 7f 76 c1 3b db 3d e5 ba de 05 67 3c cf 5b 4c bc
       0.0059040184 -0.0017489748 0.01410052 -0.012473061

features.8.bias f4 [128]
000000 44 cb 38 bd 26 b2 22 3d ba 5a cd 3b 4b 12 2f bb
       -0.045115724 0.039720677 0.006266919 -0.0026713784
000010 08 6e 89 bd f0 67 16 3d 7b 15 70 3c ae 56 0e 3d
       -0.0671044 0.036720216 0.014653559 0.034750633
000020 de c9 84 3d f0 ab 16 3d 58 ac 40 bd 23 20 c6 3d
       0.064838156 0.036785066 -0.04703936 0.09674098
000030 d3 fe 24 bc 37 06 4a b9 12 f0 43 bd 8b 40 ec bc
       -0.01007052 -0.00019266536 -0.04783637 -0.02883937
000040 54 74 fc 3b 83 84 ba bb 24 96 81 bd e3 0c bc bc
       0.007704297 -0.005692066 -0.06327465 -0.022955364
000050 de b9 b6 3c 28 bb 8a 3d 7a dc 07 3d 2c 48 54 bc
       0.022305425 0.067739785 0.033169247 -0.01295666
000060 e8 f4 0d bd 0c 6d 43 bd 5f c5 c8 bc 05 45 e6 bc
       -0.03465739 -0.047711417 -0.024508176 -0.028109083
000070 f5 80 93 ba 1b f5 ad 3c 3f 6b 06 bc 33 1e de bc
       -0.0011253642 0.02123504 -0.00820428 -0.02711401
000080 20 48 21 bc a6 6b 5e bc 97 d2 50 3c a4 e1 f6 3c
       -0.009843856 -0.01357547 0.012745521 0.03013689
000090 e7 07 a4 bc da f0 1a 3d 62 2c 37 3d 5d e5 3c 3d
       -0.0200233 0.03782735 0.04472006 0.046117175
0000a0 b2 46 90 bc 32 a5 c1 bd ac 06 98 bc e1 63 af bd
       -0.017611835 -0.09455337 -0.018557869 -0.08563972
0000b0 58 bb ec bb 14 a3 1b bd 02 8f 82 3c d7 5f b4 3c
       -0.0072244816 -0.03799732 0.015937332 0.022018356
0000c0 d0 7f db 3c 46 8c 1e 3a 73 80 21 bd e1 e0 23 3b
       0.026794344 0.0006048124 -0.03942914 0.0025005864
0000d0 99 e1 15 bd 39 09 61 bd 12 56 c0 bc 28 a2 23 3d
       -0.0365921 -0.054940436 -0.023478542 0.039949566
0000e0 de 89 8d 3d 0b 20 84 3c c2 8e 5d 3d 42 c1 b3 bc
       0.06911062 0.01612856 0.054091223 -0.021942738
0000f0 2d 75 ed bc 6d bd 22 3d f5 a1 ef bc 4a be 01 3d
       -0.028986538 0.03973143 -0.029252032 0.031675614
000100 c7 97 bd 3d 0e eb a9 3c b9 49 43 bd 87 c9 5c bb
       0.09257465 0.020741966 -0.04767773 -0.0033689456
000110 61 88 40 bd b8 a4 de ba 04 a0 2d bd 7d ad fc bc
       -0.04700506 -0.0016986346 -0.04238893 -0.030844444
000120 c5 5c 20 bc b8 33 33 3d 98 a6 be bc 67 46 25 bd
       -0.009787743 0.043750495 -0.023272797 -0.040350344
000130 ad 4e 5d bd 0f 4e 00 bd de 90 a0 bc 8e 42 76 bd
       -0.05403011 -0.031324442 -0.019600328 -0.060122065
000140 f0 9f 2f bd ee 22 71 3b 5a 98 00 3d 44 69 02 3d
       -0.042877138 0.0036794501 0.031395294 0.03183867
000150 87 85 4f 3c a0 39 a3 3d 8e e2 d6 bc a2 30 ea 3c
       0.012666113 0.079699755 -0.026231077 0.028587643
000160 ab 91 1e bd 5d 44 27 3c bf 7e 2e 3d 3d d3 93 bd
       -0.03871314 0.01020917 0.042601343 -0.07218025
000170 a1 c1 00 bd ed 30 d3 3c b5 d9 86 3d 43 9b c9 3c
       -0.03143466 0.025780166 0.06584493 0.024610167
000180 a4 9c e7 3c 3a d4 43 bd 87 a8 40 3d be a9 9f bd
       0.028272934 -0.047809817 0.04703572 -0.07796048
000190 14 ab ff bc 36 8e 08 3d 27 ca 1c 3c f9 88 1d bb
       -0.031209506 0.033338748 0.009569681 -0.002403794
0001a0 b3 d1 56 bd 21 eb 26 bd 41 77 16 3d ca 5c 17 bd
       -0.05244608 -0.04075158 0.036734823 -0.036953725
0001b0 e8 a0 7f 3d 88 ca 1f bc 7b e5 a9 bc a4 ff 92 bc
       0.06240931 -0.009752877 -0.020739308 -0.017944165
0001c0 82 1c 7b 3d 3a 0a 5f bd 85 df d7 3c 1b 36 6d 3d
       0.061306484 -0.054453112 0.0263517 0.057912927
0001d0 27 a2 1b bb 2d 36 5f 3d 95 1e 84 bd 73 33 b4 bd
       -0.0023747773 0.054495025 -0.064511456 -0.08798876
0001e0 6c cb 12 3d d8 10 d1 bb 57 48 7f 3d 9e 63 c9 bd
       0.03583853 -0.0063801818 0.062324848 -0.098334536
0001f0 0c c0 40 bd 0f b9 fd bc 04 b4 28 3d 68 c2 a4 3c
       -0.04705815 -0.030972032 0.0411873 0.020112231

features.9.weight f4 [128]
000000 a0 46 85 3f ad b9 6b 3f 73 88 78 3f fb 3a 81 3f
       1.0412178 0.92080194 0.97083205 1.0096124
000010 0c 63 82 3f de 7b 7a 3f 96 81 85 3f bc 1f 75 3f
       1.0186477 0.97845256 1.0430171 0.9575155
000020 3f d8 68 3f b5 31 86 3f 19 b9 85 3f a1 25 6c 3f
       0.90954965 1.0483919 1.0447112 0.9224492
000030 72 70 80 3f af d3 7e 3f 4b 67 75 3f 0d fe 81 3f
       1.0034316 0.99541754 0.9586074 1.0155655
000040 d0 3d 69 3f ae 05 71 3f 41 13 63 3f 69 41 79 3f
       0.91109943 0.9414929 0.88701254 0.9736543
000050 05 27 82 3f ab 00 77 3f 42 15 6b 3f e0 81 6c 3f
       1.0168158 0.96485394 0.9182931 0.92385674
000060 56 92 83 3f d3 b1 65 3f 73 83 75 3f 88 c3 6e 3f
       1.0279033 0.89724463 0.959037 0.93267107
000070 fd 47 80 3f ac 02 86 3f 6b 9d 83 3f 47 c7 6f 3f
       1.0021969 1.0469565 1.0282415 0.9366345
000080 4e 89 80 3f 97 92 71 3f 07 60 74 3f d8 88 77 3f
       1.0041902 0.94364303 0.95459026 0.9669318
000090 4b a1 75 3f 65 58 7b 3f 96 70 75 3f d8 17 73 3f
       0.9594924 0.98181754 0.9587492 0.9495826
0000a0 ad 48 7f 3f 52 35 86 3f aa d2 51 3f 54 a3 75 3f
       0.9972027 1.0485022 0.8196207 0.95952344
0000b0 57 a1 6c 3f 62 26 75 3f 1b 90 81 3f 47 ce 73 3f
       0.92433685 0.9576169 1.0122102 0.9523663
0000c0 6d 12 87 3f 36 10 52 3f d8 fa 7d 3f 05 19 7d 3f
       1.0552498 0.82055986 0.9921088 0.988663
0000d0 89 92 78 3f 87 84 74 3f 23 32 69 3f 49 71 7b 3f
       0.97098595 0.9551472 0.9109213 0.98219734
0000e0 4f 25 73 3f 07 10 83 3f 4d 45 74 3f 8c 25 79 3f
       0.94978803 1.0239266 0.95418245 0.97322917
0000f0 ad 3a 81 3f 0d 99 72 3f c1 50 78 3f fb 22 81 3f
       1.0096031 0.94764787 0.9699822 1.00888
000100 a5 93 85 3f 94 c3 65 3f 8b 6a 7a 3f 25 df 84 3f
       1.0435683 0.89751554 0.9781882 1.0380598
000110 1b a0 61 3f 1c 3e 80 3f b9 8f 80 3f bf e4 7f 3f
       0.88134927 1.0018954 1.0043861 0.99958414
000120 e7 de 7e 3f c1 fc 84 3f f9 64 75 3f 2f ad 7f 3f
       0.9955887 1.0389634 0.958572 0.9987363
000130 60 3a 78 3f 23 15 78 3f ed bf 75 3f db 00 80 3f
       0.96964073 0.9690725 0.9599598 1.0000261
000140 7f 0a 80 3f 15 38 6b 3f 5c 0b 6c 3f 3b b9 70 3f
       1.0003203 0.9188245 0.92204833 0.9403264
000150 ca 5f 7a 3f 27 dc 68 3f 75 28 7c 3f 8f 16 86 3f
       0.9780241 0.90960926 0.9849923 1.0475634
000160 12 9a 7f 3f 56 3c 78 3f ab 21 7d 3f 79 96 71 3f
       0.9984447 0.96967065 0.988795 0.9437023
000170 24 6e 68 3f 15 26 7e 3f f7 eb 86 3f 68 07 90 3f
       0.9079306 0.9927686 1.0540761 1.125226
000180 d3 eb 60 3f 51 28 64 3f 08 2b 80 3f b2 78 78 3f
       0.8785984 0.8912402 1.0013132 0.97059166
000190 e2 26 83 3f 5b c4 86 3f 37 4b 86 3f f2 b5 55 3f
       1.0246241 1.0528673 1.0491704 0.8348075
0001a0 dd dc 80 3f 1b 51 6e 3f 3c f5 70 3f 41 d2 7b 3f
       1.0067402 0.9309251 0.941242 0.98367697
0001b0 89 b5 82 3f 62 a7 6c 3f 45 2b 72 3f 65 d3 82 3f
       1.021165 0.92442906 0.94597274 1.0220762
0001c0 aa fb 80 3f e6 3f 80 3f e9 2e 7d 3f 1c aa 81 3f
       1.0076802 1.00195 0.98899704 1.0130038
0001d0 ee 96 72 3f d9 c1 87 3f 4f 43 7b 3f b2 cb 79 3f
       0.9476155 1.0606033 0.9814958 0.9757644
0001e0 91 35 4e 3f 2a 66 8a 3f 98 39 7b 3f fa 26 6f 3f
       0.80550486 1.0812428 0.98134756 0.9341885
0001f0 40 ab 73 3f e5 12 80 3f ac 6f 7f 3f cb f6 6c 3f
       0.9518318 1.0005766 0.9977977 0.92564076

features.9.bias f4 [128]
000000 e4 12 d4 bd 5f 19 3a be 5c 2b 00 bd 5f 3e 0a be
       -0.103551656 -0.18173741 -0.03129135 -0.13500355
000010 e7 e0 06 be 7d 5e 14 3d 08 2d 1b bd 89 60 11 bd
       -0.13171731 0.036222924 -0.037884742 -0.035492454
000020 75 0e 9b bd 1c aa ed bd 1b eb 15 be 7e 0f 9e bd
       -0.07571117 -0.116047114 -0.14640467 -0.07717799
000030 7e 91 10 be 69 4c 8b bd 23 7f 31 bd 9f 2e 1a be
       -0.14118001 -0.068016835 -0.043334138 -0.15056847
000040 1c 9f 7c bd 69 3c 27 be 82 62 ba bd 3c 12 b5 bc
       -0.061675176 -0.16331638 -0.0910082 -0.022103421
000050 74 1d fb bd 9a 64 66 bd 4c 91 6a bd 3e fd 39 be
       -0.12261477 -0.056248285 -0.057267472 -0.1816301
000060 41 66 64 be e7 f8 37 bd 22 48 12 be c3 48 96 bd
       -0.22304632 -0.044915106 -0.14285329 -0.07338097
000070 58 58 91 bd 70 92 40 bd d2 cd a0 3c b2 4c b8 bd
       -0.07096928 -0.047014654 0.019629393 -0.089990035
000080 6a 70 87 bd 2d 2f c5 bd 4b ef 36 bd bf 55 02 be
       -0.06613238 -0.09628139 -0.0446618 -0.12728022
000090 c0 22 84 bd 99 11 22 be 75 e1 db bd ca 34 77 bd
       -0.064519405 -0.15827025 -0.10736362 -0.060353078
0000a0 cf ad 36 be 85 37 24 be f0 8a 1b be 1a b7 0e be
       -0.1783974 -0.16036804 -0.15189719 -0.13937035
0000b0 d9 81 ec bd c3 54 e2 bc 39 77 79 3c ff 9a a9 bd
       -0.11548204 -0.027628308 0.015226179 -0.08281516
0000c0 6e 2c 4d bd 88 4c ce bd 5e 7a 04 be 32 31 32 bd
       -0.0500912 -0.10073191 -0.12937304 -0.043503948
0000d0 62 43 b7 bd ec 7a 50 bd 9e 21 2a be b2 b0 65 bc
       -0.08948399 -0.050898477 -0.16614386 -0.014019178
0000e0 a5 24 72 bd 46 1a 29 bd 37 e0 86 bd ad 52 22 be
       -0.05911698 -0.041284822 -0.06585734 -0.15851851
0000f0 01 2e d5 bd 53 0e dd bd a4 1f 19 be de 63 0a bd
       -0.10409165 -0.10793748 -0.14953476 -0.033786647
000100 85 8f b9 bc 3a 02 89 bd be 74 86 bd 54 a3 41 be
       -0.022651443 -0.06689878 -0.065652356 -0.18909961
000110 2a ec 1b be 5d ef 78 bd 00 07 1c bd f3 68 95 bd
       -0.15226808 -0.06077515 -0.038092613 -0.07295408
000120 02 bc f5 bd fa ec 25 be 26 df c2 bd 9d c5 26 be
       -0.1199875 -0.1620368 -0.095152184 -0.16286321
000130 f3 df 4a bc c4 2e 9e bd ec 47 17 be 64 10 f8 bd
       -0.012382495 -0.077237636 -0.1477353 -0.12112501
000140 74 49 4b be 3b 2f 88 bd c2 79 f0 bc 79 60 ac bd
       -0.19852239 -0.066496335 -0.029354934 -0.08416838
000150 8f e7 96 bd e5 87 33 bd 2f c7 13 bd 12 aa ea bd
       -0.07368385 -0.04383077 -0.03607863 -0.114582196
000160 7f 52 27 be b8 fa f9 bd 36 5a 6e bd ff 72 81 bd
       -0.16340064 -0.12206024 -0.0581915 -0.06320762
000170 9b 6c e0 bd 3b 8d 36 be b4 e0 cb bd d3 8c 36 be
       -0.10958215 -0.17827313 -0.09954968 -0.17827158
000180 b4 2a 25 be 77 10 11 be 78 bc 3c bd 47 75 2b be
       -0.16129571 -0.14166437 -0.046078175 -0.16743957
000190 fa c1 f3 bd f7 47 3c be 1c d4 1d be 8a 40 c4 bd
       -0.119022325 -0.18386827 -0.15412945 -0.09582622
0001a0 6e 73 06 bd f6 e7 ba bd 95 e8 46 be 12 6f 19 bd
       -0.032824926 -0.09126274 -0.1942466 -0.03745944
0001b0 13 c3 9c bc af 94 f6 bd ab d3 70 bd 07 0d bb bd
       -0.019135987 -0.12040078 -0.058795612 -0.09133344
0001c0 3d d2 2a bd c6 cd 17 be ef 28 d5 bd 5b 4a 8d bd
       -0.041704405 -0.1482459 -0.10408198 -0.06898948
0001d0 ec f4 f5 bd c0 1b 31 bd 12 34 8e bc 43 f7 fb bc
       -0.12009606 -0.043239355 -0.017358813 -0.030757552
0001e0 0c f2 28 be a8 37 e3 bc f3 34 2a be e7 cb 2b bd
       -0.16498584 -0.0277365 -0.16621761 -0.041942503
0001f0 4b a2 ec bd 95 22 19 3c 6d 05 e6 bd 00 8c b7 bd
       -0.115543924 0.009346624 -0.11231504 -0.0896225

features.9.running_mean f4 [128]
000000 8a bd 54 be 27 92 b6 3f fb 8f bd bf b5 06 43 bf
       -0.20775428 1.4263352 -1.4809564 -0.7618211
000010 8b da 58 be 30 7d af bf eb a5 0b bf ec c3 94 bd
       -0.21177118 -1.3710079 -0.54550046 -0.07263932
000020 cc f5 88 bf 40 d0 e9 be 9e 2d 5c 3d 32 53 a0 bf
       -1.0700011 -0.45666695 0.05375444 -1.2525389
000030 12 b0 5f bf 76 14 a7 be 16 75 dc bf e5 f1 86 3e
       -0.87378037 -0.32632798 -1.7223232 0.26356426
000040 58 b2 81 bf 90 98 62 3f 45 04 8f bf c4 bd 03 bf
       -1.0132551 0.8851404 -1.1173178 -0.51461434
000050 f3 22 8e 3f 1a ec 47 bf 67 5c 8d bf 0d 73 9b bf
       1.1104416 -0.7809464 -1.1043824 -1.2144486
000060 43 2c f0 bd da 4b 3e bf 60 42 20 bf d2 0b 15 bf
       -0.11727192 -0.7433449 -0.6260128 -0.5822116
000070 85 14 9d bf 47 83 92 be b7 48 70 bf 50 28 d3 bf
       -1.2271887 -0.28615782 -0.93860954 -1.6496677
000080 86 ef f6 be e2 a1 88 bf 46 7d 9c bf ec c5 2f 3c
       -0.48229617 -1.0674403 -1.222573 0.010728341
000090 3d b5 45 bf 1c 8e 4f bf d5 42 63 be d4 ce 10 3c
       -0.7722967 -0.81076217 -0.22193463 0.008838374
0000a0 4a fc 16 be fa 9e ad be 9e e2 4c bf 80 21 84 bf
       -0.14744678 -0.33910352 -0.8003329 -1.0322723
0000b0 64 3c 15 bf 0c 42 0d be f9 b7 33 bf 02 47 9c bf
       -0.58295274 -0.13794726 -0.70202595 -1.220917
0000c0 03 80 da be 12 b4 4c bf 66 9a a1 3f 80 fc 56 3d
       -0.4267579 -0.79962265 1.2625244 0.052486897
0000d0 ba 9f c1 bf b6 eb aa bf 92 33 84 3e 6d 64 bc bf
       -1.512687 -1.3353183 0.25820595 -1.4718148
0000e0 f5 36 fb bd a2 ed dc bf c0 23 6b bf 8a 4c 85 3f
       -0.122663416 -1.726002 -0.91851425 1.0413983
0000f0 03 81 95 bf bf 76 d1 bf 60 27 57 bf 05 95 cc bf
       -1.1679996 -1.6364363 -0.84044456 -1.5982977
000100 06 1a ad bf fb 7c 8d bf 12 af 61 bf af ef 9f 3f
       -1.3523567 -1.1053766 -0.8815776 1.2495021
000110 e8 2b 93 bf 4a ca 8e bf a1 73 a7 be e6 1b b3 bf
       -1.1497774 -1.1155484 -0.32705405 -1.3992889
000120 2a da d1 be 69 9b f8 bb 98 16 a7 be 46 fe e1 bc
       -0.40986758 -0.0075868857 -0.32634425 -0.027587067
000130 c9 71 ac be ea 9a 49 bf cc f2 0c 3e 76 62 0b bf
       -0.3368056 -0.78752005 0.13764495 -0.54447114
000140 1f dd 8e 3f 1f 8a 95 bf e4 e8 b7 bf d4 e8 89 bf
       1.1161231 -1.1682776 -1.4367948 -1.0774179
000150 ed 77 f8 be 6a 17 99 bc e5 5a 35 be 97 6d 69 be
       -0.48528996 -0.018687923 -0.17710455 -0.22795711
000160 ba dc f5 be 68 bc 3e be f5 73 96 bf be eb 29 bf
       -0.48019964 -0.18626559 -1.1754137 -0.6637534
000170 8a de c4 3b 9a 10 32 3f 34 c4 8e 3d f1 48 83 3d
       0.006007974 0.6955658 0.069710165 0.06410397
000180 3a 18 aa 3f d7 d3 96 3e 46 eb ae be b2 07 2d 3f
       1.3288643 0.29458496 -0.34163874 0.6758987
000190 ae af c0 be c3 75 17 bf 91 f0 74 bf 8e 54 0f 3f
       -0.37634033 -0.59164065 -0.95679575 0.55988395
0001a0 04 7f 0b 3e 91 07 8c bf db 1a 9e bf b5 9c 0f 3e
       0.13622671 -1.0939809 -1.2351946 0.14024623
0001b0 84 d1 a5 bf b2 81 35 bf e8 24 c2 bf c9 4f 72 be
       -1.2954564 -0.70901024 -1.5167513 -0.23663248
0001c0 88 72 c3 bf bb 72 f1 be 1a a6 6f be 60 3b d0 be
       -1.5269327 -0.47157845 -0.23403206 -0.406703
0001d0 ba 22 3a bf 8d 66 88 bc d8 51 0c bf 1b 89 fc be
       -0.7270924 -0.016650463 -0.54812384 -0.49323353
0001e0 1d 16 94 3f b7 5c c9 bf c1 29 1a be 29 71 e2 be
       1.1569248 -1.5731419 -0.1505499 -0.4422696
0001f0 ae df d1 bf a7 f4 bf bf fc 3f 01 3f 47 7c 88 bf
       -1.6396387 -1.4996537 0.5048826 -1.0662926
