experiment_testing/mz-testing/checkpoints/ptbxl/500hz/cnn1d/fold_4/last.pt (torch, 628765 bytes, 26 tensors)

features.0.weight f4 [32, 12, 7]
0	0x3c3f2831	0.011667297
1	0xbcd9e5ca	-0.02659883
2	0x3dfbf9c1	0.12303496
3	0xbd05de83	-0.032682907
4	0x3df86690	0.12128937
5	0xbd8902b3	-0.06689968
6	0xbd13c595	-0.0360771
7	0x3de25f2d	0.110533096
8	0x3dced306	0.10098843
9	0xbd2e3cd7	-0.04253849
10	0xbdbfe93a	-0.09370656
11	0xbd73d2b2	-0.059527107
12	0x3ca54dae	0.020178642
13	0xbd62a77e	-0.055335514
14	0x3d9af2a5	0.07565812
15	0x3dc0b080	0.09408665
16	0xbdcdebd3	-0.100547455
17	0x3d3bc828	0.04584518
18	0xbddc1620	-0.107464075
19	0xbd852981	-0.06502057
20	0x3d0d7132	0.03453178
21	0xbd13c923	-0.03608049
22	0xbd8bdc88	-0.068291724
23	0xbdc0bfb1	-0.09411562
24	0xbc5c4970	-0.013445243
25	0x3d226df7	0.039655652
26	0xbd73d7bb	-0.05953191
27	0x3d51e14e	0.051240258
28	0xbd3b543a	-0.04573462
29	0x3df8af6b	0.12142833
30	0x3b8e8c62	0.004350231
31	0xbd55ebd1	-0.052226845
32	0x3d793945	0.060845632
33	0xbd9fecf4	-0.07808867
34	0x3bd77045	0.006574663
35	0xbd5a0d52	-0.05323536
36	0x3cadb92e	0.021206465
37	0xbb8360b3	-0.00400933
38	0xbdb177a7	-0.086654
39	0x3da4322d	0.08017383
40	0x3daca9f4	0.084308535
41	0xbdc3c401	-0.09558869
42	0x3d039f18	0.032134145
43	0xbca61cf5	-0.02027748
44	0xbdcf935e	-0.1013553
45	0x3d85809d	0.06518672
46	0x3df8a73a	0.12141271
47	0x3d8f3532	0.06992568
48	0xbb915adc	-0.00443588
49	0x3bf2f15b	0.0074140257
50	0xbe331014	-0.17486602
51	0xbd5eaa1a	-0.05436144
52	0xbdf9d5de	-0.12198995
53	0xbdcc9133	-0.09988632
54	0xbdb8db42	-0.09026195
55	0xbbd255da	-0.0064189257
56	0x3d1e8155	0.03869756
57	0x3d38390b	0.044976275
58	0xbdcce6fd	-0.10004995
59	0xbd2c5f34	-0.04208298
60	0xbd9f3dab	-0.07775434
61	0xbb76ccbd	-0.0037658655
62	0xbdace9e1	-0.08443046
63	0xbd155bd2	-0.03646452
64	0xbc85d46d	-0.016336644
65	0xbdcc7e59	-0.099850364
66	0x3d86983e	0.06572007
67	0xbaf75caa	-0.001887222
68	0xbdf50097	-0.11963003
69	0x3d97a254	0.074040085
70	0xbcb66747	-0.022266043
71	0x3dc127a1	0.09431387
72	0xbdbb9205	-0.091587104
73	0x3d9159a9	0.070971794
74	0xbd086b6d	-0.033305574
75	0x3d5e761e	0.054311864
76	0xbcc9aaa3	-0.024617499
77	0x3dab54d9	0.08365793
78	0x3d812502	0.06305887
79	0x3c8d4c8c	0.017248414
80	0x3d173201	0.03691292
81	0xbc1d7d6e	-0.009612424
82	0x3cda8121	0.026672902
83	0x3c75b1b4	0.014995981
84	0xbdd1e5cf	-0.10248911
85	0xbde6cc6c	-0.11269459
86	0xbc1403bb	-0.009034093
87	0xbd383511	-0.044972483
88	0x3dbde3de	0.09271978
89	0x3d44543f	0.047931906
90	0x3dc255c5	0.094890155
91	0xbbabc446	-0.0052419035
92	0x3c8d28c2	0.017231349
93	0xbdd29a73	-0.10283365
94	0x3d3303e4	0.043704882
95	0xbd4ce249	-0.05002049
96	0xbc321b03	-0.010870698
97	0x3d6f14c6	0.05836942
98	0xbc2b05e5	-0.010438417
99	0x3cc6aa99	0.02425127
100	0x3bb719e3	0.0055878027
101	0xbdbd6e2d	-0.0924953
102	0xbd947df6	-0.07250588
103	0xbcfc3f46	-0.03079189
104	0x3d7f3b27	0.06231227
105	0x3da5e5b5	0.08100454
106	0x3cec5f84	0.02885414
107	0x3d0c734e	0.03428965
108	0xbbdcc759	-0.0067376313
109	0x3dc34dcc	0.09536323
110	0xbd5ad8ac	-0.05342929
111	0xbcbcf119	-0.023064183
112	0xbda97965	-0.08275107
113	0x3c18968b	0.009313236
114	0x3cf593e6	0.02997775
115	0xba5863da	-0.0008254625
116	0xbe082b37	-0.13297735
117	0x3da5ba9e	0.08092235
118	0x3d54b99f	0.051934835
119	0xbdd68883	-0.10475256
120	0xbdef72c6	-0.11691813
121	0x3daf62ac	0.08563742
122	0xbd5e3a10	-0.05425459
123	0x3d6ea557	0.05826315
124	0xbdb43f3f	-0.08801126
125	0x3d379acb	0.044825356
126	0x3db40901	0.0879078
127	0xbda122cf	-0.07867967
128	0xbcbae08a	-0.022812147
129	0x3b381302	0.0028087501
130	0xbd8ed927	-0.06975012
131	0xbd6e3717	-0.058158007
132	0x3a13b6b7	0.00056348316
133	0x3d07ad1c	0.033124074
134	0x3e21376b	0.15743797
135	0x3d46487f	0.04840898
136	0x3e2a3226	0.16620693
137	0xbd2920a8	-0.04129091
138	0x3e197564	0.14986187
139	0xbc1ffee4	-0.0097653605
140	0x3d3facad	0.046795536
141	0x3c8984b5	0.016786912
142	0x3c9965fd	0.01872539
143	0x3caa3152	0.02077547
144	0x3da71f58	0.08160275
145	0xbde4d638	-0.111736715
146	0xbd7d4020	-0.061828732
147	0xbd8bc1f9	-0.06824107
148	0x3de501e9	0.11182005
149	0xbce753ba	-0.028238166
150	0xbb6ac0b3	-0.0035820424
151	0x3df21831	0.118210204
152	0x3dcd3d54	0.10021463
153	0xbd7ff0c5	-0.062485475
154	0x3d7bf445	0.06151225
155	0xbcaf8e44	-0.021430142
156	0x3c81b455	0.01583306
157	0x3d390107	0.045166995
158	0x3b24641f	0.002508409
159	0x3da16e0b	0.07882317
160	0xbde0f0f5	-0.10983459
161	0x3cba06e9	0.022708373
162	0xbddeb7ac	-0.108748764
163	0xbd871515	-0.06595818
164	0x3dc8fc1f	0.09813713
165	0xbc801dd1	-0.015639218
166	0xbd988422	-0.07447077
167	0xbd96fc23	-0.0737231
168	0xbde12054	-0.10992494
169	0xbdac9c17	-0.08428209
170	0xbde70db1	-0.11281908
171	0xbd573f36	-0.052550517
172	0x3da6ef9f	0.08151173
173	0x39530b5f	0.00020126764
174	0xbd0136de	-0.031546466
175	0xbdb6325f	-0.08896326
176	0x3d29d6b3	0.04146452
177	0x3dadfcaa	0.084954575
178	0xbda51637	-0.08060878
179	0x3d819372	0.06326951
180	0xbdca3b14	-0.098745495
181	0xbd03b7de	-0.03215777
182	0x3dca4b92	0.09877695
183	0x3d943edf	0.07238554
184	0x3d27ae63	0.040937793
185	0xbd4ef562	-0.050526984
186	0xbda35774	-0.07975665
187	0xbe02c5cd	-0.12770768
188	0xbd33b684	-0.043875232
189	0x3d8ce00f	0.06878673
190	0xbd183751	-0.03716213
191	0xbd854c8b	-0.0650874
192	0xbd72293e	-0.059121363
193	0xbd5d716c	-0.054063246
194	0xbdb63e7b	-0.08898636
195	0xbd54f169	-0.05198804
196	0x3d83d8e0	0.0643785
197	0xbd880ef7	-0.06643479
198	0x3d90665e	0.07050775
199	0x3dd30f53	0.10305657
200	0x3dfb5606	0.12272267
201	0x3d53b920	0.05169022
202	0x3e045a97	0.12925182
203	0x3e1f6086	0.15564165
204	0x3e0334a4	0.1281305
205	0x3db3c602	0.08778001
206	0xbd974f14	-0.0738813
207	0x3db83e4c	0.08996257
208	0xbdb80827	-0.0898593
209	0xbdd4d5f2	-0.10392369
210	0xbd07178f	-0.03298145
211	0x3d0adecf	0.033903893
212	0x3d3a5dcb	0.045499604
213	0x3c91db4e	0.017804768
214	0x3d51ef9f	0.05125391
215	0x3be9017b	0.007110772
216	0x3d8c9934	0.06865159
217	0x3c611c53	0.013739663
218	0xbb81a8e8	-0.003956903
219	0x3d7cc556	0.06171163
220	0x3db26c49	0.0871206
221	0xbc34d56c	-0.011037212
222	0xbd45cfd6	-0.04829391
223	0x3c7cffc4	0.015441839
224	0x3dd3c270	0.103398204
225	0xbd1c299e	-0.038125627
226	0x3dac70ee	0.08419977
227	0x3d068697	0.0328432
228	0x3d538493	0.051640105
229	0x3d367a12	0.04455001
230	0xbdca8a98	-0.09889716
231	0x3d619a7b	0.055078965
232	0x3d362de8	0.044477373
233	0x3bceea80	0.0063145757
234	0xbd003244	-0.031297937
235	0x3c94f692	0.01818398
236	0xbdfb4c4a	-0.1227041
237	0xbda24d66	-0.07924919
238	0xbafe0f09	-0.0019383143
239	0x3dc8282d	0.09773288
240	0x3d868caf	0.06569802
241	0x3a826893	0.0009949378
242	0xbd98baed	-0.07457528
243	0x3dda7f14	0.106687695
244	0x3d77756b	0.060414713
245	0xbc468ff8	-0.012119286
246	0xbcddb11e	-0.027061995
247	0x3d9232a1	0.07138563
248	0x3b98a858	0.00465874
249	0x3d83d484	0.064370185
250	0xbd566349	-0.05234078
251	0x3d2c7b15	0.042109568
252	0x3cb08718	0.021548793
253	0x3d8a0aeb	0.06740364
254	0xbdbaeb5f	-0.09126925
255	0x3d9d1066	0.076691434

features.0.bias f4 [32]
0	0x3d944dd0	0.07241404
1	0x3db01d49	0.08599336
2	0x3dcd2852	0.10017456
3	0x3a684f52	0.00088619173
4	0x3dcce7e7	0.10005169
5	0x3d9019c4	0.070361644
6	0x3db3d6ee	0.08781229
7	0x3d652bce	0.05594998
8	0x3c192c58	0.009348951
9	0xbcada2c4	-0.021195777
10	0xbd9d8caa	-0.07692845
11	0x3dc399bd	0.095508076
12	0x3cbd2b87	0.023092045
13	0x3d97daf0	0.07414806
14	0x3d4be6fa	0.049780823
15	0xbd4deda6	-0.050275467
16	0xbbf690e5	-0.007524597
17	0x3bd38468	0.006454993
18	0x3e09d60b	0.13460557
19	0x3d908fbb	0.070586644
20	0x3da090c9	0.078401156
21	0x3d7671de	0.060167186
22	0xbb918503	-0.004440905
23	0x3db7b152	0.08969368
24	0x3dbc9929	0.092089005
25	0x3db5c347	0.08875137
26	0x3de490d8	0.11160439
27	0xbc51aca3	-0.012797507
28	0xbd28d561	-0.04121912
29	0xbd8d27e2	-0.06892373
30	0x3d947d21	0.07250429
31	0x3c12d3fb	0.008961673

features.1.weight f4 [32]
0	0x3f80acf4	1.0052781
1	0x3f7f27a8	0.99669886
2	0x3f7b288f	0.9810876
3	0x3f778957	0.9669394
4	0x3f7b2881	0.9810868
5	0x3f888307	1.0664986
6	0x3f855e4a	1.04194
7	0x3f7d5729	0.9896112
8	0x3f78535a	0.97002184
9	0x3f834a8f	1.0257128
10	0x3f78bef1	0.97166353
11	0x3f74b6cd	0.9559143
12	0x3f7fb7de	0.99889934
13	0x3f78a9b5	0.9713395
14	0x3f830127	1.0234727
15	0x3f7d51c6	0.989529
16	0x3f85cc38	1.0452948
17	0x3f821d5f	1.0165213
18	0x3f7b676f	0.982047
19	0x3f7a9909	0.97889763
20	0x3f87c2e2	1.0606349
21	0x3f7f7b96	0.9979795
22	0x3f7b7bf7	0.9823603
23	0x3f7f41a6	0.99709547
24	0x3f7e4d87	0.9933705
25	0x3f819467	1.0123414
26	0x3f82a4a4	1.0206494
27	0x3f8540a4	1.0410352
28	0x3f846170	1.0342236
29	0x3f805a1a	1.0027497
30	0x3f75d5a7	0.9602913
31	0x3f70827c	0.93949103

features.1.bias f4 [32]
0	0xbc8b82cd	-0.017030144
1	0x3da3684b	0.07978877
2	0x3d598412	0.053104468
3	0xbc7f6fae	-0.015590591
4	0x370bef30	8.340736e-06
5	0x3da0847e	0.07837771
6	0x3b5f5f84	0.0034084031
7	0x3cca13a9	0.024667578
8	0xbc5cd490	-0.013478413
9	0x3b68ff1e	0.0035552452
10	0x3ab5aa8a	0.0013860029
11	0xbd0c139d	-0.034198392
12	0x3cfb8865	0.030704686
13	0xb9881c58	-0.0002596106
14	0xbd147b33	-0.036250304
15	0x3d63c41a	0.05560694
16	0xbcbbadc1	-0.02291
17	0xbc0eaf3e	-0.008708773
18	0xbc3cfb18	-0.011534475
19	0x3c07ef70	0.008296832
20	0x3b4466cb	0.0029968496
21	0xbc962cbe	-0.018331882
22	0xbd0e8542	-0.034795053
23	0xbb33b3bc	-0.0027420362
24	0xbd313380	-0.043262005
25	0xbd275fd6	-0.04086288
26	0xbcbc079b	-0.022952845
27	0x3c58c536	0.0132306125
28	0x3d5b5f85	0.05355789
29	0x3e17549f	0.14778374
30	0xbcd07598	-0.025446698
31	0xbc318c3e	-0.010836659

features.1.running_mean f4 [32]
0	0x3d93e7d9	0.07221956
1	0x3db01d6f	0.08599364
2	0x3dcde103	0.10052683
3	0x3a686b44	0.00088660815
4	0x3dccebe1	0.10005928
5	0x3d900936	0.07033007
6	0x3db3df90	0.087828755
7	0x3d6508db	0.05591665
8	0x3c199c3f	0.009375631
9	0xbcad5602	-0.021159176
10	0xbd9d6df2	-0.07686986
11	0x3dc380d1	0.09546054
12	0x3cbd1ae3	0.02308411
13	0x3d97df7a	0.07415672
14	0x3d4baa93	0.04972322
15	0xbd4defc6	-0.050277494
16	0xbbf742b4	-0.0075457934
17	0x3bd56d71	0.0065132906
18	0x3e09d707	0.13460933
19	0x3d909ac3	0.070607685
20	0x3da08c6e	0.07839285
21	0x3d766f4d	0.06016474
22	0xbb92a39d	-0.0044750706
23	0x3db7621d	0.089542605
24	0x3dbc9881	0.09208775
25	0x3db5a927	0.08870154
26	0x3de46b7b	0.11153313
27	0xbc5113fe	-0.012761114
28	0xbd287479	-0.041126702
29	0xbd8d5778	-0.06901449
30	0x3d9480bd	0.072511174
31	0x3c12ba12	0.008955495

features.1.running_var f4 [32]
0	0x3f447f16	0.7675642
1	0x3f109678	0.564796
2	0x3f03a9a5	0.5143073
3	0x3f03cc51	0.5148364
4	0x3f6cc6cf	0.9249086
5	0x3ec01375	0.37514845
6	0x3f66fdbc	0.9023092
7	0x3f711eb7	0.9418749
8	0x3e84d64a	0.2594474
9	0x3efb0dd3	0.49033985
10	0x3ef0c776	0.47027177
11	0x3f0c004a	0.5468794
12	0x3eb96849	0.36212376
13	0x3e80f2b2	0.25185162
14	0x3f88efee	1.0698221
15	0x3f7c1855	0.9847463
16	0x3f7d0fc3	0.98852175
17	0x3ea9c37a	0.3315695
18	0x3f81c75c	1.0138965
19	0x3e8ec437	0.27884075
20	0x3f45de18	0.77292013
21	0x3f8e17ea	1.1101048
22	0x3ef77e07	0.4833834
23	0x3f64af59	0.8933006
24	0x3e8b983c	0.27264583
25	0x3f9df69f	1.2340888
26	0x3f535e24	0.8256552
27	0x3f831fcf	1.0244082
28	0x3fb2a84f	1.3957614
29	0x3f1c5492	0.61066544
30	0x3eb497ae	0.35271972
31	0x3e5de0b1	0.21667744

features.4.weight f4 [64, 32, 5]
0	0x3c01d7f0	0.007925019
1	0xbd102797	-0.035194006
2	0x3dc18d9c	0.09450838
3	0x3d21f4e7	0.039540198
4	0xbd12e4ba	-0.035862662
5	0x3c8246d9	0.015902923
6	0xbc4cec18	-0.012507461
7	0xbdadf316	-0.084936306
8	0xbb7028e4	-0.0036645466
9	0x3d55dece	0.052214436
10	0x3d60210c	0.054719016
11	0x3d02b030	0.031906307
12	0xbde3e56e	-0.111277446
13	0xbd58a954	-0.05289586
14	0x3d305ef3	0.0430593
15	0xbb7e7a0e	-0.0038830074
16	0x3d81bdeb	0.06335052
17	0x3d8f58c3	0.06999352
18	0x3ca7ccb7	0.020483358
19	0x3d1b0511	0.03784663
20	0x3cea2dab	0.02858623
21	0xbd8965e2	-0.06708886
22	0xbc8773b4	-0.016534664
23	0x3cf342fb	0.029695025
24	0xbd213bb3	-0.039363574
25	0xbe059a79	-0.13047208
26	0xbc67c641	-0.0141463885
27	0xbaf11506	-0.0018393106
28	0x3d2ea1f3	0.042634916
29	0x3cf47595	0.029841224
30	0xbd92fda8	-0.07177287
31	0xbcd4fd7c	-0.025999777
32	0x3be75b39	0.007060435
33	0xbd2182be	-0.039431326
34	0x3cf725da	0.030169416
35	0xbc4da32d	-0.012551111
36	0xbc8c9d42	-0.01716483
37	0x3bfc0f1e	0.007692232
38	0x3bb76b1a	0.0055974843
39	0xbddcaa13	-0.107746266
40	0x3c0e4c3e	0.00868517
41	0xbda367ef	-0.07978808
42	0x3d107722	0.035269864
43	0x3d393a30	0.045221508
44	0xbcbd773e	-0.023128148
45	0xbd5c26c9	-0.053747926
46	0xbd5fd925	-0.054650445
47	0x3b9c2790	0.0047654584
48	0xbdb54f3b	-0.08853003
49	0xbdeee2c8	-0.11664349
50	0xbd6e011a	-0.05810652
51	0xbd814219	-0.06311435
52	0xbd7a2b7e	-0.061076634
53	0xbccdb919	-0.025112676
54	0xbd5ab450	-0.053394616
55	0xbde8a09c	-0.11358759
56	0xbdb84ca2	-0.089989915
57	0xbc95b79a	-0.018276025
58	0xbd4a4fb8	-0.049392432
59	0xbd903fa7	-0.07043391
60	0xbd9627fd	-0.07331846
61	0xbddd0637	-0.10792201
62	0xbbbabce4	-0.005698787
63	0x3c1e6138	0.009666733
64	0x3c264af1	0.010149703
65	0xbd3320af	-0.04373234
66	0xbd0bceb6	-0.03413268
67	0x3d08a167	0.03335705
68	0xbcfb2f4b	-0.0306622
69	0x3d221e9e	0.03957998
70	0x3d50c342	0.050967462
71	0x3d23aa32	0.039957233
72	0xbd2c64ef	-0.042088445
73	0x3d169f2e	0.0367729
74	0x3ce7ba75	0.028287152
75	0x3ce2d0bd	0.027687425
76	0x3b8ed297	0.0043586004
77	0xbc6cf0b3	-0.014461684
78	0x3c9dc070	0.0192568
79	0x3cf23585	0.029566536
80	0xbc850e00	-0.016242027
81	0xbca3e06b	-0.020004472
82	0xbcd84055	-0.026397863
83	0x3d4fb99b	0.050714117
84	0x3d787ee9	0.060667906
85	0x3d61ad75	0.055097062
86	0xbc68173d	-0.014165697
87	0xbd9570c6	-0.072969005
88	0xbd7f50bb	-0.06233285
89	0x3d50af0a	0.05094818
90	0x3ca193f9	0.01972388
91	0x3d87f801	0.066391
92	0x3d9d9473	0.0769433
93	0x3d08a212	0.033357687
94	0x3da5747b	0.080788575
95	0xbd4b9ce1	-0.04971016
96	0x3d8c4fea	0.0685118
97	0xbd938b5f	-0.07204317
98	0xbd5c8f4c	-0.053847596
99	0xb9dc12a1	-0.0004197555
100	0x3d080c2a	0.033214726
101	0xbcc57d10	-0.024107486
102	0x3d8717c3	0.06596329
103	0xbcf71859	-0.030162977
104	0xbd11b87e	-0.035576336
105	0xbd342086	-0.04397633
106	0x3d876948	0.06611878
107	0xbd7ce861	-0.06174505
108	0xbcd9dff0	-0.02659604
109	0xbb18acee	-0.0023296434
110	0xbc0b2a28	-0.008493938
111	0x3ccdb55c	0.025110893
112	0x3d2c9a37	0.04213926
113	0x3cfd33c1	0.030908467
114	0xbd4139fb	-0.047174435
115	0xbd603fbf	-0.054748293
116	0x3d83f27d	0.06442735
117	0x3c632336	0.013863375
118	0xbc82d008	-0.015968338
119	0xbc21582c	-0.009847682
120	0xbbcb49a1	-0.0062038456
121	0xbc9f298d	-0.019428993
122	0x3da38c5e	0.07985757
123	0x3cb881f1	0.022522898
124	0x3d24c063	0.040222537
125	0x3d17a687	0.037024047
126	0x3cd0ff08	0.025512233
127	0xbd70cdb6	-0.05878993
128	0xbd7f1244	-0.06227328
129	0xb93f9a26	-0.00018272604
130	0xbdabb0cb	-0.0838333
131	0xbc3db63d	-0.0115790935
132	0x3c01aeb3	0.007915187
133	0xbd3bd757	-0.04585966
134	0xbd690cbe	-0.056896918
135	0xbc1feb54	-0.009760696
136	0x393c000f	0.00017929099
137	0x3d9f14a3	0.07767608
138	0xbadc4fb4	-0.0016808421
139	0x3d5985c1	0.053106073
140	0x3dada5ab	0.08478864
141	0x3d8d0322	0.06885363
142	0x3d873903	0.06602671
143	0xbd5ab9de	-0.053399913
144	0x3d2e8926	0.042611264
145	0xbdd47216	-0.10373323
146	0xbda2a3c6	-0.079413936
147	0x3d7c2804	0.0615616
148	0x3d1a39d5	0.03765281
149	0x3d62f2db	0.055407386
150	0xbbcca796	-0.0062455637
151	0x3d3c0fe9	0.04591361
152	0x3d446c8b	0.047955077
153	0xbd1cd6f3	-0.03829093
154	0xbdb96dc5	-0.0905414
155	0xbb86c01d	-0.004112257
156	0xbbb131dd	-0.0054075555
157	0xbd319743	-0.043357145
158	0x3c89873d	0.01678812
159	0x3c91c5c8	0.017794505
160	0xbd88263f	-0.0664792
161	0xbc0ace6e	-0.008472068
162	0x3d89becf	0.06725847
163	0x3d84934c	0.06473407
164	0xbd5a40d9	-0.0532845
165	0xbdbed347	-0.09317642
166	0xbd4ad5c5	-0.049520273
167	0xbc6a2451	-0.014290885
168	0xbdab6db5	-0.08370534
169	0xbd336a35	-0.04380246
170	0xbd33bcc4	-0.043881193
171	0x3d7ff53d	0.062489737
172	0xbc12ccfe	-0.008960007
173	0xbd87a612	-0.06623472
174	0xbdaed0e9	-0.0853594
175	0x3d802eda	0.06258936
176	0xbc59dbb0	-0.0132970065
177	0x3d854a3f	0.06508302
178	0x3d04f93a	0.032464243
179	0xbd5143df	-0.051090118
180	0x3bae5b03	0.005320908
181	0xbda479e7	-0.080310635
182	0xbc9e0c69	-0.019293027
183	0x3d6f2146	0.05838134
184	0xbcf05443	-0.029337054
185	0x3de15442	0.11002399
186	0x3da81e18	0.08208865
187	0xbc6d8328	-0.014496602
188	0xbdc6db4d	-0.09709797
189	0x3d1011c9	0.03517321
190	0x3d8ee9c4	0.06978181
191	0xbcb42849	-0.021991866
192	0x3cf1e80b	0.029529592
193	0x3d92aea7	0.071622185
194	0xbb837d9d	-0.004012777
195	0xbd265b66	-0.040614508
196	0x3c2bbd92	0.010482209
197	0xbdf495cf	-0.11942636
198	0xbe05efb5	-0.13079722
199	0xbdcd2f3c	-0.10018775
200	0xbd9c5fae	-0.07635437
201	0x39fc6579	0.0004814079
202	0xbd44638f	-0.04794651
203	0xbc7adbed	-0.015311223
204	0xbd843e2b	-0.0645717
205	0x3d0f0643	0.03491808
206	0x3c373b3b	0.011183555
207	0x3d90f5e2	0.070781484
208	0x3d308ee5	0.043105025
209	0x3da18751	0.07887138
210	0xbc89bc31	-0.01681337
211	0x3d890c71	0.06691826
212	0xbbbd4efc	-0.005777238
213	0xbd253967	-0.040337946
214	0x3ab866c5	0.0014068714
215	0xbddc7604	-0.10764697
216	0xbd90ec8b	-0.07076367
217	0xbde27058	-0.11056584
218	0xbe029250	-0.12751126
219	0xbe08ca52	-0.13358429
220	0x3d3a0781	0.045417313
221	0xbd06c158	-0.03289923
222	0xbc469ba4	-0.012122069
223	0x3d10ab5a	0.035319664
224	0xbd3fa919	-0.046792123
225	0x3ba12d44	0.004918726
226	0x3d537c15	0.051632006
227	0xbc891921	-0.016735615
228	0xbd820721	-0.06349016
229	0x3c4da984	0.012552623
230	0x3d5929cb	0.053018373
231	0x3d632697	0.055456724
232	0xbc07fbd5	-0.0082997875
233	0x3d6e9d4b	0.058255475
234	0x3daa5d28	0.083185494
235	0xbc48de0c	-0.012259971
236	0x3b96fc1a	0.0046076896
237	0xbd55085f	-0.052009936
238	0x3d35a4ca	0.04434661
239	0xbd27dd7c	-0.04098271
240	0x3badeffb	0.005308149
241	0xbb9d9e5f	-0.004810139
242	0x3a5d23bc	0.0008435806
243	0xbc2cdcf0	-0.0105507225
244	0x3c86bbcf	0.016446976
245	0xbb349c13	-0.0027558848
246	0x3d0a2a4b	0.03373174
247	0xbad0922c	-0.0015912703
248	0xbd344161	-0.044007663
249	0x3d73784c	0.059440896
250	0x3da7fdb6	0.082026884
251	0x3d107fe2	0.03527821
252	0xbda3d352	-0.079992905
253	0xbd8c522c	-0.068516105
254	0xbd03c44d	-0.03216963
255	0x3d15f1ea	0.03660766

features.4.bias f4 [64]
0	0x3d0e7eb8	0.034788817
1	0xbdc90c34	-0.09816781
2	0x3d76d45b	0.06026111
3	0xbd250a07	-0.040292766
4	0xbb9e64b7	-0.0048337835
5	0x3d82f23f	0.06393861
6	0x3d03cf23	0.032179963
7	0x3c81807e	0.01580834
8	0xbd74c8cf	-0.05976182
9	0x3da6ba27	0.081409745
10	0xbd49dff3	-0.04928584
11	0xbcbc5605	-0.022990236
12	0x3c3384f9	0.010956996
13	0xbcb9d21a	-0.022683192
14	0xbd74ef5f	-0.059798595
15	0xbca4531f	-0.020059166
16	0xbad337a9	-0.001611461
17	0xbd02780e	-0.031852774
18	0x3afdb145	0.0019355199
19	0x3dbec193	0.09314265
20	0xbd5ce757	-0.05393156
21	0x3c973788	0.018459097
22	0xbd7eeb2f	-0.062236007
23	0x3d688bb0	0.05677384
24	0x3d5c72b4	0.053820327
25	0x3d5cbcb1	0.053890888
26	0x3ca02310	0.01954797
27	0x3c8fd2bb	0.017556539
28	0x3c0a7077	0.008449665
29	0x3c91bb31	0.017789455
30	0x3c5dfb34	0.013548661
31	0xbcdae0fe	-0.026718613
32	0xbc7a3e48	-0.015273638
33	0x3da6c112	0.08142294
34	0x3dadf510	0.084940076
35	0xba674f2c	-0.0008823748
36	0x3cfe445a	0.031038452
37	0xbdb55de5	-0.088557996
38	0x3cf146f8	0.029452786
39	0x3b1cebf1	0.0023944343
40	0xbd73cea9	-0.05952326
41	0x3c999bb0	0.018750995
42	0xbc356f27	-0.011073864
43	0xbcc1080e	-0.023563411
44	0x3c1df3e7	0.00964067
45	0xbd93ef0a	-0.072233275
46	0xbce005ed	-0.027346576
47	0x3ca3af85	0.019981155
48	0x3c19707b	0.009365196
49	0x3da08654	0.07838121
50	0xbb794cbc	-0.0038040122
51	0x3d6b5276	0.057451688
52	0x3d8a19c3	0.06743195
53	0xba0059fc	-0.0004896221
54	0x3cd29b73	0.02570889
55	0x3cdd3b56	0.027005833
56	0x3d6ee3c4	0.058322683
57	0x3d0c9030	0.034317195
58	0x3c3d295d	0.011545506
59	0x3c1de896	0.009637972
60	0x3db1b990	0.08677971
61	0x3d062445	0.032749433
62	0xbc9bd7a9	-0.019023733
63	0xbda33490	-0.0796901

features.5.weight f4 [64]
0	0x3f706b79	0.9391399
1	0x3f851c4a	1.0399258
2	0x3f88e223	1.0694011
3	0x3f7a1d5c	0.9770105
4	0x3f7b8f13	0.9826519
5	0x3f84f6b7	1.0387791
6	0x3f6cd7cf	0.925168
7	0x3f8163e5	1.010861
8	0x3f82b52a	1.0211537
9	0x3f83a6f6	1.0285327
10	0x3f6dab61	0.9283963
11	0x3f80917d	1.00444
12	0x3f86f72a	1.0544178
13	0x3f802519	1.0011321
14	0x3f78c04d	0.9716843
15	0x3f838487	1.0274819
16	0x3f8928fd	1.0715634
17	0x3f7fbade	0.9989451
18	0x3f806042	1.0029376
19	0x3f7b10b8	0.98072386
20	0x3f81b802	1.013428
21	0x3f774a9c	0.9659822
22	0x3f808415	1.0040308
23	0x3f72a6c4	0.94785714
24	0x3f6c5d7d	0.9233015
25	0x3f67fb94	0.9061825
26	0x3f7e612f	0.9936704
27	0x3f714eb8	0.9426074
28	0x3f7b579c	0.98180556
29	0x3f6d5557	0.92708343
30	0x3f7ee41b	0.9956681
31	0x3f824b7f	1.017929
32	0x3f812d79	1.0092002
33	0x3f843e1d	1.0331455
34	0x3f7ad58b	0.9798209
35	0x3f82bb23	1.021336
36	0x3f6b698c	0.91957927
37	0x3f83ce2f	1.0297297
38	0x3f804313	1.002047
39	0x3f876802	1.0578616
40	0x3f809254	1.0044656
41	0x3f799e0a	0.97506773
42	0x3f84f3b4	1.0386872
43	0x3f7b5bdc	0.9818704
44	0x3f84150e	1.0318925
45	0x3f8da84a	1.1066983
46	0x3f756564	0.95857835
47	0x3f734122	0.9502126
48	0x3f797cb8	0.9745593
49	0x3f73bd84	0.9521105
50	0x3f86b1d1	1.0523015
51	0x3f805b74	1.0027909
52	0x3f8109b2	1.0081084
53	0x3f80ced4	1.0063119
54	0x3f951aa9	1.1648761
55	0x3f73abe0	0.95184135
56	0x3f83299b	1.0247072
57	0x3f6979c6	0.91201437
58	0x3f85ce95	1.0453669
59	0x3f798c8e	0.97480094
60	0x3f809a02	1.0047
61	0x3f7c2929	0.98500305
62	0x3f8a6fcf	1.0815371
63	0x3f78d138	0.9719424

features.5.bias f4 [64]
0	0xbcc8a505	-0.02449275
1	0x3dce4872	0.100724116
2	0x3d9b36d3	0.07578816
3	0x3c314f60	0.010822147
4	0xba5c76c9	-0.00084100344
5	0x3be1dbd9	0.006892663
6	0xbd7da039	-0.06192038
7	0xbd57d8c3	-0.052696954
8	0xbd2ac7d8	-0.041694492
9	0xbd3e6051	-0.046478573
10	0xbdf5f6c0	-0.120099545
11	0x3ba3a969	0.0049945605
12	0xbd2d1ae1	-0.04226196
13	0xbd83ee7f	-0.06441974
14	0xbc86c060	-0.016449153
15	0x3ba9ab95	0.005177925
16	0xbd1b23e9	-0.037876043
17	0x39183dbe	0.0001451885
18	0xbcacf2bb	-0.021111837
19	0x3cdd0b74	0.026983
20	0x3d36b5e9	0.044607077
21	0x3bdee7a8	0.006802518
22	0xbd5a5c4e	-0.053310685
23	0x3bed518e	0.007242388
24	0xbdd8249b	-0.10553857
25	0xbb24dc3e	-0.0025155689
26	0xbcebf9e7	-0.028805686
27	0xbd47b71f	-0.048758622
28	0xbc726852	-0.01479538
29	0xbdab18a8	-0.08354312
30	0x3d1d286e	0.038368635
31	0x3d63d125	0.055619378
32	0xbcb92a34	-0.022603132
33	0x3bc5f420	0.006041065
34	0x3d839107	0.06424146
35	0x3d7451b7	0.05964824
36	0xbd050fd2	-0.03248579
37	0xbc20b7f4	-0.009809483
38	0xbd84bea8	-0.06481677
39	0x3dd8e359	0.10590238
40	0xbcea2347	-0.028581275
41	0x3b52e5bd	0.0032180392
42	0x3c958010	0.018249542
43	0xbd14d7cf	-0.036338624
44	0x3b0547ac	0.002033691
45	0x3d9fced6	0.07803123
46	0xbd59b427	-0.053150322
47	0xbd6e5622	-0.05818761
48	0xbceb2afc	-0.02870702
49	0xbd900507	-0.07032209
50	0xbc08e3ae	-0.008355064
51	0xbb9713bc	-0.004610507
52	0xbd125121	-0.0357219
53	0x3b9e2e6a	0.0048273103
54	0x3dcac594	0.09900966
55	0xbce93ce2	-0.028471414
56	0x3d512126	0.051057003
57	0xbd421329	-0.047381554
58	0x3bf0768b	0.00733835
59	0xbd3ebc84	-0.0465665
60	0x3c6c8295	0.01443543
61	0xbd17147f	-0.03688478
62	0x3d55e075	0.052216012
63	0xbd229d9f	-0.0397011

features.5.running_mean f4 [64]
0	0xbe6ce254	-0.23133212
1	0xbef5e5f8	-0.48027015
2	0xbefb91b0	-0.49134588
3	0xbe53d02b	-0.20684879
4	0xbe58a325	-0.21155985
5	0x3e0724ce	0.13197634
6	0x3e4ae07c	0.19812196
7	0xbd427576	-0.0474753
8	0xbf12da18	-0.57364035
9	0x3ea7259c	0.3264588
10	0x3ef2650b	0.47342715
11	0xbec6c21c	-0.3881997
12	0x3e090ad2	0.13383034
13	0x3ec1999c	0.37812507
14	0xbf36eb02	-0.71452343
15	0xbf00259b	-0.5005738
16	0x3ea841d8	0.32862735
17	0xbe8c1e19	-0.27366713
18	0x3e9cd78a	0.30633193
19	0xbe0c0c4c	-0.13676566
20	0xbf1595d5	-0.5843175
21	0xbf0e4aa1	-0.55582625
22	0xbf294e74	-0.66135335
23	0xbd1a96ee	-0.037741594
24	0x3f998d33	1.1996216
25	0xbe84599b	-0.25849614
26	0xbe975346	-0.2955572
27	0x3f640ed2	0.89085114
28	0x3f461b22	0.7738515
29	0xbcc76b14	-0.024343051
30	0xbf34ae6b	-0.7057864
31	0xbf237306	-0.63847387
32	0x3e0e6034	0.13903886
33	0x3dbe1f16	0.09283273
34	0xbf1ce6c1	-0.612896
35	0xbf158aa7	-0.5841469
36	0xbef8f413	-0.48623714
37	0xbf466304	-0.77494836
38	0xbd6b2c92	-0.057415552
39	0xbf315ece	-0.69285285
40	0xbdf21c8a	-0.1182185
41	0xbf3df945	-0.7420848
42	0xbec98c53	-0.3936487
43	0x3cf692a9	0.03009923
44	0xbd013d61	-0.031552676
45	0xbdb98db5	-0.090602316
46	0x3f566820	0.8375263
47	0x3edbdaae	0.42940277
48	0xbead89ca	-0.33894187
49	0xbf224552	-0.63387024
50	0xbdb6b41f	-0.08921074
51	0xbe965b40	-0.29366493
52	0xbf3d6481	-0.7398148
53	0xbef6c71d	-0.48198786
54	0xbeaa8736	-0.33306283
55	0x3e845d91	0.25852636
56	0xbf1186a2	-0.5684606
57	0x3f20602d	0.6264675
58	0xbe81d7b4	-0.2535988
59	0x3efbdd7a	0.4919241
60	0xbeb8061b	-0.35942158
61	0xbf2ae172	-0.6675025
62	0x3db8a89a	0.09016533
63	0x3ed55465	0.4166595

features.5.running_var f4 [64]
0	0x3e8c3330	0.27382803
1	0x3f90174d	1.1257111
2	0x3f3f475e	0.7471827
3	0x3eda5c26	0.4264843
4	0x3e634d61	0.22197486
5	0x3eef2ecb	0.46715388
6	0x3f1c259d	0.60994893
7	0x3e5e3385	0.2169934
8	0x3f5d5a32	0.8646575
9	0x3f0e4cde	0.5558604
10	0x3f63e660	0.890234
11	0x3ea98e21	0.33116248
12	0x3e0058ef	0.12533925
13	0x3f454730	0.7706175
14	0x3f83d8d0	1.0300541
15	0x3f884a4a	1.0647671
16	0x3f18e82f	0.59729284
17	0x3eebde33	0.46067962
18	0x3e9debcc	0.3084396
19	0x3e89a957	0.2688701
20	0x3f5ca9d0	0.86196613
21	0x3f3477d3	0.7049534
22	0x3ec06b24	0.37581742
23	0x3f9cd94d	1.2253815
24	0x3fadc43f	1.3575515
25	0x3f6e77e0	0.93151665
26	0x3f12caa7	0.5734047
27	0x3f94aa10	1.1614399
28	0x3ef49e13	0.4777685
29	0x3ec744ed	0.38919774
30	0x3f3aabf5	0.72918636
31	0x3f99ac7e	1.2005765
32	0x3e45b8cc	0.19308776
33	0x3eae986b	0.3410066
34	0x3f02c46a	0.51080954
35	0x3f9b0047	1.210946
36	0x3f0e53f5	0.5559686
37	0x3ee5b19f	0.44862077
38	0x3e1c9f49	0.15295137
39	0x3f156727	0.58360523
40	0x3e8b4b2f	0.27205798
41	0x3f05e5d5	0.5230382
42	0x3ecc46ca	0.39897758
43	0x3e260696	0.1621345
44	0x3f15ff7b	0.5859296
45	0x3e93028c	0.2871288
46	0x3f32ef94	0.6989682
47	0x3eae75f7	0.34074375
48	0x3f432cf5	0.76240474
49	0x3f2f6741	0.6851693
50	0x3e34a6b0	0.17641711
51	0x3ebb83df	0.36624047
52	0x3fa5c4ca	1.295068
53	0x3eae5c2d	0.340547
54	0x3e89df52	0.26928192
55	0x3f0bc368	0.5459504
56	0x3ed51b5d	0.4162244
57	0x3f15620f	0.5835275
58	0x3f10b2fe	0.5652312
59	0x3f541577	0.8284525
60	0x3ee16058	0.44018817
61	0x3f660244	0.8984721
62	0x3f093efb	0.53611726
63	0x3ea1cee1	0.3160315

features.8.weight f4 [128, 64, 5]
0	0xbd7d694e	-0.061868005
1	0xbcf8d287	-0.030373825
2	0x3d2161c6	0.039399885
3	0x3d2d7ce9	0.04235545
4	0xbc74eb0a	-0.014948616
5	0x3dcd9748	0.1003862
6	0x3d6007fe	0.054695122
7	0xb96d29da	-0.00022617672
8	0xbd71348b	-0.058888
9	0xbe337fd2	-0.17529228
10	0x3d7ce357	0.061740246
11	0x3ca18609	0.019717233
12	0xba2e06b8	-0.00066385744
13	0xbd5d20e9	-0.053986464
14	0xbd8eb88b	-0.069687925
15	0x3c7b3483	0.015332344
16	0xbd12d25c	-0.035845146
17	0xbbe07a6a	-0.0068505304
18	0x3a64089c	0.00086987927
19	0xbb901c07	-0.0043978724
20	0xbd9106c8	-0.070813715
21	0xbc7d30be	-0.015453516
22	0x3d326506	0.043553375
23	0x3cfb63a8	0.030687168
24	0x3c9c290c	0.019062541
25	0xbd198a8c	-0.037485644
26	0x3cb283ab	0.0217913
27	0xbc9d8f8b	-0.019233486
28	0xbd8b689e	-0.068070635
29	0xbd6938ae	-0.05693882
30	0x3cdfa653	0.02730099
31	0x3cb835ba	0.022486556
32	0xbd57a1fc	-0.052644715
33	0x3d490881	0.049080376
34	0x3d9d6936	0.07686083
35	0xbd1c4b5f	-0.038157817
36	0x3da02d19	0.07821102
37	0x3d5962e3	0.05307282
38	0x3daf8d32	0.08571853
39	0x3d27319a	0.040818788
40	0x3caafae6	0.02087159
41	0x3d19c892	0.037544794
42	0xbd010e6c	-0.031507894
43	0x3d03f3e9	0.032215033
44	0x3ce75c8e	0.028242376
45	0xbd1b704e	-0.0379489
46	0xbc817618	-0.015803382
47	0xba865a9e	-0.0010250395
48	0x3cbbad60	0.02290982
49	0x3a7b6e6d	0.0009591345
50	0xbbe55393	-0.006998488
51	0x3ae7880a	0.0017664444
52	0x3cfc913a	0.030830968
53	0x3d4309b3	0.04761667
54	0x3d85a09d	0.06524775
55	0x3d276972	0.040872045
56	0x3d487758	0.04894194
57	0xbd2bd6a8	-0.04195276
58	0xbd54edb6	-0.05198451
59	0xbdbfeca8	-0.093713105
60	0xbe08ef1e	-0.13372466
61	0xbc7f5caa	-0.015586058
62	0xbd92d975	-0.07170383
63	0xbcc6eb1c	-0.02428203
64	0x3d8ca5f6	0.06867592
65	0x3cca734c	0.024713181
66	0xbd2aacfd	-0.04166888
67	0xbc90c07d	-0.01766991
68	0x3d484bc4	0.04890038
69	0x3d131d57	0.035916653
70	0xbdb7ad3c	-0.08968589
71	0xbd486e89	-0.04893354
72	0xbc86a64a	-0.016436715
73	0x3d574bd4	0.05256255
74	0x3caa7ee3	0.020812457
75	0x3daa57b8	0.08317512
76	0x3d42e519	0.047581766
77	0x3d26b466	0.040699385
78	0xbc867460	-0.016412914
79	0x3d913f62	0.070921674
80	0xbd093a88	-0.033503085
81	0xbca26055	-0.019821325
82	0xbb99b711	-0.0046910127
83	0xbcb2d709	-0.021831052
84	0x3d184578	0.037175626
85	0x3d0db1c9	0.034593377
86	0xbc943477	-0.018091423
87	0xbca3a6e2	-0.019977037
88	0xbcca8ead	-0.024726236
89	0x3db11682	0.08646871
90	0xbd69dfef	-0.057098325
91	0xbd1396de	-0.03603255
92	0x3c38a6b8	0.011270218
93	0x3d8355a9	0.06412823
94	0x3dbb500d	0.09146128
95	0xbcfc182a	-0.030773241
96	0xbce84c3e	-0.028356668
97	0x3d34288c	0.04398398
98	0xbd41c8a8	-0.0473105
99	0xbc82a015	-0.015945474
100	0xbd82bd73	-0.06383791
101	0x3ababf22	0.0014247636
102	0x3d208cde	0.03919684
103	0xbcee95f5	-0.02912424
104	0x3c5102f4	0.012757052
105	0xbd9ccdc6	-0.07656436
106	0xbd5d9048	-0.054092675
107	0xbcac5255	-0.021035353
108	0x3ceb3d45	0.028715739
109	0x3d3ed56b	0.04659025
110	0x3d92425f	0.071415655
111	0x3d7b9cc7	0.06142881
112	0x3d888881	0.06666661
113	0x3c5e382f	0.0135632
114	0x3d0a3026	0.033737324
115	0xbd891f14	-0.06695381
116	0x3ce3cd57	0.027807875
117	0xbd83a4a3	-0.06427886
118	0xbbe33321	-0.0069335853
119	0xbcd2b78e	-0.025722291
120	0xbcb814e8	-0.022470906
121	0x3d11810c	0.03552346
122	0xbcccaff8	-0.024986252
123	0x3d292c97	0.04130229
124	0x3d8f3d1b	0.06994077
125	0xbd0e9969	-0.034814272
126	0xbd4db2e9	-0.05021945
127	0x3d126c02	0.035747536
128	0x3d015243	0.03157259
129	0xbc8fce9d	-0.017554576
130	0xba9a5c63	-0.0011776801
131	0xbd706cc7	-0.05869749
132	0x3d713d40	0.058896303
133	0x3ce2ed96	0.02770118
134	0x3d06d08d	0.032913733
135	0x3cfba02a	0.03071602
136	0x3ce25bb6	0.027631622
137	0xbd400543	-0.046880018
138	0x3c16aa32	0.009195851
139	0xbc672bc1	-0.014109553
140	0xbcbd00c5	-0.023071656
141	0xbc25bca3	-0.010115775
142	0xbd1ee699	-0.038794134
143	0x3d484f51	0.048903767
144	0x3d8eb7fc	0.06968686
145	0xbd78f250	-0.060777962
146	0xbd856088	-0.065125525
147	0xbd261d85	-0.040555496
148	0x3ba778fa	0.005110857
149	0x3cdad1d9	0.026711391
150	0xbc95938f	-0.018258838
151	0xbd205d4b	-0.03915147
152	0x3b9844b0	0.00464686
153	0x3d571487	0.05250981
154	0x3d8acd6a	0.06777461
155	0x3d451799	0.048118208
156	0x3dc5985e	0.09648202
157	0x3d8ea5f7	0.06965249
158	0xb9eefcfa	-0.0004558338
159	0xbcbbed23	-0.022940224
160	0x3d6ff5c4	0.05858399
161	0x3cb14c79	0.02164291
162	0xbd625c2f	-0.055263694
163	0x3d782a49	0.0605872
164	0x3d338c3b	0.043834906
165	0xbce9234a	-0.02845921
166	0xba888f21	-0.0010418632
167	0x3d683da4	0.05669941
168	0x3d79ef36	0.061019145
169	0x3ced3872	0.02895758
170	0xbd33824c	-0.043825433
171	0xbda8869e	-0.08228801
172	0xbd3b4be2	-0.045726664
173	0xbd77f050	-0.060531914
174	0xbc18848b	-0.009308944
175	0x3d750aa6	0.05982461
176	0x3d736510	0.059422553
177	0xba352a4a	-0.00069109036
178	0xbcc793ac	-0.024362408
179	0xbcd8328e	-0.026391294
180	0xbd25c72c	-0.04047315
181	0xbcba78fe	-0.022762772
182	0x3abd3b6c	0.0014437265
183	0x3d003ab2	0.031305976
184	0xbd10543d	-0.035236586
185	0x3b7a8d05	0.0038231027
186	0xbce26a2d	-0.02763852
187	0xbd182e9a	-0.037153818
188	0xbb5727d5	-0.0032830138
189	0xbe0b6245	-0.13611706
190	0xbc8ced31	-0.017202945
191	0xbbf2970b	-0.0074032596
192	0x3d1bdeec	0.03805439
193	0xba1767db	-0.00057756685
194	0xbb2745bf	-0.002552375
195	0x3d59a6c0	0.05313754
196	0x3d5b9de9	0.05361739
197	0xbd2c38be	-0.0420463
198	0xbd9e39ae	-0.07725845
199	0xbdb3b15c	-0.08774063
200	0xbc5c3503	-0.013440373
201	0xbd492c4e	-0.049114518
202	0x3d26ca9b	0.040720563
203	0xbc0891ea	-0.00833557
204	0x3d1719f2	0.036889978
205	0x3d05953c	0.032613024
206	0xbd23f360	-0.040027022
207	0xbd84ca6e	-0.06483923
208	0xbd076274	-0.033052877
209	0x3d24b8d4	0.04021533
210	0xbdb7e9b1	-0.0898012
211	0xbbbcb34b	-0.005758678
212	0x3d6ff487	0.05858281
213	0x3d134f2a	0.03596417
214	0x3d5d3a04	0.054010406
215	0xbd5e7295	-0.054308493
216	0xbd36076f	-0.044440683
217	0x3d484986	0.048898242
218	0x3cb138a9	0.021633463
219	0x3d6c9ffc	0.05776976
220	0xbd8d97b6	-0.06913702
221	0x3c193216	0.00935032
222	0x3c8a1ed3	0.016860401
223	0xbc1a6f50	-0.009425953
224	0xbc454a7c	-0.012041684
225	0xbc8a3b0f	-0.016873864
226	0x3d4a4c8d	0.04938941
227	0x3d064dd0	0.03278905
228	0xbc58baf6	-0.013228169
229	0xbd0ea360	-0.034823775
230	0xbce10089	-0.027466075
231	0xbd992c45	-0.07479147
232	0xbd0fe5b7	-0.035131183
233	0x3b1aab11	0.0023600499
234	0xbc27b0b9	-0.010235005
235	0xbd84d5c2	-0.064860836
236	0x3ac5bfd9	0.0015087082
237	0xbd37e08b	-0.044891875
238	0x3d0d39bd	0.03447889
239	0x3d121714	0.03566654
240	0xbd794d52	-0.060864754
241	0xbd88ad77	-0.06673711
242	0xbc8b3dc4	-0.016997226
243	0x3d70ed1f	0.058819886
244	0x3b444e57	0.002995392
245	0xbd779aea	-0.060450472
246	0x3c2a2afe	0.010386227
247	0x3c87b95f	0.016567884
248	0x3c108b45	0.008822267
249	0xbbe47a2d	-0.0069725723
250	0x3c8cb658	0.017176792
251	0x3d5bf755	0.05370267
252	0x3c1e05f7	0.009644977
253	0x3b65078e	0.003494713
254	0x3c700e46	0.014651841
255	0xbc26cd60	-0.010180801

features.8.bias f4 [128]
0	0xbd418760	-0.047248244
1	0x3d293021	0.041305665
2	0x3b1d42de	0.0023996155
3	0x3a8ffff1	0.0010986311
4	0xbd7d2c16	-0.06180962
5	0x3d0e65c7	0.03476503
6	0x3c5ed85b	0.013601388
7	0x3d241450	0.040058434
8	0x3d87b3a9	0.06626064
9	0x3d074fdf	0.033035155
10	0xbd483fc9	-0.048888955
11	0x3dc3f9fd	0.09569166
12	0xbc3e6f29	-0.011623182
13	0xbb95c5b1	-0.004570686
14	0xbd31bb65	-0.043391604
15	0xbd0ea9cc	-0.0348299
16	0x3c2e548b	0.010640274
17	0xbc390e03	-0.011294845
18	0xbd81c289	-0.06335933
19	0xbc97bc41	-0.018522384
20	0x3cb0ce3d	0.021582717
21	0x3d800bea	0.062522724
22	0x3d03f5fa	0.032217003
23	0xbc1d3ee9	-0.0095975185
24	0xbd1b0415	-0.03784569
25	0xbd479629	-0.04872719
26	0xbcb8b089	-0.022545116
27	0xbce13a9d	-0.02749377
28	0x3bc5cb77	0.006036218
29	0x3caee757	0.021350546
30	0xbbda9c6b	-0.0066714785
31	0xbccc786c	-0.024959765
32	0xbc327e5d	-0.010894385
33	0xbc65e4ac	-0.01403157
34	0x3c40f4e6	0.011777138
35	0x3cf67bc7	0.030088319
36	0xbc8f9bca	-0.01753034
37	0x3d166c19	0.036724184
38	0x3d33a1d7	0.043855514
39	0x3d3a6ed7	0.04551586
40	0xbca2c956	-0.019871395
41	0xbdbee7ae	-0.09321533
42	0xbc99af17	-0.018760247
43	0xbdaeb6b3	-0.08530941
44	0xbb8a3c01	-0.004218579
45	0xbd240c07	-0.040050533
46	0x3c925361	0.017862024
47	0x3c9a0186	0.018799555
48	0x3cd8733b	0.026422134
49	0x3a8dc56a	0.001081628
50	0xbd212ef6	-0.039351426
51	0x3b0202cb	0.001983809
52	0xbd143dc8	-0.03619173
53	0xbd56592a	-0.052331127
54	0xbcee5d11	-0.029097112
55	0x3d220d6e	0.03956359
56	0x3d85592d	0.065111496
57	0x3c9c09e4	0.019047685
58	0x3d616ec7	0.055037286
59	0xbcb3ba3a	-0.021939386
60	0xbce3bf96	-0.027801316
61	0x3d0e5b3b	0.034754973
62	0xbcf0bb77	-0.029386265
63	0x3d0cc44c	0.03436689
64	0x3dc93211	0.098240025
65	0x3caa3027	0.020774914
66	0xbd46568c	-0.04842238
67	0xbbd446ce	-0.006478167
68	0xbd419528	-0.047261387
69	0xbc149c62	-0.009070488
70	0xbd1b82ae	-0.037966423
71	0xbd0519ec	-0.032495424
72	0xbc2cf8ad	-0.010557336
73	0x3d28c5f5	0.04120441
74	0xbcb7315c	-0.022362404
75	0xbd19b9d2	-0.037530728
76	0xbd40e0cb	-0.04708938
77	0xbceba7f2	-0.028766606
78	0xbcbabd02	-0.022795204
79	0xbd77db6e	-0.060512
80	0xbd2cfb6d	-0.042231966
81	0x3bd277b3	0.0064229607
82	0x3d0748f0	0.033028543
83	0x3cf42bfa	0.029806126
84	0x3c58dba7	0.013235963
85	0x3d9eb0ba	0.07748552
86	0xbcc5805a	-0.024109054
87	0x3ce44433	0.027864551
88	0xbd18fd78	-0.0373511
89	0x3c4cb1b2	0.012493538
90	0x3d2510ed	0.040299345
91	0xbd9859f5	-0.07439033
92	0xbceab8af	-0.028652517
93	0x3ce4bc20	0.027921736
94	0x3d8b0464	0.06787947
95	0x3cf0dc13	0.029401815
96	0x3cefc6bb	0.029269567
97	0xbd5723c7	-0.052524354
98	0x3d31706a	0.043320097
99	0xbd9da7de	-0.07698034
100	0xbd04700f	-0.03233343
101	0x3cdfce5f	0.027320085
102	0x3c04ad9d	0.008098033
103	0xbad48ccc	-0.0016216277
104	0xbd585b72	-0.052821584
105	0xbd14ecba	-0.036358573
106	0x3d1e844e	0.038700394
107	0xbd1fb053	-0.038986515
108	0x3d8584f7	0.06519502
109	0xbc1ee952	-0.009699183
110	0xbcd0d1c8	-0.025490656
111	0xbc8502f1	-0.016236754
112	0x3d7eaccb	0.062176507
113	0xbd545591	-0.051839415
114	0x3cde1c52	0.027113114
115	0x3d6de6bd	0.058081377
116	0xbb8df47d	-0.004332124
117	0x3d44f3df	0.048084136
118	0xbd871348	-0.065954745
119	0xbdb27188	-0.087130606
120	0x3d196018	0.037445158
121	0xbbce92a1	-0.0063041006
122	0x3d7b1b91	0.061305586
123	0xbdc8ca71	-0.09804238
124	0xbd298b10	-0.041392386
125	0xbd06015e	-0.032716148
126	0x3d210ecc	0.039320752
127	0x3c9431c8	0.018090144

features.9.weight f4 [128]
0	0x3f84eab6	1.0384128
1	0x3f6cb637	0.9246554
2	0x3f795b4e	0.97404945
3	0x3f80b3f6	1.005492
4	0x3f8263c5	1.0186697
5	0x3f7b857a	0.98250544
6	0x3f85dd4f	1.0458163
7	0x3f75d2c8	0.9602475
8	0x3f676c8a	0.9039999
9	0x3f862bfe	1.0482175
10	0x3f854d99	1.0414306
11	0x3f6cf2d4	0.92558026
12	0x3f7fbb6b	0.9989535
13	0x3f7dd87f	0.9915847
14	0x3f757625	0.958834
15	0x3f8233e3	1.0172085
16	0x3f68ba2a	0.90909064
17	0x3f712123	0.9419119
18	0x3f6287cb	0.88488454
19	0x3f79cc7d	0.9757765
20	0x3f825b5b	1.018413
21	0x3f75b3d0	0.959775
22	0x3f69a7b2	0.9127151
23	0x3f6a7738	0.91588163
24	0x3f837100	1.026886
25	0x3f652719	0.89512783
26	0x3f749e85	0.9555438
27	0x3f6ea44e	0.9321946
28	0x3f805188	1.0024881
29	0x3f86738b	1.0504011
30	0x3f842934	1.0325074
31	0x3f709b4c	0.93986964
32	0x3f80a141	1.0049211
33	0x3f71b4e3	0.94416636
34	0x3f73eff6	0.95288026
35	0x3f771197	0.96511215
36	0x3f7488c7	0.95521206
37	0x3f79eb77	0.97624916
38	0x3f75273a	0.9576298
39	0x3f72282e	0.9459256
40	0x3f7f1c1e	0.9965228
41	0x3f8626f9	1.0480644
42	0x3f519a6d	0.8187626
43	0x3f752b94	0.9576962
44	0x3f6c9d86	0.9242786
45	0x3f75909b	0.95923775
46	0x3f82a262	1.0205805
47	0x3f74df87	0.95653576
48	0x3f876add	1.0579487
49	0x3f50c298	0.81546926
50	0x3f7e5c7c	0.9935987
51	0x3f7cc706	0.98741186
52	0x3f76b783	0.96373767
53	0x3f7368b3	0.95081633
54	0x3f687e07	0.908173
55	0x3f7cb894	0.98719144
56	0x3f726b76	0.9469522
57	0x3f836a81	1.0266877
58	0x3f73b1da	0.95193255
59	0x3f78b6e9	0.971541
60	0x3f809bc7	1.004754
61	0x3f73266d	0.9498051
62	0x3f771090	0.9650965
63	0x3f818408	1.0118418
64	0x3f86190a	1.0476391
65	0x3f649dd9	0.89303356
66	0x3f7a3982	0.97744
67	0x3f853c25	1.040898
68	0x3f60e2bf	0.8784599
69	0x3f807917	1.0036954
70	0x3f80cc03	1.006226
71	0x3f803476	1.001601
72	0x3f7e89fc	0.994293
73	0x3f847650	1.0348606
74	0x3f749054	0.9553273
75	0x3f7f1ed7	0.9965643
76	0x3f779626	0.96713483
77	0x3f780799	0.96886593
78	0x3f755c65	0.9584411
79	0x3f7f92e0	0.9983349
80	0x3f80327b	1.0015405
81	0x3f6b00ec	0.9179828
82	0x3f6d4727	0.92686695
83	0x3f711fce	0.94189155
84	0x3f7a8371	0.97856814
85	0x3f68e1a2	0.9096929
86	0x3f7c7861	0.98621184
87	0x3f85d611	1.0455953
88	0x3f800fac	1.0004783
89	0x3f77e86a	0.9683901
90	0x3f7dc3f5	0.9912713
91	0x3f721f37	0.9457888
92	0x3f682deb	0.90695065
93	0x3f7e540d	0.99347
94	0x3f87061e	1.0548742
95	0x3f90065f	1.1251944
96	0x3f5fa65a	0.8736321
97	0x3f63ccd2	0.88984406
98	0x3f802499	1.0011169
99	0x3f782459	0.9693046
100	0x3f8351b7	1.0259312
101	0x3f866f3e	1.0502698
102	0x3f85c77d	1.0451504
103	0x3f541269	0.8284059
104	0x3f80ad94	1.0052972
105	0x3f6cea57	0.92545074
106	0x3f6fe1e4	0.93704057
107	0x3f7b5bac	0.98186755
108	0x3f83461d	1.0255772
109	0x3f6d82f1	0.92777926
110	0x3f7281e1	0.9472943
111	0x3f82aa8b	1.0208296
112	0x3f819d12	1.0126059
113	0x3f80065a	1.0001938
114	0x3f7ceca5	0.9879859
115	0x3f81b0c3	1.0132068
116	0x3f72a25f	0.9477901
117	0x3f87ab97	1.059924
118	0x3f7ac9e9	0.9796434
119	0x3f79ad7c	0.9753034
120	0x3f4d374e	0.80162513
121	0x3f8af6f2	1.0856612
122	0x3f7b161b	0.98080605
123	0x3f6f465c	0.93466735
124	0x3f72c2f5	0.9482873
125	0x3f809028	1.0043993
126	0x3f7ff0e4	0.99976945
127	0x3f6bb283	0.9206926

features.9.bias f4 [128]
0	0xbdd67022	-0.104706064
1	0xbe35752c	-0.17720479
2	0xbce3aca4	-0.027792282
3	0xbe0dcb07	-0.1384698
4	0xbe07cb6a	-0.1326119
5	0x3d179089	0.037003074
6	0xbd1af40d	-0.0378304
7	0xbd197d71	-0.037473146
8	0xbda8db23	-0.08244922
9	0xbdef1afe	-0.1167507
10	0xbe15f465	-0.1464401
11	0xbd9d89ce	-0.076923
12	0xbe15e49e	-0.14637992
13	0xbd977b18	-0.07396525
14	0xbd3897ce	-0.045066647
15	0xbe188a52	-0.14896515
16	0xbd8dbabe	-0.06920384
17	0xbe2872f3	-0.164501
18	0xbdc419ba	-0.095752195
19	0xbcc8d7cb	-0.02451696
20	0xbdf9c66e	-0.121960506
21	0xbd7da202	-0.06192208
22	0xbd769bf4	-0.060207322
23	0xbe44ecb6	-0.19230923
24	0xbe64ddab	-0.22350185
25	0xbd51414a	-0.051087655
26	0xbe16bb01	-0.14719774
27	0xbd99b4be	-0.07505177
28	0xbd8fb992	-0.070178166
29	0xbd35dc90	-0.044399798
30	0x3ca412ce	0.020028498
31	0xbdb3ded8	-0.087827384
32	0xbd86fe84	-0.06591514
33	0xbdc56a10	-0.096393704
34	0xbd3efd14	-0.046628073
35	0xbe06b8b7	-0.131564
36	0xbd90990c	-0.070604414
37	0xbe299292	-0.16559818
38	0xbde39738	-0.11112827
39	0xbd7ca212	-0.061678
40	0xbe3b2bb1	-0.18278386
41	0xbe248514	-0.1606639
42	0xbe1fc20c	-0.15601367
43	0xbe0ec91a	-0.13943902
44	0xbdfcea82	-0.12349416
45	0xbce07b3e	-0.027402516
46	0x3cca8d14	0.024725474
47	0xbda8d5d9	-0.08243913
48	0xbd3adc2c	-0.04562013
49	0xbdd192fd	-0.10233114
50	0xbe0768ff	-0.13223647
51	0xbd2d4805	-0.04230501
52	0xbdceba0d	-0.1009408
53	0xbd6a41ab	-0.057191532
54	0xbe2dbfcc	-0.16967696
55	0xbc2b0300	-0.010437727
56	0xbd786dce	-0.060651593
57	0xbd2350c3	-0.039871942
58	0xbd971098	-0.07376212
59	0xbe24cc19	-0.16093482
60	0xbde148e2	-0.110002294
61	0xbdeaa792	-0.11457743
62	0xbe227d85	-0.15868194
63	0xbcf9deac	-0.030501686
64	0xbca15a11	-0.019696267
65	0xbd94a556	-0.07258098
66	0xbd8457c8	-0.064620554
67	0xbe3f328b	-0.18671624
68	0xbe22446e	-0.15846416
69	0xbd71b235	-0.059007842
70	0xbd1ac304	-0.037783638
71	0xbd92b140	-0.07162714
72	0xbdfc9980	-0.12333965
73	0xbe2a6fd0	-0.16644216
74	0xbdcbb5bc	-0.099467725
75	0xbe2a27cb	-0.16616742
76	0xbc9a0903	-0.018803125
77	0xbda5fa8c	-0.08104429
78	0xbe19d230	-0.15021586
79	0xbe016041	-0.12634374
80	0xbe4a41bc	-0.19751638
81	0xbd8d2162	-0.06891133
82	0xbcd061c4	-0.025437243
83	0xbda8eed5	-0.082486786
84	0xbd9ae6c9	-0.0756355
85	0xbd3929f7	-0.045206036
86	0xbd13a443	-0.036045324
87	0xbdf4da2b	-0.11955675
88	0xbe2563ab	-0.16151302
89	0xbe0292cf	-0.12751316
90	0xbd74af77	-0.05973765
91	0xbd80e987	-0.06294542
92	0xbdee5b77	-0.11638539
93	0xbe3785f7	-0.17922197
94	0xbdc6dd8e	-0.09710227
95	0xbe36b340	-0.17841816
96	0xbe28bc82	-0.1647816
97	0xbe18ae81	-0.14910318
98	0xbd49956d	-0.04921477
99	0xbe2ba7d9	-0.16763248
100	0xbdf77efa	-0.12084766
101	0xbe4061c2	-0.18787292
102	0xbe219b0c	-0.15781802
103	0xbdc3f6d6	-0.095685646
104	0xbd0afabd	-0.03393053
105	0xbdc316d1	-0.09525836
106	0xbe4d9a92	-0.20078495
107	0xbd1c4dd5	-0.038160164
108	0xbc6369f4	-0.013880242
109	0xbdf72966	-0.12068443
110	0xbd6a5268	-0.057207495
111	0xbdbd2e69	-0.09237368
112	0xbd294e24	-0.041334286
113	0xbe1a9ceb	-0.15098922
114	0xbdd67d4c	-0.10473117
115	0xbd90dbfe	-0.0707321
116	0xbdfbc728	-0.122938454
117	0xbd30896a	-0.0430998
118	0xbcb2eb1c	-0.021840625
119	0xbcf7e73d	-0.03026163
120	0xbe28ba0c	-0.16477221
121	0xbceeac75	-0.029134968
122	0xbe29220c	-0.16516894
123	0xbd32d0f4	-0.043656304
124	0xbdfd64f1	-0.12372769
125	0x3c5df524	0.013547216
126	0xbde091a6	-0.1096528
127	0xbdc40dc2	-0.095729366

features.9.running_mean f4 [128]
0	0xbe2c602f	-0.16833566
1	0x3fb66988	1.4250956
2	0xbfb71ab8	-1.4305029
3	0xbf3d12ca	-0.73856795
4	0xbe7838a6	-0.2424036
5	0xbfaede6a	-1.3661625
6	0xbf20ddc0	-0.62838364
7	0xbc970104	-0.018433101
8	0xbf939a46	-1.1531456
9	0xbefbc8df	-0.4917669
10	0xbc3ffde5	-0.011718248
11	0xbf9e1506	-1.2350166
12	0xbf601082	-0.8752519
13	0xbebe0574	-0.37113535
14	0xbfd91fd3	-1.6962837
15	0x3e88c80f	0.26715133
16	0xbf82bfe5	-1.0214812
17	0x3f57a9e9	0.8424364
18	0xbf8afc4c	-1.0858245
19	0xbf040117	-0.5156416
20	0x3f8f4b56	1.1194866
21	0xbf5313e7	-0.82452244
22	0xbf9607ca	-1.1721127
23	0xbf93a0e5	-1.1533476
24	0xbe03c164	-0.12866741
25	0xbf44ecda	-0.76923907
26	0xbf21b2df	-0.6316356
27	0xbf0c2427	-0.54742664
28	0xbf9cb3cf	-1.2242373
29	0xbec03017	-0.3753669
30	0xbf732ec2	-0.9499322
31	0xbfd3ab18	-1.6536589
32	0xbf1a0203	-0.6015932
33	0xbf8e6837	-1.1125554
34	0xbfa90d50	-1.3207188
35	0x3c874198	0.01651077
36	0xbf46f19d	-0.7771242
37	0xbf4b1bd0	-0.79339314
38	0xbe496c34	-0.19670182
39	0xbe0ce1c3	-0.13757996
40	0xbdf2759e	-0.1183884
41	0xbebfda95	-0.37471452
42	0xbf247437	-0.6423983
43	0xbf743087	-0.95386547
44	0xbf09257a	-0.5357281
45	0xbe972d61	-0.2952681
46	0xbf3f69c8	-0.74770784
47	0xbf90750a	-1.1285717
48	0xbf05ba56	-0.5223745
49	0xbf699c5c	-0.9125421
50	0x3faa775c	1.3317676
51	0xbd1f7e48	-0.03893879
52	0xbfbdda27	-1.48322
53	0xbfad24a3	-1.3526806
54	0x3ea26886	0.3172037
55	0xbfb2dd13	-1.3973716
56	0xbe35d42c	-0.17756718
57	0xbfd65e04	-1.6747441
58	0xbf5cb336	-0.86210954
59	0x3f8a5717	1.0807828
60	0xbf978232	-1.1836607
61	0xbfc86376	-1.5655353
62	0xbf5b94ea	-0.857741
63	0xbfc8e22c	-1.5694022
64	0xbfa8ada9	-1.3177997
65	0xbf6aa139	-0.91652256
66	0xbf63e1af	-0.8901624
67	0x3f985b39	1.1902839
68	0xbf9d310e	-1.2280595
69	0xbf8fa1ac	-1.1221213
70	0xbed8df88	-0.4235804
71	0xbfaf55df	-1.3698081
72	0xbeee276a	-0.46514446
73	0xbd4c98c0	-0.04995036
74	0xbed781a7	-0.42091104
75	0x3d22182c	0.039573833
76	0xbebb38a2	-0.36566645
77	0xbf2a26cb	-0.66465443
78	0x3e9d112d	0.30677167
79	0xbf08352c	-0.53206134
80	0x3f8f91fd	1.1216427
81	0xbfa05043	-1.2524494
82	0xbfb91d6d	-1.4462105
83	0xbf85be94	-1.0448785
84	0xbf025eba	-0.5092579
85	0x3c23848c	0.009980332
86	0xbe86b0cd	-0.26306763
87	0xbdd8b9bd	-0.10582302
88	0xbf057524	-0.5213187
89	0xbe1839f6	-0.1486586
90	0xbf8e62df	-1.1123923
91	0xbf229b54	-0.6351826
92	0xbcba005d	-0.022705251
93	0x3f359b17	0.70939773
94	0xbceab953	-0.028652823
95	0x3e02ba3e	0.12766358
96	0x3fb1106c	1.3833137
97	0x3ea459c7	0.32099745
98	0xbebff19a	-0.37489015
99	0x3f1f85a2	0.6231328
100	0xbef154e3	-0.47135076
101	0xbf15782c	-0.5838649
102	0xbf77a096	-0.9672941
103	0x3f059f5d	0.52196294
104	0x3db8c227	0.090214066
105	0xbf8a1a32	-1.0789244
106	0xbf9fe97d	-1.249313
107	0x3dd02a68	0.10164338
108	0xbf99b50b	-1.2008375
109	0xbf2b0a62	-0.6681272
110	0xbfbd40a2	-1.4785349
111	0xbe913956	-0.28364056
112	0xbfb814f6	-1.4381397
113	0xbee1702c	-0.44030893
114	0xbe8a3cbf	-0.2699947
115	0xbefbcbd7	-0.49178955
116	0xbf56136c	-0.83623385
117	0xbdaecbd5	-0.085349716
118	0xbf124795	-0.57140476
119	0xbf012f90	-0.504632
120	0x3f94451e	1.1583593
121	0xbfc3a65b	-1.5285143
122	0xbe5abd27	-0.21361218
123	0xbedab8b4	-0.42719042
124	0xbfcb796d	-1.5896431
125	0xbfb5dd65	-1.4208189
126	0x3eef3a04	0.4672395
127	0xbf8d9255	-1.1060282

features.9.running_var f4 [128]
0	0x3f353827	0.70788807
1	0x3f6d7ac7	0.9276547
2	0x3fff4132	1.9941771
3	0x3f934ce6	1.1507843
4	0x3f52d0f6	0.823501
5	0x3fa18915	1.2619959
6	0x3f3fd53b	0.7493474
7	0x3f52a8e6	0.8228897
8	0x4060fe05	3.5155041
9	0x3f9e05ed	1.2345558
10	0x3f1fb7e0	0.62389946
11	0x3fc676a3	1.5504955
12	0x3fb507d0	1.4143009
13	0x3f62edc9	0.8864408
14	0x402174fa	2.5227647
15	0x3f6e1c1c	0.9301164
16	0x3fc9ff58	1.578105
17	0x3f4783d1	0.7793551
18	0x3fcd9bfd	1.6063229
19	0x3f921de2	1.141537
20	0x3f95022f	1.1641291
21	0x3fe791f3	1.8091415
22	0x3fbb7ffb	1.4648432
23	0x400f5eb9	2.2401564
24	0x3f53d5f3	0.82748336
25	0x3faa5ec0	1.3310165
26	0x3f75fef7	0.9609217
27	0x3f872f8d	1.0561386
28	0x3fb28171	1.3945752
29	0x3f6e6014	0.93115354
30	0x3efd9521	0.4952784
31	0x3fdfa8ee	1.7473428
32	0x3f4e0bdb	0.8048684
33	0x3f7b916f	0.9826879
34	0x40383efc	2.8788443
35	0x3f1406ab	0.57822675
36	0x3f5eba8a	0.87003386
37	0x3fabc810	1.3420429
38	0x3f80acb7	1.0052708
39	0x3f52b647	0.82309383
40	0x3f4cba9e	0.79972255
41	0x3f5ac6b7	0.85459465
42	0x3f49597a	0.78652155
43	0x3f245b3a	0.642017
44	0x3f5fc41f	0.8740863
45	0x3f30b558	0.6902671
46	0x3f28712b	0.6579768
47	0x3f10deb6	0.5658983
48	0x3ea41b8c	0.32052267
49	0x3f1bf1e8	0.60915995
50	0x3f8dbe6a	1.1073735
51	0x3f723cbd	0.9462393
52	0x3f9d29af	1.2278346
53	0x40214db1	2.520367
54	0x3f46b0db	0.7761361
55	0x3f90adf8	1.1303091
56	0x3f681ea1	0.90671736
57	0x3fa462ce	1.2842653
58	0x3f0d1158	0.5510459
59	0x3f9b053d	1.2110974
60	0x3f964559	1.1739913
61	0x3f203f8d	0.6259697
62	0x3f8b0984	1.0862279
63	0x3fb21c90	1.3914967
64	0x3f979049	1.1840907
65	0x3f39a403	0.7251589
66	0x4008724d	2.1319764
67	0x3f627e50	0.8847399
68	0x3fd34b17	1.6507291
69	0x3f9dcb1d	1.232761
70	0x3f34601c	0.7045915
71	0x3f83da5a	1.0301011
72	0x3fb872a5	1.4409987
73	0x3f8e6af1	1.1126386
74	0x3f5770ab	0.8415629
75	0x3f145197	0.57936996
76	0x3fb72728	1.4308825
77	0x3f160812	0.58606064
78	0x3f28bfab	0.6591746
79	0x3fa9736f	1.3238353
80	0x3f871dcc	1.0555968
81	0x40575602	3.3646245
82	0x4024f700	2.5775757
83	0x3f9596e6	1.1686676
84	0x3f634eca	0.887921
85	0x3f2cda2b	0.675204
86	0x3f435ce2	0.763136
87	0x3f2969c2	0.66177
88	0x3f23d849	0.640019
89	0x3f3f450a	0.7471472
90	0x3f39e992	0.72622025
91	0x3fc2314f	1.5171298
92	0x3edf4197	0.4360473
93	0x3f7dbbc1	0.99114615
94	0x3f360aa0	0.7110996
95	0x3f13a1bc	0.5766866
96	0x3fa56c28	1.2923632
97	0x3f818c5d	1.012096
98	0x3f48b7ed	0.7840565
99	0x3f474bcf	0.7785005
100	0x3fa3b35a	1.2789109
101	0x3f7311b0	0.94948864
102	0x3f8337f6	1.0251453
103	0x3fcd2a64	1.6028562
104	0x3f6b7837	0.9198031
105	0x3fb292ea	1.3951085
106	0x3fbcad7a	1.4740441
107	0x3f31a341	0.6938973
108	0x3fad9103	1.3559879
109	0x3f3f0469	0.74616104
110	0x3ff28879	1.8947898
111	0x3f9bc321	1.2168924
112	0x3f5f9fd6	0.87353265
113	0x3f86a174	1.0518022
114	0x3f1ada44	0.60489297
115	0x3f8db46f	1.1070689
116	0x3f97cb30	1.1858883
117	0x3f788c9c	0.9708955
118	0x3f8154a5	1.0103956
119	0x3f35aad4	0.7096379
120	0x4003af1f	2.0575635
121	0x3f737bd4	0.9511082
122	0x3f25ff4f	0.64842695
123	0x3f792b36	0.9733156
124	0x3fbd1779	1.4772788
125	0x3fb1ffcf	1.3906192
126	0x3f209df2	0.62741005
127	0x40479a77	3.1188028
