experiment_testing/mz-testing/checkpoints/ptbxl/500hz/cnn1d/fold_3/best.pt (torch, 628765 bytes, 26 tensors)

features.0.weight f4 [32, 12, 7]
0.103740886 -0.048743427 0.07936169 -0.050916757 -0.0018239846 0.080697544 0.14869061 -0.11740829
-0.08153492 0.00090818905 0.062175974 -0.0031855088 -0.02418362 -0.036134332 0.045766927 -0.035295226
0.020140808 -0.11707035 0.048152372 -0.05459879 -0.01714753 -0.05032917 0.05212246 0.07583842
0.0973295 0.099222615 -0.0770401 -0.12747239 0.040623695 0.043680735 -0.11696699 0.032815624
-0.040044203 0.05928734 0.06252929 -0.06369471 -0.0052920273 -0.11485342 0.027990686 -0.06369507
-0.006769387 -0.01325712 -0.044225343 -0.08688228 -0.11869453 -0.09078045 0.033661682 -0.09679304
-0.12996367 -0.097909205 -0.06605718 -0.029742584 0.13564312 -0.04550187 0.13763312 0.05723554
0.037218634 -0.015432669 0.05321386 0.059379786 0.08192592 -0.03827885 -0.07684863 0.08062919
-0.005545744 -0.10001549 0.079689056 0.08711994 0.06894147 0.1190818 -0.017585251 -0.037460733
-0.10549368 -0.03395072 0.008330774 -0.031647578 0.13773659 0.033722144 0.027623098 0.02945208
-0.10048969 -0.04076911 0.09281231 -0.08832661 0.05010853 -0.11593705 -0.14455096 0.06232585
-0.07233968 -0.02118927 0.043675993 0.019621393 -0.08216686 -0.005450278 0.11275557 -0.01835867
0.106141426 -0.03524981 0.02633626 -0.061858818 -0.061884467 0.057577666 0.028826272 0.03081193
0.06615302 0.10942322 0.08905966 0.0648796 0.13511285 0.10531311 -0.06409821 0.040352754
0.09986677 -0.07336658 -0.040249083 0.07741505 0.011164256 0.017992333 0.030773249 -0.06030705
-0.13275428 -0.12651134 0.08723742 -0.038317744 0.081928335 0.080690034 -0.06468078 0.009973287
-0.030733773 -0.08745532 -0.015962197 -0.08670727 0.11857015 0.011010994 0.03022238 0.059326388
-0.07218833 0.06699251 -0.12168667 0.0040803845 -0.14012322 0.028493837 -0.055083875 -0.023122448
0.042959377 -0.0011541374 -0.08078271 -0.047539175 0.07196359 -0.08449092 -0.093659945 -0.06669207
0.034751315 0.012172618 -0.014794911 -0.10121512 -0.058697317 -0.1512649 -0.11629884 -0.04751822
0.052132666 -0.06774302 -0.09581202 -0.05875107 -0.06354752 -0.040700857 -0.06567686 0.06301869
-0.028960934 -0.052701768 -0.035966296 -0.08741754 -0.035075426 0.01870627 -0.076082006 -0.005929923
-0.064317785 -0.020985182 -0.02599821 -0.055728413 -0.036147926 -0.100117005 0.063376136 0.002074392
0.011931332 0.049538147 -0.045619596 -0.09515878 0.014347462 -0.04755872 -0.022674574 -0.0383187
-0.04703319 -0.08181209 -0.07265746 0.083600126 -0.069519944 0.09080845 0.0662265 0.10861248
-0.060840104 0.13810745 0.120324895 -0.09625079 -0.05363863 0.024447657 -0.13088025 -0.082444586
-0.07348692 0.011034827 0.16697937 0.034037504 0.03583679 0.057009608 0.10332659 -0.060063243
0.12221811 0.022795018 0.075580664 0.048607245 0.03917415 0.08558893 -0.06347822 -0.021069616
-0.049902804 -0.102028325 0.052179497 0.016523164 0.07351847 -0.07402163 -0.050851826 0.04943718
-0.14210322 -0.028675292 -0.062613145 -0.060255654 -0.045557912 -0.07445567 -0.12241437 0.08051424
0.016912624 0.06093026 0.1259579 -0.022220943 -0.048984453 0.022277763 -0.08629705 0.034299716
-0.01734128 0.12734558 0.036366504 0.06503717 0.0007102296 -0.03695382 0.037082672 -0.016637249
00000000: 1a76 d43d 30a7 47bd 6288 a23d 178e 50bd
00000010: c412 efba c144 a53d 5a42 183e c273 f0bd
00000020: c8fb a6bd 8913 6e3a 3cac 7e3d f8c3 50bb
00000030: ba1c c6bc 9801 14bd 1a76 3b3d ba91 10bd
00000040: 56fe a43c 94c2 efbd 6c3b 453d fba2 5fbd
00000050: fa78 8cbc f625 4ebd 5c7e 553d 2c51 9b3d
00000060: b054 c73d 3a35 cb3d 33c7 9dbd 1f88 02be
00000070: 0865 263d 92ea 323d 648c efbd ad69 063d
00000080: 6405 24bd 48d7 723d 5b0f 803d 5f72 82bd
00000090: be68 adbb 4538 ebbd b94c e53c 9072 82bd
000000a0: bcd1 ddbb 6434 59bc a225 35bd 56ef b1bd
000000b0: 1e16 f3bd 1aeb b9bd d5e0 093d 6e3b c6bd
000000c0: 3215 05be 9f84 c8bd fd48 87bd b8a6 f3bc
000000d0: 08e6 0a3e 2b60 3abd b2ef 0c3e d06f 6a3d
000000e0: 9172 183d 4ed9 7cbc c7f6 593d 3838 733d
000000f0: c7c8 a73d 49ca 1cbd d162 9dbd eb20 a53d
00000100: 13b9 b5bb ecd4 ccbd 0434 a33d f06b b23d
00000110: 2f31 8d3d 29e1 f33d f20e 90bc 6d70 19bd
00000120: 120d d8bd e90f 0bbd cc7d 083c e4a0 01bd
00000130: d20a 0d3e 3b20 0a3d d649 e23c 7d45 f13c
00000140: 8acd cdbd 83fd 26bd 6114 be3d 95e4 b4bd
00000150: 9a3e 4d3d 6770 edbd 2b05 14be 6449 7f3d
00000160: d326 94bd 1f95 adbc 99e5 323d 0bbd a03c
00000170: 1947 a8bd 3f98 b2bb 64ec e63d ec64 96bc
00000180: ad60 d93d 1b62 10bd 24bf d73c ac5f 7dbd
00000190: 917a 7dbd 8fd6 6b3d 1325 ec3c 4d69 fc3c
000001a0: 3c7b 873d 4819 e03d e964 b63d 99df 843d
000001b0: 065b 0a3e 66ae d73d ec45 83bd ee48 253d
000001c0: f386 cc3d 3841 96bd 39dc 24bd c88b 9e3d
000001d0: 49ea 363c a864 933c 2e18 fc3c 8604 77bd
000001e0: bdf0 07be 308c 01be 88a9 b23d 11f3 1cbd
000001f0: 0bca a73d d140 a53d 5b77 84bd ff66 233c
00000200: 65c5 fbbc c61b b3bd 27c3 82bc 9593 b1bd
00000210: e8d4 f23d 7567 343c ed94 f73c 3a00 733d
00000220: 7ad7 93bd 5e33 893d dc36 f9bd bfb4 853b
00000230: 767c 0fbe e86b e93c a19f 61bd 4a6b bdbc
00000240: 2cf6 2f3d 6d46 97ba 6871 a5bd 70b8 42bd
00000250: a661 933d 9309 adbd c9d0 bfbd da95 88bd
00000260: 6557 0e3d a96f 473c 5b66 72bc df49 cfbd
00000270: 996c 70bd 30e5 1abe 162e eebd 77a2 42bd
00000280: 1089 553d dabc 8abd 1839 c4bd f6a4 70bd
00000290: 3425 82bd f1b5 26bd 9781 86bd f10f 813d
000002a0: 7b3f edbc cfdd 57bd 6551 13bd f807 b3bd
000002b0: 40ab 0fbd e43d 993c e2d0 9bbd cd4f c2bb
000002c0: 0bb9 83bd 1ee9 abbc 33fa d4bc 7a43 64bd
000002d0: d90f 14bd 250a cdbd 59cb 813d 86f2 073b
000002e0: a27b 433c 83e8 4a3d 9ddb 3abd 9be2 c2bd
000002f0: 9e11 6b3c efcc 42bd 07c0 b9bc 12f4 1cbd
00000300: e0a5 40bd 198d a7bd 6fcd 94bd 8b36 ab3d
00000310: 7960 8ebd c8f9 b93d c2a1 873d 3870 de3d
00000320: 7933 79bd 0a6c 0d3e e66c f63d 221f c5bd
00000330: 2eb4 5bbd 7446 c83c 7905 06be b5d8 a8bd
00000340: 4f80 96bd 6bcb 343c a4fc 2a3e e96a 0b3d
00000350: 99c9 123d e882 693d e49c d33d e004 76bd
00000360: 7d4d fa3d 9ebc ba3c 09ca 9a3d 6418 473d
00000370: 1375 203d 4049 af3d de00 82bd 309a acbc
00000380: e266 4cbd 3af4 d0bd 2bba 553d 965b 873c
00000390: da90 963d a798 97bd 014a 50bd a47e 4a3d
000003a0: 8283 11be 72e8 eabc 523b 80bd a2ce 76bd
000003b0: ef9a 3abd 377c 98bd 63b4 fabd a6e4 a43d
000003c0: 588c 8a3c 0292 793d 1cfb 003e b208 b6bc
000003d0: eca3 48bd db7f b63c 82bc b0bd dc7d 0c3d
000003e0: 4d0f 8ebc e166 023e 0bf5 143d 3532 853d
000003f0: b42e 3a3a e45c 17bd 00e4 173d d74a 88bc

features.0.bias f4 [32]
0.06434651 -0.010805215 0.02216182 -0.07887729 0.08599752 -0.068824485 0.05527572 -0.0073606074
0.015452193 -0.12844874 0.09375903 0.11386578 -0.053075667 -0.044340175 0.09057103 -0.08517656
0.06273005 -0.037649576 0.026768545 -0.033046495 0.04610257 0.10729252 0.033371855 0.030725775
-0.064881615 -0.09371647 0.07855372 0.055336222 0.0020334842 0.09513315 0.08387505 0.049193088
00000000: 1ac8 833d 5b08 31bc b58c b53c 6b8a a1bd
00000010: 781f b03d daf3 8cbd cb68 623d 4031 f1bb
00000020: 322b 7d3c 1188 03be bc04 c03d 7632 e93d
00000030: df65 59bd 0b9e 35bd 4e7d b93d 0c71 aebd
00000040: 9d78 803d 7136 1abd b549 db3c c35b 07bd
00000050: 0cd6 3c3d 2ebc db3d edb0 083d 9fb4 fb3c
00000060: a7e0 84bd 6cee bfbd c6e0 a03d 3ca8 623d
00000070: 3444 053b 2bd5 c23d afc6 ab3d b17e 493d

features.1.weight f4 [32]
0.96135443 1.0165932 0.99024624 0.9944414 1.0708479 1.00867 0.99258035 1.0172933
1.0369108 1.0293013 0.99595696 1.0032003 1.0066861 1.0234557 1.0105634 0.99651945
0.99402255 0.99237406 0.9887411 0.99548715 1.0054599 1.0316745 0.99436134 1.0360428
0.9850813 0.9958066 0.95572543 0.99671036 0.9965745 0.959918 0.98530006 0.9795157
00000000: 531b 763f ba1f 823f c780 7d3f b693 7e3f
00000010: 8b11 893f 191c 813f bf19 7e3f ab36 823f
00000020: 7eb9 843f 25c0 833f 09f7 7e3f de68 803f
00000030: 17db 803f 9900 833f 245a 813f e61b 7f3f
00000040: 4378 7e3f 3a0c 7e3f 231e 7d3f 3fd8 7e3f
00000050: e9b2 803f e90d 843f 778e 7e3f 0d9d 843f
00000060: 4a2e 7c3f 2eed 7e3f 6caa 743f 6928 7f3f
00000070: 821f 7f3f 30bd 753f a03c 7c3f 8ac1 7a3f

features.1.bias f4 [32]
-0.0005842177 0.033063736 -0.0053058076 0.089887075 0.039655603 0.0042174323 0.05644265 0.055326723
0.049627475 0.0065692184 -0.020582099 0.027950095 0.11403232 0.046296358 0.01490608 0.008477306
-0.015857516 0.008461786 0.034721147 0.06454133 0.057169884 0.0999347 0.041025307 0.045180358
-0.050089158 0.07275907 -0.009877134 -0.012275969 0.008296715 0.023716792 0.08276987 -0.05710038
00000000: 3026 19ba d76d 073d 57dc adbb b716 b83d
00000010: ea6d 223d 6332 8a3b 6830 673d 469e 623d
00000020: 2e46 4b3d 9942 d73b ca9b a8bc 99f7 e43c
00000030: c789 e93d 40a1 3d3d a238 743c 66e4 0a3c
00000040: 9fe7 81bc 4ea3 0a3c c337 0e3d 3f2e 843d
00000050: f82a 6a3d 90aa cc3d 270a 283d 0a0f 393d
00000060: 4a2a 4dbd b502 953d b4d3 21bc 2521 49bc
00000070: f2ee 073c b849 c23c 4083 a93d 17e2 69bd

features.1.running_mean f4 [32]
0.0644523 -0.010783244 0.022192921 -0.07915809 0.08599407 -0.06879374 0.055280924 -0.0071742604
0.014612857 -0.12830448 0.0939855 0.11377114 -0.053083897 -0.044302892 0.09051495 -0.0865387
0.06269673 -0.037551887 0.026870333 -0.033091553 0.046150837 0.10731681 0.033517707 0.030678717
-0.06518625 -0.09389119 0.078570105 0.055365264 0.002081933 0.09497347 0.08386348 0.049066674
00000000: 91ff 833d 34ac 30bc eecd b53c a31d a2bd
00000010: a91d b03d bbe3 8cbd 406e 623d 0f16 ebbb
00000020: c46a 6f3c 4062 03be 787b c03d d800 e93d
00000030: 806e 59bd f376 35bd e75f b93d 343b b1bd
00000040: 2567 803d 02d0 19bd 2c1f dc3c 028b 07bd
00000050: a908 3d3d eac8 db3d dd49 093d ef51 fb3c
00000060: 5e80 85bd 064a c0bd 5de9 a03d b0c6 623d
00000070: 0a71 083b 7381 c23d 9ec0 ab3d 23fa 483d

features.1.running_var f4 [32]
0.5562283 1.6168891 0.8429879 0.51350653 1.2670711 0.33692116 0.76861095 0.18136384
0.31594583 1.0667793 0.5360644 1.0811301 0.81324786 0.667781 0.22707075 0.281838
0.76889545 0.67940664 1.036281 1.7604051 0.36405277 0.33644882 0.3359454 0.6802536
0.3674855 0.7517841 1.7275666 0.6289338 0.16825198 0.66080236 0.30006662 0.71058774
00000000: fa64 0e3f 39f6 ce3f 0ece 573f 2a75 033f
00000010: 632f a23f ee80 ac3e b0c3 443f 71b7 393e
00000020: a7c3 a13e 398c 883f 843b 093f 7962 8a3f
00000030: 0331 503f b2f3 2a3f 3c85 683e 124d 903e
00000040: 55d6 443f 98ed 2d3f dba4 843f f454 e13f
00000050: 2065 ba3e 0543 ac3e 0901 ac3e 1a25 2e3f
00000060: 0f27 bc3e ec74 403f e720 dd3f ce01 213f
00000070: 3f4a 2c3e 582a 293f 55a2 993e 14e9 353f

features.4.weight f4 [64, 32, 5]
-0.021195687 0.06520049 -0.026264971 -0.061710805 0.017979922 -0.09759275 -0.05902067 -0.07730763
0.013932435 0.008685802 0.024739081 0.0105740605 -0.05158403 -0.057682477 -0.0014876395 0.03490729
-0.0019289264 0.04040022 -0.034204293 0.015153597 0.11304475 0.1056215 -0.025371615 0.0011009091
0.016784705 0.017275697 -0.08744415 -0.06859429 0.010069074 -0.07006688 -0.035163935 0.07057866
0.052139223 0.0065113953 0.07374535 0.016567042 0.034563083 -0.067666434 -0.089910544 -0.075393826
-0.1267556 -0.026532622 -0.10462974 -0.011055263 -0.11368484 -0.04336611 0.05851549 0.042815268
-0.073381975 0.04849299 -0.024648573 0.048974197 0.023668526 -0.00034901308 -0.05739361 0.0575052
-0.07342632 0.059614226 -0.06441071 0.054094322 0.04323976 0.025596285 0.02120623 -0.07943274
0.047773086 -0.099783346 0.016395193 -0.105105914 -0.08965708 0.009426593 0.029940046 0.013470368
-0.021557814 -0.011674663 -0.05476609 -0.08581915 -0.09439625 0.0012529528 0.03334016 0.014358856
-0.038945522 0.084350646 0.0378505 -0.040885147 -0.011917299 0.008722235 0.026765073 0.056102026
0.031442452 0.07948978 0.034968417 0.023475546 0.04331903 0.024552226 0.08152202 0.036789216
-0.06456415 0.027407657 0.048556004 -0.06295258 -0.02786846 0.038424034 0.06593544 0.082827255
0.0318725 -0.043236405 -0.021442654 -0.052692294 0.00097447913 -0.04509918 -0.0069616074 -0.07684255
-0.0054438733 -0.051514942 -0.092533655 -0.051686045 -0.062384024 -0.03745124 -0.097197965 -0.12951972
-0.1136082 0.004628075 -0.018224772 -0.03356547 -0.10452813 0.013553779 -0.019264784 -0.07749845
0.06724146 -0.04385786 -0.05988834 -0.08330024 0.01281734 -0.024091713 -0.04969954 0.011059073
0.031025369 0.05204006 -0.016276017 0.078446664 -0.03460041 -0.025298918 -0.10759555 -0.03667
0.007999152 0.069111034 -0.031089919 0.06786697 0.017749595 -0.016905405 0.03539241 0.02198443
0.043733265 -0.029862441 -0.060538806 0.0080175605 -0.03313951 0.05578893 -0.032530937 -0.11115445
-0.050889317 0.019929161 0.06450993 0.036345594 0.026136408 0.08112048 -0.010918798 0.04279142
0.02235947 0.08747441 -0.05715694 0.054187186 -0.008424601 -0.02714339 0.033935204 -0.01705631
-0.08064152 -0.08379367 0.02518732 0.013743111 -0.038302127 0.08349201 -0.0071199336 -0.012788225
-0.0054971743 0.05548168 -0.026562503 -0.0029766161 -0.054861937 -0.021914218 -0.00159813 0.009153854
0.036787055 0.038168095 -0.03283009 0.0449729 -0.1058568 -0.070495054 0.021248173 -0.06358805
0.022483064 0.09912047 -0.0012379076 0.07811142 -0.009235542 0.0003148378 -0.06826335 0.016137473
-0.011993106 0.0070869643 -0.03565221 0.008611838 -0.03430512 0.0037784725 -0.002994006 0.03493783
-0.007960561 0.008048022 0.059773244 0.00511103 -0.109670594 0.037683174 -0.092202395 -0.040777612
0.0505607 0.037080742 0.055336535 -0.062610924 0.016081655 0.047070816 -0.04715136 0.070476
-0.035694495 -0.056202285 -0.006801911 0.055027556 -0.08164007 -0.050071236 -0.0058968747 0.041937843
-0.038754325 -0.10494112 -0.094879955 -0.096699685 0.04816308 -0.047729336 -0.0799097 0.013792098
0.07861377 0.062194586 -0.08627125 0.04772403 -0.05066046 -0.07056348 -0.013114039 -0.05778271
00000000: 94a2 adbc d687 853d a329 d7bc 78c4 7cbd
00000010: a14a 933c b5de c7bd a8bf 71bd 7653 9ebd
00000020: de44 643c e54e 0e3c 9da9 ca3c d33e 2d3c
00000030: c749 53bd 7644 6cbd e6fc c2ba f2fa 0e3d
00000040: 08d4 fcba b37a 253d cd19 0cbd cb46 783c
00000050: 0284 e73d 1650 d83d 22d8 cfbc 614c 903a
00000060: 1480 893c c385 8d3c eb15 b3bd 2a7b 8cbd
00000070: c2f8 243c 397f 8fbd 0f08 10bd 8b8b 903d
00000080: f08f 553d 8b5d d53b cd07 973d 9bb7 873c
00000090: 0592 0d3d b394 8abd 0523 b8bd 1468 9abd
000000a0: 38cc 01be f15a d9bc 1e48 d6bd 2221 35bc
000000b0: 99d3 e8bd aaa0 31bd f0ad 6f3d 105f 2f3d
000000c0: 4a49 96bd 96a0 463d ceeb c9bc 2b99 483d
000000d0: 7fe4 c13c befb b6b9 9015 6bbd 938a 6b3d
000000e0: 8a60 96bd 0c2e 743d c3e9 83bd 0292 5d3d
000000f0: 2d1c 313d 4daf d13c b0b8 ad3c a2ad a2bd
00000100: b6ad 433d 365b ccbd 364f 863c c541 d7bd
00000110: 229e b7bd ff71 1a3c d444 f53c d2b2 5c3c
00000120: 039a b0bc 1647 3fbc 6852 60bd f3c1 afbd
00000130: d252 c1bd 1f3a a43a b18f 083d 6841 6b3c
00000140: 5785 1fbd 08c0 ac3d 2009 1b3d 2f77 27bd
00000150: c640 43bc b5e7 0e3c 6d42 db3c 3dcb 653d
00000160: cdc9 003d 8acb a23d 0b3b 0f3d ca4f c03c
00000170: 4c6f 313d c021 c93c 04f5 a63d 4ab0 163d
00000180: 363a 84bd 0686 e03c a9e2 463d 48ed 80bd
00000190: 664c e4bc 8562 1d3d 2909 873d 56a1 a93d
000001a0: bd8c 023d a818 31bd 81a8 afbc e0d3 57bd
000001b0: 3074 7f3a ebb9 38bd 321e e4bb a05f 9dbd
000001c0: 8562 b2bb 5501 53bd 4982 bdbd bfb4 53bd
000001d0: 6486 7fbd 7966 19bd ba0f c7bd d1a0 04be
000001e0: 6aab e8bd 1ba7 973b 1e4c 95bc f27b 09bd
000001f0: d812 d6bd ab10 5e3c 2ed1 9dbc 82b7 9ebd
00000200: e4b5 893d 4da4 33bd 7a4d 75bd 5199 aabd
00000210: d2ff 513c fc5b c5bc bf91 4bbd 1d31 353c
00000220: ea28 fe3c f527 553d 4855 85bc a5a8 a03d
00000230: 29b9 0dbd ad3f cfbc 0e5b dcbd 4833 16bd
00000240: e00e 033c 168a 8d3d 49b0 febc d7fd 8a3d
00000250: 9967 913c 347d 8abc a2f7 103d b118 b43c
00000260: a721 333d 14a2 f4bc 8af7 77bd 165c 033c
00000270: 4bbd 07bd ef82 643d 293f 05bd f2a4 e3bd
00000280: 5171 50bd 7b42 a33c c81d 843d 1edf 143d
00000290: 051c d63c 7f22 a63d c2e4 32bc 0e46 2f3d
000002a0: 352b b73c c925 b33d 651d 6abd 62f3 5d3d
000002b0: 5607 0abc d15b debc a4ff 0a3d adb9 8bbc
000002c0: 6227 a5bd 049c abbd a355 ce3c c92a 613c
000002d0: b1e2 1cbd dcfd aa3d 554e e9bb b485 51bc
000002e0: a421 b4bb c240 633d 9b99 d9bc 5513 43bb
000002f0: e9b6 60bd 7285 b3bc 5878 d1ba 0cfa 153c
00000300: 06ae 163d 2656 1c3d d878 06bd 8135 383d
00000310: 73cb d8bd b65f 90bd a610 ae3c 743a 82bd
00000320: 672e b83c acff ca3d 4941 a2ba e1f8 9f3d
00000330: ac50 17bc d010 a539 a8cd 8bbd bc32 843c
00000340: bc7e 44bc c439 e83b 0d08 12bd ab18 0d3c
00000350: 8783 0cbd 40a0 773b 1637 44bb f81a 0f3d
00000360: 036d 02bc dadb 033c cad4 743d 6d7a a73b
00000370: fa9a e0bd ac59 1a3d 9cd4 bcbd 6d06 27bd
00000380: bd18 4f3d fae1 173d 90a8 623d 283a 80bd
00000390: adbd 833c 54cd 403d c921 41bd b955 903d
000003a0: 6434 12bd 5e34 66bd 91e2 debb 9364 613d
000003b0: e932 a7bd 7f17 4dbd 923a c1bb 04c7 2b3d
000003c0: dbbc 1ebd 5feb d6bd 6c50 c2bd 7c0a c6bd
000003d0: a646 453d d67f 43bd b2a7 a3bd 40f8 613c
000003e0: 4200 a13d c0bf 7e3d fbae b0bd 467a 433d
000003f0: 5881 4fbd 9683 90bd 44dc 56bc 90ad 6cbd

features.4.bias f4 [64]
0.06997716 0.06261953 0.018284623 -0.06884715 -0.060333166 -0.032146666 0.046119906 -0.026642371
-0.025888346 -0.0036960097 0.037754845 0.11887616 -0.036449842 0.010613438 0.027564459 0.03740451
0.037044194 0.016717136 -0.08852327 -0.0969429 0.0581443 -0.088517115 -0.020001875 -0.039795134
-0.035322044 -0.022496594 0.014622352 -0.06461297 0.06053665 -0.011775003 0.023815894 0.037983242
-0.082029596 0.08040588 -0.048351966 0.080339655 -0.022824373 -0.048939884 -0.03475373 -0.08467194
0.0014782062 -0.008500815 0.06246807 -0.09460765 0.09311754 -0.016140774 0.05435762 0.021821648
-0.038162064 0.004721343 -0.038491286 -0.0012672716 0.08995669 0.043934472 0.019870074 0.015504852
-0.02836941 0.12812376 0.0798242 0.031883284 0.07240698 -0.11034514 0.013322108 0.066359684
00000000: 2f50 8f3d ab3e 803d a2c9 953c bcff 8cbd
00000010: e91f 77bd 39ac 03bd 3ae8 3c3d 1a41 dabc
00000020: cc13 d4bc c138 72bb d3a4 1a3d 5875 f33d
00000030: 6e4c 15bd fce3 2d3c dcce e13c 7935 193d
00000040: a7bb 173d 60f2 883c b04b b5bd 008a c6bd
00000050: b828 6e3d 7648 b5bd f9da a3bc 3900 23bd
00000060: d9ad 10bd c74a b8bc 9792 6f3c ce53 84bd
00000070: 47f5 773d f1eb 40bc 8d19 c33c 5194 1b3d
00000080: 22ff a7bd d7ab a43d b60c 46bd 1e89 a43d
00000090: 2efa babc 3075 48bd ed59 0ebd 7b68 adbd
000000a0: 5fc0 c13a 0147 0bbc 85de 7f3d a8c1 c1bd
000000b0: 69b4 be3d a839 84bc 19a6 5e3d 50c3 b23c
000000c0: d34f 1cbd 7fb5 9a3b 0aa9 1dbd 941a a6ba
000000d0: 373b b83d a2f4 333d 91c6 a23c 1008 7e3c
000000e0: f766 e8bc e032 033e df7a a33d 0c98 023d
000000f0: 1c4a 943d a2fc e1bd f944 5a3c 96e7 873d

features.5.weight f4 [64]
0.98708093 0.9074856 1.0312579 1.0329933 0.9866933 1.0175155 1.00985 1.066512
0.984042 1.021352 0.9690614 1.0170268 0.9865087 0.9564606 1.0673586 0.9978263
0.988484 1.0424607 1.0001141 1.011503 0.9647066 0.9993545 1.0063169 0.90685385
1.0047262 0.9549688 0.96688026 0.94464624 0.9593944 1.0513676 0.9671485 0.9300464
0.9967103 1.026136 1.0423257 1.030691 1.0319113 0.9849662 0.96575886 0.98719233
1.0643342 1.0348343 0.97277856 0.9553977 1.1227057 0.9814762 0.9515247 1.0235531
0.95048225 1.021396 0.9472284 1.0185713 0.9648622 1.0051638 1.0112845 1.0043997
1.0002046 0.99033123 1.0236082 1.01816 0.9789987 1.0028937 1.006983 1.0641762
00000000: 56b1 7c3f fa50 683f 4200 843f 2039 843f
00000010: ef97 7c3f f33d 823f c442 813f 7783 883f
00000020: 2dea 7b3f aabb 823f 6814 783f ef2d 823f
00000030: d68b 7c3f 9ada 743f 359f 883f 8b71 7f3f
00000040: 4a0d 7d3f 5a6f 853f bd03 803f ee78 813f
00000050: 03f7 763f b2d5 7f3f fece 803f 9327 683f
00000060: de9a 803f d678 743f 7785 773f 56d4 713f
00000070: df9a 753f 3793 863f 0b97 773f 8517 6e3f
00000080: 6828 7f3f 6d58 833f ee6a 853f afed 833f
00000090: ab15 843f bf26 7c3f f93b 773f a3b8 7c3f
000000a0: 1a3c 883f 7375 843f 0408 793f f294 743f
000000b0: d2b4 8f3f 0642 7b3f 1f97 733f ca03 833f
000000c0: ce52 733f 1bbd 823f 8f7d 723f 8b60 823f
000000d0: 3601 773f 35a9 803f c571 813f 2b90 803f
000000e0: b406 803f 5986 7d3f 9805 833f 1153 823f
000000f0: a99f 7a3f d25e 803f d2e4 803f ed36 883f

features.5.bias f4 [64]
0.059919436 -0.06355897 0.13186273 0.018674724 -0.049906295 0.03129181 -0.0014524292 0.102461815
-0.0025381623 0.016666105 -0.008032713 0.006536093 0.045104135 -0.02303606 0.0068356306 -0.0009157597
-0.012995377 0.04340644 -0.0052227764 0.0065481397 0.018349413 0.010309355 0.0023275497 -0.080190934
0.036958702 -0.023478191 0.022051608 -0.0005986391 -0.03785147 0.07192359 -0.118212156 0.029895231
-0.06673052 0.019108677 -0.013011242 -0.043015078 -0.025825832 -0.028359389 0.08914869 -0.007837216
0.007823656 0.021226784 0.0091513805 -0.041443203 0.12474247 0.03187592 -0.076800175 -0.0014699366
-0.020027282 0.018156476 -0.021436322 -0.010566623 0.024456974 0.017645344 0.025238255 -0.0131797185
-0.056506578 -0.035215557 0.037414853 -0.0017972484 -0.024459826 -0.0753783 0.09277703 0.042040724
00000000: 156e 753d 352b 82bd 0607 073e bcfb 983c
00000010: 8b6a 4cbd d72b 003d 705f beba 80d7 d13d
00000020: 4c57 26bb 5b87 883c a49b 03bc b92c d63b
00000030: 1dbf 383d 1fb6 bcbc 6dfd df3b 980f 70ba
00000040: 90ea 54bc f4ca 313d d323 abbb c791 d63b
00000050: 8251 963c 92e8 283c ce89 183b 253b a4bd
00000060: 0262 173d 5655 c0bc 93a5 b43c fded 1cba
00000070: 250a 1bbd ad4c 933d 3719 f2bd d8e6 f43c
00000080: 03aa 88bd cd89 9c3c 1b2d 55bc 9430 30bd
00000090: b290 d3bc f351 e8bc 9793 b63d ab67 00bc
000000a0: cb2e 003c cbe3 ad3c acef 153c 59c0 29bd
000000b0: fb78 ff3d 5390 023d 6949 9dbd e3aa c0ba
000000c0: 4110 a4bc e4bc 943c 3a9b afbc a11f 2dbc
000000d0: fe59 c83c f88c 903c 75c0 ce3c bfef 57bc
000000e0: 7173 67bd 303e 10bd 5140 193d a691 ebba
000000f0: f95f c8bc f05f 9abd e201 be3d e532 2c3d

features.5.running_mean f4 [64]
-0.4815037 -0.64655715 -0.81756496 -0.019843524 0.091343574 -0.62811685 0.7425021 -0.76828426
-0.41630384 -0.32262573 -0.5154557 -0.44240138 -0.19494689 -0.52912945 -0.04877591 -0.24238177
-0.8595959 -0.22352247 -0.050823744 -0.06863922 -0.6537665 -0.3127269 -0.5784474 0.9405772
-0.62351716 -0.6659928 -0.44559413 0.41919073 0.77304465 -0.1404842 0.93336535 -0.36564216
0.64671683 -0.47292808 0.18079779 0.6314549 -0.33698586 -0.8410189 -0.48751724 0.020641502
0.40334347 -0.46082368 -0.18215993 0.09330574 -0.829239 -0.7504477 0.51315516 -0.7946024
-0.66361433 -0.49660066 -0.68809646 -0.31801665 -0.28861824 -0.47275826 -0.487307 -0.41090792
-0.22137982 0.79521096 -0.72212005 -0.58096 -0.55761343 -0.9833522 -0.59593356 -0.020011459
00000000: a787 f6be c584 25bf f04b 51bf e38e a2bc
00000010: 5712 bb3d 44cc 20bf 9e14 3e3f 47ae 44bf
00000020: c725 d5be 332f a5be e8f4 03bf 6f82 e2be
00000030: 28a0 47be 0775 07bf 40c9 47bd ed32 78be
00000040: 7a0e 5cbf 13e3 64be 8f2c 50bd b892 8cbd
00000050: 3e5d 27bf be1d a0be 2115 14bf abc9 703f
00000060: d29e 1fbf 817e 2abf ea24 e4be 2ba0 d63e
00000070: 41e6 453f 17db 0fbe 08f1 6e3f 7335 bbbe
00000080: 3c8f 253f a123 f2be 0e23 393e 07a7 213f
00000090: 6989 acbe 044d 57bf dc9b f9be 5e18 a93c
000000a0: 0983 ce3e 15f1 ebbe 2288 3abe 1417 bf3d
000000b0: 0249 54bf 571d 40bf 235e 033f 106b 4bbf
000000c0: a1e2 29bf 7142 febe 1727 30bf 14d3 a2be
000000d0: c5c5 93be 5f0d f2be 4e80 f9be 8662 d2be
000000e0: 64b1 62be f292 4b3f dcdc 38bf cbb9 14bf
000000f0: c1bf 0ebf f8bc 7bbf 1a8f 18bf 12ef a3bc

features.5.running_var f4 [64]
0.9301621 1.5909725 0.5254433 1.1751362 0.2484409 0.9626947 0.94568646 0.5889988
1.1352903 0.5851978 0.907269 1.5443916 0.42035624 0.71158683 0.46140125 0.28141332
0.7314884 0.69100314 0.21090063 0.5345038 0.6996056 0.74589574 0.6787261 0.90330374
1.790814 0.51345885 0.41028753 0.7602768 0.9812462 0.6111495 0.905198 0.3370661
1.3086209 0.9525706 0.27732214 0.50682926 0.55611974 1.2261986 0.31574896 0.6490675
0.44771975 0.60571504 0.27536076 0.3800706 1.738724 0.5565417 0.94267946 0.5058581
0.7046872 0.54879755 1.1478348 0.874094 0.8318155 0.51642656 1.1819818 1.2292387
0.34166545 1.1767483 0.548987 1.8278282 0.8836036 1.01017 0.83047414 0.27602473
00000000: 1a1f 6e3f fda4 cb3f 7483 063f dd6a 963f
00000010: 4b67 7e3e 2973 763f 8218 723f a0c8 163f
00000020: 3151 913f 86cf 153f c842 683f a0ae c53f
00000030: ef38 d73e 8e2a 363f c93c ec3e 6815 903e
00000040: d342 3b3f 95e5 303f 56f6 573e 3ed5 083f
00000050: 5a19 333f 06f3 3e3f fec0 2d3f ea3e 673f
00000060: 6539 e53f 0a72 033f 3511 d23e 80a1 423f
00000070: f332 7b3f 4b74 1c3f 0ebb 673f ee93 ac3e
00000080: e480 a73f abdb 733f 2bfd 8d3e 90bf 013f
00000090: dd5d 0e3f 13f4 9c3f d9a9 a13e 4a29 263f
000000a0: 863b e53e 2410 1b3f 16fc 8c3e 9d98 c23e
000000b0: 828e de3f 8479 0e3f 7153 713f eb7f 013f
000000c0: 6166 343f ff7d 0c3f 40ec 923f a0c4 5f3f
000000d0: dcf1 543f 8834 043f 2e4b 973f b257 9d3f
000000e0: c6ee ae3e b09f 963f 698a 0c3f 46f6 e93f
000000f0: d833 623f 404d 813f f499 543f 1d53 8d3e

features.8.weight f4 [128, 64, 5]
-0.033267844 -0.029663963 -0.049619727 -0.019401468 0.0033692163 -0.019776573 0.039182987 -0.029087989
-0.0033972666 0.046514116 0.035549372 -0.008827973 -0.00026793568 0.0018680507 0.023041233 -0.062237266
-0.048819598 0.045509927 -0.013812275 -0.0034560969 -0.029386159 0.0058875517 -0.024115842 -0.020340402
0.016303552 0.035845548 0.0343496 0.029996064 0.024662241 0.0018695347 -0.11097368 -0.044238847
-0.053319413 -0.05113502 0.059604898 -0.07018956 -0.045022994 -0.04044336 0.05293696 -0.027569197
0.010887681 -0.0011810694 -0.018632486 -0.023536554 -0.10855891 -0.087242596 -0.05603548 -0.034079704
0.048020583 -0.034478128 -0.03399196 0.020279998 -0.08139231 -0.07057298 -0.033646017 0.009992336
0.024144754 -0.00598892 0.084113725 0.034502137 0.012269689 -0.08623417 -0.06651285 0.036147323
0.027967334 0.001971509 0.064207554 0.024187196 0.003859631 -0.02957586 -0.11667363 -0.08467555
-0.081839725 -0.0019124219 -0.05303233 -0.023496078 -0.022869756 -0.002797934 -0.06610712 -0.01906466
-0.019640666 0.065806225 0.0038943244 0.011214679 0.065694496 -0.00032953254 0.023518022 -0.03626837
0.033905245 0.035550475 -0.01316609 -0.068865195 -0.01648949 -0.045232203 0.002053845 -0.018583272
-0.048071142 -0.07192961 -0.04596484 -0.0077507375 0.024519876 0.04094435 -0.044844463 0.03732287
0.088062 0.0058644144 0.012615674 0.0019838433 -0.012484828 0.050879523 0.06083355 0.039990097
0.010144712 -0.025361279 0.001686638 0.034199562 -0.03489895 -0.014789144 -0.010795187 0.051631767
0.024312172 -0.024376746 -0.018657345 -0.0046927906 -0.0021590942 0.03190098 -0.022678874 -0.03057055
0.023447197 -0.015949056 0.009537139 -0.07314377 -0.04758916 -0.006809098 0.0649527 -0.046287663
0.0033455004 -0.03845129 0.06616625 0.022726916 0.049076825 -0.016883655 -0.005932359 0.020989364
-0.0063368976 -0.09038528 -0.058634903 0.028120194 -0.023759004 0.0040962123 -0.005319867 0.029822152
-0.04372214 -0.053481895 -0.004559299 0.018938856 0.008384658 0.023988774 0.06412544 0.071731485
7.585932e-05 -0.06219449 0.019883486 0.026038198 0.0018020716 -0.027404724 0.009784377 -0.0022093307
0.06769344 0.1031286 -0.1169288 -0.07142554 -0.02643404 0.03457615 0.033143368 -0.10008815
-0.00821126 -0.031114915 0.04026432 0.057518985 0.02150633 0.073690355 0.031448975 -0.05114386
-0.05396966 0.0031305486 0.03873862 -0.04638823 0.061519 -0.010763836 -0.073520616 -0.01003103
0.054014016 0.064933255 0.027454043 -0.038861897 -0.04396278 0.0070619266 0.07086974 0.018076628
-0.1152106 -0.051894825 -0.045042478 -0.00330271 0.05203377 0.025521535 0.025209548 0.009676737
0.06149359 0.054278538 -0.06867184 -0.00791126 0.010724906 0.03350943 0.0037499033 -0.08357002
-0.053873714 -0.065774776 -0.01649957 0.036689106 -0.06497728 0.0063435454 -0.051133037 0.045567464
0.0032122796 0.044960745 0.0027704004 -0.046432335 0.0042793457 -0.012319601 0.051834162 0.030544052
-0.050824847 -0.060015697 0.04162742 -0.04021007 0.021220658 -0.032600794 -0.044422433 0.04881308
-0.0022033532 0.036785964 0.011868734 0.01878485 0.052010983 -0.026132204 0.0011146738 0.05389187
0.040824078 -0.03230706 0.056784827 0.049194276 -0.008133956 0.01317806 -0.044901054 -0.087405086
00000000: dd43 08bd d701 f3bc 0e3e 4bbd d4ef 9ebc
00000010: 12ce 5c3b 7b02 a2bc 577e 203d ef49 eebc
00000020: ada4 5ebb 9685 3e3d 389c 113d 34a3 10bc
00000030: b879 8cb9 61d9 f43a f8c0 bc3c 81ec 7ebd
00000040: 0ff7 47bd 9e68 3a3d e14c 62bc af7f 62bb
00000050: 3ebb f0bc 5dec c03b 968e c5bc eaa0 a6bc
00000060: 078f 853c c8d2 123d 2bb2 0c3d 4eba f53c
00000070: 7808 ca3c 2d0b f53a 2b46 e3bd cb33 35bd
00000080: 7565 5abd f472 51bd 4424 743d 8bbf 8fbd
00000090: 086a 38bd f0a7 25bd 6dd4 583d ccd8 e1bc
000000a0: 3e62 323c 1dce 9aba 28a3 98bc bbcf c0bc
000000b0: 2254 debd 3fac b2bd 7685 65bd 2997 0bbd
000000c0: 3bb1 443d f038 0dbd 273b 0bbd 3d22 a63c
000000d0: 03b1 a6bd 9188 90bd 68d0 09bd e5b6 233c
000000e0: 38cb c53c b43e c4bb d143 ac3d 1d52 0d3d
000000f0: ce06 493c 8a9b b0bd e437 88bd 370f 143d
00000100: c01b e53c 6f34 013b 407f 833d 3a24 c63c
00000110: ddf1 7c3b 1349 f2bc 96f2 eebd 606a adbd
00000120: 969b a7bd 3baa faba 6e38 59bd d97a c0bc
00000130: 5b59 bbbc 8b5d 37bb 2b63 87bd 7d2d 9cbc
00000140: 76e5 a0bc 6ac5 863d ec37 7f3b c6bd 373c
00000150: d68a 863d 1cc5 acb9 dea8 c03c 248e 14bd
00000160: 3ae0 0a3d 609d 113d 95b6 57bc 3209 8dbd
00000170: f814 87bc 6745 39bd cd99 063b f23b 98bc
00000180: 3fe6 44bd d54f 93bd a145 3cbd e6f9 fdbb
00000190: e8dd c83c 43b5 273d d4ae 37bd dedf 183d
000001a0: da59 b43d 462a c03b f9b1 4e3c 5e03 023b
000001b0: 2a8d 4cbc 0c67 503d 9a2c 793d a8cc 233d
000001c0: 0236 263c 75c2 cfbc 2e12 dd3a d714 0c3d
000001d0: 34f2 0ebd 2a4e 72bc 4cde 30bc d57b 533d
000001e0: 522a c73c beb1 c7bc 4ad7 98bc fbc5 99bb
000001f0: 977f 0dbb 9aaa 023d 0cc9 b9bc 176f fabc
00000200: 5614 c03c 98a7 82bc a941 1c3c 67cc 95bd
00000210: daec 42bd db1e dfbb ec05 853d 2298 3dbd
00000220: 2f40 5b3b 1a7f 1dbd 2c82 873d cc2d ba3c
00000230: c804 493d 974f 8abc 3c64 c2bb e3f1 ab3c
00000240: c0a5 cfbb eb1b b9bd 272b 70bd 525c e63c
00000250: 3ea2 c2bc 8539 863b 4752 aebb 964d f43c
00000260: fd15 33bd d50f 5bbd 2c66 95bb a925 9b3c
00000270: ce5f 093c 1b84 c43c 3354 833d f5e7 923d
00000280: aa16 9f38 a6bf 7ebd b1e2 a23c 0f4e d53c
00000290: 7d33 ec3a df7f e0bc a74e 203c 6bca 10bb
000002a0: dca2 8a3d 1635 d33d 5e78 efbd 8e47 92bd
000002b0: 338c d8bc b99f 0d3d 57c1 073d 04fb ccbd
000002c0: 8588 06bc b5e4 febc 33ec 243d 0799 6b3d
000002d0: 0b2e b03c f8ea 963d a4d0 003d 397c 51bd
000002e0: 4a0f 5dbd e429 4d3b 63ac 1e3d 9601 3ebd
000002f0: 59fb 7b3d cd5a 30bc fa91 96bd 3059 24bc
00000300: cd3d 5d3d bafb 843d 4de7 e03c a72d 1fbd
00000310: 5112 34bd bc67 e73b 2724 913d 7015 943c
00000320: 89f3 ebbd ab8f 54bd 767e 38bd 4772 58bb
00000330: 5d21 553d 8a12 d13c 4184 ce3c 2d8b 1e3c
00000340: b4e0 7b3d 2c53 5e3d d2a3 8cbd 3b9e 01bc
00000350: 84b7 2f3c 2f41 093d f0c0 753b c226 abbd
00000360: afaa 5cbd edb4 86bd 1b2a 87bc 5147 163d
00000370: cf12 85bd 84dd cf3b e070 51bd f3a4 3a3d
00000380: 1c85 523b c228 383d 9b8f 353b d52f 3ebd
00000390: c139 8c3b 27d8 49bc 0f50 543d 8537 fa3c
000003a0: b72d 50bd 05d3 75bd 8381 2a3d 50b3 24bd
000003b0: f2d6 ad3c 6988 05bd 4cf4 35bd 39f0 473d
000003c0: 2266 10bb e1ac 163d 1475 423c b0e2 993c
000003d0: 7809 553d 3413 d6bc 3f1a 923a b9bd 5c3d
000003e0: 2637 273d 6854 04bd 3597 683d f07f 493d
000003f0: 4944 05bc cae8 573c 2bea 37bd 7001 b3bd

features.8.bias f4 [128]
0.035431046 0.06017075 -0.029417034 -0.081878886 0.02866892 -0.03786535 0.02678463 -0.006482948
-0.00029221844 -0.08019488 -0.03270164 0.006831864 0.0069099474 0.042049114 -0.07575988 0.008410114
-0.028814863 0.06810619 0.06793108 0.03419064 0.026845668 -0.0072544203 0.038517788 -0.0039609266
-0.02002346 -0.059909232 -0.08178109 0.030912733 0.020448118 -0.029900236 -0.0468199 0.0046315817
0.08320057 -0.03266315 -0.024025666 -0.0066813547 0.019045934 -0.016519362 -0.022285378 -0.09132319
-0.008572797 -0.0060708276 -0.034169104 0.03871509 0.020668447 -0.020738505 -0.019874102 -0.069701366
-0.07219653 0.0056352154 0.012239955 -0.0092667965 0.029718028 0.055391446 -0.0121051185 0.007185053
-0.03892462 -0.02406921 -0.049168553 0.0119626075 0.045201503 -0.06273609 -0.026336888 -0.020913303
-0.0005731147 0.0014973988 -0.00073747674 -0.014949108 -0.023454983 -0.046060733 -0.021602556 -0.030162806
0.022709085 0.006499104 0.025804145 -0.05720011 0.04187115 0.010042821 -0.061853357 0.08990171
0.03966716 -0.049168795 0.06751838 -0.0036010265 0.019292112 0.09899486 -0.013357074 0.037927024
0.011264886 -0.08939723 0.01661609 -0.016050436 -0.031796277 0.012064636 0.019490331 0.041683596
-0.025994077 -0.017130686 0.00879054 0.028449496 0.036718916 0.017080776 -0.06347126 0.0134734195
-0.033957113 0.043120828 0.0005388126 -0.042931113 -0.0017471616 0.03700994 -0.01908552 0.01175923
-0.02612897 0.047829673 -0.0549947 0.02430694 -0.0064395457 -0.03735675 -0.061747063 -0.0015434099
-0.024920143 0.023792842 -0.07319343 0.057090487 0.03361495 0.0071814517 0.00029141616 0.005134067
00000000: 2520 113d 9b75 763d fefb f0bc 1eb0 a7bd
00000010: 15db ea3c b218 1bbd 716b db3c e96e d4bb
00000020: e534 99b9 373d a4bd 28f2 05bd d4dd df3b
00000030: d76c e23b b13b 2c3d ff27 9bbd 93ca 093c
00000040: 260d ecbc 427b 8b3d 731f 8b3d 7c0b 0c3d
00000050: 72eb db3c 7db6 edbb d4c4 1d3d a9ca 81bb
00000060: 3d08 a4bc 6263 75bd d87c a7bd b33c fd3c
00000070: d082 a73c 57f1 f4bc 39c6 3fbd 86c4 973b
00000080: 0f65 aa3d ccc9 05bd 79d1 c4bc 44ef dabb
00000090: 3806 9c3c 9d53 87bc d38f b6bc a707 bbbd
000000a0: eb74 0cbc cbed c6bb e7f4 0bbd b793 1e3d
000000b0: e050 a93c cce3 a9bc 03cf a2bc 97bf 8ebd
000000c0: c6db 93bd 9da7 b83b 188a 483c c3d3 17bc
000000d0: 3973 f33c 24e2 623d 8c54 46bc 9870 eb3b
000000e0: 6c6f 1fbd cb2c c5bc f764 49bd d0fe 433c
000000f0: 3625 393d c77b 80bd 75c0 d7bc 6052 abbc
00000100: 143d 16ba 5e44 c43a 3a53 41ba 1aed 74bc
00000110: aa24 c0bc 2eaa 3cbd d8f7 b0bc fd17 f7bc
00000120: 6708 ba3c 70f6 d43b 3763 d33c aa4a 6abd
00000130: 1581 2b3d a58a 243c f259 7dbd 631e b83d
00000140: 087a 223d 3865 49bd 1447 8a3d 33ff 6bbb
00000150: 7e0a 9e3c d1bd ca3d a1d7 5abc 5e59 1b3d
00000160: 5b90 383c e515 b7bd 771e 883c 347c 83bc
00000170: d03c 02bd c0aa 453c 30aa 9f3c 6bbc 2a3d
00000180: 88f1 d4bc a755 8cbc 3206 103c eb0e e93c
00000190: 9366 163d fcec 8b3c 38fd 81bd 9ebf 5c3c
000001a0: 9d16 0bbd 779f 303d 1a3f 0d3a 89d8 2fbd
000001b0: 0401 e5ba bc97 173d 3d59 9cbc c9a9 403c
000001c0: 6c0c d6bc 0ce9 433d 1f42 61bd 591f c73c
000001d0: d302 d3bb 6403 19bd 7dea 7cbd 3e4c caba
000001e0: 5425 ccbc 35e9 c23c 70e6 95bd b7d7 693d
000001f0: d4af 093d 6252 eb3b 37c9 9839 ad3b a83b

features.9.weight f4 [128]
0.9588117 1.0448983 0.9540321 1.0364026 0.9705318 0.93066186 1.0044136 0.9696782
0.91107863 0.988254 1.0562489 0.9557642 0.9517326 1.0600346 1.0694913 0.95222527
0.9474754 1.0131712 0.9041951 0.9084101 0.92825633 1.0057759 0.9799651 0.92777026
1.0830811 0.9588841 1.0399492 0.96168166 0.9698625 1.0343133 0.9914131 1.0479177
0.978873 1.0389407 0.87014425 0.99954385 0.957724 0.9797849 0.996163 1.0096271
0.9939528 0.902276 0.9881648 0.89904374 0.92815864 1.0631567 0.9483172 1.0338173
1.059766 1.0341752 0.9986738 0.9964248 0.94662917 0.98784614 1.084832 0.92392206
1.0113107 0.96064943 0.99092853 0.99432147 0.8987678 0.9963223 0.88780576 0.98120946
0.9733306 0.9802408 1.0047127 0.9790803 1.0244703 0.9737071 0.8779195 0.8584287
0.9548956 0.9511453 0.92852145 0.9372495 0.9914946 0.99397105 0.9893262 1.0119094
1.0331385 0.9591654 1.0582118 0.9867771 0.9271564 1.0347832 0.98016644 0.94350016
0.9683157 1.0148801 0.9930822 1.0118479 1.0150651 1.0337107 0.9943201 0.89765084
1.0124489 1.0406339 0.9878702 0.90688384 0.9664984 0.97560894 1.0457162 0.9918005
1.0542254 0.961814 0.90697086 0.90506655 0.9425068 0.9808209 0.9352933 0.9724313
0.98992264 0.93611974 0.9834876 0.99237406 0.98388785 0.9317952 0.8598108 1.0126548
0.97859883 0.9576508 0.91516745 1.0375719 1.0359808 0.92304957 1.0381993 0.94847685
00000000: af74 753f 3abf 853f 733b 743f d7a8 843f
00000010: c674 783f db3f 6e3f a090 803f d53c 783f
00000020: 733c 693f 37fe 7c3f 2a33 873f f6ac 743f
00000030: bfa4 733f 37af 873f 17e5 883f 09c5 733f
00000040: bf8d 723f 98af 813f 5479 673f 908d 683f
00000050: 35a2 6d3f 44bd 803f fede 7a3f 5a82 6d3f
00000060: 67a2 8a3f 6e79 753f 0e1d 853f c530 763f
00000070: e948 783f 6164 843f 40cd 7d3f 2b22 863f
00000080: 6c97 7a3f 02fc 843f c6c1 5e3f 1be2 7f3f
00000090: 662d 753f 2fd3 7a3f 8a04 7f3f 763b 813f
000000a0: b173 7e3f 8ffb 663f 5ef8 7c3f bb27 663f
000000b0: ce9b 6d3f 8515 883f ebc4 723f 2054 843f
000000c0: 6aa6 873f da5f 843f 16a9 7f3f b215 7f3f
000000d0: 4a56 723f 7ce3 7c3f c6db 8a3f 2886 6c3f
000000e0: a172 813f 1fed 753f 7ead 7d3f da8b 7e3f
000000f0: a615 663f fa0e 7f3f 3d47 633f 8b30 7b3f
00000100: 322c 793f 10f1 7a3f 6d9a 803f 02a5 7a3f
00000110: d821 833f de44 793f 55bf 603f fcc1 5b3f
00000120: 0a74 743f 427e 733f 95b3 6d3f 95ef 6f3f
00000130: 97d2 7d3f e374 7e3f 7b44 7d3f 3f86 813f
00000140: e23d 843f dd8b 753f 7c73 873f 6d9d 7c3f
00000150: 1f5a 6d3f c773 843f 30ec 7a3f 3a89 713f
00000160: 8ae3 773f 97e7 813f a33a 7e3f 3b84 813f
00000170: a7ed 813f a250 843f c38b 7e3f 72cc 653f
00000180: ed97 813f 7e33 853f 10e5 7c3f 8a29 683f
00000190: 706c 773f 82c1 793f 07da 853f a3e6 7d3f
000001a0: dcf0 863f 7139 763f 3e2f 683f 71b2 673f
000001b0: 2048 713f 1417 7b3f 626f 6f3f 42f1 783f
000001c0: 926b 7d3f 8ba5 6f3f d8c5 7b3f 3a0c 7e3f
000001d0: 13e0 7b3f 218a 6e3f 901c 5c3f ac9e 813f
000001e0: 7485 7a3f 9a28 753f 6a48 6a3f 28cf 843f
000001f0: 059b 843f fa4c 6c3f b7e3 843f 61cf 723f

features.9.bias f4 [128]
-0.0981671 -0.033258 -0.06080624 0.025367193 -0.069854975 -0.10939396 -0.14389388 -0.12241076
-0.116442785 -0.122860454 -0.10340866 -0.11594886 -0.098106906 -0.08636599 -0.008956249 -0.062825136
-0.054218266 -0.06855031 -0.11890565 -0.064682774 -0.049657833 -0.10938023 -0.04714348 -0.034922346
-0.13848273 -0.04580935 -0.06079211 -0.21811758 -0.10638944 -0.0126608 -0.019970853 -0.15701587
-0.122161046 -0.052762818 -0.13303883 -0.04391372 -0.051168285 -0.13935378 -0.07480354 -0.04755886
-0.10877632 -0.058440935 -0.035985887 -0.09439563 -0.045405485 -0.015954947 -0.19161709 -0.11652973
-0.13853964 -0.068867475 -0.08086639 -0.13234027 -0.16567798 -0.066138186 -0.00084073003 -0.061178505
-0.08806595 -0.08138266 -0.07205554 -0.048453145 -0.0850032 -0.20725212 -0.08677086 -0.07344961
-0.12913989 -0.21748568 -0.11582117 -0.03856955 -0.05919929 -0.052494064 -0.1816515 -0.07700644
-0.020245356 -0.064153165 -0.104433335 -0.05262075 -0.08643841 -0.054727606 -0.13991173 -0.06129399
-0.14209184 -0.045439284 -0.0823374 -0.05997656 -0.08214238 -0.109368645 -0.032685656 -0.05291516
-0.032589454 -0.056887202 -0.040058665 -0.062458176 -0.043787964 -0.18783556 -0.03918469 -0.07457877
-0.08513829 -0.17464133 -0.032984056 -0.0651399 -0.041007966 -0.124818906 -0.18445852 -0.13182358
-0.13018617 -0.049458876 -0.1405472 -0.051012836 -0.16744234 -0.060588937 -0.06832266 -0.084047556
-0.07259302 -0.100239135 -0.07500581 -0.093218125 -0.1440659 -0.17556994 -0.11743647 -0.14209224
-0.045640375 -0.066659875 -0.10331647 -0.1127773 -0.11242285 -0.09385403 -0.029280318 -0.086928494
00000000: d50b c9bd 8a39 08bd f70f 79bd dcce cf3c
00000010: 2010 8fbd f109 e0bd eb58 13be 7eb2 fabd
00000020: 8e79 eebd 439e fbbd ebc7 d3bd 9976 edbd
00000030: 46ec c8bd a7e0 b0bd 3bbd 12bc 77aa 80bd
00000040: f913 5ebd 1b64 8cbd ce84 f3bd 6778 84bd
00000050: 0366 4bbd be02 e0bd 8619 41bd bc0a 0fbd
00000060: 6bce 0dbe 96a2 3bbd 2601 79bd 375a 5fbe
00000070: b5e2 d9bd 3e6f 4fbc ea99 a3bc c5c8 20be
00000080: 922f fabd d31d 58bd 553b 08be dfde 33bd
00000090: d695 51bd c2b2 0ebe 9932 99bd 14cd 42bd
000000a0: 1fc6 debd c35f 6fbd f065 13bd 7f52 c1bd
000000b0: 1afb 39bd f3b3 82bc 4537 44be 24a7 eebd
000000c0: 56dd 0dbe 640a 8dbd 479d a5bd 3584 07be
000000d0: 7da7 29be 7573 87bd 7064 5cba 5096 7abd
000000e0: ec5b b4bd f4ab a6bd db91 93bd ce76 46bd
000000f0: 2816 aebd e639 54be ecb4 b1bd c06c 96bd
00000100: 3f3d 04be 91b4 5ebe a633 edbd 1bfb 1dbd
00000110: f47a 72bd 0404 57bd da02 3abe 8db5 9dbd
00000120: 97d9 a5bc bc62 83bd 25e1 d5bd db88 57bd
00000130: 9f06 b1bd 0e2a 60bd 0545 0fbe 680f 7bbd
00000140: 8680 11be 8b1e 3abd 83a0 a8bd fba9 75bd
00000150: 443a a8bd abfc dfbd 65e1 05bd 91bd 58bd
00000160: 857c 05bd 8e02 69bd 8e14 24bd 25d4 7fbd
00000170: 025b 33bd f757 40be 2080 20bd c1bc 98bd
00000180: fc5c aebd 2dd5 32be 4a1a 07bd 1168 85bd
00000190: f8f7 27bd 0ea1 ffbd b2e2 3cbe c3fc 06be
000001a0: 864f 05be 6495 4abd 9beb 0fbe d6f2 50bd
000001b0: 0176 2bbe 1b2c 78bd c0ec 8bbd 2021 acbd
000001c0: a6ab 94bd 2d4a cdbd a59c 99bd 25e9 bebd
000001d0: 0386 13be 9bc8 33be 8882 f0bd a180 11be
000001e0: 67f1 3abd f984 88bd 9697 d3bd c9f7 e6bd
000001f0: f43d e6bd 8b36 c0bd 47dd efbc 9107 b2bd

features.9.running_mean f4 [128]
-0.35778868 -1.8091594 -0.78926146 -1.8548025 -0.45228335 1.2847505 1.0844122 -0.52505887
-0.2131143 -0.25123733 -0.15124896 0.90232563 -0.8279037 -0.13113187 -1.8841883 -0.03609509
-0.22743542 -0.3141235 -0.4618333 -0.52125597 -0.5309455 -0.8803469 -0.63864756 -0.5545963
-0.14137687 -1.5342064 -1.2545714 0.64820385 -0.7614409 -1.440292 -1.6538739 -0.0060857483
-1.1950415 -0.094962224 -0.9983723 -0.015144061 -1.282061 -0.46263278 -0.36234537 0.09187767
-0.16149512 0.51067877 -0.8599939 -1.0682555 -0.80933404 -2.0380704 -0.93406856 -0.71353245
-0.38959852 -0.30081806 -0.084158316 -0.13700368 -0.5013968 -0.1787884 -0.6272 -1.6053452
0.09423334 0.67513204 -0.3845408 -0.05988139 1.3355961 -0.86408514 -1.1221521 -0.58895034
-0.5535441 1.0901372 0.4104717 -1.5238605 -0.09216143 -0.47772196 1.604422 -0.8267016
-0.8434047 -0.71211916 -0.64403087 -0.86478037 0.4303229 0.09578125 0.9284947 0.26354784
0.7038052 -0.23109423 -0.0326948 -0.18743828 -0.6783021 -0.68613994 -0.31760257 -1.7553524
-1.4692564 -0.26603222 -0.19055516 -0.8704509 -1.3205942 1.7336435 -0.08679695 -0.6036745
0.26816303 -0.38152635 -0.30109656 -0.81377757 -0.73063517 -0.78130835 -0.44425276 0.38041362
-0.16494915 -0.7073659 0.80258256 -0.44689927 1.2544429 -0.4871181 -0.6541572 -0.28154296
-0.54916793 0.4815063 -1.0969503 -0.33441657 -0.6140585 0.6652832 -0.2702321 -0.32713628
-0.23714933 -1.2198131 -1.6040843 0.27510303 -0.3753419 -1.2598524 -0.2214931 -0.8205875
00000000: 1430 b7be 8992 e7bf 0a0d 4abf 2b6a edbf
00000010: af91 e7be b472 a43f 05ce 8a3f 426a 06bf
00000020: a33a 5abe 2ea2 80be 02e1 1abe d0fe 663f
00000030: 7ff1 53bf 6f47 06be 152d f1bf 72d8 13bd
00000040: d5e4 68be ccd4 a0be 6a75 ecbe 0871 05bf
00000050: 0bec 07bf 6a5e 61bf 687e 23bf 06fa 0dbf
00000060: 19c5 10be e060 c4bf cc95 a0bf b0f0 253f
00000070: caed 42bf 7d5b b8bf 24b2 d3bf f56a c7bb
00000080: 1ff7 98bf 8e7b c2bd 5495 7fbf cc1e 78bc
00000090: 931a a4bf 34de ecbe 5585 b9be 5c2a bc3d
000000a0: fa5e 25be d8bb 023f 8f28 5cbf 99bc 88bf
000000b0: 8430 4fbf bf6f 02c0 1e1f 6fbf 10aa 36bf
000000c0: 7579 c7be d304 9abe 325b acbd b14a 0cbe
000000d0: 8a5b 00bf 4e14 37be 2e90 20bf f47b cdbf
000000e0: 69fd c03d 74d5 2c3f 88e2 c4be 3046 75bd
000000f0: d0f4 aa3f af34 5dbf aea2 8fbf 73c5 16bf
00000100: 11b5 0dbf 9e89 8b3f 5929 d23e dc0d c3bf
00000110: 22bf bcbd f997 f4be b35d cd3f b7a2 53bf
00000120: 5fe9 57bf 714d 36bf 35df 24bf 3f62 5dbf
00000130: 4853 dc3e f628 c43d d4b1 6d3f beef 863e
00000140: 942c 343f f7a3 6cbe fcea 05bd d2ef 3fbe
00000150: 35a5 2dbf dea6 2fbf ce9c a2be 63af e0bf
00000160: 9810 bcbf 6035 88be e420 43be dfd5 5ebf
00000170: 3b09 a9bf 08e8 dd3f 99c2 b1bd 698a 1abf
00000180: aa4c 893e 6c57 c3be 5429 9abe ba53 50bf
00000190: e80a 3bbf d303 48bf 1975 e3be 93c5 c23e
000001a0: 6ee8 28be ee15 35bf 0d76 4d3f fbcf e4be
000001b0: 9691 a03f 8b67 f9be d976 27bf 6626 90be
000001c0: 4596 0cbf fe87 f63e de68 8cbf a638 abbe
000001d0: f032 1dbf 0050 2a3f dd5b 8abe 687e a7be
000001e0: 46d7 72be d622 9cbf a252 cdbf 4eda 8c3e
000001f0: d02c c0be d842 a1bf 16cf 62be 0612 52bf

features.9.running_var f4 [128]
0.8342948 1.5088456 1.043742 2.1189096 0.7080587 1.8725301 1.0468937 0.4230092
0.5057674 0.6641348 0.38789892 0.61365545 0.5870059 0.47287616 1.6286483 0.5889701
1.3326098 0.75641096 0.75021636 1.7361093 0.63245744 0.99230313 0.6698069 0.8186703
0.4545114 1.4612653 1.2506652 0.7939588 0.5385246 2.0162854 2.970466 0.71107465
0.697798 0.6769434 0.7993036 0.60942215 1.0109313 0.95365083 0.43712232 0.649143
0.3885677 0.48384213 0.7730891 1.5622485 1.4452573 1.8327317 1.2517065 1.0760802
0.5379665 0.26068008 0.54518884 0.59512895 0.43838227 0.6893549 0.50069207 1.5466651
0.40467647 0.881198 0.4755337 0.562625 0.7057533 0.68265194 1.3689618 0.69380254
0.95007104 0.7471202 0.58511114 1.8299869 0.40094984 0.4600804 1.5023794 0.6516917
1.3307602 0.99309516 1.124904 1.3914018 0.49417153 0.3276084 0.9720784 0.71267706
0.50695735 0.8526349 0.52709436 0.5857553 1.3544794 0.3408114 0.628149 2.099793
1.6570905 0.81905174 0.5963018 0.42213553 1.8320972 1.0397605 0.48808545 0.80108327
0.4379076 0.52037984 0.7652326 1.5446391 0.58459324 1.304593 0.5239697 0.80591613
0.50754523 0.9437133 0.7711466 1.5515177 1.7521036 0.6385292 0.57592094 0.7118996
1.0804039 0.8416301 0.80078024 0.5522149 0.73093516 0.8436518 1.0348386 0.78031933
0.72271746 1.1291558 2.1411798 0.5357948 0.56627315 1.7459632 0.45538256 0.5140549
00000000: 5894 553f da21 c13f 5699 853f 379c 0740
00000010: 5643 353f 11af ef3f 9d00 863f a994 d83e
00000020: f979 013f bd04 2a3f b09a c63e 8618 1d3f
00000030: 0546 163f d31c f23e 8c77 d03f bfc6 163f
00000040: f592 aa3f 26a4 413f 2e0e 403f d438 de3f
00000050: bbe8 213f 9407 7e3f 7778 2b3f 6094 513f
00000060: b8b5 e83e be0a bb3f cc15 a03f e240 4b3f
00000070: c0dc 093f d20a 0140 1d1c 3e40 fd08 363f
00000080: e4a2 323f 2a4c 2d3f 299f 4c3f 1703 1c3f
00000090: 3266 813f 7622 743f 7fce df3e 3c2e 263f
000000a0: 58f2 c63e 28ba f73e 2be9 453f c2f7 c73f
000000b0: 31fe b83f f496 ea3f eb37 a03f ffbc 893f
000000c0: 2cb8 093f dc77 853e 7f91 0b3f 5f5a 183f
000000d0: a473 e03e 9079 303f 5b2d 003f 1ff9 c53f
000000e0: c131 cf3e 3196 613f 2779 f33e 3108 103f
000000f0: 40ac 343f 47c2 2e3f 243a af3f 0b9d 313f
00000100: db37 733f 4543 3f3f d8c9 153f 033d ea3f
00000110: 4c49 cd3e a88f eb3e f84d c03f 44d5 263f
00000120: 5a56 aa3f 7c3b 7e3f dbfc 8f3f 7419 b23f
00000130: 0d04 fd3e 4abc a73e 21da 783f 0172 363f
00000140: f5c7 013f 4846 5a3f a8ef 063f 0ff4 153f
00000150: 955f ad3f d57e ae3e 5fce 203f 0263 0640
00000160: 8b1b d43f 60ad 513f 3ca7 183f 2622 d83e
00000170: 2982 ea3f df16 853f 56e6 f93e cb13 4d3f
00000180: 6d35 e03e 9d37 053f 49e6 433f bcb6 c53f
00000190: e7a7 153f e7fc a63f e122 063f 8550 4e3f
000001a0: 7cee 013f 3297 713f dd69 453f 2298 c63f
000001b0: ee44 e03f a676 233f 8e6f 133f 0d3f 363f
000001c0: ad4a 8a3f 1275 573f efff 4c3f f55d 0d3f
000001d0: 911e 3b3f 90f9 573f 9775 843f 02c3 473f
000001e0: 0304 393f 2d88 903f 1709 0940 d929 093f
000001f0: 47f7 103f b97b df3f e727 e93e 1a99 033f
