experiment_testing/mz-testing/checkpoints/ptbxl/500hz/cnn1d/fold_3/last.pt (torch, 628765 bytes, 26 tensors)

features.0.weight f4 [32, 12, 7]
000000 c1 d2 d5 3d 1a 0b 47 bd 94 9b a1 3d 0d d0 53 bd
       0.10440589 -0.04859457 0.07891002 -0.051712085
000010 6e 4d 20 bb 38 45 a5 3d 9e ca 18 3e 22 0b f1 bd
       -0.0024460214 0.08069843 0.14921042 -0.117697015
000020 ec 8c a8 bd c2 46 14 b9 3c ea 79 3d d4 89 94 bb
       -0.08230004 -0.00014140739 0.0610144 -0.004533032
000030 3e cd d0 bc 03 f8 17 bd 32 e5 39 3d e8 38 12 bd
       -0.025488492 -0.037101757 0.045384593 -0.0356988
000040 72 db a2 3c 14 b8 ef bd 9a 5a 45 3d b5 04 5f bd
       0.01988003 -0.11705032 0.048182108 -0.05444785
000050 55 29 88 bc 50 b3 50 bd ab 69 54 3d 68 78 9b 3d
       -0.016621271 -0.050952256 0.051858585 0.07591325
000060 dc a0 c7 3d d4 38 cb 3d 62 ba 9e bd fc 9f 03 be
       0.09747478 0.099229485 -0.077503935 -0.12853998
000070 df 16 28 3d fc 30 33 3d 03 6e f0 bd a9 e1 02 3d
       0.041037437 0.043747887 -0.11739733 0.031953488
000080 b6 8d 27 bd 3f 5e 6f 3d 40 d8 7b 3d 82 c6 86 bd
       -0.04090663 0.05843949 0.06148553 -0.06580831
000090 af 2e 01 bc 52 d9 f0 bd 1a f5 cf 3c 87 be 87 bd
       -0.007884665 -0.117602006 0.025385428 -0.06628137
0000a0 18 96 14 bc 63 c1 74 bc 03 b6 2c bd b0 c7 ac bd
       -0.009068988 -0.014938685 -0.042165767 -0.08436525
0000b0 aa 17 ed bd 08 93 b3 bd f7 ec 16 3d 0f cd bf bd
       -0.11576779 -0.08768278 0.03684708 -0.09365284
0000c0 95 f0 01 be 8f f8 cb bd da 00 8a bd b2 df fb bc
       -0.12689431 -0.09959518 -0.06738444 -0.030746315
0000d0 d0 67 0a 3e 67 7c 39 bd 91 c0 0d 3e 05 3b 6f 3d
       0.13516164 -0.045284655 0.1384299 0.058405895
0000e0 1d fd 09 3d 26 a3 9c bc 69 06 4b 3d dc eb 65 3d
       0.033688653 -0.019120764 0.04956666 0.056133136
0000f0 22 5b a2 3d 88 d6 24 bd 1b 2d a0 bd d8 15 a8 3d
       0.079275385 -0.040243655 -0.07821103 0.08207291
000100 b1 36 92 bb 1e 40 cb bd 6b 9c a4 3d 83 1d b4 3d
       -0.004462086 -0.09924339 0.08037647 0.087946914
000110 ba 93 8f 3d 61 f9 f6 3d 8f 99 8a bc 19 0c 18 bd
       0.070105985 0.12059284 -0.016918926 -0.037120912
000120 f9 1b d8 bd 19 44 0c bd b1 29 00 3c cc 07 04 bd
       -0.1055221 -0.03424463 0.00782244 -0.032234
000130 60 70 0c 3e 63 2f 04 3d c8 20 d3 3c cb 31 de 3c
       0.13714743 0.032271754 0.025772467 0.027123353
000140 1a 77 d3 bd 73 e8 33 bd 39 0a b7 3d 9a 38 bc bd
       -0.10325451 -0.043922853 0.08937497 -0.091904834
000150 69 cd 59 3d 89 24 e6 bd aa fe 0f be 37 94 87 3d
       0.05317441 -0.11237437 -0.1406199 0.066200666
000160 6e ec 8c bd 90 34 97 bc 05 12 3b 3d 08 c4 a3 3c
       -0.06881033 -0.018457681 0.04567148 0.019990936
000170 dc 32 a6 bd ce 0d 90 bb 74 41 e8 3d 82 ac 92 bc
       -0.081151694 -0.004396177 0.11340609 -0.017904524
000180 21 2c d9 3d 37 98 12 bd fb d0 c5 3c 8c 19 83 bd
       0.1060412 -0.035789695 0.024147501 -0.06401357
000190 5d 4c 83 bd 6f 43 62 3d 51 c4 da 3c 6b 9e ec 3c
       -0.064110495 0.05524009 0.02670494 0.028884133
0001a0 3a e8 83 3d 48 a8 de 3d 16 ca b3 3d 6e 4f 82 3d
       0.06440778 0.10871941 0.08778779 0.06362806
0001b0 e0 a3 09 3e 37 25 d7 3d ff da 81 bd 13 43 2b 3d
       0.1344142 0.10505145 -0.06340598 0.041812014
0001c0 39 b6 d2 3d 8c 44 8f bd 12 20 15 bd 64 fd a6 3d
       0.102886625 -0.06995496 -0.036407538 0.08153799
0001d0 ed a4 75 3c 8a 92 ae 3c c5 99 09 3d 82 c3 77 bd
       0.014992935 0.02131011 0.03359391 -0.060489185
0001e0 bf cc 07 be c4 60 01 be 9b 99 b2 3d b8 ed 1c bd
       -0.13261698 -0.1263457 0.08720704 -0.038312644
0001f0 8f 88 a7 3d 2c c8 a4 3d f5 49 80 bd fb be 42 3c
       0.08180343 0.08045992 -0.06264106 0.011886354
000200 b6 51 ed bc 67 f7 af bd f7 da 6b bc 54 71 ae bd
       -0.028969627 -0.0859211 -0.014395467 -0.085177094
000210 37 25 f6 3d 50 c6 2c 3c 87 28 f1 3c 98 6c 6e 3d
       0.12018817 0.010545328 0.02943827 0.05820903
000220 d1 36 97 bd f9 b8 84 3d e3 2a ff bd 39 20 cb 39
       -0.07383502 0.06480593 -0.12459352 0.00038743185
000230 70 30 10 be 35 56 e4 3c b4 68 64 bd 38 28 c5 bc
       -0.14080977 0.027873138 -0.055763915 -0.02406703
000240 62 d6 29 3d 99 6f 65 bb 3a 64 ac bd 53 f0 48 bd
       0.041464217 -0.0035009144 -0.08417554 -0.049057316
000250 2e c4 8f 3d ae 7c b1 bd 31 82 c5 bd d3 c7 8f bd
       0.0701984 -0.08666359 -0.09643973 -0.07020535
000260 32 99 f8 3c 78 f6 e6 3b 8b 2f 90 bc cf fb d4 bd
       0.030346487 0.0070484243 -0.017600795 -0.10399591
000270 dc 62 7b bd 15 c4 1d be cb 4a f4 bd 24 11 50 bd
       -0.061373577 -0.1540683 -0.11928328 -0.050797597
000280 62 7b 47 3d af d1 86 bd 64 67 c0 bd 84 38 69 bd
       0.04870165 -0.06582963 -0.0939472 -0.056938663
000290 fb d7 7d bd 84 0c 21 bd 1a 44 84 bd d5 73 82 3d
       -0.061973553 -0.039318576 -0.06458302 0.063697495
0002a0 f8 bd de bc a4 78 4e bd 06 6b 08 bd 2f 81 ac bd
       -0.027190194 -0.05040802 -0.03330519 -0.08423077
0002b0 ab bc 01 bd f8 cf b4 3c ba 63 94 bd 68 6e ff bb
       -0.03167407 0.022071823 -0.07245584 -0.007795144
0002c0 b4 75 85 bd c1 85 ac bc ed 39 ce bc 0d 96 5e bd
       -0.06516591 -0.021059873 -0.025174106 -0.05434232
0002d0 4d b9 0e bd 74 99 ca bd a6 29 84 3d 01 70 6b 3b
       -0.034844685 -0.0989255 0.06453256 0.0035924914
0002e0 65 29 5f 3c c8 da 50 3d bc 7b 35 bd 49 6e c0 bd
       0.013620709 0.050989896 -0.044307455 -0.09396035
0002f0 02 6d 79 3c 0c a3 4a bd 9c d9 ce bc 2c 1c 29 bd
       0.015223743 -0.0494719 -0.025250249 -0.041286632
000300 db 62 4e bd 00 ab ae bd 6b 91 9b bd 48 8a a4 3d
       -0.050387245 -0.085287094 -0.07596096 0.080341876
000310 fc 64 8c bd b0 3e bc 3d 2d 4b 8a 3d 75 16 e2 3d
       -0.06855199 0.09191644 0.0675262 0.110394396
000320 dd dc 70 bd 6e a2 0f 3e 77 99 fb 3d 02 28 bf bd
       -0.05880438 0.14026806 0.122851305 -0.09333803
000330 c7 4d 4b bd a9 07 ed 3c 30 48 01 be 4d c0 9f bd
       -0.04963472 0.028934317 -0.12625194 -0.0780035
000340 51 09 8f bd 2f 07 63 3c 31 dd 2c 3e 9f c8 0f 3d
       -0.06984199 0.013856693 0.16881253 0.035103437
000350 ed 07 15 3d 0c 81 6a 3d f6 09 d4 3d 98 7a 74 bd
       0.03638451 0.057251975 0.103534624 -0.059687227
000360 e4 8a fb 3d 63 ff b0 3c cd 37 97 3d 61 3b 3e 3d
       0.12282351 0.021606153 0.0738369 0.046443347
000370 c0 17 17 3d 3e c3 aa 3d b4 56 86 bd b4 cf bc bc
       0.036887884 0.08338021 -0.06559506 -0.02304826
000380 09 a0 4f bd c0 b6 d2 bd 1e 3e 52 3d 1b 59 82 3c
       -0.05068973 -0.10288763 0.05132877 0.01591163
000390 e3 d4 95 3d 88 fb 97 bd 07 49 51 bd cd d5 44 3d
       0.073159955 -0.07421023 -0.051095035 0.04805546
0003a0 a9 f2 12 be 4d 17 f5 bc 3b 50 82 bd 47 af 7a bd
       -0.1435038 -0.029918337 -0.06362959 -0.061202314
0003b0 f4 88 3e bd a8 ae 9a bd 8e 9a fb bd de d6 a3 3d
       -0.046517327 -0.07552844 -0.12285338 0.07999967
0003c0 0e b0 85 3c c9 12 77 3d 18 47 00 3e ff 36 bd bc
       0.016319301 0.06032065 0.1252712 -0.023097513
0003d0 05 be 4c bd a5 dc be 3c 49 72 ae bd d8 9d 11 3d
       -0.049985904 0.02329857 -0.08517892 0.035550922
0003e0 fe 8b 82 bc d6 e0 03 3e a5 a0 1a 3d 0e 32 88 3d
       -0.015935894 0.12878737 0.03775086 0.06650172
0003f0 8d 68 ae 3a 83 f6 15 bd 5c f7 18 3d d8 ff 86 bc
       0.0013306305 -0.036612045 0.037345275 -0.016479418

features.0.bias f4 [32]
000000 91 f5 86 3d b1 62 38 bc f0 e7 a3 3c 84 25 a1 bd
       0.06589807 -0.011253999 0.020008057 -0.07868484
000010 f4 a3 ae 3d 39 a9 8e bd 91 11 6b 3d 07 88 bb bb
       0.08527365 -0.069658704 0.0573898 -0.005723003
000020 89 3f 93 3c 81 57 04 be f3 a3 bf 3d 36 c6 eb 3d
       0.017974632 -0.12924005 0.09357443 0.11512415
000030 f0 31 4a bd ae 82 2a bd 97 53 b7 3d 32 b6 a3 bd
       -0.04936403 -0.041628532 0.0895149 -0.079937354
000040 21 99 7c 3d 84 62 1e bd bc cf c2 3c 67 c0 03 bd
       0.061669473 -0.03866817 0.023780696 -0.03216591
000050 3b 14 38 3d 1e 05 db 3d 58 cf 08 3d 37 be ee 3c
       0.04494117 0.106943354 0.033400863 0.029143436
000060 b6 a3 83 bd 86 52 bb bd 34 fd 9f 3d 1b 83 5f 3d
       -0.0642771 -0.091465995 0.078119665 0.05456839
000070 cb de 68 3a 12 eb be 3d a2 61 a9 3d ba c4 50 3d
       0.00088832964 0.0932218 0.08270575 0.050968863

features.1.weight f4 [32]
000000 1a 3c 76 3f af 4b 82 3f 8e 66 7d 3f ec 50 7e 3f
       0.9618546 1.0179347 0.9898461 0.99342227
000010 57 02 89 3f f3 e8 80 3f b4 59 7e 3f ff 4a 82 3f
       1.0703839 1.007109 0.99355626 1.0179137
000020 c1 73 84 3f 0d be 83 3f 00 15 7f 3f ef f6 7f 3f
       1.0347825 1.0292374 0.9964142 0.99986166
000030 8f 52 81 3f 3d 04 83 3f ad 94 81 3f 53 00 80 3f
       1.010332 1.0235668 1.0123497 1.0000099
000040 b2 36 7e 3f b8 17 7e 3f 96 81 7d 3f 64 17 7e 3f
       0.9930221 0.9925494 0.9902586 0.9925444
000050 21 7e 80 3f 37 f0 83 3f 6d 2f 7e 3f 15 3c 84 3f
       1.0038491 1.0307683 0.99291116 1.0330836
000060 32 31 7c 3f 58 eb 7f 3f dc c5 74 3f 45 56 7f 3f
       0.98512566 0.9996848 0.9561441 0.9974101
000070 0e 1f 7f 3f 78 ef 75 3f 72 ad 7c 3f 23 50 7a 3f
       0.9965676 0.96068525 0.98702157 0.9777853

features.1.bias f4 [32]
000000 d7 9c e9 ba b4 db 14 3d f5 bc fe bb 33 fe be 3d
       -0.0017823231 0.036342338 -0.0077739903 0.093258284
000010 55 d8 1f 3d b9 d0 ee 3b ec a9 6b 3d 3a cf 6c 3d
       0.03902467 0.0072880653 0.057535097 0.057814814
000020 79 92 51 3d 4d db 06 3c 56 46 c6 bc 0e 13 c1 3c
       0.051165078 0.008230996 -0.02420346 0.023568656
000030 07 3f e8 3d 37 b8 3d 3d ae fb 3b 3c 5c d1 d7 3b
       0.113401465 0.04631826 0.011473579 0.006586237
000040 44 3b 88 bc 75 8c eb 3b 19 4c 0a 3d 9c 17 85 3d
       -0.016629823 0.0071883746 0.03376398 0.06498644
000050 0c 69 64 3d 6a 07 cb 3d 55 97 22 3d 65 4c 39 3d
       0.055764243 0.099135235 0.039695103 0.04523887
000060 a4 c3 56 bd 52 97 92 3d c4 ef 20 bc 45 a7 20 bc
       -0.05243267 0.07157768 -0.00982279 -0.009805505
000070 7f 38 fa 3b a8 97 ba 3c bd 4f ab 3d 62 66 74 bd
       0.0076361294 0.022777393 0.08364818 -0.059667952

features.1.running_mean f4 [32]
000000 45 ed 86 3d d7 66 38 bc 23 f8 a3 3c 20 2e a1 bd
       0.06588224 -0.011254988 0.020015782 -0.07870126
000010 b5 98 ae 3d 3d b1 8e bd 6d 0c 6b 3d e4 f1 ba bb
       0.0852522 -0.06967399 0.057384897 -0.005705105
000020 a2 39 93 3c a1 53 04 be a2 a1 bf 3d 43 cb eb 3d
       0.017971817 -0.12922527 0.09357001 0.115133785
000030 f6 39 4a bd 13 71 2a bd ea 53 b7 3d c8 b0 a3 bd
       -0.049371682 -0.041611742 0.08951552 -0.07992703
000040 8b 90 7c 3d 0a 5a 1e bd fd b1 c2 3c 5e a1 03 bd
       0.061661284 -0.038660087 0.023766512 -0.032136314
000050 0e 24 38 3d 20 06 db 3d 1c e3 08 3d f9 6b ee 3c
       0.04495626 0.106945276 0.033419713 0.02910422
000060 7d 9e 83 bd 76 52 bb bd 31 fa 9f 3d 91 0c 60 3d
       -0.064267136 -0.091465876 0.07811392 0.054699484
000070 63 3d 6a 3a d7 f8 be 3d b6 66 a9 3d c4 ab 50 3d
       0.0008935539 0.09324806 0.08271544 0.05094506

features.1.running_var f4 [32]
000000 0d 3b 07 3f 57 ad d6 3f 44 37 3f 3f df cc 0d 3f
       0.5282448 1.6771649 0.74693704 0.55390733
000010 6a 08 a8 3f bc 26 b1 3e 36 58 33 3f 89 a3 4f 3e
       1.3127568 0.34599864 0.70056474 0.20277227
000020 19 3f b1 3e 7d 2b 91 3f 0f 70 00 3f f0 48 93 3f
       0.34618452 1.1341397 0.5017099 1.1506634
000030 8b 00 35 3f 64 de 32 3f 2f 71 68 3e d4 63 7d 3e
       0.70703954 0.6987059 0.22699426 0.24745113
000040 94 07 45 3f 63 84 24 3f 92 dc 81 3f 41 0e ec 3f
       0.7696469 0.64264506 1.0145438 1.844185
000050 36 bd b7 3e a7 83 b5 3e 71 12 c1 3e d0 13 3d 3f
       0.35886544 0.35452005 0.37709382 0.73858356
000060 a4 04 b6 3e 94 d2 3c 3f 8f 50 e3 3f e8 7b 19 3f
       0.35550416 0.73758817 1.775896 0.5995469
000070 e9 2b 39 3e 2d 61 2f 3f 0b 77 9e 3e 36 d1 37 3f
       0.18083157 0.68507653 0.30950198 0.71803606

features.4.weight f4 [64, 32, 5]
000000 ff 5f 97 bc 53 ea 8a 3d b8 bc c3 bc d1 4d 70 bd
       -0.018478392 0.06782975 -0.023893699 -0.05866796
000010 8f 25 a9 3c c3 61 cc bd 71 09 7a bd 8b b7 a0 bd
       0.020647792 -0.09979584 -0.06104416 -0.07847508
000020 3b 79 6e 3c aa 21 28 3c 6e e7 ca 3c cf 2b 36 3c
       0.014555271 0.010261932 0.024768557 0.011118843
000030 cf dc 4f bd 02 8f 68 bd f9 98 8f ba b1 e7 11 3d
       -0.05074769 -0.056777008 -0.0010955624 0.03562135
000040 a6 64 c3 ba bd d8 29 3d 04 f7 04 bd 9e c7 8d 3c
       -0.0014907315 0.041466463 -0.032462135 0.017307099
000050 ea 8a e3 3d b3 d0 d5 3d 6e 34 d3 bc ff 43 ec 3a
       0.1111048 0.10440197 -0.025781836 0.0018025636
000060 51 a8 94 3c c4 c6 93 3c 38 1c b0 bd c2 19 89 bd
       0.018146666 0.018039115 -0.08599132 -0.06694366
000070 8f 4e 49 3c 9d c6 8b bd 04 7c 0d bd 70 21 93 3d
       0.012286796 -0.06824992 -0.0345421 0.07184112
000080 ff 4a 5d 3d f3 72 0c 3c 95 fc 9b 3d 36 41 80 3c
       0.0540266 0.008572328 0.076165356 0.015656095
000090 4e 58 0f 3d 3b fd 88 bd d2 cd b9 bd 08 a9 9d bd
       0.034996323 -0.06688925 -0.0907246 -0.07698256
0000a0 0b 90 00 be 31 bd d0 bc 62 4c d3 bd c7 88 0d bc
       -0.12554948 -0.025480838 -0.10317303 -0.008638567
0000b0 03 e0 e5 bd 40 4f 37 bd 65 38 6b 3d 6b 14 2c 3d
       -0.112243675 -0.044753313 0.05742683 0.04201166
0000c0 d5 77 97 bd 1b 01 46 3d a2 03 cc bc 05 94 49 3d
       -0.07395903 0.048340898 -0.024904076 0.049213428
0000d0 10 34 ca 3c 44 44 1e 3a 69 90 66 bd 49 80 6b 3d
       0.024683028 0.0006037394 -0.056290064 0.05749539
0000e0 34 39 96 bd df 2c 74 3d 0f 59 83 bd 22 38 60 3d
       -0.073351294 0.059613105 -0.06413471 0.054741032
0000f0 41 5b 30 3d 22 24 d3 3c dc 10 b2 3c cd e9 a0 bd
       0.043055777 0.025774065 0.021736555 -0.07857094
000100 d2 ef 47 3d 2c 29 d0 bd ef a6 71 3c 19 ee d8 bd
       0.048812695 -0.10164103 0.014749273 -0.105922885
000110 9c 70 b7 bd bc 23 2f 3c a1 42 f4 3c c9 5d 4f 3c
       -0.089570254 0.010689672 0.029816927 0.0126566375
000120 2e f1 b7 bc 78 15 43 bc ab b4 60 bd 53 ca b0 bd
       -0.02245387 -0.011906974 -0.0548598 -0.0863234
000130 d4 c8 c0 bd 95 97 95 39 bf c8 ff 3c 21 a7 50 3c
       -0.09413305 0.00028532432 0.031223653 0.012735159
000140 19 c8 23 bd df 94 ab 3d 0e 9d 18 3d ae e0 29 bd
       -0.03998575 0.08378004 0.037259154 -0.041474037
000150 0c 24 4c bc a6 1d 14 3c fe 4b dc 3c 28 47 65 3d
       -0.012459766 0.009040272 0.026891705 0.055976063
000160 cb 1f 01 3d 67 68 a5 3d 08 bd 08 3d 07 bd b6 3c
       0.03152446 0.08076554 0.0333834 0.022306932
000170 e2 9a 2e 3d 08 aa c9 3c b2 8c a8 3d 8c 90 10 3d
       0.042628177 0.02461721 0.082299605 0.0352941
000180 5c 83 86 bd 33 c6 d8 3c 55 d9 47 3d 70 5f 7a bd
       -0.065680236 0.026461696 0.04879125 -0.061126173
000190 c8 f6 ed bc 50 41 18 3d 29 92 84 3d 3f 9e a7 3d
       -0.029048339 0.03717166 0.0647319 0.0818448
0001a0 7b f6 01 3d a8 61 35 bd 72 8e bb bc 95 53 5d bd
       0.031729203 -0.044282585 -0.022895072 -0.05403479
0001b0 93 73 dc b9 70 eb 3a bd 83 66 ed bb 3c 01 9e bd
       -0.0004204778 -0.045634687 -0.0072448864 -0.07715079
0001c0 b7 c0 bf bb 23 d4 52 bd 9f 13 bf bd e1 d4 5f bd
       -0.005851831 -0.05147184 -0.09329914 -0.054646377
0001d0 06 35 83 bd f5 fb 1c bd 8a 5f c7 bd a6 89 03 be
       -0.06406598 -0.038326222 -0.097350195 -0.12845477
0001e0 fd 8d e4 bd 00 97 e5 3b 0c 7a 81 bc 98 da fc bc
       -0.111598946 0.007006526 -0.015805267 -0.030865952
0001f0 39 5d d2 bd d3 05 74 3c da 53 91 bc 8b fe 99 bd
       -0.10271687 0.014893967 -0.017740179 -0.07519253
000200 40 e2 8f 3d 81 79 28 bd 57 d7 7c bd 0a e6 ad bd
       0.07025576 -0.0411315 -0.0617288 -0.08491142
000210 2f 98 45 3c 73 04 c4 bc 5b e0 46 bd a7 20 53 3c
       0.012060209 -0.023927903 -0.048553806 0.012886203
000220 96 f4 07 3d 2c 1c 5e 3d 74 8d 5c bc 55 5e a6 3d
       0.03319224 0.054226086 -0.013461459 0.08123461
000230 98 95 0e bd d6 d7 d0 bc 5b 66 de bd 8f c5 1b bd
       -0.034810632 -0.025493544 -0.108593665 -0.038030203
000240 66 b8 d1 3b bd 83 8e 3d 76 86 f5 bc f9 25 8d 3d
       0.006400156 0.06958721 -0.029971343 0.06892008
000250 f1 75 9a 3c 15 60 83 bc 79 6e 0e 3d 0f e5 af 3c
       0.018855067 -0.016037026 0.034773324 0.021471528
000260 f2 6a 31 3d 6c 24 f0 bc ab 44 72 bd c0 b7 f5 3b
       0.04331488 -0.029314242 -0.059147518 0.0074987113
000270 78 01 0a bd 47 0f 62 3d ad b2 03 bd 70 5b e2 bd
       -0.033692807 0.05519035 -0.03215282 -0.110525966
000280 18 bf 56 bd 18 72 91 3c a0 85 7e 3d d2 22 0a 3d
       -0.052428335 0.0177546 0.062139153 0.033724613
000290 72 d2 bc 3c 5f d4 a5 3d ec 93 41 bc f8 a5 2a 3d
       0.023049567 0.08097147 -0.0118150525 0.041662186
0002a0 d0 ab af 3c 3e 4c b3 3d d9 6d 68 bd 46 ee 60 3d
       0.021444231 0.087547764 -0.056745384 0.054914735
0002b0 19 b7 ee bb 8c 13 d0 bc d0 43 14 3d a8 f1 87 bc
       -0.0072850105 -0.025399946 0.036197484 -0.016594723
0002c0 30 10 a5 bd bb 90 ac bd 08 11 c7 3c 63 f7 51 3c
       -0.08059728 -0.08426043 0.024300113 0.012815329
0002d0 d3 9f 1f bd 5e 53 a8 3d a8 bf 0a bc ee b6 63 bc
       -0.03897078 0.08219026 -0.008468546 -0.013898594
0002e0 93 fd b9 bb c7 c9 63 3d 85 35 e0 bc 8b 29 84 bb
       -0.0056759804 0.05561235 -0.02736927 -0.0040332726
0002f0 83 fd 63 bd 21 45 c0 bc 7e 81 69 bb 57 0a ee 3b
       -0.05566169 -0.023470463 -0.0035630162 0.007264416
000300 0a 20 0e 3d eb e5 11 3d 0a 85 0e bd 4e 5e 39 3d
       0.034698524 0.035619657 -0.034794845 0.04525595
000310 6f f5 d7 bd e5 c9 8e bd cb 5d b5 3c 11 c8 7f bd
       -0.105448596 -0.06972102 0.02213945 -0.062446658
000320 09 4d b1 3c 8f 8f c7 3d 71 ed 7d bb 1d 31 9a 3d
       0.021643179 0.097441785 -0.0038746262 0.07528899
000330 fc ea 40 bc 3f 86 b5 b8 2b bd 8c bd 12 42 80 3c
       -0.011774775 -8.655758e-05 -0.068720184 0.015656505
000340 ac f3 4c bc c7 9c ce 3b dd c6 16 bd 74 75 dd 3b
       -0.012509268 0.0063053104 -0.036810745 0.0067583863
000350 ec 8f 14 bd a1 e5 02 3b 72 db 9e bb e7 75 0c 3d
       -0.036270067 0.0019973295 -0.0048479373 0.034292128
000360 3e 1d 1b bc 60 5a cf 3b 04 09 6f 3d 51 10 92 3b
       -0.009467421 0.006327912 0.058358207 0.0044575115
000370 1b 95 de bd ea 22 1e 3d 9c d4 bb bd 1b ea 23 bd
       -0.10868283 0.038607515 -0.091714114 -0.040018182
000380 d3 c7 53 3d ed 89 12 3d bb eb 59 3d 11 80 84 bd
       0.05170424 0.035776068 0.053203326 -0.06469739
000390 64 19 69 3c c8 ee 3c 3d 42 49 42 bd 22 d7 90 3d
       0.014227245 0.046126157 -0.047433145 0.07072283
0003a0 6c 61 10 bd 3d e7 62 bd 4e 15 c9 bb 60 68 61 3d
       -0.03524916 -0.055396307 -0.006136573 0.05503118
0003b0 75 67 a8 bd 73 54 51 bd 25 13 da bb 0a bd 28 3d
       -0.08222858 -0.051105928 -0.0066551142 0.041195907
0003c0 8d 27 1e bd db dd d6 bd 00 d5 c2 bd 26 82 c7 bd
       -0.038611937 -0.10491534 -0.09513283 -0.09741621
0003d0 f9 80 41 3d 4e b4 3d bd 52 46 a0 bd a5 7e 76 3c
       0.04724214 -0.04631453 -0.078259125 0.015044843
0003e0 f7 f2 a2 3d b8 f1 80 3d f1 7c b3 bd 7b 5a 3c 3d
       0.07956498 0.06296104 -0.08764065 0.045984726
0003f0 af 66 56 bd 3d 1f 93 bd 30 3e 5c bc 99 65 6f bd
       -0.05234402 -0.071836926 -0.013442561 -0.0584465

features.4.bias f4 [64]
000000 a3 00 8d 3d 4f b2 7d 3d 2a a0 a5 3c b0 16 8f bd
       0.06884887 0.061937626 0.020217974 -0.06986749
000010 6e 95 70 bd c8 3b 02 bd 4b 4e 34 3d 0b 4d e0 bc
       -0.058736257 -0.031795293 0.04401998 -0.027380487
000020 98 66 ce bc 6d e3 4f bb 11 91 23 3d 3d a9 f2 3d
       -0.025195405 -0.003172125 0.039933268 0.11848686
000030 6b 2e 1a bd 0b b5 24 3c 5c a5 e9 3c 1a 6e 0b 3d
       -0.037641924 0.01005293 0.028521232 0.034040548
000040 48 f9 1a 3d cd ae 95 3c c2 88 a8 bd ca 80 c2 bd
       0.03783539 0.018271828 -0.082292095 -0.09497221
000050 c8 32 70 3d a5 1e b4 bd a8 c8 c8 bc 8c 42 28 bd
       0.05864218 -0.087949075 -0.024509743 -0.04107909
000060 d6 c6 16 bd 27 f4 9f bc 2e 1c 79 3c d5 c3 83 bd
       -0.03681072 -0.0195256 0.0152044725 -0.06433836
000070 6f 1c 7a 3d e4 5e 55 bc b7 b3 c8 3c 49 df 21 3d
       0.061062273 -0.013023112 0.024499757 0.039519582
000080 32 ae af bd 6b 61 a3 3d d3 94 4b bd 32 51 a7 3d
       -0.08578147 0.079775654 -0.049702477 0.08169784
000090 88 f6 c6 bc bb e7 44 bd 12 96 02 bd bd ad ab bd
       -0.024287477 -0.048072558 -0.0318814 -0.08382747
0000a0 76 7e 69 ba a0 3e 0f bc ac b9 83 3d 99 57 b8 bd
       -0.0008907089 -0.008742958 0.064318985 -0.09001083
0000b0 62 0c bd 3d 8c 2f 8e bc fc f1 5b 3d 7e 8d 94 3c
       0.092308775 -0.017356656 0.05369757 0.018133875
0000c0 95 1b 1b bd 3a 08 3f 3b d4 b1 1a bd 2b 0e 22 bb
       -0.0378681 0.002914919 -0.037767246 -0.0024727683
0000d0 51 3f b8 3d e7 3c 34 3d 61 54 92 3c ce 49 72 3c
       0.08996452 0.044003394 0.0178625 0.014788104
0000e0 32 2c f8 bc 92 c4 02 3e 11 93 a9 3d f8 8e 00 3d
       -0.030294511 0.12770298 0.08280004 0.031386346
0000f0 78 19 94 3d 44 49 e1 bd 6c 22 12 3c 6c e7 88 3d
       0.0723142 -0.110003024 0.00891934 0.06684765

features.5.weight f4 [64]
000000 38 f9 7c 3f 2d 1e 68 3f af f4 83 3f dd 00 84 3f
       0.9881778 0.90671045 1.0309047 1.0312763
000010 ab ec 7c 3f ba 0e 82 3f 8f 52 81 3f a3 8e 88 3f
       0.98798627 1.0160744 1.010332 1.0668529
000020 49 f7 7b 3f cb d4 82 3f 2d 03 79 3f 66 ac 82 3f
       0.984242 1.0221189 0.9727047 1.0208862
000030 b3 90 7c 3f 92 21 75 3f de 8a 88 3f be 97 7f 3f
       0.98658293 0.9575435 1.0667379 0.99840915
000040 2e cf 7c 3f a0 aa 85 3f 84 e8 7f 3f d3 ee 80 3f
       0.9875363 1.0442696 0.99964166 1.0072883
000050 52 fd 76 3f 85 0d 80 3f 69 c1 80 3f 44 e5 66 3f
       0.96480286 1.0004126 1.0059024 0.9019358
000060 17 c6 80 3f cf 2f 74 3f 0d 1a 77 3f 72 28 71 3f
       1.0060452 0.9538545 0.96524125 0.9420234
000070 42 70 75 3f 4c 81 86 3f 33 05 77 3f c9 c3 6e 3f
       0.95874417 1.0508208 0.9649231 0.93267494
000080 b2 0d 7f 3f d4 6f 83 3f c0 74 85 3f 09 02 84 3f
       0.9963027 1.0268502 1.0426254 1.0313121
000090 20 07 84 3f dc 66 7c 3f 46 07 78 3f 71 90 7c 3f
       1.0314674 0.9859445 0.968861 0.986579
0000a0 84 3f 88 3f 05 a1 84 3f ab 7d 79 3f 1b e7 74 3f
       1.0644383 1.0361639 0.9745738 0.9566514
0000b0 6a 91 8f 3f 93 e9 7a 3f 55 96 73 3f 0e e5 82 3f
       1.1216252 0.98012656 0.95151263 1.0226152
0000c0 82 8c 73 3f 8e f3 82 3f 9c f4 71 3f 0f 5b 82 3f
       0.9513627 1.0230577 0.9451387 1.0184039
0000d0 54 0d 77 3f ff b2 80 3f 1e 85 81 3f 95 d1 80 3f
       0.9650471 1.0054625 1.0118749 1.0063959
0000e0 17 88 80 3f 81 01 7d 3f 76 14 83 3f 93 2f 82 3f
       1.0041531 0.9883042 1.0240619 1.0170768
0000f0 89 83 7a 3f 13 44 80 3f c2 b9 80 3f 66 2f 88 3f
       0.97856957 1.0020775 1.0056689 1.0639465

features.5.bias f4 [64]
000000 63 58 7a 3d 6a 5a 81 bd 1f dd 07 3e 2a 81 93 3c
       0.06111945 -0.06316073 0.13267945 0.018005926
000010 a1 c4 5d bd a2 9f ed 3c ff 09 c2 3a 83 f0 cf 3d
       -0.054142598 0.029006783 0.0014804004 0.10153296
000020 86 e3 8e bb 7c 0d 61 3c d5 ec 05 bc aa c3 fc 3b
       -0.004360619 0.013736125 -0.008174141 0.0077137547
000030 72 cf 34 3d 1a a4 b8 bc 09 32 df 3b dd 6e 8b ba
       0.044143148 -0.022539187 0.0068113846 -0.0010637898
000040 eb fe 6d bc aa 46 32 3d 13 97 21 bc ed af 79 3b
       -0.014526109 0.04352442 -0.009862679 0.0038099245
000050 84 54 8a 3c 51 1b 3e 3c 49 a1 6a 3b f6 20 ad bd
       0.016886003 0.011603192 0.00358017 -0.084535524
000060 0b 0e 19 3d 4b 0f cb bc 60 5b a3 3c 00 34 3c bb
       0.037366908 -0.024787566 0.019941032 -0.0028717518
000070 75 7a 21 bd a2 32 90 3d d1 c8 f7 bd b5 c5 ec 3c
       -0.039423425 0.070409074 -0.120988496 0.028902868
000080 79 f2 8c bd 2a 7a aa 3c 40 56 4e bc a7 e7 25 bd
       -0.068821855 0.020810205 -0.012593806 -0.040504124
000090 04 0c df bc 8b f3 d1 bc c4 9e b9 3d 00 80 0b bc
       -0.02722741 -0.025628826 0.09063485 -0.008514404
0000a0 6f 57 04 3c 8b 32 aa 3c 66 68 1b 3c d3 33 2a bd
       0.008077486 0.020776054 0.00948534 -0.04155333
0000b0 a3 21 fb 3d cc 5f 03 3d 25 dc 9d bd 89 12 a6 bb
       0.12262275 0.03207378 -0.07708005 -0.0050681275
0000c0 28 8b b5 bc 3f 1c 86 3c e0 e3 b5 bc 90 ee 22 bc
       -0.022161081 0.01637089 -0.022203386 -0.009944573
0000d0 d3 05 d7 3c 99 18 59 3c 6e 5c e0 3c b6 06 62 bc
       0.026247894 0.013250493 0.027387824 -0.013795545
0000e0 c4 0e 64 bd 33 e7 14 bd 8b 34 10 3d ea 3a 33 bb
       -0.055678144 -0.0363533 0.03520636 -0.0027348348
0000f0 1a 29 db bc a0 c7 97 bd 76 cb bd 3d 1b 6b 2a 3d
       -0.026752997 -0.07411122 0.09267323 0.04160605

features.5.running_mean f4 [64]
000000 f4 74 f6 be 85 19 2e bf d0 60 4f bf bb 1e 3b bd
       -0.48136103 -0.6800769 -0.810071 -0.045683604
000010 47 37 ee 3d f4 b6 1d bf bb 58 39 3f 83 bc 41 bf
       0.11631637 -0.6160729 0.72401017 -0.7567827
000020 43 6b c1 be 4d f5 9a be 62 4b fc be 6b c4 db be
       -0.37777147 -0.30265275 -0.49276263 -0.42923293
000030 4f 9e 6c be d0 cb 09 bf be 67 1c bd 40 eb 78 be
       -0.23107265 -0.5382662 -0.038184874 -0.24308491
000040 52 7d 59 bf d6 b6 87 be 6e a5 ec bc ca 82 02 be
       -0.8495685 -0.2650668 -0.028887477 -0.12745205
000050 7c 7c 21 bf 4b c4 98 be 65 64 17 bf 29 82 6c 3f
       -0.63080573 -0.2983726 -0.59137565 0.9238611
000060 4e 4a 18 bf 98 b3 24 bf 04 64 eb be af c7 c4 3e
       -0.5948838 -0.6433654 -0.45974743 0.38433596
000070 77 46 46 3f 1d a2 1a be 3f 48 6c 3f 2f 73 98 be
       0.7745127 -0.15100904 0.9229774 -0.29775378
000080 f7 61 12 3f 89 c1 f6 be dc 64 31 3e ff 49 23 3f
       0.5718073 -0.4819453 0.17323631 0.63784784
000090 6c 37 a6 be a6 ff 57 bf fb a1 e2 be 15 de be bc
       -0.3246416 -0.84374464 -0.44264206 -0.023299256
0000a0 fe 4f c0 3e 23 af ec be 72 58 2f be 44 11 89 3d
       0.3756103 -0.4622737 -0.17123583 0.06692746
0000b0 90 35 5a bf b0 b8 48 bf fd 62 02 3f 21 2e 50 bf
       -0.8523798 -0.7840681 0.50932294 -0.8132039
0000c0 58 6a 2b bf 74 3b 03 bf 1a e3 38 bf db 85 b7 be
       -0.6695914 -0.51262593 -0.7222153 -0.3584431
0000d0 d0 59 63 be 56 7a ff be 10 f7 06 bf 87 78 ce be
       -0.2220223 -0.49898022 -0.5272074 -0.4032633
0000e0 e6 0a 5e be 75 e8 3d 3f 26 90 32 bf 1d f5 1a bf
       -0.21683845 0.74182826 -0.69751203 -0.60530263
0000f0 92 c5 01 bf 47 de 75 bf 2a 20 1c bf f6 ae 4d bd
       -0.50692093 -0.96042293 -0.6098658 -0.050215684

features.5.running_var f4 [64]
000000 fc 7f 62 3f 73 49 cd 3f 23 83 f2 3e 2f d2 92 3f
       0.8847654 1.603804 0.47365674 1.1470393
000010 53 cd 53 3e 73 9b 7c 3f 30 f6 63 3f f6 51 0c 3f
       0.20683794 0.98674697 0.8904753 0.5481256
000020 4a 96 8d 3f b7 5e 0f 3f 50 06 61 3f 6e 0f b9 3f
       1.106149 0.560039 0.8790026 1.4457834
000030 6b 6f d5 3e 2e db 27 3f e1 7b ee 3e 74 d6 89 3e
       0.41686568 0.65568817 0.46578887 0.26921427
000040 72 c3 31 3f 96 df 38 3f 25 2b 52 3e 80 7a 05 3f
       0.6943885 0.72216165 0.20524271 0.52140045
000050 4a 6d 23 3f 4c 47 45 3f 04 a3 2d 3f 02 62 66 3f
       0.63838637 0.77061915 0.6782687 0.899933
000060 74 e0 dc 3f 29 d9 07 3f 86 00 d0 3e 71 e9 3c 3f
       1.7255998 0.53065735 0.406254 0.73793703
000070 33 6e 7b 3f fa 4b 26 3f 5d a7 71 3f 03 2c 94 3e
       0.98215026 0.6495968 0.94396 0.28939828
000080 98 ab ad 3f 65 67 81 3f 3c b0 6c 3e 53 96 fb 3e
       1.3567991 1.0109679 0.23114103 0.49138126
000090 64 1d 01 3f 75 99 9a 3f 59 b2 86 3e 82 16 24 3f
       0.5043547 1.2078081 0.26307943 0.64096844
0000a0 8f c6 e6 3e 1e c3 18 3f 5f eb 6d 3e 37 77 b2 3e
       0.45073363 0.59672725 0.23234318 0.3485658
0000b0 fb f4 cd 3f 59 5b 0e 3f cd d9 67 3f 8d 80 e1 3e
       1.6090387 0.55608135 0.9056671 0.4404339
0000c0 6a 83 2e 3f 41 34 e8 3e fd 68 92 3f fe 84 6c 3f
       0.6816927 0.45352367 1.143829 0.9239043
0000d0 ad 14 3f 3f 4c 99 f6 3e 17 0e 9e 3f a1 62 a5 3f
       0.74640924 0.4816383 1.234805 1.2920724
0000e0 1a b7 90 3e f6 f2 8f 3f b2 b4 ff 3e de 35 fa 3f
       0.28264695 1.1246021 0.49942547 1.9547689
0000f0 91 ac 5d 3f b1 35 84 3f cd 81 52 3f 1f 0d 75 3e
       0.8659144 1.0328885 0.8222931 0.23930787

features.8.weight f4 [128, 64, 5]
000000 d1 ae 18 bd 51 9d 09 bd 5f 65 5b bd 6d 85 c3 bc
       -0.037276093 -0.033597294 -0.053563472 -0.023867333
000010 70 83 a9 ba bc 55 9d bc 42 66 25 3d 46 35 e1 bc
       -0.0012932848 -0.01920592 0.040380724 -0.027491223
000020 ee 13 01 bb 84 61 46 3d f4 18 15 3d d3 a2 13 bc
       -0.0019695717 0.048432842 0.03640075 -0.009010988
000030 fe a5 61 39 91 16 83 3b a5 70 d6 3c 7f 0e 7c bd
       0.00021519509 0.004000493 0.02617676 -0.061537262
000040 43 bd 42 bd 1f f7 41 3d 1a 8f 3c bc 05 26 c2 ba
       -0.047543775 0.047354814 -0.011508727 -0.0014812356
000050 61 fd 03 bd 70 4c 51 3b ba 3f db bc f2 3a b3 bc
       -0.032224063 0.003193643 -0.026763786 -0.021878693
000060 1b 75 88 3c 21 bb 0f 3d c5 49 0a 3d 67 ed f1 3c
       0.016657403 0.03509057 0.03376176 0.029532148
000070 94 c3 c9 3c f2 39 e1 3a 2c 5f e4 bd 5c b0 34 bd
       0.024629392 0.0017183407 -0.11150965 -0.044113502
000080 03 2a 53 bd ed f0 45 bd e2 1e 80 3d 62 39 97 bd
       -0.051553737 -0.048325468 0.062558904 -0.07383992
000090 ec 95 48 bd 6b ca 35 bd 1d 0b 4b 3d f5 5b fb bc
       -0.0489711 -0.044382494 0.049571145 -0.030683497
0000a0 19 7b 4d 3c 17 ba 05 3a 95 5b 8b bc cd 7a b1 bc
       0.012541556 0.0005101277 -0.017011443 -0.021665001
0000b0 d2 72 da bd b6 2e b8 bd bb 88 6f bd 4a c1 14 bd
       -0.106664315 -0.089932844 -0.058480006 -0.036317147
0000c0 da 11 3a 3d 2f 5c 1c bd 28 0e 0d bd 6f 75 a2 3c
       0.04542718 -0.03817385 -0.03443733 0.019831387
0000d0 fe a2 a9 bd b7 f3 93 bd ab 97 0a bd f9 15 17 3c
       -0.082830414 -0.07224219 -0.033836048 0.009221547
0000e0 06 68 bf 3c ba 32 e5 bb c3 83 a8 3d 6f 3e 09 3d
       0.023365032 -0.0069945725 0.082282566 0.033506807
0000f0 7e ab 6e 3c 7b 00 aa bd 02 61 82 bd 72 42 1e 3d
       0.014567254 -0.08300873 -0.06366159 0.038637586
000100 70 76 02 3d 1d 29 8f 3b cf e1 87 3d 2d 75 db 3c
       0.031851232 0.0043689148 0.066348664 0.026789272
000110 1e 0e ef 3b 9c 66 e0 bc 90 14 ef bd b9 ab ab bd
       0.007295384 -0.027392678 -0.11673844 -0.08382363
000120 38 2d a4 bd 84 27 63 3a bb da 4c bd 2d db c9 bc
       -0.08016437 0.0008665251 -0.050013285 -0.024640644
000130 18 5c c3 bc 70 91 95 bb 22 61 8d bd bf 42 a5 bc
       -0.023847625 -0.0045644566 -0.06903292 -0.020173429
000140 cb b1 b0 bc e5 43 83 3d 04 4d fd 3a 09 dd 19 3c
       -0.021569153 0.06409434 0.0019325321 0.009391078
000150 bd b5 83 3d 54 94 12 3b 66 17 ca 3c 5d f1 13 bd
       0.06431148 0.0022366242 0.02466936 -0.036118854
000160 47 bb 0a 3d 3d c2 14 3d d1 0e 49 bc 1d 04 8b bd
       0.033870008 0.036318053 -0.012271599 -0.06787894
000170 79 79 8a bc 1d c8 37 bd 00 58 66 3b 1e d0 8b bc
       -0.016903626 -0.044868577 0.0035147667 -0.017067011
000180 de 3a 3d bd 7b 98 8d bd 58 68 2f bd b2 e5 b6 bb
       -0.04619872 -0.06913849 -0.04282412 -0.005581581
000190 d9 c6 be 3c 3b 42 22 3d c8 ca 40 bd e1 8b 14 3d
       0.023288177 0.039613944 -0.047068387 0.03626621
0001a0 5a cb b5 3d c2 e5 dd 3b 4c bf 5a 3c 7e b6 35 3b
       0.08876677 0.006771774 0.013351273 0.0027727182
0001b0 58 25 3b bc 2f e7 57 3d 36 66 75 3d 9b e2 21 3d
       -0.011422478 0.05271071 0.05991193 0.03952275
0001c0 53 2f 14 3c 47 ca e1 bc 42 9d ac b9 23 e2 09 3d
       0.009044486 -0.027562274 -0.00032923563 0.033662926
0001d0 9b b2 0e bd 11 55 61 bc 68 cf 25 bc 7d 01 50 3d
       -0.0348383 -0.013753192 -0.01012025 0.05078267
0001e0 72 1d da 3c 30 d8 b2 bc 0d 57 7a bc 5d 5c 8e ba
       0.026625369 -0.021831602 -0.015279544 -0.0010861267
0001f0 9b c3 88 3a b3 b4 00 3d cd 9d c0 bc 9d e6 02 bd
       0.0010434272 0.03142233 -0.023512745 -0.03195821
000200 58 47 b5 3c 78 4e 8a bc 75 ee 07 3c f8 7f 97 bd
       0.022128746 -0.01688312 0.008296599 -0.07397455
000210 53 7d 45 bd 21 9a 07 bc 76 e9 7f 3d a8 a2 40 bd
       -0.04821522 -0.008276493 0.062478505 -0.04703012
000220 66 9a 6e 3b 4c bb 18 bd 2f 85 87 3d 18 2b b4 3c
       0.0036407947 -0.037287995 0.066172 0.021993205
000230 09 22 4b 3d c4 8d 80 bc 06 f8 88 bb c0 36 b6 3c
       0.049593005 -0.0156926 -0.0041799573 0.022242904
000240 2e fa d7 bb 9a 62 b8 bd fb 4d 6e bd b2 d0 e0 3c
       -0.006591103 -0.09003182 -0.058179837 0.027443264
000250 5b ca d0 bc 44 03 45 3b 82 f8 bf bb 02 79 f4 3c
       -0.025487116 0.003006176 -0.005858482 0.029842857
000260 21 3f 2e bd 1d 88 51 bd 1b 08 20 bb 5a 22 aa 3c
       -0.042540673 -0.0511552 -0.0024418894 0.020768333
000270 2d 1e 15 3c 89 f5 d0 3c ba 01 8a 3d 54 69 99 3d
       0.009101433 0.025507705 0.067386106 0.07490793
000280 95 ff a1 b9 7e 37 7e bd c4 44 ab 3c 0a 68 e5 3c
       -0.00030898736 -0.06206464 0.020906813 0.028003711
000290 f9 85 58 3b 0b a0 e7 bc 3a 1f 0c 3c cf c7 76 bb
       0.0033038838 -0.028274557 0.008552367 -0.0037655716
0002a0 e1 8e 87 3d a1 a7 cf 3d eb 70 ec bd 97 50 8e bd
       0.06619049 0.101393946 -0.11544975 -0.06948965
0002b0 8d cc ce bc 60 f1 11 3d 9c 6a 10 3d 51 e7 ca bd
       -0.025244022 0.035630584 0.03525792 -0.09907401
0002c0 60 7c c8 bb 0e 8b e6 bc 0b e1 34 3d 30 a7 7d 3d
       -0.0061183423 -0.028142478 0.04415993 0.06192702
0002d0 01 42 a3 3c 23 6e 95 3d f7 92 fe 3c 4a 8d 50 bd
       0.019928934 0.072963975 0.031075938 -0.050915994
0002e0 0e 05 5c bd 24 dd ed 3a cd ac 1b 3d f9 08 41 bd
       -0.053715758 0.001814757 0.038006593 -0.047127698
0002f0 1b d9 77 3d e9 53 33 bc 98 5a 98 bd eb 53 1d bc
       0.060509782 -0.010945299 -0.074391544 -0.009602527
000300 4f 09 68 3d 43 a4 89 3d 2b 0b f2 3c 86 db 14 bd
       0.056649502 0.067207836 0.02954634 -0.036342166
000310 7e 4f 27 bd b1 ef 2f 3c 65 03 98 3d f9 30 b4 3c
       -0.040847294 0.010738299 0.074225225 0.021996008
000320 96 22 e8 bd 40 7a 4d bd 49 7b 32 bd 26 ab 4c bb
       -0.11334722 -0.050165415 -0.043574605 -0.0031229942
000330 ad 0b 55 3d 04 5d c0 3c fc 7b c1 3c 82 76 06 3c
       0.052013088 0.023481853 0.02361869 0.008206965
000340 67 fc 76 3d 27 96 5b 3d 4a 7b 8f bd 28 7a 10 bc
       0.060299303 0.053609993 -0.070059374 -0.008818187
000350 54 c2 23 3c d6 5e 03 3d 38 aa 42 3b e4 71 a8 bd
       0.009995062 0.032072864 0.002970351 -0.08224848
000360 8e b9 57 bd 63 28 84 bd 04 ea 56 bc e5 eb 24 3d
       -0.052667193 -0.06453016 -0.013117317 0.04026403
000370 f5 9d 86 bd 27 8d bc 3b ef 54 52 bd 95 ee 38 3d
       -0.06573097 0.0057541314 -0.05135053 0.045149405
000380 aa cf 1a 3b 24 46 32 3d dd 69 74 3a 63 f8 45 bd
       0.0023622313 0.043523923 0.0009323636 -0.048332583
000390 0d 18 4a 3b 7a de 49 bc ec b5 58 3d 23 5e 03 3d
       0.003083709 -0.012321109 0.05290787 0.032072198
0003a0 0e e7 48 bd 0f e9 71 bd da a6 2b 3d 36 2b 25 bd
       -0.049048476 -0.059060153 0.04190717 -0.040324412
0003b0 c0 e1 ad 3c b2 59 06 bd 1c b3 34 bd 34 ce 49 3d
       0.02122581 -0.032800384 -0.044116125 0.049268916
0003c0 e5 9c 04 bb ee 9a 17 3d a2 91 3d 3c 98 e2 94 3c
       -0.0020235118 0.037012987 0.011570366 0.018174455
0003d0 46 a2 4e 3d ab 82 e5 bc 45 82 4d ba dd 46 55 3d
       0.050447725 -0.028016409 -0.0007839541 0.052069534
0003e0 87 20 21 3d 71 25 06 bd c4 05 5e 3d 90 03 41 3d
       0.03933766 -0.03275055 0.054204717 0.047122538
0003f0 9b 7d 2d bc 2b c8 2e 3c be 40 42 bd a3 c9 b2 bd
       -0.010589029 0.010667841 -0.047425024 -0.087298654

features.8.bias f4 [128]
000000 8a e8 05 3d 63 e0 80 3d 80 ba ef bc 7f 1c ab bd
       0.03269247 0.06292798 -0.029263735 -0.083550446
000010 7b 37 ea 3c af 3c 1f bd 81 18 d2 3c 8a 49 a6 bb
       0.028590908 -0.03887623 0.02564645 -0.0050746845
000020 05 20 8f 3a ab 7a a7 bd 75 de e5 bc b7 4d 20 3c
       0.0010919577 -0.08177694 -0.028060177 0.009784154
000030 cd 87 d1 3b d1 b2 26 3d fd c7 9a bd 2f 73 2b 3c
       0.0063943625 0.040697876 -0.07557676 0.010464474
000040 4e b5 fb bc 63 1c 8a 3d 2f 3f 87 3d ac 63 05 3d
       -0.030726101 0.067436956 0.06603848 0.032565758
000050 f0 59 dd 3c 11 b5 e3 bb 57 2c 1d 3d 42 23 95 ba
       0.027020425 -0.006949075 0.038372364 -0.0011378305
000060 5c 05 b2 bc 1f 94 78 bd b8 d4 a8 bd 59 e1 eb 3c
       -0.021731071 -0.060688134 -0.08243698 0.028793978
000070 32 80 b1 3c e8 eb 03 bd 31 1e 3e bd 5c 61 90 3b
       0.021667574 -0.0322074 -0.04641551 0.0044061374
000080 72 48 a9 3d 8b fd 09 bd a6 f6 ba bc d3 85 e7 bb
       0.08265771 -0.033689063 -0.02282269 -0.0070655136
000090 d2 00 91 3c d5 e6 80 bc b9 92 e7 bc 24 69 b9 bd
       0.017700586 -0.01573507 -0.028268205 -0.09053257
0000a0 58 a6 6a bb 32 15 d7 bb 53 c1 0c bd e8 8c 1c 3d
       -0.0035804715 -0.006563806 -0.034364056 0.038220316
0000b0 de 8e af 3c 19 0f a5 bc dc 16 ae bc 8c d3 92 bd
       0.02143043 -0.0201488 -0.021251135 -0.071692556
0000c0 74 8f 90 bd 2b fe 86 3b ec af 51 3c 21 bd 15 bc
       -0.070586115 0.0041196547 0.012798291 -0.00913933
0000d0 96 f7 ea 3c e4 2b 5d 3d fd ed 24 bc ab 9f 5f 3b
       0.028682511 0.053996935 -0.010066506 0.003412227
0000e0 de 29 30 bd 5b 15 c4 bc 08 04 51 bd f8 eb 4a 3c
       -0.043008678 -0.023935964 -0.051029235 0.012385361
0000f0 ba 34 3f 3d fa ba 80 bd 76 72 c4 bc 46 80 9f bc
       0.046681143 -0.06285663 -0.02398036 -0.019470345
000100 27 12 27 b9 56 9c 6b ba ab a7 67 39 99 75 84 bc
       -0.00015933123 -0.00089878344 0.00022092338 -0.016169356
000110 68 b8 a8 bc 12 2b 3d bd 75 88 b3 bc 91 89 f7 bc
       -0.020595744 -0.046183653 -0.021915654 -0.030216964
000120 26 4e c0 3c 28 27 04 3c bf 83 dd 3c 71 00 60 bd
       0.023474764 0.008065976 0.02704036 -0.05468792
000130 ff a8 32 3d ea 6c 34 3c b0 8b 76 bd 79 3e b9 3d
       0.0436182 0.011012295 -0.06019181 0.09045119
000140 63 38 2b 3d 16 93 4a bd 31 1f 89 3d 11 b9 04 bb
       0.04180182 -0.04945668 0.066954024 -0.002025191
000150 ce 32 a2 3c ce 4e d3 3d a0 55 8c bc e0 b0 16 3d
       0.019799616 0.10317765 -0.017130673 0.036789775
000160 a9 43 2b 3c e5 6c b6 bd bc 59 87 3c f5 70 94 bc
       0.010453143 -0.08907489 0.01652228 -0.018120268
000170 bf 62 01 bd 26 a7 53 3c fc 39 9e 3c 21 01 2d 3d
       -0.031588312 0.012918269 0.019314758 0.042237405
000180 5d 79 b2 bc 7c 20 84 bc 98 d0 41 3c ec 91 e8 3c
       -0.021786386 -0.016128771 0.011829518 0.028389893
000190 01 52 14 3d 93 a4 7f 3c b1 4c 69 bd 5c f9 72 3c
       0.036211018 0.015603202 -0.056957904 0.01482996
0001a0 91 0c 0c bd 2a d6 2f 3d 4f 7c 7e bb 09 fa 36 bd
       -0.03419167 0.042928852 -0.0038831418 -0.044672046
0001b0 d5 66 37 b9 d2 a3 14 3d c7 08 8d bc a5 ff 43 3c
       -0.00017490548 0.036289044 -0.0172161 0.011962806
0001c0 3d 2b da bc f5 66 55 3d a9 41 64 bd 04 d6 ba 3c
       -0.026631946 0.05210014 -0.05572668 0.022807129
0001d0 9e a8 66 bb 87 b2 19 bd c0 b3 7c bd 48 b4 d0 b9
       -0.0035195719 -0.037523773 -0.06169486 -0.00039807172
0001e0 fc 1a f3 bc cd b9 b6 3c e2 02 94 bd 17 b1 6d 3d
       -0.029675953 0.022305394 -0.07227112 0.058030214
0001f0 44 47 10 3d ca 8f da 3b ec fc 87 bb a5 22 0e 3b
       0.035224214 0.006669973 -0.0041500237 0.002168813

features.9.weight f4 [128]
000000 94 a8 75 3f 04 c8 85 3f fc dc 74 3f 9f ae 84 3f
       0.95960355 1.0451665 0.95649695 1.036579
000010 23 65 78 3f b6 57 6e 3f 2a 7e 80 3f a5 d7 77 3f
       0.9702932 0.93102586 1.0038502 0.9681342
000020 a0 93 68 3f 63 ea 7c 3f b8 95 87 3f 06 92 74 3f
       0.9085026 0.98795146 1.0592566 0.95535314
000030 d4 5a 73 3f b1 b7 87 3f ff 09 89 3f 82 c8 73 3f
       0.9506047 1.0602933 1.0706176 0.95227826
000040 9e 93 72 3f 13 ca 81 3f 3d a4 67 3f c5 b6 68 3f
       0.94756496 1.0139793 0.9048498 0.90903884
000050 c5 a7 6d 3f bc 68 80 3f ae 70 7b 3f 4b fa 6d 3f
       0.9283412 1.0031962 0.9821881 0.9296004
000060 cf 68 8a 3f b8 61 75 3f 29 e4 84 3f a1 56 76 3f
       1.0813235 0.9585223 1.0382129 0.96225935
000070 af e1 77 3f 31 5e 84 3f b7 ea 7d 3f 3c 07 86 3f
       0.9682874 1.0341245 0.9918627 1.0470958
000080 27 54 7a 3f 64 e6 84 3f e9 be 5e 3f 06 0a 80 3f
       0.97784656 1.038281 0.87010056 1.0003059
000090 5d 96 74 3f 61 af 7a 3f 0f 65 7f 3f 79 29 81 3f
       0.95541936 0.97923857 0.9976358 1.0090781
0000a0 fd 91 7e 3f 72 75 65 3f 4b 26 7d 3f 74 4a 66 3f
       0.9944151 0.8963233 0.98886555 0.89957356
0000b0 42 8f 6c 3f 99 38 88 3f 27 a3 72 3f 68 2c 84 3f
       0.92406094 1.0642272 0.947802 1.0326052
0000c0 5e 41 87 3f 38 a4 84 3f ad a8 7f 3f 71 d0 7e 3f
       1.0566823 1.0362616 0.99866754 0.99536806
0000d0 e0 53 72 3f c9 9e 7c 3f 24 27 8b 3f 9d 09 6c 3f
       0.94659233 0.98679787 1.087132 0.9220217
0000e0 1d 72 81 3f 18 fe 75 3f 7e 8a 7d 3f 2d 1d 7e 3f
       1.011295 0.9609084 0.9903945 0.9926327
0000f0 d8 a7 64 3f c8 e3 7e 3f f3 f1 62 3f d2 69 7b 3f
       0.8931861 0.99566317 0.88650435 0.98208344
000100 f1 10 79 3f 17 06 7b 3f 7a aa 80 3f 95 9f 7a 3f
       0.97291476 0.9805617 1.0052025 0.9789975
000110 90 13 83 3f a1 a6 78 3f 1b a2 60 3f 57 ed 5a 3f
       1.0240345 0.97129256 0.87747353 0.855184
000120 03 57 74 3f 5a 88 73 3f b1 5f 6e 3f 14 2c 70 3f
       0.9544527 0.9512993 0.93114763 0.9381726
000130 5b d0 7d 3f 9a a3 7e 3f 27 13 7d 3f 59 78 81 3f
       0.9914605 0.99468386 0.9885735 1.0114852
000140 be 67 84 3f dd 54 75 3f ef 6b 87 3f de 82 7c 3f
       1.034416 0.95832616 1.0579814 0.9863719
000150 66 7d 6d 3f 14 c5 84 3f 47 46 7b 3f 5f 70 71 3f
       0.9276947 1.0372643 0.9815411 0.9431209
000160 dd ff 77 3f 05 c7 81 3f 6f 18 7e 3f bc a3 81 3f
       0.9687479 1.0138861 0.9925603 1.0128093
000170 46 08 82 3f 87 51 84 3f 72 b6 7e 3f 2a f0 64 3f
       1.0158775 1.033738 0.9949714 0.8942896
000180 fe 79 81 3f b2 2b 85 3f 96 64 7c 3f ac 45 68 3f
       1.0115354 1.040396 0.9859098 0.9073131
000190 a7 a5 77 3f 3f 2f 79 3f 97 01 86 3f a2 16 7e 3f
       0.9673714 0.97337717 1.0469235 0.99253285
0001a0 59 d4 86 3f 24 f7 75 3f 8e c0 67 3f 03 60 67 3f
       1.0533553 0.9608023 0.9052819 0.9038088
0001b0 62 49 71 3f 35 c2 7b 3f cc 39 6f 3f 18 1c 79 3f
       0.942526 0.9834321 0.93447566 0.9730849
0001c0 39 37 7d 3f 62 99 6f 3f 9c 61 7c 3f 3a 14 7e 3f
       0.9891239 0.9359342 0.9858644 0.99249613
0001d0 ce bc 7b 3f 4d 92 6e 3f 2e 6e 5b 3f 44 97 81 3f
       0.9833497 0.9319199 0.85714996 1.0124288
0001e0 21 d6 7a 3f c6 c3 74 3f bb 7e 6a 3f e5 d9 84 3f
       0.97982985 0.95611227 0.91599625 1.0378996
0001f0 9a ab 84 3f 08 ad 6b 3f 60 f5 84 3f 66 9f 72 3f
       1.0364869 0.920609 1.0387383 0.9477447

features.9.bias f4 [128]
000000 7e f5 c9 bd 69 e5 00 bd 94 bc 75 bd f2 3e de 3c
       -0.09861277 -0.031468783 -0.059994295 0.027129624
000010 7f 5a 93 bd e0 1b dd bd 2e 00 13 be 73 61 00 be
       -0.07194995 -0.10796332 -0.14355537 -0.12537174
000020 b3 7a f1 bd 0c 00 01 be 0e 68 de bd db 68 f1 bd
       -0.11790981 -0.12597674 -0.108596906 -0.11787578
000030 69 0e d0 bd 19 54 b0 bd 0a e0 02 bc c2 ad 7d bd
       -0.101589985 -0.0860979 -0.007987985 -0.061933286
000040 c4 fe 5f bd b4 bb 8c bd f6 4f f6 bd e4 d4 82 bd
       -0.054686323 -0.06871739 -0.1202697 -0.06388262
000050 af e4 52 bd c0 bd e8 bd a5 f9 45 bd 1e 9a 13 bd
       -0.05148762 -0.11364317 -0.048333783 -0.03603565
000060 b1 09 0f be e0 46 3b bd a5 3c 81 bd 5f 54 5e be
       -0.1396854 -0.04572189 -0.06310395 -0.21711873
000070 4d a4 db bd a2 29 55 bc 09 da a2 bc d8 e2 20 be
       -0.10724697 -0.013010414 -0.019879358 -0.15711534
000080 64 8e 01 be f1 19 56 bd d8 83 0c be 50 fb 34 bd
       -0.12651974 -0.052270833 -0.1372217 -0.044184983
000090 40 1e 53 bd a3 e2 0d be 6c 8b 9c bd c9 ec 40 bd
       -0.05154252 -0.13855986 -0.0764378 -0.047100816
0000a0 3a a7 da bd a0 db 77 bd 9e 73 14 bd e9 4a c2 bd
       -0.10676427 -0.060512185 -0.036243074 -0.09486944
0000b0 f1 d5 48 bd 09 8c 7e bc 54 59 45 be bd 99 f1 bd
       -0.049032155 -0.015536317 -0.19272357 -0.117969014
0000c0 de b5 0f be 26 7c 92 bd a8 1a a6 bd 11 2b 07 be
       -0.1403422 -0.07152586 -0.08110553 -0.13200022
0000d0 1f 85 29 be a5 b9 8a bd 54 a3 9e ba 27 bd 82 bd
       -0.16554688 -0.0677369 -0.0012103119 -0.06383734
0000e0 f2 ec b6 bd 74 4d a6 bd cf 99 90 bd c3 49 4e bd
       -0.089319125 -0.08120242 -0.07060587 -0.050363313
0000f0 98 b4 b4 bd fb 27 57 be ba 39 b1 bd e6 b1 9a bd
       -0.08823508 -0.21011345 -0.086535886 -0.07553463
000100 20 5f 04 be 4d a9 5f be 2a f6 f0 bd b6 9c 23 bd
       -0.12926912 -0.21841927 -0.11765702 -0.039944373
000110 8b 8c 70 bd 8b dc 64 bd 91 ac 37 be af e6 9c bd
       -0.058727782 -0.05587439 -0.17936923 -0.07661187
000120 72 6e b7 bc 73 d0 81 bd 9b 05 d7 bd b6 2c 5c bd
       -0.022391532 -0.06338587 -0.10499116 -0.053753577
000130 20 77 b4 bd cd 4b 5c bd 82 10 0f be 23 5c 7f bd
       -0.08811784 -0.053783227 -0.13971141 -0.062343728
000140 b7 5b 0f be 12 71 37 bd 35 3f a9 bd 5a 59 73 bd
       -0.1399983 -0.044785567 -0.08264009 -0.059411384
000150 5f fd aa bd bf 95 e3 bd aa 6f 07 bd f5 a5 50 bd
       -0.08349108 -0.11112546 -0.033065476 -0.05093952
000160 27 62 0b bd e4 27 65 bd 30 bb 23 bd a4 ad 83 bd
       -0.034029152 -0.055946246 -0.039973438 -0.06429604
000170 f0 fd 33 bd 8a f2 3f be ab 5b 27 bd 40 e0 9c bd
       -0.043943346 -0.18744865 -0.040858906 -0.0765996
000180 ea df af bd dc fa 32 be 9a 8a 0e bd 7f 91 86 bd
       -0.0858763 -0.17478508 -0.03480015 -0.0657072
000190 ce d8 26 bd f1 fa 01 be 08 b3 3d be e8 23 05 be
       -0.040734105 -0.12693383 -0.18525326 -0.13001978
0001a0 75 35 0a be 13 56 50 bd 25 89 0f be 2d bb 4f bd
       -0.13496955 -0.050863337 -0.1401716 -0.050715614
0001b0 e8 0e 2b be 55 4f 82 bd 0c 75 91 bd 44 50 a9 bd
       -0.16704905 -0.06362788 -0.07102403 -0.082672626
0001c0 81 ea 95 bd 56 45 cb bd d9 0a 98 bd 02 5e be bd
       -0.07320119 -0.09925334 -0.07423944 -0.09295274
0001d0 08 6f 14 be 17 cc 33 be 52 e8 f1 bd ca b2 11 be
       -0.1449548 -0.17558323 -0.1181189 -0.14228359
0001e0 9c 3c 36 bd e9 c5 8f bd 7b 8a d3 bd 35 5c e5 bd
       -0.044491395 -0.0702017 -0.103291474 -0.11199228
0001f0 4f 4a e8 bd 58 97 c5 bd 3f 5b ed bc 0f 1b b4 bd
       -0.11342298 -0.09648007 -0.028974174 -0.087942235

features.9.running_mean f4 [128]
000000 96 34 b5 be b0 41 e6 bf 15 5c 46 bf 45 9e ee bf
       -0.35391682 -1.7988796 -0.77484256 -1.864205
000010 5a ea e2 be ea bc a4 3f 49 7a 8f 3f ba 10 0d bf
       -0.4431942 1.2870152 1.1209193 -0.5510365
000020 17 84 8c be 95 5a 6f be 7e 12 f9 bd 11 f2 74 3f
       -0.27444527 -0.23374398 -0.1216173 0.95681864
000030 79 20 4e bf 59 af 0f be 13 fa ee bf 98 0a 71 bd
       -0.805183 -0.14031734 -1.8670067 -0.058847994
000040 76 e9 8c be 96 c5 ae be 32 61 f2 be 90 ce 01 bf
       -0.27521867 -0.3413512 -0.4733978 -0.50705814
000050 08 8e fc be 58 2f 6b bf 78 a7 21 bf 29 77 fd be
       -0.4932711 -0.91869116 -0.6314616 -0.49504974
000060 8e 68 1c be 9e a3 c5 bf ee 20 a3 bf 33 41 1c 3f
       -0.1527426 -1.5440557 -1.2744424 0.61036986
000070 d9 8f 4e bf 6c 54 b8 bf 72 34 d3 bf 39 a7 17 bd
       -0.80688244 -1.4400764 -1.650038 -0.03702471
000080 92 28 95 bf c1 02 c0 bd bb 87 83 bf 0c bd 2e 3d
       -1.1653006 -0.09375525 -1.0275797 0.042660758
000090 04 63 a6 bf 8d 2f fe be 09 12 c3 be f6 18 af 3d
       -1.2998967 -0.49645653 -0.38099697 0.08549683
0000a0 a3 bd 02 be 1e 2e eb 3e 88 07 53 bf 22 95 88 bf
       -0.12767653 0.45933622 -0.82433367 -1.0670512
0000b0 b9 ff 4f bf 2b 4c 01 c0 df 9a 71 bf 00 a2 42 bf
       -0.81249577 -2.020274 -0.9437694 -0.7602844
0000c0 43 0a da be dc 71 7c be 14 ca 27 be e3 18 21 be
       -0.42585954 -0.24652809 -0.1638568 -0.1573215
0000d0 27 58 05 bf 94 ca 3c be 36 83 22 bf 2c 7d cf bf
       -0.52087635 -0.18436652 -0.6348146 -1.6210074
0000e0 f9 b0 a3 3d 5e 67 29 3f ad 79 c9 be 41 68 95 bd
       0.07992739 0.6617335 -0.39350644 -0.072952755
0000f0 bc 83 a4 3f fe 7f 57 bf 72 b5 8e bf f5 50 22 bf
       1.2852702 -0.84179676 -1.1149123 -0.6340478
000100 73 1d 14 bf 5e 54 86 3f b0 d3 d4 3e 99 3e c6 bf
       -0.57857436 1.0494497 0.41567755 -1.5487853
000110 ae 6f bd bd 02 62 f8 be dc f2 cd 3f e6 34 5d bf
       -0.09249817 -0.48512274 1.608974 -0.8640884
000120 a7 4c 5b bf a1 59 29 bf 55 49 1d bf 42 d9 55 bf
       -0.8566384 -0.6615239 -0.6144002 -0.83534634
000130 52 5e f7 3e 34 87 ea 3d d4 ad 77 3f d2 fd 8f 3e
       0.48314148 0.11451569 0.96749616 0.28123337
000140 0b 76 22 3f 04 5d 83 be bb 82 f7 bb 90 b5 50 be
       0.6346137 -0.25656903 -0.007553426 -0.2038176
000150 6c 1b 3b bf 16 ab 24 bf 32 b4 9f be ce df e1 bf
       -0.7308872 -0.64323556 -0.31192166 -1.7646425
000160 db 4e c0 bf db 41 88 be fe 63 38 be f7 be 67 bf
       -1.5024065 -0.26612744 -0.18006894 -0.90525764
000170 5c 75 a4 bf 46 06 dd 3f 9d 81 87 bd b0 3a 29 bf
       -1.2848315 1.726754 -0.06616519 -0.66105175
000180 96 2b 80 3e 4a 4e cc be 64 8d 86 be 6a 9d 4f bf
       0.25033253 -0.3990348 -0.26279747 -0.8109957
000190 ca 0e 4a bf 3f 50 57 bf de d2 e3 be a5 ff c2 3e
       -0.78928816 -0.8410682 -0.44496816 0.38085666
0001a0 5e 47 0e be f4 f1 2d bf 41 ff 4b 3f d3 53 d0 be
       -0.13894412 -0.67947316 0.7968636 -0.40688953
0001b0 dc 09 a5 3f a4 76 f9 be db 22 23 bf 27 72 4c be
       1.2893634 -0.48723328 -0.6372506 -0.1996542
0001c0 e7 fa 01 bf 6b 2f f0 3e 8c ed 85 bf 46 b4 97 be
       -0.5077347 0.46911177 -1.0463119 -0.29629725
0001d0 2c 69 26 bf ed 31 2b 3f e8 98 a1 be a3 8e ba be
       -0.6500423 0.66873056 -0.3156197 -0.36436948
0001e0 c6 93 58 be 0d c8 9f bf ac 00 ce bf 5a 50 85 3e
       -0.21150121 -1.2482926 -1.6093955 0.26037866
0001f0 6c 67 d0 be 65 ae 9e bf b0 c5 37 be da b8 5b bf
       -0.40703905 -1.2396971 -0.17946506 -0.85828936
