experiment_testing/mz-testing/checkpoints/ptbxl/62hz/cnn1d/fold_3/last.pt (torch, 628765 bytes, 26 tensors)

features.0.weight f4 [32, 12, 7]
000000 cc 70 ca bd 9f 08 8c bb de df 87 bd 62 7a b2 bd
       -0.098847955 -0.0042734887 -0.06634496 -0.08714749
000010 de 5e ff 3b 76 08 af 3c a5 93 b8 bb 5e 84 d7 3d
       0.0077932915 0.02136634 -0.005632835 0.10523294
000020 f0 97 8b 3d 22 bf 80 3d 55 e1 95 3c 87 15 df bd
       0.06816089 0.06286456 0.018295923 -0.10892778
000030 9f e1 81 bd 70 65 11 3d c2 b8 90 bc 07 ff 1a 3c
       -0.06341862 0.03549713 -0.017666224 0.009460217
000040 c5 bb 9b 3d dc 23 db 3d 35 4f 02 be 7c 25 23 be
       0.076041736 0.10700199 -0.12725528 -0.15932268
000050 da 7a 12 3d 1e ea fb bb c3 ab 52 3d 0b 8e 97 3d
       0.03576169 -0.007687821 0.051433336 0.074001394
000060 fc 64 cd 3d 05 e6 81 3b 3e 20 07 bd ea e8 56 3d
       0.10029027 0.003964188 -0.032989733 0.052468218
000070 a9 2c 8f 3d 12 f8 29 bc aa 55 39 bd 37 d0 1b bd
       0.0699094 -0.010374086 -0.04524771 -0.038040366
000080 ed f1 c2 3d c5 3b 10 bc 1d 2a 20 3d f0 d2 d3 3d
       0.095188 -0.008803313 0.039102662 0.103429675
000090 59 8a 8d 3d 66 b8 ff 3c 8f 4b 79 3c 2b e6 32 3d
       0.06911153 0.031215858 0.0152157685 0.043676537
0000a0 ba b4 d7 3b ee a7 ea bc b0 c4 fe 3d cb 7a 51 3d
       0.0065828236 -0.028644528 0.12439859 0.051142495
0000b0 ed 75 c0 bd c3 12 39 bd b4 d5 cf bd a6 a6 86 3d
       -0.093974926 -0.04518391 -0.101481825 0.065747544
0000c0 cb f3 e0 3d 95 fd b2 3d bc 08 af 3d 40 db aa 3a
       0.10984 0.08739773 0.08546588 0.0013035312
0000d0 97 39 b4 bd f8 ab b3 bd bc c2 00 3d 0b c4 64 3d
       -0.08800047 -0.08773035 0.031435713 0.055851024
0000e0 d9 8d 35 b9 37 59 b5 bd 5a 6f 8a bd 8a eb dc 3d
       -0.00017314347 -0.08854907 -0.0675952 0.10787113
0000f0 2a aa 72 bd 88 48 4b bd a3 08 7f bc 9b c5 9b 3c
       -0.059244312 -0.049629718 -0.015566024 0.019015124
000100 20 85 bc 3d ec c0 cc bd 72 f8 9a 3d ba ed 4f 3c
       0.09205079 -0.099977344 0.075669184 0.012690956
000110 ca 18 47 3c b1 c3 9f 3c 78 82 b4 bc 95 42 7b bd
       0.012151906 0.019502493 -0.022034869 -0.061342794
000120 ee 27 af 3d 45 ba 9b bd 83 4f b4 bd 3f 63 14 3d
       0.08552538 -0.076038875 -0.08804228 0.03622746
000130 d2 13 cc 3a 42 28 9e 3d a5 27 80 bd 20 7f ad bd
       0.0015569872 0.07722522 -0.062575616 -0.08471513
000140 ea 59 8b 3c f1 32 f7 bd 8d cb 95 bd 74 05 7e bc
       0.017010648 -0.12070263 -0.07314215 -0.01550423
000150 2b 66 06 be 8f 2a 24 be f8 ac f2 bd 72 2b ca 3d
       -0.13124911 -0.1603186 -0.118493974 0.09871568
000160 20 a3 ba bd 0f 9d 46 3b 91 c7 01 3e 87 27 d7 bb
       -0.09113145 0.0030306017 0.12673785 -0.0065659913
000170 ce c2 11 bd 0f 6a bd bd a2 97 9e 3d bb c4 b8 3d
       -0.03558617 -0.09248745 0.077437654 0.09021898
000180 d4 4f 2d 3c 3c 65 ce 3d eb e0 37 3c fe f5 c4 bd
       0.010578115 0.10077903 0.011223058 -0.09617232
000190 83 09 6e 3d 34 2e 11 bc 3e 0e ca bd e9 6d 86 3d
       0.05811454 -0.008861113 -0.09865998 0.065639324
0001a0 2a cc c8 3d 59 42 70 3d 25 e6 77 3c 68 4e 52 3d
       0.09804566 0.058657024 0.015130554 0.051344305
0001b0 3c 2e 68 3d ae 2d c0 3c d6 37 a6 3d 83 64 e8 bc
       0.056684718 0.023459282 0.081161186 -0.02836824
0001c0 ce 51 3f 3c 26 27 b6 bd 91 e7 33 bd d3 b1 90 bc
       0.011677219 -0.08894186 -0.04392201 -0.017662918
0001d0 90 52 ad 3c 60 8c 88 3d eb 89 82 bd 5a 70 a7 bd
       0.021157533 0.066673994 -0.06373962 -0.08175726
0001e0 08 e8 13 3c f4 69 1a bd 7f 6a 38 bd 4a 67 27 3d
       0.0090274885 -0.0376987 -0.045023438 0.04086999
0001f0 9b 12 03 bd 1d e1 8e bd fd f1 c7 bc 03 07 9b 3d
       -0.032000165 -0.06976531 -0.024407381 0.07569697
000200 a6 b0 16 3d ce 70 57 bd b0 a0 77 bc 62 6c e5 bd
       0.03678956 -0.052597813 -0.0151139945 -0.11202313
000210 8a 54 d3 3d f2 7d 98 bd ef 34 a7 3c df 78 02 3d
       0.10318859 -0.07445897 0.020410983 0.031853553
000220 8e ea 8d 38 e9 f8 a2 bd ce 0d 87 bd bd 60 40 bd
       6.767093e-05 -0.07957632 -0.0659443 -0.046967257
000230 95 33 e0 bd 48 76 79 3d f3 dd b0 bd e7 64 a0 3c
       -0.109473385 0.060903817 -0.086360835 0.019579364
000240 ea 28 9d 3c 62 ec 6e 3d 03 8e c4 3d eb fc 4f bc
       0.019184548 0.0583309 0.09597399 -0.012694578
000250 5f 74 b8 bd ea c0 b5 3c 10 ad c9 3d 75 3e 35 3d
       -0.09006571 0.022186715 0.09847462 0.044249017
000260 d9 8b 3e 3c ac 90 90 3d 1d e4 4b bd 0e 4f e8 bd
       0.011630022 0.07058844 -0.049778093 -0.113432035
000270 de 4e e2 3c 88 17 0a bd 89 4e 44 bd c8 82 f4 bd
       0.027625497 -0.033713847 -0.04792646 -0.11939007
000280 fe 76 3e 3d 80 66 38 3d 4e 92 cd bd 79 db 44 3d
       0.0465002 0.045019627 -0.10037671 0.048060868
000290 9a ac ea bc a6 69 0f bd a8 4f a5 bd 5e 62 fd bc
       -0.028646756 -0.035012864 -0.08071834 -0.030930694
0002a0 c9 97 c0 bc 87 b4 92 ba ff 9c e0 bd 4b 38 c7 bc
       -0.023509877 -0.0011192717 -0.10967445 -0.024318835
0002b0 31 38 4c 3d 64 bc b3 3c df f3 5a bc 4a a0 b8 bd
       0.049858276 0.021940418 -0.013363807 -0.09014948
0002c0 50 b9 b6 bd ff 9a a0 bd f1 2d 0c be 8c 90 86 bc
       -0.08922064 -0.07842063 -0.136894 -0.016426347
0002d0 97 7e 04 3e 04 1b 25 3d c3 c9 a9 3d c2 ea 12 bd
       0.12938915 0.040308967 0.08290436 -0.035868414
0002e0 08 cc dc 3c 3d e9 06 be 99 6b 0e be 75 9a 73 bd
       0.026952758 -0.13174911 -0.13908233 -0.059473474
0002f0 31 8d e6 bb df 22 2c bd 74 fa 4c 3d b3 49 dd 3d
       -0.0070358743 -0.042025443 0.05004354 0.10805073
000300 28 d3 ff 3d b3 c9 15 3b f7 d7 e1 bd 8b 41 fc 3d
       0.12491447 0.0022855818 -0.1102752 0.12317189
000310 d5 35 86 bc 2f 14 eb bc 28 41 b0 3d a0 d6 cc 3d
       -0.016383091 -0.028696148 0.086061776 0.10001874
000320 fa 4f 82 bd b9 40 1a bb ef 4c 2d 3d 44 1a c8 3d
       -0.063629106 -0.0023537113 0.042309698 0.09770635
000330 1c 1a 87 bc bf ef d9 bd ad 8b 87 bd d2 b0 d1 bd
       -0.016491942 -0.10641431 -0.06618438 -0.10238804
000340 54 cf 88 bd 9f b8 85 3d 81 ef 97 bc 73 78 b1 3d
       -0.0668017 0.06529354 -0.018546822 0.08665552
000350 8e 10 87 bb 11 e6 01 bd be e5 56 bd c5 a3 8e 3c
       -0.0041218465 -0.03171355 -0.052465193 0.017412076
000360 2f 04 bd 3d 15 6f a6 3d 47 72 a4 3c b2 9b ee 3d
       0.092293136 0.08126656 0.020074023 0.1165079
000370 37 34 be bb 4f f0 63 bd 77 72 cc 3d a8 27 a5 bd
       -0.0058045643 -0.055649098 0.0998277 -0.080642045
000380 9b 76 db bc fc e3 13 3c 59 80 8d bd c0 5c 74 bc
       -0.026789954 0.009026524 -0.06909246 -0.014914691
000390 29 3f ab 3c 28 b2 35 3d b5 6b 0e 3d 5a 2d 38 3d
       0.02090414 0.044359356 0.034770686 0.044965126
0003a0 38 e7 a5 bd 0d 51 21 3c cf e8 0a bd 55 82 f5 3d
       -0.08100742 0.009845984 -0.03391343 0.119877495
0003b0 a9 0d d3 3c ea a1 48 bc 30 5f f5 bd b1 31 a1 bd
       0.02576335 -0.012245635 -0.11981046 -0.07870806
0003c0 e1 3c b1 3d 4b 4e bc 3d 9d 2a 65 3d d9 56 82 bd
       0.0865419 0.09194621 0.055948842 -0.06364221
0003d0 e5 e3 e2 bc 42 7e 22 bd 64 a3 06 3d 64 2d e7 bd
       -0.02769656 -0.03967119 0.032870665 -0.112879544
0003e0 d6 b2 fd bc 62 e7 80 3c 6f 59 2e bd aa 98 af 3c
       -0.030969065 0.015735332 -0.04256576 0.0214351
0003f0 0d ef 0b 3d 5e 37 ff bd f6 30 cb bd 21 e1 df bd
       0.034163523 -0.12461732 -0.09921448 -0.10931612

features.0.bias f4 [32]
000000 98 5a 9f bb 9e 34 85 bd e8 a7 71 bd be 9f ea bb
       -0.0048630945 -0.065041766 -0.05899802 -0.007160156
000010 3f 8e 07 bd 4b fd ab 3b bc 35 bf 3c dd d7 76 3d
       -0.03309464 0.0052487007 0.023341052 0.060264457
000020 d1 fc a0 bd 78 29 8b bd bd 4a 72 bd 14 7d c0 3d
       -0.07860721 -0.06795019 -0.059153307 0.09398857
000030 18 e0 42 3d 2a 21 1a bc 74 8c 88 3c 65 51 db bd
       0.047576994 -0.009407321 0.016668536 -0.10708884
000040 c8 00 94 3d e2 8c 69 bd 4a 66 f3 bd 88 85 43 3c
       0.072267115 -0.057019122 -0.118847445 0.011933692
000050 99 42 0f be 01 66 d9 bd 2c ef c6 3d b8 8f d3 bc
       -0.13990249 -0.10615159 0.09713587 -0.025825366
000060 6c 98 76 bd 31 5d bc bd 84 3c b3 3d 03 f0 a2 bd
       -0.060203955 -0.09197462 0.08751777 -0.07955935
000070 42 b3 fb 3d 5e 36 7e 3d 9f 30 bf 3d f5 8b 9c 3c
       0.1229005 0.062063567 0.093354456 0.019109705

features.1.weight f4 [32]
000000 18 bc 80 3f 71 fb 80 3f 21 f3 81 3f 6a 9a 74 3f
       1.0057402 1.0076734 1.0152322 0.9554812
000010 e8 2f 7c 3f da f1 7f 3f ad 10 7b 3f 67 0a 81 3f
       0.985106 0.9997841 0.9807232 1.00813
000020 44 cc 79 3f 9d b5 76 3f 75 89 81 3f 43 68 80 3f
       0.9757731 0.9637087 1.0120074 1.0031818
000030 af 14 87 3f 77 c2 7e 3f c1 8b 83 3f 60 26 8b 3f
       1.0553187 0.9951548 1.0277025 1.0871086
000040 d8 60 7d 3f fc 98 7c 3f 97 3a 82 3f 29 7d 7f 3f
       0.98975897 0.98670936 1.017413 0.99800354
000050 d7 9d 7f 3f 4f ca 79 3f 1b 40 82 3f 98 0a 81 3f
       0.9985022 0.97574323 1.0175813 1.0081358
000060 b7 28 7c 3f c0 4b 7b 3f 43 fe 7d 3f 3e 77 83 3f
       0.98499626 0.9816246 0.992161 1.0270765
000070 01 7c 7b 3f 9e 7e 80 3f 4b 90 7a 3f ea 2e 7f 3f
       0.9823609 1.003864 0.97876424 0.9968096

features.1.bias f4 [32]
000000 f5 eb 24 3d 5e 8c 68 bc f2 c4 74 bc e9 21 9d bc
       0.04026409 -0.014193622 -0.014939534 -0.019181209
000010 fd bc 8f bb 61 5c 4e bd 56 18 2a 3d 97 ae 7a 3c
       -0.004386543 -0.05038107 0.041527115 0.0153004145
000020 ae a3 4c bd 80 de 18 3d fd b2 69 3d 28 fe ac 3d
       -0.049960785 0.037321568 0.057055462 0.08446914
000030 d0 e9 46 3d 24 16 1c 3d 05 d6 f2 bb fa b4 51 3d
       0.048562825 0.038107052 -0.007410767 0.051197983
000040 0f 03 6e 3b 6e 62 46 bc 2a b1 be 3d cf 52 80 3b
       0.003631774 -0.012108428 0.09311135 0.0039161216
000050 65 df 02 bc b9 5d 51 bc 20 03 bb 3b 83 44 38 3d
       -0.007987832 -0.012778693 0.0057071596 0.044987213
000060 bc 8e 17 3b 2c b5 3f bc 46 b8 3c 3c c9 82 51 3d
       0.0023125848 -0.01170091 0.011518544 0.051150117
000070 dd f2 01 bb 3a 36 23 bc 7d 91 9c bc b2 ef 92 3b
       -0.0019828596 -0.009961659 -0.019112343 0.0044841403

features.1.running_mean f4 [32]
000000 7d bd 9a bb 5d a8 84 bd 06 e9 70 bd e9 ea e3 bb
       -0.004722296 -0.06477425 -0.05881598 -0.0069554937
000010 1b 6f 06 bd d2 61 b2 3b 72 80 c2 3c 74 83 77 3d
       -0.032820802 0.00544379 0.023742888 0.060428098
000020 8b ef a0 bd 15 66 8b bd da 57 72 bd 9b e9 c0 3d
       -0.07858189 -0.0680658 -0.059165813 0.09419557
000030 85 8b 42 3d 12 49 15 bc 3a 08 86 3c ed 17 db bd
       0.047496337 -0.00911166 0.016361345 -0.10697923
000040 2c 1b 94 3d 15 8d 69 bd e0 33 f3 bd 62 ac 42 3c
       0.07231745 -0.057019312 -0.11875129 0.01188192
000050 9c ee 0e be d3 3e d9 bd 4a 9b c6 3d 5c 4b d1 bc
       -0.1395821 -0.10607686 0.09697588 -0.02554863
000060 f9 f5 76 bd 38 46 bc bd 74 1d b3 3d 9c b6 a2 bd
       -0.06029317 -0.09193081 0.08745852 -0.07944986
000070 5e 2c fc 3d f1 8a 7e 3d 1b 3e bf 3d ef d0 9d 3c
       0.1231315 0.062144224 0.093380176 0.019264666

features.1.running_var f4 [32]
000000 c2 34 ce 3e 8f 69 62 3f 51 b3 53 3f 87 ac 85 3f
       0.40274626 0.8844232 0.8269549 1.0443276
000010 27 71 bd 3e 11 9c 96 3f 32 d5 e5 3e 0d a3 56 3f
       0.3700039 1.1766378 0.44889218 0.83842546
000020 5b 45 f1 3e 0b 50 a2 3e be 41 9a 3e 64 5e b4 3e
       0.47123227 0.31701693 0.30128282 0.35228264
000030 4e 05 13 3f f2 b5 ad 3e 0d 81 22 3f 6d 20 21 3f
       0.5742997 0.33927876 0.63478166 0.629401
000040 ad 44 2b 3f eb 4b ab 3e 68 63 80 3e f2 4d df 3e
       0.66901666 0.33456358 0.2507584 0.43614155
000050 d2 c3 e3 3e c9 a9 bb 3e 4f f6 98 3f 09 8e e4 3e
       0.44485337 0.36652973 1.1950167 0.44639614
000060 44 31 16 3f 7f 58 cd 3e 13 90 31 3f 88 48 75 3e
       0.58668923 0.4010658 0.69360465 0.2395345
000070 37 00 50 3f 85 79 c6 3e 1e 59 d1 3e fe d7 76 3f
       0.8125033 0.38764587 0.40888304 0.9642333

features.4.weight f4 [64, 32, 5]
000000 df 3e a1 3d 9c 2b 4b bd a3 32 c7 3b 2b 9e 84 bd
       0.0787332 -0.049602136 0.0060790344 -0.06475481
000010 70 08 ab 3c 2d cb 1e bd 86 36 10 3d 3f d5 2d bd
       0.020878047 -0.038767982 0.035208248 -0.042439695
000020 91 1d ae 3d 68 b3 d6 bc 05 87 26 bb ef 53 a8 bd
       0.08501733 -0.026208594 -0.0025410068 -0.08219134
000030 a1 c0 1b bd 88 85 15 3d 3e a5 eb 3c bf 5d 75 bc
       -0.038025502 0.0365043 0.028765317 -0.014975964
000040 2d 42 b9 3b da f9 eb bb cc 75 7e 3c 6b 99 93 3c
       0.0056536407 -0.0072014155 0.015531015 0.018017491
000050 8c 34 7b 3d 01 8a 9c bd 0f 9d f1 bc 3a 7c bc bc
       0.06132941 -0.0764351 -0.029493837 -0.023008455
000060 f2 3d af bc 5c 5c 28 3d f8 5b 0b bd ea c5 ae 3c
       -0.021391843 0.041103706 -0.034023255 0.021334607
000070 e0 0a ca 3c 98 cb 0a 3c e3 88 91 3b 8a ff 2d bc
       0.024663389 0.008471392 0.004441367 -0.010620007
000080 7f 37 b2 3c 07 55 9b 3d e6 75 5c bd 63 f7 c4 bc
       0.021754978 0.07584577 -0.053823374 -0.024043744
000090 0d 82 60 bc 2d 12 16 bd 8a ba a8 bd e8 fb 8f 3d
       -0.0137028815 -0.036638428 -0.082387045 0.07030469
0000a0 93 e7 bc bb c0 ca 6a 3d 88 06 4d 3b b6 8f 59 bd
       -0.0057649105 0.057322264 0.003128441 -0.05311557
0000b0 28 84 60 3d b0 66 02 3d 90 61 bc bc 13 98 e9 3c
       0.054813534 0.03183621 -0.02299574 0.028514897
0000c0 92 d3 99 bd eb 73 c8 bd 1a 11 7f 3d 6a 66 58 bc
       -0.07511057 -0.097877346 0.06227217 -0.013208011
0000d0 31 13 19 3c 73 47 6c 3d c1 67 c0 bb 25 c9 d0 3d
       0.0093429545 0.057685327 -0.0058717434 0.10194615
0000e0 b5 33 ca 3c bd ff 7c bd a3 2c c8 bd d4 d8 fe bc
       0.024682859 -0.06176733 -0.09774139 -0.031109251
0000f0 41 11 cc 3d c9 7f c9 3c 42 ec c3 3d 5e 41 dc 3d
       0.099642284 0.024597066 0.09566547 0.10754655
000100 bb b1 8f 3d 63 ba a7 3d 9e ad 17 ba da b8 af bd
       0.07016321 0.08189847 -0.0005786064 -0.085801795
000110 e4 84 06 3d df bb 16 bc 84 62 26 bd ed f7 c0 3c
       0.032841578 -0.009200065 -0.040621296 0.02355572
000120 18 3d 82 bb 4a ec 6a bd a7 1e a5 3d 0f df 6d 3c
       -0.003974568 -0.05735425 0.08062487 0.014518513
000130 43 b1 ae 3d a3 b0 88 3d 5b 95 4a 3d 70 99 0a bd
       0.08529904 0.06674316 0.049458843 -0.033837736
000140 88 f8 60 bd be 8f be bd 87 24 4a bd c0 3a ae 3c
       -0.054924518 -0.093047604 -0.04935124 0.021268249
000150 60 36 6d bc 53 ae 11 bd 9c 14 3e bd 87 28 53 3d
       -0.014478296 -0.03556664 -0.046406373 0.05155232
000160 ef 5b 35 3d 3b 2f b9 bc db 70 c3 bc d2 31 37 bd
       0.044277128 -0.022605529 -0.023857525 -0.044725247
000170 4c 1c 36 bd 47 4a 4f 3d 1d 6a 98 bc 54 33 84 bd
       -0.04446058 0.050607946 -0.018605286 -0.064551026
000180 a9 49 af ba 78 91 43 3c 9e 3d 3e bd fc f9 81 3d
       -0.0013373393 0.011936538 -0.04644548 0.06346509
000190 10 4f 92 3d 71 ae 49 3c 8f ae 30 3c 6a 50 16 3d
       0.07143986 0.0123096565 0.0107838055 0.036697783
0001a0 38 47 0e bd 46 39 eb bc 7a 44 f2 bb 31 6c 37 bc
       -0.03473589 -0.028713834 -0.007393417 -0.011195228
0001b0 9e 3d cb 3c da 11 04 3d 11 a3 7c bd c9 bd 16 3d
       0.024809655 0.032243587 -0.06167895 0.036802087
0001c0 da 22 a6 3b a8 0b d8 3c 82 c3 8c 3d e0 62 e9 3c
       0.0050700726 0.026372746 0.06873228 0.02848953
0001d0 ca 47 be bd 20 52 a6 3b a7 c4 5d 3c eb 4f 7c bc
       -0.092910364 0.005075708 0.013535655 -0.015399913
0001e0 cd 83 8b bd 9d 69 5d bd b7 31 90 bd 9b c9 87 3b
       -0.068122484 -0.0540558 -0.07040732 0.0041439063
0001f0 6a 46 2a bd 3f 0f 06 be 1f e5 88 3c dd a1 38 3d
       -0.04157106 -0.13091753 0.016710816 0.04507624
000200 1c cc 39 bd cc 25 21 bc 25 ec 00 3d 0d ef 33 3d
       -0.04536067 -0.009835672 0.031475205 0.04392915
000210 64 bf 8b bd f6 74 12 bd bb 22 01 3c c0 6f 8d 3a
       -0.06823614 -0.035756074 0.007881816 0.001079075
000220 b4 03 77 bb d4 e7 88 bd 4f eb 8d bd c7 c3 f4 3c
       -0.0037691416 -0.06684843 -0.06929647 0.02987851
000230 64 bb 87 bc 8d 29 40 bd b3 cb d9 bc dc 82 26 3d
       -0.016568847 -0.046914626 -0.02658639 0.04065214
000240 00 78 42 bd 3a d0 43 bc eb 35 71 3d 90 ce f6 bb
       -0.047477722 -0.011951501 0.05888931 -0.0075319484
000250 ca dd 3c 3d 2d ff 95 3d f2 d0 18 bd 18 56 98 3d
       0.046109952 0.073240615 -0.03730864 0.07438296
000260 c6 69 06 3d e1 f9 d3 3c 71 54 63 3d 4a 30 55 bd
       0.032815717 0.025875987 0.05550045 -0.052048005
000270 2d 5d 92 bd 39 c5 83 3d b6 1e 8a bc aa 88 d1 3b
       -0.07146678 0.064341016 -0.016860347 0.0063944655
000280 0b 99 97 3c d4 2f 36 bd f8 76 38 b8 81 0d 5a bd
       0.018505594 -0.044479206 -4.3979817e-05 -0.053235535
000290 2e 8b 00 bd d5 e1 b6 3c f8 8b fb bc c2 e9 7d bd
       -0.031382732 0.022324482 -0.03070639 -0.061990507
0002a0 ce 23 af bc 28 5a cd 3b 40 27 56 3d ef 03 08 3d
       -0.021379378 0.006266851 0.052283525 0.033206876
0002b0 2b ee 76 bc 02 c5 25 bc 8a 50 ce 3d 79 7a d4 bc
       -0.015071432 -0.010117771 0.10073955 -0.025937306
0002c0 2b 86 12 3d 1f 39 97 bd fc ac a9 3c 94 c4 19 3d
       0.035772484 -0.07383942 0.020712368 0.037540987
0002d0 4b 2b 1b bd f8 77 04 bd 60 d3 b1 bb 35 7b 87 bd
       -0.037883084 -0.032340974 -0.005426809 -0.06615297
0002e0 6e d5 5f 3d 2b b9 fc bc 45 d2 86 3d a0 a0 6f bc
       0.0546469 -0.030850014 0.065830745 -0.014625698
0002f0 3a 2e de bd 92 cd a0 bd 61 e6 d1 3c 10 33 1f 3c
       -0.10848661 -0.078517094 0.025622549 0.009716764
000300 df 65 91 3d f3 95 83 3b 5d b3 05 bd 14 46 96 bc
       0.070995085 0.004015678 -0.032641757 -0.018343963
000310 35 f8 7e 3d d8 c1 49 3c bb 66 5c bd d8 b4 ee bd
       0.062248427 0.012314282 -0.05380891 -0.11655587
000320 0d 89 b5 3d 65 1b 91 bd bc 47 ff bc cd 4b 50 3d
       0.08864031 -0.07085303 -0.031162135 0.05085354
000330 05 f6 b9 3c ed cd 86 3d f7 43 f9 ba 4b 39 0b bd
       0.022700319 0.06582246 -0.0019017447 -0.033990186
000340 fe 44 2f 3d 19 a4 20 3d ef b7 9b bc 3a 91 6d bc
       0.042790405 0.039218996 -0.019008605 -0.014499957
000350 b2 fb ff bd b5 95 b2 3d 26 25 34 3d 2d 6f 33 3d
       -0.12499179 0.087199606 0.04398074 0.043807197
000360 e1 3f f0 bc ba 5e 87 3d 66 49 8f 3d ea ca 00 be
       -0.029327335 0.066098645 0.069964215 -0.12577406
000370 b0 db cc bd ad 71 5c bd cb 0e cc bc 41 7a e1 3c
       -0.100028396 -0.053819347 -0.024909398 0.027524116
000380 13 8a 27 3c 9a 4f 12 bd 2a 72 49 bc c4 21 c1 3d
       0.010225791 -0.035720445 -0.012295285 0.094302684
000390 cd d5 86 3c 44 a5 62 3c d7 01 35 bd 70 02 aa 3d
       0.01645937 0.013833348 -0.044191208 0.08301246
0003a0 dd 81 79 bd 2b 39 77 bc b6 7d 7c bd cc 20 18 bd
       -0.060914863 -0.0150893135 -0.061643325 -0.037140653
0003b0 52 11 87 bd b7 3a a4 bc 7c b8 f8 3d d0 57 fc 3d
       -0.065951005 -0.020047529 0.121445626 0.123214364
0003c0 59 f7 85 3c 15 c8 03 3d fb 7e c4 bd 93 96 51 3d
       0.016353296 0.032173235 -0.09594532 0.05116899
0003d0 9c 7f a0 3d 22 8d 2e bc 0f 5f ae bd 9a ea 84 bd
       0.078368396 -0.010653766 -0.08514225 -0.06490059
0003e0 7c 00 4f 3d 53 6f 11 bd 4c 16 17 3c b0 ba ff bc
       0.05053757 -0.035506558 0.009221625 -0.03121695
0003f0 8f 42 18 3d d6 11 d7 3b 73 03 18 3d 8b fc 16 bb
       0.03717285 0.0065634055 0.037112664 -0.002303871

features.4.bias f4 [64]
000000 18 2f a5 bc e9 5d cd 3c 7c 01 62 3d 22 28 45 bc
       -0.020164058 0.025069194 0.055177197 -0.012033494
000010 92 ce 44 bd a5 8d 81 bd b6 86 32 3c 58 4f e2 3c
       -0.048048563 -0.06325845 0.010896375 0.027625725
000020 bc 70 8d 3d 57 51 87 bc 93 cb cc bb b0 b8 59 3d
       0.06906268 -0.016518278 -0.006249854 0.053154647
000030 ac 50 a1 3b bc 84 dc 3c 3b 81 af 3d 33 84 bf bc
       0.004922947 0.026918761 0.08569571 -0.023378467
000040 c3 73 b1 3d b5 7f 15 3d 0a 4e 02 3c 79 d1 34 3d
       0.08664658 0.036498744 0.007953176 0.04414508
000050 a4 2b 36 3d e8 e0 43 bd c1 a8 07 bd 2b e3 95 bd
       0.044475213 -0.04782191 -0.03311992 -0.073187195
000060 77 8f 79 bd 25 3b 3d bd 77 4f 05 3d 1d 5b 83 bd
       -0.060927834 -0.046198983 0.032546487 -0.06413863
000070 3a 5e b0 bd b0 9c 45 bd c8 24 33 bd 47 e8 a8 bd
       -0.08611722 -0.048245132 -0.04373625 -0.082474284
000080 67 3b 3d 3b 30 79 8f bd 15 01 d7 bc b7 88 83 bd
       0.0028874518 -0.070055366 -0.026245633 -0.06422561
000090 15 a8 31 3d 0e 14 a0 bc 3d 5c 65 3c 07 37 0a 3d
       0.043373186 -0.019540813 0.013999042 0.033743884
0000a0 a7 16 8d bc cd 37 93 3c 23 cd b8 bd 72 02 bd 3d
       -0.017222716 0.017970944 -0.09023502 0.09228982
0000b0 64 7d bd ba ec 09 67 bc 07 0e df 3c a9 55 1b 3c
       -0.0014456925 -0.014101487 0.027228368 0.009480872
0000c0 04 da 9f 3c 6e cc ba 3c 94 7d 3b 3d 8d a2 e8 bc
       0.019513138 0.022802558 0.045774058 -0.028397823
0000d0 1c 57 4c 3d 26 5e e2 3d 26 70 88 bd 49 e6 c1 3c
       0.04988776 0.11053114 -0.066620156 0.023669379
0000e0 93 d4 22 3d 3e 06 c8 bc 65 b4 e1 bb 06 05 21 bc
       0.039753508 -0.024417039 -0.00688796 -0.009827858
0000f0 f8 92 01 bd 35 72 dc bc b1 79 3d bd 22 4d 9a bd
       -0.0316343 -0.026909927 -0.046258632 -0.07534243

features.5.weight f4 [64]
000000 39 be 7c 3f 22 33 83 3f 52 34 6c 3f d0 80 76 3f
       0.98727757 1.024998 0.92267334 0.962903
000010 06 db 78 3f 4f 19 7c 3f 21 fb 82 3f a1 8f 79 3f
       0.97209203 0.9847612 1.0232888 0.97484785
000020 4c 50 7b 3f c2 03 79 3f 51 c4 7c 3f b4 c5 80 3f
       0.981694 0.9727136 0.98737055 1.0060334
000030 bc 57 7c 3f cc f1 7d 3f 99 f0 78 3f bd 97 7a 3f
       0.9857137 0.9919708 0.9724212 0.97887784
000040 be 74 7b 3f f1 4d 84 3f 2e 4d 80 3f 62 71 84 3f
       0.9822501 1.0336286 1.0023553 1.0347102
000050 44 41 73 3f 0c 7f 7c 3f 15 0d 7f 3f bd 39 7d 3f
       0.9502146 0.9863136 0.99629337 0.98916227
000060 13 72 80 3f c1 0e 74 3f 6e fc 75 3f 13 ab 89 3f
       1.0034813 0.9533501 0.960883 1.0755333
000070 12 5b 84 3f 1d 8e 7d 3f d3 1d 78 3f 8f 7a 85 3f
       1.0340292 0.9904497 0.9692051 1.0428027
000080 ee ed 81 3f 1d da 82 3f 09 88 8a 3f 3b 7c 7c 3f
       1.0150735 1.0222813 1.0822765 0.9862706
000090 a9 58 70 3f a7 04 83 3f 16 47 81 3f 65 a4 7d 3f
       0.93885285 1.0235795 1.0099819 0.9907897
0000a0 08 91 77 3f ce 5e 81 3f 9c 43 81 3f 89 c1 82 3f
       0.96705675 1.0107057 1.0098758 1.0215312
0000b0 16 09 81 3f cb 3d 79 3f b4 b5 7c 3f 75 f2 7b 3f
       1.0080898 0.97359914 0.98714757 0.98416835
0000c0 3e c0 7e 3f ea 32 7f 3f d3 b8 85 3f df ec 85 3f
       0.9951209 0.99687064 1.0447029 1.0462912
0000d0 1c ec 7c 3f 25 38 81 3f d1 a9 75 3f 13 f3 7b 3f
       0.98797774 1.0095259 0.95962244 0.98417777
0000e0 ae 14 7e 3f 42 e7 84 3f 32 b3 78 3f f8 c0 7d 3f
       0.99250305 1.0383074 0.9714843 0.9912257
0000f0 67 5a 7d 3f 7e 36 7b 3f 4a 3f 88 3f 68 4d 79 3f
       0.9896607 0.98130023 1.0644314 0.9738374

features.5.bias f4 [64]
000000 b5 b2 5d bd e8 a6 94 bc 78 c8 86 bb a5 81 3b bd
       -0.054125506 -0.018145993 -0.004113253 -0.045777936
000010 62 6a 0c bd 48 59 1a ba a5 7d 11 3d 2f d8 2e 3b
       -0.034281142 -0.0005887938 0.035520215 0.0026679148
000020 20 63 31 bd 6a f0 26 bd 36 5d 92 b7 69 53 36 bc
       -0.043307424 -0.04075662 -1.7447961e-05 -0.011128285
000030 09 1c 38 bd 48 2e 38 bc fa ce 0e 3d fe d6 b1 bc
       -0.04494861 -0.011241503 0.034865357 -0.021708962
000040 49 34 34 bd e6 0f 0b 3b 63 79 5a bc 97 22 ed 3b
       -0.043995176 0.0021219193 -0.013334605 0.0072367894
000050 47 f0 89 bc cc 71 b9 bc d7 73 b3 bc 5a bc e6 bb
       -0.016838206 -0.02263727 -0.021905823 -0.007041496
000060 eb 2f 4e bd 04 14 c5 3b b4 60 f6 bc 52 b5 17 bd
       -0.050338667 0.006014349 -0.030075409 -0.037038155
000070 ac 4a 89 bc 8a ab 9f bc b0 f7 e0 bc 73 6d 3b bd
       -0.01675924 -0.019490976 -0.027461857 -0.045758676
000080 24 a8 6e bd e8 7b 2a 3c 7b 0c 7e 3c 6e ee f0 bc
       -0.05826582 0.010405518 0.015505905 -0.029410567
000090 96 af 07 bd 9f ea 66 bc 57 3b 2c 3d 39 14 30 bd
       -0.033126436 -0.014094024 0.04204878 -0.042988036
0000a0 80 c2 70 bd 40 ba 96 3c 43 e4 bd 3b b0 cf 26 bd
       -0.05877924 0.018399358 0.005795033 -0.04072541
0000b0 fe 60 a8 bb 3a dc 9b bc c8 d1 59 bd 46 d2 e4 3c
       -0.0051385155 -0.01902591 -0.05317858 0.027932297
0000c0 39 2d eb bc 9c de 09 3b 80 aa 08 bd 1b d7 84 3c
       -0.028708087 0.0021037227 -0.033365726 0.016215852
0000d0 2d ef e5 3b 83 a0 b3 bc cd 92 3f bd 93 a5 e7 3b
       0.0070170374 -0.021927124 -0.04677086 0.0070692985
0000e0 1d 32 c7 bb 26 21 af bc c5 50 25 bd 16 d6 10 bd
       -0.006078972 -0.021378111 -0.04036023 -0.03536042
0000f0 5c 65 07 3c 61 a9 54 bd f2 f8 11 bd 59 6b dc bb
       0.008263912 -0.051919345 -0.035637803 -0.006726664

features.5.running_mean f4 [64]
000000 2a 92 2c bd bb 51 9e bc 88 bd d4 3e ad 45 20 bf
       -0.04213158 -0.019326081 0.4155085 -0.62606317
000010 fc e1 ff bd f6 65 53 be 2c 2c 84 be 57 e0 82 be
       -0.12494275 -0.20644364 -0.2581495 -0.25561783
000020 4f 48 1f 3f 32 63 43 3e 52 5d 9f be f4 97 db be
       0.6221971 0.19080809 -0.31125885 -0.4288937
000030 74 66 df be ca fc 04 bd 49 3c ac be a1 a9 32 3f
       -0.43632853 -0.03246764 -0.33639744 0.69790083
000040 24 cd e1 be 64 62 a4 bd fd 76 de be 83 7b 51 3d
       -0.44101822 -0.08026579 -0.43450156 0.05114318
000050 70 a6 7f 3e 30 d1 ab bd 66 47 9e bd 8d b7 1e bf
       0.24965835 -0.08389509 -0.07728462 -0.61998826
000060 2b ac 08 be a7 7e e9 bd 46 8d dc bd 40 bd 68 be
       -0.13346927 -0.1140111 -0.10769133 -0.22728443
000070 38 40 d0 be 6c 10 d7 be ea 91 c2 bd 90 6f 76 3d
       -0.40673995 -0.42004716 -0.09500487 0.060164988
000080 8d 4c 1a bf ab 40 06 bf ad e4 0f be fc b9 97 be
       -0.6027306 -0.52442425 -0.14052077 -0.29634082
000090 c7 fe d6 3d 66 ff 9d be 00 22 09 bf 5c 5f 64 3e
       0.10497814 -0.30858916 -0.53567505 0.22302002
0000a0 de b6 30 bf 72 0d 60 be 07 32 d0 bd a5 46 93 be
       -0.69029033 -0.21880129 -0.10165792 -0.28764835
0000b0 ac 72 73 bc b2 ec fe bd 6d 95 39 bf 78 1a d6 be
       -0.014858883 -0.1244749 -0.7249363 -0.4181707
0000c0 39 17 1e 3f 6c e7 01 be 43 54 f2 3d a3 b9 7e be
       0.61754185 -0.12685937 0.11832478 -0.24875502
0000d0 22 fe 2c 3d 95 03 84 be e2 ae 18 3f 08 1d 99 3e
       0.042234547 -0.25783983 0.5964185 0.29904962
0000e0 d5 0a 6a be 18 39 ae be fa 60 ff be e6 e1 4f be
       -0.22855695 -0.34027934 -0.49878675 -0.20301017
0000f0 8b d8 e3 bd 8e 5a ae be 7b c2 29 bf 6a e7 c2 be
       -0.11125287 -0.34053463 -0.6631238 -0.3806718

features.5.running_var f4 [64]
000000 06 fc 27 3e a5 6f 65 3e 50 a0 b4 3e 00 e0 da 3e
       0.16404733 0.2240587 0.3527856 0.42749023
000010 69 3f 6a 3e 9e 7c 84 3e 59 bd d1 3e b6 af 61 3e
       0.22875752 0.25876325 0.40964773 0.22039685
000020 42 6c f5 3e b1 c3 d9 3e 44 47 a3 3e 60 a3 85 3e
       0.47934157 0.42532113 0.3189031 0.26101208
000030 e5 64 c4 3e d6 7b 2a 3e 37 1d a6 3e 01 ff e4 3e
       0.38358226 0.16648802 0.32444164 0.44725803
000040 22 24 9f 3e d0 98 84 3e 30 b8 83 3e 65 94 37 3e
       0.31082255 0.25897837 0.2572646 0.17927702
000050 19 7c 9c 3e 51 7b 90 3e 91 dc 39 3e cc 04 82 3e
       0.3056343 0.28219083 0.18150546 0.25394285
000060 88 a6 80 3e 7d e4 76 3e 31 c3 70 3e d0 c0 46 3e
       0.25127053 0.24110599 0.2351196 0.1940949
000070 27 a2 b9 3e c6 b4 7e 3e d3 bb a5 3e 90 66 c9 3e
       0.36256525 0.24873647 0.3236986 0.3933606
000080 38 ee f1 3e 93 88 9b 3e b7 a7 3d 3e d2 39 86 3e
       0.4725206 0.30377635 0.1852101 0.26215988
000090 40 42 b3 3e 91 e4 bd 3e 40 9d b7 3e 1e 72 57 3e
       0.35011482 0.37088445 0.3586216 0.21039626
0000a0 2f 93 09 3f 21 20 88 3e 5c 0d 95 3e f7 ee cf 3e
       0.5374021 0.26587012 0.29111755 0.40612003
0000b0 95 1c 93 3e 6f e7 30 3e 44 3a 15 3f a9 12 9c 3e
       0.28732744 0.17275785 0.5829203 0.30482987
0000c0 56 e9 ac 3e 3b 07 81 3e 97 9d 19 3e 77 dd f1 3e
       0.3377177 0.2520083 0.15001522 0.47239277
0000d0 d3 8f 96 3e 2c ea f1 3d 8e 17 d0 3e 1e c1 80 3e
       0.29406604 0.11812243 0.4064297 0.25147337
0000e0 3f 45 0b 3f f5 b3 8e 3e 01 7e 89 3e 55 1e 6f 3e
       0.54402536 0.2787167 0.26853946 0.23351415
0000f0 02 fd 83 3e c3 a2 08 3f e4 77 f1 3e d8 8a b1 3e
       0.25778967 0.53373355 0.47161782 0.34676242

features.8.weight f4 [128, 64, 5]
000000 7d 4b 85 bc 7b fd 5b bd a3 a1 8e bc e8 2b 24 bd
       -0.016271347 -0.053708535 -0.017411059 -0.040080935
000010 11 58 1a 3d c5 64 12 bc e8 3d df 3c 7c 55 2a 3d
       0.037681643 -0.008935158 0.027251199 0.04158543
000020 e3 f3 ab bd f3 ba 24 bd 69 52 a0 bb b1 79 15 bc
       -0.08396127 -0.04021735 -0.0048926366 -0.009123252
000030 34 a2 30 bd 4b 03 2e 3d b5 49 3e bd 74 2d af bc
       -0.04312344 0.04248361 -0.04645701 -0.021383978
000040 4c f1 b6 bb 7b 03 ec bc ae d9 f1 3c 58 46 28 3d
       -0.005582964 -0.028810253 0.029522743 0.04108271
000050 c7 01 fa 3c f8 53 81 bb ed 8b eb 3b 82 7a 5e 3c
       0.030518426 -0.0039467774 0.0071883113 0.013579013
000060 e6 ed 1c 3d 70 41 21 3d 98 7c 36 bd d3 ed 8e 3c
       0.038312815 0.039369047 -0.044552416 0.017447388
000070 94 e9 ed 3b 8e 82 f0 bc 3b 2d a4 bc 94 3c 2f 3d
       0.0072605107 -0.029359128 -0.020041099 0.04278238
000080 30 90 8b bc 46 10 b2 bc a2 50 8d 3d b2 21 e9 3c
       -0.017036527 -0.021736275 0.06900145 0.02845845
000090 19 c9 3e 3d 6a 6b 4b 3c b1 2d 6c bd ff 2f da bc
       0.0465785 0.012415746 -0.057660762 -0.026634214
0000a0 bf 0c 0e 3d b6 3d 5d bd 23 d3 04 3c e1 8c ad bb
       0.034680124 -0.05401393 0.00810698 -0.005296335
0000b0 f7 3d 70 bd 80 f4 2b 3d 66 2e 00 bd 9e 75 f3 3b
       -0.058652844 0.04198122 -0.03129425 0.0074297925
0000c0 73 8f 13 bd ef 03 9c 3c c2 d4 31 3c 94 5a 9a 3c
       -0.036025476 0.019044844 0.010853948 0.01884202
0000d0 41 9b 0e bd ae 32 0a bc ab b3 c7 3b ea 87 fc 3c
       -0.03481603 -0.008434935 0.006094416 0.030826528
0000e0 17 df 3a 3d 40 24 21 bc de b3 2b 3d 20 da 2d bd
       0.04562291 -0.009835303 0.04191958 -0.04244435
0000f0 62 da 22 ba 3f 49 03 3d 0b b5 6b 3d 59 98 a2 3b
       -0.0006212351 0.032052275 0.057545703 0.004962009
000100 d5 1b 63 bb 99 33 82 bd 5b df 27 bd 1f af 40 3d
       -0.003465404 -0.06357498 -0.040984493 0.04704201
000110 2b ca 6c 3d 84 2a 94 bc 4d 0a a3 3d be 2a 47 bd
       0.05780999 -0.01808668 0.07960949 -0.048624747
000120 ef 99 67 3c b3 f0 06 3d 68 cd e9 3a d9 0a e6 bc
       0.014135822 0.032944392 0.0017837705 -0.028081344
000130 f6 2a 79 bd aa 76 25 bd d3 8f 41 bd 78 2d 1c bd
       -0.060831986 -0.04039637 -0.047256302 -0.0381293
000140 55 f6 31 3d cf 31 5d bd ab 83 61 bd a5 f0 0e 3d
       0.04344781 -0.05400258 -0.05505721 0.034897465
000150 42 1b ad bc 2d a4 15 bd 2d 8e 65 bd c0 73 2f 3c
       -0.021131162 -0.036533523 -0.056043793 0.010708749
000160 4f a3 04 bd 36 72 87 3d 21 3a 01 3d 53 08 a9 3c
       -0.032382306 0.06613581 0.031549577 0.020633852
000170 0c ee b2 3b 0e b9 13 3d 26 1d 5e 3c 8b bc c1 3d
       0.0054605063 0.036065154 0.013556754 0.0945979
000180 e5 30 51 3d 02 67 9e 3d 6d 94 ab 3c ec 6e 7b 3c
       0.05107202 0.07734491 0.020944798 0.01534627
000190 0b aa b6 bc ba e6 b0 ba f0 05 e3 3c 0c bc 28 3d
       -0.02229788 -0.0013496496 0.027712792 0.04119496
0001a0 22 69 c3 3b 60 71 26 bd 3f b6 60 bb 3d 03 32 3d
       0.0059634605 -0.040635467 -0.0034288315 0.04346012
0001b0 24 f8 8d 3c 46 21 6f bc 1c 1d 27 3d c3 45 8a bc
       0.017330237 -0.014595335 0.040799245 -0.016878968
0001c0 26 f5 21 bd b2 09 10 bd 2c 5b 35 3d a2 58 1e 3d
       -0.039540432 -0.035165496 0.0442764 0.038658746
0001d0 20 6a 90 3d 76 10 24 bd 42 f6 93 3c 90 6d 8c bc
       0.07051492 -0.04005476 0.01806176 -0.017142087
0001e0 77 da cc bb 64 66 50 3c 5f 0e c1 3c 69 41 02 3d
       -0.006251629 0.012719724 0.023566423 0.03180066
0001f0 0c 34 57 bc cd d3 d0 3a 4b a0 a5 3c ac 78 4a bd
       -0.013134968 0.0015932262 0.020218035 -0.049431488
000200 82 01 d2 bc a3 35 a2 3c 1a fd 10 3d 30 8a 8d 3c
       -0.025635485 0.019800967 0.035397626 0.017277807
000210 26 54 89 3c b8 25 1f bd fb b0 40 bc dc e8 7b 3c
       0.016763758 -0.03885433 -0.011760945 0.015375342
000220 9f fa 75 bb 94 3c 4d bd 35 b1 f3 3c 35 47 d8 3b
       -0.0037533415 -0.0501066 0.029747585 0.0066002854
000230 be 83 69 3d 65 35 d7 3b 18 f6 8f 3d 3e be b9 bb
       0.057010405 0.0065676444 0.070293605 -0.0056684306
000240 aa af 12 bd 8c 68 2a bc d4 46 97 bc e4 04 f4 3b
       -0.035812058 -0.0104009025 -0.01846639 0.007446872
000250 98 3e 34 3d 27 d1 cd 3c 59 ec 3b 3c e2 75 ed 3c
       0.044005007 0.025124146 0.011469924 0.028986875
000260 ef 32 23 ba 80 2a 24 3b 79 23 68 3d 15 88 8e 3b
       -0.0006225546 0.0025049746 0.056674454 0.0043497183
000270 66 50 f1 ba a7 de e8 bc cb fa fe bc 5f 04 8e bc
       -0.0018410801 -0.028426481 -0.031125447 -0.017336069
000280 c9 04 5c 3b f9 64 22 bd dd 41 3b 3c ab d2 1c 3b
       0.0033572188 -0.039647076 0.011429277 0.0023929279
000290 eb d6 fe bb 23 04 1c bb 2d 29 59 3d e3 ee 86 bb
       -0.007777085 -0.0023806177 0.053017784 -0.004117833
0002a0 1e d0 5d bd 27 19 17 bb bc 4d fb bc 00 c5 ed bc
       -0.054153554 -0.0023055763 -0.030676715 -0.029024601
0002b0 58 9f b3 3c c8 31 c0 bc 68 0c 02 3e 21 20 7e bd
       0.021926567 -0.023461238 0.12700045 -0.06204236
0002c0 b4 e5 29 3d 58 f9 79 bb be e6 f6 bc 95 77 5a bd
       0.041478828 -0.0038143005 -0.030139323 -0.0533367
0002d0 cd fe ee 3b 04 6a 43 3d e4 f7 c9 bb 0d 2f 5c 3d
       0.007293558 0.047708526 -0.006163584 0.05375581
0002e0 48 81 96 3a a6 c6 02 3d 29 77 05 3d 32 48 d7 3c
       0.0011482621 0.031927727 0.032584343 0.026279543
0002f0 1f d5 4a 3c f7 35 82 3d da a0 ce 39 c9 5a 41 3d
       0.012379914 0.06357949 0.00039411226 0.04720572
000300 d7 33 8a 3c 00 67 13 bb 49 6a 9c bb 8e b6 e8 bc
       0.016870422 -0.0022491813 -0.0047734124 -0.028407361
000310 c8 b7 ce 3c 4f 79 89 bc b6 88 d5 3c 3b 50 d1 bc
       0.025234118 -0.016781477 0.026066165 -0.025550952
000320 27 d5 58 bd 0f c2 34 3d 5b ae 7c bd 46 93 00 3d
       -0.052937653 0.04413038 -0.061689716 0.03139045
000330 40 82 1a 3d 5d ca 58 bb 92 0c f0 3c 8c 84 87 bd
       0.037721872 -0.0033079602 0.029302869 -0.06617078
000340 93 90 ad bc d4 55 15 bd d0 72 67 3d 0c b3 d5 3c
       -0.021187102 -0.036458805 0.056505978 0.026086353
000350 65 62 3b 3b ad 2b 1d bd 9c 33 0e bd 00 97 8b bd
       0.0028592583 -0.03837173 -0.034717187 -0.0681591
000360 c3 ba c2 3c fb be a2 3c 36 d4 2e 3b d4 9d 13 bd
       0.023770696 0.019866457 0.002667678 -0.03603919
000370 a2 df 38 bd 3f b5 79 bd 3e bb 30 3d 45 ab 37 3d
       -0.045135148 -0.060963865 0.043147318 0.04484107
000380 fb c5 7f 3c a6 e9 f2 bc c1 47 4e 3c 04 c1 e8 3c
       0.015611167 -0.029652428 0.01259035 0.02841235
000390 e3 7a b9 3c 24 b5 75 3d 4d ff e1 3a e7 3f 67 3d
       0.022641605 0.059987202 0.0017242223 0.056457426
0003a0 eb 6c c4 3b 69 dc 16 bc 2a 9f 5a 3d 85 8f 5f 3d
       0.0059944293 -0.009207823 0.053374447 0.05458023
0003b0 5d f6 42 3d 38 a3 7d bc 8e ef 6d 3d 20 0a 2c 3d
       0.04759823 -0.015480809 0.058089785 0.042001843
0003c0 93 39 61 3d f5 97 90 bd 65 8d 74 bc 4f ed c5 3c
       0.054986548 -0.070602335 -0.014926289 0.02416101
0003d0 cd 99 33 3d c9 aa 33 3d 3d 08 40 bd c9 e2 3a 3d
       0.043847848 0.043864045 -0.046882857 0.045626435
0003e0 a9 ab 90 bd fb d4 e6 3c 57 25 77 ba 17 42 bb bc
       -0.070639916 0.028177729 -0.00094278663 -0.022858663
0003f0 a7 7d 0c bd a8 eb 10 bd 65 2a 93 3d c2 53 fa 3c
       -0.03429952 -0.03538099 0.071858205 0.030557517

features.8.bias f4 [128]
000000 fa 54 b0 3c 1b ad 8b bc f3 d8 42 bd b2 b5 c6 bc
       0.021524895 -0.017050317 -0.04757018 -0.024256561
000010 4b 4c 1d 3c 03 29 87 bc 3a 30 fd 3c 01 8a 37 3d
       0.009600709 -0.016499048 0.030906785 0.044809345
000020 3b 57 6e 3c 55 ac 75 bc e0 a9 f6 bc 08 5e 55 bd
       0.014547165 -0.0149947 -0.0301103 -0.05209163
000030 92 90 b5 3c 1b 43 05 bc 8e 53 f6 bc 2d 88 9e bc
       0.022163663 -0.008133675 -0.030069139 -0.019352043
000040 12 92 02 3d 7e 42 56 bd 2f 44 b2 bc 41 88 20 3c
       0.031877585 -0.052309506 -0.021761028 0.00979811
000050 64 47 11 bd 4c 33 45 3d 37 0f fa bc 55 ae c6 bc
       -0.035468474 0.048144624 -0.030524833 -0.02425305
000060 1a ef 23 3c 97 12 41 bd 4f c8 fd 3c a4 a6 0b bc
       0.010005737 -0.04713687 0.030979304 -0.008523617
000070 5c 4c 7d 3d 79 de 75 3d 34 27 23 bd 5b 0a 7d bc
       0.0618404 0.06002662 -0.03983231 -0.0154443635
000080 4d bb 0e bd 8d d1 e1 bc be e7 ff bc ea fc 96 bc
       -0.034846593 -0.027565742 -0.031238433 -0.018431146
000090 d1 a3 40 3c 32 b9 26 bd 25 ec fe 3c c4 11 a2 bc
       0.011757807 -0.04070396 0.031118462 -0.019783862
0000a0 cc 69 4f bc 26 4f e7 3c 0d 03 81 bb 28 5e 0c 3d
       -0.012659501 0.028235983 -0.0039371313 0.034269482
0000b0 b9 95 ac bc 50 97 36 3c 25 80 49 3c 26 fc 1f bd
       -0.021067487 0.011144474 0.012298618 -0.039058827
0000c0 e3 b4 46 bd 76 db 66 3d 34 e1 56 bd 6e 5f ae bc
       -0.04851235 0.056361638 -0.052460864 -0.021285739
0000d0 88 8c cc bc 9f bd 31 3d 6a cc 1c bc 12 09 1f bc
       -0.024969354 0.043393727 -0.0095702205 -0.009706752
0000e0 c2 89 ec 3a 9f 5a 3f bd df 3b 28 bd 9b 07 2a bd
       0.0018046426 -0.046717282 -0.041072723 -0.04151116
0000f0 a0 5d 3c bd 0e b8 ae 3c 4e b3 ab 3c c3 35 9c bc
       -0.045987725 0.021327998 0.020959523 -0.019068604
000100 ff b8 e7 bb 87 0f 2f 3d 71 21 3b bc ce 0b 95 bc
       -0.007071614 0.042739417 -0.011421547 -0.018194105
000110 4b e4 40 3c 5c 3e ef 3c 76 c7 8f 3d a9 4a 21 3b
       0.011773179 0.02920454 0.07020466 0.0024611151
000120 7b 23 79 3c d7 35 05 3d 6a 5b 36 3d 37 9a 10 3d
       0.015206213 0.03252205 0.044520773 0.03530332
000130 b7 1e a0 bd 0e 7b 00 3c 38 50 cc 3c e4 03 36 3b
       -0.078183584 0.0078418385 0.024940595 0.0027773315
000140 b9 b7 5a 3c f6 ba 00 3d 84 be 3a 3d 12 32 73 3d
       0.013349467 0.0314283 0.045591846 0.059373923
000150 7d 7c cc 3c fe f6 6c 3d 68 6a af 3c a0 47 e9 bc
       0.024961704 0.057852738 0.021413043 -0.028476536
000160 5f 6f 86 3c f8 f1 05 3d cf 28 80 bd 4e 30 13 bc
       0.016410528 0.032701463 -0.062577836 -0.008983685
000170 4f e5 89 bb 0e d8 04 bd c5 c1 58 3d ab b6 6c bd
       -0.004208244 -0.03243261 0.052919168 -0.057791393
000180 80 7b 89 bc 7c 94 42 3d c8 fe 0d bd 07 08 c9 bc
       -0.016782522 0.047504887 -0.034666806 -0.02453996
000190 f2 7a 52 bd 5b d5 b9 bc 0b 24 4b bd 66 92 a4 3a
       -0.05138678 -0.022684744 -0.04959492 0.0012555837
0001a0 65 9d 4a bd 9d 1d 23 bd 9d d9 5f 3d 65 b7 3a bd
       -0.04946651 -0.039823163 0.05465089 -0.045585055
0001b0 22 06 7d 3c 1b 4c 5a 3d d8 7b 26 3d b6 12 18 3d
       0.015443357 0.053295236 0.04064545 0.03712722
0001c0 cd e6 4c 3d 18 94 2c 3d 7f 50 d5 3c 88 7c 39 bd
       0.050024796 0.04213342 0.02603936 -0.045284778
0001d0 98 03 d6 3c 9c 44 5e bd 19 9f e7 bc cf 22 12 bd
       0.02612476 -0.05426465 -0.028274106 -0.035677727
0001e0 29 c9 29 3d b0 b8 aa 3c ed 88 0f bc e0 27 5d b7
       0.041451607 0.020840019 -0.008760673 -1.3181911e-05
0001f0 f0 4a dd bc 6b a8 5f bd 72 c5 3e 3d 60 b6 69 3d
       -0.027013272 -0.054603975 0.046575017 0.057058692

features.9.weight f4 [128]
000000 76 c6 7a 3f c4 48 79 3f b9 15 83 3f 49 4d 7b 3f
       0.9795908 0.97376657 1.0241004 0.981648
000010 ec 43 80 3f 48 2d 76 3f ee c8 78 3f e4 f9 6f 3f
       1.0020728 0.96162844 0.97181594 0.9374068
000020 ad 8f 86 3f 88 ce 7f 3f 1c 16 78 3f a7 10 6d 3f
       1.0512596 0.99924517 0.96908736 0.92603534
000030 35 36 80 3f 9e 75 84 3f 16 ff 76 3f f8 0d 77 3f
       1.0016543 1.0348394 0.9648298 0.9650569
000040 95 e2 85 3f 88 13 83 3f 77 b9 81 3f 77 94 7f 3f
       1.0459772 1.0240335 1.0134724 0.99835914
000050 14 a7 6e 3f 12 8d 79 3f 6f fa 7f 3f 96 8b 79 3f
       0.9322369 0.9748088 0.99991506 0.97478616
000060 46 be 81 3f 5f 6d 73 3f f1 66 81 3f f9 d8 7e 3f
       1.0136192 0.9508876 1.010954 0.99549824
000070 c8 af 7e 3f de c0 86 3f 88 0b 83 3f 72 da 75 3f
       0.9948697 1.0527608 1.0237894 0.96036446
000080 ba ff 75 3f 22 5d 7c 3f 88 8d 7e 3f 0d 46 7c 3f
       0.9609333 0.9857961 0.9943471 0.9854439
000090 dc a2 7d 3f 63 1a 7a 3f 9d 82 7b 3f fa 95 79 3f
       0.9907663 0.9769651 0.98246175 0.9749447
0000a0 c7 cf 6f 3f f3 2d 80 3f 55 3b 7e 3f 47 c4 7e 3f
       0.9367642 1.0014023 0.99309283 0.99518245
0000b0 ce 2f 82 3f 22 cd 82 3f af 32 82 3f 20 e9 83 3f
       1.0170839 1.0218852 1.0171717 1.0305519
0000c0 46 18 7f 3f 0d 39 82 3f 18 7a 80 3f 1a e9 7b 3f
       0.99646413 1.017366 1.003726 0.9840256
0000d0 46 04 74 3f a0 f1 81 3f 32 63 7c 3f ac c9 7a 3f
       0.9531902 1.0151863 0.9858886 0.97963977
0000e0 fd 5a 77 3f d8 be 6f 3f 90 1d 7e 3f de b4 78 3f
       0.9662321 0.9365058 0.9926386 0.9715098
0000f0 ae 90 78 3f c1 52 76 3f c9 c5 7f 3f c8 74 6c 3f
       0.97095764 0.9622002 0.9991117 0.92365694
000100 35 d9 85 3f 52 54 75 3f 0d f5 83 3f 65 e6 76 3f
       1.0456911 0.9583179 1.0309159 0.96445304
000110 d8 10 88 3f 34 32 80 3f 74 9e 83 3f 02 12 81 3f
       1.063014 1.0015321 1.0282731 1.008362
000120 6b 13 85 3f a6 08 80 3f c8 09 77 3f 56 82 78 3f
       1.0396551 1.0002639 0.964993 0.97073877
000130 89 db 85 3f 89 60 86 3f 4b 30 77 3f 50 9b 85 3f
       1.0457622 1.049821 0.96558064 1.0438023
000140 a3 2f 75 3f 10 50 7e 3f ef 2b 6c 3f f2 5a 7b 3f
       0.9577581 0.99340916 0.9225454 0.98185647
000150 42 dc 7c 3f e7 88 6f 3f 7f b4 77 3f 72 1d 7e 3f
       0.98773587 0.9356827 0.9675979 0.9926368
000160 e5 0d 74 3f cf 4a 82 3f 1c 85 79 3f 27 84 82 3f
       0.953337 1.017908 0.97468734 1.019658
000170 65 72 80 3f ff 41 7c 3f 02 41 78 3f 60 9b 80 3f
       1.003491 0.985382 0.96974194 1.0047417
000180 5c af 81 3f fd be 81 3f fc 0b 83 3f f1 70 7a 3f
       1.013164 1.013641 1.0238032 0.97828585
000190 10 53 82 3f 80 d3 7b 3f ad 23 80 3f b3 c0 75 3f
       1.0181599 0.983696 1.0010887 0.9599716
0001a0 30 94 84 3f 02 eb 82 3f 56 d2 75 3f 96 a1 80 3f
       1.0357723 1.0227969 0.9602407 1.0049312
0001b0 21 46 82 3f 4d f5 87 3f 5a b3 7a 3f 71 8a 70 3f
       1.0177652 1.0621735 0.9792992 0.93961245
0001c0 43 31 7c 3f 8e 0b 71 3f 54 1a 78 3f 3b 35 84 3f
       0.9851267 0.94158256 0.96915174 1.0328745
0001d0 74 24 7c 3f 67 b3 83 3f c6 7d 86 3f 21 a2 79 3f
       0.98493123 1.0289124 1.0507133 0.97513014
0001e0 37 ee 75 3f 71 be 79 3f 9f e8 81 3f 5a ae 77 3f
       0.9606661 0.97556216 1.0149115 0.96750414
0001f0 59 c6 77 3f 5f 44 82 3f 1a 6a 6f 3f cc 21 7e 3f
       0.9678703 1.0177115 0.93521273 0.9927032

features.9.bias f4 [128]
000000 5d 70 df bd 8d 5a 57 bd 54 36 47 bd 4a 5d 76 bd
       -0.109101035 -0.05257659 -0.048635796 -0.06014756
000010 3b 22 2d bc cb 1d 7f bd 0a 0d 64 bd 44 0a 8a bd
       -0.010567243 -0.062284272 -0.055676498 -0.06740239
000020 c5 a9 08 bd f1 0c a4 bd 5f 9b 94 bd 60 76 3f bd
       -0.03336503 -0.08010281 -0.07256197 -0.04674375
000030 6f 00 6b bc 53 82 5c bd e6 55 58 bd bc 56 c0 bd
       -0.014343365 -0.053835224 -0.052816294 -0.09391543
000040 99 d1 6a bd de a1 c7 bc 43 b6 50 bd 07 dd d7 bc
       -0.057328794 -0.024369176 -0.05095507 -0.026350511
000050 e9 4d 70 bd f7 a0 46 bd 75 c2 91 bc f1 bb 85 bd
       -0.05866805 -0.04849335 -0.01779292 -0.065299876
000060 08 a1 24 bd b6 11 6d bd b4 6b 91 bd b9 1a e3 bc
       -0.040192634 -0.05787822 -0.07100621 -0.027722703
000070 52 f0 95 bd 56 51 65 bd 94 46 bc 3a 00 84 97 bc
       -0.07321228 -0.05598577 0.0014364296 -0.01849556
000080 f7 a8 20 bd c6 3d ed bc c1 bb 25 bd 8b ef bb bc
       -0.039223637 -0.02896012 -0.04046226 -0.022941371
000090 4f c1 99 bc a5 86 45 bd 3c fe 86 bd 11 59 c6 bb
       -0.018768935 -0.04822411 -0.0659146 -0.006053098
0000a0 c4 fc 69 bd 17 89 af bc 59 bc 71 bb eb 79 81 bc
       -0.05712582 -0.021427674 -0.0036885946 -0.015805205
0000b0 a4 75 af bd 1c d5 88 bc 87 0e 0a bd ba 28 ac bc
       -0.0856736 -0.016703181 -0.03370526 -0.021015514
0000c0 ee 0c f0 bc a9 9d 0f bc e4 91 31 bd 65 67 7f bd
       -0.02930304 -0.008765616 -0.043352023 -0.062354464
0000d0 3c 3c 65 bd 83 64 1b bd b6 97 83 bd 0f 16 cf bc
       -0.055965647 -0.037937652 -0.06425421 -0.025279073
0000e0 56 78 7f bd 22 ef 5c bd f2 61 38 bc 09 2d ea bc
       -0.06237062 -0.053938992 -0.011253821 -0.028585928
0000f0 92 6f 57 bd cd 91 c4 bc 98 0a 6c bd 89 cc 96 bd
       -0.052596636 -0.023995304 -0.05762729 -0.07363231
000100 bd 3f 95 bd b9 d1 48 bd 80 17 99 bc 7e f4 9b bc
       -0.07287548 -0.049028132 -0.018687963 -0.019037481
000110 b0 e2 8a bd e2 f7 2e bd 59 09 6b bd 86 72 95 bc
       -0.067815185 -0.04271687 -0.05738196 -0.018243086
000120 e5 38 b0 bd 76 29 96 3b d1 b6 03 bd e3 cb 91 bc
       -0.08604602 0.0045825792 -0.03215677 -0.017797416
000130 d6 bd a2 bd b5 17 97 bd e6 14 1e bd 98 49 ad bd
       -0.079463646 -0.07377569 -0.03859415 -0.084613025
000140 03 45 0c bd e6 fc 7f bd ab 52 58 bd 11 57 9c bd
       -0.034245502 -0.062497042 -0.052813213 -0.07633794
000150 98 b0 88 bd 2c a8 17 bd bf 5b e9 bc 2e c3 5d bd
       -0.066743076 -0.037025616 -0.02848613 -0.054141216
000160 1c 68 a8 bc 80 1a 62 bd 5b e7 38 bd f8 c6 55 bd
       -0.020557456 -0.055201054 -0.045142513 -0.052191705
000170 6c b0 d9 bd 90 8c fd bc 04 51 3f bd fa c9 3e bd
       -0.10629353 -0.030950814 -0.046708122 -0.04657934
000180 12 3a d0 bc c7 67 59 bd 27 7b 89 bd 4d e5 18 bd
       -0.025418315 -0.053077485 -0.067129426 -0.037328053
000190 cc 2e 04 bd 37 1f 9a bc 5e 68 87 bd 0b 80 2e bd
       -0.03227119 -0.018813713 -0.06611703 -0.04260258
0001a0 79 67 bf bc b9 62 b6 bb 56 aa 8f bd 0e 7c 3c bc
       -0.02336477 -0.005565968 -0.07014911 -0.011504186
0001b0 5d 04 0a bd 0a fd 7b bd b6 98 40 bd ab 04 89 bd
       -0.033695567 -0.061520614 -0.047020636 -0.066903435
0001c0 c2 57 f1 bc fc a3 72 bd 0a b5 c2 bd 7d f2 8a bd
       -0.029460791 -0.05923842 -0.09507187 -0.06784532
0001d0 ef c5 ff bc 5e d3 6c bd 04 33 04 bd ee 40 a0 bd
       -0.031222312 -0.057818763 -0.032275215 -0.07824884
0001e0 d2 ad 77 bd 9f c2 84 bd 01 bb 0e 3c f1 da 8c bd
       -0.060468502 -0.064824335 0.008711577 -0.06877697
0001f0 51 34 20 bd 3f db 5b bd 42 22 19 bd 9a c7 5f bd
       -0.039112393 -0.053675886 -0.037386186 -0.054633714

features.9.running_mean f4 [128]
000000 0e f9 34 3f 94 1b b0 be 4e f4 b2 bf cb 77 53 be
       0.7069253 -0.3439604 -1.3980806 -0.20651166
000010 f6 85 8f be 3a 34 84 3e 56 3d 74 be ec ae 50 3f
       -0.28031892 0.25821096 -0.23851523 0.8151691
000020 70 05 92 be fe 4a aa bf 3f 94 64 3e aa 2e 79 3f
       -0.28519773 -1.3304136 0.22322176 0.9733683
000030 e7 df 7d bf 73 cf c8 bc ca 0a 1a bf 9f b1 0a be
       -0.9916977 -0.024512982 -0.6017271 -0.1354432
000040 be 40 df bf e1 75 4c bf e8 11 e9 be e6 e7 03 be
       -1.7441633 -0.7986737 -0.45521474 -0.12881431
000050 64 89 e4 bf 48 9b 86 bf 38 f5 49 bf 65 eb b2 3f
       -1.7854428 -1.0516138 -0.788898 1.3978087
000060 67 cb e9 3e b6 16 31 bf c7 23 80 bf 67 13 7a bf
       0.45662996 -0.6917528 -1.0010918 -0.97685856
000070 74 28 be 3e 40 a2 ae bf 7c c8 28 bf 44 72 a4 bf
       0.37140238 -1.3643265 -0.65930915 -1.2847371
000080 c3 97 d5 be 77 49 f5 be e2 94 bc bf 0b 91 0c bf
       -0.41717348 -0.47907612 -1.4732935 -0.5490882
000090 5a 07 7d bf 30 ef 3d bf 36 dd 7a 3e 9a 5a ee be
       -0.9883934 -0.74193096 0.24498448 -0.46553499
0000a0 5f 81 4a bf 38 f7 ab be a6 c4 90 be be 71 31 bf
       -0.79103655 -0.3358705 -0.2827503 -0.6931418
0000b0 55 1c a3 bf e2 ab d8 be 5f 56 2b 3f 4b 78 bf bf
       -1.2743021 -0.42318636 0.66928667 -1.4958586
0000c0 50 b9 50 3f 5e c3 ac 3d b5 d9 66 be 37 0d e9 be
       0.81532764 0.08435701 -0.22543986 -0.45517895
0000d0 e3 b4 25 bf b0 b0 3b bf 5b 11 a1 be 50 1f 84 be
       -0.64729136 -0.7331648 -0.31458554 -0.2580514
0000e0 62 2f 2e be 89 8f 62 bf f7 1a ba bf 06 7d 70 3e
       -0.17010263 -0.8850027 -1.4539479 0.23485193
0000f0 ae 77 39 3f b9 f5 18 bf 9b 37 93 be 81 8b 52 bf
       0.7244824 -0.59749943 -0.2875336 -0.82244116
000100 30 cb c9 3e 86 49 70 be c1 de bb be 86 3e 86 bf
       0.39412832 -0.23465547 -0.36693385 -1.0487831
000110 b2 f8 cf bf dd 64 b0 bc 69 8f ca be 49 d8 ab be
       -1.6247771 -0.02153247 -0.39562538 -0.3356345
000120 39 27 73 3f b8 59 23 bf b6 e1 4a 3f 9f ec 2e bf
       0.94981724 -0.63808775 0.7925066 -0.68329805
000130 09 19 d2 bc 36 81 a2 bf 96 f6 10 be 82 ba d8 be
       -0.025646703 -1.2695682 -0.14156565 -0.42329794
000140 b6 b4 09 3f 18 05 bc be e2 5d cf 3d 75 e4 88 3e
       0.5379137 -0.36722636 0.101253286 0.267368
000150 b5 99 16 bf d6 fb ad bd ba 09 95 bf fb ea e9 3e
       -0.5882829 -0.084952995 -1.1643593 0.45687088
000160 75 d0 8a bf b9 58 ea be 3a d5 91 bf 82 28 e1 be
       -1.0844866 -0.45770815 -1.1393197 -0.43976218
000170 4a 3e 13 3f 50 6d db be c7 77 6b bf d0 ff ab bf
       0.5751692 -0.42856836 -0.9197964 -1.3437443
000180 ba 74 0a be 08 df 29 bf 93 4d 99 bf a7 65 eb be
       -0.1352109 -0.66355944 -1.1976799 -0.45975992
000190 25 f8 db bf 1f b2 9a be af 94 26 bf f6 82 16 bf
       -1.7185103 -0.3021402 -0.65070623 -0.5879358
0001a0 be 6f 30 be 66 1c a9 be 5f a6 84 be ad af aa be
       -0.17230126 -0.3302948 -0.2590818 -0.33337155
0001b0 b3 5e e4 bf 6b ca a9 bf c2 64 d8 bf 69 23 a9 bd
       -1.78414 -1.3264898 -1.6905749 -0.08258707
0001c0 e4 a5 c6 be 62 69 1a 3f db 09 50 bf c5 aa 3b 3f
       -0.3879844 0.6031705 -0.8126504 0.7330745
0001d0 4f 19 dd be ab 9c 1b 3e 5d 40 a1 bf 60 fe 32 3e
       -0.4318337 0.15196483 -1.2597767 0.17479849
0001e0 f1 ae 09 be 59 29 b2 3e 5f 3f 2d be 3e b0 eb be
       -0.13445641 0.3479717 -0.16918705 -0.460329
0001f0 64 6e 36 bf 01 52 19 3f 98 44 5e be 0d 69 28 3e
       -0.7126219 0.59890753 -0.21705854 0.16446324
