experiment_testing/mz-testing/checkpoints/ptbxl/250hz/cnn1d/fold_4/last.pt (torch, 628765 bytes, 26 tensors)

features.0.weight f4 [32, 12, 7]
0.07625785 -0.07792639 0.058173418 0.010032597 0.028503802 -0.042509966 -0.11498604 -0.010460321
0.0038044013 0.08374605 0.006592238 0.06662464 -0.10032111 -0.07030384 0.018506268 0.038447846
0.024371443 0.04620513 -0.010204535 -0.029464563 0.065624274 -0.02469123 0.082065366 -0.028597299
-0.02693405 -0.014410165 0.119145215 0.116054855 -0.054293945 0.0010838279 -0.007984319 0.022264373
0.06953734 0.0025293827 -0.06299055 0.08871608 0.08510102 0.09273308 -0.123946644 -0.10633087
-0.08358565 0.09300883 -0.120965615 0.004167199 -0.055544462 0.06433631 0.009794336 0.006189556
0.11123388 -0.02892101 0.0005219365 -0.016362133 0.01859328 0.008070676 -0.03021413 0.025921954
-0.10304745 0.063814305 -0.08102555 -0.08888352 0.0059922393 -0.06486231 0.0047844932 0.09809493
0.1397105 0.0692461 0.118176125 0.081555106 0.0706944 0.1221485 0.0043849745 -0.025558477
-0.122793056 -0.0058742766 -0.14560945 0.019392705 0.0067859823 0.039240036 -0.05963796 -0.027278557
-0.018701615 -0.0040400405 -0.0639094 -0.11379013 0.018885022 -0.06453891 0.0691824 0.035348188
-0.008785873 0.033731505 -0.012504954 -0.15278375 -0.014676122 -0.021417126 -0.005214757 0.009587279
-0.041235123 0.07027817 0.028702106 -0.030689742 -0.028032923 0.056251366 -0.037892137 0.011822273
0.073998906 0.12967886 -0.05965642 -0.083955996 -0.060831457 0.06896024 -0.074185945 -0.03742876
-0.0066442904 0.06109838 -0.015730524 0.06984088 0.002593272 -0.057192165 -0.096895576 -0.07560537
-0.12382603 -0.09203673 0.0022899748 -0.0705325 0.0777169 0.045958783 0.069643 -0.04614635
-0.007497475 -0.07662526 0.07469926 0.030348655 0.16613217 0.09997289 0.024619909 0.0012448328
0.041982744 -0.0122207925 -0.054150224 0.09190551 0.001126692 -0.06793342 0.048939988 0.03289685
-0.114644215 -0.06939066 0.00013715334 0.0033361884 0.032882124 0.065059006 -0.00027378683 -0.101111695
-0.0599889 -0.007206018 0.08988007 -0.09568409 0.02915554 -0.0051230215 -0.013285428 0.07729181
-0.003971907 0.061181612 -0.020398594 -0.10817913 -0.10285062 -0.12576158 -0.0628973 -0.115777716
-0.0718543 0.041387755 -0.043917917 0.08073877 0.047860187 0.04833253 0.018448917 -0.016008804
-0.03925444 -0.022174386 -0.053995114 0.036350746 0.037260816 -0.09324005 0.07700653 -0.0010598482
-0.016491408 0.007140092 0.003904185 -0.024039658 0.025961187 0.057551283 0.12274656 0.05501496
-0.073315695 -0.07372043 0.010273178 -0.08130332 -0.0475711 -0.05249925 -0.057919446 -0.02513681
0.08847291 -0.016607456 -0.046440452 0.10600023 -0.013393173 0.08996372 -0.08904386 -0.09822851
-0.051990427 -0.069134586 0.15376048 0.09914489 -0.023595791 -0.02689597 -0.11440029 -0.094042525
0.0029506336 0.08881042 0.012799999 0.084814854 -0.013597284 0.05735561 -0.12699972 -0.08680675
0.033559103 0.10982181 0.052228924 0.049921256 -0.10820074 -0.09137475 -0.08044806 0.09075384
0.018528137 -0.001444415 -0.12933844 0.04544025 -0.10413017 -0.014105495 0.108263835 0.088605404
-0.00017915542 -0.041043006 -0.010160023 -0.024873994 0.068677165 -0.034436308 0.021027895 -0.010849197
-0.07031728 0.008044497 -0.081475385 0.036256887 0.08079486 -0.101838924 0.095473915 0.10195284
00000000: 132d 9c3d df97 9fbd 4047 6e3d c35f 243c
00000010: ce80 e93c ee1e 2ebd cd7d ebbd c461 2bbc
00000020: 4353 793b 0d83 ab3d b303 d83b 8072 883d
00000030: 2775 cdbd 76fb 8fbd 759a 973c 7d7b 1d3d
00000040: 9fa6 c73c 9741 3d3d ec30 27bc ab5f f1bc
00000050: 0566 863d 4345 cabc e311 a83d e244 eabc
00000060: cca4 dcbc 9d18 6cbc 6802 f43d 2bae ed3d
00000070: 5463 5ebd 3b0f 8e3a a9d0 02bc c663 b63c
00000080: 9869 8e3d 00c4 253b 3101 81bd c7b0 b53d
00000090: 7249 ae3d d7ea bd3d bdd7 fdbd 00c4 d9bd
000000a0: f42e abbd 6a7b be3d d2bc f7bd 008d 883b
000000b0: 9782 63bd c1c2 833d 6c78 203c c2d1 ca3b
000000c0: 97ce e33d c1eb ecbc 91d2 083a e109 86bc
000000d0: ef50 983c de3a 043c a083 f7bc 475a d43c
000000e0: 8b0a d3bd 13b1 823d b9f0 a5bd 9008 b6bd
000000f0: 8c5a c43b 88d6 84bd 3dc7 9c3b ffe5 c83d
00000100: 4510 0f3e e6d0 8d3d 5306 f23d 5d06 a73d
00000110: 3ac8 903d fe28 fa3d d5af 8f3b 0360 d1bc
00000120: ed7a fbbd 017d c0bb a51a 15be 73dd 9e3c
00000130: f25c de3b 29ba 203d ef46 74bd 4877 dfbc
00000140: 2134 99bc 5162 84bb eee2 82bd cd0a e9bd
00000150: c3b4 9a3c fa2c 84bd 81af 8d3d 43c9 103d
00000160: 9ff2 0fbc 0c2a 0a3d 94e1 4cbc 5873 1cbe
00000170: 1e74 70bc f872 afbc 8de0 aabb f613 1d3c
00000180: 29e6 28bd 00ee 8f3d ae20 eb3c 0e69 fbbc
00000190: 4da5 e5bc d567 663d c934 1bbd 35b2 413c
000001a0: bd8c 973d 89ca 043e 4a5a 74bd 1ff1 abbd
000001b0: 682a 79bd 073b 8d3d cdee 97bd e64e 19bd
000001c0: 59b8 d9bb 4b42 7a3d 4ddd 80bc bc08 8f3d
000001d0: e2f3 293b 5542 6abd 3071 c6bd fdd6 9abd
000001e0: 8098 fdbd c17d bcbd 6713 163b 5873 90bd
000001f0: 0a2a 9f3d 473f 3c3d fda0 8e3d f503 3dbd
00000200: 61ad f5bb b4ed 9cbd edfb 983d be9d f83c
00000210: 8d1e 2a3e 96be cc3d b1af c93c a829 a33a
00000220: 19f6 2b3d b839 48bc a0cc 5dbd f538 bc3d
00000230: 83ad 933a ad20 8bbd 4c75 483d d9be 063d
00000240: 96ca eabd b11c 8ebd d2d0 0f39 f4a3 5a3b
00000250: 68af 063d a83d 853d 0c8b 8fb9 a613 cfbd
00000260: ecb6 75bd 7620 ecbb 0b13 b83d 05f6 c3bd
00000270: 99d7 ee3c 05df a7bb 20ab 59bc 2b4b 9e3d
00000280: c526 82bb 9299 7a3d f41a a7bc 058d ddbd
00000290: 59a3 d2bd a5c7 00be 4dd0 80bd de1c edbd
000002a0: 5928 93bd 3586 293d 46e3 33bd 5e5a a53d
000002b0: 0b09 443d 55f8 453d 2f22 973c e524 83bc
000002c0: 44c9 20bd 0fa7 b5bc fb29 5dbd 85e4 143d
000002d0: cc9e 183d a4f4 bebd 99b5 9d3d 9bea 8aba
000002e0: fd18 87bc 6ff7 e93b 5bdd 7f3b d1ee c4bc
000002f0: 8eac d43c e5ba 6b3d 8c62 fb3d 5e57 613d
00000300: 8a26 96bd bdfa 96bd d550 283c 5b82 a6bd
00000310: ead9 42bd 7409 57bd f13c 6dbd b6eb cdbc
00000320: 4931 b53d 5c0c 88bc 5838 3ebd a616 d93d
00000330: 0a6f 5bbc e63e b83d a15c b6bd 072c c9bd
00000340: eaf3 54bd 6f96 8dbd 6373 1d3e 7a0c cb3d
00000350: f64b c1bc f054 dcbc b34a eabd 5e99 c0bd
00000360: 6b5f 413b 3de2 b53d 16b7 513c 69b3 ad3d
00000370: 25c7 5ebc b7ed 6a3d 370c 02be bdc7 b1bd
00000380: 4575 093d 42ea e03d ffed 553d 3b7a 4c3d
00000390: 5998 ddbd af22 bbbd f4c1 a4bd 26dd b93d
000003a0: 52c8 973c 8652 bdba 4c71 04be 8e1f 3a3d
000003b0: 3342 d5bd bc1a 67bc 6eb9 dd3d c076 b53d
000003c0: abdb 3bb9 b61c 28bd 3a76 26bc 8cc4 cbbc
000003d0: 9da6 8c3d 160d 0dbd b142 ac3c d5c0 31bc
000003e0: 8202 90bd 11cd 033c 91dc a6bd 1a82 143d
000003f0: c777 a53d ed90 d0bd d487 c33d a7cc d03d

features.0.bias f4 [32]
-0.052015524 0.04803013 0.07827351 0.06951223 -0.06705776 0.025905216 -0.06720698 0.10181862
-0.0287757 -0.05521112 -0.0004021115 -0.059826795 -0.021481415 0.03323138 0.05817988 -0.07183275
0.012133349 0.0812744 -0.038104028 -0.017229332 0.051146526 0.07580786 0.02193335 0.13342802
0.07372304 -0.08712576 -0.024779493 -0.06259284 -0.07430986 0.09918536 -0.068835914 -0.10572467
00000000: 3b0e 55bd 3ebb 443d dd4d a03d 6e5c 8e3d
00000010: 9455 89bd 2d37 d43c d0a3 89bd 4886 d03d
00000020: 04bb ebbc 0e25 62bd 7ed2 d2b9 f10c 75bd
00000030: cbf9 afbc a11d 083d 074e 6e3d 0d1d 93bd
00000040: f4ca 463c 3173 a63d f812 1cbd 8724 8dbc
00000050: 057f 513d 2741 9b3d 92ad b33c 5ba1 083e
00000060: 1bfc 963d fe6e b2bd 5dfe cabc ad30 80bd
00000070: c52f 98bd b221 cb3d d8f9 8cbd 2d86 d8bd

features.1.weight f4 [32]
0.9847103 1.0089288 1.0219802 0.9968146 0.9902529 0.9966767 1.0238813 1.0713512
0.9701748 1.0247011 0.9415487 1.0005069 1.0131707 0.91697216 1.0304674 1.0265076
1.0476118 0.95314705 0.9907332 0.9614242 1.0108187 0.96641886 0.9579232 1.006064
1.0409077 1.0301372 0.98859596 1.0400453 0.95578116 1.0393898 0.99330246 0.9398076
00000000: f915 7c3f 9424 813f 3fd0 823f 3e2f 7f3f
00000010: 3781 7d3f 3426 7f3f 8b0e 833f 0922 893f
00000020: 605d 783f 6829 833f 5609 713f 9c10 803f
00000030: 94af 813f b0be 6a3f 5be6 833f 9a64 833f
00000040: 2518 863f 7201 743f b1a0 7d3f e51f 763f
00000050: 8262 813f 3a67 773f 743a 753f b5c6 803f
00000060: 773c 853f 89db 833f a014 7d3f 3420 853f
00000070: 13ae 743f ba0a 853f 1249 7e3f 3b97 703f

features.1.bias f4 [32]
0.002619298 -0.0041573253 0.013242887 -0.019267658 0.22987065 -0.02330085 0.0088028 0.106495485
-0.029093055 -0.011191801 -0.01195368 0.10292497 0.025806038 0.060906217 0.08009448 -0.0313678
0.033528607 -0.04622368 0.006052404 -0.05845344 -0.0094257 0.0082583185 -0.02362494 0.027831284
0.05320861 0.05934588 -0.08734681 0.05142856 0.01888196 0.019623274 0.0578288 0.045433387
00000000: 87a8 2b3b 2c3a 88bb b2f8 583c 35d7 9dbc
00000010: 3663 6b3e 6de1 bebc 9f39 103c 4e1a da3d
00000020: 8f54 eebc d15d 37bc 5ed9 43bc 54ca d23d
00000030: 2f67 d33c cc78 793d 9308 a43d 867b 00bd
00000040: 4b55 093d 0b55 3dbd 3f53 c63b e06c 6fbd
00000050: 406e 1abc e64d 073c 1789 c1bc 6ffe e33c
00000060: 45f1 593d aa14 733d e2e2 b2bd c1a6 523d
00000070: 57ae 9a3c fdc0 a03c e4dd 6c3d 5c18 3a3d

features.1.running_mean f4 [32]
-0.05202659 0.04793835 0.078317076 0.06913164 -0.06690914 0.025901038 -0.06723437 0.1018211
-0.028727457 -0.05545802 -0.00038808497 -0.059802704 -0.021566309 0.033255022 0.058134306 -0.07184085
0.012128327 0.081262946 -0.03815799 -0.017150132 0.05120104 0.07578787 0.021892041 0.13358255
0.07382994 -0.08698848 -0.024802351 -0.062497962 -0.07425098 0.09905227 -0.068871856 -0.10454389
00000000: d519 55bd 015b 443d b464 a03d e494 8d3d
00000010: a907 89bd 6a2e d43c 2cb2 89bd 9587 d03d
00000020: d855 ebbc f327 63bd e277 cbb9 aef3 74bd
00000030: d4ab b0bc 6b36 083d 3d1e 6e3d 4c21 93bd
00000040: e4b5 463c 306d a63d 8d4b 1cbd 6f7e 8cbc
00000050: 2fb8 513d ac36 9b3d f056 b33c ddc9 083e
00000060: 2734 973d 0427 b2bd 4d2e cbbc ddfd 7fbd
00000070: e610 98bd ebdb ca3d b00c 8dbd 1b1b d6bd

features.1.running_var f4 [32]
0.4967656 0.5411658 0.2725071 0.4021552 0.9092691 0.80376047 1.9505123 0.5133475
1.3575113 1.2562094 0.507413 1.7553005 0.5051061 1.1523163 0.96202046 0.5657054
1.9056059 1.2434177 0.68711936 0.37382233 0.41909462 0.44856715 0.93560946 1.7002356
0.4517436 0.7264713 0.28610218 0.9622226 0.34140924 0.37451252 0.22162682 1.5988477
00000000: 1058 fe3e d889 0a3f 0d86 8b3e 49e7 cd3e
00000010: dcc5 683f 3fc3 4d3f 63aa f93f be6a 033f
00000020: eec2 ad3f 78cb a03f d2e5 013f b0ad e03f
00000030: a24e 013f 1a7f 933f f946 763f 12d2 103f
00000040: e5ea f33f 5028 9f3f 0ee7 2f3f a465 bf3e
00000050: 9293 d63e 98aa e53e 1a84 6f3f 52a1 d93f
00000060: f04a e73e 06fa 393f fc7b 923e 3854 763f
00000070: 31cd ae3e 1bc0 bf3e 24f2 623e 0ba7 cc3f

features.4.weight f4 [64, 32, 5]
0.023250274 -0.05283244 0.013484628 -0.021776538 0.029754136 0.048525717 0.12511106 0.090254046
0.066040546 0.017170759 -0.032563254 -0.0320668 -0.046793543 0.059321076 0.040956505 0.055623185
0.03880054 0.061303414 0.04820338 0.028650355 0.04302252 -0.035867516 0.08600693 0.024931952
-0.03918098 0.08203204 0.007964334 0.06431478 -0.022866946 0.08738361 0.111852035 -0.0025605909
-0.0051517054 0.07668046 0.07821245 0.037076354 0.07624736 0.06413809 -0.01678844 -0.021201622
-0.072528586 0.058533847 -0.068219185 -0.015507753 -0.010712973 -0.04857686 -0.013417816 -0.059119582
0.008929989 0.055413313 -0.026740214 0.033395812 -0.05856766 0.042803243 -0.04588926 -0.09531501
-0.08124904 -0.029823927 -0.04840953 0.01733066 0.10448585 0.044474207 0.06786715 -0.00458992
-0.0042335335 0.046923038 -0.03999053 0.07357641 0.000801461 0.0005689525 0.084013954 -0.048448704
0.062332626 -0.009605573 0.019841185 0.010456323 0.07555977 -0.038802017 0.06835623 0.017322613
-0.02907558 -0.0807707 -0.08848658 -0.0693532 -0.06633805 0.008425338 -0.05667933 -0.004855142
-0.0050258096 0.05089535 0.059118696 -0.03430744 0.019978685 -0.0144881485 0.009505138 -0.009611963
0.026723834 -0.017816965 0.0053436523 0.0278126 0.060840756 -0.024877574 0.032890815 -0.08262375
0.011536544 0.059793647 0.04201684 0.01820903 0.059987918 0.048934992 -0.008587867 0.023275793
0.024589688 -0.04620621 -0.029162776 0.07765172 0.0291938 -0.014083995 0.012850094 0.019371353
-0.068164244 0.09079517 -0.048594076 -0.065854035 0.015113192 0.08080942 -0.02261995 0.09548665
0.0881439 0.034513015 -0.011814763 -0.06185892 -0.05554933 0.011589762 0.015544778 -0.05896463
-0.019409906 -0.016826382 0.0066776355 -0.05136017 0.011644536 0.07394067 -0.006230792 -0.023523081
-0.025215108 0.060301695 -0.024053931 -0.07744774 -0.051009238 0.05844043 0.0130438395 -0.030232785
0.017891232 -0.01017418 0.03769313 0.071183726 0.08018821 0.011911748 0.0126808565 0.022803659
0.0023349936 -0.08311686 0.022354905 0.09422183 0.059157945 -0.015732171 0.057840157 0.027397769
0.061343014 0.066025786 0.05660305 -0.025218656 -0.049836207 0.048830323 -0.014483963 -0.0139045445
0.041450836 -0.058869626 0.03414236 -0.0031620697 0.100873984 -0.006150472 0.075389855 0.0042848196
0.07150023 0.123764865 0.019256832 0.047775637 -0.0028512026 0.042087663 0.027145904 -0.053754073
-0.030902347 0.039486967 0.02484899 0.06470934 -0.0438334 0.021928942 -0.020086128 0.027236588
-0.050100517 0.02945324 0.04305058 0.01814845 -0.0028100258 0.089244656 -0.02675761 -0.03687872
-0.07320399 -0.0812932 -0.12730967 -0.0562044 0.014972459 -0.04578884 0.054189146 -0.0043576537
-0.048417967 -0.018248765 -0.08036355 -0.06656428 -0.021364076 -0.035086468 -0.008762469 0.053939465
0.07890435 0.049589615 0.027054684 0.121159755 0.08835563 0.08091831 0.055888765 0.09875536
0.051930476 -0.00016023345 0.06920061 -0.06919339 0.02213084 0.04705746 -0.03165499 0.008301491
0.0035099466 0.06375842 -0.0048026964 -0.002729425 -0.037877202 0.03474892 0.088007286 0.008495162
0.03354413 0.004156678 -0.07026585 -0.0977509 -0.06907596 -0.006640608 0.04914798 -0.010915766
00000000: 5c77 be3c d466 58bd a1ee 5c3c b664 b2bc
00000010: f2be f33c e7c2 463d 1d1d 003e 1dd7 b83d
00000020: 4440 873d b1a9 8c3c 0c61 05bd 7a58 03bd
00000030: 96aa 3fbd a8fa 723d 02c2 273d 23d5 633d
00000040: 51ed 1e3d 4a19 7b3d e870 453d 26b4 ea3c
00000050: 6238 303d d1e9 12bd 6724 b03d 183e cc3c
00000060: 3c7c 20bd 6a00 a83d d77c 023c 78b7 833d
00000070: 7653 bbbc 2ef6 b23d ae12 e53d 96cf 27bb
00000080: a3cf a8bb a50a 9d3d d92d a03d 60dd 173d
00000090: 9327 9c3d d55a 833d e987 89bc 06af adbc
000000a0: de89 94bd 30c1 6f3d 80b6 8bbd 3b14 7ebc
000000b0: 7785 2fbc 88f8 46bd 66d6 5bbc 6027 72bd
000000c0: 174f 123c 12f9 623d 4b0e dbbc 0cca 083d
000000d0: a5e4 6fbd 7452 2f3d 60f6 3bbd 8434 c3bd
000000e0: e665 a6bd 4f51 f4bc 1249 46bd 07f9 8d3c
000000f0: adfc d53d 962a 363d effd 8a3d 0a67 96bb
00000100: 74b9 8abb 5f32 403d 1ccd 23bd 3baf 963d
00000110: 2319 523a c225 153a 820f ac3d 2672 46bd
00000120: 7f50 7f3d b160 1dbc fb89 a23c ff50 2b3c
00000130: 15bf 9a3d ddee 1ebd 5afe 8b3d 27e8 8d3c
00000140: e92f eebc 1c6b a5bd 7438 b5bd 0d09 8ebd
00000150: 3edc 87bd 6e0a 0a3c 9628 68bd e217 9fbb
00000160: 8caf a4bb a477 503d 7226 723d f585 0cbd
00000170: 57aa a33c b35f 6dbc 70bb 1b3c 7f7b 1dbc
00000180: f1eb da3c e2f4 91bc ce19 af3b 40d7 e33c
00000190: 2834 793d 0ecc cbbc 85b8 063d a436 a9bd
000001a0: c603 3d3c 2fea 743d da19 2c3d 1b2b 953c
000001b0: e4b5 753d 0f70 483d 20b4 0cbc e0ac be3c
000001c0: 5070 c93c b942 3dbd c6e6 eebc dd07 9f3d
000001d0: d627 ef3c 8ec0 66bc 3389 523c acb0 9e3c
000001e0: b299 8bbd d1f2 b93d 950a 47bd 7bde 86bd
000001f0: 529d 773c 697f a53d 794d b9bc 818e c33d
00000200: ca84 b43d 855d 0d3d b592 41bc c75f 7dbd
00000210: b287 63bd fce2 3d3c 86af 7e3c e584 71bd
00000220: 8601 9fbc 7bd7 89bc 11d0 da3b 0b5f 52bd
00000230: b9c8 3e3c 356e 973d ac2b ccbb 7ab3 c0bc
00000240: ea8f cebc e9fe 763d c00c c5bc ec9c 9ebd
00000250: 10ef 50bd 3b5f 6f3d d4b5 553c bfaa f7bc
00000260: a290 923c 9bb1 26bc 1d64 1a3d c6c8 913d
00000270: b739 a43d 7e29 433c 5ec3 4f3c bdce ba3c
00000280: b106 193b 2c39 aabd a221 b73c 60f7 c03d
00000290: 9a4f 723d c1e0 80bc cde9 6c3d 4971 e03c
000002a0: d042 7b3d 8738 873d 9ad8 673d 5b97 cebc
000002b0: 0d21 4cbd 4e02 483d 254e 6dbc e3cf 63bc
000002c0: 5ac8 293d 4721 71bd dcd8 0b3d ba3a 4fbb
000002d0: 0597 ce3d e689 c9bb ff65 9a3d ac67 8c3b
000002e0: b66e 923d 6f78 fd3d 81c0 9d3c 63b0 433d
000002f0: 3edb 3abb 1d64 2c3d 1661 de3c 3b2d 5cbd
00000300: eb26 fdbc 16bd 213d 1c90 cb3c 5586 843d
00000310: a78a 33bd 53a4 b33c aa8b a4bc 441f df3c
00000320: 3336 4dbd ec47 f13c ce55 303d 0fac 943c
00000330: 6928 38bb e7c5 b63d c632 dbbc 240e 17bd
00000340: f9eb 95bd 0d7d a6bd 775d 02be 9636 66bd
00000350: 0b4f 753c 148d 3bbd 70f5 5d3d a6ca 8ebb
00000360: eb51 46bd 6f7e 95bc a595 a4bd da52 88bd
00000370: b703 afbc d4b6 0fbd 7590 0fbc a1ef 5c3d
00000380: 9b98 a13d 7b1e 4b3d c9a1 dd3c 9b22 f83d
00000390: ccf3 b43d 80b8 a53d 9eeb 643d 4040 ca3d
000003a0: 0db5 543d 5704 28b9 0db9 8d3d 44b5 8dbd
000003b0: bc4b b53c 53bf 403d aaa8 01bd fa02 083c
000003c0: 2207 663b c693 823d f05f 9dbb 27e0 32bb
000003d0: 2025 1bbd e254 0e3d 2a3d b43d 4b2f 0b3c
000003e0: 9265 093d be34 883b 8be7 8fbd a031 c8bd
000003f0: b277 8dbd 7599 d9bb 644f 493d 0ad8 32bc

features.4.bias f4 [64]
0.023446588 0.025432246 -0.016287865 0.092166066 -0.060774412 0.06312638 0.019319363 0.025392309
0.06273252 0.091062784 -0.06438924 -0.058295496 -0.08489543 0.06685774 0.027485538 -8.241561e-05
0.017293645 -0.059892423 0.05109737 0.026804432 0.027675334 0.048419323 -0.022412201 0.056900796
0.020644607 0.046192843 0.038204867 -0.07051296 -0.033704862 -0.03037739 0.09233038 -0.08611733
-0.0047191493 -0.02856442 -0.026945397 0.009296584 -0.086675644 -0.0083891805 -0.057110913 -0.022627002
0.038610537 -0.022910006 -0.032570217 0.033589747 -0.06381861 -0.0069771227 -0.06951894 0.065880135
-0.09822839 -0.04880468 -0.0661247 -0.014885646 0.011723408 -0.07326373 0.03167992 0.05854011
-0.008950003 0.041263387 -0.08911931 0.0810892 0.021295076 -0.079263985 -0.091686554 0.018204283
00000000: 0f13 c03c 4957 d03c 216e 85bc 90c1 bc3d
00000010: 97ee 78bd 6748 813d a443 9e3c 8803 d03c
00000020: e879 803d 207f ba3d 82de 83bd 42c7 6ebd
00000030: a8dd adbd b6ec 883d 5a29 e13c 8bd6 acb8
00000040: 67ab 8d3c c251 75bd 7a4b 513d f894 db3c
00000050: 62b7 e23c 5753 463d cb99 b7bc cf10 693d
00000060: e11e a93c b534 3d3d b57c 1c3d 1969 90bd
00000070: 1c0e 0abd 01da f8bc b617 bd3d 485e b0bd
00000080: 18a3 9abb eeff e9bc 98bc dcbc b350 183c
00000090: 0083 b1bd c672 09bc 22ed 69bd 435c b9bc
000000a0: 1526 1e3d c4ad bbbc 5968 05bd 6795 093d
000000b0: 55b3 82bd 59a0 e4bb f25f 8ebd 2aec 863d
000000c0: f72b c9bd 6be7 47bd 636c 87bd ede2 73bc
000000d0: 8913 403c 4b0b 96bd cec2 013d c1c7 6f3d
000000e0: 09a3 12bc cc03 293d 2f84 b6bd 1812 a63d
000000f0: 0373 ae3c 2855 a2bd 29c6 bbbd 2621 953c

features.5.weight f4 [64]
0.90232944 0.92742777 0.9716337 0.9883659 0.98447794 0.99802524 1.0089195 1.0069865
0.9651943 1.0249823 1.0205663 1.0569663 1.1595385 1.0614674 1.0344683 1.0464305
0.9124902 0.98166966 1.0101326 1.0353433 0.9468528 1.0504469 0.99462193 0.9958585
1.020847 0.9847206 0.97089684 1.0204178 1.0221938 1.0102977 1.0609558 1.021242
1.03112 1.021583 1.0520648 0.9004008 0.9829446 0.97089505 1.0367888 0.97817636
1.0173043 0.97332805 0.91362065 1.0098867 1.011976 0.9836091 0.99421036 0.9843184
1.0326661 1.057723 1.0501462 1.1457047 0.96074367 1.0082027 0.99813515 0.9669137
1.0015243 0.9972514 0.94408995 0.9685831 0.97545147 1.0086577 1.0315529 0.99207014
00000000: 10ff 663f e86b 6d3f fcbc 783f 8c05 7d3f
00000010: bf06 7c3f 957e 7f3f 4624 813f efe4 803f
00000020: f916 773f 9f32 833f eba1 823f ac4a 873f
00000030: c26b 943f 2ade 873f 7569 843f 6ff1 853f
00000040: f598 693f b44e 7b3f 064c 813f 2186 843f
00000050: f264 723f 0b75 863f 8b9f 7e3f 95f0 7e3f
00000060: 1dab 823f a616 7c3f b28c 783f 0d9d 823f
00000070: 3fd7 823f 6f51 813f 66cd 873f 0fb8 823f
00000080: bdfb 833f 3bc3 823f 0faa 863f ab80 663f
00000090: 42a2 7b3f 948c 783f 7fb5 843f c469 7a3f
000000a0: 0737 823f 072c 793f 0be3 693f f843 813f
000000b0: 6e88 813f cecd 7b3f 9284 7e3f 4afc 7b3f
000000c0: 672e 843f 7863 873f 316b 863f 74a6 923f
000000d0: 4cf3 753f c90c 813f c985 7f3f a887 773f
000000e0: f331 803f de4b 7f3f e1af 713f 10f5 773f
000000f0: 30b7 793f b21b 813f ed09 843f 4ff8 7d3f

features.5.bias f4 [64]
-0.0048890226 -0.10048585 -0.038161576 -0.032475226 -0.011780596 -0.0007405402 -0.036292374 -0.05586091
-0.050324 0.040969897 -0.04652461 -0.016484734 0.013318699 0.09750785 -0.013960515 -0.053968128
-0.07969763 0.003992488 0.04898539 -0.022389598 -0.100597136 0.0433417 -0.002570591 0.0845
-0.029121213 -0.006701348 -0.006556462 -0.03964976 0.0017778099 -0.06887579 0.006315303 0.025400866
0.047288705 0.023826227 0.0014887402 -0.09221257 -0.023595281 -0.034328513 -0.0065786326 0.012909548
0.04797814 -0.07452042 -0.07275674 -0.016582532 -0.015241856 -0.03574572 -0.0139997145 0.015111637
-0.030288372 0.07080895 0.062709294 -0.015484199 -0.04189109 0.02045287 -0.011912452 -0.031245906
0.0419825 -0.006034138 -0.06309121 -0.023287132 -0.057513412 0.007247281 -0.0052952175 -0.003331646
00000000: 1834 a0bb 86cb cdbd 504f 1cbd be04 05bd
00000010: 6703 41bc d020 42ba 50a7 14bd 69ce 64bd
00000020: 8a20 4ebd 0dd0 273d 9790 3ebd fe0a 87bc
00000030: ac36 5a3c 32b2 c73d a5ba 64bc af0d 5dbd
00000040: 8338 a3bd 6bd3 823b e8a4 483d 646a b7bc
00000050: df05 cebd 1187 313d 5c77 28bb 560e ad3d
00000060: 9c8f eebc fb96 dbbb 97d7 d6bb c967 22bd
00000070: 6705 e93a c00e 8dbd 9af0 ce3b 7a15 d03c
00000080: cdb1 413d 382f c33c d521 c33a f2d9 bcbd
00000090: e44a c1bc 0e9c 0cbd 9291 d7bb 9282 533c
000000a0: ba84 443d 299e 98bd 7c01 95bd 17d8 87bc
000000b0: fab8 79bc 1b6a 12bd 0f5f 65bc cd96 773c
000000c0: 521f f8bc 4804 913d bb6d 803d 70b1 7dbc
000000d0: fe95 2bbd c78c a73c 722c 43bc 6af7 ffbc
000000e0: d8f5 2b3d 05ba c5bb f735 81bd a8c4 bebc
000000f0: 2f93 6bbd 997a ed3b 8183 adbb bf57 5abb

features.5.running_mean f4 [64]
0.5455735 0.7307227 0.07600086 0.35230508 -0.40410396 -0.46006507 -0.51804733 0.6094019
-0.31339657 -0.47204772 -0.49768695 -0.29915917 -0.21533842 -0.22572847 0.5292442 -0.44558817
1.0259647 -0.5439987 -0.30759284 -0.38898703 0.43088973 -0.30670387 -0.5513948 -0.54197836
-0.30841273 0.31720376 -0.2122932 -0.19687061 -0.32947624 0.15465418 -0.54309756 -0.33666492
-0.31839386 -0.45298976 -0.16875154 -0.6369318 -0.48217303 -0.21998034 -0.7994392 -0.60607755
-0.27631348 -0.16810565 0.5157352 -0.02436499 -0.669127 -0.5612688 -0.7688767 -0.6461881
-0.7589438 -0.42804867 -0.33067253 -0.47119403 -0.8410927 -0.49650997 0.23021108 0.32413492
-0.37128377 -0.29388577 -0.6317156 0.1421337 0.6048582 -0.62705743 -0.58740777 -0.6539465
00000000: b4aa 0b3f a510 3b3f 57a6 9b3d 5561 b43e
00000010: b7e6 cebe a68d ebbe c09e 04bf c301 1c3f
00000020: 8475 a0be 3db0 f1be d3d0 febe 642b 99be
00000030: ad81 5cbe 5d25 67be 8c7c 073f 2224 e4be
00000040: d052 833f 8043 0bbf cf7c 9dbe 4f29 c7be
00000050: 949d dc3e 4a08 9dbe 3628 0dbf 18bf 0abf
00000060: 46e8 9dbe 8868 a23e 6363 59be 7398 49be
00000070: 1cb1 a8be aa5d 1e3e 7108 0bbf 585f acbe
00000080: 8504 a3be 46ee e7be 34cd 2cbe f60d 23bf
00000090: 62df f6be 8742 61be 0ca8 4cbf e627 1bbf
000000a0: f678 8dbe e323 2cbe 3907 043f 1699 c7bc
000000b0: e84b 2bbf 50af 0fbf 1ad5 44bf 956c 25bf
000000c0: 244a 42bf 3229 dbbe e94d a9be 5840 f1be
000000d0: da51 57bf 8e36 febe 74bc 6b3e 03f5 a53e
000000e0: e818 bebe 3278 96be 1db8 21bf 7f8b 113e
000000f0: fdd7 1a3f d686 20bf 5b60 16bf 0a69 27bf

features.5.running_var f4 [64]
0.42624763 1.4355363 0.3150688 0.3299907 0.79854906 0.48530915 0.34584132 0.52611977
0.52999103 0.4260286 0.55997026 0.3838277 0.26587808 0.3251988 0.56375146 0.48961484
1.1475888 0.31404746 0.44787174 0.3831919 0.72145367 0.69196373 0.6702883 0.6674156
0.2829753 0.5214943 0.5803041 0.24382882 0.3509662 0.24472456 1.2799236 0.7578199
0.30291843 0.41038802 0.32713372 0.8744773 0.2990941 0.45538208 1.273683 1.3735437
0.2933695 0.28716686 0.6575696 0.33002618 0.5546436 0.6337345 0.35132703 1.1868348
0.54146683 0.20819657 0.68995506 0.2850451 0.4513134 0.5186059 0.2655275 0.56396914
0.39244574 0.53246576 0.38876182 0.4456537 0.3183713 0.33240518 1.3544486 0.69789547
00000000: 213d da3e a7bf b73f b350 a13e 8bf4 a83e
00000010: b66d 4c3f 717a f83e 1d12 b13e c9af 063f
00000020: 7ead 073f 6c20 da3e 365a 0f3f 1085 c43e
00000030: 2c21 883e 7580 a63e 0452 103f ccae fa3e
00000040: 31e4 923f d4ca a03e 724f e53e bb31 c43e
00000050: 30b1 383f 8924 313f 0498 2b3f c0db 2a3f
00000060: 23e2 903e a780 053f cf8e 143f 43ae 793e
00000070: d7b1 b33e 1399 7a3e 89d4 a33f 7c00 423f
00000080: 2018 9b3e 611e d23e 127e a73e bfdd 5f3f
00000090: dd22 993e d727 e93e 0b08 a33f 48d0 af3f
000000a0: 8734 963e 8907 933e 7b56 283f 31f9 a83e
000000b0: 1ffd 0d3f 6d3c 223f 23e1 b33e 34ea 973f
000000c0: 929d 0a3f 7b31 553e e5a0 303f 6ef1 913e
000000d0: 8d12 e73e 5bc3 043f 38f3 873e 4860 103f
000000e0: a6ee c83e ad4f 083f ca0b c73e b92c e43e
000000f0: 9001 a33e 0331 aa3e 925e ad3f 47a9 323f

features.8.weight f4 [128, 64, 5]
0.08061794 0.050628524 0.0065931655 0.014766361 -0.00788699 0.043073576 0.0045196833 0.0675539
0.031234458 -0.021995183 0.02211111 -0.008165932 0.038479257 0.047962796 -0.05734642 -0.07457299
0.030818818 -0.026434764 -0.051899333 -0.0025756557 0.057328608 -0.05764365 -0.010873495 0.044977885
0.077440284 -0.0029099195 0.033446852 -0.03046878 0.016848795 -0.028291523 -0.005737679 -0.017631257
0.019860344 0.059190545 0.03375545 -0.040981792 -0.090078026 -0.05506668 -0.03020323 -0.033045113
0.03445698 -0.011666081 -0.055876363 0.013560655 0.039140284 -0.016199838 0.010661781 -0.07254351
0.051508233 -0.03131046 -0.0010550849 0.08041348 -0.048693486 -0.038198337 -0.023177745 0.008017767
0.02095891 0.055304416 0.0017659812 -0.0008260955 -0.046203185 0.03351084 0.0039478294 -0.01632923
0.015419349 -0.032097504 0.018603653 -0.009362187 -0.011271722 0.038997106 -0.03610845 -0.06633748
-0.08056145 0.02921514 0.03813863 0.062482182 -0.029160261 0.027205735 0.022852326 0.03471734
0.022027927 -0.0034861178 0.0027136279 0.022582479 -0.034315117 0.04559366 -0.03625468 -0.009856003
0.060001846 0.056732405 0.004662074 0.049018726 0.06631015 0.024399886 0.0409445 0.0020827262
-0.026671804 -0.061221227 0.005426753 -0.020198675 -0.08048801 -0.040905964 -0.0026653502 0.024748165
0.013064828 0.038525175 -0.00017593135 -0.04510396 -0.083007544 -0.10202342 -0.01503433 0.00661114
-0.042480987 0.069171414 0.012088043 -0.027300026 -0.030204294 -0.04077094 -0.021475915 0.016208837
-0.09578317 -0.03860532 -0.018857513 -0.012040728 -0.026754018 -0.09706855 -0.036689572 -0.066050455
-0.044221196 0.03432603 -0.07926483 -0.08188825 -0.0592489 0.029379865 0.0849161 -0.045356125
-0.057823196 -0.0146442475 0.02593774 0.03976465 -0.07528225 -0.03195616 -0.05065193 0.0032932253
0.00080783607 -0.024994487 -0.06545494 -0.012861474 0.02115355 0.0016582194 0.013583867 -0.04196844
0.037166294 -0.04751325 0.037490223 -0.07889932 -0.01593728 0.024460102 -0.043855585 0.023287239
-0.032709755 0.014991321 0.017179964 -0.08167692 -0.14676039 0.011943905 -0.022246907 -0.017621746
-0.063834496 0.016080784 -0.031408135 -0.09868779 -0.046162955 -0.06314296 0.034654655 -0.049689494
0.03623328 0.03460745 -0.061599992 -0.06732912 -0.03806995 -0.10849659 -0.007258624 0.029508863
0.027895516 0.0121547915 -0.058671374 0.06610363 0.0067017907 0.105579264 -0.0073974263 0.022884665
-0.007108667 -0.09169636 -0.01949013 -0.011852489 0.020251239 0.05577765 0.021457028 0.055226833
0.030086376 -0.07878395 -0.032575734 0.027026962 -0.023422852 -0.0547034 0.015620544 0.010688248
0.040621746 -0.0314149 0.048011277 0.009903656 0.0055269683 0.053086482 -0.039765738 0.01254636
-0.028163873 0.024227757 0.034840334 0.08485958 -0.048187792 -0.024935713 0.018004492 -0.010777539
-0.031352825 0.021440256 -0.0148635935 0.0565004 0.0044854865 0.034709 -0.011905243 -0.041379325
0.035465475 -0.06366309 -0.061403032 0.035350498 0.07912475 -0.006690129 -0.020162953 0.062917404
0.035370044 0.0680459 0.043822043 -0.015552081 -0.012645321 -0.01850033 -0.05465672 0.04883893
0.016342621 0.06194768 0.03894578 0.032688145 -0.0101745855 0.0015960187 0.00042007118 0.05666382
00000000: 051b a53d db5f 4f3d 7b0b d83b 9bee 713c
00000010: 6f38 01bc eb6d 303d da19 943b b359 8a3d
00000020: 68df ff3c 3e2f b4bc 5c22 b53c 67ca 05bc
00000030: 6d9c 1d3d a374 443d 14e4 6abd b9b9 98bd
00000040: bf77 fc3c b88d d8bc 6594 54bd 55cc 28bb
00000050: 67d1 6a3d bf1b 6cbd be26 32bc bb3a 383d
00000060: 0399 9e3d 59b4 3ebb 91ff 083d aa99 f9bc
00000070: 7c06 8a3c a0c3 e7bc 2403 bcbb 6d6f 90bc
00000080: 29b2 a23c c971 723d 2843 0a3d 86dc 27bd
00000090: d47a b8bd 998d 61bd c46c f7bc 505a 07bd
000000a0: c322 0d3d 1723 3fbc 9dde 64bd 822d 5e3c
000000b0: 9051 203d 86b5 84bc c0ae 2e3c b191 94bd
000000c0: 4cfa 523d 663f 00bd c64a 8aba d3af a43d
000000d0: d272 47bd dc75 1cbd 41df bdbc f45c 033c
000000e0: 05b2 ab3c e286 623d 7f78 e73a 558e 58ba
000000f0: 8d3f 3dbd aa42 093d cb5c 813b e1c4 85bc
00000100: 70a1 7c3c ac78 03bd b066 983c dc63 19bc
00000110: 07ad 38bc 6ebb 1f3d 74e6 13bd f2db 87bd
00000120: 67fd a4bd 9754 ef3c 4137 1c3d 51ed 7f3d
00000130: 80e1 eebc 90de de3c cd34 bb3c c533 0e3d
00000140: e973 b43c 5a77 64bb 1fd7 313b e4fe b83c
00000150: 028e 0cbd 6bc0 3a3d ca7f 14bd 137b 21bc
00000160: 7fc4 753d 3d60 683d 50c4 983b dcc7 483d
00000170: 9ecd 873d 45e2 c73c 6cb5 273d 597e 083b
00000180: d47e dabc 1cc3 7abd e7d2 b13b b177 a5bc
00000190: e6d6 a4bd 038d 27bd 28ad 2ebb aabc ca3c
000001a0: dc0d 563c 93cc 1d3d 367a 38b9 eebe 38bd
000001b0: dcff a9bd a8f1 d0bd 8d52 76bc 43a2 d83b
000001c0: 8b00 2ebd bea9 8d3d ed0c 463c 4ea4 dfbc
000001d0: ff6e f7bc 6eff 26bd 42ee afbc 65c8 843c
000001e0: f729 c4bd 9d20 1ebd 127b 9abc 7946 45bc
000001f0: 3e2b dbbc e0cb c6bd ce47 16bd 7645 87bd
00000200: 4921 35bd 7499 0c3d 9955 a2bd 07b5 a7bd
00000210: f9ae 72bd 0bae f03c 7ee8 ad3d 58c7 39bd
00000220: 04d8 6cbd 6dee 6fbc 627b d43c 42e0 223d
00000230: 952d 9abd 76e4 02bd 6678 4fbd 27d3 573b
00000240: f6c4 533a 3dc1 ccbc 3d0d 86bd efb8 52bc
00000250: 364a ad3c 9c58 d93a de8e 5e3c 19e7 2bbd
00000260: af3b 183d 419d 42bd 598f 193d f795 a1bd
00000270: e68e 82bc 8d60 c83c eaa1 33bd e1c4 be3c
00000280: aafa 05bd 289e 753c ffbc 8c3c 3b46 a7bd
00000290: 5b48 16be 5eb0 433c 253f b6bc 7b5b 90bc
000002a0: a9bb 82bd d9bb 833c d1a5 00bd d31c cabd
000002b0: 5e15 3dbd 1951 81bd 0af2 0d3d 3687 4bbd
000002c0: 5969 143d 8bc0 0d3d 4650 7cbd dae3 89bd
000002d0: 3cef 1bbd 7633 debd c0d9 edbb 92bc f13c
000002e0: 2385 e43c e424 473c 6551 70bd 5761 873d
000002f0: b29a db3b f139 d83d 1c66 f2bb 9f78 bb3c
00000300: d2ef e8bb 4dcb bbbd c4a9 9fbc f130 42bc
00000310: ede5 a53c 1b77 643d a6c6 af3c 8835 623d
00000320: b477 f63c 7b59 a1bd 226e 05bd a667 dd3c
00000330: 48e1 bfbc ac10 60bd 4fed 7f3c c31d 2f3c
00000340: fd62 263d e9ac 00bd 79a7 443d f242 223c
00000350: 921b b53b 3671 593d 66e1 22bd 3f8f 4d3c
00000360: ecb7 e6bc 4a79 c63c bdb4 0e3d dcca ad3d
00000370: 9060 45bd fb45 ccbc 287e 933c 4694 30bc
00000380: d26b 00bd 7aa3 af3c 6e86 73bc f76c 673d
00000390: fdfa 923b 062b 0e3d 350e 43bc 5e7d 29bd
000003a0: 3f44 113d cb61 82bd bf81 7bbd afcb 103d
000003b0: 280c a23d df38 dbbb c72c a5bc d7da 803d
000003c0: 2ee0 103d a65b 8b3d be7e 333d 28ce 7ebc
000003d0: 522e 4fbc 018e 97bc badf 5fbd 540b 483d
000003e0: f6e0 853c dabc 7d3d 9c85 1f3d 01e4 053d
000003f0: 4eb3 26bc 8031 d13a 003d dc39 5218 683d

features.8.bias f4 [128]
0.04395386 -0.055407878 -0.043857817 -0.029317169 0.081031464 0.050813533 0.008890668 0.037931237
-0.030209428 -0.016369367 0.013699228 -0.04104732 -0.026191734 -0.05760642 0.0057283924 -0.035445683
0.0183518 0.034533996 0.014481922 0.08028682 -0.0038715587 0.030760048 -0.008237042 -0.0054615447
-0.03525961 -0.04006498 0.04108676 -0.04421248 0.0004707221 0.047527317 0.014392229 -0.015560712
-0.0573178 -0.05188891 0.039753858 0.043709338 -0.010268194 0.019588018 0.041271985 0.0053224317
0.049394846 -0.047591086 0.034268204 -0.068119384 -0.034962572 -0.016416883 -0.02562579 -0.024903268
-0.0010321457 0.013861471 0.04926514 -0.06394941 0.029928653 0.009364919 0.01478534 0.025001988
0.044683333 0.0065321596 -0.053091906 0.037287317 -0.0032870118 0.016339824 -0.028543772 0.035659656
0.014886371 0.024337031 0.061166823 -0.021112537 -0.022967465 -0.023597661 0.004598795 -0.07862709
-0.021422591 -0.0073693846 -0.008711988 -0.05525688 -0.03114182 -0.014882699 -0.06061807 -0.0402016
-0.034265433 -0.05335306 -0.012315223 0.0707075 0.04584677 -0.002986082 0.0064161746 0.024192533
-0.028981393 -0.0052864235 0.007975238 0.023233267 -0.052416783 -0.036995757 -0.009839766 -0.042311512
0.011412787 0.05243056 0.010384786 0.056869533 -0.04114748 0.0006671854 0.008750701 -0.0029332333
0.0041010873 -0.06514632 0.039060075 -0.014171091 -0.026240485 -0.014241601 -0.0009290601 -0.056942355
0.011042597 0.0807761 -0.035987295 0.019399509 -0.025433294 -0.045397606 0.048192885 -0.0070116753
-0.011214482 -0.052519593 0.052380927 0.019547412 -0.024904188 -0.031206908 0.07001148 -0.0385625
00000000: f608 343d 5ff3 62bd 41a4 33bd 8f2a f0bc
00000010: d3f3 a53d da21 503d 2aaa 113c c95d 1b3d
00000020: c379 f7bc 0d19 86bc ba72 603c 3c21 28bd
00000030: 0c90 d6bc b6f4 6bbd 3db5 bb3b 7e2f 11bd
00000040: 8456 963c 8573 0d3d 9545 6d3c 6b6d a43d
00000050: fab9 7dbb 7ffc fb3c a9f4 06bc c2f6 b2bb
00000060: 616c 10bd 2d1b 24bd 974a 283d 2518 35bd
00000070: 40cb f639 01ac 423d 62cd 6b3c 5bf2 7ebc
00000080: 12c6 6abd 7789 54bd f1d4 223d 9008 333d
00000090: ed3b 28bc 0d77 a03c d00c 293d cb67 ae3b
000000a0: 4052 4a3d dfee 42bd d15c 0c3d 2d82 8bbd
000000b0: ea34 0fbd b37c 86bc 2ded d1bc f001 ccbc
000000c0: 1049 87ba 391b 633c 3eca 493d e9f7 82bd
000000d0: ef2c f53c 516f 193c 363e 723c f8d0 cc3c
000000e0: df05 373d ba0b d63b e676 59bd 96ba 183d
000000f0: e86a 57bb 18db 853c a1d4 e9bc dc0f 123d
00000100: f7e5 733c 745e c73c 108a 7a3d 33f4 acbc
00000110: 4426 bcbc e24f c1bc 7db1 963b 3d07 a1bd
00000120: 6e7e afbc e17a f1bb babc 0ebc 0a55 62bd
00000130: 211d ffbc 90d6 73bc a74a 78bd 6faa 24bd
00000140: e959 0cbd bd88 5abd cac5 49bc 18cf 903d
00000150: d3c9 3b3d 25b2 43bb c63e d23b 6b2f c63c
00000160: 636a edbc bc39 adbb 93aa 023c b153 be3c
00000170: fbb2 56bd dd88 17bd f836 21bc d64e 2dbd
00000180: b3fc 3a3c 6dc1 563d f324 2a3c 07f0 683d
00000190: 438a 28bd 0ee6 2e3a 1a5f 0f3c 7d3b 40bb
000001a0: 6a62 863b 6f6b 85bd 75fd 1f3d dd2d 68bc
000001b0: 49f6 d6bc 9b55 69bc 2b8c 73ba 633c 69bd
000001c0: 02ec 343c f16d a53d 6a67 13bd b8eb 9e3c
000001d0: 7c59 d0bc d7f2 39bd e765 453d 32c2 e5bb
000001e0: f2bc 37bc c91e 57bd 628d 563d e521 a03c
000001f0: de03 ccbc a1a5 ffbc 2e62 8f3d b6f3 1dbd

features.9.weight f4 [128]
0.913746 1.0403516 0.88860863 0.9203736 1.036531 1.0062399 1.0472661 1.009982
0.9375418 0.918418 1.0142587 0.8251135 1.069957 0.96302205 0.9743788 0.93452036
1.0370055 1.0500841 0.95107204 1.0321976 1.0250316 1.0423235 1.0082778 0.92866707
1.05955 0.953322 0.95345354 0.9892079 0.9849223 0.8823262 0.9948206 0.9412146
0.93875104 0.96123374 0.9200318 1.0189724 0.9985027 0.96776485 0.9576216 0.9967048
0.99464965 0.9978909 0.914049 1.027661 0.92447865 0.9606607 0.9947831 0.9551475
0.8989011 0.94638604 0.9704744 0.975289 0.9680884 0.86562103 1.019261 0.9948127
0.9741133 0.9809658 0.9406983 1.0153736 1.0434071 1.0762728 0.93792206 1.0314996
0.9882451 0.98464024 1.0680815 1.0674409 0.97995013 0.8958523 0.9898349 0.97291434
0.9968617 0.9562876 0.87312573 0.97452825 0.9645636 0.99870986 1.0440176 0.97886056
0.99942446 0.96410817 0.9366208 1.0182762 0.9142546 0.9313601 0.9010511 0.96028
0.9735316 1.109854 1.0538275 0.9803158 0.9805081 0.9439614 0.94270164 0.978849
1.0268 0.94993347 0.90751183 0.9705296 0.95256776 1.0696981 0.93832713 0.95955795
0.97773975 0.98825896 1.0049449 0.99011475 0.9955052 0.9651485 0.9069735 1.0587432
1.0390038 0.94531757 0.9724691 0.95978284 1.0093054 1.0679 0.952845 0.91264296
0.98006374 0.9334972 0.958102 0.9210338 1.0059383 0.97065103 1.0253284 0.94395345
00000000: 42eb 693f 3e2a 853f db7b 633f 9b9d 6b3f
00000010: 0cad 843f 78cc 803f d10c 863f 1747 813f
00000020: bd02 703f 711d 6b3f 3bd3 813f a33a 533f
00000030: 5af4 883f 9d88 763f e470 793f ba3c 6f3f
00000040: 99bc 843f 2869 863f 7579 733f 0d1f 843f
00000050: 3c34 833f db6a 853f 3f0f 813f 20bd 6d3f
00000060: 569f 873f e90c 743f 8815 743f bb3c 7d3f
00000070: de23 7c3f 21e0 613f 90ac 7e3f 71f3 703f
00000080: fd51 703f 6a13 763f 3487 6b3f b06d 823f
00000090: df9d 7f3f 70bf 773f b026 753f 0c28 7f3f
000000a0: 5ca1 7e3f c775 7f3f 1eff 693f 658a 833f
000000b0: a2aa 6c3f dced 753f 1baa 7e3f 8c84 743f
000000c0: 621e 663f 5b46 723f 0371 783f 8aac 793f
000000d0: a4d4 773f 5799 5d3f 2577 823f 0cac 7e3f
000000e0: 7d5f 793f 9320 7b3f 9bd1 703f c3f7 813f
000000f0: 5d8e 853f 4fc3 893f a91b 703f 2e08 843f
00000100: a2fd 7c3f 6211 7c3f e5b6 883f e7a1 883f
00000110: 03de 7a3f 9456 653f d265 7d3f ea10 793f
00000120: 5432 7f3f 44cf 743f 2b85 5f3f af7a 793f
00000130: a4ed 763f 73ab 7f3f 5ea2 853f 9b96 7a3f
00000140: 48da 7f3f cbcf 763f 61c6 6f3f e056 823f
00000150: 970c 6a3f 9e6d 6e3f 49ab 663f e9d4 753f
00000160: 5e39 793f b20f 8e3f d2e3 863f faf5 7a3f
00000170: 9402 7b3f 74a7 713f e554 713f d995 7a3f
00000180: 2f6e 833f d72e 733f b252 683f a174 783f
00000190: 7bdb 733f deeb 883f 3536 703f 97a5 753f
000001a0: 274d 7a3f 8afe 7c3f 09a2 803f 2978 7d3f
000001b0: 6ed9 7e3f f913 773f 6a2f 683f e684 873f
000001c0: 14fe 843f 5500 723f bcf3 783f 54b4 753f
000001d0: eb30 813f f2b0 883f a6ed 733f f8a2 693f
000001e0: 75e5 7a3f acf9 6e3f 2c46 753f dfc8 6b3f
000001f0: 96c2 803f 967c 783f f63d 833f efa6 713f

features.9.bias f4 [128]
-0.11364298 -0.018255733 -0.029718485 -0.09466718 -0.2878987 -0.047608864 -0.034001194 -0.13708866
-0.12141346 -0.11000301 -0.18555984 -0.120426334 -0.04831756 -0.10880302 -0.16131036 -0.08736019
-0.014049102 -0.0666882 -0.07152317 -0.13422562 -0.11933069 -0.11727931 -0.14841728 -0.091701895
-0.1532536 -0.06370213 -0.09899095 -0.102525756 -0.072209634 -0.08792683 -0.085270904 -0.05706987
-0.145781 -0.1860138 -0.08761297 -0.15337321 -0.08106021 -0.08175926 -0.07713363 -0.05534734
-0.15160123 -0.021960417 -0.05676073 -0.1790185 -0.076861985 -0.078179985 -0.11815841 -0.107238814
-0.11382874 -0.21345367 -0.10006961 -0.06730893 -0.12186778 -0.09261542 -0.042831 -0.100561604
-0.09531709 -0.28230113 -0.13201848 -0.07983809 -0.23678733 -0.050291434 -0.095171876 -0.13463819
-0.056392998 0.0050136857 -0.01875116 -0.22558524 -0.1941725 -0.105488434 -0.18791011 -0.05163982
0.008956995 -0.117136724 -0.12606896 -0.049593437 -0.15272008 -0.13296938 -0.027124362 -0.049874496
-0.13174011 -0.086581424 -0.059006255 -0.07323742 -0.14050417 -0.09229606 -0.09389055 -0.07813201
-0.0691083 0.02216839 -0.21697198 -0.034574684 -0.100045666 -0.04185494 -0.09310425 -0.055982005
-0.106690615 -0.120939866 -0.10641995 0.015149921 -0.12812465 -0.03968117 -0.1648121 -0.058028568
-0.0059305145 -0.04444515 -0.11246726 -0.20598695 -0.12599157 -0.1586692 -0.11284216 -0.21829486
-0.21689151 -0.063419476 -0.18299355 -0.10537925 -0.08243827 -0.050890602 -0.073838845 -0.0773611
-0.037642214 -0.109333 -0.0677995 -0.09079657 -0.21072824 -0.14397945 -0.094173335 -0.10063932
00000000: a7bd e8bd 0c8d 95bc 2e74 f3bc dee0 c1bd
00000010: 7567 93be 8301 43bd d644 0bbd f860 0cbe
00000020: 9fa7 f8bd 4249 e1bd 6603 3ebe 15a2 f6bd
00000030: a2e8 45bd 1ed4 debd 8b2e 25be e6e9 b2bd
00000040: 342e 66bc d393 88bd bd7a 92bd 7172 09be
00000050: a663 f4bd 2330 f0bd b3fa 17be 34ce bbbd
00000060: 83ee 1cbe 4376 82bd c4bb cabd 06f9 d1bd
00000070: a5e2 93bd fb12 b4bd 83a2 aebd 19c2 69bd
00000080: 9d47 15be 677a 3ebe 6e6e b3bd de0d 1dbe
00000090: e502 a6bd 6671 a7bd 3df8 9dbd e4b3 62bd
000000a0: 5a3d 1bbe 55e6 b3bc f07d 68bd a050 37be
000000b0: d169 9dbd d41c a0bd 09fd f1bd 06a0 dbbd
000000c0: 0b1f e9bd 9993 5abe 4cf1 ccbd 44d9 89bd
000000d0: d195 f9bd 27ad bdbd 8f6f 2fbd 3ef3 cdbd
000000e0: 9b35 c3bd c689 90be da2f 07be 2782 a3bd
000000f0: 6178 72be 64fe 4dbd 79e9 c2bd 98de 09be
00000100: 58fc 66bd d849 a43b 089c 99bc d1ff 66be
00000110: 28d5 46be 520a d8bd 826b 40be 4784 53bd
00000120: 5cc0 123c 61e5 efbd 3918 01be 7d22 4bbd
00000130: a762 1cbe 2029 08be e933 debc 3349 4cbd
00000140: e1e6 06be 9a51 b1bd 8bb0 71bd 80fd 95bd
00000150: 53e0 0fbe b705 bdbd b049 c0bd ad03 a0bd
00000160: a788 8dbd 7c9a b53c e72d 5ebe 2f9e 0dbd
00000170: bee4 ccbd 1670 2bbd 71ad bebd 634d 65bd
00000180: 9c80 dabd 52af f7bd b4f2 d9bd 6037 783c
00000190: 1c33 03be b988 22bd 81c4 28be 5daf 6dbd
000001a0: c354 c2bb 1e0c 36bd 3c55 e6bd 3eee 52be
000001b0: ef03 01be 2e7a 22be ca19 e7bd b088 5fbe
000001c0: cf18 5ebe 12e2 81bd a962 3bbe 14d1 d7bd
000001d0: 65d5 a8bd aa72 50bd d238 97bd 7f6f 9ebd
000001e0: b92e 1abd fbe9 dfbd 77da 8abd 8df3 b9bd
000001f0: 25c9 57be 596f 13be f3dd c0bd fd1b cebd

features.9.running_mean f4 [128]
-0.55597645 -0.9195435 -0.40947342 -0.58867216 -0.13205023 0.02480667 -1.2428507 0.45229137
-1.2430912 0.06384692 0.30328712 0.31591153 -0.6819814 -0.64703697 -0.4753278 0.6372272
-0.11977896 -0.17158923 -1.1197253 -0.45684224 -1.1900074 -0.3597792 -0.6794518 -1.0104485
0.1955776 -0.5206946 -1.1849698 -0.0866504 -0.53192633 -0.13311246 -0.6124212 -0.56076777
-0.038700268 1.1471283 -0.72584295 -0.40661758 -0.06512887 -0.55343974 -0.23393017 -0.34018975
-0.52561617 -0.5959573 -0.4195288 0.25718746 0.028660094 -0.608974 -0.6007288 -0.215785
-0.49383405 -0.21080723 -0.7340691 -0.575116 -0.39998597 -0.63856846 -0.17771137 -0.99386096
-0.17184332 0.41354278 -0.8879588 -0.34260562 -0.18337767 -1.1321943 -1.4884987 0.9603874
0.5035631 -0.9636318 -1.1671517 0.17186812 -0.75268 0.3081467 -0.47026056 -0.6444285
0.061835017 0.11870536 0.32295156 -0.09443575 -0.16639994 -0.3028362 0.03969971 -0.7487482
-0.06574405 -0.036231544 -1.0135529 0.19037484 -0.5608193 -1.1524384 -0.7545591 -0.4630959
-1.1792756 -1.3085387 0.14808266 -0.6618254 0.24722505 -0.44506282 -1.2218637 -1.024599
-0.10317334 -0.3775575 -0.83097714 -1.367012 -0.8008773 -0.004179194 -0.2864592 -0.42672384
-0.042511813 -0.91340363 0.15904678 -0.17573029 -0.24555841 -0.6096172 -0.48226058 0.17123829
-0.06263998 -0.23857325 -0.66894525 -0.9636487 -0.29041982 -1.1855518 -0.68833345 -0.8865143
-0.8003638 -0.5119503 -0.49816918 -0.50112194 -0.024027167 -0.7562381 -0.32860035 -0.7819073
00000000: 7954 0ebf 3467 6bbf 80a6 d1be 38b3 16bf
00000010: 2d38 07be 5c37 cb3c bb15 9fbf bc92 e73e
00000020: 9d1d 9fbf 2dc2 823d 7348 9b3e 28bf a13e
00000030: 5596 2ebf 37a4 25bf 2a5e f3be 5221 233f
00000040: ac4e f5bd 16b5 2fbe 2953 8fbf 3ae7 e9be
00000050: 2a52 98bf fb34 b8be 8ef0 2dbf 6056 81bf
00000060: 7f45 483e 3e4c 05bf 17ad 97bf c475 b1bd
00000070: 532c 08bf a24e 08be a3c7 1cbf 7a8e 0fbf
00000080: 2c84 1ebd 1ad5 923f d8d0 39bf 2e30 d0be
00000090: 4962 85bd 3aae 0dbf 648b 6fbe 5a2d aebe
000000a0: c88e 06bf a890 18bf 7bcc d6be 13ae 833e
000000b0: 93c8 ea3c b8e5 1bbf 5dc9 19bf bef6 5cbe
000000c0: d1d7 fcbe dadd 57be f4eb 3bbf cd3a 13bf
000000d0: f6ca ccbe 3979 23bf f8f9 35be ac6d 7ebf
000000e0: b2f7 2fbe e1bb d33e 4551 63bf 016a afbe
000000f0: 5bc7 3bbe beeb 90bf 2087 bebf f3db 753f
00000100: 83e9 003f 93b0 76bf 3a65 95bf 32fe 2f3e
00000110: a3af 40bf 67c5 9d3e fec5 f0be 44f9 24bf
00000120: b746 7d3d cc1b f33d e859 a53e 8867 c1bd
00000130: bf64 2abe 590d 9bbe 2a9c 223d f6ad 3fbf
00000140: d1a4 86bd 8767 14bd 1abc 81bf 9ff1 423e
00000150: db91 0fbf 1a83 93bf c92a 41bf e81a edbe
00000160: 81f2 96bf 327e a7bf fba2 173e 646d 29bf
00000170: 9028 7d3e 46df e3be 0866 9cbf 0f26 83bf
00000180: 8b4c d3bd 374f c1be ebba 54bf 40fa aebf
00000190: 4b06 4dbf 9ff1 88bb c8aa 92be 8c7b dabe
000001a0: de20 2ebd d2d4 69bf 29dd 223e a4f2 33be
000001b0: aa73 7bbe df0f 1cbf dcea f6be 1759 2f3e
000001c0: 6449 80bd 8c4c 74be ff3f 2bbf aeb1 76bf
000001d0: e8b1 94be 29c0 97bf 9f36 30bf 9af2 62bf
000001e0: a4e4 4cbf 2d0f 03bf 0810 ffbe 8749 00bf
000001f0: 9fd4 c4bc d298 41bf 4e3e a8be 142b 48bf

features.9.running_var f4 [128]
0.5702171 0.6404453 0.68384224 1.0238538 0.40569597 0.30869228 0.826628 0.3928534
0.6305963 0.5301803 0.47645882 0.5014829 0.5870692 0.84692234 0.82416034 0.6826141
0.6183698 0.5029245 1.2646387 0.749364 0.83647764 0.83595526 0.69127834 1.2020425
0.56920767 0.75666165 0.64190495 0.6306616 0.9245087 0.8640778 0.587788 0.86033493
0.678227 1.1295971 0.6589644 0.69936013 0.64824325 0.5507383 0.6637709 0.4390002
0.73552525 0.5456029 0.757853 0.60198087 0.44329968 1.159961 0.47937822 0.6060638
0.55910933 0.28901672 0.9123604 0.88126916 0.79833704 0.7395551 0.4291793 0.6021289
0.58149767 0.5048455 0.8868664 0.6661782 0.4138986 0.86605835 1.2310454 0.6330895
0.518051 1.010332 1.0768977 0.39112657 0.5134732 0.70736974 0.5765771 0.27786902
0.5137695 0.7164954 0.55743 0.39311978 0.61511797 0.54807407 0.563321 0.5214551
0.5906311 0.40552267 1.0131011 0.7376489 0.9775307 0.91109973 0.7677269 1.1959592
1.2074684 1.1209525 0.45024016 1.5694113 0.6912085 0.60137457 0.7865123 0.3389475
0.47607616 0.32376558 0.8459609 1.8173589 0.9217379 0.49190605 0.8234056 0.499145
0.371209 1.3523364 0.69572437 0.77450573 0.49307463 0.7123938 1.0765357 0.5104117
0.39862615 0.9107362 1.0198847 0.59231347 0.3828512 0.99898344 0.94109607 1.1663296
1.3400009 0.7357435 0.89058083 0.8292153 0.4929271 0.58688843 0.34369662 0.75769424
00000000: bff9 113f 39f4 233f 4910 2f3f a40d 833f
00000010: 62b7 cf3e ea0c 9e3e e59d 533f 1524 c93e
00000020: c26e 213f e5b9 073f 69f2 f33e 2f61 003f
00000030: 2b4a 163f e7cf 583f 2cfc 523f ccbf 2e3f
00000040: 7c4d 1e3f a9bf 003f aedf a13f 52d6 3f3f
00000050: 6623 563f 2a01 563f 9ef7 303f 87dc 993f
00000060: 98b7 113f 94b4 413f e253 243f 0a73 213f
00000070: 9aac 6c3f 3434 5d3f 4679 163f e93e 5c3f
00000080: 49a0 2d3f a396 903f e4b1 283f 4409 333f
00000090: 45f3 253f 2ffd 0c3f e4ec 293f a2c4 e03e
000000a0: 624b 3c3f a2ac 0b3f a702 423f 6b1b 1a3f
000000b0: 2df8 e23e 9a79 943f 1071 f53e ff26 1b3f
000000c0: ca21 0f3f 00fa 933e 7490 693f db9a 613f
000000d0: d15f 4c3f 7c53 3d3f 64bd db3e 1f25 1a3f
000000e0: 08dd 143f 8e3d 013f ad09 633f a88a 2a3f
000000f0: 84ea d33e 00b6 5d3f e592 9d3f 2712 223f
00000100: fe9e 043f 8f52 813f c9d7 893f be41 c83e
00000110: fb72 033f 2f16 353f 8f9a 133f d944 8e3e
00000120: 6686 033f 3e6c 373f bcb3 0e3f ff46 c93e
00000130: 5f78 1d3f 954e 0c3f ce35 103f 157e 053f
00000140: 9a33 173f aba0 cf3e 4cad 813f 8fd6 3c3f
00000150: 743f 7a3f d53d 693f c089 443f 3115 993f
00000160: 538e 9a3f 5f7b 8f3f e185 e63e 78e2 c83f
00000170: 0af3 303f aff3 193f df58 493f 878a ad3e
00000180: 41c0 f33e 9ac4 a53e e590 583f 379f e83f
00000190: 04f7 6b3f 1cdb fb3e b6ca 523f ef8f ff3e
000001a0: 1b0f be3e 5c19 ad3f fe1a 323f 0246 463f
000001b0: 4774 fc3e 715f 363f eccb 893f 57aa 023f
000001c0: ba18 cc3e 0226 693f 958b 823f dba1 173f
000001d0: 1305 c43e 61bd 7f3f aceb 703f 4a4a 953f
000001e0: 2685 ab3f b059 3c3f 1bfd 633f 7447 543f
000001f0: f160 fc3e 523e 163f 01f9 af3e 40f8 413f
