experiment_testing/mz-testing/checkpoints/ptbxl/100hz/cnn1d/fold_1/last.pt (torch, 628765 bytes, 26 tensors)

features.0.weight f4 [32, 12, 7]
000000 d6 cf a7 3d 95 45 d0 3d 22 89 2a bc 46 19 dd 3d
       0.081939384 0.10169522 -0.010408672 0.10795836
000010 55 33 d6 bc 1c 56 72 3c d4 19 6d bd e4 04 a1 3d
       -0.026147524 0.014791038 -0.05788596 0.07862261
000020 a9 39 f7 3d e4 f2 30 bd 9a b7 be 3d 81 64 04 3d
       0.12071545 -0.04320039 0.09312363 0.03232241
000030 7d 27 88 3d b1 4f 18 bc 3c 87 53 3d 8b de da bc
       0.06648157 -0.009296344 0.05164264 -0.026717445
000040 67 03 8c 3d 1d 63 ae bc 05 4f ac bd ec 11 b2 bc
       0.068365864 -0.021287495 -0.08413509 -0.021737061
000050 27 5d cd bd 91 50 24 bc 5a 05 5e bd b8 bf 3b 3d
       -0.10027533 -0.010028974 -0.054204322 0.045837134
000060 71 67 aa bd e6 b4 48 bd b6 8b e2 bb b2 5b 13 bd
       -0.08320511 -0.049000643 -0.0069136275 -0.03597612
000070 89 d5 45 bb ae eb d2 bd 2e c7 de 3d 60 0f 7a bd
       -0.0030187091 -0.102988586 0.10877834 -0.06104982
000080 52 25 e1 3d 22 dd 5b 3d 5a 7f c6 3b 8d e7 a4 3d
       0.109934464 0.053677686 0.006057662 0.08051977
000090 db 0d d5 3c 51 3c c3 3d 10 1c 01 bc ed d1 26 bd
       0.026007583 0.09532989 -0.007880226 -0.040727545
0000a0 fc 1a 9a 3b b8 8c 69 bd 38 e0 5e 3d d0 ef d4 3d
       0.004702924 -0.057018965 0.05441305 0.10397303
0000b0 c2 33 a5 3d a1 43 ca bc d4 a0 9c 3d c1 00 a9 3c
       0.08066513 -0.024690451 0.07647863 0.020630242
0000c0 b6 66 02 3d 50 04 b2 bd a3 5e 0f be c9 d5 97 bd
       0.031836234 -0.08692229 -0.14000945 -0.07413823
0000d0 2e c1 c1 bd 17 11 a6 3d 56 cc 94 3c 6d aa ce 3b
       -0.09460674 0.081087284 0.018163841 0.0063069374
0000e0 5a 80 91 3d c9 54 b0 3c 73 54 c6 3d 2d ee 27 bd
       0.07104559 0.021524804 0.09684076 -0.040998627
0000f0 24 da 53 3d 18 08 c2 bc 4f ea 91 3d 57 47 5e bd
       0.051721707 -0.0236855 0.07124769 -0.054267254
000100 4f b9 03 bc df 8c a0 bd d5 33 63 3d 6b fc ab bd
       -0.0080397865 -0.07839369 0.055469353 -0.08397754
000110 49 64 97 bd 62 7d a4 bd 2b 15 de 3d 8c f6 9e 3c
       -0.07392175 -0.080317274 0.10843881 0.019404672
000120 f6 8f 83 3d 01 e8 fa bd a0 ab fb bd 16 de b6 bd
       0.06423943 -0.122512825 -0.12288594 -0.08929078
000130 82 91 9e bd d5 b4 84 3d dc c6 62 3d 77 8b c9 3d
       -0.07742597 0.064798035 0.05536543 0.09841054
000140 20 60 1f bd de 7a 65 bd e6 7a 94 3d 40 87 14 bd
       -0.03891003 -0.05602538 0.072500035 -0.036261797
000150 b0 60 da 3d d5 99 eb bb d6 54 85 3d b7 42 b8 bd
       0.10662973 -0.007189969 0.06510322 -0.089971
000160 6d 58 a9 bd 52 bf 0b bb 80 55 2e bd 87 1b 31 3d
       -0.08268819 -0.0021323753 -0.042562008 0.043239143
000170 2e 7b d5 3d 0c 8c cc 3d 83 d9 a0 bd c1 f4 9d bd
       0.10423885 0.09987649 -0.07853987 -0.07712699
000180 aa 87 5f 3d 30 d8 de bd df ba b5 bc bd 2b d4 bd
       0.05457274 -0.10881078 -0.022183834 -0.10359905
000190 69 22 6e bd c9 7f 9a 3c bb 30 f5 bb fc 3b 89 bd
       -0.058138285 0.01885976 -0.0074826158 -0.06700894
0001a0 21 07 ef 3c 55 eb 0e be 03 35 fb bd b5 6b 90 bd
       0.029178204 -0.1395696 -0.122659706 -0.070517935
0001b0 d7 d2 a8 bd 4c b2 01 bd 9f 18 2a 3e dd 3d de 3d
       -0.082433395 -0.031664178 0.16610955 0.10851643
0001c0 bf f8 42 3d 6f b7 b2 bd 15 b2 53 bd a0 75 82 bc
       0.047600504 -0.087263934 -0.051683504 -0.015925229
0001d0 24 3b c9 3c fe 02 c6 bd 46 5b 97 bd 0a e3 d8 bc
       0.024564333 -0.096685395 -0.07390456 -0.026475448
0001e0 aa 93 90 3c 54 6a e1 bc 1e 79 19 bc ab f6 8e bd
       0.017648537 -0.027516522 -0.0093672555 -0.06980642
0001f0 74 15 9f bd cb 6e 9d bd ae 21 20 bd 9b f5 ce bd
       -0.07767764 -0.07687148 -0.03909462 -0.10105439
000200 63 20 8c 3d 86 bb 0b bd 66 42 bd 3d 7c d5 e1 3c
       0.06842115 -0.034114383 0.0924118 0.027567618
000210 30 6b b0 bd 08 d1 9a 3d 88 c1 63 bc 2f ca 91 bc
       -0.086141944 0.07559401 -0.013901122 -0.017796604
000220 d9 90 90 bd ec b1 cd bd 85 b3 e3 3c 80 7f 47 bd
       -0.070588775 -0.100437015 0.027795563 -0.048705578
000230 06 fc 82 3d 55 4b 6d bd 30 63 e0 3d 4e 35 79 bd
       0.06395726 -0.05793317 0.109564185 -0.06084185
000240 11 cc 68 bb 8d fd 09 3d 82 d6 27 3d 8a c6 e8 3d
       -0.0035522024 0.03368907 0.040976055 0.11365993
000250 69 25 03 3e 20 b0 89 bd f6 2e 08 3d 96 11 30 bd
       0.1280724 -0.06723046 0.03324791 -0.04298552
000260 2b 0d e1 bb e8 eb e4 bd f2 0a c0 3d c6 03 b0 bd
       -0.006868025 -0.11177808 0.09377088 -0.0859447
000270 cf 95 37 3d d3 d4 3a 3c 48 bd 49 3c 7f d3 97 bd
       0.044820603 0.01140328 0.012313195 -0.074133866
000280 2b b5 57 3d c0 3c 76 3d 0f 57 28 3d 7e c3 b5 bd
       0.05266301 0.06011653 0.04109865 -0.08875178
000290 63 10 1e 3d 4c 66 c8 bc ac b1 4e bd ab db 7c 3d
       0.038589846 -0.024462841 -0.05046241 0.06173293
0002a0 b3 b8 05 bc c1 30 5c bd 96 1f 70 bd a6 3d 80 bc
       -0.0081617115 -0.053757433 -0.058623873 -0.015654396
0002b0 d5 4a cf 3c cd 14 96 bd 38 cf c5 bd e8 17 4d bd
       0.025304237 -0.07328186 -0.096586645 -0.050071627
0002c0 8a 08 a1 bd 8b 55 c8 3c 80 33 9e 3d 71 3a e7 bd
       -0.07862957 0.024454853 0.077246666 -0.11290444
0002d0 51 48 f7 bb 10 d9 f5 3c 98 0c cb 3c 0d b1 0b bd
       -0.0075464626 0.03001073 0.024786279 -0.034104396
0002e0 89 a4 89 3d 0a 96 9c 3d 7b 68 80 3d dc a7 14 bc
       0.06720836 0.07645805 0.06269928 -0.009073224
0002f0 85 f4 c6 bc b5 85 8e 3c 73 e1 04 bd 9c 5b 64 bc
       -0.024286518 0.01739774 -0.032441568 -0.013937857
000300 df 8b b9 3d 23 a4 04 3e 10 e7 63 3d 95 d3 9c 3c
       0.090598814 0.12953238 0.05564028 0.019143859
000310 22 b7 13 bc c4 43 c2 bb 0a 77 7b 3c fe 70 47 3c
       -0.00901583 -0.0059284884 0.015348205 0.0121729355
000320 11 bb 02 be 64 2e 48 bd 5a 78 c1 3d 82 05 31 3d
       -0.12766673 -0.048872367 0.09446783 0.043218143
000330 cd 2f 21 bb fc f5 7e bd b0 3c 55 bd 8b 57 af bd
       -0.0024595142 -0.062246308 -0.05205983 -0.08561619
000340 7b be e5 bc be b0 27 3d 26 c2 7e 3d 3f 6f c4 3c
       -0.02804493 0.04094004 0.062196873 0.023978828
000350 0b 3c f5 bd d5 86 b0 bd ee c0 03 bd 5b db d5 3d
       -0.11974343 -0.08619467 -0.032166414 0.10442229
000360 22 57 08 3d dc 39 92 bc 8d 03 e2 3c 4c 7f 97 bd
       0.03328622 -0.017849855 0.027589584 -0.07397327
000370 e3 f5 a5 bd d0 e1 87 3d 3f a2 3a bd c2 29 83 ba
       -0.0810354 0.06634867 -0.045564886 -0.0010006952
000380 62 a4 b9 bd cc ac 8d 3d 96 12 75 3d dc ba d2 3c
       -0.09064557 0.06917724 0.059832178 0.025723867
000390 3a df c8 bd 3f e5 01 be 30 fc 9e bd 54 66 c0 3d
       -0.09808202 -0.12685107 -0.07762945 0.093945175
0003a0 d1 7a 82 3d b7 52 c8 3d 22 8f 86 3d e6 8b aa 3c
       0.063710816 0.097814016 0.06570269 0.020818662
0003b0 73 89 85 bc 63 6c ac bd f3 a5 a5 bd 20 56 c1 bd
       -0.016300892 -0.084191106 -0.08088293 -0.09440255
0003c0 09 6f f5 3c f9 d0 98 bd ce f3 8d bd a9 48 e6 bd
       0.029960172 -0.07461733 -0.06931268 -0.112443276
0003d0 fe 92 35 bd 62 7f 82 bd e6 d8 3d bd a1 f2 46 3d
       -0.044329636 -0.063719526 -0.04634943 0.048571233
0003e0 3b a8 eb bc 28 f7 5f 3d 68 ed 3f bd 90 b9 97 bd
       -0.028766742 0.054679066 -0.046857268 -0.0740844
0003f0 99 23 c2 39 da 83 1c bd 70 59 b4 bc f2 bd dc bd
       0.00037029086 -0.03821168 -0.022015303 -0.10778417

features.0.bias f4 [32]
000000 33 b0 94 bd 20 37 b9 3d b7 9a 00 3e 25 d2 eb 3d
       -0.0726017 0.090437174 0.12559019 0.11514691
000010 1d 74 31 bd 5c 6f 89 bd 9a ad b5 3d 6e 6b 53 bd
       -0.043323625 -0.06710693 0.088710025 -0.051616125
000020 63 60 b6 3d 7c 7c 72 bd fc c2 97 bd 32 dd 9e bd
       0.08905103 -0.05920075 -0.07410237 -0.077570334
000030 0c ad e0 3d 6a 6f 63 3d 49 28 d9 bd db e9 a6 3c
       0.10970506 0.055526175 -0.10603387 0.020375183
000040 ee 40 f5 bc b5 84 a7 3b c4 26 74 3d 41 fa 91 bd
       -0.029938187 0.0051122555 0.059607282 -0.0712781
000050 0b 11 a4 3b e5 29 b7 bd b6 4a 8f 3d 19 6b c8 bd
       0.0050069145 -0.089435376 0.06996672 -0.09786052
000060 90 b7 12 bc 9e 69 e8 3d aa b9 e3 3d 99 dc 00 3d
       -0.0089548975 0.1134827 0.11119397 0.03146038
000070 56 e5 af 3d 04 8e ee 3d d7 dd 1f 3d 1f dc 2e 3d
       0.08588664 0.11648181 0.039029922 0.042690393

features.1.weight f4 [32]
000000 19 6f 7d 3f 8f 83 87 3f 76 7f 7a 3f 54 1e 7d 3f
       0.98997647 1.0587023 0.9785074 0.988744
000010 24 21 7f 3f d0 11 81 3f 9f 6a 81 3f 2d da 81 3f
       0.99659944 1.0083561 1.0110663 1.0144707
000020 e6 3e 86 3f 1f 55 81 3f 73 8a 84 3f f2 74 7c 3f
       1.0487945 1.0104102 1.0354751 0.98615944
000030 7e 15 7e 3f c0 e8 7e 3f 91 dc 7e 3f 6d 8b 7e 3f
       0.99251544 0.995739 0.9955531 0.99431497
000040 35 3e 85 3f e6 62 75 3f ad a6 7a 3f 85 92 70 3f
       1.0409609 0.9585403 0.9791058 0.9397357
000050 ee 8b 6f 3f d3 75 83 3f a7 1a 82 3f 33 2e 81 3f
       0.9357289 1.0270332 1.0164384 1.0092224
000060 15 9e 76 3f 61 cd 84 3f f3 50 82 3f 9c 16 83 3f
       0.96334964 1.0375177 1.0180954 1.0241275
000070 da 5e 7d 3f 7c f9 84 3f d3 de 77 3f e7 25 73 3f
       0.98972857 1.0388637 0.9682438 0.9497971

features.1.bias f4 [32]
000000 c0 75 d4 3c b1 3c 03 3d d6 2c d9 3b 6d 6d 22 ba
       0.025935054 0.0320403 0.0066276593 -0.0006196115
000010 1b 71 8d 3d 00 78 57 3c 56 a2 9f 3d 0a 18 92 3c
       0.06906339 0.013151169 0.07794635 0.017833728
000020 ec 4b 78 3d b2 a7 83 bd 0f 8f 08 3d f3 38 09 bd
       0.06061928 -0.0642847 0.033339556 -0.033501577
000030 70 d3 64 3d c6 06 10 3e fe 29 ac 3c 9e c5 38 bd
       0.055865705 0.14065084 0.021016117 -0.045110337
000040 51 23 d2 3c 70 27 fe bb e2 96 e4 3c 34 5a d9 bc
       0.025651606 -0.007756166 0.027903978 -0.02653227
000050 77 8e 95 bc 46 de aa 3d ba 22 9e 3d 25 43 83 3c
       -0.01825641 0.083431765 0.07721467 0.016023228
000060 8c f0 d3 b9 6a 65 c8 3d 84 e1 96 3c 7a 8b 03 3d
       -0.00040424278 0.09784968 0.018418081 0.032115437
000070 8a 61 01 3d 32 e3 81 3d 8a 7f 32 3d f1 c2 12 3d
       0.03158716 0.06342162 0.043578662 0.03583044

features.1.running_mean f4 [32]
000000 8e 35 94 bd 67 b5 ba 3d 06 80 00 3e 9d 92 ea 3d
       -0.07236777 0.09116631 0.12548837 0.114537455
000010 78 a9 31 bd 95 b4 89 bd 71 9c b5 3d af 20 53 bd
       -0.04337451 -0.067238964 0.088677295 -0.05154484
000020 42 8a b6 3d ba a6 73 bd c3 99 97 bd ed ff 9e bd
       0.08913089 -0.059485175 -0.074023746 -0.07763658
000030 91 88 e0 3d d5 9e 63 3d 43 46 d9 bd 71 cd a5 3c
       0.10963548 0.055571396 -0.106091045 0.020239564
000040 28 68 f6 bc d4 a0 a8 3b 46 a1 73 3d 36 11 92 bd
       -0.030078962 0.0051461253 0.059479974 -0.07132189
000050 3b 2e b9 3b c8 09 b9 bd c6 96 8d 3d 8d 85 c8 bd
       0.005651263 -0.09035069 0.069135234 -0.09791098
000060 8e 44 12 bc 6b 55 e8 3d 40 35 e4 3d 77 41 01 3d
       -0.0089274775 0.11344417 0.11142969 0.031556573
000070 4b a2 b0 3d 2e ef ed 3d 11 2b 1f 3d 33 26 2f 3d
       0.08624705 0.116178855 0.03885943 0.04276104

features.1.running_var f4 [32]
000000 8d ff 2f 3f 91 f3 88 3f b4 f9 71 3f 4e f0 29 3f
       0.68749315 1.069933 0.9452164 0.663823
000010 c9 44 6a 3f 77 18 53 3f 8f 1c 33 3f 2b c0 87 3f
       0.9151121 0.82459205 0.6996545 1.060552
000020 76 85 88 3e 1e 36 00 3f a4 65 e0 3e af 26 60 3f
       0.26664323 0.50082576 0.43827546 0.87559026
000030 b1 f2 ed 3e be 4a 9f 3e 75 ae 35 3f 55 6b d1 3e
       0.4647422 0.3111171 0.70969325 0.409022
000040 4e ba 03 3f a3 9c f0 3e d9 b5 c2 3f 93 87 1a 3f
       0.51456153 0.46994504 1.5211746 0.6036312
000050 34 2e d0 3e 39 0f 1d 3f b9 77 c5 3e 19 4d 40 3f
       0.4066025 0.6135135 0.38567904 0.7511764
000060 93 94 d4 3e 27 de 29 3f b5 1f 90 3f 6c a4 8b 3f
       0.41519603 0.663546 1.1259676 1.0909553
000070 28 23 19 3f 3d ca ed 3e c4 78 46 3f 2a ec 1b 3f
       0.5981927 0.46443358 0.77528024 0.6090723

features.4.weight f4 [64, 32, 5]
000000 81 b5 b9 3c 10 97 cf 3d a4 20 cf 3d 73 da f1 bc
       0.022669556 0.10136235 0.101136476 -0.02952311
000010 54 fa 4b 3c b2 ab 40 bd 0d 7d 53 3d f0 e7 91 bd
       0.01244982 -0.04703874 0.05163293 -0.07124317
000020 76 c5 2e 3c 90 16 61 bc 8a 58 64 bb 95 24 af bb
       0.010667196 -0.0137382895 -0.0034842812 -0.005344937
000030 51 35 52 bd eb 40 73 3d 62 d4 9b 3c 79 a5 00 be
       -0.051320378 0.059388082 0.01902217 -0.12563123
000040 08 aa 81 3d 2a 98 58 3d bb 40 7a 3d c0 57 38 3a
       0.06331259 0.05287949 0.061096888 0.0007032119
000050 60 fd c0 bc 87 ec 77 bd b5 46 36 bd 0d 5f 2f 3d
       -0.023558319 -0.060528304 -0.044501025 0.042815257
000060 59 a0 2b 3d c5 d4 dc b9 7e 18 c2 bd 93 91 84 3d
       0.041900966 -0.00042120196 -0.09477328 0.064730786
000070 64 a3 f9 bc ff 7b 29 3d b4 46 43 3d 1b 2f bb 3c
       -0.030473419 0.041378018 0.04767485 0.02284961
000080 42 6c c8 3d 80 f8 54 3d 59 e0 34 3d 9f d2 41 bc
       0.097862735 0.0519948 0.044159267 -0.011830001
000090 a5 8b b5 3d d1 61 3c 3c 6a e4 e7 3c 88 22 64 bc
       0.08864526 0.011497931 0.028307158 -0.0139242485
0000a0 ce 24 00 3d 36 c5 be 3d 52 f7 52 bd 56 b0 1d 3d
       0.0312851 0.09314959 -0.051505394 0.038498245
0000b0 97 8b 46 bd 84 85 b4 bd dd 8d ca bd aa f8 04 3c
       -0.048472967 -0.088145286 -0.098903395 0.008115927
0000c0 6f ad 90 bd bf c1 66 3c c1 dc e8 bd 04 bc a1 3b
       -0.0706433 0.014084279 -0.113702305 0.0049357433
0000d0 97 36 bf bd 69 21 c3 bc 3a a2 b8 ba 73 13 af 3a
       -0.09336584 -0.023819642 -0.0014086433 0.0013357237
0000e0 03 a9 50 bd d0 b1 c1 3b 17 9e 93 bd 79 0d 9d bd
       -0.050942432 0.0059110895 -0.072078876 -0.07668585
0000f0 e4 be 07 bd 97 ba 5f bd 13 d2 a0 3c d4 a6 5e bc
       -0.03314103 -0.054621305 0.019631421 -0.01358958
000100 49 78 24 bc b3 e1 cb 3c ef 87 92 bd 45 35 a0 3d
       -0.010038444 0.024887895 -0.071548335 0.0782266
000110 7d d0 e5 bc 91 f2 61 bc 99 35 4f bd c3 e2 08 bd
       -0.028053517 -0.0137907425 -0.050588224 -0.03341938
000120 f6 42 59 bd d2 92 91 bd 0d 07 24 3d fb 2c bb bc
       -0.053042375 -0.07108082 0.040045787 -0.022848597
000130 aa 27 97 3d 86 db 31 3d a8 da 84 3d 26 e7 5d bd
       0.07380612 0.043422244 0.06487018 -0.05417552
000140 34 c9 17 3c e5 3d 82 3d 5b 3c 8d 3d 13 06 9b bd
       0.009264279 0.06359462 0.068962775 -0.07569518
000150 9c bd 85 3c c1 38 47 bd a0 1a f9 3c 33 0d af bc
       0.016325764 -0.04863811 0.030408204 -0.021368599
000160 4b 51 98 3d c6 54 95 3c 12 ee cd 3c 5e 86 96 bd
       0.074373804 0.0182289 0.025137935 -0.07349847
000170 4d 42 9f bd f8 50 0c 3c 55 97 1b bd 9f 2c e0 bc
       -0.07776318 0.008564226 -0.03798612 -0.027365027
000180 d2 29 89 3d cd d3 15 bd d2 8e 4c bc f3 f4 9e 3d
       0.0669743 -0.036578942 -0.012485223 0.07761564
000190 cc 26 00 3d ee c4 42 bd b1 8c a1 3c 3c 2a 2c 3c
       0.031287 -0.047551088 0.019720407 0.010508116
0001a0 ea 41 89 bd d1 92 28 3d 21 8a 86 3c e6 ea 8b bc
       -0.06702025 0.04115564 0.016423287 -0.017079782
0001b0 66 6f a6 3d 18 78 9c bd 1b 0f f1 3b 32 ec 8d bd
       0.08126716 -0.076400936 0.007356537 -0.06929816
0001c0 37 93 53 bd 01 a5 29 3d 23 1e 4d bd bf 5a f6 bc
       -0.051654067 0.041417126 -0.05007757 -0.030072568
0001d0 d2 d9 90 3c 27 a3 7d bd ec f2 69 bd 9e 5d 29 3d
       0.01768199 -0.061923172 -0.057116434 0.041349046
0001e0 6b 65 50 3d 31 fc dc bc 80 77 4d 3d 67 81 9a 3c
       0.05087797 -0.026975723 0.050162792 0.018860532
0001f0 59 3c 2d 3b e1 42 b7 bd df c9 c9 3d 57 70 4e 3d
       0.0026433675 -0.08948303 0.09852957 0.050400104
000200 fd 9f c6 3c b1 5c b9 3d 8e 5d f1 bd 50 14 76 3c
       0.02424621 0.090508826 -0.11785422 0.015019491
000210 51 f0 a7 bc c0 5f 4e bb 5e 53 71 3d a4 ec 23 3d
       -0.020500334 -0.0031490177 0.058917396 0.0400206
000220 db f5 bf 3c af 04 af bd 49 f7 82 bd 8b d5 40 bc
       0.023432663 -0.08545815 -0.06394822 -0.011769663
000230 16 b8 e3 3b d1 b6 b6 bd 90 dd cc 3d 57 dd 15 3d
       0.006949435 -0.08921588 0.10003197 0.03658804
000240 77 1b 84 bd c6 a3 3a 3d f3 9a 1e 3d ba bc 7b bd
       -0.06450551 0.045566343 0.03872199 -0.06145928
000250 52 6e c5 3b 58 a4 79 bd a3 24 d1 bb 2c 2c 48 3d
       0.006025114 -0.060947746 -0.0063825413 0.04887025
000260 e7 c1 4b 3d 0e 1e 3d 3d 1e 0c 40 bd cf 01 bd 3c
       0.049745467 0.04617124 -0.046886556 0.023072151
000270 2f 4b e1 3c 2c f6 4c 3d 7d 86 61 bb 20 73 0b 3d
       0.02750167 0.050039455 -0.0034412437 0.03404534
000280 45 04 e4 3c a0 3c 0a bd 6a 09 cc bd e8 97 aa bd
       0.027834067 -0.033749223 -0.09962733 -0.08329755
000290 98 4e 0b bd ea a5 01 3e e3 d3 4c 3d 42 5b 94 bd
       -0.0340105 0.12660947 0.05000676 -0.072439685
0002a0 e8 a5 99 bd 9d 82 d9 3b 13 5a 11 bd 73 36 5f bc
       -0.07502347 0.006637885 -0.035486292 -0.013623822
0002b0 b5 25 c0 bc 28 57 d6 bb 08 7c 40 3c db d9 c4 3c
       -0.02345548 -0.0065411516 0.011748321 0.024029663
0002c0 9c e1 69 3d 36 c5 69 3d 4c 8d 92 3d a3 b9 ba 3c
       0.057099923 0.05707284 0.071558565 0.022793597
0002d0 cf 8b bc bd 05 ce 96 bc 7c 5e 24 bd 37 56 54 3d
       -0.09206354 -0.018408785 -0.04012917 0.051840033
0002e0 ee b9 06 bb 6a 2e da bd 88 ec de bd 3f 50 26 3d
       -0.00205576 -0.10653384 -0.108849585 0.040603872
0002f0 d3 51 60 3d fd 0b cb 3d d8 50 67 bd b5 20 1d 3c
       0.054765534 0.09914396 -0.056473583 0.0095903175
000300 0f d3 88 3b cd 95 02 bd ea 50 86 bd 14 43 ac 39
       0.004175551 -0.031881142 -0.06558402 0.00032856374
000310 49 c3 65 bd ab 67 9d 3d ad 07 59 3d a9 d9 f0 3c
       -0.05609444 0.07685789 0.052985836 0.029400663
000320 a5 a9 78 3d 17 b8 81 3d 79 59 94 3d 8b 91 97 3d
       0.06070866 0.063339405 0.07243628 0.07400807
000330 c1 9e 8a bc 7f d0 32 bd 4c 9f 01 bc 8c 8f 6d 3d
       -0.016921403 -0.04365587 -0.0079115145 0.057998225
000340 2c 50 51 3d b7 f8 54 3d d9 3a a0 bd c1 80 8f bd
       0.05110185 0.051995005 -0.07823724 -0.0700698
000350 c7 06 a7 bd 0e d3 f7 3c 9a 70 8b bd e6 0c 19 bc
       -0.081555896 0.030252006 -0.068085864 -0.009341454
000360 77 4b d0 3d f6 4b 18 3d 1f 25 53 bd 61 11 ac bd
       0.10170644 0.037181817 -0.051549073 -0.08401752
000370 4b 34 03 bd 86 04 c6 3d d9 78 2c bd ba b5 81 3d
       -0.032032292 0.096688315 -0.042107437 0.0633349
000380 46 a2 9a 3d 94 97 71 3b 64 b9 95 bc e8 99 3a 3c
       0.075504825 0.003686403 -0.018276878 0.011389233
000390 dc 02 d9 3c 06 c8 b1 3d 17 06 87 3d 11 e1 6c bd
       0.026490621 0.086807296 0.065929584 -0.057831828
0003a0 0f 82 49 3d 65 6b 1b 3d d1 d3 c9 bc 9c 2b 18 3d
       0.0491963 0.037944216 -0.024637135 0.037150964
0003b0 d8 5a 2a bd e6 a6 48 bd 9e 5f d7 3c d7 54 36 3c
       -0.04159054 -0.04898729 0.026290711 0.011128626
0003c0 74 d7 8c 3d 29 f3 ea 3c 4f e5 a6 3d 75 31 8e 3d
       0.06877032 0.0286804 0.08149206 0.06943027
0003d0 fc e8 68 bd 13 5d d4 bc cf 52 32 3c 2b 39 77 bd
       -0.056862816 -0.025923287 0.010884001 -0.060357254
0003e0 b4 fb 37 bd eb a4 b0 bc 0c 2f 5e 3d 96 43 96 bd
       -0.044917777 -0.021563014 0.054244086 -0.0733711
0003f0 df 9c f3 bc 06 d0 5c bd ab b9 88 bd c1 67 d1 bc
       -0.029737888 -0.053909324 -0.06676038 -0.025562169

features.4.bias f4 [64]
000000 91 35 06 3d ab cc 79 bd 90 e9 98 3c 2e 80 6c bd
       0.03276593 -0.060986202 0.018666059 -0.05773943
000010 34 cf ba bc ba 04 97 3d 8e fd 56 3b cc 5e 49 3c
       -0.02280388 0.073739484 0.003280494 0.012290668
000020 38 70 02 3d e9 86 12 3d 12 71 b2 3c 8c 70 8d 3d
       0.0318453 0.03577319 0.021782432 0.06906232
000030 74 08 0e bd 54 3f 5f bd 05 5c 57 bd d5 d9 05 bd
       -0.03467603 -0.054503754 -0.05257799 -0.032678444
000040 77 3f a0 bc d9 84 89 3d 16 b6 b4 3d 51 ba c6 3d
       -0.019561512 0.06714792 0.08823793 0.09703506
000050 15 c4 86 3b 40 22 41 3d 12 6a 5e bc 34 32 19 3d
       0.0041127303 0.047151804 -0.013575094 0.037401393
000060 c1 9c 0a bd e8 e0 8a 3d 80 f5 f4 3c ae b5 2e 3c
       -0.0338409 0.06781179 0.02990222 0.010663433
000070 57 98 be bc 3a 33 93 3c b3 e9 7c bc 9a 3e 27 bd
       -0.023266 0.017968763 -0.015436578 -0.040831186
000080 d3 de 3e bd bd 72 33 bd b9 c1 e4 3c d8 ff 4b bd
       -0.04659922 -0.043810595 0.027924405 -0.04980454
000090 3a 52 09 3d 89 a9 8e bc bd c9 28 3d 26 c4 78 3b
       0.033525683 -0.017414825 0.041208018 0.003795871
0000a0 a1 1f c0 b9 e2 46 3b bc f6 df 8b bc b0 19 f8 3c
       -0.0003664466 -0.011430474 -0.017074566 0.030285686
0000b0 a3 da 7f bc b1 b6 84 bc 52 2e 32 bc 6f 50 91 bc
       -0.015616092 -0.016200395 -0.010875301 -0.017738549
0000c0 24 b5 33 3d 42 7f 09 3d 8e 52 2a 3d 94 78 b1 bc
       0.04387392 0.033568628 0.041582637 -0.021663941
0000d0 52 ac b9 bc de c1 b3 bc 6f 5b bd bc 73 ca f9 3c
       -0.022665177 -0.021943029 -0.023114888 0.030492043
0000e0 52 ac e9 3c e7 48 99 bc 4f ee 7f 3d ac ba 29 bd
       0.028524552 -0.01871152 0.06248313 -0.04143779
0000f0 32 f5 64 3c dd 19 3c 3d c7 f9 0c bc c8 36 33 3c
       0.013974475 0.045923103 -0.008604473 0.010938354

features.5.weight f4 [64]
000000 1d 0f 6c 3f b0 b4 82 3f ed ad 80 3f a5 c7 82 3f
       0.9221056 1.0211391 1.0053078 1.0217177
000010 51 c7 7f 3f 98 d5 81 3f 2b 38 79 3f b9 2e 81 3f
       0.9991351 1.0143309 0.9735133 1.0092384
000020 e0 79 82 3f c6 a8 6d 3f f0 3a 83 3f 84 d4 92 3f
       1.0193443 0.9283565 1.0252361 1.1471105
000030 5d 52 76 3f 20 40 79 3f f1 ea 76 3f 8b 7c 82 3f
       0.96219426 0.9736347 0.9645224 1.0194257
000040 5d af 7f 3f aa 95 70 3f 80 05 70 3f a2 7c 81 3f
       0.9987696 0.9397837 0.9375839 1.011616
000050 4e ad 94 3f dc cb 85 3f eb 2d 77 3f 39 bf 7e 3f
       1.1615388 1.0452838 0.9655444 0.9951053
000060 b3 a3 71 3f eb 40 79 3f b4 65 7f 3f 3e 1a 80 3f
       0.9439041 0.9736468 0.9976456 1.0008008
000070 63 9a 7c 3f 9f 74 7f 3f 28 36 7e 3f 84 b5 87 3f
       0.98673075 0.99787325 0.99301386 1.0602269
000080 ef 3f 86 3f f7 80 85 3f 51 d4 7f 3f f3 35 73 3f
       1.0488261 1.0429982 0.99933344 0.95004195
000090 06 a6 82 3f 64 be 6b 3f cd c7 83 3f e4 59 71 3f
       1.0206916 0.9208739 1.0295349 0.9427779
0000a0 66 2c 65 3f e9 f1 80 3f 23 e8 76 3f 29 2a 83 3f
       0.8952087 1.0073825 0.9644796 1.0247241
0000b0 64 e2 73 3f 8c d8 76 3f aa a1 77 3f c5 48 7f 3f
       0.9526732 0.96424174 0.96731055 0.9972041
0000c0 21 0d 7c 3f 97 fb 7e 3f c8 74 7f 3f be 7e 80 3f
       0.98457533 0.99602646 0.9978757 1.0038679
0000d0 aa 57 78 3f 8d 51 80 3f 13 8d 81 3f aa 04 7c 3f
       0.97008765 1.0024887 1.0121177 0.98444617
0000e0 38 00 82 3f e2 66 7f 3f 6f be 81 3f b3 5d 81 3f
       1.0156317 0.9976636 1.0136241 1.010672
0000f0 f9 79 80 3f 08 24 87 3f 69 18 7e 3f 2a 70 87 3f
       1.0037223 1.0557871 0.99255997 1.0581105

features.5.bias f4 [64]
000000 f7 05 8a bc d7 93 17 bd 23 46 d3 bc b8 30 1a 3d
       -0.016848547 -0.037006225 -0.02579028 0.037644118
000010 b1 8f ee bc 2d 25 c7 bc d8 7b 39 bd 04 d3 92 bc
       -0.029121252 -0.024309719 -0.045284122 -0.017922886
000020 8f 5c 1b bd d3 0b 75 bd 66 70 92 bd d4 aa 84 3d
       -0.037930068 -0.05982573 -0.071503446 0.064778954
000030 da 5e ae bc 45 ce 48 bd ae fa ad bd d2 be 9d 3c
       -0.021285463 -0.04902484 -0.08495079 0.01925603
000040 26 ed 0a 3c a3 d4 0e bd 9d 2d a2 bc 45 b9 6a bc
       0.008479392 -0.034870755 -0.01979714 -0.014326398
000050 63 ba 8b bc 95 55 3c 3d 7a 91 f4 bc 3c b0 3a bc
       -0.01705665 0.045980055 -0.029854525 -0.011394557
000060 99 fa 11 bd 3a 9a 03 bd bf 35 3f 3c 36 95 f9 bc
       -0.03563938 -0.032129504 0.011670529 -0.030466657
000070 3d 6a d7 bb c1 0d 38 bd 01 dc d2 3b 1c be 7d bd
       -0.006573944 -0.04493499 0.006434918 -0.06194888
000080 c0 d7 ab bb 71 5b 83 bd 94 12 82 bd c5 48 c5 bc
       -0.0052442253 -0.064139254 -0.063512 -0.02408255
000090 c7 b8 99 bc 65 67 4f bd 59 1e c9 3b 3f e2 be bc
       -0.018764867 -0.050635714 0.006137651 -0.023301242
0000a0 f3 f0 81 bd cf 4f ae 3c 13 50 de bc d8 33 26 3d
       -0.063447855 0.02127829 -0.027137792 0.040576786
0000b0 ad 52 27 bd 5c 8c 0d bd f0 16 8f bd 86 44 7e bc
       -0.04085033 -0.034557685 -0.06986797 -0.015519267
0000c0 97 c0 f7 bc f1 cf 47 bc c8 e6 19 bd 32 7c f5 bb
       -0.030243201 -0.012195573 -0.037573606 -0.007491612
0000d0 d0 b5 24 bc a0 b7 e2 bc 5a 99 7e 3c 56 a0 ba bc
       -0.010053113 -0.02767545 0.015539492 -0.022781532
0000e0 5f 63 b0 3c c7 dd af bc 57 3c 81 bb a9 db fe bc
       0.021531759 -0.021468056 -0.0039439606 -0.031110601
0000f0 a4 9b 7a bd 25 ff bd 3c 98 83 0c bd a6 3c 04 bc
       -0.061183587 0.023192951 -0.034305185 -0.0080711

features.5.running_mean f4 [64]
000000 4d 89 6a 3b 86 ec e3 bc c0 5f c1 bd 04 24 12 bf
       0.0035787404 -0.027822744 -0.09442091 -0.57086205
000010 e1 92 24 bf 27 6c 36 be 1a 56 b2 bd 7d b2 da be
       -0.6428662 -0.17814694 -0.08707829 -0.427143
000020 66 ed d5 be 86 b7 03 3f fe b8 3f bf b5 12 08 bf
       -0.41782683 0.5145191 -0.7489165 -0.53153545
000030 b0 cc aa bd 04 c0 ab 3e 87 73 94 3e 8d be 0d be
       -0.08339822 0.33544934 0.2899439 -0.1384222
000040 7d 27 fc be fe c5 e8 3e a8 c8 bf be ba fd 4a 3e
       -0.49248877 0.45463556 -0.37457776 0.19823352
000050 a3 9c af be 88 2c 1a bf 15 0d 01 bf 01 fa 40 be
       -0.34299192 -0.602242 -0.50410587 -0.18845369
000060 c2 25 08 3e 8d ce 2e 3e c7 a4 cd bd 4d 4a cf bd
       0.13295653 0.1707098 -0.100411944 -0.101215936
000070 9a 4c e0 be c4 63 1d 3f 9d 60 46 bf 7c a3 4f bf
       -0.43808442 0.61480355 -0.7749117 -0.8110883
000080 23 60 eb be 90 93 45 bf a5 f0 bd 3d 31 58 c7 3c
       -0.45971784 -0.7717829 0.09274415 0.024334045
000090 34 4b 9a be 5e 2f 93 3c df 95 04 bb 84 67 0c bd
       -0.301355 0.017966922 -0.0020230932 -0.034278408
0000a0 d8 1c 17 3f 34 74 0a bf 41 df 17 3e 31 07 27 3e
       0.5902839 -0.5408356 0.14831258 0.16311337
0000b0 ad 0d 51 be 35 22 db be 26 71 8a bc b4 35 1f bf
       -0.20415373 -0.42799535 -0.016899657 -0.6219132
0000c0 ef dc 51 be 68 aa e6 be 46 ac 15 be fd 9e cf be
       -0.20494436 -0.45051885 -0.14616498 -0.40550986
0000d0 2f 54 12 3f f2 7e f2 be fb ba 8f be e9 00 af 3e
       0.57159704 -0.47362477 -0.28072342 0.34180382
0000e0 40 fa cf be 6b fb 0f bf c5 ed d5 be 2a e1 f7 be
       -0.40620613 -0.5624301 -0.41782966 -0.48413974
0000f0 69 fd c7 3e 60 36 0a bf be 8c c2 be 55 a5 ea be
       0.39060524 -0.5398922 -0.37998003 -0.45829263

features.5.running_var f4 [64]
000000 97 ef 66 3e 67 2e e6 3e 40 41 b9 3e 60 82 a5 3e
       0.22552334 0.44957277 0.36182594 0.3232603
000010 a6 3b 26 3f 2a 7f 93 3e 08 23 73 3e 07 b6 a4 3e
       0.64934766 0.28807956 0.23743832 0.32170126
000020 7b 91 a8 3e 99 0f 9c 3e 54 dc 32 3f 8a 06 94 3e
       0.32923493 0.3048065 0.69867444 0.2891124
000030 91 cc c7 3e 41 cc 16 3f 7c f2 1a 3f 61 d8 9e 3e
       0.3902326 0.58905417 0.6052625 0.3102446
000040 4f 02 ac 3e 72 de 17 3f 55 df e7 3e 56 17 6f 3e
       0.3359551 0.593238 0.45287576 0.23348746
000050 0e df 84 3e 26 a3 10 3f 1e 8c 1a 3f 70 33 d9 3e
       0.25951427 0.56498945 0.6037005 0.42422056
000060 7e 4e e6 3e bf 7a 2b 3e 23 73 d0 3e 82 05 36 3e
       0.4498176 0.16746043 0.40712842 0.17775539
000070 b6 07 0e 3f e6 af e4 3e 4c cf 82 3f aa 51 27 3f
       0.55480516 0.4466545 1.0219512 0.65358984
000080 cf a8 93 3e cc 2e 39 3f 43 c0 95 3e f0 fd ad 3e
       0.28839728 0.7233703 0.29248247 0.339828
000090 75 98 f7 3e 55 29 a8 3e 2d 57 51 3e 3d 4e c1 3e
       0.48358503 0.32844034 0.20443411 0.37755004
0000a0 5b 1b 55 3f 3f 58 c4 3e 00 49 8d 3e ea 89 86 3e
       0.83244866 0.38348576 0.27594757 0.26277095
0000b0 70 36 b1 3e 0a ed f9 3e 10 f6 cf 3e 7b 79 71 3f
       0.34611845 0.4881366 0.40617418 0.9432599
0000c0 c9 ed ff 3e 71 7c 95 3e 19 d7 66 3e 6c 2c 95 3e
       0.49986103 0.29196504 0.2254299 0.29135454
0000d0 ae ce be 3e e5 34 e8 3e cf 2f 8e 3e fd b4 b2 3e
       0.3726706 0.45352855 0.2777085 0.34903708
0000e0 f1 fd 00 3f 46 14 38 3f 72 4c 4f 3f d5 d0 92 3e
       0.50387484 0.71905935 0.8097602 0.2867495
0000f0 7b 89 f0 3e ca 87 e9 3e 6f b2 12 3f 49 46 01 3f
       0.4697989 0.4561141 0.5730352 0.5049787

features.8.weight f4 [128, 64, 5]
000000 99 3f 94 3c 85 44 b8 3c bd fa 56 3b c2 81 e7 bc
       0.018096732 0.02249361 0.003280326 -0.028260116
000010 97 8e 11 bd 9b 43 45 3d 83 17 17 bc 91 e4 c3 bc
       -0.035536375 0.048160177 -0.009221914 -0.0239127
000020 96 ca e7 3b 01 75 92 bc 12 f9 db bc 30 1c 2e bd
       0.0070737107 -0.017878057 -0.026852164 -0.04250735
000030 31 51 8d bd 85 2d 72 3c 84 a1 8c 3d 23 7d 7d 3d
       -0.06900252 0.0147813605 0.06866744 0.061886918
000040 b8 3c 05 3d 85 e6 62 bc 46 a4 bb bc 6c 7e d5 3c
       0.03252861 -0.013848905 -0.02290548 0.02606126
000050 2f d7 97 3d 42 8e 62 3d 1e 9d 1a 3d 20 ca 8f bd
       0.0741409 0.05531145 0.037747495 -0.07020974
000060 d1 dc a3 bd cc 79 80 bd 8d c6 59 3c 5a 35 57 3d
       -0.08001102 -0.06273231 0.013291967 0.052541114
000070 ef f3 50 bb 2c 20 1d bc 9b 58 96 3d f0 44 91 bc
       -0.0031883677 -0.00959019 0.07341119 -0.017733067
000080 e8 77 22 bd 3d 65 3d bd be 22 25 bc d5 7a da 3c
       -0.039665133 -0.046239126 -0.010079084 0.026669899
000090 d5 53 3d 3d 94 0b 38 bc 16 f2 b7 3c b4 80 55 bc
       0.046222527 -0.011233229 0.022454303 -0.0130311735
0000a0 bc e7 ff bc 68 e5 52 bd f9 bc 01 bd f1 8a 23 3b
       -0.03123843 -0.05148831 -0.03167436 0.0024954642
0000b0 38 4e f4 bc 50 82 90 3d ef b2 78 bd e7 0c f4 bc
       -0.029822454 0.07056105 -0.06071752 -0.029791309
0000c0 bd 0a 0c ba 75 00 89 3d 0c 81 2f bc 47 dc 9b 3c
       -0.00053421763 0.0668954 -0.0107119195 0.019025935
0000d0 e4 83 a2 3c 13 e6 db 3c f9 f7 f0 bc 6e be e6 bc
       0.019838281 0.026843106 -0.029415118 -0.028166976
0000e0 83 11 a2 3b b8 b6 21 3d df 8a 16 bd e2 4f fd bb
       0.004945935 0.039480895 -0.03675353 -0.00773047
0000f0 9f 07 8b 3b 92 d2 16 bd a4 59 60 3d 12 13 25 3d
       0.004242852 -0.03682191 0.054772988 0.04030139
000100 95 6c b3 3b 60 32 3f 3d ab 47 67 bd 1f 5e fd bc
       0.0054755905 0.0466789 -0.056464832 -0.03092867
000110 ad 5c 86 bd 57 85 97 bd 16 f4 b9 3c ff 6a ad 3c
       -0.06560645 -0.073984794 0.022699397 0.021169184
000120 a7 bb 87 3d f1 49 c8 bb e1 5c 46 bd 02 ab 5b bc
       0.06627589 -0.00611233 -0.04842842 -0.013407471
000130 d6 ac 9e ba ea 09 33 bd b9 d8 8b 3c 23 5e 6e 3d
       -0.0012105952 -0.043710627 0.017071115 0.058195245
000140 c0 f6 57 3d b3 6e 26 bc 93 bd 92 bc c1 3c f9 bb
       0.052725554 -0.010158229 -0.017912662 -0.0076061194
000150 01 1e 91 3c 97 07 d8 3c 15 ad 1f 3c 7e 38 7f bd
       0.017714502 0.026370807 0.009745856 -0.062309735
000160 08 8b a1 3c b6 c9 aa 3b dc 61 8a 3c d4 cf 7e bc
       0.019719616 0.005212034 0.016892366 -0.01555248
000170 ae 3b 69 bd 20 51 46 3c 76 e5 6e 3c c6 fe 16 3d
       -0.05694168 0.012104303 0.014581075 0.036864065
000180 ea 19 ca bc 7a 67 45 3d 92 5d 90 3d d7 df 66 3d
       -0.02467056 0.048194386 0.07049097 0.056365814
000190 40 49 05 be 3e dc 93 bc ce 7c a5 3d 30 19 0d bc
       -0.13016224 -0.018049356 0.08080445 -0.008611962
0001a0 fb b1 80 3c c8 cc 3b 3b b7 83 f7 ba 14 b4 89 3c
       0.015709868 0.0028655995 -0.0018883859 0.0168095
0001b0 5a 4e 48 bc 4d 79 23 3d d9 6b f1 ba 4c 22 85 3d
       -0.012225712 0.039910603 -0.0018418982 0.06500682
0001c0 74 9d 3b 3d 56 37 61 bc b7 c9 7f bb de 9b d3 3c
       0.045804456 -0.013746103 -0.0039030144 0.02583116
0001d0 fb a3 5a 3d 4c 5a d5 3c 3a 2a 1d bd 5a 67 4b 3d
       0.05337904 0.026044033 -0.03837035 0.04965911
0001e0 d6 d0 75 bc 45 cf d1 bc a3 32 64 3c 41 91 2b bd
       -0.015003404 -0.02561153 0.013928088 -0.04188657
0001f0 78 c7 24 3d 66 c8 cf bc 68 25 18 3d bf 42 72 bb
       0.04022929 -0.025364112 0.03714505 -0.0036966053
000200 e4 a2 9b 3c 70 08 3c bd bf 49 48 bd 4a cb 2b bd
       0.01899857 -0.045906484 -0.048898455 -0.04194192
000210 aa fb 35 3d d5 52 67 3d 2c 9d e1 3c 3d 8c 65 3d
       0.04442946 0.05647548 0.027540766 0.056041945
000220 5f 8e 0e 3d 47 a6 ce 3c db 4b 1d bd c0 74 3a bd
       0.034803744 0.025225772 -0.03840242 -0.045521498
000230 10 2f a1 3c 7d 18 15 3d be 3b 2d bd a2 be 12 3b
       0.019675761 0.036400307 -0.042293303 0.0022391458
000240 34 03 ac 3c eb ac 26 bd c1 49 b7 bd ac 62 40 3d
       0.020997621 -0.04069225 -0.08949614 0.0469691
000250 ec 8c f8 3c 29 15 df bc 63 15 98 3b 39 f2 95 bc
       0.030340634 -0.02723177 0.0046412214 -0.018303977
000260 45 26 f0 3c 33 84 cc 3c 04 4c d8 bc 67 92 6b bc
       0.029315123 0.024965381 -0.026403435 -0.014378167
000270 26 f4 34 bc 2d 21 92 bc 1c bd 03 bd 53 24 61 3d
       -0.011044538 -0.017838085 -0.03216277 0.054966282
000280 1a 30 c8 ba 59 fc d5 bb 2c fc 9e 3c d6 3e b9 3b
       -0.0015273124 -0.0065303263 0.019407354 0.0056532426
000290 c0 51 db 3c 93 44 34 3d c5 f9 2e 3d e1 b0 bb 3c
       0.02677238 0.04401071 0.042718668 0.02291149
0002a0 05 d8 78 bd 42 68 28 bd e5 98 59 bb 32 c2 5a 3d
       -0.060752887 -0.041115053 -0.0033202705 0.053407855
0002b0 d1 a4 46 3d 89 81 7b 3d b3 7f 44 3c f6 99 1d bd
       0.048497025 0.06140283 0.0119933365 -0.038476907
0002c0 72 93 6a 3c c8 f9 24 3d 8f f4 ec 3b f0 44 14 bd
       0.01431738 0.040277272 0.007231302 -0.036198556
0002d0 11 2b 87 3d fe 26 2b bd 9f 58 0f bc 2e 05 4d bd
       0.06600011 -0.041785233 -0.008749156 -0.050053768
0002e0 39 1e 47 3d 6b ea 57 3c 17 51 39 3d 95 14 25 bd
       0.048612807 0.013178448 0.04524335 -0.04030283
0002f0 b9 44 4f bd cd b4 e7 bc 99 bb 7d 3c 23 82 ba 3a
       -0.05060265 -0.028284455 0.015486621 0.0014229458
000300 06 4e 4c 3d 0f 3c c8 bc 97 e6 69 3d b9 b7 ec bc
       0.049879096 -0.0244427 0.057104673 -0.0288962
000310 8b d8 b5 3b 47 2e e8 bc 80 14 a5 3c e8 7e 3f 3d
       0.0055494956 -0.02834238 0.020151377 0.046751887
000320 71 a9 3e 3c 17 9a 3c 3c 4b bc a2 bc 2d 00 cb bc
       0.011637078 0.011511347 -0.019865176 -0.024780357
000330 4d 56 91 bd ab 70 14 3d f4 ec 7e 3c ec c8 a2 3c
       -0.07096539 0.03624026 0.015559424 0.019871198
000340 ef 9a 8b bd 4a bf b0 bd a6 97 62 bd 8b a6 9a bc
       -0.068166606 -0.086302355 -0.055320404 -0.018878242
000350 29 33 1b 3b 0d d3 4e bb d9 b0 0b 3b c1 95 df 3b
       0.0023681617 -0.0031558902 0.0021315126 0.006823272
000360 4e 60 43 3d 91 03 e5 bc ea 74 96 bd 61 99 8a 3d
       0.047699265 -0.027955802 -0.07346518 0.06767536
000370 66 db f6 bc 70 d5 15 bc 6f c3 dc bc 60 08 e9 3c
       -0.030133914 -0.009145126 -0.026948659 0.028446376
000380 28 27 10 bc e2 8a 26 bd b3 34 b1 3d 63 4f 3f bd
       -0.008798398 -0.040659793 0.0865263 -0.04670657
000390 20 69 53 3d 07 91 2a bd 82 4d e4 bb fb 2f 15 3c
       0.051613927 -0.041642215 -0.0069672475 0.009105678
0003a0 0c 67 8f bc a7 f4 c6 bc 7c 1d ab bd 1e 71 ff bc
       -0.017505191 -0.024286581 -0.08355233 -0.031181868
0003b0 20 5d 3e 3b c0 c7 c6 bb 0a f3 e9 bc d9 28 1b bc
       0.0029047206 -0.0060662925 -0.028558273 -0.009470188
0003c0 dd e5 fc 3a 07 4e c4 bd a5 07 ee bc 7f 52 82 3c
       0.0019294579 -0.09585195 -0.02905638 0.015908478
0003d0 93 50 d0 3c a2 b8 a1 3d 37 60 40 bc 37 1a 94 3c
       0.025429046 0.07896544 -0.011741689 0.018078906
0003e0 73 70 fa bc af 3d 4b bc 05 f2 68 ba 60 27 20 3d
       -0.030571198 -0.012404843 -0.00088861614 0.03910005
0003f0 b7 67 41 3d be 7e 2a bd ec 02 72 bd 01 0d 7f 3b
       0.04721805 -0.041624777 -0.059084818 0.0038917663

features.8.bias f4 [128]
000000 9a 7f ae 3c c6 2c 08 3d c6 1e 04 bc af f4 15 3c
       0.02130108 0.033245824 -0.008063978 0.009152575
000010 2a c3 b6 3c e1 0f 4e 3d 9f d4 28 bd a9 14 23 3c
       0.022309858 0.050308112 -0.041218396 0.009953656
000020 5d 74 e4 3c ba f8 1a 3d 22 29 46 3d 14 af de 3c
       0.027887518 0.03783486 0.04837907 0.027183093
000030 fe 5e 27 3c 95 92 d2 bc 1d 94 b8 3c dc 4f 33 3d
       0.010215519 -0.025704661 0.022531563 0.04377733
000040 f9 2f e4 bc a1 e3 00 bd c5 0e 3a 3a 80 18 e4 3a
       -0.027854906 -0.031467084 0.0007097538 0.0017402321
000050 74 39 06 bd 46 48 86 bc d6 98 09 bd 67 75 c6 bb
       -0.032769635 -0.016391885 -0.03359302 -0.006056476
000060 bb 67 d2 bc 71 f5 bb 3c d3 a3 fd 3c 6a 0b 1c 3d
       -0.025684228 0.022944184 0.030961907 0.038096823
000070 3e 3a 8d 3d b6 57 9e bc 59 be 4c 3d 44 ea 0d bd
       0.068958744 -0.019328933 0.049986217 -0.03464724
000080 36 24 db 3c 81 bc 30 bd 3b 2a 35 3d f0 80 c2 3c
       0.026750665 -0.04314852 0.044229727 0.023743123
000090 ee f5 15 bc 1e 83 56 bd 13 5e 3e 3d c8 07 3b bd
       -0.0091528725 -0.052371137 0.046476435 -0.045661718
0000a0 72 3b 83 3c 3d 99 bf bc 39 77 41 bc ba 4b 81 3d
       0.016019557 -0.0233885 -0.01180821 0.06313272
0000b0 b3 6b 47 bd 6c 44 c4 bc b1 ba ba bc 9b 42 54 bb
       -0.048686694 -0.023958407 -0.0227941 -0.0032388333
0000c0 86 be 7f 3d 60 60 2f 3c cc 9b 92 bd b5 16 3d 3d
       0.062437557 0.01070413 -0.07158622 0.046164233
0000d0 17 d7 4c bd 7f 41 5f bd 6a 03 2d 3d de 93 35 bd
       -0.050009813 -0.05450582 0.042239584 -0.04433047
0000e0 f8 93 09 3d f6 65 45 3c 57 0c 5b b9 ce 82 94 3d
       0.03358838 0.012048235 -0.00020890064 0.072515115
0000f0 73 ea f5 bc d4 6b 55 3d 1c 5b 1d 3c 71 83 cd 3c
       -0.03001902 0.052104786 0.009604242 0.02508709
000100 b6 ce 4f 3d 8b 04 5f 3c 97 12 8c 3c 0c 7e 89 bc
       0.050734244 0.013611923 0.017098708 -0.016783737
000110 31 f9 91 bc f6 62 a6 3c 00 ac b4 bd 60 c2 1f bd
       -0.017819019 0.02031086 -0.08821869 -0.03900373
000120 45 17 11 3d 3d 31 7d 3c 83 96 35 3d 36 be 43 bd
       0.035422582 0.015453634 0.044332992 -0.04778882
000130 3c a7 8e 3c 4f 93 b7 3c 2a aa 55 bd eb 22 fc 3c
       0.017413728 0.02240911 -0.052164234 0.030778369
000140 62 77 88 bc dd 3c 2f bd 3f 6f 39 bb 12 68 91 bc
       -0.016658489 -0.042782653 -0.0028295068 -0.01774982
000150 22 62 3f bd b5 17 43 bd 83 72 08 bd 36 d9 cf 3c
       -0.046724446 -0.04763003 -0.033312332 0.025372129
000160 a2 87 bf bc 37 4f cf 3b 5d 61 cf bc d2 62 38 3d
       -0.023380104 0.006326582 -0.025314981 0.045016117
000170 df 56 3d 3d 7c 62 a4 3c 72 e2 b9 3b 3f a9 bc bc
       0.046225425 0.020066492 0.0056727463 -0.023029922
000180 b6 f0 2c 3d 85 e0 d7 3c a8 3e ca 3c ee 71 43 bd
       0.042221747 0.026352176 0.02468808 -0.047716074
000190 04 35 c8 bc 69 9e b8 bc c4 46 1a 3b 22 2d 76 3c
       -0.024439342 -0.022536473 0.0023540715 0.015025409
0001a0 2f 14 12 3c 38 d5 15 3d 00 85 d8 bc c5 05 58 bd
       0.008915945 0.036580294 -0.026430607 -0.052739877
0001b0 a2 7c 07 3b 00 8d 29 3d dc 5c 08 3d 58 11 6f 3c
       0.0020673652 0.041394234 0.033291683 0.014591537
0001c0 7f 7e 31 bd d8 f8 24 bd a9 a1 17 3d b6 98 dc 3a
       -0.043333527 -0.04027638 0.037019406 0.0016830179
0001d0 8d ec c3 bc 74 90 12 3d 96 0b 3b bc 14 c0 c6 bc
       -0.023916507 0.035782292 -0.0114163365 -0.024261512
0001e0 02 84 eb bb bb e5 35 3d 2e dc 0a bd a0 e2 2e bd
       -0.0071873674 0.04440854 -0.033901386 -0.042696595
0001f0 7d cc 44 3b 81 94 b6 bc 8a ed e3 bc 06 bc cf bc
       0.003002911 -0.022287609 -0.027823228 -0.025358211

features.9.weight f4 [128]
000000 0f c3 82 3f 64 b1 87 3f 4b 52 67 3f 0e 3c 81 3f
       1.0215777 1.060101 0.90359944 1.0096452
000010 71 cf 80 3f a1 8d 7b 3f 24 43 7a 3f a8 c4 6c 3f
       1.0063306 0.98262984 0.977587 0.92487574
000020 ae 67 81 3f 2d 1b 6a 3f 88 e9 80 3f 3d b9 7f 3f
       1.0109766 0.91447717 1.0071268 0.99892026
000030 89 21 7d 3f b7 44 83 3f 9e 7b 76 3f 89 d4 81 3f
       0.98879296 1.0255345 0.96282375 1.0142986
000040 40 07 6f 3f 62 a0 7f 3f 3e 11 82 3f 5d 2e 81 3f
       0.9337044 0.998541 1.0161512 1.0092274
000050 b9 76 63 3f 4a 9e 7c 3f 61 4e 79 3f 0b 53 7d 3f
       0.8885303 0.9867903 0.9738522 0.9895484
000060 4d 60 80 3f 73 55 7a 3f 6d ed 70 3f 5a 14 82 3f
       1.0029389 0.97786635 0.94112283 1.0162461
000070 f7 c5 71 3f 96 fc 84 3f 26 df 6f 3f 64 7e 78 3f
       0.94442695 1.0389583 0.9369987 0.97067857
000080 2a 18 88 3f 40 0f 88 3f c4 0d 6a 3f 52 7f 76 3f
       1.0632374 1.0629654 0.91427255 0.96288025
000090 3b b5 7c 3f 8e cb 7c 3f a6 60 74 3f 95 b3 71 3f
       0.98714036 0.987481 0.95459974 0.94414645
0000a0 55 cc 84 3f ac 79 7b 3f 33 c3 81 3f 6a 47 83 3f
       1.0374857 0.9823253 1.0137695 1.0256169
0000b0 d6 aa 83 3f 06 a9 8b 3f 4b 29 6a 3f 75 bb 8e 3f
       1.028651 1.0910957 0.9146926 1.1150957
0000c0 13 5a 7a 3f e7 cd 88 3f 09 c7 80 3f 57 66 74 3f
       0.9779369 1.0687836 1.0060741 0.9546866
0000d0 ec ec 7b 3f 5e 9d 70 3f a8 4c 6b 3f 7b 0a 7b 3f
       0.9840839 0.93990123 0.91913843 0.98062867
0000e0 b5 6d 7a 3f 06 a7 80 3f 69 51 87 3f 11 b4 84 3f
       0.9782365 1.0050972 1.057172 1.0367452
0000f0 34 cb 74 3f e2 48 74 3f 85 b8 80 3f 64 fe 7b 3f
       0.95622563 0.9542371 1.0056311 0.98435044
000100 eb 5b 6f 3f d2 2b 84 3f f5 72 74 3f e6 80 83 3f
       0.9349963 1.0325873 0.9548791 1.0273712
000110 c0 a1 83 3f 88 8f 70 3f 5c 4e 70 3f 42 97 83 3f
       1.0283737 0.9396901 0.93869567 1.0280535
000120 45 3b 85 3f 23 2d 88 3f d9 be 77 3f 2d c6 75 3f
       1.0408713 1.0638775 0.96775585 0.9600552
000130 ee 14 80 3f 39 9e 72 3f 64 d4 7f 3f 8e cd 82 3f
       1.0006387 0.9477268 0.9993346 1.021898
000140 46 1d 83 3f 88 37 80 3f 3f 3d 72 3f f6 cf 81 3f
       1.0243309 1.0016947 0.94624704 1.014159
000150 f5 b3 7d 3f 7b be 6a 3f f4 2b 70 3f b9 17 7d 3f
       0.9910272 0.916969 0.9381707 0.9886432
000160 34 8a 76 3f e9 ba 82 3f 68 76 70 3f 62 a1 86 3f
       0.9630463 1.021329 0.93930674 1.0518
000170 c8 57 78 3f 9c 53 7b 3f cb 9d 7a 3f 9b 46 7a 3f
       0.97008944 0.9817445 0.9789702 0.97763985
000180 ec 38 7d 3f 41 02 76 3f 5e 9a 69 3f 40 87 6d 3f
       0.9891498 0.9609719 0.9125117 0.927845
000190 24 b1 6d 3f 47 00 7d 3f 75 96 81 3f 2c 37 63 3f
       0.9284842 0.9882855 1.0124041 0.8875606
0001a0 18 46 80 3f e0 59 7b 3f 21 4d 84 3f 7f 32 80 3f
       1.0021391 0.98184013 1.0336038 1.001541
0001b0 2e 57 7d 3f a3 50 78 3f de 95 78 3f a0 dc 80 3f
       0.9896115 0.9699804 0.9710368 1.006733
0001c0 81 0e 6d 3f 32 45 71 3f 38 67 79 3f e4 e5 79 3f
       0.92600256 0.9424621 0.97423124 0.9761641
0001d0 80 11 7b 3f d7 a2 90 3f 0a 58 69 3f 1a 47 7e 3f
       0.9807358 1.1299695 0.9114996 0.9932724
0001e0 09 ab 73 3f 43 5b 82 3f 86 de 84 3f 5c d6 80 3f
       0.95182854 1.0184101 1.0380409 1.0065417
0001f0 3d 15 74 3f c9 c7 7b 3f bd 58 75 3f ce fd 79 3f
       0.9534491 0.9835172 0.9583853 0.976529

features.9.bias f4 [128]
000000 a3 57 3d bd 4c 78 c9 bd fe 43 d5 bd 0f 98 18 3d
       -0.046226155 -0.09837398 -0.10413359 0.03725439
000010 83 9c 96 bd 3a 21 ad bd 4c 92 fd bd 9a aa 7a bd
       -0.07354071 -0.08453603 -0.123814195 -0.061197855
000020 4a 69 b0 ba a1 2d b4 bd 7a c1 98 bc d8 d5 ba 3c
       -0.0013459113 -0.087977655 -0.018646944 0.022807047
000030 45 68 0a be 39 16 f8 bd c0 d2 2b bd 72 91 33 be
       -0.13516338 -0.12113614 -0.041949034 -0.17535952
000040 ec 9c 0d be 4f 69 d2 bd 22 b9 e0 bc a4 bb fa bd
       -0.13829392 -0.10273992 -0.027432028 -0.12242821
000050 2c 14 ff bd b4 8a 7f bd 2c 5a 0d be 66 74 39 bd
       -0.12455019 -0.062388137 -0.13803929 -0.04527702
000060 de ef 56 bd 64 10 bd bd 94 5c d7 bd be e1 ad bc
       -0.05247485 -0.09231642 -0.10515705 -0.021225806
000070 36 88 a1 bd 4a f1 0f 3b ef d1 bd bd 4e 41 a8 bd
       -0.07887308 0.0021963888 -0.09268557 -0.08215581
000080 43 87 2f bd 58 a1 96 bd 20 61 9e bd fb 4b 21 bd
       -0.042853605 -0.07354993 -0.07733369 -0.0393791
000090 92 1a 87 bd e7 f1 6e bd fd c2 76 bd e8 0a 8c bd
       -0.06596865 -0.058336165 -0.06024455 -0.06838018
0000a0 80 00 74 bd b6 df 46 bc a4 85 89 bd 74 d1 e3 bd
       -0.05957079 -0.012138298 -0.06714943 -0.111239344
0000b0 17 e7 fb ba af 41 97 bd 39 1b 88 bd b2 72 00 be
       -0.001921865 -0.07385575 -0.06645817 -0.12543753
0000c0 bd f3 cc bc 97 2f 89 bd c5 67 5d bd b4 18 ac bd
       -0.025018567 -0.0669853 -0.05405404 -0.08403149
0000d0 a8 f2 57 bd 33 21 a0 bd 1b 17 9e bd 10 87 8b bd
       -0.05272165 -0.07818832 -0.07719251 -0.068128705
0000e0 51 27 74 bd 14 a4 d7 bc d4 0f 7a bd 52 d6 99 bd
       -0.059607808 -0.026323356 -0.06105025 -0.075115815
0000f0 d2 54 d1 bc 5f d5 80 bd 78 f6 d7 bd f4 e0 5e bd
       -0.02555314 -0.06290697 -0.10545057 -0.05441375
000100 12 85 3d bd 61 72 ab bd bc 7f 14 bd 0f 73 e0 bd
       -0.046269484 -0.083714254 -0.03625463 -0.10959446
000110 cd b6 81 bd 7e 25 2f bd 88 23 03 be 5f a0 34 bd
       -0.063336946 -0.042760365 -0.12806523 -0.044098254
000120 85 5a 07 be 8d 24 ae bc 2a c3 d7 bd 61 bc 9e bd
       -0.13218124 -0.021257663 -0.105352715 -0.07750774
000130 39 d5 38 bd 3f 84 28 bd fd 62 60 bc 4a 26 80 bd
       -0.04512522 -0.041141745 -0.013695476 -0.06257303
000140 fe e4 ed bc 25 8b a6 bc c9 18 77 bd ac 5c 89 bd
       -0.029039856 -0.020330021 -0.06032637 -0.06707129
000150 9e c2 2e bd 51 05 a6 bd 40 49 4c bd 04 06 00 bd
       -0.04266607 -0.08106483 -0.049874544 -0.031255737
000160 87 c7 89 bd 45 e8 2d 3c 16 70 ce bd 6e aa 54 bd
       -0.0672751 0.010614459 -0.100799724 -0.051920347
000170 16 b2 0b bd aa d2 c7 bb 7b 18 74 bd 44 01 3b be
       -0.034105383 -0.006098111 -0.05959366 -0.18262202
000180 5f ba 70 bd c5 65 26 bd d0 22 bf bd 61 59 79 bd
       -0.058771487 -0.0406244 -0.09332812 -0.060876254
000190 f6 a5 89 bd 63 02 a1 bd 2d 7d e9 bd 30 5a 9b bd
       -0.06721108 -0.07861783 -0.114008285 -0.07585561
0001a0 1a 9d f8 bd 68 ac af bd 3d c0 c7 bd 63 19 95 bb
       -0.1213934 -0.08577806 -0.097534634 -0.0045501455
0001b0 03 17 e6 bd 1e 72 07 bd aa 7d 04 bd 41 4f e0 bd
       -0.11234858 -0.033067815 -0.032346405 -0.109526165
0001c0 15 ea b5 bc 94 19 aa bc 9f 0c d3 bd 50 ff 88 bd
       -0.022206346 -0.02076415 -0.10305142 -0.06689322
0001d0 8f 2c 36 bd 98 a6 fe bc 9b 1e ee bd 6c 29 00 bd
       -0.044476088 -0.031085297 -0.11626931 -0.031289503
0001e0 31 2c c7 bc a1 ab 28 bd e3 06 1c bd 24 9e ae bd
       -0.024313064 -0.041179303 -0.038092505 -0.08526257
0001f0 b8 b8 21 bd c8 e7 d1 bc 38 8a a8 bc 87 33 d9 bd
       -0.039482802 -0.025623217 -0.02057372 -0.10605531

features.9.running_mean f4 [128]
000000 a6 6e ee 3c 9a 12 bf 3e 04 95 dd 3e 47 fa 15 3e
       0.029105496 0.3731888 0.43277752 0.14646254
000010 29 23 1b bf f9 39 76 bf 15 4a a3 3e 00 41 25 3f
       -0.60600525 -0.9618221 0.31892458 0.6455231
000020 78 84 01 be 92 ed 11 3e 3c bc 41 bf dc 3b e4 3c
       -0.12648189 0.14250782 -0.7567785 0.027860574
000030 ec 4a 1f 3e 1b 6e cb 3e 7a 53 4c bf 5c d4 07 be
       0.15555924 0.3973244 -0.79814875 -0.13264602
000040 62 63 85 be 30 21 85 be 01 18 f0 be d0 ef 85 3d
       -0.26052386 -0.26001883 -0.46893314 0.06539881
000050 e5 9d 2f bf a9 19 91 be 32 4e 20 bf ad a1 08 bf
       -0.686003 -0.2833989 -0.62619317 -0.533717
000060 dd 98 e1 bc c0 9f 2c 3d 96 db b6 3c 7d 3d 1a 3f
       -0.027538711 0.042144537 0.022321504 0.60250074
000070 49 7a ff be f2 00 88 3d a1 c5 b6 bf 96 8b f8 be
       -0.49897984 0.06640805 -1.4279062 -0.48543996
000080 3a 0a ad bf 5e 33 92 bf e3 9e 1d 3e d0 0b 01 bf
       -1.3518746 -1.1421926 0.15392642 -0.5040865
000090 f8 c3 20 3f ac e2 00 bf 33 32 79 bf 16 c5 73 3e
       0.62799025 -0.50345874 -0.9734222 0.23805651
0000a0 30 06 c9 be 20 9d a5 bf 6c ca 14 be 47 a3 04 3f
       -0.39262533 -1.2938576 -0.14530343 0.5181164
0000b0 c0 6c 82 3e bd d5 83 bf e6 3d 9e be 51 2b b0 bf
       0.25473595 -1.0299603 -0.309066 -1.3763219
0000c0 e4 8a 99 bf d1 4c 37 bf e4 3e 7c be 2a cc bf be
       -1.1995511 -0.7160159 -0.24633366 -0.37460452
0000d0 3e 11 1e bf ec be 4b bf ae 49 e4 be 03 cd 4a bf
       -0.6174506 -0.795882 -0.44587463 -0.79219073
0000e0 87 ee 0c bf 31 b2 a1 bf c5 f0 81 bf a0 b4 b0 3e
       -0.55051464 -1.2632505 -1.0151602 0.34512806
0000f0 4d e2 9b bf 96 c1 47 bf dd 85 62 bf f8 3a 04 bf
       -1.2178437 -0.78029764 -0.8848551 -0.5165248
000100 47 b8 90 bf ca c8 2a be 24 ea f2 be a8 7b da 3e
       -1.1306237 -0.16678157 -0.4744426 0.42672467
000110 bb f8 84 bf 7e fa 92 bf c5 81 20 bf e4 e5 fc 3c
       -1.0388407 -1.1482694 -0.6269801 0.03087134
000120 79 3e 12 3c 0c 7c 9a bf 38 8d 4e 3f fe 9c 88 bf
       0.008926027 -1.2069106 0.8068423 -1.067291
000130 6c 55 92 bf 7a 2f 6a be 8f 48 9d bf 9b a8 b7 be
       -1.1432319 -0.22869673 -1.2287768 -0.35870823
000140 aa a7 24 3e fc f1 4f bf fc 09 6a bf 3e ec 95 bc
       0.16079584 -0.81228614 -0.91421485 -0.018301126
000150 97 b9 e3 3e 77 ee ea 3c 69 b5 2e bf be e4 00 bf
       0.4447753 0.028678162 -0.6824556 -0.5034903
000160 e5 9b 13 be ab f8 a6 3d 51 93 b3 bf 86 fa 89 bf
       -0.14414938 0.081528984 -1.4029332 -1.0779579
000170 2b 2e 9a bf 3a fd ab be 51 32 22 bf 58 5b 9a 3d
       -1.2045339 -0.33591634 -0.63358027 0.07536954
000180 8b 74 2d bf b1 a2 3a bf 71 84 da 3e 5c b4 81 bf
       -0.67755955 -0.729045 0.4267917 -1.0133166
000190 62 2e d5 be a0 e7 72 bf 0e 97 0d bf 94 62 95 3e
       -0.4163695 -0.9488468 -0.55308616 0.29176772
0001a0 91 77 36 be 7d 6e 83 3e 7c 70 ad be f7 01 02 c0
       -0.17819048 0.25670233 -0.3387488 -2.03137
0001b0 69 70 a2 bf bf 13 b0 bf 81 62 2c bf 52 c1 39 3e
       -1.2690555 -1.3756026 -0.67337805 0.18140152
0001c0 7c bb 60 bf 45 87 1e bf 01 b7 42 3f e1 c5 d8 be
       -0.8778608 -0.61925155 0.7606049 -0.4233847
0001d0 7a f5 1a bf 2b 8f 9c 3d 7a 4b 10 bb f4 86 de be
       -0.6053082 0.076444946 -0.0022017644 -0.43462336
0001e0 79 a7 86 bd 9f ac 0e 3e d4 4d bf 3d af 39 38 be
       -0.065749116 0.13933037 0.093410164 -0.17990755
0001f0 71 c8 37 bf bf f0 44 bf dd 46 72 bf 71 00 77 be
       -0.71790224 -0.7692985 -0.9463938 -0.24121262
