experiment_testing/arjan-testing/LSTM/best_model_fold_1.pt (torch, 987061 bytes, 22 tensors)

cnn.cnn.0.weight f4 [32, 12, 7]
-0.06682497 0.052143883 0.026420074 0.03413664 0.019546755 -0.08278766 -0.098103344 0.019769935
-0.111763224 -0.02747944 -0.0896651 0.040253613 -0.098285004 -0.053298 -0.026071716 0.040503282
0.06520108 -0.058144815 0.09313143 0.023373554 -0.014279411 0.0023897123 0.090056986 -0.005450852
0.116466045 -0.05937821 0.033241954 0.061474435 0.084582515 -0.088511884 0.05846398 -0.08652024
0.10370807 0.04192727 -0.0655766 -0.0693819 -0.08552719 -0.02298537 -0.016385406 0.04748995
-0.0948762 0.038883273 -0.054030128 0.0007299798 0.09997125 0.05205281 0.013418346 -0.0090254275
-0.0064763827 -0.07629955 0.10420198 0.09258941 -0.08433115 -0.03996479 -0.04698249 0.080102436
0.049421743 -0.09937062 0.008974456 0.03515794 0.101821214 0.07493278 -0.08105903 -0.03927384
-0.021670232 -0.05001018 -0.10227356 -0.1108253 -0.107284345 -0.034230027 -0.09087821 -0.00016401497
-0.06405219 0.014080482 -0.01179244 -0.01804865 0.06934125 -0.030137194 -0.0265137 -0.12942778
0.044393063 -0.051698916 -0.10108937 -0.07721545 0.042514782 -0.06747726 0.002493728 0.074455805
0.037721265 -0.024129787 -0.11968114 0.06388492 -0.05503808 -0.09187553 0.008213447 0.07249815
-0.08880054 -0.09200735 -0.091389604 -0.032341015 -0.013839334 0.004586114 -0.063706145 0.05194317
-0.09552469 0.0969618 0.09949389 0.116274625 0.09964225 0.03695302 -0.019636046 0.15088397
0.036582213 -0.023143787 -0.099820375 -0.03724451 -0.09973129 0.060882222 -0.04011691 -0.0051742652
-0.074319616 -0.077497825 -0.068444155 0.10539582 -0.0036669536 -0.024067415 0.01754485 0.09132284
0.00066820194 0.09248749 -0.04022215 0.019356722 0.102594055 -0.025587244 -0.07320975 0.059706155
-0.05911142 0.033004586 0.102265835 -0.07400283 -0.062231112 -0.11070227 0.0854682 -0.009243013
0.044609595 0.095008925 0.038212832 -0.0554593 0.040886227 -0.121727124 0.07557081 -0.11340971
-0.11013485 -0.11395596 -0.09618146 -0.05636826 0.071047276 -0.095436215 0.09183337 0.08191624
0.057532102 -0.053942233 -0.09326776 0.040436596 0.04207307 -0.048954014 0.079923324 -0.0128271235
0.053232998 -0.08806904 0.069274426 -0.08276334 -0.037639584 -0.116025984 0.08145872 -0.100714356
0.07866875 0.05726967 -0.118291356 -0.028663294 -0.021103404 0.021510681 -0.0017432804 0.04423194
0.06477786 0.014260275 -0.020827614 0.004837319 0.09218362 0.067599036 0.029545508 -0.00402264
-0.029029591 0.08191969 0.1150066 0.03874495 0.077064924 0.050293203 -0.0055490104 -0.03799853
-0.0720508 0.018988274 0.07272138 0.12057119 0.04426036 0.027508255 0.10935987 -0.055858072
-0.08805285 0.09070514 0.08703821 0.00966957 -0.079102 0.090385444 -0.047041446 -0.006652431
-0.06641603 -0.067029335 -0.030475866 0.06994291 0.05604296 0.032880705 0.069325864 -0.06726571
-0.0075753992 0.03504548 -0.04140322 0.096986994 -0.10980624 -0.038956527 0.016128432 -0.08487897
-0.003202928 -0.021622494 -0.004375379 0.011270248 -0.03022906 -0.123298824 -0.047804628 0.0698252
-0.07339419 0.059624936 0.045271408 -0.118552275 0.013160823 0.020158213 -0.045795582 -0.0073841475
-0.089009605 -0.07102576 -0.071421206 -0.079882614 0.017630018 0.0014178143 0.013489415 0.036320012
00000000: 88db 88bd d394 553d e96e d83c ddd2 0b3d
00000010: 8420 a03c 948c a9bd 68ea c8bd 8ff4 a13c
00000020: 1ee4 e4bd 901c e1bc 56a2 b7bd f9e0 243d
00000030: a649 c9bd 014f 5abd 5a94 d5bc c5e6 253d
00000040: 2588 853d 4229 6ebd b1bb be3d e579 bf3c
00000050: 31f4 69bc b89c 1c3b cc6f b83d 109d b2bb
00000060: c085 ee3d 9136 73bd b728 083d 9ecc 7b3d
00000070: 9939 ad3d b845 b5bd ed77 6f3d 8631 b1bd
00000080: e664 d43d eebb 2b3d 064d 86bd 1918 8ebd
00000090: e128 afbd d14b bcbc b03a 86bc d284 423d
000000a0: 744e c2bd 1144 1f3d b24e 5dbd 1d5c 3f3a
000000b0: babd cc3d 5435 553d 9fd8 5b3c 63df 13bc
000000c0: d637 d4bb f042 9cbd d967 d53d 849f bd3d
000000d0: cfb5 acbd 1fb2 23bd b670 40bd bf0c a43d
000000e0: 746e 4a3d d382 cbbd 9909 133c c601 103d
000000f0: a487 d03d 5b76 993d 4702 a6bd 9bdd 20bd
00000100: c585 b1bc 79d7 4cbd cd74 d1bd 60f8 e2bd
00000110: e5b7 dbbd c934 0cbd 5b1e babd 6ffb 2bb9
00000120: cb2d 83bd d2b1 663c 1435 41bc c3da 93bc
00000130: c902 8e3d 47e2 f6bc 4233 d9bc b788 04be
00000140: 80d5 353d 3ec2 53bd f207 cfbd 2223 9ebd
00000150: fb23 2e3d 8531 8abd d06d 233b 497c 983d
00000160: 9d81 1a3d d5ab c5bc 631b f5bd 19d6 823d
00000170: 9c6f 61bd 3d29 bcbd b291 063c e979 943d
00000180: 0fdd b5bd 596e bcbd 792a bbbd 0378 04bd
00000190: 60be 62bc 1d47 963b 5e78 82bd 5dc2 543d
000001a0: 73a2 c3bd e893 c63d 74c3 cb3d 6421 ee3d
000001b0: 3c11 cc3d 0d5c 173d c6db a0bc 5481 1a3e
000001c0: 3bd7 153d 0a98 bdbc a06e ccbd b38d 18bd
000001d0: eb3f ccbd a35f 793d a151 24bd e28c a9bb
000001e0: e234 98bd 2eb7 9ebd 732c 8cbd c4d9 d73d
000001f0: 4651 70bb 0729 c5bc 38ba 8f3c 7807 bb3d
00000200: 462a 2f3a 156a bd3d fbbf 24bd fd91 9e3c
00000210: d51c d23d 579c d1bc feee 95bd 718e 743d
00000220: d11e 72bd d12f 073d c070 d13d cc8e 97bd
00000230: 0de6 7ebd dfb7 e2bd f409 af3d 0270 17bc
00000240: 8db8 363d 0a94 c23d 0f85 1c3d 4a29 63bd
00000250: 5178 273d 124c f9bd dec4 9a3d 5a43 e8bd
00000260: 618e e1bd be61 e9bd c9fa c4bd 68e2 66bd
00000270: 3c81 913d 1074 c3bd 2213 bc3d b4c3 a73d
00000280: c8a6 6b3d 88f2 5cbd 2b03 bfbd d8a0 253d
00000290: d054 2c3d 0184 48bd d7ae a33d db28 52bc
000002a0: d80a 5a3d 8a5d b4bd c0df 8d3d d37f a9bd
000002b0: f72b 1abd 089f edbd d4d3 a63d 5443 cebd
000002c0: 151d a13d 9a93 6a3d bd42 f2bd 49cf eabc
000002d0: 0ce1 acbc 2b37 b03c c97e e4ba 8d2c 353d
000002e0: 41aa 843d eea3 693c ac9e aabc 5f82 9e3b
000002f0: c4ca bc3d 5d71 8a3d 6c09 f23c 5ad0 83bb
00000300: 77cf edbc 83c5 a73d 9588 eb3d 06b3 1e3d
00000310: 37d4 9d3d 3f00 4e3d 79d4 b5bb 59a4 1bbd
00000320: 5f8f 93bd 4c8d 9b3c f2ee 943d 07ee f63d
00000330: 5a4a 353d fe58 e13c 11f8 df3d 6fcb 64bd
00000340: 0d55 b4bd 9ec3 b93d 1741 b23d 1e6d 1e3c
00000350: 3b00 a2bd 011c b93d 88ae 40bd a3fc d9bb
00000360: 2105 88bd ad46 89bd 86a8 f9bc 3a3e 8f3d
00000370: 4e8d 653d ebad 063d b8fa 8d3d 9bc2 89bd
00000380: 0e3b f8bb d98b 0f3d 6c96 29bd 1ea1 c63d
00000390: 18e2 e0bd e190 1fbd c61f 843c 07d5 adbd
000003a0: 37e8 51bb a821 b1bc 575f 8fbb d9a6 383c
000003b0: efa2 f7bc 1884 fcbd c9ce 43bd 8400 8f3d
000003c0: b14f 96bd 4739 743d 836e 393d 89cb f2bd
000003d0: 7ea0 573c d622 a53c 2694 3bbd b8f6 f1bb
000003e0: ab4a b6bd f475 91bd 4845 92bd 7f99 a3bd
000003f0: d46c 903c f4d5 b93a b502 5d3c 4bc4 143d

cnn.cnn.0.bias f4 [32]
0.04106107 -0.085970916 -0.06055901 -0.0075556203 -0.081275426 -0.08830958 -0.08468254 0.09106871
-0.057207372 -0.03320051 0.003549959 0.046968553 0.11333877 0.08155766 -0.103937134 -0.036630064
0.10042953 -0.011041293 0.0492775 -0.012882105 -0.07555153 0.0835151 -0.019895565 -0.04115562
-0.09570963 0.013319175 -0.077052385 -0.0133953765 -0.024788275 -0.035220094 -0.105747744 -0.02347188
00000000: a72f 283d 8511 b0bd b90c 78bd 2395 f7bb
00000010: bb73 a6bd a7db b4bd 0a6e adbd 3b82 ba3d
00000020: 4752 6abd 42fd 07bd 6ea6 683b 1962 403d
00000030: 281e e83d b407 a73d fedc d4bd 6809 16bd
00000040: ffad cd3d 8ae6 34bc 34d7 493d 770f 53bc
00000050: c3ba 9abd f709 ab3d 06fc a2bc cc92 28bd
00000060: 6903 c4bd ab38 5a3c a4cd 9dbd 4878 5bbc
00000070: c810 cbbc f242 10bd 4692 d8bd 1a48 c0bc

cnn.cnn.1.weight f4 [32]
1.0131165 1.0024768 0.9899484 0.99981564 1.0015422 0.9856526 1.0288541 0.96956056
0.96165085 1.0264915 0.98039895 0.981974 1.0360792 1.0145409 0.9829534 0.9740253
0.989977 0.99677646 0.94877505 0.9375101 1.0072367 1.0318327 1.0031135 1.0250841
1.0361204 0.9873482 1.0008892 0.97580665 0.9939119 1.0274987 1.0079923 0.9882506
00000000: cdad 813f 2951 803f 426d 7d3f ebf3 7f3f
00000010: 8932 803f bb53 7c3f 7eb1 833f 1f35 783f
00000020: c02e 763f 1364 833f 6dfb 7a3f a662 7b3f
00000030: 3e9e 843f 7adc 813f d6a2 7b3f b959 793f
00000040: 226f 7d3f be2c 7f3f ece2 723f a900 703f
00000050: 22ed 803f 1813 843f 0666 803f f535 833f
00000060: 989f 843f dac2 7c3f 231d 803f 77ce 793f
00000070: 0371 7e3f 1485 833f e405 813f fefd 7c3f

cnn.cnn.1.bias f4 [32]
-0.00039633247 -0.0015798003 -0.0034110846 0.015153158 -0.0111483615 -0.024701722 -0.01721672 -0.022358097
-0.024924722 -0.009574684 -0.035863444 -0.0212099 0.027897896 0.04929407 -0.017713636 0.00575094
0.00041662043 -0.011539817 -0.022060119 -0.01882996 -0.03450147 0.032671284 -0.0144990105 0.04415411
-0.035400875 -0.03530564 -0.03447217 -0.013203209 0.011607134 -0.03192346 0.00025609956 0.022960506
00000000: d8ca cfb9 4d11 cfba 818c 5fbb f444 783c
00000010: 9ea7 36bc 445b cabc 140a 8dbc 5428 b7bc
00000020: ee2e ccbc 23df 1cbc 8ce5 12bd 62c0 adbc
00000030: 218a e43c 94e8 493d 301c 91bc 6272 bc3b
00000040: d96d da39 8011 3dbc 6cb7 b4bc 4a41 9abc
00000050: 6a51 0dbd 53d2 053d 428d 6dbc f1da 343d
00000060: 8200 11bd a69c 10bd b132 0dbd 4652 58bc
00000070: d92b 3e3c 2dc2 02bd 1a45 8639 ac17 bc3c

cnn.cnn.1.running_mean f4 [32]
0.040891413 -0.08575035 -0.060182236 -0.007545086 -0.08120627 -0.0880996 -0.08522951 0.09095095
-0.05734871 -0.03243373 0.003611675 0.047168396 0.1109325 0.08268504 -0.10411242 -0.036363784
0.10023118 -0.010823561 0.048855565 -0.013083474 -0.075638466 0.08421566 -0.019644478 -0.041589867
-0.095573395 0.013282069 -0.07673695 -0.012913884 -0.025019787 -0.036454517 -0.10460968 -0.023815185
00000000: c17d 273d e19d afbd a681 76bd c53c f7bb
00000010: 794f a6bd 906d b4bd cf8c aebd 7e44 ba3d
00000020: 7be6 6abd 3bd9 04bd dab1 6c3b a633 413d
00000030: 9430 e33d c656 a93d e438 d5bd 31f2 14bd
00000040: 0146 cd3d 4e55 31bc c61c 483d 115c 56bc
00000050: 57e8 9abd 4379 ac3d 75ed a0bc 235a 2abd
00000060: fcbb c3bd 099d 593c 4328 9dbd c194 53bc
00000070: 4cf6 ccbc 5551 15bd 9a3d d6bd 1018 c3bc

cnn.cnn.1.running_var f4 [32]
1.8636447 1.7566168 0.63913774 0.79599684 0.85695964 2.79574 2.4286425 1.0216726
0.7637538 0.18615265 1.0308176 0.457796 0.8087791 1.5192815 0.72870827 1.019124
1.5048882 0.89458144 0.59393674 0.945001 1.9424323 1.721848 1.0077333 1.0479277
1.5887257 0.87139606 0.86397755 0.93499434 1.8938308 0.30672002 0.5316654 1.3750576
00000000: e98b ee3f d2d8 e03f 889e 233f 73c6 4b3f
00000010: b561 5b3f 67ed 3240 e16e 1b40 2bc6 823f
00000020: 5e85 433f cd9e 3e3e d5f1 833f 3d64 ea3e
00000030: 260c 4f3f d177 c23f a08c 3a3f a872 823f
00000040: 2da0 c03f 4a03 653f 3d0c 183f 96eb 713f
00000050: 9fa1 f83f 8465 dc3f 68fd 803f 7f22 863f
00000060: 5d5b cb3f d013 5f3f a22d 5d3f ca5b 6f3f
00000070: 0c69 f23f 680a 9d3e 391b 083f e301 b03f

cnn.cnn.3.weight f4 [64, 32, 5]
0.10590842 0.013610361 0.025274374 -0.049452227 -0.019650811 0.102607965 0.09937932 -0.030284807
0.11205388 0.057378475 -0.06007266 -0.03214236 -0.017327588 0.106123015 0.04443121 0.07946791
-0.037202217 0.039405998 0.054167073 0.03613449 -0.08020119 -0.06630882 0.07237829 -0.020088818
-0.0508346 0.070392706 -0.023266578 -0.01452182 0.09533791 -0.019176183 0.031075152 -0.056985203
0.06854489 0.06311097 0.002514315 0.026476987 0.015443759 -0.0999857 -0.079165906 -0.08230706
-0.051386356 0.010497295 -0.071358584 -0.10632654 -0.034241278 0.077725075 0.03279243 0.08723144
0.057342973 0.08429808 0.063952394 0.07901857 0.05111595 -0.05011074 -0.018761368 0.03824523
-0.06123918 0.019078653 -0.042478655 -0.0231278 0.01099066 0.039245665 0.023001906 0.0820708
0.09541924 0.011727997 -0.0038734977 -0.0319164 0.08485636 -0.014800039 0.06927184 -0.034067113
-0.03699245 0.02919199 0.048098464 -0.04979289 0.0906309 -0.043175206 0.081725724 0.091474645
0.085288666 0.023845779 0.13748156 0.030779447 -0.005706395 -0.050690465 0.0038301155 -0.043223076
0.02995233 -0.009623005 -0.023212558 -0.04777643 0.053103928 -0.045859035 0.028362837 -0.053770736
0.039978143 -0.07102091 0.049432352 -0.06229823 -0.032918174 -0.04152366 0.042035826 0.016325155
-0.016123243 -0.042550895 0.078913055 -0.041471 -0.012943553 -0.0470018 -0.044377565 0.020186447
-0.043280516 0.019571954 -0.061094843 0.038703974 0.009293522 -0.08171125 0.056643967 -0.017519683
0.0524929 0.005918241 -0.07651279 0.030900398 0.060025834 -0.10118533 0.022125332 -0.03953135
0.04139615 0.05361062 0.030957907 -0.01832108 -0.06716089 -0.061990924 -0.04582638 0.028892893
0.025388913 -0.049859922 0.053020626 0.0021937399 -0.006156152 -0.039581433 0.08331954 -0.043701645
-0.057294726 0.049261928 0.056971136 0.08261518 0.0641669 -0.013948534 0.040594045 -0.057560503
0.095100135 0.02506822 -0.025671372 0.052200373 0.0642169 0.020089524 -0.015686316 0.05046817
-0.062948905 -0.055654764 -0.017745169 -0.026714658 0.017953029 -0.09989931 0.050080046 -0.04344348
-0.0071351086 0.05750133 0.048818305 -0.004119106 -0.04599205 -0.0023932704 -0.08301227 -0.040285435
-0.063231766 -0.0564778 -0.084557176 -0.056611687 0.08617555 -0.0030754476 -0.0052375696 0.0006362716
0.050180458 -0.018913312 -0.08170495 -0.0140013825 -0.10411563 -0.00015647993 -0.015901087 0.0393461
-0.101179585 -0.062062364 0.01247886 0.07054419 0.0689893 -0.05944381 -0.00042952155 0.013858827
-0.03873053 -0.013015761 -0.04693449 -0.0060039656 0.028994344 0.10021555 0.096396014 0.06027472
0.017156841 0.13028222 0.048950806 -0.05934558 0.036559008 -0.07122357 -0.053589914 0.045832805
-0.06123009 -0.019471448 0.024665307 -0.08087667 -0.10701345 -0.11132655 -0.10383024 -0.019359665
-0.082597494 -0.10097646 -0.011565611 -0.08855307 -0.09772928 0.0038886706 -0.06124886 -0.0020234678
-0.015829256 0.04208352 0.03778237 -0.04379945 0.012588894 0.03126432 0.037281632 0.021322243
-0.009271251 0.07636285 0.05711023 0.03616998 0.0914213 0.038308855 -0.08806696 -0.04534295
-0.009742638 -0.017366169 -0.06519081 0.051922567 0.037236795 0.045720194 0.031985912 -0.037567772
00000000: 84e6 d83d fefd 5e3c 340c cf3c 6b8e 4abd
00000010: bdfa a0bc 2024 d23d 6387 cb3d d817 f8bc
00000020: 817c e53d b105 6b3d c00e 76bd b5a7 03bd
00000030: 96f2 8dbc 0657 d93d 80fd 353d 12c0 a23d
00000040: 5a61 18bd 2f68 213d 4bde 5d3d c201 143d
00000050: 8640 a4bd ebcc 87bd 123b 943d 4e91 a4bc
00000060: f137 50bd 0d2a 903d 8d99 bebc edec 6dbc
00000070: 8640 c33d 5f17 9dbc 5191 fe3c 5169 69bd
00000080: 4361 8c3d 5340 813d 35c7 243b 44e6 d83c
00000090: d207 7d3c 4dc5 ccbd bc21 a2bd 9b90 a8bd
000000a0: 807a 52bd d9fc 2b3c 7324 92bd bbc1 d9bd
000000b0: 9540 0cbd 532e 9f3d 5b51 063d 66a6 b23d
000000c0: 77e0 6a3d 79a4 ac3d 79f9 823d 7dd4 a13d
000000d0: f55e 513d eb40 4dbd 71b1 99bc 08a7 1c3d
000000e0: efd5 7abd d64a 9c3c 19fe 2dbd 8376 bdbc
000000f0: 2b12 343c 10c0 203d 7e6e bc3c bc14 a83d
00000100: 2a6b c33d c926 403c 82da 7dbb c5ba 02bd
00000110: 2cc9 ad3d dd7b 72bc 65de 8d3d f589 0bbd
00000120: 6585 17bd 0a24 ef3c e502 453d a1f3 4bbd
00000130: b19c b93d 7cd8 30bd d15f a73d 0f57 bb3d
00000140: d3ab ae3d 3958 c33c f7c7 0c3e 2e25 fc3c
00000150: b6fc babb cea0 4fbd ad02 7b3b ae0a 31bd
00000160: 975e f53c cfa9 1dbc 4328 bebc 38b1 43bd
00000170: 8183 593d afd6 3bbd 2e59 e83c b43e 5cbd
00000180: 1fc0 233d 6973 91bd 9479 4a3d 6e2c 7fbd
00000190: 35d5 06bd b714 2abd c22d 2c3d 55bc 853c
000001a0: e414 84bc d949 2ebd 2b9d a13d 7fdd 29bd
000001b0: 3211 54bc f684 40bd 40c5 35bd 0c5e a53c
000001c0: e946 31bd 5d55 a03c 963e 7abd 0f88 1e3d
000001d0: db43 183c 3a58 a7bd 8103 683d 7085 8fbc
000001e0: cc02 573d ceed c13b bdb2 9cbd d522 fd3c
000001f0: a6dd 753d 413a cfbd 2f40 b53c a0eb 21bd
00000200: 028f 293d cf96 5b3d 709b fd3c 1716 96bc
00000210: a68b 89bd 32ea 7dbd 71b4 3bbd cab0 ec3c
00000220: 69fc cf3c eb39 4cbd 282c 593d d9c4 0f3b
00000230: 8cb9 c9bb 2420 22bd 6fa3 aa3d 7f00 33bd
00000240: e0ad 6abd e0c6 493d 915a 693d 2632 a93d
00000250: f069 833d 6488 64bc f145 263d 90c4 6bbd
00000260: dcc3 c23d de5b cd3c c54c d2bc 0fd0 553d
00000270: 2684 833d c992 a43c 9780 80bc b6b7 4e3d
00000280: 5beb 80bd 40f6 63bd 515e 91bc b3d8 dabc
00000290: 3b12 933c 0298 ccbd bc20 4d3d caf1 31bd
000002a0: a1cd e9bb 8486 6b3d b4f5 473d 91f9 86bb
000002b0: 2962 3cbd 6ad8 1cbb 5602 aabd 5702 25bd
000002c0: a87f 81bd 4455 67bd 502c adbd a8e1 67bd
000002d0: cf7c b03d 738d 49bb eb9f abbb 77cb 263a
000002e0: 068a 4d3d 17f0 9abc ed54 a7bd 0e66 65bc
000002f0: 933a d5bd c314 24b9 ff42 82bc 6029 213d
00000300: 3e37 cfbd 1b35 7ebd 2274 4c3c 7979 903d
00000310: 434a 8d3d 5a7b 73bd 6831 e1b9 2210 633c
00000320: e7a3 1ebd 0f40 55bc 613e 40bd eabc c4bb
00000330: 8c85 ed3c cf3d cd3d 466b c53d a0e2 763d
00000340: 818c 8c3c b468 053e a480 483d 5a14 73bd
00000350: e6be 153d aadd 91bd 1981 5bbd 2ebb 3b3d
00000360: 67cc 7abd 9682 9fbc e60e ca3c aba2 a5bd
00000370: de29 dbbd 2dff e3bd f3a4 d4bd 2998 9ebc
00000380: e028 a9bd bfcc cebd b07d 3dbc 505b b5bd
00000390: 4a26 c8bd 11d9 7e3b 16e0 7abd 289c 04bb
000003a0: 5bac 81bc c55f 2c3d b0c1 1a3d 0d67 33bd
000003b0: a641 4e3c 040f 003d a0b4 183d fcab ae3c
000003c0: 72e6 17bc 2064 9c3d 6bec 693d f926 143d
000003d0: 173b bb3d bfe9 1c3d 735c b4bd 87b9 39bd
000003e0: 969f 1fbc 7f43 8ebc c282 85bd c2ac 543d
000003f0: 9c85 183d 1945 3b3d a903 033d aae0 19bd

cnn.cnn.3.bias f4 [64]
0.06040926 -0.0060498924 0.001292999 0.017704424 -0.0021164452 -0.040264387 -0.006963733 0.06651172
0.030125527 0.032643396 -0.03733748 0.06919868 -0.06528258 0.017567545 0.049514268 0.06889213
-0.026917692 -0.05101354 -0.043892168 -0.011395759 -0.050725944 -0.07411351 0.06777376 -0.0062312153
-0.019883452 -0.07135689 0.022408755 -0.07580197 -0.021759983 0.032664847 -0.04154107 -0.065979645
-0.06879034 -0.016796751 0.011484089 0.0631301 -0.028852638 -0.05108835 0.04647628 -0.03929497
0.025119932 -0.017861936 -0.0107284235 0.071516536 -0.048652627 -0.06178297 0.027787806 -0.06765077
0.035615712 -0.06808325 0.05002456 0.019413764 0.07075161 -0.06274124 -0.03309043 0.03341781
0.014791853 -0.06328843 0.041892715 0.0101930015 0.018108167 0.0687753 -0.0069615836 -0.080328345
00000000: b36f 773d 2d3e c6bb d979 a93a de08 913c
00000010: 0fb4 0abb 45ec 24bd 0730 e4bb 4c37 883d
00000020: cfc9 f63c 15b5 053d 2fef 18bd 0ab8 8d3d
00000030: e0b2 85bd d0e9 8f3c 79cf 4a3d 5117 8d3d
00000040: 7e82 dcbc 93f3 50bd 46c8 33bd 47b5 3abc
00000050: 02c6 4fbd d3c8 97bd f8cc 8a3d 392f ccbb
00000060: 9fe2 a2bc 9023 92bd 9192 b73c 103e 9bbd
00000070: fe41 b2bc 93cb 053d f826 2abd 5620 87bd
00000080: f3e1 8cbd 5799 89bc c327 3c3c 5b4a 813d
00000090: 5e5c ecbc 0542 51bd e95d 3e3d c3f3 20bd
000000a0: 51c8 cd3c 3253 92bc 45c6 2fbc 4377 923d
000000b0: fa47 47bd 2410 7dbd 41a3 e33c 7d8c 8abd
000000c0: c8e1 113d 3b6f 8bbd 8ee6 4c3d 9d09 9f3c
000000d0: 38e6 903d 7b7e 80bd d589 07bd 1de1 083d
000000e0: 8759 723c 5d9d 81bd b297 2b3d 8c00 273c
000000f0: 9457 943c 11da 8c3d ff1d e4bb 3083 a4bd

cnn.cnn.4.weight f4 [64]
0.99130446 1.0121845 1.0052913 1.0005873 0.9975511 0.99035245 1.0084168 1.009229
1.0092152 1.0212557 0.9899984 1.0128485 1.0126448 1.0117334 0.9902474 1.0042754
1.0106688 1.0040618 1.0130675 0.9995826 1.010126 1.0126301 1.0130357 0.9975726
1.0072092 1.0252209 1.0007182 1.0035905 0.9788137 1.0493574 0.99602145 1.0085541
1.0215594 0.9977595 1.0159558 1.0118176 1.0163481 1.0153626 0.9886563 1.0109264
1.0023319 1.0111955 1.0077862 1.0016596 1.0134121 1.0091419 0.9980922 1.0240504
1.016088 1.0146333 1.0147163 1.0004879 0.99930835 0.9954043 1.0083895 1.0210134
0.9974289 1.0108465 1.0205265 0.98298204 0.9853829 0.99446696 1.0223432 1.0062662
00000000: 21c6 7d3f 438f 813f 63ad 803f 3f13 803f
00000010: 825f 7f3f bd87 7d3f cd13 813f 6a2e 813f
00000020: f72d 813f 82b8 823f 8970 7d3f 05a5 813f
00000030: 589e 813f 7b80 813f db80 7d3f 198c 803f
00000040: 985d 813f 1985 803f 32ac 813f a5e4 7f3f
00000050: cf4b 813f dd9d 813f 27ab 813f eb60 7f3f
00000060: 3bec 803f 703a 833f 8917 803f a775 803f
00000070: 8993 7a3f 5851 863f 43fb 7e3f 4d18 813f
00000080: 75c2 823f 2b6d 7f3f d70a 823f 3d83 813f
00000090: b217 823f 67f7 813f 9418 7d3f 0966 813f
000000a0: 694c 803f db6e 813f 23ff 803f 6236 803f
000000b0: 7db7 813f 902b 813f f882 7f3f 1514 833f
000000c0: 2c0f 823f 81df 813f 39e2 813f fd0f 803f
000000d0: acd2 7f3f d1d2 7e3f e812 813f 91b0 823f
000000e0: 8057 7f3f 6b63 813f 9da0 823f b6a4 7b3f
000000f0: 0e42 7c3f 6395 7e3f 24dc 823f 55cd 803f

cnn.cnn.4.bias f4 [64]
-0.010931022 -0.0011561172 0.00056234683 -0.007136752 -0.010285539 -0.019765247 0.0017398235 0.009824391
-0.0013485498 -0.026466426 -0.06037309 0.012023665 0.008442913 -0.00023938135 -0.04849069 -0.023686169
0.0051871524 0.00072931167 -0.023981493 -0.028808367 -0.022164647 0.011831943 0.013383247 -0.011713925
0.008800111 0.01572778 -0.0066513936 -0.0022810334 -0.021939896 -0.0024798485 -0.013953121 -0.016513493
0.004121628 -0.011435207 0.010996829 0.009994196 0.0021141975 -0.039590124 -0.010832776 -0.007946493
-0.016125837 -0.017603757 -0.008638787 0.0040978976 0.0056299646 -0.0073175235 -0.03299808 -0.01732088
0.0028820892 0.010544556 -0.007925934 -0.0035290262 -0.00048818858 -0.025461962 -0.006812199 -0.002313799
-0.0019168061 0.0040629366 0.0023706725 -0.012628426 -0.015400339 -0.0131083485 -0.017263189 -0.015541724
00000000: 0818 33bc db88 97ba 756a 133a 6adb e9bb
00000010: ad84 28bc baea a1bc ca0a e43a 7cf6 203c
00000020: d3c1 b0ba 1ed0 d8bc c649 77bd e8fe 443c
00000030: 2554 0a3c 7102 7bb9 2c9e 46bd 7f09 c2bc
00000040: fdf8 a93b 472f 3f3a d674 c4bc 86ff ebbc
00000050: a292 b5bc c4da 413c 6845 5b3c c3eb 3fbc
00000060: 572e 103c 8cd7 803c eff3 d9bb 647d 15bb
00000070: 4cbb b3bc f484 22bb a29b 64bc 4e47 87bc
00000080: b90e 873b bc5a 3bbc 0b2c 343c b2be 233c
00000090: 598e 0a3b 4129 22bd f57b 31bc 0232 02bc
000000a0: 551a 84bc c135 90bc b389 0dbc a847 863b
000000b0: 917b b83b d6c7 efbb ff28 07bd 85e4 8dbc
000000c0: 6fe1 3c3b 13c3 2c3c c7db 01bc 3c47 67bb
000000d0: 90f3 ffb9 9b95 d0bc de38 dfbb 1ba3 17bb
000000e0: 573d fbba 6222 853b 495d 1b3b 75e7 4ebc
000000f0: b451 7cbc 66c4 56bc 886b 8dbc b7a2 7ebc

cnn.cnn.4.running_mean f4 [64]
0.48898336 -0.6412435 -0.91895235 -1.0231669 0.49223214 -0.8932429 0.30569062 -0.0716609
-0.30955794 0.25261763 1.0477067 0.47184598 -0.2735067 -0.67971975 0.7363728 0.9482447
-0.53442377 -0.39899683 0.9229394 0.48415688 0.83498746 -0.0005293859 0.13203152 0.4801169
-0.33100155 -0.34728536 -0.69149333 -0.7911759 -0.57706857 0.18476297 -0.5678956 0.32893583
-0.43736312 0.18903288 0.25780466 0.13931838 -0.7522283 0.87240964 0.50108004 0.6185829
0.045575965 0.8213535 0.19313465 -0.20159839 -0.069652155 -0.53942406 0.60508156 0.79144293
-0.77187383 -0.088592075 0.31677338 -0.4919986 0.5962546 0.6189346 0.468641 0.40587047
-0.9280983 -0.854856 -0.29674032 -0.5954854 -0.80358285 -0.75721157 0.7660998 -0.17635797
00000000: 075c fa3e 8928 24bf 7640 6bbf 22f7 82bf
00000010: da05 fc3e 91ab 64bf 7b83 9c3e f3c2 92bd
00000020: 617e 9ebe 1957 813e 411b 863f cc95 f13e
00000030: 1209 8cbe 1d02 2ebf ee82 3c3f 2ac0 723f
00000040: ffcf 08bf 5049 ccbe c245 6c3f 69e3 f73e
00000050: bdc1 553f 7dc6 0aba 4533 073e e2d1 f53e
00000060: 0979 a9be 63cf b1be b505 31bf 818a 4abf
00000070: c4ba 13bf 8132 3d3e 9b61 11bf 476a a83e
00000080: 0fee dfbe d691 413e f9fe 833e 7aa9 0e3e
00000090: 0992 40bf 3d56 5f3f c846 003f 735b 1e3f
000000a0: ddad 3a3d 3944 523f 17c5 453e cf6f 4ebe
000000b0: caa5 8ebd b217 0abf a0e6 1a3f 019c 4a3f
000000c0: 8699 45bf c36f b5bd 1f30 a23e 3ee7 fbbe
000000d0: 24a4 183f 7f72 1e3f b7f1 ef3e 41ce cf3e
000000e0: da97 6dbf d8d7 5abf 59ee 97be bb71 18bf
000000f0: 9bb7 4dbf 9ed8 41bf 1e1f 443f 2f97 34be

cnn.cnn.4.running_var f4 [64]
0.6160662 0.6379713 0.80654156 1.1235749 0.9323811 0.93168753 0.38922343 0.8248554
0.29026288 0.7496169 1.7314498 0.83268803 0.5364662 0.68884856 1.3969005 1.0090222
1.4683893 0.76579696 0.9207214 0.5441489 1.4807298 1.189253 1.3641541 1.2425354
1.1196349 0.53723085 0.6232876 0.65195686 0.8555354 0.34299558 0.5441032 0.8641237
0.44180462 0.62849003 0.7427836 0.6566087 0.5992739 1.6774583 1.5235231 0.6122379
0.31168458 0.8763932 0.67178524 0.815628 0.65065885 0.6931207 0.59961784 1.4293627
0.6901462 0.8423277 0.5147548 0.45021388 0.7254444 0.94022053 0.41729864 0.5506678
0.863954 1.0508873 0.45280445 0.82453066 0.9366435 0.76045346 1.3088988 0.28865248
00000000: 84b6 1d3f 1652 233f 8279 4e3f 4dd1 8f3f
00000010: 87b0 6e3f 1383 6e3f 4b48 c73e b929 533f
00000020: 569d 943e e5e6 3f3f 26a0 dd3f 0b2b 553f
00000030: d955 093f 6158 303f a3cd b23f a427 813f
00000040: 2ef4 bb3f 450b 443f 66b4 6b3f 584d 0b3f
00000050: 8e88 bd3f 7139 983f 9a9c ae3f 660b 9f3f
00000060: 3250 8f3f f687 093f c78f 1f3f a5e6 263f
00000070: 5e04 5b3f 1e9d af3e 594a 0b3f 3637 5d3f
00000080: 3734 e23e b9e4 203f 1127 3e3f 8217 283f
00000090: 046a 193f f4b6 d63f ce02 c33f 9fbb 1c3f
000000a0: 1f95 9f3e 4e5b 603f 1efa 2b3f ffcc 503f
000000b0: 9491 263f 5c70 313f 8e80 193f 5bf5 b63f
000000c0: 6cad 303f caa2 573f f8c6 033f 6f82 e63e
000000d0: b9b6 393f 4bb2 703f 2ba8 d53e 91f8 0c3f
000000e0: 172c 5d3f 7a83 863f fcd5 e73e 7114 533f
000000f0: dec7 6f3f 14ad 423f ff89 a73f 42ca 933e

lstm.weight_ih_l0 f4 [512, 64]
0.07573073 -0.011618498 -0.061025538 0.07277223 0.024531526 -0.015759408 -0.09016787 0.09658736
0.06034309 -0.0019820614 -0.0806318 0.043160014 0.015921585 0.07966511 0.064972244 -0.08519973
0.03438959 0.012427871 0.0739459 0.02715951 -0.060074635 0.032880206 -0.025839504 0.05936582
-0.001252667 0.07112502 -0.020731157 -0.061156284 0.03517885 0.0030076026 -0.044527274 0.031482864
0.006148856 -0.07553755 -0.039606202 0.06623959 0.030370869 -0.02600065 0.028237145 0.023287011
-0.007327287 -0.02024637 0.03326755 0.052043237 -0.018683115 -0.03789433 0.07286099 -0.028547151
0.11361061 0.055870496 -0.05586497 -0.009649328 -0.052126307 0.09144543 -0.0612164 -0.07205107
-0.06358981 -0.009278339 0.036958463 -0.0397538 0.08140127 0.09319816 0.053276464 0.032754786
0.097723216 -0.067534424 0.00776344 -0.015216824 -0.102835216 -0.06766852 0.04593378 0.024837881
0.057682198 0.080740854 0.043246284 0.055784922 -0.049765363 0.0025349052 -0.063502334 0.028249227
-0.02408697 -0.07456968 0.05153899 -0.031187793 -0.024067055 0.030147707 -0.10567221 0.05446888
-0.025939934 -0.056432392 0.11697725 -0.0724981 -0.0093184905 0.04860475 -0.064912386 0.026500918
0.074774936 0.033667706 -0.02872342 0.00046950503 0.06556438 -0.081884466 -0.1281888 0.10021159
0.06467118 -0.094679095 0.088216625 -0.09365681 0.038850456 0.041388832 0.07876503 0.09509463
0.0070813023 0.0012023823 0.054905895 -0.017424848 -0.09857848 -0.026485968 -0.09843541 0.03273362
0.0762021 -0.0019481131 0.010342377 0.05273691 0.023542771 0.016810136 -0.07194414 -0.0033554798
0.00687729 -0.08498725 -0.039389767 -0.089091025 -0.042524613 0.06712064 0.04531793 0.08699795
-0.06651279 -0.027093882 -0.040493816 -0.0530226 -0.11346067 -0.07955256 -0.033432238 0.034543682
-0.11653459 -0.011350398 0.007175709 -0.0013381471 -0.04355921 -0.09074275 -0.09020656 -0.073123254
-0.0672603 -0.083636425 -0.088997595 0.08528973 0.009505988 -0.07430269 -0.048545085 -0.0275465
-0.058791 -0.08015483 0.042120934 -0.091786735 0.089197814 -0.031871036 -0.07420674 -0.033614285
-0.07417943 -0.019144734 -0.10350087 0.06705304 -0.027099546 0.05030997 -0.013749815 0.00060156075
-0.038100317 -0.07245141 0.038339645 0.035394616 0.016657105 -0.01502242 -0.04478214 -0.07519769
0.00027139147 0.0141025735 -0.067844115 -0.0851626 -0.0130433645 -0.0009818152 0.001743632 0.0521278
0.02177887 -0.06474247 -0.08064386 0.01937488 -0.027323257 -0.05213336 0.089030825 -0.03667714
0.020560205 -0.09416592 -0.03944786 -0.03826517 -0.079564705 0.03249974 0.062976256 -0.08542068
-0.08612579 0.0010154388 0.00733623 0.03909378 -0.09731234 0.08652423 0.041720502 -0.090055205
0.07826955 -0.06368306 0.094146 -0.017460303 -0.065936655 0.03768146 0.052699655 -0.0019220002
-0.030191474 0.08549705 -0.04374132 -0.04996605 -0.023410229 0.013089705 0.058937874 -0.064833365
0.026979648 -0.067081116 -0.025558196 0.020892704 0.032286707 -0.06283908 -0.06954058 -0.10345329
0.007127606 0.018067526 -0.06497153 -0.06575076 -0.03940003 -0.068684466 -0.037482545 -0.05485335
0.037408706 0.039209086 -0.0005328002 -0.037200898 -0.020297565 0.030142099 -0.06577873 0.046748433
00000000: b718 9b3d 835b 3ebc eaf5 79bd 9b09 953d
00000010: 57f6 c83c e019 81bc efa9 b8bd 98cf c53d
00000020: 512a 773d 79e5 01bb 4922 a5bd 8ec8 303d
00000030: fc6d 823c 7627 a33d 2b10 853d 327d aebd
00000040: 19dc 0c3d 459e 4b3c f370 973d 9f7d de3c
00000050: d210 76bd 65ad 063d 5ead d3bc 9329 733d
00000060: 8830 a4ba ffa9 913d 63d4 a9bc 037f 7abd
00000070: b317 103d 331b 453b 3b62 36bd 2df4 003d
00000080: 587c c93b 6eb3 9abd 1d3a 22bd 9fa8 873d
00000090: 54cc f83c 51ff d4bc 9651 e73c 67c4 be3c
000000a0: bd19 f0bb b7db a5bc 8e43 083d 4a2b 553d
000000b0: 550d 99bc 1637 1bbd 2538 953d b7db e9bc
000000c0: aeac e83d 76d8 643d abd2 64bd 3718 1ebc
000000d0: 6582 55bd be47 bb3d 0cbe 7abd 838f 93bd
000000e0: 603b 82bd 2d04 18bc c261 173d e1d4 22bd
000000f0: b6b5 a63d adde be3d 6c38 5a3d e229 063d
00000100: 1c23 c83d 7d4f 8abd 7464 fe3b fc4f 79bc
00000110: 459b d2bd cb95 8abd 0f25 3c3d d078 cb3c
00000120: 2b44 6c3d 765b a53d 0423 313d bb7e 643d
00000130: c4d6 4bbd a720 263b 830d 82bd ec6a e73c
00000140: 0a52 c5bc fdb7 98bd 8c1a 533d 8b7d ffbc
00000150: 4628 c5bc 53f8 f63c ac6a d8bd c31a 5f3d
00000160: fc7f d4bc a725 67bd c591 ef3d e279 94bd
00000170: 95ac 18bc c615 473d c9f0 84bd 7418 d93c
00000180: 9a23 993d 26e7 093d 614d ebbc e627 f639
00000190: 9e46 863d 0bb3 a7bd ed43 03be bc3b cd3d
000001a0: 5372 843d 1de7 c1bd ebaa b43d 24cf bfbd
000001b0: a821 1f3d 5687 293d 8f4f a13d f9c0 c23d
000001c0: 450a e83b 4199 9d3a 01e5 603d 8ebe 8ebc
000001d0: 84e3 c9bd 1af9 d8bc 8198 c9bd b013 063d
000001e0: d90f 9c3d d457 ffba 1373 293c a802 583d
000001f0: c5dc c03c 69b5 893c 7357 93bd 9ce7 5bbb
00000200: e45a e13b cc0d aebd 2a57 21bd 5b75 b6bd
00000210: 4a2e 2ebd 8c76 893d 4b9f 393d fb2b b23d
00000220: dc37 88bd fdf3 ddbc d8dc 25bd 3a2e 59bd
00000230: 115e e8bd 74ec a2bd 3ef0 08bd ad7d 0d3d
00000240: b0a9 eebd 05f7 39bc 3622 eb3b c464 afba
00000250: 246b 32bd 56d7 b9bd 38be b8bd a5c1 95bd
00000260: c5bf 89bd 9349 abbd 5f44 b6bd 62ac ae3d
00000270: 01bf 1b3c 022c 98bd 36d7 46bd 33a9 e1bc
00000280: d5ce 70bd 3728 a4bd 0087 2c3d affa bbbd
00000290: 58ad b63d 348b 02bd b4f9 97bd 22af 09bd
000002a0: 63eb 97bd 6bd5 9cbc 44f8 d3bd 1b53 893d
000002b0: deff ddbc d411 4e3d e746 61bc 0fb2 1d3a
000002c0: 140f 1cbd 6861 94bd 080a 1d3d f2f9 103d
000002d0: 7b74 883c 9920 76bc 7a6d 37bd 3f01 9abd
000002e0: 8c49 8e39 7b0e 673c dbf1 8abd bb69 aebd
000002f0: d6b3 55bc 40b0 80ba 958a e43a f683 553d
00000300: 9a69 b23c b397 84bd 9c28 a5bd 11b8 9e3c
00000310: 06d5 dfbc ca89 55bd cb55 b63d c53a 16bd
00000320: e06d a83c 10da c0bd 1494 21bd f0bb 1cbd
00000330: d2f2 a2bd 731e 053d b2f9 803d 0af1 aebd
00000340: b862 b0bd 7918 853a c264 f03b cd20 203d
00000350: b14b c7bd 9e33 b13d 1ee3 2a3d dd6e b8bd
00000360: c94b a03d 446c 82bd 9ecf c03d e908 8fbc
00000370: cc09 87bd e057 1a3d 98db 573d a0eb fbba
00000380: 1c54 f7bc 1419 af3d 192a 33bd 33a9 4cbd
00000390: cfc6 bfbc 3476 563c d768 713d 5bc7 84bd
000003a0: 6c04 dd3c d361 89bd 6c5f d1bc 2d27 ab3c
000003b0: 113f 043d c7b1 80bd 4b6b 8ebd 52df d3bd
000003c0: b18e e93b 5902 943c cb0f 85bd 56a8 86bd
000003d0: ed61 21bd 71aa 8cbd 4c87 19bd e8ad 60bd
000003e0: df39 193d b599 203d 9eab 0bba f85f 18bd
000003f0: 1447 a6bc 90ec f63c 00b7 86bd 497b 3f3d

lstm.weight_hh_l0 f4 [512, 128]
0.05635946 0.05011445 -0.021486273 -0.017302345 -0.06176383 -0.061051644 0.02938751 0.06699264
0.048839074 -0.0030320128 -0.021625044 -0.01061175 0.054815363 0.019171065 -0.014366405 0.0994192
0.044954043 0.0005555285 -0.029648263 0.021811455 -0.057707455 -0.040216595 -0.06738346 -0.057646554
-0.03682928 -0.025074767 -0.010074389 0.08386427 0.03227123 0.06375535 -0.058473833 -0.05081903
-0.0978006 -0.025179787 0.049004413 0.07889631 -0.04210973 -0.056545485 0.06487525 -0.0032707849
0.06030217 0.04716333 -0.023616461 -0.059331734 -0.08008603 -0.024304628 0.042968288 -0.0038354113
0.09509771 0.065922394 0.06212499 0.07200935 0.062278654 0.033093486 0.06596408 -0.03120257
0.014298509 -0.073493406 0.028585747 -0.030037854 0.06110471 0.064116396 -0.07871726 -0.05922529
-0.029610442 -0.054133978 0.02296786 0.085885555 0.029996002 -0.013518187 -0.07287854 -0.009609944
0.07764108 0.0008355498 -0.0025124578 -0.05990438 -0.022054475 -0.02799747 0.029475344 -0.03501803
0.0075236284 -0.082265034 0.04785853 0.015264621 0.08503724 0.038228747 -0.0010439911 -0.020991512
-0.009900322 0.054343395 0.019285567 -0.024712868 -0.032605156 -0.054166295 -0.049896717 -0.08564901
-0.07291877 0.02537692 -0.029084839 -0.015290262 -0.040383477 -0.033546176 0.0083619235 0.049119927
-0.018154988 0.04524922 -0.04739993 -0.0682563 0.054995432 -0.07085082 0.058560804 -0.07609944
-0.08661825 0.034259982 -0.04473637 0.055824056 0.059106153 -0.055373322 -0.07051807 -0.015474977
-0.08175529 -0.06750425 -0.026243428 0.040129438 0.058299594 0.060932305 -0.015857771 -0.040734973
0.04588612 -0.13614146 -0.05451854 0.08244868 0.032611486 0.019242046 0.007629708 0.018723736
-0.08787337 -0.039048646 -0.061800428 -0.015157747 -0.0042723273 -0.049528982 0.025703488 -0.11486289
0.023282312 0.03830547 -0.083958775 0.06902528 0.07873989 -0.048937768 -0.008235613 0.025749288
-0.0056165564 -0.013250626 -0.040842652 0.05868384 -0.025663383 0.06587053 -0.025840508 0.05684251
-0.1061472 -0.028645493 -0.06030211 0.012974344 -0.024376139 0.018520413 -0.05092278 0.041501064
-0.124980845 -0.07218339 0.05005072 -0.12560044 0.11440137 0.008466962 0.04708013 0.07463195
-0.056909043 0.0435836 0.05449574 -0.046971582 -0.0317102 0.03567093 0.08738998 0.0330393
0.007932052 -0.012133154 -0.025617944 0.062306933 -0.038068704 -0.06785082 -0.047038693 0.13961549
0.024972588 0.05984933 0.0197046 0.036947872 -0.026844217 -0.014855235 -0.022574961 -0.020894632
0.03891004 -0.06101813 -0.0776096 -0.0033523466 -0.05047598 0.018114813 0.0807393 -0.022271018
0.00039537076 -0.02324646 -0.112278685 0.07386947 0.09395222 0.046453286 0.0042142505 0.07059072
0.13922508 -0.05451063 0.047135994 0.012458278 0.020341871 0.03767652 0.11700032 -0.07280642
-0.0398677 -0.055712305 0.069547355 0.059893794 0.013665115 -0.039866615 0.012128713 0.08486766
-0.08625906 -0.045475617 -0.030497275 0.009373084 -0.026100129 -0.048937645 0.11384294 -0.07735277
-0.039995052 0.02757173 0.0409892 0.054387614 0.020585297 0.010800625 -0.026610846 0.070474565
0.076314464 -0.14348711 -0.07389376 -0.029570404 -0.10102326 0.087956704 0.008024517 -0.024199465
00000000: 2dd9 663d cf44 4d3d fb03 b0bc a6bd 8dbc
00000010: 12fc 7cbd 4a11 7abd 13be f03c 7033 893d
00000020: 7b0b 483d bcb4 46bb 0127 b1bc e8dc 2dbc
00000030: 1386 603d a30c 9d3c 1261 6bbc 4b9c cb3d
00000040: bb21 383d e3a0 113a eae0 f2bc f0ad b23c
00000050: a75e 6cbd 28ba 24bd 5700 8abd cb1e 6cbd
00000060: 4dda 16bd 9969 cdbc 0d0f 25bc 08c1 ab3d
00000070: d62e 043d 2a92 823d 4282 6fbd 9d27 50bd
00000080: ae4b c8bd d745 cebc dab8 483d 6394 a13d
00000090: 417b 2cbd 3d9c 67bd 51dd 843d aa5a 56bb
000000a0: 69ff 763d 562e 413d 4f77 c1bc d505 73bd
000000b0: 2504 a4bd 801a c7bc 84ff 2f3d 865b 7bbb
000000c0: 97c2 c23d 5202 873d c676 7e3d a379 933d
000000d0: e717 7f3d 098d 073d 2d18 873d 889c ffbc
000000e0: 4b44 6a3c b683 96bd a82c ea3c f211 f6bc
000000f0: ef48 7a3d 754f 833d 8436 a1bd 3896 72bd
00000100: 9991 f2bc 97bb 5dbd 1827 bc3c c4e4 af3d
00000110: 2dba f53c 637b 5dbc 5841 95bd 0773 1dbc
00000120: 4902 9f3d cc08 5b3a 0ca8 24bb 4c5e 75bd
00000130: 96ab b4bc f35a e5bc 4776 f13c 116f 0fbd
00000140: c588 f63b 927a a8bd 4e07 443d 7618 7a3c
00000150: 0128 ae3d bf95 1c3d 87d6 88ba 64f6 abbc
00000160: f634 22bc 2e97 5e3d c4fc 9d3c a472 cabc
00000170: fc8c 05bd 7add 5dbd 8060 4cbd c068 afbd
00000180: 7056 95bd 42e3 cf3c 5443 eebc 0284 7abc
00000190: 2569 25bd b767 09bd 7300 093c fa31 493d
000001a0: c5b9 94bc 3f57 393d 6e26 42bd f6c9 8bbd
000001b0: e442 613d 3c1a 91bd 74dd 6f3d 06da 9bbd
000001c0: e964 b1bd 3254 0c3d 7c3d 37bd c4a7 643d
000001d0: 4b19 723d 23cf 62bd c76b 90bd c28a 7dbc
000001e0: 516f a7bd ab3f 8abd 75fc d6bc c45e 243d
000001f0: 8ecb 6e3d 2794 793d 28e8 81bc b7d9 26bd
00000200: 16f3 3b3d ab68 0bbe d54e 5fbd dbda a83d
00000210: 9f93 053d 7fa1 9d3c a102 fa3b 8562 993c
00000220: f4f6 b3bd 79f1 1fbd 7222 7dbd 3358 78bc
00000230: e1fe 8bbb e7de 4abd 1f90 d23c 3c3d ebbd
00000240: 8cba be3c 32e6 1c3d 94f2 abbd 205d 8d3d
00000250: 6142 a13d f872 48bd aaee 06bc 2cf0 d23c
00000260: 170b b8bb 2719 59bc a04a 27bd 775e 703d
00000270: 043c d2bc 21e7 863d 79af d3bc b1d3 683d
00000280: b463 d9bd f4a9 eabc 58ff 76bd 5892 543c
00000290: 78b0 c7bc 1fb8 973c 6894 50bd 05fd 293d
000002a0: f5f5 ffbd e3d4 93bd fc01 4d3d 679d 00be
000002b0: 444b ea3d 03b9 0a3c 18d7 403d a3d8 983d
000002c0: 7519 69bd b884 323d ed36 5f3d 4665 40bd
000002d0: 8ee2 01bd ae1b 123d 85f9 b23d 3854 073d
000002e0: 70f5 013c 23ca 46bc b9dc d1bc 8e35 7f3d
000002f0: eeed 1bbd 5ff5 8abd a5ab 40bd 5df7 0e3e
00000300: 5093 cc3c 9224 753d 8b6b a13c a756 173d
00000310: 67e8 dbbc 5f63 73bc 20ef b8bc 382b abbc
00000320: 2260 1f3d 26ee 79bd c8f1 9ebd 0bb3 5bbb
00000330: e7bf 4ebd 8465 943c a55a a53d b671 b6bc
00000340: c449 cf39 5c6f bebc 5ef2 e5bd e048 973d
00000350: 066a c03d cd45 3e3d b217 8a3b de91 903d
00000360: 0591 0e3e 8a46 5fbd ac11 413d ce1d 4c3c
00000370: ffa3 a63c b252 1a3d dd9d ef3d 881b 95bd
00000380: 504c 23bd 9632 64bd d86e 8e3d 3253 753d
00000390: a6e3 5f3c 2d4b 23bd 82b7 463c 19cf ad3d
000003a0: 97a8 b0bd a444 3abd 6cd5 f9bc 9091 193c
000003b0: f0cf d5bc d772 48bd 7d26 e93d 216b 9ebd
000003c0: dad1 23bd 1cde e13c 4be4 273d 8cc5 5e3d
000003d0: 7fa2 a83c 1bf5 303c fdfe d9bc f854 903d
000003e0: c24a 9c3d 49ee 12be 9d55 97bd a23d f2bc
000003f0: 48e5 cebd a522 b43d 4479 033c f53d c6bc

lstm.bias_ih_l0 f4 [512]
0.028600875 -0.03952223 0.047566224 0.033200026 -0.017935066 -0.0100953905 0.07962759 -0.00344379
-0.13576396 0.09722196 -0.010667119 -0.04971796 -0.035905257 0.05503143 0.058384813 -0.07269101
-0.037248846 -0.028197603 0.13237204 0.042914335 0.069433965 0.0400278 -0.07079515 0.0686672
-0.08103767 -0.038018957 0.083916456 -0.035339538 0.0118857585 -0.0006531953 0.11091239 0.07742884
-0.114037246 0.08823725 0.03819366 0.0685435 -0.020594178 0.02779512 0.033755478 0.046277247
-0.0035203097 -0.0010954939 0.06197561 0.04010584 0.011009774 0.013464792 -0.040165953 0.05958121
0.014408583 0.060627867 0.07243864 0.043940462 0.006428687 -0.03156307 0.0362863 -0.03806522
-0.011300774 -0.03133102 -0.028966129 -0.08401467 -0.05640494 0.0013995551 0.011943016 0.006260904
-0.043114353 -0.006547324 -0.059687596 -0.0024376246 0.08187798 -0.042345826 0.0002969695 -0.06981029
0.021748219 -0.054544535 0.035758514 -0.026512465 -0.091758125 0.027669841 -0.03234909 0.088665195
-0.047405522 -0.020113854 0.051118813 0.06918013 -0.08455132 0.006663246 -0.062200706 0.069518134
0.042744063 -0.022279551 -0.021140754 0.021306632 -0.054698944 0.07148623 -0.024446847 -0.08967464
-0.026204297 0.056882832 -0.029779127 -0.021401007 -0.054726545 0.071268514 0.054054633 -0.03772647
-0.07109696 -0.030217081 -0.0059177643 -0.038541064 0.061022557 -0.061103333 0.07753162 -0.09895294
-0.07557984 -0.04498862 0.09448423 -0.022802178 -0.013115716 0.02685575 0.0789967 0.06290476
-0.12967348 -0.059860453 0.04723488 -0.016015243 -0.048101444 -0.024867749 -0.033007216 -0.06098567
-0.02897741 0.011404835 -0.069278635 -0.051086176 0.08203952 0.027692167 -0.021491842 0.10514935
0.019992404 0.06112495 0.18886183 -0.056342974 0.05179492 -0.0670859 -0.004555375 -0.03133053
-0.028910246 0.0067044003 0.17870668 0.009360737 0.09175839 0.022356013 0.08454905 -0.0139701655
0.094280615 0.007172377 -0.054302204 -0.07946145 0.12201291 -0.04552581 0.14033884 0.1472305
0.0069902893 -0.00055445486 0.09124873 0.028412396 0.00055968115 0.042584956 0.16642173 0.0547825
0.09443713 -0.03680636 -0.025239682 0.08710425 -0.02960494 0.017461503 0.038596906 -0.038331088
-0.019903988 -0.024179146 -0.001771757 -0.058417574 0.0693173 -0.0019582072 0.002524464 0.07418075
0.0709013 0.023851437 -0.09208853 -0.030573959 -0.015206243 0.06822753 -0.08366843 0.012478805
-0.09327442 -0.04928805 -0.015377683 -0.09297828 -0.06573644 -0.04894442 0.1226811 0.035430573
-0.007514833 -0.049238507 -0.057727173 0.019238727 -0.07792419 0.13689445 -0.017645814 0.030794226
-0.04842577 -0.10056658 -0.07835592 -0.08240932 0.024409024 0.0368044 0.012454335 0.057718948
0.038171016 -0.0010291995 0.03835368 0.02192998 0.0764129 -0.07951408 -0.04783351 -0.011394984
0.031896777 0.06356566 0.036009956 -0.066797964 -0.07464256 -0.06048672 0.017273646 0.055851627
-0.0046031615 0.10958336 -0.062948234 -0.04964307 0.103427276 -0.0055280183 -0.022104412 0.06730994
0.11323578 -0.04311008 0.03567223 0.1405496 0.16251811 0.10186919 -0.04708732 0.102941446
0.0805637 -0.05693834 0.024448344 -0.06022098 0.029179404 0.0017668987 0.06727651 -0.04659272
00000000: 624c ea3c 10e2 21bd cdd4 423d c0fc 073d
00000010: 8fec 92bc 2367 25bc ca13 a33d 35b1 61bb
00000020: b505 0bbe 4f1c c73d 24c5 2ebc 0fa5 4bbd
00000030: 6411 13bd a368 613d ea24 6f3d 06df 94bd
00000040: 3f92 18bd a9fe e6bc 898c 073e f1c6 2f3d
00000050: 6533 8e3d 31f4 233d 0cfd 90bd 64a1 8c3d
00000060: 14f7 a5bd c4b9 1bbd 64dc ab3d 31c0 10bd
00000070: 7cbc 423c 323b 2bba 0926 e33d 0393 9e3d
00000080: 5c8c e9bd bbb5 b43d f570 1c3d 8960 8c3d
00000090: 1fb5 a8bc 97b2 e33c 2f43 0a3d 368d 3d3d
000000a0: ffb4 66bb ad96 8fba 23da 7d3d 0546 243d
000000b0: 5762 343c 6e9b 5c3c 0e85 24bd 6d0b 743d
000000c0: fa11 6c3c ed54 783d b65a 943d eafa 333d
000000d0: bca7 d23b 4748 01bd f1a0 143d 47ea 1bbd
000000e0: e226 39bc f554 00bd 604a edbc e20f acbd
000000f0: de08 67bd 4771 b73a a4ac 433c 4528 cd3b
00000100: ad98 30bd ef8a d6bb fb7a 74bd 8ec0 1fbb
00000110: a4af a73d d172 2dbd 92b2 9b39 b3f8 8ebd
00000120: 5229 b23c 176a 5fbd 8577 123d ab30 d9bc
00000130: afeb bbbd ddab e23c 7b80 04bd 1996 b53d
00000140: 4b2c 42bd cfc5 a4bc f661 513d 50ae 8d3d
00000150: 3e29 adbd 5c57 da3b 2bc6 7ebd 865f 8e3d
00000160: 6614 2f3d 9b83 b6bc 602f adbc 3f8b ae3c
00000170: 000c 60bd 5f67 923d c144 c8bc 56a7 b7bd
00000180: 65aa d6bc f9fd 683d 5bf3 f3bc 2a51 afbc
00000190: f128 60bd 3af5 913d 6468 5d3d 1287 1abd
000001a0: 489b 91bd d089 f7bc cee9 c1bb 3cdd 1dbd
000001b0: caf2 793d 7d47 7abd e6c8 9e3d d7a7 cabd
000001c0: 9ac9 9abd fd45 38bd f380 c13d a2cb babc
000001d0: 4de3 56bc 9700 dc3c 06c9 a13d 36d4 803d
000001e0: 20c9 04be 3c30 75bd 5d79 413d 6632 83bc
000001f0: 0506 45bd 73b7 cbbc 9332 07bd 1ccc 79bd
00000200: 0962 edbc 58db 3a3c f5e1 8dbd bd3f 51bd
00000210: 5604 a83d afda e23c a90f b0bc 8b58 d73d
00000220: 1cc7 a33c 285e 7a3d ff64 413e e4c7 66bd
00000230: e926 543d 5564 89bd 4145 95bb 7154 00bd
00000240: 2ed5 ecbc 96b0 db3b e2fe 363e c75d 193c
00000250: d3eb bb3d f523 b73c 0d28 ad3d 1fe3 64bc
00000260: 3216 c13d 4206 eb3b fd6b 5ebd afbc a2bd
00000270: e8e1 f93d 4679 3abd fcb4 0f3e 98c3 163e
00000280: cc0e e53b d658 11ba 9de0 ba3d 1dc1 e83c
00000290: 91b7 123a 906d 2e3d 756a 2a3e 9d63 603d
000002a0: 4168 c13d 44c2 16bd 73c3 cebc b763 b23d
000002b0: 0f86 f2bc 6d0b 8f3c ca17 1e3d 0f01 1dbd
000002c0: b00d a3bc 5813 c6bc 4d3a e8ba 4447 6fbd
000002d0: 3bf6 8d3d 4455 00bb 7a71 253b 14ec 973d
000002e0: b334 913d 1764 c33c e998 bcbd 3d76 fabc
000002f0: 9b23 79bc e0ba 8b3d 5b5a abbd e773 4c3c
00000300: a906 bfbd 44e2 49bd adf2 7bbc 656b bebd
00000310: d4a0 86bd f279 48bd 3b40 fb3d a61f 113d
00000320: fd3e f6bb 51ae 49bd 5473 6cbd 899a 9d3c
00000330: b896 9fbd 0f2e 0c3e f48d 90bc 2c44 fc3c
00000340: 1a5a 46bd daf5 cdbd 1279 a0bd 38c6 a8bd
00000350: 6ff5 c73c 36c0 163d 440d 4c3c b46a 6c3d
00000360: 3659 1c3d 34e6 86ba c018 1d3d 80a6 b33c
00000370: 5e7e 9c3d 47d8 a2bd 12ed 43bd 07b2 3abc
00000380: 32a6 023d b62e 823d 2d7f 133d 5fcd 88bd
00000390: 33de 98bd ecc0 77bd 7681 8d3c adc4 643d
000003a0: 1ed6 96bb 3e6d e03d 01eb 80bd 8856 4bbd
000003b0: aed1 d33d 6124 b5bb 5014 b5bc cbd9 893d
000003c0: 29e8 e73d 3294 30bd 0b1d 123d 3cec 0f3e
000003d0: 266b 263e cba0 d03d a2de 40bd f7d2 d23d
000003e0: 95fe a43d 2d38 69bd e547 c83c 46aa 76bd
000003f0: a509 ef3c 4897 e73a 44c8 893d 02d8 3ebd

lstm.bias_hh_l0 f4 [512]
0.022224946 0.013967599 -0.044021152 0.0367109 0.011801578 -0.011096843 0.101665676 -0.03376658
-0.11561384 0.070533544 0.09648557 0.027185947 -0.019001331 -0.04851951 -0.078310706 -0.11013743
-0.0341959 -0.08299559 0.1313933 -0.05586048 -0.004866141 -0.052969545 -0.014704451 -0.06321405
0.03407457 0.053283475 0.04923614 -0.07006708 0.049297046 0.0814898 0.08193802 0.14317444
0.01783021 -0.030766204 0.013271882 -0.026654964 0.047091853 -0.017087778 0.054253418 0.055689756
0.09425856 0.026093028 0.063486956 -0.03547109 0.03357806 -0.02599585 0.11959677 -0.02288096
-0.082837224 -0.034750365 -0.060563084 -0.08194251 0.06537272 -0.03000794 0.098168835 -0.07560647
0.024853857 0.012083193 -0.076069616 -0.08710304 0.07442243 -0.072913855 0.0116571365 0.008913918
-0.08053602 0.073651694 0.06256177 -0.052683324 -0.03773534 0.073424235 0.09170791 0.03681215
0.03749566 0.03712148 -0.058983 0.061427545 0.062478907 0.049464237 0.073927246 0.041203085
0.08620489 -0.09522613 -0.03159736 0.031298716 -0.06479619 0.03305885 -0.015039914 0.022903332
-0.018238219 -0.029633269 0.07674816 -0.052842632 0.051255308 -0.035360217 -0.11041162 -0.0052090543
0.033948448 0.001723488 0.04244318 -0.09217904 -0.11081181 -0.033317707 -0.041101836 -0.016387355
0.054037906 0.01113183 -0.09180228 0.059874494 0.09094046 -0.0126000615 -0.00895936 -0.06811247
-0.0009837729 0.042787183 0.06697404 0.086615615 0.100652285 0.006285394 -0.03722076 0.0479002
-0.05348911 0.0850674 -0.046178874 0.03111857 0.036004033 -0.10331296 -0.059916504 0.02736752
0.09154221 -0.01810452 -0.024027474 -0.0136426985 0.036302052 -0.056106836 0.03559414 -0.021799186
0.11623255 0.041104294 0.16256866 0.028763395 0.115051195 0.016472716 -0.054402106 0.056760777
0.07662147 0.012983927 0.18362975 -0.027559673 0.087865 -0.087774776 0.03694812 0.076120496
0.07677391 -0.003552547 -0.011658406 -0.066177204 0.12405284 -0.017911438 0.028065355 0.11024879
0.041784957 0.099455565 -0.055789575 0.09495955 0.020051174 0.008370332 0.03427316 -0.008794936
0.08958891 -0.047736544 0.011548072 0.04499039 0.060613643 0.022665387 0.10262958 0.03495222
0.091530815 -0.0003726822 -0.0896039 -0.015233859 -0.0068227183 -0.06785944 0.04332987 0.06067902
0.05267912 -0.030868612 -0.102995425 -0.011873685 0.08126098 0.0195038 0.046744753 -0.085267305
0.009722755 -0.008392763 0.029127978 0.045596305 -0.034106165 0.056909956 0.13119951 0.10468428
0.08781622 -0.00094823877 0.06315596 0.11867653 -0.029784592 0.12515712 -0.058170147 0.09418841
0.013944062 0.026840772 -0.030781802 0.021957796 0.034045868 -0.056504596 0.0057742824 -0.023452625
-0.018613923 -0.009295502 0.040791526 0.0789956 0.02719195 -0.0034925328 0.06087247 -0.08176204
0.06408047 -0.051514022 -0.08541225 -0.05865399 -0.042602062 -0.02865646 0.059529796 0.021841913
0.02271767 0.068593726 -0.10653415 0.08804339 0.015248014 0.023347702 -0.049783707 -0.054081038
-0.036176987 0.060645986 0.020190308 0.044340357 0.12803885 0.099869184 0.002197333 0.11777926
-0.068426184 -0.04915179 -0.047827184 0.030125339 0.046268128 -0.02861224 0.10250447 0.038469058
00000000: 1711 b63c 5bd8 643c 864f 34bd 2b5e 163d
00000010: 685b 413c 88cf 35bc 1836 d03d d34e 0abd
00000020: f3c6 ecbd e473 903d 3a9a c53d 10b5 de3c
00000030: aea8 9bbc 65bc 46bd 5d61 a0bd bc8f e1bd
00000040: 0011 0cbd 98f9 a9bd f78b 063e f5cd 64bd
00000050: 2674 9fbb 98f6 58bd f0ea 70bc 5e76 81bd
00000060: c791 0b3d c63f 5a3d d6ab 493d 547f 8fbd
00000070: b3eb 493d 20e4 a63d 1fcf a73d 529c 123e
00000080: a910 923c 6809 fcbc 4f72 593c 835b dabc
00000090: 63e3 403d abfb 8bbc d538 5e3d f11a 643d
000000a0: a20a c13d 0cc1 d53c 7305 823d 224a 11bd
000000b0: 2689 093d 40f5 d4bc 27ef f43d da70 bbbc
000000c0: 90a6 a9bd 6656 0ebd ff10 78bd 7ad1 a7bd
000000d0: 22e2 853d 36d3 f5bc be0c c93d 91d7 9abd
000000e0: 519a cb3c 96f8 453c 63ca 9bbd 1463 b2bd
000000f0: c96a 983d dc53 95bd 93fd 3e3c af0b 123c
00000100: 12f0 a4bd b3d6 963d 6320 803d 78ca 57bd
00000110: 5f90 1abd 725f 963d 5bd1 bb3d 56c8 163d
00000120: 0d95 193d b10c 183d 2998 71bd 739b 7b3d
00000130: e2e9 7f3d 039b 4a3d 2b67 973d 91c4 283d
00000140: 308c b03d eb05 c3bd 3c6c 01bd 1533 003d
00000150: ddb3 84bd b768 073d f969 76bc c59f bb3c
00000160: 5168 95bc 78c1 f2bc 242e 9d3d 8471 58bd
00000170: 16f1 513d e0d5 10bd 7d1f e2bd b7b0 aabb
00000180: 870d 0b3d a9e6 e13a e6d8 2d3d 5dc8 bcbd
00000190: 4df1 e2bd 2678 08bd 665a 28bd c63e 86bc
000001a0: da56 5d3d 4762 363c d502 bcbd f53e 753d
000001b0: fe3e ba3d 7d70 4ebc 48ca 12bc 8d7e 8bbd
000001c0: f1f1 80ba 9d41 2f3d af29 893d 8763 b13d
000001d0: c922 ce3d b5f5 cd3b cc74 18bd 0033 443d
000001e0: 6617 5bbd d137 ae3d 0f26 3dbd 5fec fe3c
000001f0: f778 133d bf95 d3bd 026b 75bd d931 e03c
00000200: 7b7a bb3d ee4f 94bc 44d5 c4bc a085 5fbc
00000210: 76b1 143d 48d0 65bd 29cb 113d 3594 b2bc
00000220: 550b ee3d fa5c 283d 6678 263e 36a1 eb3c
00000230: f69f eb3d caf1 863c bed4 5ebd fd7d 683d
00000240: b8eb 9c3d 89ba 543c 7009 3c3e d3c4 e1bc
00000250: 91f2 b33d 43c3 b3bd e956 173d 10e5 9b3d
00000260: a43b 9d3d d9d1 68bb e602 3fbc ea87 87bd
00000270: 6a0f fe3d 02bb 92bc 51e9 e53c 1eca e13d
00000280: b426 2b3d 5caf cb3d 9c83 64bd 277a c23d
00000290: 5c42 a43c b823 093c 0362 0c3d a318 10bc
000002a0: 647a b73d 6587 43bd 2034 3d3c d847 383d
000002b0: 0346 783d c3ac b93c 752f d23d 0f2a 0f3d
000002c0: 8274 bb3d 8f64 c3b9 4082 b7bd 7097 79bc
000002d0: 1c91 dfbb e4f9 8abd a97a 313d 908a 783d
000002e0: 10c6 573d 2ce0 fcbc 44ef d2bd d889 42bc
000002f0: 286c a63d 6fc6 9f3c 6d77 3f3d a0a0 aebd
00000300: 314c 1f3c cd81 09bc cc9d ee3c 31c3 3a3d
00000310: e8b2 0bbd 6a1a 693d 2a59 063e b664 d63d
00000320: fed8 b33d 3a93 78ba e957 813d ae0c f33d
00000330: d1fe f3bc 3029 003e d243 6ebd dae5 c03d
00000340: a375 643c 2ee1 db3c 1e2a fcbc d6e0 b33c
00000350: ae73 0b3d 5d71 67bd 3136 bd3b b81f c0bc
00000360: 3a7c 98bc 294c 18bc 0415 273d 72c8 a13d
00000370: a7c1 de3c fae2 64bb 6955 793d db72 a7bd
00000380: 9f3c 833d 5e00 53bd 9eec aebd 2b3f 70bd
00000390: 807f 2ebd f4c0 eabc 84d5 733d d0ed b23c
000003a0: 681a ba3c de7a 8c3d 942e dabd 1850 b43d
000003b0: ced2 793c ae43 bf3c 00ea 4bbd 1484 5dbd
000003c0: 522e 14bd ed67 783d 2566 a53c 3c9e 353d
000003d0: 9e1c 033e 3788 cc3d 2101 103b 4136 f13d
000003e0: 0723 8cbd 6353 49bd 70e6 43bd 6ac9 f63c
000003f0: a683 3d3d 3764 eabc dded d13d bb91 1d3d
