experiment_testing/arjan-testing/LSTM/final_model.pt (torch, 823728 bytes, 10 tensors)

lstm.weight_ih_l0 f4 [512, 12]
000000 96 2a 99 3d ca de 3d be 00 2e 52 bd f0 9a 76 3d
       0.07478826 -0.18542019 -0.0513134 0.060206354
000010 f2 1d 13 be be 1e 7c bd 4f 7b f8 bd ab 2a 99 bd
       -0.14366892 -0.061552756 -0.12132894 -0.074788414
000020 eb 3a 20 be ce 0d 92 bd ab 88 90 bd 06 8e 06 bd
       -0.15647475 -0.07131539 -0.07057317 -0.032850288
000030 ef c9 f1 3b 85 f3 b8 bc a5 57 90 bd b7 90 14 3d
       0.0073788087 -0.022577057 -0.07047967 0.036270823
000040 3f 74 9c 3d e6 a7 4b 3d d0 4f 9c bd a3 66 c7 bc
       0.0763936 0.049720667 -0.076324105 -0.024340933
000050 d0 08 19 3e ce a0 27 3d eb f5 b0 3d 2e fd a1 3d
       0.14944768 0.04092484 0.08640655 0.07909618
000060 c5 17 62 3e 91 4c c6 3d c5 dd d6 bc 4f 72 b5 bd
       0.2207938 0.09682573 -0.026228795 -0.08859693
000070 08 d2 66 3e da 86 8c 3d 61 b9 8f bd 86 91 b7 3c
       0.22541058 0.068616584 -0.0701778 0.022408258
000080 74 fc 6a bd c8 60 3e bd a5 22 4e bd 68 5f 94 bd
       -0.057369664 -0.046479017 -0.05032601 -0.0724476
000090 bb 8c dd 3d 5e 38 07 3e ea 59 df 3d d2 a8 f3 bd
       0.10817858 0.13205096 0.109058216 -0.11897434
0000a0 d4 d1 c0 bd 6f 0d 9d 3d 4c 87 84 3d e5 c9 70 3d
       -0.094150215 0.07668578 0.06471118 0.05878629
0000b0 78 28 67 3b 7c 0f 28 3c eb 4c de 3d 89 27 36 3e
       0.0035271924 0.010257598 0.10854515 0.17788519
0000c0 44 4c c8 3d 18 60 84 3d 8d ad 3a 3d 7b bd df 3b
       0.097801715 0.06463641 0.045575667 0.0068280078
0000d0 77 39 7b ba 8e 94 7e bd a8 1b f6 bc a5 44 8d bc
       -0.0009583453 -0.06215339 -0.030042484 -0.017244646
0000e0 2d 0f 72 bd 15 fb b3 bd ed e4 0d 3e 12 27 a9 bd
       -0.059096504 -0.087881245 0.1385686 -0.08259405
0000f0 8c d0 a0 bd 15 0b df 3c df c7 93 3d 18 e9 03 3e
       -0.07852277 0.027226964 0.07215857 0.12881887
000100 7f 44 7c 3d 20 cf 60 3c f5 43 33 3e e5 2d 07 3d
       0.06158876 0.013721257 0.17506392 0.033002753
000110 8b a4 4e 3d 86 20 18 3d 4f b7 4e bd 80 b8 72 bd
       0.05044989 0.03714039 -0.050467785 -0.059257984
000120 30 76 37 bd 1c fb a5 bd f1 91 37 be 88 40 e4 3d
       -0.044790447 -0.08104536 -0.17926766 0.11145121
000130 93 ed 5d 3e 50 35 b3 bd 9f 25 c1 bd 3a c8 0c bd
       0.21672659 -0.08750403 -0.09431004 -0.03437064
000140 74 db 5c 3d d5 dd ba bd 62 66 7e 3d 2f 9b c5 3c
       0.053920224 -0.09124342 0.06210936 0.024121849
000150 1d 10 d3 3c a9 43 d4 3d bc ec 41 bd 61 98 b4 bd
       0.02576452 0.10364468 -0.047344908 -0.088181265
000160 93 d3 c7 3d 4f d8 f0 bc e3 06 82 3d 19 e9 db 3d
       0.097571515 -0.029400019 0.0634897 0.10737819
000170 47 59 04 bd 0c c0 92 bc e2 a7 50 3d b7 10 1a bd
       -0.032311704 -0.01791384 0.050941356 -0.037613597
000180 59 78 e3 3c 01 74 43 3e d3 a1 f3 3d 0b 75 d3 bd
       0.027767347 0.1908722 0.118961 -0.103250585
000190 85 3f 1a bc 98 93 2d 3c f9 d7 c2 3d f9 6b 32 3d
       -0.009414558 0.010594271 0.0951385 0.043560002
0001a0 90 4b 5b bc 09 e3 4e 3c 4c 04 1e bd 5f fd 5f 3d
       -0.013384715 0.012627372 -0.038578317 0.054684993
0001b0 23 8b b2 3c 57 cf 13 bd 5b 33 27 be ff 4e e7 bd
       0.021794861 -0.036086407 -0.16328184 -0.11294364
0001c0 44 e3 13 3e 2f d6 d5 bd d3 0d fe bd 42 fa 85 bd
       0.14442164 -0.10441243 -0.124049805 -0.065418735
0001d0 d5 d7 e6 bd 77 44 01 ba 33 28 81 3e e5 48 7c 3d
       -0.112716354 -0.00049311615 0.25225982 0.061592955
0001e0 32 30 49 bd 2e ec 97 3d 03 29 04 3d 79 51 b2 bd
       -0.04911823 0.074180946 0.032265674 -0.08706946
0001f0 d7 27 17 bd 5b 9c 1b 3c 42 d2 7a 3d aa c4 0c bd
       -0.03690323 0.009497727 0.061235674 -0.03436724
000200 64 bb 65 be 18 ca ea bd 08 69 83 3d 14 69 de 3d
       -0.22434765 -0.114643276 0.064165175 0.10859886
000210 ab 41 a0 3e 14 9f 02 3e 52 bf 96 bd 21 51 55 be
       0.313001 0.12755996 -0.0736071 -0.2083173
000220 18 08 19 3e cb d6 91 3d 04 d0 06 be e9 b1 19 bd
       0.14944494 0.07121047 -0.13165289 -0.037523184
000230 dc 43 ab 3d 13 67 88 3e 2f f2 db 3d ad 38 9f 3e
       0.083625525 0.2664114 0.10739552 0.31097928
000240 eb 01 51 bc 73 3c 0c 3e e7 bb e1 bd 16 93 86 bd
       -0.012756805 0.13694935 -0.11022168 -0.06571023
000250 62 5d 0a 3d 43 38 2a 3e f2 a2 0f 3e 24 98 0c 3c
       0.033780463 0.16623025 0.14027002 0.008581195
000260 04 34 fe 3d ad 14 26 3e c4 ba cb 3b 15 6b 11 3d
       0.12412265 0.16218825 0.0062173326 0.035502512
000270 5a 40 f8 3c 9e f2 c5 bd 96 48 b5 bd 01 e7 4d bd
       0.030304123 -0.09665416 -0.08851735 -0.05026913
000280 66 0f 4d 3e 7f 56 39 bd 46 a8 61 3d 83 18 d3 ba
       0.20025405 -0.045248505 0.05509212 -0.0016105328
000290 2e 32 92 bd 51 e2 75 be 25 39 fc 3c 85 19 17 3e
       -0.07138477 -0.24012114 0.030788967 0.14755829
0002a0 99 f0 90 bb 0c 38 a5 bd 99 71 2b bd 56 66 17 bd
       -0.0044232127 -0.08067331 -0.041856382 -0.03696283
0002b0 f9 2b 43 bd 82 50 3a bc f8 11 e1 bd 6d d7 fa bd
       -0.047649357 -0.011371734 -0.109897554 -0.122481205
0002c0 b4 9a 09 be 2e 33 94 3d 57 71 ff 3d 4f 0c 0b bb
       -0.13437921 0.07236324 0.1247279 -0.0021217053
0002d0 60 2c 00 3d 40 c4 1f bd ed 9c 21 be 75 ed cb 3b
       0.03129232 -0.039005518 -0.15782519 0.0062233754
0002e0 c8 a4 22 3d 22 bc 95 bc ae 03 24 be 0f f6 41 bd
       0.03970793 -0.018278185 -0.16017029 -0.0473538
0002f0 36 92 24 be 78 e0 ec bc 3c eb a6 bc 1c 6f 8f bd
       -0.160714 -0.028915629 -0.02037584 -0.07003614
000300 75 f0 de bc 55 a3 14 3d 2d f6 6a be 74 42 a5 bd
       -0.027214268 0.036288578 -0.22945471 -0.080693156
000310 2c cb 32 3d 76 5f df bd b8 a7 05 be 3e a2 36 bc
       0.04365079 -0.109068796 -0.13052261 -0.01114708
000320 9a 50 1d be 0f 4f 5e 3d bd 6e 0e bc 78 40 21 bd
       -0.15362778 0.054274615 -0.008693394 -0.039368123
000330 47 55 cd bd 39 fb 72 3d c2 9c 68 3d ea 89 70 bd
       -0.10026031 0.059321616 0.05679012 -0.058725275
000340 05 d2 3d 3e 45 73 07 3e 4d 19 9d 3e d3 55 20 3e
       0.18537147 0.13227566 0.30683365 0.1565774
000350 2d 77 8d 3e 2b 39 ed 3d 52 59 3c bd 0b e9 25 3e
       0.27629986 0.115831695 -0.04598362 0.1620218
000360 8b d5 05 3e 08 10 e0 bc d1 d1 e7 3b 8f 8c 23 3d
       0.13069741 -0.027351394 0.0070745726 0.03992897
000370 d5 fc 04 bc e5 f6 d8 bd ff b8 0a bd 8e d3 89 bd
       -0.0081169205 -0.105939664 -0.033867832 -0.06729804
000380 14 f8 11 bd 0b b7 d3 bd 6c 20 ec 3b 4e 55 0c bd
       -0.035636976 -0.10337647 0.0072060134 -0.03426104
000390 53 6c 11 3e 38 3b 30 3e b9 a3 cb 3d fd 0e 44 be
       0.14201479 0.1721009 0.09943337 -0.19146343
0003a0 63 f7 47 bd 21 7f 94 bd 91 dd ad bd 05 d6 c3 bd
       -0.04881991 -0.072508104 -0.08489526 -0.09562305
0003b0 25 2e 8c be 79 24 c9 3a 50 d0 81 3c a1 cc 9c bd
       -0.27378955 0.0015345953 0.015846401 -0.07656217
0003c0 0c 3a 6b 3d cc 3c 8e bd f4 11 5e bd 99 7c 8f 3d
       0.057428405 -0.0694519 -0.05421634 0.07006187
0003d0 21 a3 0e 3d e9 e9 b6 bc 02 57 9c 3d 4e 21 c6 bc
       0.03482354 -0.022328334 0.07633783 -0.024185803
0003e0 6b 5b 2d bd ab a2 5b 3d b3 15 93 3c b9 64 ce bc
       -0.04232351 0.05362193 0.017954683 -0.025194513
0003f0 cf 53 bf bd d3 82 dd 3b c0 45 c5 3b ef 0f 56 3c
       -0.09342157 0.00675998 0.0060202777 0.013065322

lstm.weight_hh_l0 f4 [512, 128]
000000 b8 dd 4b bb dd b0 ae 3c 56 54 54 3d 41 8c bb bd
       -0.0031107496 0.02132457 0.05183824 -0.09157611
000010 1e eb 50 3d 94 25 44 bd 1d b3 42 be b8 ab fe 3d
       0.051005475 -0.0478874 -0.19013639 0.124350965
000020 62 ce 9d bb 9a 0a cd bd 99 7d 91 3d d7 f7 86 ba
       -0.0048158625 -0.10011788 0.07104034 -0.0010297251
000030 e7 2f 08 be 9d e9 cf 3d 00 57 5d be 2b 0b dc bd
       -0.13299523 0.1015198 -0.21615219 -0.107443176
000040 93 84 d6 bd f8 76 05 3e 95 7a 09 3e 3e 14 6e 3a
       -0.10474505 0.13033664 0.13425668 0.0009081996
000050 56 08 8d 3d a3 2b 8e bd 1f 85 ec 3d 18 a8 0b be
       0.068863556 -0.06941917 0.11548828 -0.13638341
000060 81 6a ca 3c 4d 01 a2 3b 02 93 5b 3d b7 86 56 bb
       0.024708988 0.0049440027 0.053606994 -0.0032734105
000070 e7 cd 79 bd 00 f2 67 3d 10 9f e1 bd 97 e9 99 3d
       -0.06098738 0.056627274 -0.11016667 0.07515257
000080 62 23 e2 bc f9 f6 6d bc 45 d2 c1 3d fc 4e b1 3d
       -0.027604762 -0.014524215 0.09463934 0.08657643
000090 51 4f f0 3d 62 05 a0 3d e8 3c 3e 3e 35 96 3a be
       0.117338784 0.07813527 0.18577921 -0.18221362
0000a0 cc 5a 56 3c 59 8e 79 bd d0 99 fd 3d 6b 94 d0 3d
       0.013083171 -0.06092677 0.12382853 0.101845585
0000b0 01 ed f4 3d d6 94 8f 3c d1 99 44 3e 0f e9 09 3e
       0.119592674 0.017527025 0.19199301 0.13467811
0000c0 4c 5d 05 be cb 9e 8d 3e 54 3a 95 3d 8d b8 de bd
       -0.13023871 0.27660212 0.07286516 -0.10875044
0000d0 68 23 db 3d d0 25 27 be 29 78 03 3e af 2f 0e 3e
       0.107001126 -0.16323018 0.12838806 0.13885377
0000e0 82 83 a6 bd e2 2f ca bd 04 21 ed bd c4 dc b9 bd
       -0.08130552 -0.09872414 -0.11578563 -0.09075311
0000f0 6f 4c 23 3e ac ed 2b be 0f 7d 28 3e 2c 67 ff bc
       0.15947126 -0.16789883 0.16453956 -0.031177126
000100 d3 66 86 bd 53 6e 4b 3d 62 1a 23 3e 1b fb ca bd
       -0.06562581 0.04966576 0.15928033 -0.09911176
000110 13 37 ec 3c 39 a1 c0 bc be 4e a0 ba 99 85 7d bd
       0.028834855 -0.023514377 -0.0012230498 -0.061894987
000120 91 d5 b3 bd f0 eb 5b 3e de 2b cc 3c 44 7b 39 3e
       -0.08780969 0.21476722 0.024923261 0.18113428
000130 aa 53 b5 3c bf 9a ac bd 55 da 42 bc a4 65 c0 3d
       0.02213462 -0.08427953 -0.011892875 0.093943864
000140 67 13 06 bd a7 e9 fd bd da e3 b0 bd 3b 2a 09 be
       -0.032733347 -0.12398081 -0.08637209 -0.13395016
000150 95 12 de 3d 92 a4 58 bc 2f 12 81 bd 21 7d 55 3e
       0.10843388 -0.01322283 -0.06302296 0.20848514
000160 ff 4c 01 3d 86 05 c4 bd b6 fe c4 3d 4c 5c c2 3d
       0.03156757 -0.09571366 0.09618895 0.094902605
000170 21 a9 85 3d 22 7b 6f 3d 8d d7 2a 3c 8a c1 c3 bd
       0.065263994 0.058467038 0.010427368 -0.09558399
000180 96 eb 9d 3a 4b a0 7a be 54 3d 3e be 52 56 76 3d
       0.001204836 -0.2447521 -0.18578082 0.060140915
000190 13 d9 2c be 4c 1a 01 be 83 cc a4 3b e3 0d f5 3c
       -0.16879682 -0.12607688 0.0050292625 0.029913848
0001a0 45 8f 43 bd f8 8e 5e bc 78 eb e0 bd bc ed ad 3d
       -0.047744054 -0.013583891 -0.10982412 0.0849261
0001b0 42 db d2 bc 7f 69 5d bc 0d 09 d5 3d 6b 14 95 bc
       -0.025739316 -0.013513922 0.10402117 -0.018198213
0001c0 95 0d 15 3e 91 8b c7 3d 62 3a 54 be 46 fe 53 3d
       0.14555962 0.09743417 -0.20725396 0.051756166
0001d0 f7 42 03 3e dd f1 d2 bd 9f 4e 13 3d e3 06 b1 bd
       0.12818514 -0.10300038 0.03596365 -0.08643892
0001e0 ea d3 cf 3d d4 9a 85 bd e3 fe 70 be a6 2a 16 be
       0.10147841 -0.06523672 -0.23534732 -0.14664707
0001f0 3e ee c5 3c 16 8d b9 3d ca 3e ff 3d ec 4b 62 3e
       0.024161454 0.09060113 0.12463148 0.22099274
000200 b3 64 26 3d b2 cc f7 bd 04 20 f3 3a 2d b4 8a 3a
       0.040623378 -0.120995894 0.001854897 0.0010582261
000210 41 48 f3 bb b8 8a 93 bd f4 3c c1 bd 70 9e 1d bd
       -0.007424385 -0.07204193 -0.09435454 -0.038481176
000220 a5 b2 61 3c 89 d4 d0 3d cf bc e1 3d 7a cd 8f bd
       0.013775502 0.10196788 0.110223405 -0.070216134
000230 b2 dc ea 3b c8 39 53 3e a5 8d 84 3d 94 a0 f4 bd
       0.007167422 0.2062751 0.06472329 -0.1194469
000240 c9 62 af 3d 38 a0 a0 3c bf 1d 05 3d 23 a3 9e bb
       0.08563764 0.019607648 0.03249907 -0.0048412248
000250 7f 8f 33 3d 9e e0 ef bc 99 72 81 3c 98 fc 35 bd
       0.04383802 -0.02928191 0.015801715 -0.044430345
000260 0e 87 81 3d 92 f7 26 be ed 5a ec bd 97 9d 2a 3e
       0.06324588 -0.16305378 -0.1154078 0.16661678
000270 d5 64 6d be 80 78 ff bd 9b 2a c9 3c d0 0a a6 bb
       -0.23182996 -0.124741554 0.024556449 -0.005067207
000280 5c 89 06 3e 25 b9 02 be 53 f3 be 3d d9 18 95 bd
       0.13138336 -0.1276594 0.09323754 -0.0728013
000290 81 de 57 bc 27 6a 99 3d 40 69 b8 b7 c8 3b 11 bd
       -0.013175608 0.0749095 -2.198352e-05 -0.035457402
0002a0 8b f6 5c 3d a2 6c ad 3d b4 c4 af 3d 66 a4 0e 3d
       0.05394606 0.08467986 0.0858244 0.03482475
0002b0 4c 57 4a 3c cb 92 a1 3d be 6c 1a 3e 03 2a cc bd
       0.012349915 0.07889327 0.15080544 -0.099689506
0002c0 3e 56 ae bd 10 8f 2a b9 a9 8e 24 3e ba d7 fb 3c
       -0.08512543 -0.00016265758 0.16070046 0.030742515
0002d0 ab e0 9e bc 5b fe 3e be 79 71 5b 3c 12 18 b4 3d
       -0.01939424 -0.18651716 0.013393753 0.087936535
0002e0 6d ff 8b bd f5 44 e5 3c c6 e6 da bd 97 7a 90 3c
       -0.06835828 0.027986983 -0.10688548 0.01763658
0002f0 7b 26 29 bd ad 87 f7 bc 7d 04 08 3d e4 fa 20 bc
       -0.041296463 -0.030216062 0.033207405 -0.009825442
000300 ca 3b cf bd 82 62 db 3d 37 5c c0 bc 38 80 e6 bd
       -0.10118826 0.10712148 -0.023481471 -0.112549245
000310 6c 54 87 bc c5 c8 b0 3d 4a f0 44 3e 0a 2c 3d bd
       -0.016519748 0.08632044 0.19232288 -0.046184577
000320 12 e0 5d 3d e6 64 ef 3d a5 26 17 3e 78 c7 3d 3c
       0.05416877 0.11689167 0.14760835 0.011583202
000330 9a 3b b7 3c 36 9d 6a 3d 0b bc b7 3d d8 5b 2b be
       0.022367287 0.057278834 0.08971413 -0.16734254
000340 2e 42 21 3e f6 3c 73 3d 0a 97 16 bd 6e e0 38 be
       0.15747902 0.05938431 -0.036765136 -0.18054363
000350 6a 26 99 3c dd 6d fd 3d 75 14 b9 3c 5c 05 3e 3c
       0.018695075 0.123744704 0.022592762 0.011597957
000360 d5 71 e3 bd c5 65 b8 bd 8f 98 36 bd 0a d0 85 3c
       -0.11105696 -0.09003786 -0.044579085 0.016334552
000370 c4 6c 57 bb a4 9a 74 3d 53 a0 99 bc 15 e8 26 bd
       -0.0032871226 0.05971779 -0.018753206 -0.040748674
000380 5a 08 32 bc 37 b3 3b 3c 5b 47 63 be 39 13 2b bd
       -0.010866249 0.011456302 -0.22195189 -0.04176638
000390 f1 80 08 3c 98 f8 b1 bd ea ce 0b 3d dc dc 04 3d
       0.008331523 -0.086899936 0.034132876 0.03243719
0003a0 e8 c4 c4 bd 6e 7a 0d 3e 34 1f 10 3d 2d 12 28 3e
       -0.096078694 0.13816234 0.035186008 0.16413184
0003b0 06 98 cf bd 84 db af 3d 98 17 9a bd e1 dd 0e 3e
       -0.10136418 0.08586791 -0.075240314 0.13951828
0003c0 16 92 97 3d 29 5f 70 bd 1d c5 df 3c c0 b1 b7 3d
       0.074009106 -0.0586845 0.02731567 0.0896945
0003d0 f2 a6 1b 3d c3 42 18 3e 1a 05 84 3d ff 24 dc bc
       0.03800101 0.14869218 0.064462855 -0.02687311
0003e0 41 e6 d1 3d 2f 17 9d 3d 21 ae 2f 3d ab c1 16 be
       0.102489956 0.076704375 0.04289067 -0.14722316
0003f0 b3 c7 64 ba a2 80 a2 3c 04 bc 2d 3e 11 c8 51 3c
       -0.0008727267 0.019836728 0.16966254 0.012804047

lstm.bias_ih_l0 f4 [512]
000000 c0 40 18 be 93 a8 6c 3b 90 8b 11 bd 1d 80 13 3d
       -0.1486845 0.003611122 -0.035533488 0.03601085
000010 c9 ea 96 bd 23 48 05 be 56 07 fb bb 92 43 33 3d
       -0.073690005 -0.13015799 -0.0076607866 0.043765612
000020 6d 6a 1a bc 58 67 2e be a6 7a eb bd d4 14 c2 bc
       -0.009424788 -0.1703161 -0.11498003 -0.023691572
000030 10 b9 26 bd 4f 58 1c bd 5b 25 f8 bd 99 54 df bd
       -0.040703833 -0.038170155 -0.121165 -0.109048076
000040 79 f3 00 be 31 08 9d 3d ae f6 63 bd 27 b0 83 bd
       -0.12592877 0.07667578 -0.055655174 -0.06430083
000050 16 92 6d bd a5 29 43 be d3 01 3c bd 55 b7 d7 bd
       -0.058000647 -0.19058855 -0.045900177 -0.10533015
000060 8c 66 18 bd ce a0 8f bc e5 de af bd 01 3f ca 3d
       -0.03720717 -0.017532732 -0.08587436 0.09875298
000070 10 00 16 bd 3a f3 c2 bc d1 8b 2a be ec 07 ff bd
       -0.036621153 -0.02379762 -0.16654898 -0.12452683
000080 5f 8a c9 bd 89 4c b8 3d 40 9c 5e bd 24 88 b3 bd
       -0.09840845 0.08998973 -0.05434823 -0.08766201
000090 dd 2d 10 bc 4a 8f 91 bc 0a c7 0f be 7c 2d f6 bc
       -0.008799997 -0.01776852 -0.14040771 -0.030050986
0000a0 93 1e b8 3d 71 df 31 be ad 89 29 bd 80 f0 8f 3d
       0.089902066 -0.17370392 -0.041391063 0.070282936
0000b0 d6 c6 92 3d 61 07 34 ba f4 e3 b6 bd 06 3e 43 be
       0.07166831 -0.00068675546 -0.08930197 -0.19066629
0000c0 92 48 a2 bd 08 cc eb bd 69 5c 17 3e 8c a8 33 be
       -0.07923998 -0.11513525 0.14781345 -0.17544764
0000d0 3c 36 85 bd a7 2c d3 bd b8 66 f8 3d 63 b6 6d bd
       -0.06504485 -0.10311251 0.12128967 -0.058035266
0000e0 99 76 92 be 05 3b 90 bd 1f 3c 98 bd 5e a8 0a be
       -0.28606108 -0.07042507 -0.07433342 -0.1354079
0000f0 61 29 97 bc eb 7c 10 bc cc 17 52 bd 07 f4 70 bd
       -0.018452348 -0.008818845 -0.051292226 -0.058826473
000100 d3 d5 ac bd 12 bc 89 be 17 0a 93 3c 7e a3 1d be
       -0.08439221 -0.269013 0.017949147 -0.15394399
000110 b7 b7 1b bd 8e 58 78 bd e8 46 86 3c 0d 93 b1 bd
       -0.038017 -0.060631327 0.016391233 -0.08670626
000120 da 66 45 bd c3 71 82 b5 a1 12 06 bc c8 7c ed 3c
       -0.04819379 -9.718864e-07 -0.008183152 0.028990164
000130 55 76 2c be e7 70 97 3d 16 26 fa bb 50 5d 80 3b
       -0.16842015 0.07394581 -0.0076339347 0.0039173737
000140 92 35 25 bd bb 04 79 3c bf b6 e6 3d 87 9e 37 bd
       -0.04033429 0.015198882 0.11265325 -0.044828918
000150 62 69 32 be b1 2c ae bd f2 91 08 3d 46 dc a4 bd
       -0.17423013 -0.08504618 0.03334231 -0.08049826
000160 d6 8b f1 bd 89 bf ea bd 03 2f 15 3d 63 09 d2 bd
       -0.1179425 -0.11462314 0.036421787 -0.102556966
000170 78 d4 10 bd 23 83 d9 bd 34 1c 66 be ec 66 bc ba
       -0.035358876 -0.106207155 -0.22471696 -0.0014373935
000180 d2 81 b2 bd a7 6f c6 bd 83 3e 1a 3d 5c 8c 26 be
       -0.087161675 -0.09689265 0.037657272 -0.1626448
000190 03 08 97 bd 60 10 17 bd c0 1e 1c be 57 27 bc 3c
       -0.07374575 -0.03688085 -0.15246105 0.022967977
0001a0 fb c9 2b be 99 f7 ce bd 4e 07 a1 bd 7e f9 2d bd
       -0.16776268 -0.10105819 -0.078627214 -0.042474262
0001b0 7f bc cf bd f3 0b 02 bd 00 2a 55 bd 73 29 0a be
       -0.10143375 -0.031749677 -0.052042007 -0.13492374
0001c0 d2 8c 20 3d 1e b5 de 3d 84 7c 81 bd 3f 7f 89 3d
       0.039196797 0.10874389 -0.063225776 0.067137234
0001d0 81 1e 1c be 8d 3c 00 be af 34 05 be 05 30 19 bd
       -0.15246011 -0.12523098 -0.13008378 -0.03739931
0001e0 cf 7c a9 bd cc a9 43 3c 22 b4 c4 bd 5d ba c9 bd
       -0.082757585 0.011942338 -0.0960467 -0.09849999
0001f0 0b 65 c2 bd 04 11 e4 bd 56 5a db bd 0e c1 d6 bc
       -0.09491929 -0.11136058 -0.107105896 -0.026215103
000200 c3 22 27 be d2 76 88 bd e2 0b 43 3c d0 be cb bc
       -0.16321854 -0.06663288 0.011904689 -0.02487126
000210 77 84 79 bd bb 4a 5a bd 7b dc 97 3b 62 46 94 bd
       -0.060917344 -0.053293925 0.0046344376 -0.07239987
000220 f3 94 e2 3d dd 8b fd bd 89 89 08 be d7 35 44 3d
       0.11063566 -0.123801924 -0.13333715 0.04790291
000230 81 6d fc bd 9c 9c a3 3d 0d 13 2d be fd 11 52 bd
       -0.12325574 0.07988855 -0.16901799 -0.051286686
000240 6d 06 5d bd 5c 66 68 3b f9 2a 39 be 51 74 55 3d
       -0.053961206 0.0035461402 -0.18082799 0.05211288
000250 c0 c2 48 be 83 a9 80 bd 8c 80 39 be 7a bb 31 bd
       -0.19605541 -0.06282332 -0.18115443 -0.043391682
000260 04 2c 81 3c de 2b 0b bd 97 28 12 be 94 3a 06 be
       0.015768059 -0.033977382 -0.14273296 -0.13108283
000270 f5 20 8d bc 7a 00 8a 3d af 43 00 bd 3f 9e a0 bd
       -0.01722763 0.06738372 -0.031314548 -0.07842683
000280 ba 16 4c bd a6 9b a1 bd 18 08 a5 bd 06 0c 02 bd
       -0.04982636 -0.07891016 -0.080581844 -0.031749748
000290 e3 c8 8e bc 3e 4b 50 bd 13 4e f0 bd 66 b0 0f bd
       -0.017429775 -0.050853007 -0.117336415 -0.035080336
0002a0 d2 d3 13 3d 6e 91 64 bd 33 0c bd bd 6c a7 e8 3b
       0.03609068 -0.055802755 -0.092308424 0.0071000364
0002b0 bd 07 99 3c f1 58 f2 bd 3d ac e5 bd 8d 91 65 bd
       0.018680448 -0.118333705 -0.112144925 -0.05604701
0002c0 44 1e 9a 3c 48 9a db bd 8d 9a 2c 3d e0 cf 4f bd
       0.01881326 -0.10722786 0.04213958 -0.050735354
0002d0 4a 70 14 3d b2 2e 07 be be aa 45 3d 63 70 28 3d
       0.0362399 -0.13201407 0.048258536 0.041122805
0002e0 4a 26 d1 bd 92 73 3f ba 5f d2 bb bd b6 1b e7 bd
       -0.10212381 -0.0007303293 -0.091709845 -0.11284582
0002f0 e1 67 13 3d a6 e7 4a bd 15 d7 fb bd 79 dd 19 3d
       0.03598774 -0.049537323 -0.12296883 0.03756473
000300 03 02 3e be 30 e5 24 be e2 e9 87 bd a3 b7 bb bd
       -0.18555455 -0.16103053 -0.066364065 -0.09165885
000310 d2 e6 85 bd 6b 3a 1b 3b b0 ca 9b bc 7d e3 35 be
       -0.06538166 0.0023685943 -0.019017547 -0.17762561
000320 ad 6d e2 3d 61 17 74 bd b0 ce 26 bd c1 c2 04 be
       0.11056075 -0.05959261 -0.040724456 -0.12964918
000330 04 d7 0b be 50 dd 12 3e 3a 43 24 be 8e 86 14 3d
       -0.1365624 0.14342237 -0.1604127 0.036261134
000340 b4 4c 81 bd ac 02 ba bd 6e 97 db 3d fb b2 9d bd
       -0.06313458 -0.09082541 0.10722242 -0.077001534
000350 e6 4f 11 be 10 53 8f bd 82 c1 27 3d 47 86 0c be
       -0.14190635 -0.06998265 0.040956028 -0.13723098
000360 9c 01 4b be 61 3c b7 bd 6c ff 36 3d 8a fa fc bd
       -0.19824833 -0.08947063 0.044677183 -0.12352474
000370 9d 9d da bc 44 b7 00 be bc 22 22 be ec a7 aa bd
       -0.026686484 -0.1256991 -0.15833563 -0.0833281
000380 77 48 2b bd 8a b1 4d bd 34 bc 85 bc b4 57 00 3e
       -0.041817155 -0.050218143 -0.016325094 0.12533456
000390 a0 32 87 bd e2 75 00 be 82 91 bd bc c2 6e d4 bc
       -0.06601453 -0.12544969 -0.023140673 -0.02593172
0003a0 ee 6f 3d bd 08 43 ff bd e1 35 d6 3d 8f ec b3 bd
       -0.046249323 -0.12463957 0.10459495 -0.08785354
0003b0 09 86 53 be 6e 14 30 be b4 1d 97 bd a7 09 d6 bd
       -0.20656599 -0.17195293 -0.07378712 -0.1045106
0003c0 86 ae a8 bd 2c f8 1d 3d ec 05 08 3e a8 c7 61 bd
       -0.08236413 0.038566753 0.13283509 -0.055122048
0003d0 d8 65 f3 bd fe 22 22 be b5 b0 13 be 27 17 97 bd
       -0.118846595 -0.15833661 -0.14422877 -0.07377463
0003e0 da 1e 55 be 5a ef f2 bd 04 e2 4b bc bc 14 3b bd
       -0.2081255 -0.11862059 -0.012444023 -0.04567407
0003f0 23 7d bf bd 18 36 6e bc 16 78 82 3c 52 d2 09 bd
       -0.0935004 -0.014539264 0.015926402 -0.033647843

lstm.bias_hh_l0 f4 [512]
000000 48 f1 66 be e3 50 6d bc ab 76 43 3d 7a d7 80 3c
       -0.22552979 -0.014484617 0.047720592 0.015727747
000010 00 f9 11 bd bc ad 41 bd 38 28 aa 3c 86 ae 0f b9
       -0.035637856 -0.047284827 0.02077113 -0.00013702558
000020 82 14 ca 3c 72 5c 05 be 90 b5 78 bc 47 a1 42 3d
       0.024667982 -0.13023546 -0.015180007 0.047517087
000030 a9 bd f6 bd af 08 ea 3d 12 51 71 be bf 5f 0d be
       -0.120478936 0.114274375 -0.23566082 -0.13806055
000040 c0 c9 1f be 84 68 78 3d 56 36 bd bc 49 ed c5 3c
       -0.15604305 0.06064655 -0.023097198 0.024160998
000050 a5 af 19 bd ae c4 35 bd 98 fe 17 be ca 9c 54 be
       -0.037521023 -0.04437702 -0.14843214 -0.20762935
000060 eb 4b 3a bd 10 e5 b6 3c 8a 2b ef bd 11 f1 05 bd
       -0.045482557 0.022326022 -0.11678226 -0.032700602
000070 94 5a 29 3d 81 61 28 3d 85 6d 2e bd 2b ea 5a bd
       0.041346148 0.041108612 -0.042584915 -0.053445976
000080 98 ea d1 bd 40 ab c3 3d 27 a5 c2 bd 96 40 a0 bd
       -0.10249823 0.09554148 -0.095041566 -0.07824819
000090 4e 10 67 3d 71 e4 ec bd 5c d6 47 be 6a 83 58 bd
       0.056412034 -0.11567009 -0.19515365 -0.0528597
0000a0 e4 92 94 bc 70 6f c3 bd 4b 91 ff bd a9 3d 84 bd
       -0.01813645 -0.095427394 -0.12478884 -0.06457073
0000b0 e4 d1 ac bd ee 2d 05 bd 0a a4 98 bd 2f 9e 1c be
       -0.08438471 -0.032514505 -0.07453163 -0.15294717
0000c0 96 e1 16 be d7 08 89 bd df e3 23 3d 27 aa 12 be
       -0.14734492 -0.06691139 0.040012237 -0.1432272
0000d0 2b 37 c4 bd 61 17 16 be 03 81 14 3d 0e 21 8b bd
       -0.09580835 -0.14657356 0.036255848 -0.06793414
0000e0 04 ac 0b be ca 43 0e be b7 a7 14 bd cf ae b1 bd
       -0.13639838 -0.13893047 -0.036292758 -0.0867592
0000f0 fa 32 fc 3d a7 75 03 bd 80 fd db bc 08 f8 a0 bc
       0.123144105 -0.032094624 -0.026854277 -0.01964952
000100 3e 42 58 be bf ba f0 bd c5 79 cc bd 45 00 0a be
       -0.2111902 -0.11754369 -0.09984163 -0.13476665
000110 d5 22 c5 bd 9b e2 05 be 47 6e 6f bd 8f 33 d9 bd
       -0.09625784 -0.13074724 -0.058454778 -0.10605537
000120 15 6d 11 bc 94 19 d5 3c 4b 1a ad bd 76 b7 fb bd
       -0.008876105 0.026013173 -0.084522806 -0.12290852
000130 0a d4 8f bd bf a0 fa 3c 60 98 c2 bd f3 3e 13 bd
       -0.07022865 0.030594228 -0.095017195 -0.035948705
000140 ed df 50 be 50 fe bd bd 87 c0 b4 3d 1c bb 82 bd
       -0.20397921 -0.09277022 0.08825784 -0.063833445
000150 2f 60 16 be b3 27 c2 bc 6a 12 11 3d aa 4d 5a bd
       -0.14685129 -0.02370057 0.03541795 -0.053296722
000160 02 e9 1b be 85 a0 e4 bd b5 be b2 bd e2 a9 c2 bd
       -0.15225604 -0.11163429 -0.08727781 -0.09505059
000170 c4 9c 8f bd 1c 5f 4b be 7e 2e 84 be ea 6e 85 3d
       -0.070123225 -0.198605 -0.2581672 0.06515296
000180 3b 6b 09 bd a2 f6 80 3c 3b bc 10 3d 9f 3c af bd
       -0.03354953 0.015742604 0.03533576 -0.085564844
000190 48 70 b7 3c 53 28 a1 3d 85 dd 10 be c9 bf aa bd
       0.022392407 0.07869019 -0.14147003 -0.08337361
0001a0 2d 27 ab bd cc d8 07 be 77 9e 3e bd 71 30 c6 bd
       -0.083570816 -0.13266295 -0.046537843 -0.09677208
0001b0 b4 37 0d be 75 e4 1f bd a3 e2 6c bc 5d ac 0e bd
       -0.1379078 -0.039036233 -0.014458331 -0.034832347
0001c0 d5 48 57 bd 91 0d 0c 3d 70 9d 85 bd cb 04 8c bd
       -0.052559692 0.034192625 -0.065241694 -0.06836852
0001d0 bf 26 20 be d0 cf 24 bb b6 77 b0 3a 79 28 3b 3c
       -0.1563978 -0.002514828 0.0013463411 0.011423224
0001e0 9f d5 02 be 0e 72 05 be 7b 01 8f bd 65 10 9f bb
       -0.12776802 -0.1303179 -0.06982704 -0.0048542493
0001f0 53 e6 77 bc 07 13 e2 bd c9 9d 8c bd 1c 2c 61 bb
       -0.015130597 -0.110387854 -0.06866033 -0.0034358567
000200 d8 fe 55 be 65 b8 40 be 94 99 17 be 6a 47 4b 3c
       -0.20897996 -0.18820341 -0.14804679 0.012407163
000210 e1 41 49 bd cf 00 de bd e1 36 bd 3c e8 1f de bd
       -0.049135093 -0.10839998 0.023097457 -0.108459294
000220 38 a3 26 3e a5 0d e0 bd d4 3d ad bd 7b b3 8a 3d
       0.162732 -0.109401025 -0.084590584 0.067725144
000230 5c 8d cc bd 5a bf 0c bd 0b 12 16 be 74 ce 6d bd
       -0.099879 -0.034362175 -0.1465532 -0.058058217
000240 b7 78 57 bc 97 19 0d 3d 1a 2a b4 bd ba 93 2e bd
       -0.013151339 0.034448233 -0.08797093 -0.04262135
000250 11 87 4e bd 82 ce ec bd e3 96 a1 bd e0 7b 49 bd
       -0.050421778 -0.11562826 -0.078901075 -0.049190402
000260 ac 11 63 bd 90 b4 b5 bd 02 ea bf bd b0 72 ad bd
       -0.055436775 -0.0887233 -0.09370805 -0.084691405
000270 5b b6 cd bc 4e d3 2f bd 3a b9 22 be b0 34 f6 bd
       -0.025111368 -0.042926125 -0.15890971 -0.12021768
000280 83 32 d6 bd 17 86 56 bc f3 58 2a be 08 c9 1a bc
       -0.10458853 -0.013093493 -0.16635494 -0.009447344
000290 72 e7 26 be 47 e8 3c be 97 94 04 be b8 33 b4 bc
       -0.16299227 -0.18447982 -0.12947308 -0.021997318
0002a0 61 5a 9e 3d e4 1a 85 bd bc 26 c7 bb f7 f5 a1 3c
       0.07732082 -0.064992696 -0.0060776155 0.019770605
0002b0 8b 18 41 bd 83 7a 1b be 89 46 b1 bd 9e b3 29 be
       -0.047142547 -0.15183453 -0.08656032 -0.16572425
0002c0 b1 c5 d2 bd 2e 20 02 be 00 8a 12 3e 09 73 39 be
       -0.10291613 -0.12707588 0.14310455 -0.18110289
0002d0 12 5a cb bc fc 47 09 be 7c 4d 0f 3e 76 2a 9c bc
       -0.024823222 -0.13406366 0.13994402 -0.019063216
0002e0 b2 e0 43 be b1 24 90 bb 48 cd c9 bd d8 55 0a be
       -0.19128683 -0.004398905 -0.098536074 -0.1350931
0002f0 38 f1 05 3d e2 f6 c1 bd 5a 2a f5 bd 2c 46 83 bd
       0.032700747 -0.09470917 -0.119709685 -0.064098686
000300 ab 62 33 be 39 e1 9a bd d7 ec 02 bd 18 23 ae bd
       -0.17518108 -0.07562489 -0.03196415 -0.08502787
000310 dd 69 90 bd 62 ab a2 bd 93 ad 16 bb 5d 6d cb bd
       -0.07051442 -0.07942845 -0.0022991642 -0.09932969
000320 4e d9 98 3d 9c db b5 bd 9a 3b 28 bd 98 ca d6 bc
       0.074633226 -0.08879778 -0.041072465 -0.026219651
000330 fd 85 50 be 83 8d 0f 3e 77 fc a4 bd 45 f0 4a 3d
       -0.20363612 0.14018826 -0.08055966 0.049545545
000340 48 c4 08 be 23 38 da bc df db 1c bd 01 92 79 bd
       -0.13356125 -0.026638096 -0.038295623 -0.060930256
000350 a5 05 2f be 17 ea bd 3c 5d 90 6f bd 2f fb bf bd
       -0.17091997 0.023182912 -0.058487285 -0.09374081
000360 5c 41 2c be 77 19 93 bd 4c 72 e0 3b 11 bd f5 bd
       -0.16821808 -0.071825914 0.0068495627 -0.11998952
000370 c5 af 88 bd 37 6d 8a bc fe 9b 70 be ce d3 65 bc
       -0.066741504 -0.01689778 -0.23497006 -0.014027549
000380 ef 92 0e be 35 69 ca bd 84 b1 03 bc a9 a5 bc 3d
       -0.13923238 -0.09883348 -0.0080379285 0.09211285
000390 fe 6c 27 bc 17 5e 0f bd 04 7b c9 bd b5 da d2 bd
       -0.010218857 -0.03500184 -0.098379165 -0.10295621
0003a0 ee 3d e9 bd 0f 6a d1 bd 4e bf a5 3d 90 2b b8 bd
       -0.11388765 -0.10225307 0.08093129 -0.08992684
0003b0 27 c7 54 be 4a 43 0a be 23 ce 2d be 40 32 fa bd
       -0.20779096 -0.13502231 -0.16973166 -0.12216616
0003c0 5a 1d c9 bc 22 39 47 3d 4c 90 8b 3b 29 b5 9d 3d
       -0.024550129 0.04863847 0.004259145 0.07700569
0003d0 16 c8 ce bd 4b 07 66 bd 27 25 23 be d5 a5 89 bd
       -0.10096757 -0.0561593 -0.15932141 -0.06721083
0003e0 bc 9b e4 bd 63 3f 0b be f3 22 0c be 83 61 79 3c
       -0.111625165 -0.13598399 -0.13685207 0.0152210025
0003f0 ed ed bc bd ae db 03 bd d2 a1 49 bd 5a fa 28 bd
       -0.09225068 -0.032191925 -0.04922659 -0.04125438

lstm.weight_ih_l1 f4 [512, 128]
000000 98 61 9a b9 6f 77 33 3e 5f 3f 87 bd e5 ff 7f bd
       -0.00029445882 0.17526029 -0.06603884 -0.0624999
000010 1b 3c a6 bd 75 8e c9 bc fd 04 cc bc 4d 5f 01 3d
       -0.08116933 -0.024604062 -0.024904722 0.031585027
000020 6d a9 c6 3d dc 77 45 bd 74 eb 6b bc 52 53 b9 3d
       0.09700284 -0.04821001 -0.014399398 0.09049095
000030 4b b1 d9 3b 2e 68 09 3e 9e e4 41 bb 3d 70 f0 3d
       0.0066434494 0.13418648 -0.002958573 0.11740158
000040 cd c8 ca 3c e6 7b 1f be 5a a8 85 3c 03 75 09 be
       0.024753952 -0.15574607 0.016315628 -0.13423543
000050 42 fe a4 bd 3d 67 a4 3c f7 25 25 bd 0a 01 5a 3c
       -0.08056308 0.02006876 -0.04031941 0.013305912
000060 92 11 a3 bc 89 ac 74 be 8c dd 8f bc 09 a7 e3 3d
       -0.01990584 -0.23893942 -0.017561696 0.11115844
000070 52 63 73 bd 3a a9 8e bd e0 94 9b bd c0 70 17 3e
       -0.05942089 -0.06965871 -0.07596755 0.14789104
000080 87 c1 bc ba 4c 81 6d 3c 38 c9 9e 3d ef a9 3c bd
       -0.0014400937 0.014496159 0.07753223 -0.0460605
000090 7c 7c fb bc 74 ca eb 3d 58 e6 29 3d f8 33 19 3e
       -0.030699007 0.11513224 0.04147944 0.14961231
0000a0 65 3f 9d bd 88 89 10 3e 25 a7 81 3d 41 c5 96 3c
       -0.07678107 0.14114964 0.063307084 0.018404605
0000b0 b5 fc b1 3c e3 a0 f1 bc 56 7f 90 bd 61 24 bb bc
       0.021726945 -0.029495662 -0.070555374 -0.022844495
0000c0 8f 34 5e bd c9 f3 be 3c ff a4 a3 bd c3 c6 9f bd
       -0.054249343 0.023309605 -0.07990455 -0.07801583
0000d0 60 ec 79 bd e9 bf eb bd 29 34 33 3c da d0 1b 3d
       -0.06101644 -0.11511213 0.010937729 0.038040973
0000e0 d2 23 0c be 25 af f6 3c 61 c5 30 bd a5 3f d6 3c
       -0.1368554 0.030112812 -0.043156985 0.026153395
0000f0 e5 6f 07 be f2 5f 14 bd 42 cc 90 3d 63 79 9d 3d
       -0.13226278 -0.036224313 0.07070209 0.07689168
000100 92 9a 28 bc 5d 7d 4a bd 98 fe 8f be 2e 66 e8 3c
       -0.010290759 -0.049435962 -0.28123927 0.028369036
000110 e7 e2 da 3c 6a f1 07 3e 17 9a d1 3d 5f ea 6f 3d
       0.026719524 0.13275686 0.102344684 0.058573123
000120 b0 d1 9d 3d 77 57 9e bd 19 6c 1c bd dc bc 7b bc
       0.0770601 -0.07731526 -0.038189027 -0.015364852
000130 3c f5 02 3d e7 31 00 3e b6 d1 54 3d 6c ad 89 bd
       0.031972155 0.12519036 0.05195781 -0.06722531
000140 07 c7 77 bb 54 de 76 bc 24 e9 0d bc 9c ea 77 bd
       -0.0037807839 -0.015067656 -0.008661542 -0.060526475
000150 76 96 8d bd 70 f4 75 bc d0 92 27 3e 91 12 75 3d
       -0.06913464 -0.015011892 0.16364598 0.05983216
000160 0d d7 77 bc 50 28 54 3e e3 ab 12 bd 1f 29 ce 3c
       -0.015126956 0.20718503 -0.035808455 0.025166092
000170 16 3a 04 3e fd b3 2a be 32 2d eb bd 49 bc 9a 3d
       0.12912783 -0.16670223 -0.1148323 0.07555444
000180 9b 13 ed bd f4 0c 8c 3b 56 f7 0c 3d ef d7 8a bd
       -0.11576005 0.004274005 0.034415565 -0.06779467
000190 51 c6 01 bc d6 b3 aa bd a0 c8 80 bd bf df a1 3c
       -0.0079208175 -0.08335082 -0.06288266 0.01976001
0001a0 bb 0f ef 3d 5a 2c 25 3d b4 9d 31 be 6a b7 5a bd
       0.11672922 0.0403255 -0.17345315 -0.053397574
0001b0 84 64 97 bc 93 e5 ed 3d ad b0 a6 bd ac 13 17 be
       -0.018480547 0.116160534 -0.08139167 -0.14753598
0001c0 82 83 a8 bd 99 a9 7a 3d 9d 22 f5 3d e8 5e 26 3e
       -0.08228208 0.061196897 0.119694926 0.16247141
0001d0 8a 5e 80 3d e2 ef 82 3d 2a 41 a3 be 10 6b 16 be
       0.06268032 0.0639341 -0.31885654 -0.14689279
0001e0 97 d5 05 3d e4 75 da 3d 82 40 fc 3d 7a 69 ff 3d
       0.0326744 0.10667017 0.123169914 0.1247129
0001f0 79 7f b4 bd ac 7e ee 3b 02 1a 95 3d db da e6 3d
       -0.08813376 0.007278284 0.07280351 0.11272212
000200 6e a9 42 3d 6f 20 9d 3d ab 45 6c bd de 99 e5 bd
       0.047524862 0.07672202 -0.057683628 -0.112109885
000210 ee 06 06 3c d3 62 97 3d f8 3d f3 bd a4 0f 54 3d
       0.008180363 0.07391896 -0.11877054 0.05177273
000220 0a 33 c0 3d 0c e8 0f 3e 6e 63 2a 3d d3 d7 29 3c
       0.09384735 0.14053363 0.04159873 0.010366398
000230 f1 c9 af 3d 75 32 29 3b 06 26 8c 3b c2 5f 31 be
       0.08583439 0.0025817428 0.0042769937 -0.17321685
000240 8e 4a ce 3d d2 11 01 be 72 18 8b 3c d9 13 e7 bd
       0.10072814 -0.12604454 0.01697943 -0.112830825
000250 c9 d2 c2 bd b2 54 d1 bd 52 29 26 be 5d e5 04 3e
       -0.0951286 -0.102212325 -0.162267 0.1297812
000260 ad 22 ea 3d 82 86 17 be 95 7b 11 be 97 ab 6b 3e
       0.11432395 -0.14797404 -0.14207299 0.23014675
000270 60 2f 24 3e a6 55 fb 3c ba 9a f0 3d f7 ec 19 3b
       0.16033697 0.030680489 0.11748262 0.002348719
000280 99 46 d8 3d cf e1 0b 3d c4 28 93 3d 5f 7e ef bd
       0.105603404 0.034150895 0.0718551 -0.11694025
000290 bb 0f 13 3e c9 7b 1f bd d3 c6 1d bd 3e 20 1f be
       0.1436147 -0.03893641 -0.03851969 -0.15539643
0002a0 8c d1 c9 bd b2 fe fa bc fd d1 e2 bc 8f 6f 46 3d
       -0.09854421 -0.030639026 -0.02768802 0.048446234
0002b0 f8 f9 ec bd c5 b7 63 bd 33 49 6d 3e b7 c3 05 be
       -0.11571115 -0.05559518 0.23172455 -0.1306294
0002c0 ae cc 59 bd 26 55 09 3d fb 95 87 3d 07 26 73 bd
       -0.053173713 0.03352847 0.066204034 -0.059362438
0002d0 33 fd 17 bd ed eb 01 bc ad ae e7 3d 47 34 e3 ba
       -0.037106704 -0.007929784 0.11312614 -0.0017334305
0002e0 28 8a 5b bd 81 d5 fa bd 89 dc 9c 3d e1 74 42 bd
       -0.053598553 -0.12247754 0.07659251 -0.047474746
0002f0 fb f3 db bd 4c f0 f0 bd 85 21 9f 3d fc f4 26 3e
       -0.10739895 -0.11764583 0.07770065 0.16304392
000300 8b 86 b2 3d cf 62 ac bd 8e 4f 91 bd bc 11 71 bb
       0.08717068 -0.08417284 -0.07095252 -0.0036784252
000310 96 32 55 bd 29 ef f2 3a 83 b1 8d bd 83 2e 11 bd
       -0.052050196 0.001853441 -0.06918623 -0.035444748
000320 bf 56 36 3e a5 be a5 bc 61 33 b6 3d ff 5d a9 bd
       0.17806529 -0.020232508 0.088965185 -0.082698815
000330 11 0a 7e 3d c9 da 03 3e 7f 48 2a be f7 f8 e4 bd
       0.06202132 0.12876429 -0.16629218 -0.11180299
000340 35 2e 48 bc 11 95 83 bd 5c ae 04 be 8e 95 05 be
       -0.012218048 -0.064249165 -0.12957138 -0.13045332
000350 78 68 a3 3d b5 1b 2d bd e9 67 2a bd 7c a0 10 3e
       0.0797891 -0.04226275 -0.041603003 0.1412372
000360 8f a1 7e bd dc 93 db bc df 4e af bd 4f 5b 60 bd
       -0.062165793 -0.026803903 -0.08559965 -0.05477458
000370 f6 1e 3a 3c 15 3d 44 be 35 52 0a 3d e4 2c 08 3e
       0.011359921 -0.19163926 0.033769805 0.13298374
000380 8e 51 98 3c 1b 72 1a 3d 15 7b be bc 0f 25 22 be
       0.018593576 0.037706476 -0.02325205 -0.15834449
000390 f3 e9 e0 3d c5 79 5b bc c9 9e 08 be e9 99 34 3d
       0.10982122 -0.013395731 -0.13341822 0.044092093
0003a0 9f 8b ac 3d 2a 32 84 3c c9 43 cb bc a9 a3 52 bc
       0.08425068 0.016137201 -0.024812596 -0.012856402
0003b0 16 44 52 3d 8f 1c db bd 0d 8c 03 3b a4 fa 05 bd
       0.051334463 -0.106988065 0.002007249 -0.032709733
0003c0 e3 fa f0 bd 04 b3 9f bd 9e b8 fd 3c 3c a5 d4 3d
       -0.11766603 -0.077978164 0.030971821 0.103830785
0003d0 ad 0e d5 3c 46 5a 84 bd 71 10 9d bd fb 39 8a 3c
       0.026007975 -0.06462531 -0.076691516 0.01687335
0003e0 74 ec 0d be 4b fc 21 3e 39 c5 15 3e 4d d3 15 3c
       -0.13859731 0.15818898 0.14626016 0.009144616
0003f0 3d 56 0a 3d 85 4b 04 3d b3 b9 0a 3e a3 b3 b6 3d
       0.03377365 0.032298584 0.13547401 0.08920982

lstm.weight_hh_l1 f4 [512, 128]
000000 2a 8f 49 bd e9 e0 0c 3d 83 16 8e bd 6f a4 94 bc
       -0.049208798 0.03439418 -0.069378875 -0.018144814
000010 87 4c 43 3d 95 97 10 be 84 77 4d 3e f5 b4 ad bd
       0.047680404 -0.14120324 0.20065123 -0.084817804
000020 93 00 fd 3b 07 b1 aa 3c 44 0d 0d 3e aa 31 a5 3b
       0.0077210157 0.020836366 0.13774592 0.005041321
000030 5b 28 0c be c6 eb ed bc 9b 5f 10 3d 53 68 3e be
       -0.1368727 -0.02904309 0.035247426 -0.18594484
000040 fb dd d1 3b 55 4f a6 bd 0a 0c 0c bd c5 19 f6 bc
       0.006404636 -0.081206 -0.03419117 -0.030041585
000050 80 84 d2 bd 2e 5b 60 bd e2 d3 6d bd fb e2 a8 bd
       -0.102791786 -0.054774456 -0.058063395 -0.08246418
000060 44 55 0b 3d 06 f5 68 3d 9c 83 ba bd 1f b8 e2 3c
       0.034016863 0.056874298 -0.09107134 0.027675686
000070 1a 0a ca bb 88 78 81 3d 60 14 8b bd 44 f3 a7 bd
       -0.006165755 0.06321818 -0.067909956 -0.08200696
000080 36 f4 d0 3d 2a 4a 9e bd 74 1c d5 3d 71 07 11 3e
       0.102028295 -0.077289894 0.10405818 0.14162995
000090 07 11 1f 3d 7c d4 ae 3b 98 85 72 bb 68 10 42 3e
       0.038834598 0.0053353887 -0.0037005898 0.18951571
0000a0 96 6b f3 3d 98 7e 13 3d 99 11 15 bd 31 c2 34 3d
       0.11885755 0.0360094 -0.036393736 0.044130508
0000b0 e9 81 d7 bc 1b 2a 24 bd 00 a0 99 bc 5c 33 37 bc
       -0.026307063 -0.040079217 -0.018753052 -0.011181679
0000c0 12 fc 00 bd f7 9d d2 3d 04 55 69 3d 68 6b fb bc
       -0.031490393 0.10284036 0.056965843 -0.030690864
0000d0 7c f1 b7 3d 35 09 24 be 7f e5 c0 3d cf fc a0 bd
       0.08981606 -0.16019137 0.09418773 -0.078607194
0000e0 73 c1 00 3e 1b 33 f1 bd 64 13 97 bd a5 69 42 bd
       0.12573795 -0.11777326 -0.07376745 -0.04746403
0000f0 1c bc 92 3d f1 59 e2 3d ee b8 37 bd f2 5b 2d bd
       0.07164785 0.11052311 -0.044854097 -0.042324014
000100 f4 b4 27 3e 0b 3d 0c 3e 4b 14 9f 3c 4d 63 92 3d
       0.16377622 0.13695161 0.019418856 0.07147846
000110 79 4f 5f bc 58 b0 87 bb ca fc cc 3c e9 e8 83 bd
       -0.013629788 -0.004140895 0.025022883 -0.064409085
000120 ce f5 45 be 44 03 02 be 87 9b 3e 3d 71 e3 51 be
       -0.19332048 -0.12696558 0.04653504 -0.20496918
000130 6f c7 07 3d f0 c9 e9 3c e7 26 04 3e ed c1 c5 3c
       0.03314918 0.028538674 0.12905465 0.024140323
000140 dc be b7 bd 19 e3 0e 3d f8 9e f3 3d 90 d0 51 3e
       -0.089719504 0.034884546 0.11895555 0.20489717
000150 89 5a 5c 3d 7f 61 9c bc ea 78 6f 3e 8a 0e 11 3d
       0.05379728 -0.019089459 0.23385969 0.035414256
000160 ab 3d 5f bd d2 2a b1 3b d4 de 9a 3b 36 d9 92 bd
       -0.05450217 0.005406716 0.00472627 -0.07170336
000170 9e 54 7a bd cd f2 5b bd d1 be 8e bc f8 95 3e 3d
       -0.061115853 -0.05369835 -0.017424973 0.04652974
000180 af 90 2f be 6b 54 44 bd 7d 99 09 3d 62 9a 34 3d
       -0.17145036 -0.04793207 0.033593643 0.044092543
000190 b1 18 97 3c 43 cd 90 bc 20 7c 2a 3e ba 9d 32 3e
       0.018444391 -0.017676001 0.16648912 0.1744298
0001a0 f9 fe c0 bd d8 df c9 3d 10 bc c7 3c a4 4c be 3c
       -0.09423632 0.09857148 0.024381667 0.023229904
0001b0 35 d9 f9 3d 89 48 78 3c 82 22 9c 3c f7 7a be bd
       0.12199632 0.0151540125 0.019059423 -0.093007974
0001c0 e6 39 bf bd 5b db 6e 3d 2d a1 b0 3d b4 15 82 bc
       -0.09337215 0.058314662 0.08624492 -0.01587949
0001d0 b4 d8 09 be 82 a2 b0 bc ad 27 1f 3c 8a dc ff 3b
       -0.13461572 -0.021561865 0.009714049 0.0078082727
0001e0 91 05 81 3c 6f 76 c7 3d 0f ec 90 3d ee 3c 17 3d
       0.015749725 0.09739386 0.070762746 0.03692334
0001f0 c8 dd 85 bd b7 28 68 3d 14 a2 14 3d ea 38 34 3c
       -0.06536442 0.056679454 0.036287382 0.0109998975
000200 28 97 07 bc 35 cd b0 3d 83 6c b5 bd 4e d8 a3 bd
       -0.008275785 0.0863289 -0.088585876 -0.08000241
000210 dc 1d 15 bd c4 be 1b 3d cb 7c aa 3d 05 85 39 bd
       -0.03640543 0.038023725 0.083245836 -0.045292873
000220 39 44 b5 ba 0f d3 c6 3d 7e 37 9b bd cd 25 ba ba
       -0.0013829536 0.09708225 -0.07578944 -0.0014201939
000230 bc 79 09 3c 19 f6 c6 bd 55 41 50 3d ac 71 30 bd
       0.00839084 -0.09714908 0.050843555 -0.043077156
000240 e5 b6 a0 bd 51 9f 74 3d b1 79 33 bd 89 a0 3d bd
       -0.07847384 0.05972225 -0.043817226 -0.046295676
000250 88 ee 28 3d c6 1e 9a 3d 58 4b 43 3d b0 2d 87 bc
       0.041243106 0.07525401 0.047679275 -0.016501278
000260 a8 02 cf 3c 96 b3 5d 3d 51 9a d7 3c 16 7c f8 bd
       0.025269821 0.054126345 0.026318701 -0.121330425
000270 6b 6f c5 3b 48 ed 2c be 9f 5d 67 bd e7 93 20 be
       0.006025245 -0.1688739 -0.05648577 -0.1568142
000280 c9 ce 8c bc 47 08 53 bd 8a 22 b7 bd 93 cd 8b bd
       -0.017188447 -0.051521566 -0.08942135 -0.068263195
000290 60 ee 05 bc d6 84 a9 bc 49 de ae 3d 35 ca 4a 3d
       -0.008174509 -0.020693224 0.08538491 0.049509246
0002a0 6b 00 c3 3b e6 14 d3 3d ab 56 37 bc b7 c3 52 3d
       0.0059509776 0.103067204 -0.011190097 0.05145618
0002b0 b0 6a e1 3c 26 c4 45 bd 75 16 83 bd b5 33 9a 39
       0.027516693 -0.048282765 -0.06400768 0.00029411694
0002c0 62 00 83 bd 10 85 db bc b5 5c 7c 3c 83 79 37 3e
       -0.063965574 -0.026796848 0.015402962 0.17917447
0002d0 75 62 ba bc 48 11 75 bd ad 5f 94 3d 5a b9 ed 3b
       -0.022752026 -0.059830934 0.07244811 0.0072547616
0002e0 16 d6 23 bc cb 8a 8f bd c4 b1 b2 3c 3d 22 fa bc
       -0.0099997725 -0.070088945 0.02181328 -0.030533904
0002f0 f3 2b ae 3c 4b 82 27 3d 48 b9 84 3c f6 e7 e7 3d
       0.021261191 0.04089574 0.01620163 0.1132354
000300 3c 85 4b 3d 45 9a 18 3d e1 2d ca 3d ff 50 18 3e
       0.04968761 0.037256498 0.09872032 0.14874648
000310 fa 61 9b 3c 6d df c2 3c 76 bc 82 3d 84 13 57 3d
       0.018967617 0.023788178 0.06383602 0.052508846
000320 7f 86 2e bb f6 d3 89 bd 47 c8 38 3c 4c 56 1b be
       -0.002663046 -0.067298815 0.011278219 -0.15169638
000330 01 8e 2c 3e d8 ea cc 3d b8 a5 84 bd ff c2 ea bb
       0.16851045 0.100057304 -0.06476921 -0.0071643586
000340 82 3e 21 3d 32 e1 c5 3b 84 7f 0b 3e 57 e9 b2 3d
       0.039366253 0.0060388083 0.13622862 0.08735912
000350 ec 57 d0 bd 8f c5 42 ba ab ec 06 bb 7a 4f 74 3d
       -0.1017302 -0.0007429951 -0.0020587842 0.059646107
000360 3b fc a4 3c b2 f6 92 bc b6 f3 0d 3e ba ce dd bd
       0.020139804 -0.0179399 0.138625 -0.108304456
000370 94 24 3a bd 61 c4 84 3d 81 1c 17 3d 94 ca 7c bd
       -0.04544504 0.06482769 0.036892418 -0.06171663
000380 a5 1e 4d bd 87 98 16 3c 85 32 bb bd c7 67 84 3d
       -0.050078053 0.009191639 -0.09140495 0.064651065
000390 d2 5f 54 bd 51 f3 db 3c 08 d8 77 3c 58 13 c9 3c
       -0.051849194 0.02684942 0.015127189 0.024545357
0003a0 ca 1c 05 bd 96 da f6 3c cb 9d 9f bd 67 a7 87 bd
       -0.03249816 0.030133527 -0.077937685 -0.06623726
0003b0 fe 44 a3 3c 5c a7 eb bd 47 14 8f 3d 9f fc 2c be
       0.019930359 -0.11506531 0.069862895 -0.16893242
0003c0 3a 37 39 be 61 f7 50 bd ff 55 2e 3d b5 f3 18 3d
       -0.18087474 -0.05101717 0.04256248 0.037341792
0003d0 c3 f9 73 3d 88 6c 8f bd c8 2f d2 bc bc 55 f6 3c
       0.059564363 -0.070031226 -0.02565755 0.030070178
0003e0 bd f2 46 3d f4 fb cd 3d c1 3f a7 3d 12 26 88 bd
       0.048571337 0.10057822 0.08166457 -0.06647886
0003f0 ff 24 d2 3c 23 be 25 3c 1e bf 5e 3d b3 64 03 be
       0.025652407 0.010116133 0.054381482 -0.12831382

lstm.bias_ih_l1 f4 [512]
000000 c9 c3 3a 3b d2 67 aa 3b cd 86 0a 3c 8b 3d c2 3c
       0.0028498045 0.0052003646 0.008454991 0.023710987
000010 02 5b b4 bd 80 9b 99 bc 6c a2 f1 3c 20 60 2f bd
       -0.08806421 -0.018750906 0.029496394 -0.04281628
000020 d7 11 ba bd 6a ca 19 3d 4d d0 fa bd 06 36 dc bd
       -0.09085434 0.037546553 -0.122467615 -0.10752492
000030 9f 5d 27 bd 6b 9f b7 3c a3 48 c9 bd ac 8a a0 bd
       -0.04086077 0.022414884 -0.098283075 -0.078389496
000040 0d 66 be bc 6a 11 5f bc 1a cc 42 bd 0d 47 83 3d
       -0.023242021 -0.013614992 -0.047557928 0.06410036
000050 ea 64 d9 bd f3 1f 41 be 9a 14 06 3d a0 b4 78 bd
       -0.10614951 -0.18859844 0.03273449 -0.060719132
000060 ed 73 23 3c c5 43 03 be 60 19 16 3d 60 68 c5 bd
       0.009976369 -0.12818821 0.036645293 -0.096390486
000070 f9 00 60 be 9a 32 39 3c ed e2 40 3d 9c a5 a8 bd
       -0.21875371 0.011303568 0.047091413 -0.082347125
000080 e5 a0 30 bd 8c fb 72 bd 73 cb 19 be 61 90 9d 3b
       -0.04312219 -0.059321925 -0.15019016 0.004808471
000090 a3 46 8e bd fc ac 63 bc b3 1f 87 3c 33 91 96 bd
       -0.06947067 -0.013896223 0.016494608 -0.07351913
0000a0 c4 16 14 bd df 13 da bd 95 09 27 bd 3b a6 af bd
       -0.036154523 -0.10648321 -0.040780623 -0.08576628
0000b0 23 ae 9f bd c3 24 3a 3d 1d c1 c8 bc e9 1f 81 bd
       -0.07796886 0.045445215 -0.024506146 -0.063049145
0000c0 92 38 4d bd 9a 03 21 bd 6a 98 a2 bd 8f 7d 21 be
       -0.050102778 -0.039310075 -0.07939227 -0.15770553
0000d0 db 0c 60 bd e7 1c 59 bd 63 aa 22 3d 73 1b ad bc
       -0.05469976 -0.05300608 0.039713275 -0.021131253
0000e0 e1 6f da 3a 2d ae 6f 3c c6 98 72 bd 21 ab 10 bd
       0.0016665423 0.014628929 -0.059227727 -0.03531945
0000f0 49 6f 8c 3d aa ab b5 bd 1c 3d d3 bd 66 6c 4f bc
       0.068571635 -0.08870633 -0.1031439 -0.012660122
000100 4c 0a a4 bc e2 37 f1 bd 59 46 00 be 97 e8 00 be
       -0.020024441 -0.11778237 -0.12526836 -0.12588726
000110 35 64 b5 3c 3d af d3 3d 09 cf 03 3d 7f ab 17 be
       0.022142509 0.103361584 0.032179866 -0.14811514
000120 6d 7f 2b 3d 8f f1 ae bb ab 5a 4c bd 78 b4 e3 3d
       0.04186957 -0.0053388546 -0.049891155 0.11118406
000130 85 75 56 3b 57 e9 e6 3c c6 93 b5 bd 6f 6b 1d bc
       0.0032723856 0.028187437 -0.08866076 -0.009608134
000140 50 40 71 bc 82 6a b9 bd 5e be fd bd 0f c0 4c 3d
       -0.014724806 -0.09053518 -0.12389825 0.04998785
000150 b7 38 0d be 1b 9e c0 bc 30 8e d9 3d 79 b6 ff bd
       -0.13791166 -0.02351289 0.10622823 -0.12485976
000160 0f 67 9e bd 6f 63 63 3d 0e 9f d3 bd 7d 8d 32 3d
       -0.077345006 0.05551475 -0.10333072 0.043591965
000170 2f c4 46 3b 59 71 dc bc 61 03 45 bc f3 e2 9f bb
       0.0030329337 -0.026909517 -0.012024731 -0.0048793494
000180 e0 42 2b bc 12 27 6d bd aa ce 69 bd 88 e7 06 be
       -0.010452956 -0.05789859 -0.057081856 -0.1317426
000190 34 c7 02 3e 83 8b 5f bc f4 0d 04 3d 18 8a c1 3d
       0.12771302 -0.013644102 0.03223987 0.094501674
0001a0 a7 06 d8 bd ed 79 06 be d4 fb 36 bd 09 c1 8f 3a
       -0.10548144 -0.13132448 -0.044673756 0.0010967563
0001b0 76 fe 46 bd 68 37 10 3d cb 06 cd ba 5a d7 d0 3d
       -0.048582517 0.03520909 -0.0015642283 0.10197325
0001c0 f5 e4 bf bd ac c8 24 3d 45 1e 7e bc 5c d4 51 3d
       -0.09369842 0.040230438 -0.0155101465 0.051227912
0001d0 c0 a0 c6 bd 07 6e 64 3d 60 18 22 be 23 2c be bd
       -0.096986294 0.055768993 -0.15829611 -0.09285762
0001e0 5d 20 02 bd 83 7d 20 3d d0 3f 80 3d c9 39 59 3d
       -0.031769145 0.039182197 0.06262171 0.053033624
0001f0 8d 33 60 3b 56 7c 80 bc 7a 27 64 3d 24 33 12 be
       0.0034210414 -0.015684288 0.05570171 -0.14277321
000200 93 97 0c 3d 81 59 d6 3c cd 56 4f bc 47 b3 8d bd
       0.03432424 0.026165726 -0.012654972 -0.0691896
000210 d5 e8 ea bd 11 1a 64 3d 26 5e ca bc d9 27 6f 3c
       -0.114701904 0.05568892 -0.024703097 0.014596903
000220 85 40 ba 3c 92 c1 c6 bc a8 af 78 bd 18 d5 9d bd
       0.022735843 -0.024262223 -0.060714394 -0.0770666
000230 74 ab 13 bd ca c8 9a bd 17 38 f0 bc b3 f8 6b 3d
       -0.036052182 -0.07557829 -0.02932362 0.057610225
000240 86 0a 69 bd dc 8a e0 bd ae bd 4f 3b 7d d5 da bd
       -0.0568948 -0.10963985 0.0031698751 -0.10685251
000250 43 72 2c be 34 6e 1d be ad c9 16 bd c0 f7 0b bd
       -0.16840462 -0.1537407 -0.036813427 -0.03417182
000260 aa b2 dd 3d cb fa d0 bb da d7 c0 3d 1c 70 3b bd
       0.10825093 -0.006377553 0.094161704 -0.045761213
000270 0f d9 0c be 7b ff e9 bd 81 5d ca bd 10 1f 04 3d
       -0.13754676 -0.11425682 -0.09881116 0.032256186
000280 86 6d b2 bd 08 65 fc 3c f5 80 c5 bd 7f 93 64 bd
       -0.08712296 0.030809894 -0.09643737 -0.055804726
000290 1a 9d 1e 3d 17 58 74 3d 55 1e 99 3c eb 8e a4 bc
       0.038724042 0.05965432 0.018691221 -0.02008768
0002a0 fd 29 74 bd b1 a2 13 bd 83 e1 85 3d 24 2c f0 3b
       -0.059610356 -0.036043826 0.065371536 0.0073294807
0002b0 2b c7 c2 bd c7 8a 97 3d 65 fc b6 3a ad f1 11 bd
       -0.095106445 0.073995166 0.0013960717 -0.03563087
0002c0 30 27 cc 3c fb 47 a2 3c 00 ae 1f 3d 1c df 67 bd
       0.02492103 0.019809714 0.0389843 -0.056609258
0002d0 73 59 37 3b 6c 94 00 bd 5a 0d 39 3d e7 0e f3 bc
       0.00279769 -0.031391546 0.04517875 -0.029670192
0002e0 16 bd 7b 3d 13 fa ef bc 05 40 1b be 97 bd 82 bd
       0.061459623 -0.02929405 -0.1516114 -0.06383818
0002f0 02 84 49 bd f8 66 8f 3c 0d 52 07 bd d8 aa 33 bd
       -0.049198158 0.017505154 -0.033037234 -0.0438641
000300 aa 27 88 bd 43 d1 41 bd cc 2e 0d bd 44 be ef bd
       -0.0664819 -0.04731871 -0.034468457 -0.11706212
000310 a2 dd b1 3d c6 e9 3d 3d e8 60 f2 bd f2 6e 8c bd
       0.08684851 0.04636552 -0.1183489 -0.06857099
000320 f5 13 67 3d 85 ff 2f 3c 5f 2a d6 bc d7 ac 99 bc
       0.056415517 0.010742073 -0.026143251 -0.018759174
000330 0a 87 00 3d 89 3b 7a bd 16 73 96 bd 9f ce ed bd
       0.031378783 -0.061091933 -0.0734617 -0.116116755
000340 56 41 41 bb 0c 55 81 bd 07 79 fa bc b4 15 7a 3d
       -0.0029488406 -0.063150495 -0.030575288 0.061055854
000350 a6 9a 7a bd b0 24 bb bd 6c fb 50 3d 50 ad 5a 3c
       -0.06118264 -0.09137857 0.051021025 0.013346985
000360 23 63 c6 bd d2 b1 07 bd 2d 14 d6 bd 0d f4 aa 3d
       -0.096868776 -0.033128567 -0.10453067 0.0834733
000370 91 84 5e bd c7 94 13 3c 5e 2b 80 3d 49 30 bf bd
       -0.054325644 0.009007639 0.06258272 -0.093353815
000380 c5 47 f8 3c 4f 4d 1e bb c3 88 da bd 13 f9 98 bb
       0.03030766 -0.0024154966 -0.106706165 -0.004668364
000390 f9 9f 0a 3e 69 76 c5 bd a8 52 f7 3c 19 04 ef 3d
       0.13537587 -0.096417256 0.03019078 0.116707034
0003a0 1e a9 2e 3d 01 2f c1 3c 22 58 81 3d 0f c2 c0 3d
       0.04264175 0.023581984 0.06315638 0.09412014
0003b0 8b 8f 43 3d ad 4c 09 3d 49 af e7 3b 5f d0 e9 bc
       0.047744315 0.03352039 0.007070456 -0.028541742
0003c0 cc b1 0a be 05 a3 8d 3d 8a 5d d6 3d e7 c8 83 3d
       -0.13544387 0.06915859 0.1046706 0.064348035
0003d0 8d a7 20 bd f6 03 3e bc 45 48 21 be 4b b4 c1 bc
       -0.03922229 -0.011597624 -0.15750225 -0.02364554
0003e0 fb 45 ac 39 1a 71 ae bc 66 f9 27 bd d9 d9 90 bd
       0.00032858536 -0.021294165 -0.04100933 -0.07072801
0003f0 2a e6 84 bd 71 42 0b 3d c5 94 b4 3d 52 77 03 be
       -0.06489213 0.03399891 0.08817438 -0.12838486
