experiment_testing/mz-testing/checkpoints/ptbxl/100hz/cnn1d/fold_4/best.pt (torch, 628765 bytes, 26 tensors)

features.0.weight f4 [32, 12, 7]
00000000: 0b5c 033e e721 7d3d ea69 963d 213f e3bd
00000010: 5d45 14be b870 21be fd0d 01be 3849 013e
00000020: 7ae5 bbbd d36d 953d e029 293b d5a8 d03c
00000030: 01b8 64bd b18d f4bd 2863 cd3d 7e9a 01bb
00000040: ea25 67bd 78ef 243d 1de9 f93c ab6d e3bb
00000050: 87b5 643c 3f6f 9f3c 7c23 82bd faac b2bd
00000060: a90e bf3d f3c0 9d3c 95ef 3e3d 6000 ed3d
00000070: f108 cb3d 83d9 8cbd a62f a7bd 12bd 2c3c
00000080: 81b5 693d bc27 013d f114 303c b41a 5abb
00000090: 7371 7abd 187c 73bd 188a 5dbc f854 e2bd
000000a0: 3760 afbd 8dba c8bb 752a f73c 87b6 eebc
000000b0: c520 6abd d5fe 52bd 8032 5a3b 59f9 273d
000000c0: fc05 7f3d 2648 bf3d b469 183d c386 93bd
000000d0: ebf8 5fbd e5dc 933d abfd d1bd bf76 2f3c
000000e0: e0ca 98bd f6ce a63c b497 8a3c 71a4 e43d
000000f0: 2219 2e3d 0ae8 b73d b381 413d f299 82bd
00000100: f2b8 a03d 7c51 94bd de1a 5c3d f613 b73c
00000110: c5dd ea3d 884d 0fbd db44 89bc cd44 903c
00000120: 0ba4 9d3d ee5f 2fbd 8f30 c0bd 0519 d0bd
00000130: d027 ccbd 6154 863d 73f9 29bd c281 6bbd
00000140: 62ef dabd 0767 a83d 9c1b b33d 0667 19bd
00000150: d3c7 efbd 40ea 1abd 843d d3bd 39ba 35bd
00000160: f785 e4bd 145e 003e 6de5 e93d 3579 11be
00000170: 9322 0fbd 26fa f1bc e215 463d ce14 f43b
00000180: 8ae1 623d 4900 363c b45c fdbc 2fdc e6bd
00000190: b372 c53d ca1b f3bd d0c3 2c3d ec85 133d
000001a0: 16d5 373d d490 b93d 998d 17bd 8740 a63c
000001b0: 7566 2fbd 5072 d5bc 267e f43c 82d8 d2bd
000001c0: cc9c a0bc 438e c33d d205 93bd 2d41 03bd
000001d0: ddec 99bd d2f9 d93d 42ef cdbd 8392 d63d
000001e0: 5dba cfba 995a 0b3c 2798 dd3d 75a6 9fbc
000001f0: 47a7 97bd fe4c d73d a3af 043e 2302 173c
00000200: 7a99 7c3d 0122 aabd f043 1ebd 0102 1dbd
00000210: 8f3d f53d 8b4e a4bd fc54 debc 4d89 f0bb
00000220: 4023 10bd 9c15 b0bd 1c14 513d 1a9c 483d
00000230: 0b94 63bd 287d 7fbd 46dc 5d3c bf02 b9bc
00000240: a15e 243d 04d6 e43d c8ad 9d3d e147 b93d
00000250: f640 d3bd 9c71 a2bc 9c07 90bd 7c2b 72bd
00000260: e8c9 edbd b242 71bd 579f 873c 4c68 aa3c
00000270: e495 9cbd 1f58 593d c7d1 5d3c cc03 eebd
00000280: a517 723d 2989 ecbd 3e4f 863c 481d d93c
00000290: 8233 abbd 4bce be3d acc7 b63d 765a 12bd
000002a0: fa27 b43d 147f c2bd 4d01 a23d 7777 813d
000002b0: 3e18 8ebd 583f b1bd e622 e93d 3448 d6bd
000002c0: eadf 74bd 10fb 8f3d 32f6 79bc 10f7 193d
000002d0: 0d44 9f3d 8ef1 9a3d 8478 eebd d403 333a
000002e0: f6a7 8dbd e5b5 f63c 19dc b33b 771d 4639
000002f0: a5f6 59bd e4aa b3bd 5161 4fbd 2084 783b
00000300: 5d09 fa3c 2de6 bb3d bd7b 83bd 4078 163d
00000310: 0ff2 493d 0772 3ebd 1766 afbd cc95 debd
00000320: 12ef 93bd 5ad1 debb 018b 0dbd f925 063d
00000330: 55ad 4cbd f668 7f3b 249a d33d 8006 153d
00000340: f80c d43d 1bb8 f1bd abd0 aebd 8258 c03d
00000350: c2e0 cc3d e95d e73d a0f2 cc3d b81b 8abd
00000360: a0e2 95bd 9948 9fbd aa0e da3d 1ddf 56bd
00000370: 5606 b2bc e0a9 cfbd 7377 d13d 46ad 6d3d
00000380: 3cca 0fbd 3f9c bbbd 0319 593d 06b1 12bd
00000390: 56c0 12bd 0186 4a3d 21eb bb3c 124a ce3d
000003a0: 8b2e d6bd 9c4f 88bd 6e19 09ba 44e5 5ebd
000003b0: e192 913b 606f 753d 4fed 93bd b6c2 443d
000003c0: 142a 85bd daf7 353d 0738 27bc 9cab 183d
000003d0: cd0a 4abc f144 d03d 43a2 bbbd 970f b6bd
000003e0: 5ec5 a73c 857a aebd 8eb3 8a3d c93e d8bd
000003f0: 63ed 89bc 99ab 2abe af10 b1bd 2642 9d3c
0.1282808 0.06179991 0.0734442 -0.11096025 -0.14479585 -0.15765655 -0.12602992 0.12625587
-0.091746286 0.07296338 0.0025812313 0.02547113 -0.055839542 -0.11941088 0.10028678 -0.0019775922
-0.056432642 0.040267438 0.030506665 -0.0069405637 0.013959295 0.019462226 -0.06354424 -0.08724399
0.09328968 0.019257044 0.046615202 0.11572337 0.09913815 -0.068774246 -0.08163385 0.010543125
0.05705786 0.031532034 0.01074718 -0.0033280076 -0.06114335 -0.059444517 -0.013521694 -0.11051363
-0.085632734 -0.006125754 0.030171612 -0.02913977 -0.057160158 -0.051512558 0.003329426 0.04100928
0.062261567 0.09339933 0.03721018 -0.07203438 -0.054680746 0.07219867 -0.102534615 0.010709464
-0.0746057 0.020362359 0.01691804 0.11164177 0.042504437 0.08979805 0.04724283 -0.06377019
0.078477755 -0.072421044 0.05373656 0.022348385 0.114680804 -0.03498605 -0.016756466 0.017610932
0.07697304 -0.042816095 -0.09384262 -0.10161022 -0.09968531 0.06559063 -0.04149766 -0.057496794
-0.1069019 0.08222776 0.087455004 -0.037451766 -0.11708035 -0.037821054 -0.103144675 -0.04436705
-0.11158364 0.12535888 0.114207126 -0.14206393 -0.034945082 -0.029538225 0.048360713 0.007448769
0.055390872 0.011108466 -0.030927993 -0.112724654 0.09641018 -0.11870535 0.04217893 0.03601639
0.04488095 0.09060827 -0.037000272 0.02029444 -0.04282232 -0.026055485 0.029845309 -0.10295202
-0.019606017 0.09548619 -0.071788445 -0.03204458 -0.07515881 0.106433526 -0.100554004 0.10477164
-0.0015848387 0.008505487 0.108200364 -0.019488553 -0.074049525 0.10512732 0.12957625 0.009216818
0.061669804 -0.08307267 -0.03863901 -0.03833199 0.11974632 -0.080227934 -0.027140133 -0.0073405863
-0.035189867 -0.08597872 0.05104457 0.048976995 -0.055561107 -0.062375218 0.013541287 -0.022584317
0.040129308 0.11173633 0.07699162 0.09046913 -0.10315125 -0.019829564 -0.070327014 -0.0591235
-0.11610776 -0.058901496 0.016555471 0.020801686 -0.07645777 0.053062554 0.013538784 -0.11621818
0.05910458 -0.11549599 0.016395207 0.02650322 -0.08359434 0.09316691 0.08924803 -0.0357308
0.087966874 -0.094968945 0.07910404 0.06321614 -0.069382176 -0.0865466 0.113836095 -0.104629904
-0.059783854 0.07030308 -0.015256451 0.037589133 0.077766515 0.07565604 -0.1164408 0.00068288785
-0.06916802 0.030116031 0.005488884 0.00018893728 -0.053213734 -0.08772829 -0.050629918 0.003792055
0.030522043 0.09174762 -0.064200856 0.036735773 0.04930311 -0.046495464 -0.08564394 -0.10868415
-0.072233334 -0.006799859 -0.034556393 0.032751057 -0.04996999 0.0038972474 0.10332134 0.036383152
0.10354036 -0.118026935 -0.08535894 0.093918815 0.10003807 0.11297209 0.100072145 -0.06743568
-0.07318616 -0.07777519 0.10647328 -0.05245887 -0.021731537 -0.10139823 0.10227861 0.058026575
-0.035104975 -0.09160661 0.05300237 -0.035813354 -0.035827957 0.049444202 0.022939267 0.100727215
-0.10458096 -0.06655809 -0.00052299246 -0.054417863 0.004442558 0.05992067 -0.072229974 0.048037253
-0.065021664 0.044425823 -0.010206229 0.037273034 -0.012331677 0.101693995 -0.09161808 -0.08889692
0.020479854 -0.085194625 0.067725286 -0.1055885 -0.016836828 -0.16667022 -0.0864576 0.019196581

features.0.bias f4 [32]
00000000: 743c 80bd f55f 9dbd f787 02bc 574d 4dbc
00000010: b411 11bd e1ca f83b 6f05 c6bd 3247 8abc
00000020: 01fc 7f3d d53e 09bc 0041 82bd c992 ec3c
00000030: 1087 b4bd 3b59 97bd 5bb6 d23d e072 cebd
00000040: 459b 13bd ed4a c33d c036 873d b257 d13d
00000050: b78b 19bd 0f8b 553d fa3a d539 d79e 8d3c
00000060: 05cc 043c 3f40 a63d 8b23 9fbd 4a71 803c
00000070: faf2 17bd ee59 193c 1dc2 e7bd 13f3 c13d
-0.062615305 -0.07684318 -0.007966987 -0.012530646 -0.035417274 0.0075925444 -0.09669005 -0.016879652
0.06249619 -0.008376797 -0.06360054 0.028878586 -0.08814824 -0.07390066 0.10288688 -0.100805044
-0.03603675 0.09535775 0.066022396 0.10221805 -0.037486758 0.05213457 0.00040670467 0.017287655
0.008105283 0.08117723 -0.07770451 0.01567902 -0.037096955 0.00935982 -0.11316321 0.09470191

features.1.weight f4 [32]
00000000: 34d6 863f 14ee 823f 593a 813f ce36 7f3f
00000010: 9ed5 793f e307 823f 946a 7a3f 09e5 743f
00000020: a0f7 853f 5613 803f 3def 7e3f 853c 823f
00000030: 725a 7e3f e401 833f be8d 7e3f 2a83 7d3f
00000040: 8245 813f c984 7f3f 4c3b 743f 7be9 7f3f
00000050: 2b73 7c3f f2e4 7b3f 8133 823f 85ef 813f
00000060: 5a39 7b3f f946 7e3f 6ca8 863f 11d1 7e3f
00000070: 314a 793f 05d5 723f 84d5 7d3f 2224 7b3f
1.053412 1.0228906 1.0095931 0.99693 0.9759158 1.0158657 0.97818875 0.9566198
1.0466194 1.0005901 0.995838 1.0174719 0.9935676 1.0234952 0.9943503 0.99028265
1.0099337 0.9981199 0.9540298 0.9996564 0.9861323 0.9839622 1.0171968 1.015122
0.98134387 0.99327046 1.0520148 0.9953776 0.9737883 0.9485629 0.99153924 0.9810201

features.1.bias f4 [32]
00000000: e0e3 593d 265c 053e 8a99 933d 0b23 123c
00000010: 2ed0 17bd e1e8 533b 09a7 dfba 2675 70bd
00000020: 079c db3d 97de 023d 1dcb 003c 11db 453c
00000030: ea97 9bbc a234 4cbb 36fe 9d3d 79a0 863d
00000040: 3fa8 a83d e8bb e13c db39 e13c 6a27 a2bc
00000050: c044 f83a b952 2d3c 0f5f a73c 4a6c 293d
00000060: 6042 093d 446a a73c dd4c 6c3d eb3b d2bc
00000070: 8f1c 383c b087 84bb 3f11 113c 6e59 a43b
0.053195834 0.13023433 0.072070196 0.008919488 -0.03706377 0.0032334852 -0.001706333 -0.05870547
0.10723119 0.03195056 0.007860926 0.012076155 -0.018993337 -0.0031159301 0.077145025 0.065735765
0.082352154 0.027555421 0.027493408 -0.019794185 0.0018941388 0.010578805 0.02043107 0.041363038
0.033510566 0.020436414 0.05769049 -0.025663337 0.011237278 -0.0040444955 0.008854209 0.0050155437

features.1.running_mean f4 [32]
00000000: c534 80bd d7c6 9ebd 81cd fdbb ccbe 4cbc
00000010: bc06 10bd 8da5 f63b 396f c6bd 665b 89bc
00000020: 72fe 803d 7827 0cbc 5347 82bd fca8 e83c
00000030: 5d6d b3bd 2080 97bd d5e5 d23d 667b cebd
00000040: 57d4 13bd 8f05 c33d 05ae 863d 379a d23d
00000050: bbfb 18bd f34c 553d 3a67 f738 cfea 8b3c
00000060: 73f3 053c b032 a63d 3377 9fbd 74f3 7c3c
00000070: d9ec 18bd a43a 153c 8fac e7bd 7005 c23d
-0.06260065 -0.077527694 -0.0077454452 -0.012496661 -0.035162672 0.0075270594 -0.09689183 -0.016767215
0.062985316 -0.008554332 -0.0636126 0.02840089 -0.08761094 -0.07397485 0.10297743 -0.1008213
-0.036091175 0.095225446 0.0657616 0.102833204 -0.037349444 0.052075338 0.00011797105 0.017079739
0.008175719 0.081151366 -0.07786407 0.015438903 -0.03733525 0.009108219 -0.1131221 0.09473693

features.1.running_var f4 [32]
00000000: 72cc 433f 5b43 a43e 3171 d83e 778f d13e
00000010: dee8 493f e0d3 a53e 8c88 ac3e 1199 4b3f
00000020: 9f96 a63f d047 5e3f 1d90 db3e 59eb be3f
00000030: 74fe 8b3f 5f45 0b3f 827c 383f e7c9 283f
00000040: 60eb bd3e bf9b bf3e 6a09 1c3f 72b8 b33e
00000050: 0195 0d3f e970 1d3f fa9b 9d3e c60e 9d3f
00000060: f9d9 263f 6428 a53e 16e1 f33e d11f 093f
00000070: ebf2 c03e 2517 1e3f d05f 263f aca6 523e
0.76483834 0.32082638 0.42273858 0.40929767 0.7887095 0.3238821 0.33697927 0.79530436
1.3014716 0.8682833 0.42883387 1.4915572 1.0937028 0.54402727 0.72064984 0.6593308
0.3709364 0.37423512 0.60951865 0.35101658 0.55305487 0.6150041 0.30783063 1.2270133
0.6517635 0.32257378 0.47632664 0.53564173 0.37685332 0.61754066 0.6498995 0.20571393

features.4.weight f4 [64, 32, 5]
00000000: 1364 473d 323f babd 82b3 14bc 1177 1e3d
00000010: c649 adbb 9c17 4e3c dd88 0c3d 29ec e03c
00000020: bdbc 053c 792a 34bb 418a 9fbd 2ba5 95bd
00000030: db8c 8b3c 8c3b 7a3d 661f 42bc f402 073d
00000040: 7e96 7cbd 040c 803d 5e0d 4fbc ecc8 4a3d
00000050: 6110 b9bc b798 3a3d b8cb 7c3c 86cd cabb
00000060: acac 90bd 133f 1fbd bacc 243d c942 df3d
00000070: 4d0f 2bbd 0d7d 98bd 2936 03bd 0f74 973d
00000080: a57f b13b 3204 4bbd 78ed 16bd e6b4 b9ba
00000090: 1a58 38bc 0b10 5ebc e691 43bd a909 353c
000000a0: 3417 53bd d34e ca3d c7ef 0c3d 2946 973d
000000b0: 24c2 68bd 74dc 013d 212e 84bd 5ab7 2cbd
000000c0: c041 2dbd 2245 a3bd ba6e 573d 6502 523d
000000d0: 570f 343b 3b81 7bbd 4442 2abc 3e3d c3bc
000000e0: 1a75 ad3d 4692 ff3c 302c 7cbd 85d9 793d
000000f0: 9812 48bd ebdf 79bd f253 aebc c90a f5bc
00000100: 9be5 163d a9c7 273d b814 e6bc af5c ec3c
00000110: f387 93bd 106c a8bd bb5c e03c fe82 78bd
00000120: 909c cebd 9d06 293d de2b a1bd 08f4 59bd
00000130: b0a4 a2bd 73b2 a4bc ad2d 93bd 94d0 5fbd
00000140: 129e 40bd b324 fdbc e3f7 9cbd e986 a6bd
00000150: f113 f6bc 5852 023d f22d 61bc 0767 a3bc
00000160: a41c 5dbb 4677 843d bcb5 3f3d 3c5d 063d
00000170: a1fc 5fbb e956 d53c 56ec 0e3c 3202 3dbd
00000180: 35b2 b63c 1a34 aebd e050 8fbd 6c4b 833b
00000190: 46be 94bd 2d17 4cbd fc1c 893d 08e5 333d
000001a0: 54b0 c73c 235b f9bc a516 23bd d915 1fb9
000001b0: 87cc 9c3d 6e13 22bc 8513 fe3c 63c3 f7bb
000001c0: a41c 52bd 8737 2ebc 2d9d aabc ee71 1dbd
000001d0: e636 653d d8a3 80bd 9409 95bd 216c 29bd
000001e0: 0181 66bd 93a5 babc a837 42bd e13e 9dbb
000001f0: 8c16 703d 6a24 743d c8bc f33c f6ef 1bbd
00000200: c21b c5bc 5ad9 8cbd ae4a 11bd 1195 58bd
00000210: 5bcd 41bb f0fb 9dbc da69 e8bb 8e50 893d
00000220: 19aa 893d eaad 253d 218d 9bbb 00bb 5b3d
00000230: 25f5 e0bc b42d 3d3c ea50 8fbd bc71 883d
00000240: a453 da3c 26bd 143c 8401 0f3d 9240 8a3c
00000250: c121 3ebd da51 aabd a9da 373c c42a 25bd
00000260: fdae 993c 4b20 aabc 4c9d 443b e48d 7bbd
00000270: 12bf ba3c 1b18 293d 42b4 4b3c 7aa1 843c
00000280: c9d1 21bd fbaf 3dbd 4cda b4bd d802 82bd
00000290: c8cf 9cbd cb5c b53d e921 9d3d 1588 73bd
000002a0: a945 82bd 9c8c 743d 3d41 103c 8304 84bd
000002b0: 17ff babc 96a3 6abd 8c12 013d 63a4 113d
000002c0: 3da5 163d c4ae 84bd bb8b 353d 2db4 99bd
000002d0: 0334 9fbd fb8b b0bd 6a21 9ebd 137c 6d3b
000002e0: fa45 6bbc 1106 3f3c 8f62 793d 2c99 85bd
000002f0: 8a8a 80bd 7e4b ca3c f07c 743d 9749 4c3c
00000300: 265f 11bd 8c54 933c 5b47 b1bc 4fc8 9fbc
00000310: 11da 5b3d 78d1 44bd ed86 22bb 8409 443d
00000320: 9f00 c93d dbf8 383d 518f 063d 1088 b83c
00000330: a59b 373d 2643 e93c 6eb0 7ebd d179 bbbd
00000340: a0e4 f7bc bc94 5dbd 3b6b 25bd 223c c3bb
00000350: 4c50 1bbd 6fa2 583d c1c8 2cbd 1a9f 8d3d
00000360: c39c 6fba 6a4f ed3c f4f4 0e3d 3043 f3bc
00000370: 7b3a 18bd 7be6 3abd d9ef 23bd dc84 2c3d
00000380: c457 01bc 5236 713d 33ea d2bc 232f 77bd
00000390: cee1 bbbd f3f5 943d 4440 acbc d169 f9bb
000003a0: 359c 58bd 9006 bbbc ca09 b5bd ae4b 7ebd
000003b0: 507e bebd bc17 00bd bba4 5cbc cab0 eb3c
000003c0: 2a96 b4bd 80ac 55bd 911a 593c f406 5ebd
000003d0: 0779 f63c d807 133c 6b46 0f3c f6d8 c83c
000003e0: 3131 13bd 2c31 8a3d e6ba 0d3d dada 3cbd
000003f0: 797b 523d bf1e 35bd e0c1 a13c 87f1 55bd
0.048679423 -0.09094085 -0.009076001 0.03868777 -0.0052883355 0.012578871 0.03431021 0.02745636
0.0081626745 -0.0027491136 -0.07790042 -0.07306894 0.017034939 0.061091945 -0.011848306 0.0329618
-0.061666958 0.06252292 -0.012637464 0.04950802 -0.022590818 0.045555796 0.01542943 -0.006189051
-0.070641845 -0.03887851 0.040234305 0.1090141 -0.04176264 -0.074457265 -0.032034073 0.07395183
0.0054168277 -0.049564548 -0.03684756 -0.0014168292 -0.011251474 -0.01355363 -0.04774656 0.011049666
-0.0515358 0.09878316 0.034408357 0.07386429 -0.056825772 0.03170438 -0.06454111 -0.042167045
-0.042299032 -0.079721704 0.05259583 0.051271815 0.0027474964 -0.06140254 -0.0103917755 -0.023832913
0.08469601 0.031197678 -0.061565578 0.06099846 -0.048845857 -0.06100456 -0.021280263 -0.02991237
0.036840063 0.040961895 -0.028086051 0.028852789 -0.07203665 -0.08223736 0.027387967 -0.0606718
-0.10088456 0.041266073 -0.07869695 -0.053211242 -0.07941568 -0.020104622 -0.07186446 -0.054642275
-0.047025748 -0.030901289 -0.07664468 -0.08131201 -0.030038806 0.03181681 -0.013743864 -0.019946588
-0.0033738995 0.06468062 0.046804175 0.03280376 -0.0034177678 0.026042419 0.008723339 -0.04614467
0.022301773 -0.08506031 -0.069978476 0.0040067937 -0.07262854 -0.04982679 0.066949815 0.043919593
0.024376072 -0.030438965 -0.039816517 -0.0001517156 0.07656198 -0.009892328 0.031015167 -0.0075611337
-0.051296845 -0.010633356 -0.0208269 -0.03843873 0.05596056 -0.06281251 -0.072772175 -0.041362885
-0.05627537 -0.02278403 -0.04741636 -0.0047987555 0.058615252 0.05960504 0.029753104 -0.03807064
-0.024061088 -0.06877394 -0.03547161 -0.052876536 -0.0029571864 -0.019285172 -0.0070926966 0.06704818
0.06721897 0.04044906 -0.0047470485 0.053645134 -0.027460644 0.011546541 -0.06997855 0.06662318
0.026651211 0.0090783 0.034913555 0.016876493 -0.04641891 -0.08316393 0.011221566 -0.040323988
0.018760199 -0.020767352 0.0030000983 -0.061414614 0.022796188 0.041282754 0.0124331135 0.01619028
-0.039506707 -0.046310406 -0.08830699 -0.06348199 -0.07656819 0.088555895 0.076724835 -0.05945595
-0.06360943 0.059704408 0.0088046165 -0.06446173 -0.022826714 -0.057284914 0.03151183 0.035557162
0.036778677 -0.064786464 0.04432271 -0.07505069 -0.07773592 -0.08620449 -0.07721217 0.0036237284
-0.014359945 0.011659161 0.06088501 -0.06523356 -0.06276424 0.0246942 0.059689462 0.012468717
-0.03549113 0.017984651 -0.02164047 -0.019504694 0.05367476 -0.048051327 -0.002479966 0.047860637
0.098145716 0.045159202 0.03285152 0.022525817 0.04482617 0.028474402 -0.062179975 -0.09154094
-0.030260384 -0.054096922 -0.040385466 -0.005958096 -0.037918374 0.052889284 -0.04218364 0.06915112
-0.0009140486 0.028968532 0.034901574 -0.029695123 -0.037165146 -0.04562996 -0.04002366 0.042118892
-0.00789446 0.058889695 -0.02574644 -0.060347687 -0.09173928 0.072734736 -0.021026738 -0.0076114913
-0.052883346 -0.022830278 -0.08839758 -0.062083893 -0.09301436 -0.031272635 -0.013467009 0.028770823
-0.08817704 -0.052166462 0.013250963 -0.05420585 0.030087007 0.008974038 0.008744816 0.024517518
-0.035935584 0.0674766 0.03460207 -0.04610715 0.051387284 -0.044218775 0.019745767 -0.05223229

features.4.bias f4 [64]
00000000: 0ade 57bd 60e0 50bd 6a6f e0bc a5e4 843d
00000010: b3b5 62bd 713b 2ebc 833f 35bd 128c d3bc
00000020: e30e 523c 6c34 88bd 6e60 243d 7915 14bc
00000030: cafc 40bd ed7d 2a3d 40d7 4a3d 8566 69bd
00000040: 0f39 15bd 2c68 6a3d 9aa1 853d 5adb 28bc
00000050: 362e 633c a53a 4fbd d7eb 413d 842b 7abd
00000060: e04e b5bc faf3 de3b 4500 11bd f0ab 413d
00000070: 4747 b9bd 7b4b 99bd fa5b 2dbb d498 463d
00000080: 0706 8d3d 7481 973c 6a2e a6bc 2868 9d3b
00000090: 21a1 b9bc dee4 c3bb 9d35 58bd 1dcb 953d
000000a0: 109b db3c f388 1cbd 20c6 4c3d 1a74 18bd
000000b0: f808 0abd 4dd2 98bd 57b3 883d aebc 20bd
000000c0: 3137 a33c d711 97bd 3d2c 1c3d 8f57 993d
000000d0: d617 8f3d 306e 5c3c 0a4c 873d f7f4 df3d
000000e0: 47ef 00bc 0f0d 70bd d3ee d9bc 5423 b63c
000000f0: 7cfe 563c 6e05 573d b210 8fbd 26a0 df3b
-0.052701987 -0.05099523 -0.027396876 0.06488923 -0.055349063 -0.010634289 -0.044250023 -0.025823627
0.012820932 -0.06650624 0.040131025 -0.009038323 -0.04711608 0.041624 0.049521685 -0.056982536
-0.03643137 0.057228252 0.06524964 -0.010306204 0.013865998 -0.050593037 0.047344055 -0.061076656
-0.022132337 0.0068039866 -0.035400648 0.047283113 -0.09046798 -0.074851 -0.0026452527 0.048485592
0.06885915 0.018494345 -0.020285804 0.004803676 -0.02265984 -0.005978211 -0.052785505 0.073141314
0.026807338 -0.038216542 0.049993634 -0.037220098 -0.03369996 -0.07461987 0.06674831 -0.03924244
0.019923778 -0.073764496 0.038128126 0.074874036 0.06986968 0.013454005 0.066063 0.10935395
-0.007869548 -0.058606204 -0.026603138 0.022233643 0.013122197 0.052495413 -0.06985606 0.006824511

features.5.weight f4 [64]
00000000: a7bc 7e3f 6a9d 843f 5d52 7d3f 3269 7b3f
00000010: 5c71 763f 3152 873f e6e8 833f 6230 763f
00000020: 3d9c 7e3f 8f78 803f ab07 783f 9a4c 7b3f
00000030: 6481 763f ce0c 863f 5c72 833f 92dd 813f
00000040: 3235 7e3f 9824 793f 3272 803f 0278 7d3f
00000050: 779c 853f 58df 743f 7932 7f3f 3196 773f
00000060: 0f3a 793f af09 7c3f c6e9 783f 6b13 843f
00000070: 5654 753f 5c67 893f fd90 833f e130 7f3f
00000080: b2a8 813f 861d 773f 02d4 7c3f 763e 753f
00000090: ed4b 8b3f 347f 723f e9bc 6e3f d97d 733f
000000a0: 589c 7b3f 15b0 823f 5a16 7a3f 0896 7d3f
000000b0: e096 833f a956 863f 75e7 913f dbbc 7d3f
000000c0: 593e 833f d747 773f 752d 843f ef01 8b3f
000000d0: 44b6 6e3f fda5 743f f765 7a3f 5fa1 833f
000000e0: b6a3 803f 280f 813f a036 853f f8a1 763f
000000f0: 0af6 803f 6337 803f a509 8b3f 327e 783f
0.9950661 1.0360539 0.989538 0.9820739 0.9626672 1.0571958 1.030545 0.96167576
0.9945715 1.0036792 0.968867 0.9816376 0.96291184 1.0472658 1.0269275 1.0145743
0.9929992 0.9732146 1.003485 0.9901124 1.0438374 0.95653296 0.9968639 0.9671355
0.97354215 0.98452276 0.9723171 1.0318426 0.9583181 1.0734668 1.0278622 0.9968396
1.0129607 0.96529424 0.98761 0.9579843 1.0882546 0.94725347 0.93257004 0.95113903
0.98285437 1.0209986 0.97690356 0.99057055 1.0280418 1.0495197 1.139876 0.99116296
1.0253402 0.96593994 1.0326372 1.0859965 0.93246865 0.9556578 0.97811836 1.0283622
1.0049961 1.008275 1.0407295 0.96340895 1.0075085 1.0016903 1.0862318 0.9706756

features.5.bias f4 [64]
00000000: 6230 e5bc 9e88 b3bc 4ca8 0bbc 1261 4cbc
00000010: 4424 85bd 8187 6bbd 7abf 7dbc 3a8a ff3b
00000020: 2503 733c 4c91 b5bc 285e 7abd 07c3 12bd
00000030: 5d95 94bb c176 d9bc 3329 50bd ca30 31bd
00000040: c5fc 85bc 6cf0 c13b 06b5 a7bb 79f0 afbc
00000050: c7fc 1e3d 7c7a 8bbc 2846 51bd 5756 90bd
00000060: e2dd 84bc f503 bebc 046c 10bd 11c9 163b
00000070: 8734 b4bc 72bd eabc aace 54bc 053c 97bc
00000080: 4d5f 0d3a ab1c 10bd 150a 60bb d0ae abba
00000090: 3e0f b6bc fbb0 1bbd 0504 7dbd 44c2 86bd
000000a0: c811 35bd 5d61 d63a e719 c4bc d3fa cf3c
000000b0: e428 5dbd 367a e4ba 46e2 51bc 89c8 7bbd
000000c0: 09f7 a73c 63b1 d5bc ba5f 8fbc 8728 553b
000000d0: 3ebe 323b 9e02 0fbd 6afd 07bd d866 5b3d
000000e0: 539d 8abc 065a d1bc 24ac 05bd 948a 9abc
000000f0: c811 1abd 9634 3cbc bd7f 033d fc92 0bbd
-0.027977172 -0.02191573 -0.008524012 -0.012474315 -0.06501058 -0.057502273 -0.015487546 0.0077984603
0.014832293 -0.02216401 -0.06112495 -0.035830524 -0.004534407 -0.026545884 -0.05082054 -0.04325942
-0.016355881 0.005918553 -0.005118015 -0.021476971 0.038815286 -0.017026179 -0.051092297 -0.07047718
-0.016219083 -0.023195246 -0.03525926 0.0023008029 -0.021997703 -0.028654788 -0.012988726 -0.018461237
0.0005392924 -0.03518359 -0.0034185697 -0.0013098363 -0.022224065 -0.03801058 -0.06177141 -0.06580022
-0.04420641 0.0016355921 -0.023938132 0.025388157 -0.053994074 -0.0017431441 -0.012810295 -0.061470542
0.020503538 -0.026085561 -0.0175017 0.0032525377 0.0027274038 -0.034914605 -0.03320066 0.053564876
-0.016920721 -0.025555622 -0.03263487 -0.018864907 -0.037614614 -0.011487147 0.032104243 -0.034075722

features.5.running_mean f4 [64]
00000000: bddf 0ebf 7e2b 03bf bff4 7fbd d6f8 cd3d
00000010: 289c 7abe 5b1a 72bd 19b9 49bf e39f 9a3b
00000020: 41bd 343e 7e76 68be f61e 2b3f c9aa 073e
00000030: 8efb 933c 0c35 a2be 5ac8 c2be a78c 65bd
00000040: d3ef 25be f82c 683e 6543 f73d 989d 95be
00000050: 728b 65be 8e7b dfbd 8fa2 aa3e 4fb0 0cbb
00000060: ae7d 19be 88db be3a 3d0a 99be b4cb 90be
00000070: 5dbf 8e3d 716b 1dbf 10d6 f4be d67c ecbe
00000080: f02b b0be 6c48 1e3e 0840 ecbe 2f56 013e
00000090: aeb6 07bf be61 193e 68ed efbe 4653 aabd
000000a0: f2f7 22bd b1c8 b9be 11ed 84be 5a92 0ebf
000000b0: d8f8 fcbd b173 02bf a072 b0bd b7b0 fcbe
000000c0: e9d1 86be 32c4 56be b9f2 e8be 6903 0fbe
000000d0: 4814 51be b3a6 bebe 6b5c 033f 7131 96be
000000e0: 5961 94bd b9ab b6be ac03 3bbf 242e 46be
000000f0: ce13 413f 6e39 49be 3e97 c0be 2bd2 753e
-0.5581015 -0.5123824 -0.062489267 0.10057227 -0.24473631 -0.059107166 -0.7879806 0.004718767
0.1765032 -0.22701451 0.6684412 0.13248743 0.018064287 -0.31681097 -0.3804348 -0.05604234
-0.16204767 0.22673404 0.12073401 -0.29221797 -0.22416475 -0.10912238 0.33327147 -0.0021467393
-0.14989349 0.0014561275 -0.29890624 -0.28280413 0.069700934 -0.6149207 -0.47819567 -0.46188992
-0.34408522 0.15457314 -0.46142602 0.12630533 -0.5301312 0.14978692 -0.46860814 -0.083166644
-0.03978724 -0.36285928 -0.25962117 -0.55692065 -0.12352151 -0.5095778 -0.08615613 -0.49353573
-0.26332024 -0.2097328 -0.45497683 -0.13966145 -0.20417893 -0.37236556 0.51312894 -0.29334596
-0.0724513 -0.3567789 -0.7305248 -0.19353539 0.75420845 -0.19650814 -0.3761539 0.24005954

features.5.running_var f4 [64]
00000000: a910 113f 6c48 053f d763 793e 24c0 993e
00000010: cac7 523e 0116 993e c2e1 9f3f 32a4 853e
00000020: 7cae b33e e6f9 413e 5beb e73e f600 a03e
00000030: f758 be3e a46f 0e3f 6199 a03e 9e5a fa3e
00000040: 778b 003f ddc7 b23e c763 0f3e 9639 8a3e
00000050: 926a fe3e 5167 cb3e 6ff3 d23e d91e ee3e
00000060: 4b98 7c3e a670 cf3d 389b 9b3e d8ab 533e
00000070: f132 913e dac4 973e 0679 a83e fef7 7d3e
00000080: a228 bc3e 3013 0d3f 6b28 f63e 448b 073f
00000090: 5f59 df3e 7ec7 b73e d25a 3e3f 5ee2 973e
000000a0: 4dd4 4a3f 3e3e 913e 45a9 a03e b6d0 973e
000000b0: 5cc6 ac3e a7fc b63e d1de 403e c526 363f
000000c0: 565f 453e ed7a ed3e f46f e43e fa64 8f3e
000000d0: 9a82 b93e 03d8 db3e e95a 133f a512 af3e
000000e0: ac81 db3e 7a68 c23e 3b43 5c3f bbd2 943e
000000f0: 29c1 073f 9130 663f f648 6f3e 1fac d13e
0.56666046 0.5206363 0.24354492 0.30029404 0.20584026 0.298996 1.2490771 0.26101834
0.3509406 0.18942985 0.4529675 0.31250733 0.3717725 0.556391 0.3136702 0.4889726
0.50212806 0.3491811 0.14002906 0.2699706 0.49690682 0.39727262 0.4120135 0.4650791
0.2466747 0.10128908 0.3039186 0.20671022 0.28359178 0.29642373 0.32904834 0.24801633
0.3674975 0.551074 0.4807771 0.5294688 0.43622872 0.35894388 0.7435733 0.29664892
0.79230195 0.283678 0.31379142 0.2965142 0.33745086 0.35739633 0.18834998 0.7115291
0.19274649 0.46382847 0.44616663 0.28006727 0.36232454 0.4293824 0.5756059 0.34193912
0.4287237 0.37970334 0.86040086 0.29067025 0.53029114 0.89917856 0.23367676 0.4095163

features.8.weight f4 [128, 64, 5]
00000000: 7649 f5bc 36b0 96bd 064a c33c 90e9 d43c
00000010: 92a2 8fbc 01f5 1bbd 3ee3 423c 4331 5fbd
00000020: de62 ebbc 6396 693c 5c38 0b3d cdc9 10bd
00000030: af82 563d b4da 533c fec0 433d cefb 80bd
00000040: e3e7 293d e6ff bebc 9234 bfbc d255 983c
00000050: 95da 663c 1fb4 4ebc be6b 143c 1da9 22bb
00000060: 3b08 303d d26a 16bd 56ec 973c a5e1 483d
00000070: 74b0 cebc 390f 8abd 6d4e a03d 9eb9 013c
00000080: 4df0 0bbc b8d1 05bd 73e6 2c3d b107 5f3d
00000090: 348d 2cbd 52fb 5ebc 3714 3f3b a37a 453d
000000a0: 2f61 8ebd 0565 943c cf71 143d 4c80 38bc
000000b0: 5091 833d e94f 153d 30e1 36b9 69b1 46bd
000000c0: 5941 193d fd16 1bbd 5bad 82bc 0082 36bd
000000d0: 9bdf 73bd 4ae8 fd3c f813 47bd 3884 923b
000000e0: e04c 60bb 0d37 223d 2057 a33d adf6 063b
000000f0: d5e6 80bc a8e0 503d 1c35 1fbd 58eb 1fbd
00000100: bd8a be3c 2c41 2b3c 6179 4a3d fdb3 9abc
00000110: 965e 74bd 6ed2 9f3d 0822 733d 1711 72bc
00000120: f744 213d 3240 b9bc 28c6 3f3d 5369 a9bc
00000130: 9d29 b23d 1e25 523d 461a 6f3d 228d 973c
00000140: 710e 653d 6a64 d4ba 0862 44ba 9f4a 8638
00000150: 0af2 f73c 161c ac3b 824a a23c 7c7f 2a3d
00000160: 94de 32bc 979c 513d 33c6 183d 8edb 5d3d
00000170: f31f 1e3d 4a6b 8a3c 2b7a 0c3d 8a44 50bd
00000180: a7df d93c c402 c73c 204a 81ba 97ea cd3c
00000190: c572 1a3d 9018 05ba 5c2b 9c3c 714c 173d
000001a0: c276 973d b7aa 2d3d d8e1 4b3d 16cf 003d
000001b0: bfd2 82bc 336d 8bbc e9fb 46bd 1402 86bc
000001c0: 45ab 573c 7ecd a2bc 89aa 913d b90c d439
000001d0: db3c 053c 8a45 88bb 0f60 d53c ae7f 933c
000001e0: fe96 debc eaba 723d 1501 d7bb 9f50 ff3c
000001f0: 24ca 033d 240f 25bd cc57 4e3c 6a38 24bc
00000200: 8e11 4bbd 450a eb3c b406 8e3c fe01 15bd
00000210: c99d 08bb d7cb c03b 791d 5abc 6183 363d
00000220: 3806 983c 6b09 c63c 90b5 333d aa5c d4bd
00000230: c797 9abc 06b0 d33c fe2f 403d 4bfc 7fbc
00000240: 8afa 653c 4a2d a03d 0f04 113d 9513 403d
00000250: 78d2 b1bb daf2 b23b 838e 313c b1bc 473d
00000260: 3346 a0bd b567 d6bd 66c4 f8bc 7546 12bc
00000270: 7b7f 9abb 53be 003c 59ae 823d 01bf 993d
00000280: 10ee 723c 11c0 013d 4a7c 0f3d b594 203c
00000290: e8ec c13b ee10 44bd 3f29 6e3d 4d2d c43c
000002a0: 5df2 3bbd ecca f53b 7a05 ba3c 7c9b 24bd
000002b0: a03b 9fbb d686 fbbc cac4 9ebb 2506 c83c
000002c0: 782a 5c3d 7e21 0cbc 840f 613d 8985 03bc
000002d0: 1a35 a83d 769f 5cbd fbfe efbc 6de5 66bb
000002e0: 6bf9 fdbc 2a6d f6bc 6370 003d 151f 803c
000002f0: 065a f53c f2e4 89bc a755 993d 2a38 3bbd
00000300: 44e4 88bd 4bdf a43c 8850 dcbc fb4e 2cbc
00000310: 11f1 01bd 46d2 7b3c 4bce 3f3d f156 9f3c
00000320: 6498 b5bc f28d 903c 2d34 03bd 1e20 a1bc
00000330: 1d6d f03c 35b4 193d 17df 363c 17fc 153d
00000340: 87ff 843d 48a6 f0bc 6584 48bc 474a ad3c
00000350: 4e06 db3c 1269 bebc fcfa d03c ca8d c0bc
00000360: ed5a 613d 02c9 053c 9523 98bd 27ca 983c
00000370: 35f1 973d 5fd5 8d3d bb72 ef3c 63c6 bf3b
00000380: 5f90 2dbd 1572 80bd e9bf 873d 7858 1cbc
00000390: e850 463d 9186 243d cec7 ce3d eec2 633d
000003a0: 10b7 b5bc 7ef1 a8bc f05b 86bd 09f9 ea3c
000003b0: 4575 10bd b13f 93bc 9ddf 013d fa5e 903b
000003c0: a246 8b3d 090f 3e3c 7428 a7ba 5757 84bd
000003d0: 7b24 973d 794b 92bc fa68 d2bc 8268 dfbb
000003e0: 363e 723d 8d61 c43b 38d3 83bd ff2d 19bd
000003f0: 6578 01bc 2ce0 b23a 1792 08bb ce19 1a3a
-0.029942255 -0.07357828 0.023839008 0.025990278 -0.017533574 -0.03807545 0.011894999 -0.05449034
-0.028733667 0.014257046 0.033989295 -0.035348702 0.052370723 0.012930561 0.047791474 -0.06298028
0.04148091 -0.023315381 -0.023340497 0.01859561 0.0140902 -0.012616186 0.009058891 -0.0024820038
0.0429766 -0.036722966 0.018545311 0.049043316 -0.025230624 -0.06741185 0.078274585 0.00791779
-0.008541179 -0.032670707 0.04221196 0.054450694 -0.04212685 -0.013609724 0.0029156336 0.04821266
-0.0695213 0.018114576 0.03624135 -0.011261057 0.064242005 0.03645316 -0.00017440761 -0.048509035
0.037415836 -0.03786372 -0.015951803 -0.04455757 -0.05953942 0.030994553 -0.048603028 0.004471328
-0.0034225509 0.03960328 0.07975602 0.0020593808 -0.01573507 0.0509955 -0.03886901 -0.0390428
0.023259515 0.01045255 0.049432162 -0.018884653 -0.059660517 0.07803808 0.059358627 -0.014774582
0.03937241 -0.022613619 0.046819836 -0.020680105 0.08699343 0.05130493 0.058374666 0.018499915
0.055921976 -0.0016204242 -0.00074914144 6.403517e-05 0.03026678 0.0052523715 0.019810919 0.041625485
-0.010917325 0.051174726 0.037298393 0.05416446 0.038604688 0.016896863 0.034296196 -0.050846614
0.026595904 0.024293311 -0.000986401 0.025136275 0.03770711 -0.00050772075 0.019063644 0.036938135
0.07395698 0.042399134 0.04977593 0.031447493 -0.015969632 -0.017019844 -0.048580084 -0.016358413
0.013163392 -0.019873377 0.07112605 0.0004044527 0.008132185 -0.0041586803 0.02604678 0.018005218
-0.027171608 0.059260286 -0.0065614083 0.031166373 0.0321752 -0.040297642 0.012594175 -0.010023216
-0.04957729 0.02869142 0.01733718 -0.036378853 -0.0020846 0.0058836746 -0.013312691 0.044558886
0.018557653 0.024174413 0.043874323 -0.10369237 -0.018871201 0.02584077 0.04692077 -0.015624116
0.014036784 0.07821138 0.03540426 0.046893675 -0.005426701 0.005461079 0.0108372 0.048763935
-0.078258894 -0.10468999 -0.030367088 -0.008927931 -0.004714904 0.007857877 0.063809104 0.07507134
0.014827266 0.03167731 0.03503064 0.0098010795 0.005918134 -0.047867708 0.058144804 0.023947382
-0.045885433 0.007500997 0.02270769 -0.040187344 -0.004859403 -0.030703943 -0.0048452364 0.024416992
0.05375144 -0.008552907 0.054946437 -0.008027443 0.08213253 -0.05386301 -0.029296389 -0.0035231963
-0.03100272 -0.03008135 0.03135718 0.015639821 0.029950153 -0.016832802 0.0748704 -0.04570786
-0.06684163 0.020126006 -0.026893869 -0.010516877 -0.03172404 0.015369957 0.046827596 0.019450637
-0.022167392 0.01764581 -0.03203218 -0.019668635 0.029348904 0.037525374 0.011161587 0.036617365
0.064940505 -0.029376164 -0.012238597 0.021153582 0.026736405 -0.02324346 0.025510304 -0.02350511
0.055018354 0.0081656 -0.07428662 0.018651081 0.074190535 0.06925463 0.029229512 0.005852507
-0.04237401 -0.062717594 0.06628401 -0.009542577 0.048417002 0.040167395 0.100967035 0.05560582
-0.022182018 -0.020622965 -0.065605044 0.028683202 -0.035268087 -0.017974706 0.031707395 0.0044058533
0.068005815 0.011600264 -0.0012753145 -0.06461971 0.07380005 -0.017858254 -0.025684822 -0.006817878
0.05914136 0.0059930743 -0.06436771 -0.03739738 -0.007902239 0.0013647131 -0.002083903 0.0005878479

features.8.bias f4 [128]
00000000: 3d75 29bd 4028 32bd 807f 09bd 0949 7d3d
00000010: d06a 21bd 3c71 fcb9 e2e1 853c 2314 da3c
00000020: 3b1e 09bd 4534 42bd 2c91 3d3c 0099 fabb
00000030: c778 203c 0738 3aba ef98 6fbd 33d4 873c
00000040: 552f 40bd fe6e 07bd 4c16 033b 4369 cebc
00000050: bbff da3d 9fe8 8abd ac85 8c3d 7795 5fbc
00000060: 8346 08bc f6d7 2bbd ae32 f23c bc95 26bd
00000070: 3783 f43c 4e01 243d a5f8 08bd 7af7 f73c
00000080: 96e3 563d 09ed c0bb ee98 4b3d 9574 1cbd
00000090: f138 eabc 12b4 043d 9dd5 53bd 063d 43bd
000000a0: 5ac7 53bc 1287 bfbc bd35 593d dc37 293d
000000b0: f6f0 a8bc 48e0 63bc 0306 1a3d 8ee4 7a3c
000000c0: 0359 31bd 2a9b fcbc 02d7 fcbb d0d3 93bc
000000d0: f19f 203d b187 bbbc 1594 a63c 2817 ef3b
000000e0: 9d4d f73c b530 223d a6ba bdbc 461d 8a3d
000000f0: 3efb 04bd 4ea9 70bc b457 ff3c 82e6 65bd
00000100: 3627 e8bc 0b2d acbd 12cf 853c 476a 0b3d
00000110: c4c3 493d e567 0fbd 6fd4 25bd 90fe 753d
00000120: 0d8c 3f3d 7b22 93bd a29d 1d3d c8e9 3f3b
00000130: f08a d83a 4771 4bbd a9cd b2bc 1961 00bd
00000140: 014a 193d 845a 1dbd 0904 a7bc 6c71 153d
00000150: 6005 283d c7f2 443c 78a6 8dbd 8d0d ba3b
00000160: 98fe 8fbc 0f42 18bd 6d38 a73c 5417 433d
00000170: 4b3b 623c 1388 15bb da4f afbc 8ecd 5ebd
00000180: f029 2fbd e250 113d 862d e6bc 9460 89bd
00000190: ccd8 a33c 04f5 db3c 4656 263c 0dbf 95bb
000001a0: 7173 243d 2915 263d 7f68 54bd b1c5 293b
000001b0: 9461 b3bb deec 353b 4f1a 89bd bcc6 3e3d
000001c0: e508 783d 9941 51bd 748d 9f3c 2507 6dbc
000001d0: 6c95 22bd 8521 1dbd c941 0cbd 8892 14bd
000001e0: 77cd 883c 8874 62b9 d7e3 603d 265d 14bd
000001f0: dd45 f33b 2ae1 9bbc a9a9 9f3c 8fe1 e43b
-0.041371573 -0.043495417 -0.03356886 0.06183723 -0.039408505 -0.00048149552 0.01634306 0.02662093
-0.033476096 -0.04741313 0.011570256 -0.0076476336 0.009794421 -0.00071036856 -0.05849546 0.016580677
-0.04692014 -0.033064835 0.0020002304 -0.025196677 0.10693308 -0.0678265 0.068614334 -0.013646475
-0.008317593 -0.041954003 0.029565182 -0.04067014 0.029847724 0.040040307 -0.03344025 0.030269373
0.052463137 -0.005887632 0.049706392 -0.03819712 -0.028591605 0.03239829 -0.05171739 -0.04766562
-0.012925947 -0.023379836 0.053029764 0.041313037 -0.020622712 -0.013908453 0.03760339 0.015313281
-0.04329778 -0.030835707 -0.0077160606 -0.018045336 0.039215032 -0.022891851 0.020334283 0.0072964616
0.030188376 0.039597232 -0.02316029 0.06743865 -0.032466166 -0.014688803 0.03116975 -0.056128033
-0.02833901 -0.08407029 0.01633409 0.0340369 0.049258962 -0.03501119 -0.040485796 0.060057223
0.046764422 -0.07184311 0.03848041 0.0029283632 0.0016520899 -0.049668577 -0.021826582 -0.0313426
0.03742409 -0.0384164 -0.020387666 0.03648512 0.04102075 0.012020773 -0.06916517 0.005677885
-0.017577454 -0.037172373 0.020412648 0.04762967 0.013808082 -0.0022816702 -0.02140038 -0.05439525
-0.042764604 0.035477526 -0.02809788 -0.06707874 0.020000838 0.026850231 0.010152405 -0.004569894
0.040149156 0.040547524 -0.051857468 0.0025905187 -0.0054742787 0.0027759592 -0.06694471 0.046576247
0.060555357 -0.05108795 0.01947663 -0.014467035 -0.03969328 -0.038362045 -0.034242425 -0.036272556
0.016699536 -0.00021596451 0.054904785 -0.036221646 0.0074241 -0.019028265 0.01949008 0.0069848965

features.9.weight f4 [128]
00000000: ec1b 6e3f c7e4 843f 0eb8 683f 80c3 7b3f
00000010: 17a9 713f 2a1b 823f d091 6f3f f808 783f
00000020: 67cf 6d3f 1c0b 723f 0fdb 753f f5e1 753f
00000030: 5e64 803f 9e9b 823f 5b4a 803f 08e6 843f
00000040: 9b97 7a3f 54aa 823f 9189 813f 09cb 6c3f
00000050: 85da 823f 3293 823f e672 803f f971 763f
00000060: 857f 753f 302d 7e3f 019d 7c3f 1c8f 723f
00000070: 4777 6c3f 99f7 833f 81a6 6a3f c75c 7f3f
00000080: 942a 733f 26cb 7a3f 6574 7b3f be78 833f
00000090: 512a 813f 3250 753f 14c6 803f 617c 703f
000000a0: 4efb 7d3f a8c8 753f 8bef 783f 381c 713f
000000b0: d9ab 723f 1877 703f 69e6 783f 3575 6e3f
000000c0: 8f1b 7a3f 66e4 893f b7a3 803f cd31 853f
000000d0: c241 7f3f d114 783f ee8e 883f 15d0 6d3f
000000e0: d990 723f e660 813f 88d8 823f 2b91 7a3f
000000f0: ed77 793f 615a 783f 7a50 7f3f 82ed 6f3f
00000100: 3e31 783f 5cc3 783f 113c 7c3f 9a3e 803f
00000110: 9952 733f fd10 813f e8c4 773f 84c6 863f
00000120: ba47 853f a66f 833f 1840 863f d039 7a3f
00000130: bfd4 773f d039 7a3f c871 7f3f 48f8 713f
00000140: 8eab 703f 147a 843f ad6e 7a3f 3254 773f
00000150: c2f5 7f3f 2db0 803f 4998 843f 0378 7a3f
00000160: b738 7d3f 66e3 7c3f 19f8 853f a87b 723f
00000170: d0f0 703f 7d7e 7e3f 7e4f 6e3f 199d 733f
00000180: 96a1 813f 3482 873f fcfb 6c3f 7374 833f
00000190: 979b 813f 09e5 853f 51ac 763f b1bf 7e3f
000001a0: d61b 783f 9546 7a3f c662 863f c166 7d3f
000001b0: 06df 853f b3cb 783f 9fa4 7d3f fe47 823f
000001c0: 0673 803f f7ce 823f efe2 793f 7397 7b3f
000001d0: 3986 7a3f e071 8e3f 4190 813f 5a46 713f
000001e0: 1d5f 813f eaf1 713f fed1 823f cd10 793f
000001f0: 5865 713f 89ef 833f d433 723f 55dd 773f
0.93011355 1.0382317 0.90905845 0.98345184 0.94398636 1.016454 0.9358187 0.96888685
0.92894596 0.945482 0.9603738 0.9604791 1.003063 1.0203741 1.0022691 1.03827
0.9788758 1.020823 1.0120107 0.9249731 1.0222937 1.020117 1.0035064 0.9626766
0.95897704 0.992877 0.9867707 0.9474962 0.923695 1.0309936 0.91660315 0.9975094
0.94986844 0.9796623 0.9822448 1.0271223 1.0091039 0.95825493 1.0060449 0.9393979
0.99211586 0.960093 0.97240514 0.94183683 0.9479347 0.9393172 0.9722658 0.93147594
0.976983 1.0772827 1.0049962 1.0405823 0.99709713 0.96906763 1.0668619 0.92895633
0.9475227 1.0107696 1.022233 0.9787776 0.9744862 0.9701291 0.9973217 0.93721783
0.9695014 0.97173095 0.98529154 1.0019104 0.9504791 1.008331 0.9678483 1.0529332
1.0412514 1.0268447 1.048831 0.97744465 0.96809 0.97744465 0.9978299 0.9451947
0.9401177 1.0349755 0.9782513 0.96612847 0.9998437 1.0053765 1.0358974 0.97839373
0.98914665 0.9878448 1.0466338 0.94719934 0.9411745 0.99411756 0.93090045 0.95161587
1.0127437 1.058661 0.92572 1.0269912 1.0125607 1.0460521 0.96356684 0.9951125
0.96917474 0.9776395 1.0498893 0.98984915 1.0458686 0.9718582 0.99079317 1.017822
1.0035102 1.0219411 0.976119 0.9827797 0.9786106 1.1128502 1.0122148 0.9424797
1.0107151 0.94509757 1.0220335 0.9729126 0.94295263 1.0307475 0.94610333 0.968221

features.9.bias f4 [128]
00000000: fe02 a5bd 669e 8dbd 2ffe c6bd df9b b5bd
00000010: 4dbc 45bd 4400 0fbd 8ee3 93bd e8fb b9bc
00000020: 626c 5dbd dee4 b1bd 5a0a 09bd b4f5 c8bd
00000030: 8b59 73bd 2441 84bd 7fa1 04bd 16ae 53bd
00000040: 292a e9bc c1c0 a43b 0ab6 bfbc 5533 5bbd
00000050: 818f 21bd e155 f4bc d57d f5bc a2b2 60bd
00000060: d694 9abd 1668 2dbd 9a76 09bd 96d1 9cbd
00000070: f866 69bd 9673 b6bd 8f16 a3bd eeeb a1bd
00000080: a2b1 9bbb 5c38 4ebd cec8 e5bd 04ce e1bb
00000090: c82f 9ebd 829a a5bd 208d 85bd 0d2b 8dbd
000000a0: fda8 6cbd 2f5b 78bd 17b4 56bd b871 57bd
000000b0: d4e4 1ebd 5ba4 60bd 5e06 ebbd 3246 d6bc
000000c0: 7c40 64bd a922 18bd 128e a5bd 3f8e d1bd
000000d0: 3061 4ebd b203 a8bc a6d6 0cbe a6e6 b6bc
000000e0: 7672 afbd d990 73bc 8695 b7bd 7a19 84bc
000000f0: bae9 85bd 0f31 a6bd adc1 4cbd 32d2 95bd
00000100: e0fa 3abd b406 20bd 9f50 20bd dea5 8ebc
00000110: c2bd 50bd 87cb a3bd 9f00 6dbc 89ab 9fbd
00000120: 3e72 f3bd 51ea b5bd fdd4 07be 895c bebd
00000130: eead 0dbd b67e 0fbd 4955 9abd 714f 24bd
00000140: a3c1 53bd e1d4 f7bc 82b8 8abc 1442 90bd
00000150: 0303 47bd 3ac9 25bd 0614 433c cba5 64bd
00000160: f503 1ebe 169f 48bd 6ed8 dfbc 7a15 3fbd
00000170: 0bdf 84bd 66a4 a5bd c15f 16bd 128b e7bc
00000180: 44b4 05bd 7000 35bd 784f acbc 8487 30bc
00000190: 8901 3fbd 1614 67bc 487c f8bc 56b5 4abc
000001a0: 99d7 42bd be79 d5bc e14a d3bd 9834 0abd
000001b0: 94a6 fdbc 9faf b4bc 09ec 7bbd 95b6 29bd
000001c0: fbf7 4dbd 2b49 fdbc 3330 c1bd 6eaf c8bd
000001d0: 23e3 43bd a1e9 8bbd 38b6 9dbd 59a5 8abd
000001e0: 4b4c 40bd 25b4 57bd d3a2 8dbc f01e d6bd
000001f0: da27 90bd c79b 4ebd f44d 44bd 74fe 9bbd
-0.08057211 -0.06914978 -0.097164504 -0.08867621 -0.04827528 -0.034912363 -0.07221137 -0.022703126
-0.05405844 -0.08686231 -0.033457138 -0.09812489 -0.059411567 -0.06457737 -0.032380577 -0.051679693
-0.028462486 0.005027861 -0.023402233 -0.05351575 -0.039443497 -0.029826107 -0.029967228 -0.054857858
-0.075479195 -0.042335592 -0.033560373 -0.07657163 -0.056982964 -0.08908765 -0.07963287 -0.07906328
-0.0047514 -0.050346717 -0.11219941 -0.006891014 -0.07723957 -0.08086111 -0.06521058 -0.06892977
-0.057778347 -0.060633834 -0.05241784 -0.052598685 -0.038792446 -0.05484424 -0.11475824 -0.026156519
-0.05572556 -0.03714243 -0.080837384 -0.102322094 -0.050385654 -0.020509575 -0.13753757 -0.022326779
-0.085667536 -0.014866077 -0.08964066 -0.01612543 -0.065387204 -0.08114826 -0.04998939 -0.07315482
-0.04564941 -0.039068893 -0.039139386 -0.017413076 -0.050962217 -0.07997804 -0.01446548 -0.077963896
-0.11887024 -0.08882583 -0.13264842 -0.092949934 -0.0345897 -0.03503295 -0.07535798 -0.040114824
-0.05169834 -0.030252876 -0.016933683 -0.070438534 -0.048586857 -0.040475108 0.011906629 -0.055822175
-0.15431197 -0.04897984 -0.027324881 -0.04665134 -0.064878546 -0.08087997 -0.03671241 -0.028264556
-0.032642618 -0.04418987 -0.021033987 -0.010774497 -0.046632323 -0.01410391 -0.0303327 -0.012372335
-0.04756889 -0.026059028 -0.103170164 -0.033741564 -0.03096322 -0.022056399 -0.061504398 -0.04143389
-0.05028532 -0.030918678 -0.094330214 -0.097990856 -0.047824036 -0.068316706 -0.07700771 -0.06769819
-0.04694776 -0.052662034 -0.017289555 -0.104551196 -0.07038851 -0.05044153 -0.047925904 -0.076168925

features.9.running_mean f4 [128]
00000000: e6ae 873f 9037 3a3f 8275 cb3f f93d ef3c
00000010: eb76 14bf 6a31 b83d e92f d6be 803d 51bf
00000020: 98aa 3fbf d8c6 acbf 4628 d4bf 45b6 bcbe
00000030: d47f 17bf b4a1 91be 6ef4 acbf f4e1 d03e
00000040: b0f3 8abd 3c78 16be dc32 0fbf f747 77bf
00000050: e089 4b3e 52a5 c4be b83e 1d3f 301e 76bf
00000060: c84c 16bf dfa3 73bf cf46 3cbf c15b b3bf
00000070: 8b6d 9f3e af4e 5ebe 5132 f33e b674 973f
00000080: 39c6 81bf f1fd bebf 503a ebbd 2421 fabb
00000090: 803a 923f a05f 413f fd49 67bf ad96 893f
000000a0: 5fd5 57bf 8029 63bf d7fd 8abf 27c7 88bf
000000b0: 7751 59bf 4a59 8ebe 30ca b1bd be5c 0bbf
000000c0: 1df0 18bf dd8c a2bf c1a7 4b3e bfeb a23e
000000d0: 76b4 1b3f 5e8e 09bf b98f 2d3f 9b61 fdbe
000000e0: 7b54 54bf 38d7 a7bf 43ae da3e aadc 10bf
000000f0: 27a1 b23d aa6b 9bbf e2dc e1bf 1e02 b3bf
00000100: d0a3 56bf 6bf1 ffbe d3d0 d0be 936e 66be
00000110: 4d32 cabe 8e39 643b 7b16 c4bf 1340 523f
00000120: 31a3 0fbf 1973 363e b551 ac3d 47fb 74be
00000130: 8812 36bf fc43 0fbf aa90 cb3e 098b 9cbe
00000140: c4a3 38bf 0798 9fbe 359b 25bf 9f6a 813f
00000150: fe78 87bd 240c c23e 9c53 69be 2dee b3be
00000160: 5a92 1b3f 1acf b7be 8e12 98bf c24d 4cbf
00000170: 12e6 72bf fc47 7fbd ee83 82bf 13f0 80bf
00000180: 238e cabe 7a55 92bf dd4a 4fbf a1ef 8dbf
00000190: 5d4a c0bf 3389 14be 1903 04bf d866 65bf
000001a0: cc46 fcbe 16e8 2abf b8ae d1bd 3ae3 0dbf
000001b0: 81f4 86bd d1e1 b0bf 849a 073d 55ab a0bf
000001c0: 6272 eabe 4d3d d4be 8931 773f 26dd 2f3f
000001d0: 5bbc 0f3f adae 06bf e795 4abf 3882 adbf
000001e0: 79b0 d0be af50 3a3d c09f a0bf baa6 dbbe
000001f0: 08de f0be 7384 1bbe d2f5 22bf a9e7 8f3d
1.060025 0.7274103 1.5895236 0.029204356 -0.57993954 0.089938 -0.41833428 -0.81734467
-0.7486968 -1.3498182 -1.657479 -0.3685781 -0.59179425 -0.28443682 -1.3512094 0.4079739
-0.06784761 -0.14694303 -0.5593698 -0.96594185 0.19876814 -0.3840738 0.61423826 -0.9613981
-0.5871091 -0.9517192 -0.73545545 -1.4012376 0.31138262 -0.21709703 0.47499326 1.1832492
-1.0138618 -1.4921247 -0.114857316 -0.007633345 1.1424103 0.7553654 -0.9034727 1.0749108
-0.84309953 -0.887352 -1.0858716 -1.0685776 -0.8488993 -0.27802497 -0.08681142 -0.5443839
-0.59741384 -1.2699238 0.19888212 0.31820485 0.60822237 -0.5373286 0.6779743 -0.4948853
-0.82941407 -1.3112555 0.42711076 -0.56586707 0.087221436 -1.2142231 -1.7645533 -1.3985021
-0.8384371 -0.49988875 -0.4078432 -0.22503118 -0.394915 0.0034824344 -1.531936 0.8212902
-0.56108385 0.17817344 0.08414022 -0.2392398 -0.71122026 -0.5596311 0.39758807 -0.30574825
-0.72124887 -0.31170675 -0.6468995 1.0110663 -0.06614874 0.37899888 -0.227858 -0.3514265
0.6077019 -0.35900193 -1.1880662 -0.7980615 -0.9488231 -0.06232451 -1.0196512 -1.0073265
-0.39561567 -1.1432335 -0.8097361 -1.1088754 -1.5022694 -0.14505462 -0.51567227 -0.8961005
-0.49272764 -0.66760385 -0.10238403 -0.55424845 -0.06589604 -1.3818914 0.033106342 -1.2552286
-0.45790392 -0.4145302 0.9655996 0.6869682 0.5614678 -0.52610284 -0.7913498 -1.3555365
-0.40759638 0.045487102 -1.2548752 -0.4290064 -0.47044396 -0.15187244 -0.6365634 0.070266075

features.9.running_var f4 [128]
00000000: 6474 883f 3e29 333f 4207 9b3f ac86 1b3f
00000010: bcd9 363f 6272 e43e f5a6 a03f 68a1 4a3f
00000020: 1e04 603f dc95 853f 8ec6 883f c06f b53f
00000030: 7cae 003f 3e67 c63e 35a6 793f bc8a 3f3f
00000040: 564b 1a3f 7afa 0a3f 30f8 d43e 8327 483f
00000050: 2384 e93e fdf9 3b3f 664f 443f 77bd 7a3f
00000060: 6670 c93e 01e3 3c3f 0c47 073f fbdc 953f
00000070: c37a 153f 35ad b73e cbdc 683f 7dd0 4e3f
00000080: e057 623f 7214 943f 0ae4 1f3f 6d18 d83e
00000090: ea35 313f d8a0 343f e34d e63e 8bba 763f
000000a0: 6569 673f f845 2e3f 4f84 733f f9dd 3e3f
000000b0: ff0c 6d3f ff21 1d3f c947 633f ebaf 183f
000000c0: 2660 1a3f 539e 913f d179 d23e d4d2 463f
000000d0: 0ba0 443f 2b9a 283f 9005 0a3f 8a17 f63e
000000e0: 7b84 803f fffc 9b3f 0fb2 3a3f f27c 433f
000000f0: 6161 4b3f a9d0 ae3f 8d4d c93f 388a 603f
00000100: 3d39 263f 06ef b63e e596 343f edad 153f
00000110: dc13 3a3f 29ea 113f d721 b83f b757 313f
00000120: eedf 3e3f c577 d53e 3a54 273f be2d 043f
00000130: db44 773f 9d82 213f c152 433f e29d bc3e
00000140: 997e 0a3f a412 e23e f228 123f d56a 133f
00000150: 5122 963e 4702 143f e78d fa3e 5c74 163f
00000160: 0ad6 803f f110 583f 19f0 6d3f ec98 613f
00000170: 3a15 b03f df32 3e3f c069 803f c672 be3f
00000180: 567d d03e bf3d 733f 78b7 413f adea 3e3f
00000190: bf45 ca3f b964 663f 5621 083f cccf 463f
000001a0: 0717 4b3f e3df 9d3f 3dba 213f cca4 703f
000001b0: b6c7 023f ba78 a83f c202 403f 593c 2f3f
000001c0: ef17 203f 413b 103f 9d69 523f 55be 7d3f
000001d0: 0c49 1c3f dcee 213f 8717 683f 85ec e63f
000001e0: e5c9 363f 1f8e 653f 8f6d 763f 3ae3 633f
000001f0: 5e3b 613f 3482 b43e 85d4 913f 61ed 3f3f
1.066052 0.69984806 1.211159 0.6075237 0.71425986 0.44618517 1.2550951 0.79152536
0.8750628 1.0436358 1.0685594 1.4174728 0.5026624 0.38750643 0.97519237 0.74821067
0.60271204 0.54288447 0.41595602 0.7818529 0.45608625 0.73428327 0.7668365 0.9794535
0.39343566 0.7378388 0.52842784 1.1708063 0.58390445 0.35874334 0.90961903 0.8078688
0.88415337 1.156874 0.62457335 0.42206135 0.6922289 0.7055793 0.44981298 0.9637839
0.90395194 0.68075514 0.9512376 0.74557453 0.92597955 0.6138 0.8878141 0.5964343
0.6030296 1.1376442 0.41108564 0.7766545 0.76806706 0.6586024 0.5391474 0.48064834
1.004043 1.2186583 0.72927946 0.76362526 0.79445463 1.3657428 1.5726792 0.87710905
0.6493109 0.35729235 0.70542747 0.58468515 0.72686553 0.56997925 1.4385327 0.6927447
0.7456044 0.4169294 0.65362895 0.516323 0.9658944 0.63089925 0.7629815 0.36839205
0.5409942 0.44154847 0.5709373 0.5758489 0.29323056 0.57815975 0.48936388 0.587713
1.006532 0.8440085 0.92944485 0.88123965 1.3756478 0.74296373 1.0032272 1.4878776
0.40720624 0.9501609 0.75670576 0.74576837 1.5802535 0.8999744 0.53175867 0.7766082
0.7933201 1.233395 0.631748 0.9400146 0.51085985 1.3161843 0.7500421 0.6845146
0.6253652 0.56340414 0.82192403 0.9911855 0.6104896 0.63255095 0.906609 1.804093
0.71401817 0.89669985 0.96260923 0.89018595 0.8798121 0.35255587 1.1392981 0.74971586
