experiment_testing/mz-testing/checkpoints/ptbxl/62hz/cnn1d/fold_4/best.pt (torch, 628765 bytes, 26 tensors)

features.0.weight f4 [32, 12, 7]
000000 a1 9a c9 3c ec 0d 97 3d 37 12 0d bd 65 d4 cc 3d
       0.024609866 0.07375702 -0.0344412 0.100014485
000010 ae 95 45 3d ba f5 17 be 5e 6d 01 be 44 92 d8 bd
       0.04823845 -0.14839831 -0.12639377 -0.10574773
000020 99 f3 d6 bd 71 f1 90 3d 3b bd 2e 3d 36 cf b0 bd
       -0.10495681 0.07077301 0.042660933 -0.08633272
000030 7c a9 f6 bb 6c 1d 7b bd d6 4d 82 3d ef 58 f8 bd
       -0.0075275283 -0.061307356 0.06362502 -0.12126338
000040 16 20 be 3d 77 bc 2b 3d 1b 9f 36 bc a7 77 d8 3d
       0.09283464 0.04192778 -0.011146332 0.10569697
000050 e1 98 2c bc 5f c5 a5 3d 1f c5 84 3d f6 1c f5 3c
       -0.010534496 0.08094286 0.0648291 0.029921036
000060 f1 df ac 3c d7 38 b9 bd 57 e6 e9 3d 8f 0e 04 3d
       0.021102877 -0.090440445 0.11420887 0.032240447
000070 2d a6 a4 bc 5b 30 36 3d 1e a6 45 3d 96 84 f4 3c
       -0.02009877 0.04447971 0.048254125 0.029848378
000080 9a 6e 5e 3d 80 82 85 bd b9 54 b3 bd 6b 51 44 3d
       0.054304697 -0.065190315 -0.08756394 0.04792921
000090 89 d0 3b b9 e6 0c 2b bd 3f 5e 49 3d cb bc 54 3d
       -0.00017911395 -0.041760348 0.049162146 0.05193786
0000a0 de fd c3 3d ae 4a 07 3e f0 a2 3f 3d 6a 5c 78 bd
       0.09569906 0.13212082 0.04678625 -0.060635008
0000b0 57 79 19 bd a7 98 b5 bc d0 46 e7 3d b3 48 1b 3c
       -0.037469234 -0.022167517 0.11292803 0.009477782
0000c0 5d b4 07 3e 96 35 a6 bd 20 ee 17 bd 4f 6e 26 bd
       0.13252397 -0.081156895 -0.037092328 -0.040632542
0000d0 f8 61 ce 3d d6 8b 5c 3d 31 56 78 bd 41 bc c2 bd
       0.1007728 0.053844295 -0.060629074 -0.09508563
0000e0 bd a4 03 be eb 00 a3 bc f4 b2 eb 3c 3e ac 38 3d
       -0.12855811 -0.019897899 0.028771855 0.045086138
0000f0 88 81 f7 3a f3 31 86 bd 09 6f c0 bc c4 dd 8c bd
       0.0018883208 -0.06552496 -0.023490446 -0.06878236
000100 c0 09 7a bb eb a5 55 bd d4 6c 5a bd e0 5d 1d 3c
       -0.0038152784 -0.052160185 -0.053326443 0.009604901
000110 72 26 55 bd 0e d9 aa bc c5 4d b9 bd 64 32 b4 bd
       -0.052038617 -0.020855453 -0.090480365 -0.08798674
000120 13 be 9e 3d 23 fe a5 bd 9b 4d ce 3b 0c e4 1c 3d
       0.077510975 -0.08105113 0.0062958724 0.03830342
000130 ab bb e2 3b cb 25 db bd 32 f1 51 3d 79 30 ab bd
       0.0069193444 -0.10700568 0.051255412 -0.08358855
000140 29 72 ed 3d fe ec b8 bd a5 45 dc bd df 78 9b 3d
       0.1159404 -0.09029578 -0.10755471 0.07591414
000150 44 78 cd 3d 19 e4 4d 3c f2 d0 8b bd eb 2c 9f 3d
       0.100327045 0.01256659 -0.068269625 0.07772239
000160 7a c1 e1 bd a1 9e 35 3d 5a 2c 70 bd d0 ec 93 3d
       -0.11023231 0.044340733 -0.058636047 0.07222903
000170 a5 ee 82 bd b2 1e a6 bd 7c 0b 1f 3d 57 d5 2d bd
       -0.06393174 -0.081113234 0.03882931 -0.042439785
000180 db 33 1a be 4a c2 b6 bc 9f 11 9f bd 91 d9 a2 bd
       -0.15058844 -0.022309441 -0.07767033 -0.07951654
000190 94 58 67 3d dc b3 4c 3d 0a 00 7a 3b 73 6c 19 bd
       0.05648096 0.049976215 0.0038146996 -0.03745694
0001a0 43 66 b2 bd 96 6c 03 bd ec d5 c3 3c d9 db 78 bd
       -0.08710911 -0.032085977 0.023905717 -0.060756538
0001b0 b9 59 93 3c 24 5e d8 3d 4f 8d 4b 3d df 2f 62 3b
       0.017987119 0.10564831 0.04969531 0.0034513397
0001c0 63 ce ad bd 45 45 81 bd 58 42 28 bd 2f b1 b9 3c
       -0.08486631 -0.0631204 -0.041078895 0.022667496
0001d0 54 a9 bb 3d 92 a8 c9 3c 12 9d 60 bc dc 40 f7 3d
       0.09163156 0.024616513 -0.0137093235 0.12072918
0001e0 dc f2 8c 3c 4a 29 b7 3d e8 2f d8 bc 68 2b 0d bd
       0.017205648 0.08943422 -0.026390031 -0.034465224
0001f0 1e a1 0f 3d c9 b6 a3 bd 67 e0 2f 3e 4b f3 11 3e
       0.035065763 -0.07993848 0.17175446 0.14252965
000200 6b 65 0e bb 4b 7f 64 bc 4c e7 99 3d d1 a9 6e bd
       -0.002172793 -0.013946365 0.075148195 -0.05826742
000210 4c 43 eb 3d a2 b5 2a bd 90 67 2d 3d 0a db be 3d
       0.11487445 -0.041677125 0.042335093 0.09319122
000220 bb 72 e8 3d 0e d1 91 3d fc 63 24 bd fa 84 d9 bc
       0.11350008 0.07119952 -0.040134415 -0.026552666
000230 11 89 9e 3b 5b 03 e3 bc d4 43 44 3c 34 fd 11 3a
       0.004838117 -0.027711561 0.011979062 0.0005569041
000240 6a 3b 5a bc 99 13 51 3d 5e 2a f3 3c 3f 18 28 3d
       -0.0133198295 0.05104408 0.029683288 0.041038748
000250 a8 4d 3a 3d c8 6a 8c bb e6 14 50 bd 17 23 73 bd
       0.045484215 -0.0042851903 -0.05080118 -0.059359636
000260 bd 7a 0f bb 57 87 42 3d 29 cb 94 3d 54 c9 bd 3c
       -0.0021893226 0.04749235 0.07265312 0.02316729
000270 19 ee 50 bd a6 bb f3 3c e3 17 61 3b b3 de 53 3a
       -0.051008318 0.029752564 0.0034346513 0.0008082196
000280 1e 66 4f 3d f0 56 31 bd 40 db 87 bd 3a 33 85 bd
       0.050634496 -0.0432958 -0.066336155 -0.06503911
000290 44 d9 ee bd 7d 0c 24 3c 44 09 0f 3d 4f c3 6e bd
       -0.11662534 0.010012743 0.034920946 -0.05829173
0002a0 8e cb a4 3d 8e 2b 61 3d bc 19 f0 ba 53 8e 43 3c
       0.080466375 0.054973178 -0.0018318216 0.011935788
0002b0 6e 2e d8 bc 09 d3 15 bb 47 b0 b6 bd 4d d7 e1 3d
       -0.026389327 -0.0022861382 -0.08920341 0.110273935
0002c0 0f 35 6c bd 93 74 61 3d b1 e1 d5 bd d8 40 92 bd
       -0.057667788 0.055042814 -0.10443438 -0.07141274
0002d0 1d e8 06 bd 87 92 d7 3b fd 14 85 3d 43 1d 98 3d
       -0.032936204 0.0065787467 0.06498144 0.07427456
0002e0 c4 a1 76 3d 11 38 55 bd b1 3d 87 bc f6 9a 19 3d
       0.060212865 -0.052055422 -0.016508909 0.037501298
0002f0 a5 a3 d8 bc a0 0a 3a 3d 49 93 bc bd 4b cb 94 3d
       -0.02644522 0.04542029 -0.0920778 0.072653376
000300 95 0d 22 3d 13 b1 94 bd fa 54 da 3d ae d9 a3 3d
       0.039563734 -0.07260337 0.10660739 0.080005035
000310 00 9d df bd 09 4c ab 3b 37 a5 3f 3d 92 cc 80 3c
       -0.10918617 0.00522757 0.04678842 0.015722547
000320 f2 37 17 3e 41 a7 8d bc 78 fe d5 bc 1a a1 0d 3e
       0.14767435 -0.017291667 -0.026122317 0.13830987
000330 b5 33 1f bd c4 95 7a 3d c8 1a 67 bd 52 02 87 bd
       -0.03886767 0.061177984 -0.056422025 -0.065922394
000340 00 89 78 3d d7 8e b6 bd 8f 74 f1 3d 02 4a 07 3e
       0.06067753 -0.08913963 0.1178981 0.13211825
000350 16 2d 89 bd eb c5 45 bc 8d fa bd bd de 8f 90 bd
       -0.066980526 -0.012071113 -0.092763044 -0.070586905
000360 ca c2 8f bd a8 b4 0b bd 33 ad 80 bb cc 8f 58 3d
       -0.07019575 -0.034107834 -0.003926897 0.05287151
000370 2e 9a 9c bd 82 c8 88 3d 79 b2 b6 3d 83 95 73 3c
       -0.07646595 0.06678869 0.0892076 0.014867189
000380 8e 01 5c 3c fd 85 5d 3c 3c af 89 bd f9 e5 b9 3d
       0.013428105 0.013520715 -0.067228764 0.09077067
000390 71 40 f3 bc 0f 6a 42 3c 23 54 0d 3d 9f 39 66 bd
       -0.029693814 0.011866107 0.034504067 -0.056207296
0003a0 68 99 b1 3c 2b d1 e1 bc 03 fe 1c 3c 8f 6a 53 bd
       0.021679595 -0.02756556 0.0095820455 -0.051615294
0003b0 1d ee 9b bd 13 91 47 bd 51 9b 26 3d a4 39 05 be
       -0.07613776 -0.048722338 0.040675465 -0.1301027
0003c0 5f d4 9f 3c 57 c6 92 bd ac b0 94 bc db 75 b1 bc
       0.019510446 -0.071667366 -0.01815065 -0.021662643
0003d0 22 41 a8 3d b0 36 1a bd 06 33 95 3a ef 36 fc bd
       0.08215548 -0.03764981 0.0011383004 -0.12315165
0003e0 13 34 e3 bb 43 02 08 bb 58 da 84 3d 39 7b a4 3d
       -0.006933698 -0.0020753301 0.06486958 0.08031315
0003f0 60 34 ba 3c 46 3e a7 3d 46 1f 44 3d 97 db 08 bd
       0.022730052 0.081661746 0.047881387 -0.033412542

features.0.bias f4 [32]
000000 0e 66 83 3d fd 68 c9 bc 05 72 34 3d f8 08 47 bd
       0.0641595 -0.024586195 0.04405405 -0.048592538
000010 8d 14 b8 3d 8f 9f 8d 3d 39 52 42 3d 67 93 73 bd
       0.08988295 0.06915199 0.047441695 -0.059466746
000020 7a 87 e0 bd a3 0a 66 3d 0e 73 f1 bd 64 9a b7 3d
       -0.1096334 0.056162488 -0.11789523 0.089649945
000030 b7 c3 6c bd b7 c6 b0 bd a1 6f a2 3d a7 aa 97 3b
       -0.057803836 -0.08631652 0.07931448 0.0046284976
000040 3a 92 24 3c c8 bf e5 bd b4 2c 2c bd 23 f9 dc bb
       0.010044629 -0.1121822 -0.04203482 -0.0067435666
000050 20 fb a7 3d a6 5e 2f bd a4 03 cf bc 9a 9f 9b 3d
       0.08202195 -0.042814873 -0.02527029 0.07598801
000060 4e 26 df bb 1e 5a c5 3d 92 92 a3 3d cd 25 1a 3b
       -0.006809986 0.09636329 0.079869404 0.0023521066
000070 4d b9 5e ba 82 4d b5 3d 2f eb 7b bb 36 97 0d bd
       -0.000849624 0.08852674 -0.003843974 -0.034568034

features.1.weight f4 [32]
000000 e0 5c 80 3f dc ac 7d 3f a5 86 89 3f 84 5a 7d 3f
       1.0028343 0.9909189 1.0744215 0.9896624
000010 4c 2e 79 3f 1e 0d 79 3f 38 af 7d 3f 9d 3e 81 3f
       0.9733627 0.9728564 0.9909549 1.0097233
000020 24 af 81 3f 8b 4f 82 3f c0 67 80 3f db 44 7d 3f
       1.0131574 1.0180525 1.0031662 0.9893319
000030 6c f9 89 3f 39 23 7c 3f 21 c5 7d 3f 1c aa 7a 3f
       1.0779243 0.98491246 0.9912892 0.97915816
000040 7e 7b 7d 3f 81 75 7e 3f 42 72 7a 3f 2d bc 81 3f
       0.9901656 0.99398047 0.97830594 1.0135552
000050 39 df 83 3f a9 6e 79 3f b1 e9 82 3f f4 a7 81 3f
       1.0302497 0.9743448 1.0227567 1.012938
000060 f2 16 7b 3f cb ff 7f 3f d8 ee 79 3f 78 c7 80 3f
       0.98081887 0.99999684 0.9763007 1.0060873
000070 ad 31 7d 3f b9 6e 83 3f f9 7b 7e 3f 44 c5 75 3f
       0.98903924 1.0268165 0.9940792 0.9600413

features.1.bias f4 [32]
000000 5e 53 0d 3c 03 90 3e 3b bf 08 c8 3d 80 46 32 bd
       0.008625833 0.0029077537 0.09767293 -0.043524265
000010 1a 45 ca 3b ac a6 0e 3d de 99 40 3d c0 fa 87 3c
       0.0061727883 0.03482692 0.04702174 0.01659906
000020 45 bd 22 38 3b c5 6a 3d 95 da a3 3c d6 01 17 bd
       3.880008e-05 0.057317 0.020001689 -0.036866985
000030 8e 62 e7 3d 24 8e 38 3c b4 8a bc 3a 8f a0 2c bc
       0.11298095 0.011264358 0.0014384598 -0.010536327
000040 3b 17 db 3c 29 f9 99 3d e3 0f 8a bb d0 12 52 bc
       0.026744476 0.07518227 -0.0042133196 -0.012821868
000050 9a be 16 3d 75 24 db 3c ce 69 20 3c ae 98 ab 3c
       0.036802866 0.026750783 0.009790851 0.020946827
000060 e0 20 0d 3d 47 ca db bb 78 c6 b4 3b 85 fb 08 3d
       0.03445518 -0.006707463 0.0055168234 0.033442993
000070 4e c0 93 3c a0 9e 9b 3d 04 25 3a 3d 2c af 2d bd
       0.018036034 0.07598615 0.045445457 -0.042403385

features.1.running_mean f4 [32]
000000 3c da 82 3d ee 92 c7 bc 9c 54 35 3d d5 05 46 bd
       0.06389281 -0.024362054 0.044270143 -0.048345406
000010 fe b6 b7 3d 02 da 8d 3d 2c 99 41 3d 83 d7 76 bd
       0.0897045 0.06926347 0.047265217 -0.06026412
000020 ce 56 e0 bd e5 97 64 3d a3 70 f0 bd ae 48 b7 3d
       -0.10954057 0.05580892 -0.11740234 0.089494094
000030 9b 5b 6c bd 3f 0f b0 bd b7 f8 a1 3d f5 ae 76 3b
       -0.05770455 -0.08596658 0.07908767 0.0037640904
000040 06 44 34 3c 32 21 e4 bd a3 92 2e bd 07 8d df bb
       0.011002546 -0.11139144 -0.042620312 -0.0068222317
000050 06 51 a8 3d c2 a0 2e bd ad eb ce bc 8b b1 9b 3d
       0.08218579 -0.04263378 -0.025258863 0.07602223
000060 b6 0b d2 bb a2 da c5 3d bb 8f a4 3d e6 9e f1 3a
       -0.0064100875 0.096608415 0.08035227 0.0018434196
000070 e8 ca 9e ba a1 b5 b3 3d 23 21 4a bb c8 50 0c bd
       -0.0012114914 0.08774877 -0.0030842505 -0.034256727

features.1.running_var f4 [32]
000000 7b d0 18 3f 9e ae cb 3e 4e 71 4d 3e a0 36 8b 3e
       0.59693116 0.3978166 0.20062754 0.27190113
000010 f6 45 7d 3e 6e ee 99 3e 21 77 91 3f 92 64 c8 3e
       0.24733719 0.3006472 1.136448 0.3913923
000020 e2 da 7e 3f aa ff 14 3f 4d 26 36 3f 7a 2b 07 3f
       0.9955274 0.5820261 0.7115219 0.52800715
000030 6e 80 6c 3f bf 19 ea 3e 66 97 9d 3e 91 4f 80 3f
       0.9238347 0.45722768 0.3077957 1.0024282
000040 2f b4 ab 3e 03 62 d9 3e 3d 28 00 3f 75 1a 84 3f
       0.33535907 0.4245759 0.500614 1.0320574
000050 12 b7 80 3f 9a fc e5 3e 5d 0f 37 3f 38 31 23 3f
       1.0055869 0.44919282 0.7150782 0.63746977
000060 2d 64 db 3e 84 8d 64 3f f6 ac c8 3e 69 bd 6d 3f
       0.42849866 0.89278436 0.3919446 0.9286714
000070 59 13 8e 3e 84 67 0a 3f 50 cb d6 3e 44 b3 e6 3e
       0.27749136 0.540642 0.4195199 0.45058644

features.4.weight f4 [64, 32, 5]
000000 20 fd 46 3c 8c e5 3e 3c 76 18 83 3d 56 56 1f 3d
       0.012145311 0.011651408 0.0640115 0.038900696
000010 01 99 fa bb 60 7a 2f 3c 5c c6 14 3d 49 18 3a bd
       -0.007647634 0.010710329 0.036321983 -0.045433316
000020 90 01 3f bd 5b 01 45 3d 6a d2 37 3c 06 9a ea bd
       -0.04663235 0.048096996 0.0112196 -0.11455159
000030 33 5a 84 3d 67 16 1c 3d 44 8f 6f 3d ce 9d e7 3c
       0.06462517 0.038107302 0.058486238 0.02827349
000040 0e 9a dc bc c4 23 1d bd 93 09 24 3d fc f9 b5 3b
       -0.026928928 -0.038364187 0.040048193 0.005553482
000050 30 55 ac b9 51 27 5a bc 44 08 47 bd 4e 1d 49 bd
       -0.00032869866 -0.013315038 -0.048591867 -0.049100213
000060 2e 58 23 3b 3c 63 0b bd 57 1d 66 3c 57 e0 93 3d
       0.0024924385 -0.034030184 0.014045081 0.07220524
000070 36 bd 23 bd 6e f3 8b 3d 9e d2 00 3d 1d 91 9e bd
       -0.039975367 0.0683354 0.03145086 -0.07742522
000080 f5 22 d1 3c d5 68 9e bd eb fe 0d 3d 4c 16 c9 bc
       0.025529364 -0.07734839 0.034666937 -0.024546765
000090 c2 4d 96 3d f4 bc 88 3d ba f4 a2 bd 96 ec 2c 3d
       0.0733905 0.06676665 -0.07956834 0.042217813
0000a0 42 bf b4 3c 84 d6 91 bc 4d 0e dc bc 30 e1 0b bd
       0.022063855 -0.017802484 -0.026862288 -0.034150302
0000b0 c5 6f 61 3c d1 58 de 3c 27 c8 4e 3d 1a 1e 91 3d
       0.013759558 0.02714196 0.05048385 0.070858195
0000c0 17 c7 10 3d 36 39 57 bc 27 09 b5 3d 39 6f 8e 3d
       0.035346117 -0.013136199 0.08839636 0.06954808
0000d0 16 78 92 3d 08 21 1f 3d 44 37 3e bd 55 d4 c5 3c
       0.07151811 0.03884986 -0.046439424 0.0241491
0000e0 85 b8 9e 3d 18 03 17 3d 99 92 64 bd e1 98 af 3c
       0.07750038 0.036868185 -0.05580387 0.021435203
0000f0 4e 80 7c bd c4 ee 61 3d f9 3a 8b bd d5 8e 75 3d
       -0.0616458 0.055159345 -0.067983575 0.05995067
000100 1c 49 38 bd 6f b1 51 bd 89 9d fd bc 9a 77 69 bd
       -0.044991598 -0.051194604 -0.030958908 -0.056998827
000110 1e 59 8a bc 3a 92 8b bc b6 e5 41 3d 9d c5 0c 3c
       -0.016888198 -0.0170375 0.04733821 0.008592037
000120 a5 5f 24 bc 06 08 a9 bd 3a ed 31 3d 39 7a bc bd
       -0.010032569 -0.082534835 0.043439128 -0.092029996
000130 16 ea 30 bc 8e cf 47 3c 6d e6 db 3c 83 37 a3 bd
       -0.010797998 0.012195481 0.026843274 -0.079695724
000140 56 80 80 3a 88 98 a7 3c ea d2 6c 3d 8a 0e b4 bc
       0.0009803872 0.020458475 0.05781833 -0.021979589
000150 b2 fc 76 3d 3b ec a0 3c 5a 44 89 3d f8 f6 81 bd
       0.060299583 0.019643893 0.0670249 -0.06345934
000160 e7 67 af 3d 4c 0e e7 bc 5d 7a f8 bc 24 05 60 3d
       0.0856474 -0.02820506 -0.030331785 0.054692402
000170 e3 4e 99 bd 4f 84 20 bd 0b 3c 72 3d 84 5d 08 3d
       -0.074857496 -0.03918868 0.059139293 0.03329231
000180 84 3e 96 3d e8 62 4a bd d0 4e 65 3d 6c 52 82 3d
       0.07336143 -0.04941073 0.055983365 0.06363377
000190 92 b1 15 3d 9f f8 55 3d 9d 2e be bb 74 52 05 bd
       0.036546297 0.052239057 -0.0058038966 -0.032549337
0001a0 13 34 34 bd dd 06 5a bd 1c b4 01 3d 99 9c 08 bd
       -0.043994974 -0.0532292 0.031665906 -0.03335247
0001b0 e1 3b 62 bd d6 d2 ce 3c be 8b 63 3d e0 94 74 bc
       -0.055232886 0.025247019 0.05555319 -0.014928073
0001c0 e4 f2 92 bd ea 7d 0b 3d 07 aa 8b 3b fe 67 4d 3c
       -0.07175234 0.034055628 0.004262212 0.012537001
0001d0 95 db a3 bd 95 14 65 bc 24 13 3c 3c c8 b3 d9 3d
       -0.08000866 -0.013981958 0.011479173 0.10629994
0001e0 7b 00 69 3d 8d c3 79 bd 07 3e 42 3d af b2 95 3d
       0.056885224 -0.060977507 0.047422435 0.07309472
0001f0 0e bd f1 bc 17 0a 95 bd af bf 7e bd fe 0e a6 bd
       -0.029509094 -0.07277315 -0.062194522 -0.08108328
000200 5d 7b 19 bd 78 fe 72 bd dd 43 0b 3d fb f1 e6 3c
       -0.037471164 -0.05932471 0.034000266 0.028191557
000210 00 29 8d 3a cb c3 1b bd 5a 57 1e bc d7 97 4d 3d
       0.0010769665 -0.03802852 -0.009664381 0.050193634
000220 7a d7 36 bd 94 3b c7 3c 8d 9a 85 bc 00 db 5c bd
       -0.04463909 0.024320401 -0.016309047 -0.053919792
000230 31 41 81 3d 26 16 0a 3c 5a 01 9c 3d 54 9d 1d bd
       0.063112624 0.008428132 0.07617445 -0.038480118
000240 37 f7 cc 3d 34 61 80 bb 13 fc 90 bc f0 bb 19 3d
       0.1000809 -0.0039178375 -0.017698323 0.037532747
000250 36 3b 86 3d d9 7b 64 3d e7 e4 e1 3c 95 b9 2d 3d
       0.06554262 0.055782173 0.02757497 0.042413313
000260 97 d5 a2 bd 83 21 89 bd 35 39 43 bd b7 6f f2 bc
       -0.07950895 -0.06695845 -0.04766198 -0.029594285
000270 1b 96 1e 3d 06 6f b0 bc d0 a3 f3 3c 5e b4 ba 3c
       0.03871737 -0.021537315 0.029741198 0.022791084
000280 cd 4a 80 bd 89 ef 2e 3d 5b 78 43 3d 5a f2 3b 3d
       -0.06264267 0.042708907 0.0477222 0.04588542
000290 c7 e5 29 3c a8 4f c2 bc 53 f4 4c bd b9 d2 b9 3d
       0.010369725 -0.023719624 -0.050037693 0.09073395
0002a0 f3 27 02 3c 86 62 2a 3d c6 9a 85 3d 14 bf f0 bc
       0.007944095 0.041597866 0.06523661 -0.029387988
0002b0 b0 b9 91 3d 4a 97 9c 3d 5d d1 00 3d e7 cf 6c 3d
       0.07115495 0.076460436 0.031449664 0.05781546
0002c0 b5 a9 17 bc bd 91 6f bd 60 84 8a bc a9 14 c5 3d
       -0.00925677 -0.058488596 -0.016908824 0.09623081
0002d0 ad 74 41 bc d2 e1 b4 3c 01 03 93 3d bc b2 85 3d
       -0.011807603 0.022080336 0.07178307 0.065282315
0002e0 2a b1 93 bd 66 25 81 bd fb 05 4d bd a9 64 6e 3d
       -0.07211526 -0.06305961 -0.05005453 0.058201466
0002f0 74 c0 07 3d 18 e9 e6 3c a7 9a cb 3c 9d 5a a4 3b
       0.033142522 0.02818732 0.024854017 0.0050156848
000300 40 34 0a 3d 3b e5 c3 3c 10 ff de 3c ee b4 54 3c
       0.033741236 0.023913017 0.027221233 0.01298259
000310 22 a0 b9 3b 32 50 39 bd 2f 4a a5 3b 51 00 ca 3c
       0.0056648413 -0.045242496 0.0050442438 0.024658354
000320 a0 ae 19 3c 7f 88 ed bd 2c 0e aa bd 34 0a 9f 3d
       0.009380013 -0.115983 -0.08303484 0.07765618
000330 98 ee 79 bc 5e 33 59 bd 22 10 d5 3c 78 33 33 bc
       -0.015254639 -0.053027503 0.02600867 -0.010937564
000340 90 b2 e1 3d f9 41 96 bc b2 9b 77 bd 4a 94 8e bc
       0.11020386 -0.018342005 -0.060451217 -0.017404694
000350 e4 9c 04 3d 20 66 06 3d 83 1d 3d 3d 05 e2 2c bd
       0.032376185 0.032812238 0.046170723 -0.042207737
000360 3d 6b 7f bd 08 9b 43 bd fc bc 9d 3d 49 e0 be 3b
       -0.06235813 -0.04775527 0.077020615 0.0058250767
000370 3f 33 86 3d 24 1f 62 3c 37 b1 5c bd 11 e5 d3 bd
       0.06552743 0.01380137 -0.053879943 -0.10346425
000380 d7 59 33 3d ac 66 ba 3c 66 7f b5 bd c9 55 38 bd
       0.04378685 0.022754036 -0.0886219 -0.045003686
000390 76 ca b7 3d 05 75 a2 3c 73 47 1c 3d ae 53 0f 3d
       0.08974163 0.01983119 0.038154077 0.034991913
0003a0 36 7c 74 3c 2e 4e 80 bd 6a 43 80 bd ba 32 2e 3d
       0.014922192 -0.062649116 -0.06262858 0.042528845
0003b0 6f 04 8d 3d 97 63 01 bd 55 bc 0f 3d aa e2 16 bb
       0.06885611 -0.031589117 0.035091717 -0.0023023286
0003c0 3c b3 91 bd 8a 86 b0 bd b2 ca 0d 3c ef 12 9e bc
       -0.07114264 -0.08619411 0.008654283 -0.019296138
0003d0 04 f6 87 3d 22 f6 0b 3d 3d de 37 bd d3 69 51 3a
       0.06638721 0.034170277 -0.044889677 0.00079884863
0003e0 2b 82 23 bd dc 28 22 3d 88 78 cb 3c 65 f3 b6 bc
       -0.03991906 0.039589748 0.024837747 -0.022332856
0003f0 7f 18 16 3d 45 03 7a bd dc d9 15 3b 91 d4 03 3c
       0.036644455 -0.061038274 0.002286545 0.008046285

features.4.bias f4 [64]
000000 42 bc 5a 3b 48 fa 7b 3d cc 3c 3b bd b6 db 9a 3d
       0.003337637 0.061517984 -0.045712277 0.07561438
000010 da 41 07 3c 7a 83 9c 3d 68 d8 2d 3d 57 cb 65 bd
       0.008255446 0.07642265 0.04244271 -0.056102123
000020 96 2b 78 bb cc 46 eb bb 04 d3 1d 3d 65 0c 55 bd
       -0.0037867776 -0.0071800705 0.03853132 -0.052013773
000030 b1 dc 75 bd c6 75 7f bd 60 81 c7 3c ed 91 85 bd
       -0.06002492 -0.062368177 0.024353683 -0.06521974
000040 98 fe 73 bd fb e0 4f bd 41 40 8e bd 9e 6e 97 3d
       -0.05956897 -0.050751667 -0.06945849 0.073941454
000050 f5 ba 84 bd 41 50 d3 3c f1 0c 6a 3d 8d 47 25 bd
       -0.06480972 0.025795104 0.057141248 -0.04035144
000060 a3 84 a2 bc b3 e3 1e bd fe ea 83 bd 14 bc 2f 3b
       -0.019838637 -0.03879137 -0.064413056 0.0026814984
000070 58 f3 21 3d d7 22 1a 3d dd 87 92 3d 7a 7e 67 bd
       0.03953871 0.037630882 0.0715482 -0.0565171
000080 d4 3d 96 3c c9 a8 a0 bb b5 77 66 bd c3 08 c2 bb
       0.018340029 -0.0049029333 -0.056266505 -0.0059214546
000090 e9 f7 84 3d 6d 00 2d bd 72 fd b9 37 99 b0 ff bc
       0.064925976 -0.042236734 2.2171738e-05 -0.031212138
0000a0 c0 7e 0f bd b1 e5 40 3b d1 3c bc bd 08 d6 83 3d
       -0.035032988 0.0029433782 -0.09191287 0.064373076
0000b0 f9 44 af bd f0 21 96 3c 3d c3 14 bd 76 ed 62 bd
       -0.08558077 0.01832673 -0.036319006 -0.05540224
0000c0 e5 d4 1e bd fa 22 20 bc 49 72 63 bc 84 47 84 bc
       -0.03877725 -0.009773964 -0.013882228 -0.016147383
0000d0 9e 68 7b 3d 9a 85 8a 3d b7 5a 95 3d 25 35 82 3d
       0.061379068 0.06763764 0.07292693 0.06357793
0000e0 ac 60 0c bd 72 68 6a bd b6 e2 98 bc 87 83 6a 3d
       -0.03427188 -0.057228513 -0.018662792 0.05725434
0000f0 35 2d 86 3b 98 f8 01 bd 9c b0 19 3d ae 8e 50 bc
       0.0040947446 -0.031731218 0.037521943 -0.01272933

features.5.weight f4 [64]
000000 b4 5b 75 3f dd 78 84 3f 63 c8 7b 3f 60 8d 80 3f
       0.9584305 1.0349385 0.9835264 1.0043144
000010 e6 62 7e 3f 79 64 88 3f e8 ca 6d 3f b6 6c 81 3f
       0.9936966 1.0655662 0.92887735 1.0111301
000020 f9 46 79 3f 74 b2 84 3f 27 59 79 3f 59 ba 86 3f
       0.9737392 1.036696 0.9740166 1.0525619
000030 10 7e 76 3f 2e 76 77 3f cd 9f 85 3f ca c0 80 3f
       0.96286106 0.966647 1.0439392 1.0058835
000040 8f 51 7c 3f 00 4c 7d 3f ec be 76 3f ba ab 75 3f
       0.9856195 0.9894409 0.96385074 0.9596516
000050 14 92 7e 3f ed c2 80 3f 60 6a 7f 3f 16 ab 78 3f
       0.9944165 1.0059487 0.9977169 0.97136056
000060 9d 8a 7d 3f 8f bb 7c 3f 6c 2a 82 3f cc 86 7f 3f
       0.9903963 0.9872369 1.0169196 0.9981506
000070 b3 f3 7d 3f 05 0e 7a 3f d6 c0 7b 3f df 91 85 3f
       0.9919998 0.9767764 0.9834112 1.0435141
000080 b9 25 7b 3f da 69 7c 3f 28 d4 81 3f 48 1d 7e 3f
       0.98104435 0.98599017 1.014287 0.9926343
000090 72 89 7f 3f dc 70 8d 3f ae f7 7e 3f fd d2 79 3f
       0.998191 1.1050067 0.9959668 0.9758757
0000a0 7f 60 78 3f df f8 7e 3f 23 3a 7e 3f fa f0 77 3f
       0.9702224 0.995985 0.9930746 0.96852076
0000b0 21 68 7c 3f 1d d5 74 3f e0 2e 75 3f 91 55 81 3f
       0.9859639 0.95637685 0.9577465 1.0104238
0000c0 41 05 82 3f 1f 7d 7f 3f 83 ad 7b 3f af 4b 7a 3f
       1.0157853 0.99800295 0.9831163 0.97771734
0000d0 46 18 80 3f 43 bd 7e 3f 60 e5 7a 3f 58 e4 7c 3f
       1.0007408 0.9950754 0.9800625 0.98785925
0000e0 d3 4f 84 3f 25 72 7f 3f 41 b7 80 3f 7a fc 88 3f
       1.033686 0.99783546 1.0055925 1.070205
0000f0 b0 56 78 3f e4 e6 82 3f 5e aa 7e 3f df 16 8b 3f
       0.97007275 1.0226712 0.9947871 1.0866355

features.5.bias f4 [64]
000000 3c cc d5 bc 22 5f c1 bd cc 70 f9 bc 62 dd 4d b9
       -0.026098363 -0.09441973 -0.030449294 -0.00019632795
000010 bc bf 4a bd 90 5e 10 3d 60 5d bf bc 4e 91 c8 3c
       -0.04949926 0.03524643 -0.023359954 0.02448335
000020 60 e2 1b bd b0 b5 4f 3c 85 65 25 bc e0 5c 04 3d
       -0.038057685 0.012677595 -0.010095005 0.032315135
000030 77 35 12 bd c0 74 8c bd 28 93 e4 bc d1 d4 65 3c
       -0.03569552 -0.06858206 -0.0279022 0.01402779
000040 c0 8a 00 bd 5a 4a d7 39 f6 5a 9c 3b 06 66 d4 bc
       -0.031382322 0.00041063392 0.0047715856 -0.025927555
000050 8b dc 88 bc 9d f2 dc 3a 4e 39 1e 3c a9 4a 6b bb
       -0.016706726 0.0016856972 0.009657217 -0.0035902655
000060 67 29 54 3c 8b d8 53 bc cf bf f4 bc 78 df 0b bd
       0.012949324 -0.012930046 -0.029876618 -0.034148663
000070 c2 4b 91 bc 20 e0 9d bb d5 e2 b6 bc 13 c4 96 bc
       -0.01773632 -0.0048179775 -0.022324959 -0.018404042
000080 3f ca b8 bc 51 e2 54 bd 02 8a 8c bc ee 61 ba bc
       -0.022557376 -0.051973645 -0.017155651 -0.022751775
000090 8c 64 82 bd 36 51 a2 3a 9a d1 da bc 8a 83 90 3c
       -0.06366834 0.0012383822 -0.026711274 0.017640848
0000a0 91 a7 9a bc d7 23 cc bb a0 91 b4 bc ae 6a 4d bc
       -0.01887873 -0.0062298584 -0.022042096 -0.012537641
0000b0 97 8b f3 bb fb a0 b4 bc 57 73 d8 bc 35 53 39 bb
       -0.007432412 -0.022049418 -0.026422186 -0.0028278355
0000c0 c2 2a 93 3c 0b 14 66 3d d2 ec 26 bc b2 2c 30 bb
       0.017964724 0.05617146 -0.010188298 -0.002688211
0000d0 52 d5 ce bc 27 68 0a bc d0 5a 40 bc 1e ba 09 3c
       -0.025248203 -0.008447683 -0.011740401 0.00840619
0000e0 e8 53 87 bb d3 e6 5b 3c 2d dc 39 ba f3 e1 4d 3d
       -0.0041298755 0.013421732 -0.00070899987 0.05026431
0000f0 d8 02 3c bd a0 e2 44 b9 3e 86 df 3c d4 50 3d bd
       -0.04590115 -0.00018776441 0.027285691 -0.04621966

features.5.running_mean f4 [64]
000000 57 31 88 3e 41 a7 a8 3e 4d 77 1f bf c8 3b 86 be
       0.26600143 0.32940105 -0.62291414 -0.26217484
000010 aa 3b 89 be 1e fb ee bb b6 87 14 3e 5d d9 44 be
       -0.26803333 -0.007293119 0.14504895 -0.19223543
000020 a4 d0 aa be c7 4f 9e be 1d ab bd be 9e 5a a3 be
       -0.33362305 -0.3092024 -0.37044612 -0.31905073
000030 3a 5b d0 be 2c 1d 68 be bb 31 74 3e 95 8f 02 bf
       -0.406946 -0.22667378 0.23847096 -0.5100034
000040 2f 89 25 3f 5a f0 04 bf 9e 5d d2 bd 1f 13 88 be
       0.6466245 -0.5192925 -0.10271762 -0.26577088
000050 f0 dc 76 bf 52 e7 99 be 86 1b bc be 95 44 e4 bd
       -0.96430874 -0.30059296 -0.3673975 -0.111458935
000060 3f c8 df be ec 86 07 bf 9f 1e 4f 3e 3e bd 12 be
       -0.43707463 -0.5294025 0.20226525 -0.14330003
000070 21 cd 8f 3d d8 f2 91 be 25 d7 28 be 06 bf 7d 3e
       0.07021547 -0.28505588 -0.16488321 0.24779901
000080 6a 1c ac be dd 3e dc be a8 54 96 be 54 ba bb be
       -0.33615428 -0.4301671 -0.29361463 -0.36665595
000090 88 da b1 3d e6 be c6 be 7d f6 32 be 87 92 24 be
       0.0868426 -0.3881752 -0.1747684 -0.16071521
0000a0 d9 c8 c5 be ca 71 5c be cd 1d 36 3e 7f ff ce be
       -0.38629797 -0.21527782 0.17784806 -0.40429303
0000b0 18 b5 fa be d9 72 5f be 2c 9d 0a bf 50 60 c3 be
       -0.4896629 -0.21821155 -0.54146075 -0.38159418
0000c0 72 8d ba bd 6d 37 9e be 92 4c 4b 3e fc a4 23 3f
       -0.0910901 -0.30901662 0.19853428 0.6392362
0000d0 9b dc e9 be c3 dd be be e3 d0 42 be 5c 6f 16 bf
       -0.4567612 -0.37278566 -0.19024996 -0.5876367
0000e0 8a da 19 bf 96 2f 30 be 89 d1 b9 be d5 0c 91 bd
       -0.6009909 -0.17205653 -0.36292675 -0.07082526
0000f0 83 dc 7e bf 6b 5c de be 43 94 65 3f b2 fe 44 bf
       -0.99555224 -0.43429884 0.89679354 -0.76951134

features.5.running_var f4 [64]
000000 2d f1 3d 3e 63 b8 92 3e 8e c4 cf 3e db c5 76 3e
       0.18549033 0.286563 0.40579647 0.24098913
000010 da dc f7 3e a6 f0 2f 3e ec be 3f 3e 42 6e 57 3e
       0.48410684 0.17181644 0.18725175 0.21038154
000020 5c ae b9 3e e4 a0 f8 3e 87 bc c2 3e 87 66 8d 3e
       0.36265838 0.4856025 0.3803446 0.27617285
000030 56 bf a2 3e b6 16 f3 3e 29 09 89 3e 50 f2 c5 3e
       0.31786603 0.47478265 0.267648 0.38661432
000040 ee ed d5 3e a0 93 a7 3e 14 42 55 3e 35 8f 81 3e
       0.41783088 0.32729816 0.20825988 0.2530457
000050 3b 4f 04 3f fd 47 61 3e a4 af 54 3e 36 dc 1b 3e
       0.51683396 0.22000118 0.20770127 0.15220723
000060 34 88 77 3e 46 30 ba 3e 13 b5 cb 3e 67 54 d7 3e
       0.24173051 0.36364955 0.39786586 0.4205658
000070 9a 15 5d 3e 05 de ce 3e 94 c3 1c 3e 04 4c 07 3f
       0.21590272 0.40403762 0.15308982 0.52850366
000080 cd 61 bc 3e f4 8c 14 3f df 74 b7 3e 67 04 35 3e
       0.36793366 0.5802758 0.35831353 0.1767746
000090 19 90 04 3f 74 89 a2 3e d5 ff 62 3e 91 48 38 3e
       0.51782376 0.31745493 0.22167905 0.17996432
0000a0 96 06 af 3e f6 26 57 3e d3 5b 98 3e 85 c2 a5 3e
       0.34184712 0.21010956 0.29757556 0.3237497
0000b0 71 da 58 3e 19 55 9b 3e e8 d0 9d 3e 08 f9 b6 3e
       0.21177079 0.30338362 0.30823445 0.3573687
0000c0 bb 9a 8f 3e 48 e1 83 3e 5d 3a 29 3f 4c fb 01 3f
       0.28047737 0.25757813 0.6610468 0.50774074
0000d0 d2 cd de 3e 4c 55 f1 3e 5a 8f 84 3e 61 7d f6 3e
       0.43516403 0.4713539 0.2589062 0.48142532
0000e0 c8 41 0a 3f 37 e8 8f 3e 8c 4f 7a 3e 0a 00 5e 3e
       0.54006624 0.28106853 0.24444407 0.21679702
0000f0 31 f4 6c 3f 6f f6 44 3e 79 3a 38 3f 7d e6 9c 3e
       0.92560107 0.19234632 0.7196422 0.306446

features.8.weight f4 [128, 64, 5]
000000 c5 e1 77 bc 8e 43 cf 3c 0c 9b 03 3c a2 5f 8f bb
       -0.015129511 0.025300767 0.0080325715 -0.004375414
000010 e2 c2 c1 bc 02 64 8d 3d 11 ef fb ba 31 0e 0e bd
       -0.023652498 0.069038406 -0.0019221028 -0.034681503
000020 58 d8 58 3c 1b bd ef bb 57 40 1c bd 67 ac 6f 3c
       0.013235174 -0.0073162443 -0.038147297 0.014628506
000030 d9 06 49 3b f2 93 01 3a f3 c8 81 bc c6 3f be bb
       0.0030674248 0.0004943005 -0.01584289 -0.005805942
000040 6d 2d 54 bd d2 5f c9 bc a9 fe bb bb 00 04 29 3d
       -0.051801134 -0.024581823 -0.005737145 0.04126358
000050 1d 2f e1 bc 09 0b 09 3d 5d 7f 39 bd f7 39 2e 3d
       -0.027488286 0.03345779 -0.04528748 0.04253575
000060 cb b8 46 3c 5c 8a ce 3c 2e 4c 8e 3b 92 15 19 bc
       0.012129019 0.02521246 0.0043425774 -0.009343522
000070 d9 8e e6 3c 33 70 a3 3d 5a ae 3d 3c cd ca 4a bd
       0.028144287 0.07980385 0.011577213 -0.049509812
000080 9e 26 31 3d 72 a5 c7 3b af 9d 33 3d 89 6b 54 bc
       0.04324972 0.0060927207 0.04385155 -0.0129650915
000090 82 cd 0f bc 22 e2 7c bd a6 da c4 3c 81 ad 92 bb
       -0.008777024 -0.061739095 0.024030041 -0.0044762497
0000a0 3f 85 59 3c 18 ad 19 bb 65 54 5f bc e6 ce 35 3d
       0.013276397 -0.002344912 -0.013630961 0.044386767
0000b0 94 ea da bc ec ec 6a 3d e7 0e bd ba 70 79 02 bc
       -0.026723184 0.057354853 -0.0014423997 -0.007963523
0000c0 c6 ac 6b 3d 94 3d ab 3d 1c ec 18 bd 8a 3b 8a 3b
       0.057537816 0.083613545 -0.037334546 0.0042185234
0000d0 91 e8 a3 bb 4a 87 06 3d 6e a4 fe 3c 89 b2 b0 3d
       -0.0050020893 0.032843865 0.031084266 0.08627803
0000e0 50 20 52 3d 9e a4 f8 3c 55 cf 39 bd 9e d5 0b bb
       0.051300347 0.030351933 -0.045363743 -0.0021337043
0000f0 d3 bc 69 3d 12 fb 11 3d da 22 2d bd cd b1 1c 3d
       0.057064842 0.03563983 -0.042269565 0.0382555
000100 97 4a 03 3d 15 65 22 bc 53 f3 99 3b 85 04 95 bb
       0.032053556 -0.009911795 0.004698196 -0.004547658
000110 28 fd 6d bd d8 d7 6f 3c 9a 9d 8e 3d 88 64 80 bc
       -0.058102757 0.0146388635 0.06963654 -0.015672937
000120 4f 70 0e 3c a1 ab d5 3d 10 00 87 3d 2b cd a8 bb
       0.008693769 0.10433126 0.06591809 -0.005151411
000130 63 a8 3e bd 55 24 f3 bb b5 95 0a bc ca 8f 01 bd
       -0.046547305 -0.0074201026 -0.0084585445 -0.03163127
000140 01 af 1c 3d 16 28 0d bd b8 d8 00 bd ff 45 13 bc
       0.038252834 -0.034462057 -0.03145668 -0.008988856
000150 29 19 22 bd a4 07 90 3c 4b 8f 95 3d f6 3c 12 bd
       -0.039574776 0.017581768 0.073027216 -0.035702668
000160 76 03 c8 3c a6 b7 c1 bc 62 4d 06 3d d3 bb 84 3d
       0.024415713 -0.02364714 0.03278864 0.06481137
000170 5c 11 2c 3c 12 97 d1 3b 12 33 f2 bc 53 09 b6 bb
       0.010502186 0.006396183 -0.029565368 -0.0055553108
000180 9a 09 97 bd 45 92 28 bd cb eb 2c 3d 64 e5 9b bd
       -0.07374878 -0.04115512 0.042217057 -0.07612112
000190 4b f5 fb ba 9b 25 6f 3b 5b dc 39 bc f9 80 c5 bd
       -0.0019222883 0.003649092 -0.011344041 -0.0964374
0001a0 5f 2a 41 bd 87 46 a3 bc f0 50 71 bd 28 6f 37 3d
       -0.04715955 -0.019931091 -0.05891508 0.04478374
0001b0 c8 5e fa 39 7a b1 96 bc 68 d6 19 3d 78 cf 35 3d
       0.00047754333 -0.018395174 0.03755799 0.04438731
0001c0 fc 85 d3 bc 37 2a 1a bd d5 dc 13 bd 66 e0 d6 bc
       -0.025820725 -0.037637915 -0.036099274 -0.026230048
0001d0 22 2e 3a bd 0c 22 58 bd 68 87 12 bd 45 97 68 3b
       -0.045454152 -0.052766845 -0.035773665 0.0035490554
0001e0 75 8e e2 3c ee 25 0a bd f0 16 51 bd 25 c6 e3 3c
       0.02765582 -0.03372758 -0.051047266 0.027804444
0001f0 c6 dc 33 bd ee c6 4a 3d e1 d9 85 bd 54 3a be 3c
       -0.043911718 0.04950612 -0.06535698 0.023221172
000200 4d b3 19 bd 64 5b 44 bc 6d ba 16 bd a8 0c 96 bd
       -0.03752451 -0.01198468 -0.036798883 -0.07326633
000210 b6 cb 3f bd 5a 88 02 3b 41 fa 0e 3d 42 23 3d bd
       -0.046825133 0.0019917698 0.03490663 -0.046176203
000220 44 9f 1e 3c 03 d2 55 bd 5c c2 a7 3c 25 c7 cb 3c
       0.009681527 -0.052202236 0.02047842 0.024875233
000230 4c 46 2f 3d 08 ac 4c 3d 7a 97 f6 3c 4a 40 01 bd
       0.04279165 0.04996875 0.030101527 -0.03155545
000240 84 15 81 3c d7 b6 d6 bc ca 8f 27 3d d9 55 87 bc
       0.01575733 -0.026210232 0.040908612 -0.016520428
000250 e1 2e 97 bc ee 9a 24 3d 74 8a a0 3b 7a 6a 98 3c
       -0.01845497 0.040186815 0.0048993174 0.01860546
000260 83 7e 7f 3d af 3e 11 3d c5 ad 64 3d 70 c4 09 3d
       0.06237651 0.03546017 0.055829782 0.033634603
000270 cd d4 da 3c 26 34 71 bd 84 fa 21 bd 98 0d 04 ba
       0.0267128 -0.058887623 -0.03954555 -0.0005037426
000280 58 a8 28 bd 8d 76 8a 3d 2a f6 57 bb 17 40 33 bd
       -0.04117617 0.06760893 -0.0032953122 -0.043762293
000290 d2 64 dd bc 0e 3f dc 3c 49 a2 66 3c e1 82 04 bd
       -0.027025614 0.026885536 0.014076778 -0.03235138
0002a0 15 f8 8b bc be 26 c3 3c 07 90 02 3d 32 5e 3f 3d
       -0.017086068 0.023822185 0.031875636 0.04672069
0002b0 4b 89 60 3c 9d ef 65 3d d6 58 4f bd f6 fe af 3b
       0.013704608 0.056136716 -0.05062183 0.00537097
0002c0 5c 6e 26 3d f4 55 00 3d e7 aa 20 3d 9e fe 1a bd
       0.04063259 0.03133197 0.039225485 -0.037840478
0002d0 25 e5 82 ba be 20 8a 3b 17 82 02 bd 5e d9 3e 3d
       -0.0009986503 0.004215329 -0.031862345 0.046594016
0002e0 ba 99 1c 3d e3 52 ae bc 8c fe d5 bc 36 ae 5d bd
       0.038232543 -0.021279758 -0.026122354 -0.05412122
0002f0 8a c7 d1 bc f9 4c 91 3c b6 ab 62 3c be f1 67 bc
       -0.025607843 0.017736899 0.013834884 -0.014156757
000300 eb 56 02 bc 73 65 4d 3d 58 7c 5e bd 06 b2 71 3d
       -0.007955293 0.050145578 -0.054317802 0.059007667
000310 1a bb 2a bd d8 22 fe bc 82 83 d7 bc 3b 2f 20 3c
       -0.04168234 -0.031022474 -0.026307825 0.009776886
000320 b0 02 9a bc d1 c3 28 3b b7 13 ad 3c 8b 28 eb 3c
       -0.01880011 0.0025751481 0.021127565 0.028705856
000330 b2 49 8e 3c 20 d0 4f 3d 4c a5 67 3c 02 00 10 3d
       0.017369125 0.050735593 0.014138531 0.035156257
000340 21 73 fd 3b 99 73 3b 3d d7 88 6e 3d 5d b7 ba bc
       0.0077346717 0.04576454 0.05823597 -0.022792513
000350 c3 d5 dd 3c 53 35 1c 3d 23 f8 72 bc ae 93 0c bb
       0.027079469 0.03813679 -0.014829668 -0.0021450329
000360 d7 83 12 3d 9a ce 2e bd f4 9b 3b bd 1b 33 3f 3d
       0.035770264 -0.0426775 -0.045803025 0.046679597
000370 2a 6b b9 3c 69 06 7b bd 3c 8a 96 39 04 d7 9e bb
       0.022634108 -0.06128541 0.00028713222 -0.004847409
000380 54 2c 61 39 27 15 30 3d cd 51 1d bd fe f3 0f b9
       0.00021474186 0.042988922 -0.03840809 -0.00013728437
000390 ad e7 67 bc f2 b9 3c 3d eb 07 ba 3c c7 f5 fc 3b
       -0.014154357 0.04607577 0.022708854 0.0077197286
0003a0 b0 44 5c bd 20 a8 b5 3c 1b 7c 40 bc 62 24 b3 bd
       -0.053776443 0.022174895 -0.011748339 -0.08747174
0003b0 fa f3 03 bc f5 5b 91 bd 7f a9 6e 3d 66 91 02 3c
       -0.008053774 -0.070976175 0.058267113 0.007969236
0003c0 e0 c2 e6 3c 5c d8 51 3c 04 df 46 3d 65 f3 6d 3c
       0.028169096 0.012807932 0.048552528 0.014523362
0003d0 cc b7 38 bd 1b c3 2c bd 1e 77 5e 3d a5 d2 5e 3d
       -0.045097157 -0.042178255 0.054312818 0.054400105
0003e0 fa da a4 bc 8f ad bc 3c b5 cd 7e 3d 23 71 d9 bc
       -0.020123947 0.023031978 0.062207896 -0.026543206
0003f0 f5 1d 24 bd bf ab 20 3b 88 c1 13 3d f9 69 74 3c
       -0.04006763 0.002451643 0.036073238 0.014917844

features.8.bias f4 [128]
000000 59 ca 94 bc 4e 7d 26 bc 0e ec 03 bd 79 fb 1d 3d
       -0.018162893 -0.010161711 -0.03220754 0.0385699
000010 e7 bb 33 bd 0c 5e 45 3d 16 5d df bc 1d d7 23 bd
       -0.04388037 0.048185393 -0.027266067 -0.04000007
000020 0f aa 4d 3c c1 eb 6a bc 6f 15 15 bd fa b3 5a 3d
       0.012552752 -0.014338435 -0.036397394 0.053394295
000030 1a 22 a4 bc 7c a8 12 3d e9 56 d1 bc 42 76 59 bd
       -0.020035792 0.03580521 -0.025554137 -0.053091295
000040 fe 89 16 bd f5 98 1d 3d bf 3a 11 3d 8a 11 24 3d
       -0.036752693 0.03847595 0.035456415 0.04005579
000050 ba 1a c9 3c d9 ff 22 3b 1e 9d 2f 3d e1 4c 53 bc
       0.024548877 0.0024871735 0.042874448 -0.012896747
000060 e5 9b 00 bd 7d f2 12 3d bd 1c 2c bc db 19 54 bd
       -0.031398673 0.035875786 -0.010504899 -0.05178247
000070 a4 c1 5a 3d ca d4 17 bc bc f0 18 bd b0 98 63 3d
       0.053407326 -0.009267041 -0.037338957 0.055565536
000080 5c 71 2e 3d e3 d2 21 3d 38 0d 26 ba 05 03 ae bc
       0.042588577 0.039507758 -0.0006334367 -0.021241674
000090 9a 8f e3 bc ed 54 a7 bb 08 da df 3c 89 35 21 bd
       -0.027778435 -0.0051065595 0.027325645 -0.039357696
0000a0 3b c4 41 bd 6b ff d8 bc f3 fa 26 bb 9a ac 93 3c
       -0.04730628 -0.02648898 -0.0025479167 0.018026639
0000b0 d8 eb e5 3c 93 2e 5c 3d 32 4c 0b bd 49 bf e9 bc
       0.02806656 0.053755354 -0.034008212 -0.028533595
0000c0 8c c8 3c bc 27 f2 c2 3b a8 29 6d bd da 33 64 3d
       -0.0115224235 0.005949277 -0.057901055 0.055713512
0000d0 41 e2 20 3d ea d3 4c bc e5 7d 3f 3b e8 7b d5 bb
       0.039278273 -0.012501696 0.0029219326 -0.006515015
0000e0 48 1c 20 3d 23 27 c7 3c 70 3f cc bc 7b 07 c9 bc
       0.03908947 0.024310654 -0.024932593 -0.0245397
0000f0 37 db 38 bc 3e 91 b9 38 94 08 f2 bc 03 98 86 3c
       -0.011282734 8.848541e-05 -0.029545106 0.016429907
000100 47 4e d2 3c 64 e9 bd bc 3d fe 99 bc 57 55 87 bc
       0.025672091 -0.023182578 -0.018797988 -0.016520185
000110 eb ab ae 3a 29 76 52 bc 03 04 73 3d 8e f4 ce bc
       0.0013326382 -0.012845554 0.059329998 -0.025263097
000120 47 8f 37 bd e5 59 9d 3c ad b2 f7 bc 9f 7d 35 bd
       -0.044814374 0.019207904 -0.030236566 -0.044309255
000130 ab af 39 3d e7 f4 2a bc da a0 24 bd 9c 9c 53 3c
       0.045333546 -0.010434366 -0.040192463 0.012915757
000140 ee 15 95 bc 80 d1 06 bc c6 55 51 bd 6e 76 80 3b
       -0.018198933 -0.00822866 -0.05110719 0.003920368
000150 8c 00 17 bd 63 bd 4c bd 74 a7 43 bc 37 4a b6 bc
       -0.036865756 -0.0499853 -0.011941779 -0.022252185
000160 57 8e 20 bd 03 ed 2a bc 47 e5 40 bd c5 00 39 bd
       -0.039198246 -0.010432485 -0.047093656 -0.04516675
000170 50 64 ce 3c a4 b0 bc bc fb 65 2c bd d5 87 40 bd
       0.025194317 -0.023033448 -0.042089444 -0.04700454
000180 6f bf 14 3d c3 96 0f 3d 5a a3 d4 bc 26 9f 05 bd
       0.036315378 0.035055887 -0.025956798 -0.03262248
000190 dc 45 d8 bb 50 dc c2 3c 09 56 10 3d f8 bf f0 bc
       -0.0066001248 0.023786694 0.0352383 -0.029388413
0001a0 16 dd d9 3c 6f 53 ac bc 71 9b 9a 3d 63 a2 00 bd
       0.02659468 -0.021035878 0.07549179 -0.031404864
0001b0 b9 b7 62 3d ed db 2b bd 5e 2b 09 bd ad 3e 8e 3b
       0.055350993 -0.041957784 -0.033488624 0.0043409676
0001c0 c4 c8 e5 bc f6 94 1c 3d 38 5d 32 bd a8 94 16 bd
       -0.028049834 0.038227998 -0.04354593 -0.036762863
0001d0 ea bb ec 3c c9 84 26 3d 30 aa bf 3c 8e 06 58 3d
       0.028898198 0.040653978 0.023396581 0.052740626
0001e0 df 37 b6 3c 64 19 41 bd 7b 95 81 bb dc 04 fc bc
       0.022243438 -0.047143355 -0.003954587 -0.030764036
0001f0 46 75 0f 3d 1f 61 dc bb d2 50 49 3d b9 f0 1c 3d
       0.03502395 -0.006725445 0.049149342 0.03831551

features.9.weight f4 [128]
000000 e2 f3 7b 3f fe fc 7e 3f 52 6a 7b 3f 21 4c 81 3f
       0.9841901 0.99604785 0.98209107 1.0101358
000010 1b 91 7b 3f b3 aa 77 3f d9 6f 82 3f c4 20 74 3f
       0.9826829 0.9674484 1.0190383 0.95362496
000020 6d bc 72 3f fe 00 76 3f 39 65 83 3f 07 4c 84 3f
       0.94818765 0.96095264 1.0265266 1.0335702
000030 b4 99 82 3f 77 1d 75 3f b7 5b 78 3f fc 98 7c 3f
       1.0203156 0.95748085 0.97014946 0.98670936
000040 b0 f9 7e 3f 23 fd 77 3f 82 06 6d 3f 51 73 79 3f
       0.9959974 0.9687063 0.92588055 0.97441584
000050 50 a2 80 3f 6e 2d 83 3f 39 6a 80 3f 92 f6 7d 3f
       1.0049534 1.0248239 1.0032417 0.9920436
000060 00 f8 78 3f 55 3b 72 3f 4c 70 74 3f c1 10 7f 3f
       0.9725342 0.94621783 0.9548385 0.9963494
000070 f9 72 7a 3f 87 48 7d 3f ec f1 84 3f 07 18 7b 3f
       0.97831684 0.9893879 1.0386329 0.9808354
000080 11 43 80 3f 38 00 81 3f a2 a4 78 3f 3e 41 84 3f
       1.0020467 1.0078192 0.9712621 1.033241
000090 76 ae 80 3f b5 47 81 3f ac 17 7d 3f bd b1 7d 3f
       1.0053241 1.0100008 0.98864245 0.9909933
0000a0 76 09 7b 3f 11 42 84 3f 58 2c 80 3f ae e1 80 3f
       0.9806131 1.0332662 1.0013533 1.0068872
0000b0 76 c6 7c 3f d6 40 7d 3f 7e 31 84 3f 25 44 79 3f
       0.9874033 0.98927057 1.0327604 0.97369605
0000c0 bc e0 80 3f 20 09 7a 3f 77 35 81 3f f9 c3 79 3f
       1.0068583 0.97670174 1.0094441 0.97564656
0000d0 02 03 80 3f 6e a0 7d 3f ac 40 7a 3f 7e 10 85 3f
       1.0000918 0.9907292 0.9775493 1.0395658
0000e0 68 fb 7c 3f b8 e2 88 3f 15 63 71 3f ad b9 7f 3f
       0.98821115 1.0694189 0.9429181 0.99892694
0000f0 04 ba 72 3f a3 b2 83 3f 88 3f 77 3f 30 6b 7b 3f
       0.9481509 1.0288891 0.96581316 0.9821043
000100 b7 49 75 3f 4b 50 75 3f b9 eb 81 3f 63 ba 79 3f
       0.95815605 0.9582564 1.0150062 0.9755003
000110 37 ee 83 3f dd 3d 76 3f 59 ac 83 3f 1a c2 74 3f
       1.0307072 0.96188146 1.0286971 0.95608675
000120 f7 ee 76 3f c0 aa 81 3f 1d 97 77 3f be 62 83 3f
       0.9645838 1.0130234 0.96714956 1.0264509
000130 88 1c 73 3f 34 e7 81 3f de 52 78 3f ee 24 7a 3f
       0.9496541 1.0148683 0.97001445 0.977126
000140 fe 19 82 3f 55 17 80 3f 25 55 81 3f ec 62 7a 3f
       1.0164182 1.000712 1.0104109 0.9780719
000150 4c ed 81 3f 3c 82 82 3f eb df 82 3f 1f 6b 7d 3f
       1.0150542 1.0195994 1.0224584 0.9899158
000160 88 04 7d 3f 81 47 78 3f cd 2e 7a 3f 14 0d 7f 3f
       0.9883504 0.96984106 0.9772766 0.9962933
000170 6b 4b 78 3f d3 11 80 3f 76 b6 81 3f 3d 46 7f 3f
       0.9699008 1.000544 1.0133808 0.9971655
000180 f2 e5 71 3f 05 68 7b 3f 9e db 84 3f dd 0f 7e 3f
       0.94491494 0.98205596 1.0379522 0.99242955
000190 fb 05 77 3f 22 52 81 3f b7 2d 82 3f ff 49 87 3f
       0.964935 1.010319 1.0170201 1.0569457
0001a0 7c f9 72 3f d9 12 81 3f 49 56 86 3f dd 73 7c 3f
       0.9491193 1.0083877 1.0495082 0.98614293
0001b0 dc c3 74 3f e1 7e 71 3f d0 e0 7a 3f 3c 3c 73 3f
       0.9561136 0.94334227 0.97999287 0.95013785
0001c0 69 c0 6d 3f f8 09 88 3f fc 6b 70 3f e6 d9 7f 3f
       0.9287172 1.0628042 0.9391477 0.9994186
0001d0 70 e3 70 3f b6 88 83 3f 93 ff 78 3f b7 5b 7d 3f
       0.9409704 1.0276096 0.97264975 0.9896807
0001e0 1e 76 82 3f b5 e0 80 3f 42 7d 7c 3f fd bd 78 3f
       1.0192297 1.0068575 0.9862863 0.971649
0001f0 f5 09 75 3f 25 08 83 3f e8 03 81 3f ff 5c 80 3f
       0.9571832 1.023686 1.0079317 1.002838

features.9.bias f4 [128]
000000 1f c9 fe bc 16 b0 d7 bc 59 dc 59 bd 7b c7 14 bd
       -0.031101761 -0.026329082 -0.053188656 -0.036323052
000010 0a 9e dd bc 93 5e a7 bc 37 8f a4 bb b2 d1 c5 bc
       -0.027052898 -0.020430839 -0.0050219554 -0.024147842
000020 ec 0a 11 bd d4 ae 3c bd ce b5 f8 bc 23 47 1f bd
       -0.035410807 -0.046065167 -0.030360129 -0.0388862
000030 68 17 1a bd 69 69 e7 bc fb 29 ac bc 70 c3 5d bd
       -0.03761998 -0.028248506 -0.021016112 -0.05414146
000040 59 88 4b bc 5e 5d 41 bd 99 35 a2 bd c5 70 2c bd
       -0.0124226445 -0.047208183 -0.07920379 -0.042099733
000050 03 c7 3c bd fe 4c 83 bd fd af 6c bd 88 3c 27 bd
       -0.04608823 -0.064111695 -0.057785023 -0.04082921
000060 69 de 9f bc 6a eb 95 bd d0 65 85 bc 38 85 84 bd
       -0.019515233 -0.07320292 -0.0162839 -0.06470722
000070 3c 63 0f bc c0 01 66 bd cb f9 00 bd 69 de 3f bd
       -0.008751687 -0.056154013 -0.03148822 -0.046842966
000080 ac 5e 6a bd 9a 5f cb bb dc 83 95 bd 94 62 92 bd
       -0.057219192 -0.006206465 -0.07300541 -0.071477085
000090 bf 90 cb 3b 5f 5e 37 3c 39 10 d0 bd 7f c9 29 bd
       0.0062123234 0.011191933 -0.10159344 -0.041451927
0000a0 aa e5 0c 3c 45 15 27 bd b1 92 b9 bc 50 22 72 bc
       0.008599678 -0.04079177 -0.022652956 -0.014778689
0000b0 96 3b 4d bd 58 fc 92 bd 46 9c d7 bc 9c 9f b4 bd
       -0.050105654 -0.07177037 -0.026319634 -0.088195056
0000c0 12 f1 53 bd 0e 42 bb bc a6 2f 61 bd ec a9 46 bd
       -0.051743574 -0.022858646 -0.05497708 -0.048501894
0000d0 83 90 5f bd 65 62 00 bc b9 30 98 bd ed 6c 35 bd
       -0.054581176 -0.007835959 -0.07431168 -0.044293333
0000e0 8e ca a6 bd aa 90 c9 bd 81 71 4b bd 27 2f 6d bc
       -0.08144103 -0.098420456 -0.049668793 -0.014476574
0000f0 ab c9 05 bd e4 6c 8e bc 21 5e a6 bd d4 50 4e bd
       -0.03266303 -0.017385907 -0.081234224 -0.050370052
000100 bf 4d 80 bd 6d 64 9e bd ca 18 af bd 75 29 24 bd
       -0.06264829 -0.077339984 -0.0854965 -0.0400786
000110 1f a5 21 bd 24 ca 15 bd 0c e9 85 bd d5 e4 2b bb
       -0.039464112 -0.03656973 -0.06538591 -0.0026228924
000120 21 d2 82 bd 30 75 5a bd 21 36 67 3c a6 f1 63 bd
       -0.06387735 -0.053334415 0.014112026 -0.055650376
000130 b5 00 0d bd 38 ed 35 bd 54 3f db bc e8 93 89 3b
       -0.034424502 -0.044415683 -0.026763596 0.00419854
000140 2d 00 a3 bd 29 c2 9e bb a7 20 33 bd d5 57 93 bd
       -0.07959018 -0.004844923 -0.04373231 -0.07194487
000150 f3 aa 68 bc 28 07 9a bd bb 10 55 bd 4b d6 32 bd
       -0.014200914 -0.07520896 -0.05201791 -0.043661397
000160 5d a3 9f bd 1a 49 a2 bd c5 41 56 bd f2 4f 98 bb
       -0.07794831 -0.07924099 -0.052308816 -0.004648202
000170 2a 6e 3a bd 70 9f 82 bd 8a 38 13 bd 2b 8f 35 bc
       -0.045515217 -0.063780665 -0.03594259 -0.011081497
000180 17 57 54 bd f0 07 a0 bd f3 88 bc bd d9 62 03 bd
       -0.051840868 -0.07814014 -0.092058085 -0.03207669
000190 02 d9 3a bd 78 06 18 bd a6 5a c4 bb 5b 20 cc bc
       -0.04561711 -0.037115544 -0.0059922514 -0.024917772
0001a0 60 8c 29 bd f5 2c 6e bd 5f 98 23 bd 14 40 73 bd
       -0.041393638 -0.058148343 -0.039940234 -0.05938728
0001b0 8b 45 4d bd f9 75 a7 bd 78 8e be bd b8 f5 20 bd
       -0.05011515 -0.081767984 -0.093045175 -0.039296836
0001c0 72 c1 26 bd e7 48 ef bc d8 e6 fb bc 38 fe 64 bc
       -0.040711828 -0.029209567 -0.030749723 -0.013976626
0001d0 d7 8c b3 bc ed c0 9d bd bb 53 95 bd 83 b5 4c bd
       -0.021917744 -0.07702813 -0.07291361 -0.04997779
0001e0 13 9f 00 bd 9b e7 6e bd 37 d5 5e bd 65 58 b7 bc
       -0.031401705 -0.058326345 -0.054402556 -0.022381017
0001f0 c0 fa cc bc 35 7a 4b bd 85 d6 b3 bc 08 2b 29 bc
       -0.02502191 -0.049677093 -0.021952877 -0.010325201

features.9.running_mean f4 [128]
000000 12 2e bf 3e 6a 5c bf 3e a9 e6 f2 be 05 b3 26 be
       0.37339836 0.37375194 -0.47441605 -0.16279228
000010 5c 1f 8b 3e e5 03 54 bf 00 75 26 be 6d 9a 2d bf
       0.27172363 -0.8281844 -0.1625557 -0.6781376
000020 8b 85 54 bf bc d8 5b bf fa fc bd 3e e3 b0 e8 3e
       -0.8301627 -0.85877585 0.37107068 0.45447454
000030 c7 11 cf 3e 99 56 6f bf a5 d2 45 bf 6e 12 34 bf
       0.4044325 -0.9349151 -0.77274543 -0.7034062
000040 4c 73 43 bf cb 93 e7 3e a4 73 00 bf 24 2c aa be
       -0.76347804 0.45229945 -0.50176454 -0.33236802
000050 d0 7f f4 bf 03 d8 a5 bf b6 39 6a bf 8c b1 2f bf
       -1.9101505 -1.2956547 -0.9149431 -0.6863029
000060 7c 35 e1 be 10 8e ab be 0d d7 df be 4e 19 98 bf
       -0.43986118 -0.33506823 -0.43718758 -1.1882722
000070 88 28 00 bf b6 35 8c be 44 35 62 3e b1 b2 a1 bf
       -0.50061846 -0.27384728 0.22090632 -1.2632657
000080 a8 cf 8a 3d 36 91 1e 3e 9e 14 01 bf 7f c5 18 bf
       0.067778885 0.15485081 -0.50422084 -0.59676355
000090 d2 ea 6e bf 23 64 fb be 3a 2a 8b be c9 7e 7c 3f
       -0.9332706 -0.49099836 -0.27180654 0.9863096
0000a0 8b 6d 65 bf 1c 1e 7b 3e d2 f1 e9 3e 6c fe ca be
       -0.89620274 0.24523205 0.45692307 -0.39647233
0000b0 20 ff 84 bf 30 3d 4f 3e e0 33 5c bf 3d bf ad bf
       -1.0390358 0.20238185 -0.86016655 -1.3573986
0000c0 eb e5 5e 3d 21 2c 9b be 67 89 7b bf b2 47 83 3e
       0.054418486 -0.30307105 -0.98256534 0.25640637
0000d0 39 a7 72 bf be c0 0c bf 1a 8a 2f bd 69 ae a0 3e
       -0.9478641 -0.549816 -0.042856313 0.31383064
0000e0 8c d4 23 bf 0d 82 57 bf 5c 42 7d bf 92 04 1c 3d
       -0.63996196 -0.84182817 -0.9892938 0.038090296
0000f0 3a 56 82 bf 69 f3 c1 be 04 45 0c 3f 8c 32 7f 3d
       -1.0182564 -0.3788102 0.5479281 0.062304065
000100 64 52 da be 81 b4 2d bf 52 9f 18 3d 60 6d c7 be
       -0.42640984 -0.6785355 0.037261315 -0.38950634
000110 ed d9 85 bf 5a 1a a0 3f 8e 2a 8c bf a4 2f ed bd
       -1.0457131 1.2508042 -1.0950487 -0.11581352
000120 8b 53 7c be 3a 82 3a 3f ba 4a 00 be 3f d9 d6 bf
       -0.24641244 0.7285496 -0.12528506 -1.6785048
000130 7c 73 8c be 32 af 1f bf 9b 91 61 bf c5 ce 94 bf
       -0.27431858 -0.623767 -0.881128 -1.1625601
000140 be 4d c7 bf c2 36 13 bf fa 7a 2f 3f 04 6e 84 bf
       -1.55706 -0.5750543 0.6854702 -1.0346074
000150 77 af 68 3f 94 60 ed 3e 30 4f b4 bf 20 77 ea be
       0.9089274 0.46362746 -1.4086666 -0.4579401
000160 f8 4a 9f bf c9 4c 5b bf bc 5e b1 3e a8 03 5b bf
       -1.2444754 -0.8566404 0.3464259 -0.85552454
000170 63 c6 3c bf a6 51 5d 3e 6e 33 29 3f 9a 86 fb 3d
       -0.73740214 0.21613178 0.660941 0.122815326
000180 e6 8c a5 be a9 36 ca 3e 6f e0 93 3e d4 e6 8a be
       -0.3233406 0.39494827 0.28882167 -0.27129233
000190 5a ce 65 bf d9 bc ad 3e 5b 01 13 bf 52 cf b5 be
       -0.8976799 0.33933142 -0.57423943 -0.35509735
0001a0 17 0d e8 be ae 45 e1 3d 01 2a 03 3f ca 34 e5 bf
       -0.45322487 0.109996185 0.5123597 -1.7906735
0001b0 d5 2a 8b bf 24 dd 9b bf e5 66 07 3e b8 8e 7d bf
       -1.0872446 -1.2176862 0.13222845 -0.99045897
0001c0 47 7a 8a 3e a7 7c 81 bf 4b 9d 34 bf bc 46 8b be
       0.27046415 -1.0116166 -0.7055251 -0.27202404
0001d0 c1 4d 55 bf b8 c4 5b bf 9e 62 78 3e a6 80 a9 bf
       -0.8332177 -0.85847044 0.2425637 -1.3242385
0001e0 07 59 1b 3f de 20 87 bf 24 b9 38 bf 20 1c 75 3d
       0.6068272 -1.0556905 -0.721575 0.059841275
0001f0 8c b4 9a 3f e4 4d 19 bf a9 f7 af bf f5 fb 20 bf
       1.2086349 -0.59884477 -1.3747455 -0.62884456
