experiment_testing/mz-testing/checkpoints/ptbxl/62hz/cnn1d/fold_4/last.pt (torch, 628765 bytes, 26 tensors)

features.0.weight f4 [32, 12, 7]
0.02212936 0.07121551 -0.034681655 0.098353 0.03974706 -0.15784724 -0.13351716 -0.1047753
-0.10735507 0.07075396 0.04338293 -0.08770562 -0.009986468 -0.06343712 0.06518717 -0.122340344
0.09247173 0.041655913 -0.009035893 0.09951432 -0.014890008 0.08362827 0.06723436 0.029541008
0.021094523 -0.08451722 0.122196585 0.041376684 -0.026587706 0.039911564 0.04451308 0.024622234
0.048099138 -0.065387554 -0.08847388 0.052073542 -0.00020649326 -0.041335203 0.046992335 0.052530017
0.093927816 0.13220184 0.04107573 -0.06342304 -0.042986788 -0.025344808 0.11502558 0.0125926975
0.13639414 -0.084769286 -0.04234311 -0.049814794 0.09117523 0.047102083 -0.06212171 -0.092996456
-0.1288272 -0.02500742 0.020607086 0.039797153 -0.0010957983 -0.06772448 -0.024687774 -0.061280057
-0.001273228 -0.050714787 -0.05931409 0.0036460895 -0.0542463 -0.018901397 -0.09022877 -0.085835055
0.08213933 -0.08194242 0.0009933456 0.03721083 0.0053875316 -0.11451259 0.04745889 -0.08439018
0.11647675 -0.09513072 -0.11120125 0.07255779 0.103267126 0.018131549 -0.06869508 0.07595093
-0.112333916 0.04649869 -0.06335735 0.07130083 -0.059664052 -0.08023074 0.035804927 -0.043347754
-0.1506355 -0.019641647 -0.08461186 -0.082695246 0.053018596 0.043311615 0.00069524354 -0.040139418
-0.08141668 -0.032320615 0.01905064 -0.061767444 0.019600146 0.10409092 0.047218286 0.0038921968
-0.08505588 -0.062300973 -0.045959007 0.02081725 0.089757696 0.02719656 -0.020965308 0.117571086
0.02095544 0.089822985 -0.030546185 -0.037378605 0.033440273 -0.07588046 0.1779082 0.14650218
-0.00027691375 -0.015831204 0.06811676 -0.06496366 0.1167874 -0.03871033 0.048363388 0.09128996
0.112713784 0.06966731 -0.04102404 -0.028633572 0.011802978 -0.022637798 0.008887001 -0.00494816
-0.020881582 0.047796894 0.025843509 0.04425303 0.0512213 -0.0053821364 -0.05391421 -0.06421048
-0.0051061534 0.04693038 0.07500374 0.028359883 -0.05444506 0.026129324 0.0014021421 -0.002221718
0.044872735 -0.042196754 -0.06064219 -0.07075677 -0.120196484 0.00777807 0.034080993 -0.06313195
0.08531739 0.05781622 -0.0039043128 0.009736792 -0.022845466 0.0023073836 -0.08868053 0.10972165
-0.058272522 0.055558622 -0.104413316 -0.07574141 -0.036106043 0.009357121 0.06672791 0.07446109
0.05996139 -0.053053066 -0.022423673 0.031745575 -0.031039769 0.044840742 -0.091950044 0.073553935
0.040477797 -0.07362418 0.10363029 0.077335685 -0.11069598 0.00044220735 0.039651986 0.011986985
0.14902025 -0.01346061 -0.02214269 0.13903292 -0.0389076 0.06277582 -0.055679597 -0.07530883
0.05220202 -0.091660984 0.115694776 0.13495013 -0.06754159 -0.017255764 -0.097328246 -0.07884059
-0.07661293 -0.037717637 -0.0035096612 0.042633884 -0.08562502 0.06249517 0.08637855 0.016192643
0.021176275 0.016931025 -0.07023227 0.08558008 -0.03434616 0.015263838 0.037293643 -0.05403409
0.023862874 -0.029863628 0.008738147 -0.05119652 -0.07211007 -0.045470193 0.041532964 -0.12898351
0.016843019 -0.07421431 -0.0133069875 -0.016473776 0.08737808 -0.036962073 0.002215546 -0.12144651
-0.0062493864 0.0022051749 0.069944374 0.08641931 0.021341763 0.08336787 0.05089815 -0.029556248
00000000: a248 b53c 70d9 913d 5a0e 0ebd 4c6d c93d
00000010: d0cd 223d b5a2 21be b9b8 08be 6f94 d6bd
00000020: fadc dbbd 74e7 903d 4db2 313d 019f b3bd
00000030: 489e 23bc 52eb 81bd da80 853d 938d fabd
00000040: d261 bd3d 649f 2a3d 480b 14bc 2ace cb3d
00000050: 38f5 73bc 4c45 ab3d 2bb2 893d fcff f13c
00000060: 6cce ac3c 5d17 adbd 3442 fa3d 997a 293d
00000070: 76ce d9bc 4f7a 233d 5953 363d 91b4 c93c
00000080: 9a03 453d e9e9 85bd cb31 b5bd 114b 553d
00000090: 1d86 58b9 1a4f 29bd 097b 403d b729 573d
000000a0: 3a5d c03d eb5f 073e 063f 283d f0e3 81bd
000000b0: ea12 30bd ea9f cfbc 8892 eb3d 9a51 4e3c
000000c0: e8aa 0b3e 859b adbd f86f 2dbd 990a 4cbd
000000d0: 14ba ba3d 1dee 403d 5673 7ebd ed74 bebd
000000e0: 47eb 03be 5cdc ccbc 31d0 a83c 5702 233d
000000f0: e4a0 8fba 22b3 8abd 043e cabc cc00 7bbd
00000100: 71e2 a6ba 4fba 4fbd 55f3 72bd 3bf3 6e3b
00000110: 5e31 5ebd 1ad7 9abc ddc9 b8bd 4aca afbd
00000120: aa38 a83d 6dd1 a7bd 2633 823a 626a 183d
00000130: e489 b03b 9485 eabd 4164 423d c2d4 acbd
00000140: 5d8b ee3d e5d3 c2bd 7bbd e3bd 2e99 943d
00000150: b77d d33d 9d88 943c 02b0 8cbd 298c 9b3d
00000160: 530f e6bd 6975 3e3d 80c1 81bd 2b06 923d
00000170: 4b62 74bd 0450 a4bd 30a8 123d 6a8d 31bd
00000180: 3140 1abe 85e7 a0bc fc48 adbd 205c a9bd
00000190: 072a 593d 8567 313d 0141 363a 3b69 24bd
000001a0: cabd a6bd 9f62 04bd 1610 9c3c dcff 7cbd
000001b0: 7c90 a03c 9f2d d53d f667 413d 3a14 7f3b
000001c0: c731 aebd 4e2f 7fbd 833f 3cbd f088 aa3c
000001d0: e2d2 b73d 52cb de3c 70bf abbc 1cc9 f03d
000001e0: beaa ab3c 1df5 b73d fe3b fabc 4f1a 19bd
000001f0: abf8 083d 3767 9bbd 912d 363e ab04 163e
00000200: bc2e 91b9 71b0 81bc cd80 8b3d ab0b 85bd
00000210: 3b2e ef3d b98e 1ebd b018 463d 3bf6 ba3d
00000220: 7cd6 e63d bcad 8e3d d308 28bd f490 eabc
00000230: 4761 413c e772 b9bc c99a 113c 2d24 a2bb
00000240: da0f abbc adc6 433d c4b5 d33c aa42 353d
00000250: 6dcd 513d a25c b0bb 26d5 5cbd c980 83bd
00000260: 8551 a7bb 123a 403d 909b 993d fc52 e83c
00000270: c901 5fbd 2a0d d63c 15c8 b73a 3e9a 11bb
00000280: 79cc 373d 81d6 2cbd f263 78bd ede8 90bd
00000290: 9329 f6bd 2edf fe3b 8398 0b3d 534b 81bd
000002a0: e2ba ae3d b3d0 6c3d 80df 7fbb 1187 1f3c
000002b0: 6a26 bbbc 7937 173b 239e b5bd bfb5 e03d
000002c0: 2baf 6ebd 7091 633d a6d6 d5bd 501e 9bbd
000002d0: eee3 13bd 9c4e 193c a4a8 883d 0e7f 983d
000002e0: 139a 753d 2c4e 59bd dab1 b7bc a607 023d
000002f0: 1d47 febc edaa 373d 4e50 bcbd 72a3 963d
00000300: 0ccc 253d 46c8 96bd 1e3c d43d 2c62 9e3d
00000310: 93b4 e2bd 11d8 e739 1f6a 223d 0f65 443c
00000320: c498 183e e489 5cbc 9664 b5bc a55e 0e3e
00000330: 935d 1fbd 9c90 803d 4a10 64bd 843b 9abd
00000340: c9d1 553d c1b8 bbbd 62f1 ec3d 5e30 0a3e
00000350: 3f53 8abd f65b 8dbc 0854 c7bd 2d77 a1bd
00000360: 3de7 9cbd cf7d 1abd 5802 66bb dea0 2e3d
00000370: 2c5c afbd effa 7f3d 3de7 b03d 6fa6 843c
00000380: de79 ad3c efb2 8a3c f0d5 8fbd 9c44 af3d
00000390: 8fae 0cbd 2d15 7a3c 38c1 183d da52 5dbd
000003a0: 137c c33c 91a4 f4bc 722a 0f3c 71b3 51bd
000003b0: 72ae 93bd f43e 3abd 781e 2a3d 4114 04be
000003c0: 5ffa 893c acfd 97bd 8d05 5abc 03f4 86bc
000003d0: 47f3 b23d 8b65 17bd b232 113b f3b8 f8bd
000003e0: a7c7 ccbb b284 103b ff3e 8f3d 9bfc b03d
000003f0: ecd4 ae3c c6bc aa3d 947a 503d f21f f2bc

features.0.bias f4 [32]
0.060661208 -0.019145777 0.04378363 -0.058496803 0.09870218 0.06700145 0.052396413 -0.044970516
-0.10893926 0.06361033 -0.118707985 0.096722454 -0.057471737 -0.07631904 0.082202576 0.007896219
-0.0018381344 -0.11184914 -0.039696667 0.003327438 0.088994235 -0.04972188 -0.02574524 0.07026983
-0.0029216832 0.09770526 0.073605515 0.010069681 0.0010638726 0.08705749 -0.007910986 -0.033274222
00000000: e377 783d 9bd7 9cbc 7756 333d 589a 6fbd
00000010: 5e24 ca3d 0e38 893d 9f9d 563d 0133 38bd
00000020: 8c1b dfbd 2246 823d 2c1d f3bd 6c16 c63d
00000030: 7c67 6bbd 284d 9cbd d359 a83d 255f 013c
00000040: 8eed f0ba 2911 e5bd f998 22bd 2511 5a3b
00000050: 9c42 b63d 2ca9 4bbd aee7 d2bc a1e9 8f3d
00000060: b679 3fbb b219 c83d 7dbe 963d 4efb 243c
00000070: a471 8b3a 334b b23d 159d 01bc 8d4a 08bd

features.1.weight f4 [32]
0.9998732 0.9826883 1.07709 0.98837095 0.9710443 0.9749312 0.99789244 1.0111634
1.0196649 1.0165228 0.99956316 0.9925449 1.0766813 0.97778714 0.98241496 0.97849953
0.99500537 1.0015376 0.97515136 1.0172815 1.0266106 0.971079 1.0263184 1.0140924
0.98134315 0.9999703 0.9828335 0.998396 0.98995894 1.0431606 0.99586606 0.95237666
00000000: b1f7 7f3f 7691 7b3f 16de 893f e105 7d3f
00000010: 5c96 783f 1795 793f e175 7f3f cd6d 813f
00000020: 6184 823f 6b1d 823f 5fe3 7f3f 6c17 7e3f
00000030: b1d0 893f 4250 7a3f 8c7f 7b3f f27e 7a3f
00000040: acb8 7e3f 6232 803f 85a3 793f 4836 823f
00000050: fa67 833f a298 783f 675e 833f c8cd 813f
00000060: 4e39 7b3f 0efe 7f3f fa9a 7b3f e196 7f3f
00000070: f36d 7d3f 4986 853f 14f1 7e3f f5ce 733f

features.1.bias f4 [32]
0.0081441365 -0.0037455482 0.09199095 -0.052804217 0.0038276839 0.030347984 0.050716773 0.012811254
-0.008218082 0.061318275 0.0131556485 -0.035317726 0.11262688 0.0038911677 0.008091709 -0.004993518
0.033291012 0.08526334 -0.0050199595 -0.0069660465 0.038214646 0.01884578 0.00557092 0.0152585935
0.03409119 -0.00783574 0.01254683 0.027704014 0.019780535 0.087280914 0.053542376 -0.054165315
00000000: fc6e 053c df77 75bb c065 bc3d 3c49 58bd
00000010: e1d9 7a3b 569c f83c 64bc 4f3d 4be6 513c
00000020: 22a5 06bc df28 7b3d ca8a 573c 52a9 10bd
00000030: eca8 e63d f602 7f3b 1693 043c aaa0 a3bb
00000040: 285c 083d 8c9e ae3d 797e a4bb 6f43 e4bb
00000050: f686 1c3d 7762 9a3c 448c b63b 2eff 793c
00000060: 34a3 0b3d 7a61 00bc 3891 4d3c 87f3 e23c
00000070: ca0a a23c 56c0 b23d 404f 5b3d 73dc 5dbd

features.1.running_mean f4 [32]
0.06070599 -0.019061053 0.044065755 -0.058351103 0.09805393 0.06721291 0.052114002 -0.04488159
-0.1089514 0.06360634 -0.11869418 0.09654433 -0.057662427 -0.07627793 0.082180955 0.007743398
-0.0017559564 -0.11173706 -0.039718017 0.0032048954 0.08933468 -0.04969655 -0.025482329 0.07042605
-0.003017744 0.097600825 0.07367516 0.009844634 0.0011281307 0.086908616 -0.008175887 -0.033151105
00000000: d8a6 783d ed25 9cbc 4b7e 343d 9101 6fbd
00000010: 80d0 c83d eca6 893d 7e75 553d c2d5 37bd
00000020: e921 dfbd 0a44 823d ef15 f3bd 09b9 c53d
00000030: 702f 6cbd 9a37 9cbd 7d4e a83d 55bc fd3b
00000040: 1f28 e6ba 66d6 e4bd 5caf 22bd 3909 523b
00000050: 1af5 b63d 9c8e 4bbd 51c0 d0bc 883b 903d
00000060: 58c5 45bb f1e2 c73d 01e3 963d 634b 213c
00000070: c9dd 933a 25fd b13d 28f4 05bc 74c9 07bd

features.1.running_var f4 [32]
0.6619451 0.40862846 0.20910041 0.2707332 0.21983433 0.32625577 1.2117374 0.4075087
0.9894607 0.60217214 0.79498595 0.49190715 0.9731905 0.53313816 0.27037522 0.99879473
0.36865705 0.4242769 0.48654777 1.0540029 1.0587493 0.47285694 0.7244685 0.614444
0.39318836 0.909719 0.37955502 0.9598696 0.30417728 0.46109363 0.42465 0.45117766
00000000: 3c75 293f c037 d13e 6b1e 563e 8b9d 8a3e
00000010: 401c 613e ff0a a73e 361a 9b3f fba4 d03e
00000020: 4c4d 7d3f f427 1a3f 3384 4b3f 41db fb3e
00000030: 0323 793f be7b 083f 9f6e 8a3e 03b1 7f3f
00000040: 9ec0 bc3e d23a d93e ca1c f93e 91e9 863f
00000050: 1985 873f 4e1a f23e c576 393f 344c 1d3f
00000060: fc4f c93e 58e3 683f 0955 c23e 04ba 753f
00000070: 20bd 9b3e 7714 ec3e ba6b d93e c200 e73e

features.4.weight f4 [64, 32, 5]
0.009738367 0.006670754 0.058234822 0.038021024 -0.0046754996 0.026394516 0.044203334 -0.04609478
-0.046338033 0.058621448 0.0021275461 -0.121645525 0.068672 0.040482994 0.06604864 0.03049066
-0.03746379 -0.042404905 0.035859562 0.0029969583 0.0025249613 -0.010468435 -0.04121445 -0.046513617
-0.0002496843 -0.037346568 0.010990012 0.06735747 -0.041072957 0.06850929 0.025258075 -0.07452502
0.0319882 -0.07551514 0.032193374 -0.032501563 0.0744161 0.0660471 -0.07931751 0.05223064
0.024433028 -0.017639944 -0.024458028 -0.034902073 0.014506036 0.039049365 0.0573395 0.067122445
0.03656927 -0.011965821 0.09169762 0.06613736 0.05985383 0.030099945 -0.04565203 0.027870255
0.08327828 0.03701875 -0.059432283 0.015544027 -0.062673956 0.06514723 -0.058454003 0.060000736
-0.045376804 -0.04862311 -0.020451032 -0.046909682 -0.017673653 -0.017685505 0.041836046 0.009743009
-0.012852086 -0.0838377 0.044368133 -0.09899117 -0.015925718 0.017165076 0.027041057 -0.08114788
-0.0072873314 0.01591915 0.058775056 -0.015798384 0.06043335 0.018148754 0.07098007 -0.06488473
0.085724235 -0.028716844 -0.031093499 0.061795328 -0.06451204 -0.042715188 0.057287823 0.032426
0.06835939 -0.056126405 0.06482545 0.06825415 0.02843061 0.050001748 -0.0005801518 -0.023997491
-0.035440788 -0.05696499 0.0205911 -0.029298915 -0.052951053 0.03543962 0.06878908 -0.009533504
-0.076156236 0.032287803 0.013248371 0.01959031 -0.07490174 -0.019845944 0.0070178555 0.105784744
0.051097013 -0.059628446 0.05422772 0.079350345 -0.032612134 -0.08030973 -0.057804868 -0.0732089
-0.037847072 -0.058607865 0.03569237 0.03561875 0.0013352758 -0.037370246 -0.004991152 0.04547755
-0.03443115 0.02901612 -0.0117274895 -0.05638676 0.072113626 0.011118863 0.07625437 -0.041526742
0.09826531 0.0037665318 -0.018893242 0.031227736 0.06925243 0.060093094 0.026918912 0.03994007
-0.082574934 -0.06515265 -0.055347923 -0.029174825 0.043554388 -0.024838112 0.026200667 0.023131525
-0.060338408 0.047833562 0.052932892 0.04782275 0.0115572335 -0.02153901 -0.05312133 0.088516004
0.00582086 0.037977282 0.07159674 -0.03202173 0.06433242 0.08010113 0.024298152 0.06212441
-0.0067154933 -0.052870337 -0.012330704 0.09797848 -0.016059626 0.01929908 0.07531676 0.06708051
-0.08454349 -0.06379848 -0.05280887 0.05712277 0.031333424 0.027011782 0.019505171 0.010696577
0.04530596 0.03230734 0.02494625 0.012477547 0.001468554 -0.052635845 0.004570529 0.025036387
0.011310201 -0.11481915 -0.084503435 0.07649913 -0.013020601 -0.0463985 0.028978292 -0.010365649
0.11142599 -0.012926357 -0.056747265 -0.013247597 0.0320424 0.029858343 0.047290448 -0.044350445
-0.06348272 -0.051711537 0.07906745 0.009436068 0.059975132 0.016940452 -0.047361434 -0.10094359
0.04389263 0.024325952 -0.080878295 -0.041300744 0.08388924 0.020299705 0.03512374 0.035018116
0.019745138 -0.05765266 -0.061815433 0.032723866 0.066408165 -0.026258713 0.036467362 -0.0016468624
-0.07006549 -0.09277639 0.007258973 -0.012794373 0.06825853 0.03606457 -0.046176516 0.0033759286
-0.03794852 0.043410376 0.025843522 -0.019141177 0.04145282 -0.05974431 -0.0029030603 0.009891864
00000000: ac8d 1f3c 5796 da3b a387 6e3d efbb 1b3d
00000010: ef34 99bb 5039 d83c 8e0e 353d e1cd 3cbd
00000020: f3cc 3dbd 0b1d 703d 4d6e 0b3b 4a21 f9bd
00000030: e8a3 8c3d 7fd1 253d 8244 873d 8cc7 f93c
00000040: a273 19bd c4b0 2dbd 7ae1 123d 9e68 443b
00000050: d279 253b cc83 2bbc 7cd0 28bd 1085 3ebd
00000060: 0fe8 82b9 b7f8 18bd 740f 343c b7f2 893d
00000070: 1e3c 28bd 994e 8c3d 06ea ce3c 93a0 98bd
00000080: 0f06 033d afa7 9abd 33dd 033d 5c20 05bd
00000090: 7867 983d b443 873d 3871 a2bd ccef 553d
000000a0: c627 c83c a581 90bc 345c c8bc 7af5 0ebd
000000b0: baaa 6d3c 3af2 1f3d d3dc 6a3d 7e77 893d
000000c0: a9c9 153d 4a0c 44bc f6cb bb3d 0673 873d
000000d0: 4a29 753d 2994 f63c 9ffd 3abd 2950 e43c
000000e0: ce8d aa3d f9a0 173d 446f 73bd 60ac 7e3c
000000f0: 345b 80bd e96b 853d 776d 6fbd 55c3 753d
00000100: 07dd 39bd 0729 47bd ec88 a7bc 5e24 40bd
00000110: 56c8 90bc 31e1 90bc 465c 2b3d 24a1 1f3c
00000120: 8e91 52bc 1ab3 abbd 5cbb 353d e2bb cabd
00000130: a776 82bc c69d 8c3c 3585 dd3c dc30 a6bd
00000140: 91ca eebb e168 823c 1dbe 703d 9d6b 81bc
00000150: f688 773d b2ac 943c 005e 913d 49e2 84bd
00000160: 3090 af3d 963f ebbc cbb7 febc 191d 7d3d
00000170: e31e 84bd 1ff6 2ebd a3a6 6a3d 20d1 043d
00000180: 0200 8c3d cde4 65bd 35c3 843d d5c8 8b3d
00000190: 50e7 e83c a2ce 4c3d 5415 18ba 6396 c4bc
000001a0: 5c2a 11bd 1f54 69bd abae a83c 4704 f0bc
000001b0: 34e3 58bd 2329 113d 4ae1 8c3d 6a32 1cbc
000001c0: cdf7 9bbd 3740 043d b20f 593c dc7b a03c
000001d0: 1566 99bd f693 a2bc 0af6 e53b aca5 d83d
000001e0: 1a4b 513d f53c 74bd e31d 5e3d 6f82 a23d
000001f0: 4d94 05bd 6d79 a4bd ccc4 6cbd 8cee 95bd
00000200: 8805 1bbd cd0e 70bd 2a32 123d f7e4 113d
00000210: 6c04 af3a 8b11 19bd d18c a3bb ab46 3a3d
00000220: ad07 0dbd 37b3 ed3c a824 40bc cef5 66bd
00000230: 4fb0 933d e42b 363c 402b 9c3d f217 2abd
00000240: 533f c93d ebd7 763b 00c6 9abc 4fd1 ff3c
00000250: 38d4 8d3d 2d24 763d 0d85 dc3c 3398 233d
00000260: 0c1d a9bd c16e 85bd 81b4 62bd 0b00 efbc
00000270: 1666 323d 4c79 cbbc c8a2 d63c 537e bd3c
00000280: 6825 77bd 20ed 433d 29d0 583d cae1 433d
00000290: 8d5a 3d3c 9472 b0bc c095 59bd e147 b53d
000002a0: eabc be3b 118e 1b3d 50a1 923d 3829 03bd
000002b0: b7c0 833d 100c a43d eb0c c73c 2a76 7e3d
000002c0: a40d dcbb 918e 58bd b906 4abc f1a8 c83d
000002d0: 7a8f 83bc 1b19 9e3c ac3f 9a3d 8261 893d
000002e0: 2325 adbd c7a8 82bd 1d4e 58bd 91f9 693d
000002f0: 7a57 003d d047 dd3c 4fc9 9f3c b240 2f3c
00000300: be92 393d b454 043d 145c cc3c a06e 4c3c
00000310: 7f7c c03a af98 57bd 60c4 953b 1c19 cd3c
00000320: 6c4e 393c 4d26 ebbd 2310 adbd 93ab 9c3d
00000330: 5c54 55bc 5b0c 3ebd e263 ed3c afd4 29bc
00000340: 4f33 e43d 12c9 53bc d26f 68bd 730c 59bc
00000350: e43e 033d 7c99 f43c a1b3 413d d0a8 35bd
00000360: 3a03 82bd 7acf 53bd 1dee a13d bd99 1a3c
00000370: 7ca8 753d b4c6 8a3c 10fe 41bd 83bb cebd
00000380: c2c8 333d 3847 c73c 85a3 a5bd f82a 29bd
00000390: 1fce ab3d 914b a63c e9dd 0f3d 286f 0f3d
000003a0: 8ec0 a13c 3225 6cbd 2e32 7dbd 7609 063d
000003b0: 0101 883d 831c d7bc cd5e 153d 88db d7ba
000003c0: 7f7e 8fbd 8c01 bebd aedc ed3b 7d9f 51bc
000003d0: 21cb 8b3d 71b8 133d 9623 3dbd af3e 5d3b
000003e0: e86f 1bbd 14cf 313d cbb5 d33c f5cd 9cbc
000003f0: 6fca 293d 73b6 74bd 4541 3ebb 7c11 223c

features.4.bias f4 [64]
-0.0030976222 0.07177188 -0.04381806 0.08168012 0.0068242005 0.08121873 0.04835053 -0.069622114
-0.00041384832 -0.009203166 0.04557113 -0.05131328 -0.055938434 -0.062081564 0.02040208 -0.06463699
-0.05436604 -0.04770876 -0.06506438 0.06272322 -0.07634544 0.027265638 0.056399573 -0.039981276
-0.021613982 -0.03909214 -0.06560505 0.010883593 0.03945362 0.034272928 0.08757286 -0.07575465
0.01343856 -0.011935213 -0.05232925 -0.0143315345 0.06563142 -0.038455468 -0.0030948406 -0.024241932
-0.038286116 0.000114497176 -0.08264712 0.06295876 -0.087457284 0.011691984 -0.03646332 -0.060450036
-0.028421406 -0.014470498 -0.016384741 -0.016560063 0.06278794 0.0661606 0.07670588 0.061184913
-0.036921833 -0.06361051 -0.017743886 0.052364424 0.007060764 -0.03415727 0.03555602 -0.0089821145
00000000: 7a01 4bbb 23fd 923d 917a 33bd e847 a73d
00000010: 8b9d df3b 0156 a63d 350b 463d 0a96 8ebd
00000020: c8f9 d8b9 e0c8 16bc cba8 3a3d e02d 52bd
00000030: b31f 65bd 3d49 7ebd 4322 a73c 6660 84bd
00000040: edae 5ebd 436a 43bd 7940 85bd 0875 803d
00000050: ff5a 9cbd 305c df3c 3d03 673d 68c3 23bd
00000060: ce0f b1bc 141f 20bd f15b 86bd 1951 323c
00000070: 1e9a 213d c561 0c3d 6659 b33d 4125 9bbd
00000080: 682d 5c3c e98b 43bc 3257 56bd d0ce 6abc
00000090: c469 863d 7b83 1dbd cfd2 4abb 0497 c6bc
000000a0: e7d1 1cbd 341e f038 e542 a9bd 86f0 803d
000000b0: ce1c b3bd bc8f 3f3c 905a 15bd 759a 77bd
000000c0: 02d4 e8bc ab15 6dbc 4b39 86bc f8a8 87bc
000000d0: f796 803d 357f 873d f917 9d3d 089d 7a3d
000000e0: 593b 17bd 3a46 82bd a05b 91bc 147c 563d
000000f0: fb5d e73b 7ee8 0bbd 30a3 113d b829 13bc

features.5.weight f4 [64]
0.9553866 1.0387013 0.98460776 1.0097977 0.9817251 1.0657692 0.9309784 1.006636
0.9802171 1.047501 0.97942466 1.0539262 0.9618704 0.9631846 1.0419294 1.0051956
0.98410785 0.98891413 0.9606636 0.95856136 0.9915549 1.0044756 0.9932929 0.9722335
0.99378645 0.9912115 1.0133318 1.0004858 0.98953384 0.9740194 0.9811136 1.0449277
0.980059 0.9866439 1.012633 0.9940104 0.9972929 1.1122522 0.9993228 0.97300595
0.973015 0.99050075 0.9866478 0.96683943 0.99610454 0.9527572 0.9553535 1.0084486
1.0208088 1.0070207 0.97608995 0.9710944 1.0056776 0.99657935 0.98255694 0.98478657
1.0325284 0.99847543 1.0113877 1.0705088 0.9661377 1.019468 0.98406804 1.1105502
00000000: 3794 743f 2af4 843f 410f 7c3f 0d41 813f
00000010: 5652 7b3f 206b 883f 9a54 6e3f 73d9 803f
00000020: 82ef 7a3f 8314 863f 93bb 7a3f 0ee7 863f
00000030: 233d 763f 4493 763f f15d 853f 40aa 803f
00000040: 7eee 7b3f 7a29 7d3f 0dee 753f 4764 753f
00000050: 8bd6 7d3f a892 803f 7248 7e3f 4be4 783f
00000060: ca68 7e3f 09c0 7d3f dbb4 813f eb0f 803f
00000070: 1752 7d3f 5659 793f 432a 7b3f 31c0 853f
00000080: 26e5 7a3f b294 7c3f f59d 813f 7777 7e3f
00000090: 964e 7f3f 485e 8e3f 9ed3 7f3f eb16 793f
000000a0: 8317 793f 7591 7d3f f394 7c3f ca82 773f
000000b0: b500 7f3f e5e7 733f 0c92 743f d814 813f
000000c0: dda9 823f 0ee6 803f 08e1 793f a599 783f
000000d0: 0bba 803f d31f 7f3f da88 7b3f f91a 7c3f
000000e0: e429 843f 169c 7f3f 2775 813f 6f06 893f
000000f0: cd54 773f ed7d 823f e2eb 7b3f 8226 8e3f

features.5.bias f4 [64]
-0.0326974 -0.10531643 -0.038733352 -0.013674646 -0.06333367 0.024052005 -0.017170157 0.018669223
-0.03862159 0.01625873 -0.006205213 0.02700275 -0.03587581 -0.074824505 -0.026813496 0.007293576
-0.02885057 -0.0071772146 0.0060002035 -0.033981428 -0.021971278 -0.012076761 0.0013623559 -0.011261104
0.0071598655 -0.015081448 -0.028205873 -0.03067795 -0.02552533 -0.009649379 -0.0344782 -0.017020024
-0.03466051 -0.05625013 -0.021178698 -0.022519775 -0.06416225 -0.00921994 -0.025761975 0.006115213
-0.021631408 -0.009274042 -0.029823022 -0.02232856 0.0015442605 -0.025027769 -0.03677043 -0.006808169
0.016468702 0.060681123 -0.005728577 -0.013208134 -0.032345884 -0.016342292 -0.008767676 -0.0011380126
-0.012606262 0.010757779 -0.0044594076 0.04446613 -0.054476798 -0.010058362 0.020113233 -0.055472907
00000000: b5ed 05bd 24b0 d7bd dda6 1ebd 9f0b 60bc
00000010: 15b5 81bd b608 c53c 6ea8 8cbc 33f0 983c
00000020: ac31 1ebd 0731 853c 1955 cbbb df34 dd3c
00000030: 83f2 12bd 973d 99bd faa7 dbbc f3fe ee3b
00000040: 0858 ecbc d72e ebbb 5b9d c43b 1c30 0bbd
00000050: 1cfd b3bc 9bdd 45bc 1491 b23a 7e80 38bc
00000060: 4e9d ea3b 2d18 77bc 0110 e7bc 5350 fbbc
00000070: 7f1a d1bc 6e18 1ebc 0339 0dbd 946d 8bbc
00000080: 2ef8 0dbd 8966 66bd f37e adbc 647b b8bc
00000090: 7f67 83bd 3b0f 17bc c70a d3bc 2062 c83b
000000a0: 5a34 b1bc 27f2 17bc 694f f4bc 62ea b6bc
000000b0: c968 ca3a 0907 cdbc 979c 16bd 1017 dfbb
000000c0: 5fe9 863c c58c 783d c9b6 bbbb ee66 58bc
000000d0: 1e7d 04bd 45e0 85bc 4ca6 0fbc 5e29 95ba
000000e0: 7f8a 4ebc 6541 303c 3920 92bb 1e22 363d
000000f0: 1023 5fbd d4cb 24bc 82c4 a43c 8f37 63bd

features.5.running_mean f4 [64]
0.3124445 0.34837213 -0.6284394 -0.31366217 -0.3167856 -0.03295805 0.20310546 -0.15982369
-0.23968847 -0.20918514 -0.23011024 -0.34549564 -0.29935414 -0.2141599 0.19440515 -0.38978973
0.7796569 -0.47125047 -0.0393518 -0.31655586 -1.0078349 -0.397533 -0.43099758 -0.08552298
-0.44963154 -0.37037125 0.12100579 -0.17606853 0.04902288 -0.23311794 -0.15877873 0.10946472
-0.42868066 -0.4676201 -0.34871432 -0.3682107 0.2573757 -0.4616972 -0.18640469 -0.23062612
-0.5140487 -0.2517148 0.11586435 -0.43561086 -0.5007955 -0.17314155 -0.6867551 -0.4300342
-0.10079862 -0.3357096 0.14596546 0.7035204 -0.46188647 -0.27798876 -0.18557003 -0.60060465
-0.61516625 -0.30936974 -0.3602311 -0.15241633 -0.9921741 -0.500098 0.93639743 -0.4435838
00000000: baf8 9f3e d55d b23e 68e1 20bf 5498 a0be
00000010: b931 a2be 05ff 06bd e1fa 4f3e d2a8 23be
00000020: e570 75be a134 56be 05a2 6bbe cee4 b0be
00000030: f244 99be bc4c 5bbe 2512 473e 8592 c7be
00000040: 9897 473f be47 f1be 5a2f 21bd 9c13 a2be
00000050: bc00 81bf 7289 cbbe b7ab dcbe ac26 afbd
00000060: 1b36 e6be 4da1 bdbe e2d1 f73d 4f4b 34be
00000070: 37cc 483d 78b6 6ebe e496 22be 0a2f e03d
00000080: 087c dbbe e76b efbe af8a b2be 1d86 bcbe
00000090: bfc6 833e 9363 ecbe dfe0 3ebe 4129 6cbe
000000a0: b298 03bf c3e0 80be 4a4a ed3d 6308 dfbe
000000b0: 2234 00bf 054c 31be 2fcf 2fbf 712d dcbe
000000c0: 826f cebd 21e2 abbe f877 153e ea19 343f
000000d0: 627c ecbe 8b54 8ebe 1206 3ebe 3ac1 19bf
000000e0: 897b 1dbf b665 9ebe 3670 b8be 0713 1cbe
000000f0: 1fff 7dbf 6c06 00bf beb7 6f3f 6a1d e3be

features.5.running_var f4 [64]
0.19583526 0.2990715 0.43297207 0.2462064 0.51529264 0.17322744 0.19189739 0.23569097
0.35232565 0.42877343 0.3437142 0.2792031 0.32135627 0.44263855 0.29518494 0.39362618
0.4680936 0.3597569 0.22174685 0.24044833 0.5597475 0.23894812 0.24292433 0.13995546
0.226002 0.312232 0.4060263 0.4402438 0.19125327 0.394746 0.16502859 0.54641217
0.37721658 0.5300071 0.4046321 0.19205558 0.48443943 0.32825243 0.2165229 0.16824675
0.36797202 0.23105256 0.29725492 0.30962238 0.20379555 0.30260125 0.34024167 0.37060001
0.31612796 0.27642667 0.60615057 0.49807036 0.44808862 0.41914985 0.2863 0.4954806
0.59859663 0.31666097 0.2396819 0.23572187 0.9179739 0.22071873 0.7473192 0.22063729
00000000: 0a89 483e e61f 993e 84ae dd3e 881d 7c3e
00000010: 38ea 033f 8962 313e c080 443e f958 713e
00000020: 0764 b43e 3188 db3e 4ffb af3e b5f3 8e3e
00000030: cf88 a43e 85a1 e23e 7b22 973e 5f89 c93e
00000040: f7a9 ef3e 0e32 b83e 9b11 633e 1638 763e
00000050: 9d4b 0f3f d1ae 743e 28c1 783e 7c50 0f3e
00000060: 116d 673e dfdc 9f3e aee2 cf3e a367 e13e
00000070: e6d7 433e 261c ca3e 41fd 283e abe1 0b3f
00000080: 8822 c13e 8cae 073f f02b cf3e 38aa 443e
00000090: 7208 f83e b410 a83e 2eb8 5d3e e048 2c3e
000000a0: d466 bc3e 0b99 6c3e cc31 983e d386 9e3e
000000b0: c8af 503e 8dee 9a3e 2834 ae3e 49bf bd3e
000000c0: 86db a13e cc87 8d3e af2c 1b3f 1403 ff3e
000000d0: df6b e53e cf9a d63e ea95 923e a2af fd3e
000000e0: a13d 193f 6321 a23e 2c6f 753e 1361 713e
000000f0: 5600 6b3f 1704 623e 5050 3f3f beee 613e

features.8.weight f4 [128, 64, 5]
-0.016121749 0.03232304 0.013038277 -0.0067534246 -0.02555538 0.0725753 -0.005156352 -0.03634063
0.01306985 -0.006226545 -0.037282974 0.011016949 0.0016916461 0.0028046325 -0.023386762 -0.012855231
-0.060287457 -0.025259424 -0.0035862718 0.045857217 -0.020092625 0.039035797 -0.04570066 0.043691356
0.015567763 0.025929209 0.0011559472 -0.0098166475 0.030216023 0.08023104 0.012090021 -0.04682087
0.043680657 0.007173195 0.038511742 -0.01676158 0.001298085 -0.060021076 0.026694696 -0.006353803
0.013885874 -0.0014769972 -0.01728842 0.054552697 -0.026649 0.054067608 -0.0069876285 -0.009073297
0.05954768 0.09298742 -0.038076892 0.0018685571 -0.004903667 0.033434954 0.035193674 0.07960462
0.048782818 0.03224634 -0.04308087 -0.0078944815 0.05693169 0.030410273 -0.04836168 0.033780713
0.028977316 -0.008822089 0.0056293374 -0.0028423702 -0.06446589 0.017334653 0.068601504 -0.013521389
0.0077884123 0.10563294 0.06864253 -0.003931154 -0.04557688 -0.0043619093 -0.0008926195 -0.025892409
0.034555692 -0.03243352 -0.03049441 -0.002304009 -0.034557447 0.01625232 0.06793713 -0.0341616
0.02389457 -0.02361601 0.03553254 0.065065086 0.00899859 0.006220379 -0.021022338 0.0012263914
-0.07074759 -0.037019975 0.050294526 -0.09233909 0.0024534343 -5.1165196e-05 -0.014833504 -0.10319895
-0.046981525 -0.021103164 -0.06597465 0.044866957 0.0024888478 -0.01946922 0.036234867 0.04163593
-0.025536055 -0.03899639 -0.037767135 -0.023065357 -0.04285234 -0.047769975 -0.028359868 0.0068985177
0.02939875 -0.034966253 -0.053111356 0.030517008 -0.048451703 0.042923763 -0.07354754 0.017929105
-0.037947502 -0.00719202 -0.035960384 -0.06649837 -0.04641479 0.0018488776 0.03352034 -0.04188695
0.010638827 -0.05304066 0.023378106 0.032217275 0.04039197 0.05355998 0.03797208 -0.022264965
0.01752746 -0.029044086 0.04270372 -0.012085044 -0.015576358 0.037382584 -0.0033297674 0.016569456
0.061507154 0.033433277 0.05637388 0.0360585 0.026895627 -0.060880788 -0.038067732 0.0033640498
-0.039792974 0.071859896 -0.008052694 -0.054526657 -0.024122126 0.031228997 0.013890919 -0.036772583
-0.015907902 0.026810296 0.024596184 0.039289255 0.014501296 0.06213491 -0.055970743 0.009815442
0.041289233 0.04159715 0.041313875 -0.043158125 0.0031432223 0.008453895 -0.028663602 0.049272984
0.04055044 -0.024074458 -0.034626137 -0.06821707 -0.026215333 0.02574768 0.011409973 -0.01616811
0.0076642055 0.05688236 -0.049452376 0.049747672 -0.04369893 -0.024128838 -0.025884833 0.010191229
-0.017965298 -8.742303e-05 0.011367817 0.026434837 0.017334219 0.048265904 0.015410312 0.040719144
0.012503106 0.046042558 0.06471761 -0.013669765 0.028144611 0.035734586 -0.006254866 -0.0071992557
0.030572498 -0.045103997 -0.050755017 0.05024025 0.026600458 -0.06718628 0.0010256317 -0.005031833
-0.0016771916 0.04865525 -0.03446899 0.00032861443 -0.012350599 0.0540267 0.0269577 0.0076345974
-0.055596113 0.024211342 -0.014867374 -0.08934953 -0.008812874 -0.07553237 0.059755597 0.004407521
0.026199441 0.009346874 0.04972672 0.020817218 -0.049173065 -0.047691893 0.06020759 0.052665267
-0.013051661 0.022010589 0.06391829 -0.023074558 -0.034103326 0.0017603139 0.038045492 0.01461653
00000000: c211 84bc 2a65 043d 7f9e 553c d54b ddbb
00000010: 8459 d1bc 5ca2 943d 9ef6 a8bb ead9 14bd
00000020: ed22 563c 0c08 ccbb 08b6 18bd 6f80 343c
00000030: 39ba dd3a edcd 373b 9895 bfbc bf9e 52bc
00000040: fbef 76bd daec cebc a807 6bbb c7d4 3b3d
00000050: 4a99 a4bc 00e4 1f3d 9e30 3bbd b5f5 323d
00000060: ee0f 7f3c 7e69 d43c 2783 973a 01d6 20bc
00000070: 9887 f73c 2c50 a43d 3915 463c 3ec7 3fbd
00000080: 7dea 323d 1f0d eb3b 7dbe 1d3d 954f 89bc
00000090: 8124 aa3a a9d8 75bd d6ae da3c 9033 d0bb
000000a0: 9481 633c cd97 c1ba 72a0 8dbc a672 5f3d
000000b0: 014f dabc ff75 5d3d 7af8 e4bb 2aa8 14bc
000000c0: 45e8 733d 3070 be3d 84f6 1bbd 5fea f43a
000000d0: f1ae a0bb 17f3 083d 3e27 103d bf07 a33d
000000e0: 7ed0 473d bd14 043d 9175 30bd db57 01bc
000000f0: 3431 693d f71e f93c e616 46bd a55d 0a3d
00000100: d661 ed3c 868a 10bc 4e76 b83b 0f47 3abb
00000110: b106 84bd 6701 8e3c f27e 8c3d d188 5dbc
00000120: f035 ff3b 1556 d83d 7494 8c3d e9d0 80bb
00000130: d3ae 3abd 59ee 8ebb aefe 69ba 511c d4bc
00000140: 458a 0d3d 03d9 04bd 6acf f9bc dbfe 16bb
00000150: 1c8c 0dbd 9623 853c 9f22 8b3d 09ed 0bbd
00000160: 8cbe c33c 5d76 c1bc 928a 113d d840 853d
00000170: d26e 133c 52d4 cb3b 0a37 acbc debe a03a
00000180: 1de4 90bd 42a2 17bd a201 4e3d 471c bdbd
00000190: ccc9 203b 369a 56b8 3a08 73bc f959 d3bd
000001a0: b36f 40bd 8be0 acbc b81d 87bd 6ac6 373d
000001b0: f01b 233b ea7d 9fbc 036b 143d 708a 2a3d
000001c0: fd30 d1bc aeba 1fbd b6b1 1abd 8ff3 bcbc
000001d0: ef85 2fbd 73aa 43bd f452 e8bc f60c e23b
000001e0: a6d5 f03c c638 0fbd 4b8b 59bd cefe f93c
000001f0: 4b75 46bd d4d0 2f3d 18a0 96bd 0fe0 923c
00000200: d76e 1bbd 09ab ebbb 324b 13bd 4c30 88bd
00000210: 6f1d 3ebd 0a56 f23a a04c 093d a791 2bbd
00000220: 7a4e 2e3c 2a41 59bd 7183 bf3c 43f6 033d
00000230: 0d72 253d b661 5b3d 9d88 1b3d 0465 b6bc
00000240: bf95 8f3c dded edbc 19ea 2e3d 5900 46bc
00000250: fb33 7fbc 7b1e 193d 3a38 5abb abbc 873c
00000260: edee 7b3d 55f1 083d 4ce8 663d 14b2 133d
00000270: 3854 dc3c 225e 79bd e9ec 1bbd 6477 5c3b
00000280: f5fd 22bd 482b 933d 72ef 03bc 5857 5fbd
00000290: c49b c5bc f4d3 ff3c bd96 633c d99e 16bd
000002a0: 4a51 82bc 44a1 db3c f07d c93c c5ed 203d
000002b0: d896 6d3c 2d81 7e3d 9441 65bd f3d0 203c
000002c0: e61e 293d c661 2a3d bd38 293d 93c6 30bd
000002d0: 85fe 4d3b 3582 0a3c eecf eabc 78d2 493d
000002e0: 3818 263d cc37 c5bc 23d4 0dbd 64b5 8bbd
000002f0: 8ac1 d6bc ccec d23c e5f0 3a3c fc72 84bc
00000300: 0424 fb3b 7afd 683d 938e 4abd 37c4 4b3d
00000310: a6fd 32bd d7a9 c5bc 6e0c d4bc 1df9 263c
00000320: f62b 93bc e256 b7b8 1540 3a3c df8d d83c
00000330: 7e00 8e3c 78b2 453d 897b 7c3c 1ec9 263d
00000340: d4d9 4c3c 1f97 3c3d ab8a 843d 26f7 5fbc
00000350: 878f e63c 6e5e 123d 9ef5 ccbb bce7 ebbb
00000360: 2d73 fa3c f8be 38bd 7ee4 4fbd b8c8 4d3d
00000370: 34e9 d93c f698 89bd 7d6e 863a 13e2 a4bb
00000380: 36d5 dbba ba4a 473d 5b2f 0dbd e249 ac39
00000390: 2b5a 4abc 1a4b 5d3d 65d6 dc3c a52b fa3b
000003a0: c0b8 63bd dd56 c63c 4996 73bc e3fc b6bd
000003b0: df63 10bc b7b0 9abd 49c2 743d f76c 903b
000003c0: 36a0 d63c a223 193c 3fae 4b3d df88 aa3c
000003d0: b269 49bd 9358 43bd 3c9c 763d 89b7 573d
000003e0: a2d6 55bc 8d4f b43c 98e7 823d db06 bdbc
000003f0: eeaf 0bbd 55ba e63a 97d5 1b3d 2c7a 6f3c

features.8.bias f4 [128]
-0.019170338 -0.011746402 -0.032420717 0.03634004 -0.044824805 0.049881633 -0.029138498 -0.04102284
0.012649961 -0.01666098 -0.037812028 0.056229174 -0.018980578 0.036122225 -0.024555016 -0.053132713
-0.037416328 0.0371227 0.03521869 0.04354459 0.023124475 0.0005652246 0.04062989 -0.012511523
-0.03087601 0.037222065 -0.0109762205 -0.052611373 0.05368268 -0.013905514 -0.036893595 0.05557979
0.03807732 0.037871733 -0.0011621759 -0.021860309 -0.029364921 -0.010121761 0.02725897 -0.04000822
-0.04680285 -0.02554265 -0.002964392 0.024446154 0.031652663 0.053390697 -0.03947478 -0.029252024
-0.010009632 0.004563256 -0.06011005 0.056424055 0.03948893 -0.009583332 0.002159283 -0.009446113
0.035808474 0.028006382 -0.025761856 -0.02005975 -0.01117916 -0.0015118442 -0.032866687 0.014454149
0.026698124 -0.022587739 -0.01618715 -0.0146841 0.0013056872 -0.01211351 0.06381449 -0.025019523
-0.04416026 0.01849773 -0.031505264 -0.044349786 0.044386424 -0.012088089 -0.039678447 0.0127003435
-0.018838795 -0.014479864 -0.053246826 0.0026407954 -0.040604454 -0.04704306 -0.011967668 -0.021437962
-0.037673727 -0.01027823 -0.046888065 -0.04562707 0.026699314 -0.023191305 -0.050076284 -0.042166647
0.036565468 0.033112343 -0.027226627 -0.033857413 -0.005892001 0.024789164 0.03507472 -0.03066599
0.029362734 -0.021785343 0.07645479 -0.03406231 0.054982923 -0.042319886 -0.030522319 0.005539505
-0.028995397 0.042296987 -0.04358029 -0.041348867 0.028592017 0.041757546 0.024068678 0.052515432
0.023251215 -0.048261244 -0.0035849428 -0.03079376 0.03181562 -0.009939082 0.05219363 0.045640852
00000000: 1d0b 9dbc fb73 40bc 96cb 04bd 4bd9 143d
00000010: 379a 37bd af50 4c3d dcb3 eebc 9107 28bd
00000020: c841 4f3c 9c7c 88bc c9e0 1abd 9050 663d
00000030: 287d 9bbc e6f4 133d 9a27 c9bc b0a1 59bd
00000040: dd41 19bd f90d 183d 7941 103d d05b 323d
00000050: 8a6f bd3c 952b 143a 876b 263d 22fd 4cbc
00000060: b0ef fcbc 2a76 183d 9bd5 33bc 067f 57bd
00000070: 5fe2 5b3d f4d3 63bc bd1d 17bd a2a7 633d
00000080: f7f6 1b3d 641f 1b3d 2754 98ba 6414 b3bc
00000090: b48e f0bc bed5 25bc 344e df3c a9df 23bd
000000a0: 58b4 3fbd d23e d1bc 3f46 42bb 4d43 c83c
000000b0: 39a6 013d 34b0 5a3d 4fb0 21bd f1a1 efbc
000000c0: 71ff 23bc 5e87 953b f535 76bd e91c 673d
000000d0: 25bf 213d 6803 1dbc c282 0d3b dfc3 1abc
000000e0: e8ab 123d a46d e53c 870a d3bc 5854 a4bc
000000f0: cc28 37bc 1329 c6ba 389f 06bd 18d1 6c3c
00000100: 06b6 da3c ec09 b9bc ea9a 84bc 9495 70bc
00000110: 9823 ab3a be77 46bc 2cb1 823d bef5 ccbc
00000120: 64e1 34bd 8d88 973c aa0b 01bd 1fa8 35bd
00000130: 8ace 353d 1f0d 46bc de85 22bd 1a15 503c
00000140: d153 9abc f43c 6dbc 5819 5abd 3211 2d3b
00000150: db50 26bd 39b0 40bd 0a14 44bc aa9e afbc
00000160: c44f 1abd 0566 28bc b30d 40bd 73e3 3abd
00000170: 85b8 da3c b1fb bdbc ca1c 4dbd efb6 2cbd
00000180: acc5 153d cfa0 073d 600a dfbc 12ae 0abd
00000190: b011 c1bb a512 cb3c 82aa 0f3d 3e37 fbbc
000001a0: 1e8a f03c 2d77 b2bc 5494 9c3d ec84 0bbd
000001b0: c635 613d 9e57 2dbd f109 fabc bc84 b53b
000001c0: c187 edbc 9b3f 2d3d 3f81 32bd 6e5d 29bd
000001d0: ce39 ea3c f609 2b3d ad2b c53c 6c1a 573d
000001e0: 5579 be3c 95ad 45bd 5cf1 6abb 3243 fcbc
000001f0: 1851 023d 88d7 22bc fdc8 553d e7f1 3a3d

features.9.weight f4 [128]
0.9828872 0.9971512 0.97447044 1.013563 0.98012656 0.9647442 1.0202762 0.94322634
0.93896073 0.95193094 1.0300205 1.0315769 1.0161331 0.9465677 0.9729974 0.9837877
0.99642116 0.96093404 0.91839546 0.9640912 1.0032657 1.037024 0.99931914 0.995909
0.96402216 0.9385876 0.9502057 0.9955917 0.9701939 0.9913643 1.0381063 0.9744494
0.9988314 1.006448 0.97882366 1.0347033 1.0069717 1.0101912 0.99243647 0.9928453
0.97695637 1.0358946 1.0040753 1.0148972 0.9879427 0.9885681 1.033065 0.9690056
1.0051397 0.97602785 1.0145427 0.97276103 1.0005425 0.9885119 0.96878636 1.0360464
0.9873884 1.071048 0.9315074 1.0000665 0.93384075 1.0264407 0.96251196 0.98323107
0.9540885 0.94762903 1.0159509 0.9723438 1.0287215 0.9576677 1.0357826 0.95204216
0.9621433 1.0183693 0.96605915 1.0235528 0.9475334 1.0193775 0.96477926 0.9688078
1.0187951 1.00264 1.0112886 0.9691782 1.016565 1.0253422 1.0281817 0.98226464
0.98945194 0.95656264 0.9739406 0.9922685 0.96649647 0.9938135 1.016873 1.0013747
0.94236666 0.9772482 1.0422798 0.98764944 0.96162266 1.0032892 1.0234466 1.0592155
0.9508702 1.0091835 1.0550743 0.9804606 0.94712776 0.9367295 0.978548 0.9477465
0.9235473 1.0666516 0.93320316 1.0032517 0.9417144 1.0268849 0.9683857 0.98521155
1.0220145 1.009134 0.98106647 0.96988034 0.95547235 1.0213121 1.003029 1.0039521
00000000: 7f9e 7b3f 4d45 7f3f e576 793f 6fbc 813f
00000010: 93e9 7a3f 7af9 763f 6998 823f 4877 713f
00000020: bb5f 703f bfb1 733f b6d7 833f b60a 843f
00000030: a610 823f 4352 723f 5c16 793f 83d9 7b3f
00000040: 7515 7f3f c6ff 753f f71b 6b3f aece 763f
00000050: 036b 803f 34bd 843f 61d3 7f3f e4f3 7e3f
00000060: 28ca 763f 4747 703f ae40 733f 19df 7e3f
00000070: a15e 783f 0dca 7d3f abe0 843f 8475 793f
00000080: 6ab3 7f3f 4ad3 803f 3094 7a3f 2871 843f
00000090: 73e4 803f f24d 813f 5110 7e3f 1c2b 7e3f
000000a0: d019 7a3f 3298 843f 8a85 803f 27e8 813f
000000b0: d0e9 7c3f cd12 7d3f 793b 843f c010 783f
000000c0: 6ba8 803f f6dc 793f 89dc 813f de06 793f
000000d0: c711 803f 1e0f 7d3f 6202 783f 2b9d 843f
000000e0: 7cc5 7c3f 1a18 893f 4577 6e3f 2e02 803f
000000f0: 3010 6f3f 6962 833f 2f67 763f 08b5 7b3f
00000100: 253f 743f d197 723f ae0a 823f 86eb 783f
00000110: 25ad 833f b629 753f 8694 843f 09b9 733f
00000120: 064f 763f ed59 823f a74f 773f c703 833f
00000130: 8d91 723f f67a 823f c6fb 763f ca03 783f
00000140: e167 823f 8256 803f e871 813f 101c 783f
00000150: cd1e 823f 6a3e 833f 759b 833f b275 7b3f
00000160: b94c 7d3f 4ae1 743f 2c54 793f 4f05 7e3f
00000170: 506c 773f 906a 7e3f e528 823f 0c2d 803f
00000180: f13e 713f f02c 7a3f 6d69 853f 98d6 7c3f
00000190: e72c 763f c86b 803f 4c00 833f 6094 873f
000001a0: 3b6c 733f ed2c 813f ad0c 873f 77ff 7a3f
000001b0: f776 723f 81cd 6f3f 1f82 7a3f 849f 723f
000001c0: 996d 6c3f 0a88 883f 67e6 6e3f 8d6a 803f
000001d0: 3214 713f f770 833f 20e8 773f d336 7c3f
000001e0: 5fd1 823f 4e2b 813f 2c27 7b3f 144a 783f
000001f0: d699 743f 5bba 823f 4163 803f 8181 803f

features.9.bias f4 [128]
-0.037148397 -0.038013466 -0.07261394 -0.04755817 -0.03428645 -0.023566227 -0.02712452 -0.034412872
-0.04657179 -0.0700171 -0.027017007 -0.056408796 -0.052663796 -0.038788207 -0.032832224 -0.058056254
-0.011031943 -0.068088904 -0.09521424 -0.055309057 -0.0430324 -0.07421141 -0.06536638 -0.043691438
-0.032317117 -0.080408834 -0.018211076 -0.085641 -0.011692695 -0.07250197 -0.046588022 -0.046502944
-0.07073357 -0.026605783 -0.08944128 -0.08993358 -0.0025699723 0.008802798 -0.12664007 -0.047503877
0.003785678 -0.04335586 -0.023943057 -0.02065067 -0.05411086 -0.0863614 -0.030307718 -0.092211045
-0.058048893 -0.02394836 -0.071986064 -0.05844572 -0.06345163 -0.012652118 -0.08593804 -0.055145953
-0.09599654 -0.1288099 -0.062428996 -0.01198176 -0.042091236 -0.020209951 -0.09166964 -0.05442134
-0.06897802 -0.101668626 -0.09457285 -0.045886535 -0.042448528 -0.039104145 -0.079843536 -0.009421793
-0.07831458 -0.050848346 0.016282115 -0.06329804 -0.0378585 -0.05023743 -0.034552183 -0.0017864305
-0.09023605 -0.006408435 -0.049662422 -0.08461206 -0.016481454 -0.07623423 -0.06267944 -0.05182332
-0.089230515 -0.10133515 -0.06509022 -0.01259123 -0.050645687 -0.075819544 -0.045883186 -0.02038467
-0.06335679 -0.09695605 -0.08517733 -0.042894237 -0.04655631 -0.052750807 -0.014162223 -0.031026445
-0.05195674 -0.06243386 -0.03903353 -0.07199747 -0.060012437 -0.09423633 -0.10625848 -0.04505198
-0.04100136 -0.04614111 -0.03373477 -0.016675636 -0.03731854 -0.086693935 -0.0773906 -0.056160994
-0.03925229 -0.067306936 -0.060039565 -0.021054972 -0.0255463 -0.059821386 -0.026109913 -0.019452397
00000000: eb28 18bd 02b4 1bbd 9eb6 94bd 5bcc 42bd
00000010: f36f 0cbd f60d c1bc 3e34 debc 83f4 0cbd
00000020: 10c2 3ebd 2065 8fbd c552 ddbc e90c 67bd
00000030: feb5 57bd 62e0 1ebd 157b 06bd 65cc 6dbd
00000040: 53bf 34bc 3272 8bbd afff c2bd c08b 62bd
00000050: be42 30bd 27fc 97bd cfde 85bd cbf5 32bd
00000060: f45e 04bd 63ad a4bd 652f 95bc 8c64 afbd
00000070: b892 3fbc ea7b 94bd 15d3 3ebd df79 3ebd
00000080: c3dc 90bd 5ff4 d9bc fd2c b7bd 192f b8bd
00000090: fb6c 28bb 9c39 103c efad 01be 6d93 42bd
000000a0: 2319 783b ea95 31bd 3b24 c4bc 982b a9bc
000000b0: 59a3 5dbd 3fde b0bd e447 f8bc 25d9 bcbd
000000c0: adc4 6dbd 5a2f c4bc 6e6d 93bd c764 6fbd
000000d0: eef2 81bd d44a 4fbc 4800 b0bd b9e0 61bd
000000e0: d599 c4bd bee6 03be 8cb5 7fbd 254f 44bc
000000f0: dc67 2cbd 578f a5bc 4bbd bbbd e9e8 5ebd
00000100: 5944 8dbd a437 d0bd 69af c1bd 85f3 3bbd
00000110: 82de 2dbd ab2b 20bd 0285 a3bd dd5d 1abc
00000120: 6563 a0bd 5b46 50bd 1262 853c 67a2 81bd
00000130: 8411 1bbd c3c5 4dbd 9786 0dbd a926 eaba
00000140: aecd b8bd d9fd d1bb d36a 4bbd 1649 adbd
00000150: 1d04 87bc b120 9cbd 145e 80bd b144 54bd
00000160: 7dbe b6bd ce88 cfbd 054e 85bd 724b 4ebc
00000170: da71 4fbd 4747 9bbd 02f0 3bbd c0fd a6bc
00000180: 34c1 81bd e590 c6bd 7471 aebd deb1 2fbd
00000190: d4b1 3ebd 3b11 58bd ab08 68bc 2c2b febc
000001a0: 97d0 54bd a6ba 7fbd 9fe1 1fbd 6973 93bd
000001b0: 9acf 75bd fafe c0bd 0c9e d9bd 6d88 38bd
000001c0: 0bf1 27bd 76fe 3cbd 782d 0abd 589b 88bc
000001d0: 53db 18bd 978c b1bd f77e 9ebd 1209 66bd
000001e0: 02c7 20bd 38d8 89bd 0cec 75bd 7a7b acbc
000001f0: 7946 d1bc 4507 75bd 75e4 d5bc a25a 9fbc

features.9.running_mean f4 [128]
0.41698566 0.4711035 -0.57831824 -0.17066692 0.31280923 -0.8671175 -0.28492337 -0.7023868
-0.9157181 -1.1155796 0.27936563 0.5254024 0.43126455 -0.8343134 -0.50527203 -0.7160932
-0.7909878 0.519543 -0.39844775 -0.36867803 -1.8841778 -1.167983 -0.8674941 -0.6450275
-0.55734426 -0.3975025 -0.43796545 -1.2960929 -0.74676406 -0.17214829 0.22209239 -1.4010749
0.07718116 0.05529642 -0.28917003 -0.66861033 -0.8597428 -0.4455913 -0.20471066 1.0445738
-0.8920038 0.33630407 0.6063836 -0.5516042 -1.0938809 0.14998853 -0.81438667 -1.2878973
0.01071906 -0.39035666 -0.85473156 0.24296156 -0.87374544 -0.64825904 -0.093466274 0.36442727
-0.64820933 -0.81543785 -1.1442146 0.17308016 -1.1311038 -0.49176222 0.674223 0.066473596
-0.4493205 -0.90834075 0.09924875 -0.40226415 -1.0266814 1.2563658 -1.0466422 -0.15386796
-0.18838744 0.8003625 -0.27837256 -1.789488 -0.40519854 -0.69906443 -0.95341516 -1.337892
-1.5297137 -0.65544975 0.79950327 -0.9362189 0.9925553 0.42545742 -1.238267 -0.64936936
-1.0575521 -1.1324643 0.45924455 -0.94692004 -0.64261013 0.20529446 0.8255243 0.0723712
-0.46557334 0.3701978 0.48435444 -0.30898908 -0.8933993 0.16597214 -0.48256588 -0.435895
-0.37814245 0.26445815 0.552349 -1.7699903 -1.0974253 -0.90271586 0.16854526 -0.97237635
0.041321907 -0.951302 -0.8289889 -0.17323256 -0.75006306 -0.75257164 0.09647776 -1.4065168
0.5873335 -1.0449015 -0.8400333 0.06674002 1.2056363 -0.6879768 -1.3860373 -0.62921286
00000000: 257f d53e 7a34 f13e aa0c 14bf 4fc3 2ebe
00000010: 8828 a03e 6afb 5dbf 7ae1 91be 9fcf 33bf
00000020: 806c 6abf 50cb 8ebf 0309 8f3e c680 063f
00000030: b5ce dc3e 9095 55bf 8259 01bf e251 37bf
00000040: 2d7e 4abf c500 053f 5801 ccbe 5ec3 bcbe
00000050: bd2c f1bf 7880 95bf 1814 5ebf 8620 25bf
00000060: 1dae 0ebf 7385 cbbe 023d e0be 5fe6 a5bf
00000070: ee2b 3fbf a447 30be 306c 633e 6c56 b3bf
00000080: 2811 9e3d 807e 623d 180e 94be 0c2a 2bbf
00000090: 1b18 5cbf 8b24 e4be ac9f 51be 98b4 853f
000000a0: 5c5a 64bf 0c30 ac3e f53b 1b3f ef35 0dbf
000000b0: 4a04 8cbf 9896 193e a57b 50bf d2d9 a4bf
000000c0: ff9e 2f3c d4dc c7be b0cf 5abf eaca 783e
000000d0: c8ad 5fbf 4ef4 25bf 3f6b bfbd 3696 ba3e
000000e0: 0cf1 25bf 89c0 50bf a075 92bf ed3b 313e
000000f0: 02c8 90bf 42c8 fbbe e199 2c3f 4f23 883d
00000100: 560d e6be 0589 68bf ee42 cb3d 91f5 cdbe
00000110: 4c6a 83bf 98d0 a03f 5ff8 85bf 908f 1dbe
00000120: a3e8 40be 8fe4 4c3f d986 8ebe f10d e5bf
00000130: 2f76 cfbe e3f5 32bf 0413 74bf 0c40 abbf
00000140: a9cd c3bf 8ecb 27bf 3fac 4c3f 0bac 6fbf
00000150: 1b18 7e3f 8ed5 d93e 887f 9ebf 123d 26bf
00000160: de5d 87bf 97f4 90bf 1a22 eb3e 5a69 72bf
00000170: 1982 24bf b638 523e 8f55 533f 5a37 943d
00000180: a15f eebe 918a bd3e 4efd f73e d133 9ebe
00000190: d1b5 64bf 9af4 293e e012 f7be a12d dfbe
000001a0: e39b c1be 0f67 873e be66 0d3f 0b8f e2bf
000001b0: 6f78 8cbf 6318 67bf 2197 2c3e a8ed 78bf
000001c0: 2941 293d 8788 73bf 9e38 54bf e063 31be
000001d0: 2204 40bf 89a8 40bf 2296 c53d be08 b4bf
000001e0: 7d5b 163f 55bf 85bf 6c0c 57bf feae 883d
000001f0: 4a52 9a3f 3f1f 30bf ac69 b1bf 1814 21bf

features.9.running_var f4 [128]
0.49918875 0.40259406 0.6715203 0.31999937 0.45886916 0.7468691 0.49413362 0.50293165
0.8536879 0.3241156 0.49330017 0.39467996 0.32984447 0.48772967 0.41216657 0.64330935
0.62661684 0.44598958 0.39705837 0.5176393 0.86496 0.4678581 0.46589267 0.5292524
0.513391 0.3836168 0.8568439 0.37827626 0.5584366 0.35936815 0.38685194 0.62765986
0.5454295 0.42322168 0.29018408 0.56199676 0.7476559 0.29494613 0.39048213 0.5822628
0.69995093 0.6706645 0.40403152 0.5437196 0.5518133 0.66930467 0.57580096 0.7006683
0.5104332 0.29769024 0.55201787 0.3826908 0.3980021 0.5746029 0.6407126 0.4685117
0.701617 0.42200783 0.6622534 0.44665805 0.69425476 0.5412719 0.40237823 0.61925435
0.46059623 0.46103537 0.5776647 0.48211274 0.41777843 0.61408937 0.57847 0.4871013
0.6537996 0.52510524 0.55379593 0.7942521 0.31178272 0.4936753 0.8732158 0.748251
0.45505866 0.48304847 0.38349548 0.51780194 0.5114343 0.4595301 0.6276943 0.6480171
0.46969977 0.47956094 0.22787671 0.50601226 0.60261357 0.3644802 0.39975378 0.24198446
0.54164416 0.4532335 0.5255962 0.47824222 0.9222299 0.30723086 0.448328 0.38533255
0.3919777 0.57084656 0.44695258 0.5195946 1.2164675 0.5005203 0.22452573 0.5487379
0.38037574 0.7139671 0.48340866 0.36071548 0.34813976 0.9616459 0.90645266 0.8944566
0.57058936 0.4910983 0.7323942 0.43980187 0.44311738 0.53430766 0.7028367 0.45102715
00000000: ab95 ff3e cf20 ce3e c1e8 2b3f f5d6 a33e
00000010: e6f0 ea3e d032 3f3f 15ff fc3e 21c0 003f
00000020: 4a8b 5a3f 7bf2 a53e d791 fc3e 7e13 ca3e
00000030: 60e1 a83e b4b7 f93e 7f07 d33e ecaf 243f
00000040: f669 203f bf58 e43e 3c4b cb3e 0284 043f
00000050: 056e 5d3f 198b ef3e 7c89 ee3e 167d 073f
00000060: 986d 033f 6c69 c43e 1f5a 5b3f 6dad c13e
00000070: b3f5 0e3f 1aff b73e 7511 c63e 51ae 203f
00000080: 45a1 0b3f 83b0 d83e 0293 943e 05df 0f3f
00000090: 6166 3f3f 2e03 973e 46ed c73e 2d0f 153f
000000a0: fc2f 333f abb0 2b3f 38dd ce3e 3531 0b3f
000000b0: a343 0d3f 8d57 2b3f b167 133f ff5e 333f
000000c0: c0ab 023f db6a 983e 0b51 0d3f 0cf0 c33e
000000d0: eec6 cb3e 2d19 133f be05 243f c4e0 ef3e
000000e0: 2c9d 333f 6911 d83e 7089 293f 5db0 e43e
000000f0: aeba 313f cc90 0a3f 8504 ce3e 7487 1e3f
00000100: 45d3 eb3e d40c ec3e d5e1 133f 7bd7 f63e
00000110: 0ee7 d53e f634 1d3f 9c16 143f 5765 f93e
00000120: 695f 273f 4c6d 063f 92c5 0d3f 1b54 4b3f
00000130: fca1 9f3e 02c3 fc3e 128b 5f3f 618d 3f3f
00000140: 73fd e83e 2152 f73e 8559 c43e ab8e 043f
00000150: 5ced 023f 8747 eb3e 93b0 203f 73e4 253f
00000160: 7d7c f03e 0389 f53e 8358 693e 058a 013f
00000170: e244 1a3f 269d ba3e 87ac cc3e c6ca 773e
00000180: 31a9 0a3f 390e e83e 798d 063f 2adc f43e
00000190: 4217 6c3f 5d4d 9d3e 3f8b e53e 4f4a c53e
000001a0: 4db1 c83e 0023 123f f8d6 e43e 2704 053f
000001b0: 35b5 9b3f 1922 003f 13ea 653e 167a 0c3f
000001c0: 9cc0 c23e 8cc6 363f 5781 f73e b3af b83e
000001d0: 603f b23e 6d2e 763f 480d 683f 1cfb 643f
000001e0: 2512 123f 3d71 fb3e 307e 3b3f b62d e13e
000001f0: 48e0 e23e 63c8 083f 1bed 333f 08ed e63e
