experiment_testing/mz-testing/checkpoints/ptbxl/500hz/cnn1d/fold_5/last.pt (torch, 628765 bytes, 26 tensors)

features.0.weight f4 [32, 12, 7]
000000 7d 5a df bd 62 00 67 bd f4 63 f1 bd ef e1 28 3c
       -0.10905931 -0.05639685 -0.11786643 0.010307773
000010 09 5d af 3d 13 a5 3d 3d 2f 9b 9a 3d 6e 90 a0 3d
       0.08562667 0.046300005 0.0754913 0.07840048
000020 fa 43 ee bc df 27 9a bd 49 88 76 bd 44 23 b6 bd
       -0.029085148 -0.07527136 -0.060188565 -0.08893445
000030 16 19 57 3d 4d df 93 bd cb 23 03 3e 40 ae 00 3c
       0.05251416 -0.072203256 0.12806623 0.007854044
000040 1c 3a 9a bd 03 25 b0 bd 66 7a e1 3d 3d fb 60 3c
       -0.07530615 -0.086008094 0.11009674 0.013731775
000050 34 dc d2 bb 65 42 a3 3d ea 62 8f 3c e5 a7 9d 3d
       -0.0064349417 0.07971648 0.01750322 0.07698039
000060 af dc 8b 3d f3 a9 93 bc 9e 44 bd 3d 42 43 9a 3c
       0.068292014 -0.018025374 0.09241603 0.0188309
000070 77 3c fd bd 7c 52 a9 bd fe 21 4c bd c2 ea 2f 3d
       -0.123650484 -0.08267686 -0.049837105 0.042948492
000080 01 20 2b bd 8d 13 63 3c f7 a1 d7 3d 22 63 9f 3d
       -0.04177857 0.013859642 0.10528939 0.0778258
000090 60 f9 99 3d 67 a7 45 3d 4e 97 3d 3d 44 73 85 3d
       0.07518268 0.04825535 0.046286874 0.06516126
0000a0 40 38 68 3c 8a 35 e6 bd da fd cc bc 57 df bc bd
       0.014173567 -0.112406805 -0.02502339 -0.09222286
0000b0 46 b6 43 bd 31 c9 bb 3c ef 03 a6 bd 63 68 db bd
       -0.04778125 0.022923084 -0.08106219 -0.107132696
0000c0 40 c0 6d bd 78 1b ed bc ca 13 06 3d cb b5 d3 3d
       -0.058044672 -0.028943762 0.032733716 0.10337409
0000d0 6e 15 97 3d 4d bf e3 3d 61 96 7e bd 2b 10 b5 3c
       0.07377134 0.11120472 -0.06215513 0.022102436
0000e0 ec cc 40 bd 19 20 50 3d c7 f2 c1 3d 31 0c a6 bc
       -0.04707043 0.05081186 0.09470134 -0.020269485
0000f0 bc 9d 99 bd d8 05 65 3c b0 f4 b3 bd 44 95 3f bd
       -0.075007886 0.013978444 -0.08786905 -0.04677321
000100 97 13 ac bd 87 4c c9 3d 4a 73 86 bc 00 22 ac bc
       -0.08402174 0.098290496 -0.016412396 -0.021012306
000110 59 b6 52 3c 3e 10 87 bd e7 ec 9c bd 91 55 93 bd
       0.012860858 -0.06594895 -0.07662373 -0.07194055
000120 1a 76 06 bc 20 a8 7e 3d 78 fb be bd ba 22 7f 3c
       -0.008206869 0.062172055 -0.093253076 0.015572244
000130 aa 78 82 bd f1 13 4f 3d 45 05 a6 bb d9 e1 82 bd
       -0.06370671 0.050556127 -0.005066546 -0.06390733
000140 0a f2 bc 3d 39 a3 e7 bb d6 20 53 3d 1c a3 52 3d
       0.09225853 -0.007069018 0.051544987 0.051425084
000150 8b be 1b 3d d8 d0 89 3d e5 cd 96 3d b1 fa 92 3d
       0.038023513 0.06729287 0.0736349 0.07176722
000160 10 2f 08 bd 20 99 d5 bd 2d 26 8f 3d 86 ef 49 3d
       -0.033248007 -0.10429597 0.06989703 0.049300693
000170 18 ef 00 be 86 01 01 be 10 3e d9 3b 7d 30 08 3b
       -0.12591207 -0.12598237 0.006629713 0.0020780854
000180 0c d0 bd bd 65 e4 a7 3d d6 b0 8e bc 49 f7 fc 3c
       -0.092681974 0.0819786 -0.017418306 0.030879634
000190 36 a3 df 3b a1 de fa bc 64 29 fa 3d e8 88 52 3d
       0.006824876 -0.030623736 0.12214926 0.051400095
0001a0 58 22 07 3e 01 7b 8e 3d d6 b5 71 ba ec 96 23 bc
       0.13196695 0.06957055 -0.0009220516 -0.009984713
0001b0 ba 3f cd 3d ea e3 85 bc bc 15 50 bd 70 2e ff 3d
       0.100219205 -0.01634403 -0.050801978 0.12460029
0001c0 0f 76 cd bd 7d 42 0c bd e7 80 5d 3d f8 04 5a 3d
       -0.100322835 -0.034243096 0.05407801 0.053227395
0001d0 15 4c ea bc c2 af e3 3c c3 74 48 3b 25 7c 3b bd
       -0.028600732 0.027793769 0.0030587174 -0.04577269
0001e0 3e 08 94 3d df d4 6e 3d 4c de c5 bd 8c 59 d4 3d
       0.072281346 0.05830848 -0.096615404 0.10368642
0001f0 c1 bf 68 bd a3 5e b6 3c 17 cc f4 bc 5c c5 48 3d
       -0.056823496 0.022261923 -0.029882474 0.04901634
000200 48 6d cf 3d f4 e3 e2 3d d2 fc ff 3d 2c c1 a5 bd
       0.101282656 0.11078635 0.124993935 -0.08093485
000210 94 fe e8 3d 28 85 6a 3c dd d0 71 3d 4b 46 08 3d
       0.11376682 0.0143139735 0.05903708 0.03327016
000220 24 95 22 3c c1 9b 83 3d f8 ed ce 3d 4d dd 09 3e
       0.009923253 0.06426192 0.10103983 0.13463326
000230 d3 1b 07 be 84 fe bb 3c 7b d2 8e bd a3 80 e3 bd
       -0.13194208 0.022948511 -0.0697374 -0.1110852
000240 69 b4 73 bd 0d 0a 83 bd b9 4e 3c 3d 1f 2a ba bd
       -0.059498224 -0.063984014 0.045973513 -0.09090065
000250 81 9d be bd 0b 5b 7a bc 2d 65 dd 3c 99 82 d6 3d
       -0.09307385 -0.015280495 0.027025783 0.10474128
000260 58 42 b1 bd 02 0b 49 bd cc 79 98 3d a5 c1 c1 bd
       -0.08655232 -0.049082763 0.07445106 -0.09460763
000270 51 84 50 3d f6 f6 97 3c fb 5e 9c 3d 99 c5 d9 3c
       0.050907437 0.018550377 0.076353036 0.02658348
000280 a7 ce f2 3d 7f 8c 9d bd 9a 30 1b 3c 0e cb af 3c
       0.11855822 -0.07692813 0.009472037 0.021459129
000290 9f 8c bb 3d 40 0e af bd ae 96 fe bc 22 75 b3 bd
       0.09157681 -0.0854764 -0.031077709 -0.08762576
0002a0 4c 51 b1 bd 47 f8 85 bd 0b 4a 81 3c f9 4c ac bd
       -0.08658084 -0.06541496 0.015782377 -0.08413119
0002b0 74 2d 2d 3d 85 2e ac bd 8e 0d 65 3b e6 68 b9 bd
       0.042279676 -0.084073104 0.0034950706 -0.09053211
0002c0 00 db 4b 3d 4e 93 e4 bd 0a ee 6e 3b c7 30 0a be
       0.0497694 -0.11160909 0.00364578 -0.1349517
0002d0 86 9b 61 bd 8c dd ae bd 23 4c 9e bd 76 67 ba 3d
       -0.05507996 -0.085383505 -0.07729366 0.09101765
0002e0 a2 89 97 bc 0e ba e4 3c e1 93 b0 bd 8e 78 b5 bd
       -0.018498246 0.027920749 -0.08621956 -0.088608846
0002f0 c1 2c b2 bd 73 bf b2 3d fe 96 d0 3c bd a7 ba bd
       -0.086999424 0.08727922 0.025462624 -0.09114025
000300 2d d3 c8 bd 8c 65 cf bd ca 66 c0 3d 91 6a 0b 3d
       -0.098059036 -0.101267904 0.093946055 0.034037177
000310 f9 be ca 3d 83 f5 b1 3c 60 e5 bd bd 83 ac ed 3c
       0.098997064 0.021723514 -0.092722654 0.029012924
000320 61 e1 7e 3d e0 75 ae bd 8f 3a b6 3d 07 31 1c 3c
       0.062226657 -0.085185766 0.08897888 0.009533173
000330 a3 93 ac 3c 1f c0 77 bc a7 fb a7 bc dd 2c 68 bd
       0.021066492 -0.015121489 -0.02050574 -0.05668341
000340 57 c4 a2 3d e4 f4 99 bd 91 00 8b bd 28 f6 0b be
       0.07947605 -0.07517412 -0.067872174 -0.1366812
000350 ca 10 23 bc 19 81 3b bd a9 73 dc 3d 1b 78 0a 3e
       -0.009952733 -0.045777414 0.10764248 0.13522379
000360 2c b0 e3 3d fa 96 d2 bd d9 aa 72 bd b3 90 a8 3d
       0.111175865 -0.10282703 -0.059244964 0.08230724
000370 20 06 af 3d 53 31 5c 3d 4c 2a 35 3d 43 ab b0 3c
       0.0854609 0.053757977 0.04422979 0.021566039
000380 9e 0e 00 be c1 22 07 be 8b fb 27 3d 9c 14 9f 3c
       -0.12505576 -0.13196851 0.041011374 0.019419007
000390 a3 1b a5 bd 8b 54 b0 bd bc 2a a0 3d 34 fd 3e 3d
       -0.08061912 -0.08609875 0.07820651 0.046628192
0003a0 82 73 d5 3d a5 29 38 3d ef 48 ec 3c 2c 0e 84 bd
       0.10422422 0.04496159 0.028843371 -0.064480156
0003b0 94 23 76 bc 43 ab a8 bc 95 2a e6 bc 14 03 2f 3e
       -0.015023131 -0.020589476 -0.028096477 0.17091018
0003c0 f0 4d cd bb 75 9f 1a 3e aa 00 9e 3c 11 32 ad bb
       -0.0062653944 0.1509989 0.019287426 -0.0052855094
0003d0 09 64 0f 3e 7d 0b a1 bd 8a c9 e2 3d 98 d8 90 3c
       0.14003004 -0.07863519 0.11073597 0.017681405
0003e0 0b 1f 42 bd fc 7f e6 bd ce 58 37 bc 0d 35 83 3b
       -0.047392886 -0.1125488 -0.011190606 0.004004127
0003f0 ce 9f 00 be 1a 8f 8c bc 51 5a f3 bd c8 dc 1d be
       -0.1256096 -0.01715808 -0.11882461 -0.15416253

features.0.bias f4 [32]
000000 e2 82 c8 bd a1 de e2 bd 63 68 34 3d 42 b7 08 3d
       -0.09790589 -0.11077619 0.044044863 0.033377893
000010 41 04 86 3d f4 69 55 bc 18 33 64 3d f1 f2 9c bc
       0.0654378 -0.0130257495 0.05571279 -0.019158812
000020 d6 ec fd 3c 90 b9 65 3d 1a 45 f6 3c 5a 8e 93 bd
       0.030996721 0.05608517 0.030062247 -0.07204886
000030 d6 c8 2d 3c ac 4f b9 3d 1b f4 24 3d 24 05 a8 bd
       0.010606965 0.09048399 0.04027186 -0.082041055
000040 93 d4 ee 3b b0 0d 92 3d f2 52 9f 3d 37 f9 8e bc
       0.0072885244 0.07131517 0.077794924 -0.01745282
000050 de 0f 96 3d 19 32 f0 bd bb 7f 8d bc 9f 23 bc 3d
       0.07327245 -0.11728305 -0.01727282 0.09186482
000060 21 60 a8 3d 37 ac 85 3d 2a 02 a2 bd 24 d9 46 bb
       0.0822146 0.06526988 -0.07910569 -0.0030341828
000070 fe 5a d7 bc f5 93 5c 3c cf 48 36 be 23 62 b7 3d
       -0.026288506 0.01346301 -0.17801212 0.08954265

features.1.weight f4 [32]
000000 d3 76 81 3f 70 95 7c 3f e6 44 81 3f 12 34 80 3f
       1.0114387 0.98665524 1.0099151 1.0015891
000010 ba bb 81 3f 8f 3d 7c 3f d7 2c 7c 3f 41 bb 82 3f
       1.0135415 0.9853143 0.9850592 1.0213395
000020 13 37 88 3f ae 0f 82 3f 41 f2 80 3f d1 79 84 3f
       1.0641807 1.0161035 1.007393 1.0349675
000030 29 46 83 3f d8 eb 83 3f 2e 93 79 3f 62 9c 7f 3f
       1.0255786 1.0306349 0.97490203 0.99847996
000040 63 1a 83 3f e7 3c 76 3f cb 71 7e 3f ca 60 77 3f
       1.0242428 0.9618668 0.99392384 0.96632063
000050 c0 88 82 3f df 49 7e 3f f5 c7 7d 3f 3a ab 7c 3f
       1.0197983 0.9933147 0.99133235 0.9869877
000060 24 29 82 3f 1a 61 7c 3f fe 68 7f 3f c7 e1 78 3f
       1.0168805 0.98585665 0.9976958 0.9721951
000070 67 a9 75 3f ae 37 82 3f 9c 78 82 3f 02 40 79 3f
       0.9596161 1.0173242 1.0193057 0.97363293

features.1.bias f4 [32]
000000 9f 3e 1b 3d b5 40 88 3c 29 5c 38 bd 64 00 bb bc
       0.037901517 0.016632417 -0.045009766 -0.022827335
000010 29 28 3c bc 70 11 3b bc 0b 3f 72 39 5e 49 9d 3b
       -0.011484184 -0.011417732 0.00023102404 0.004800006
000020 65 da 9b bc e0 0c 92 3d f3 f4 c9 3c b2 a5 ab bc
       -0.019025037 0.07131362 0.024652934 -0.020953033
000030 32 05 05 3d 14 07 cc 3c ba 2b 37 bc fd f6 01 bb
       0.032475658 0.024905719 -0.011179859 -0.0019831054
000040 42 25 c6 3c ef cd 9e 3b 8b 36 d2 3b db c1 4f ba
       0.024187688 0.0048463265 0.0064151934 -0.000792531
000050 f2 d1 45 3c 53 fa 75 3d e7 cd 1e 3d 89 09 a2 bc
       0.012073981 0.06005318 0.038770583 -0.019779937
000060 1e 8a 49 3d b9 ca 4a ba 4b 3d e3 bc a0 96 d0 bc
       0.049203984 -0.00077358965 -0.027739188 -0.025462449
000070 74 a6 f3 bc fd 67 f5 3c 2f 73 0d bd bb 46 34 bd
       -0.029742457 0.029956812 -0.034533676 -0.044012766

features.1.running_mean f4 [32]
000000 1d e4 c7 bd 65 ac e4 bd 98 c5 36 3d a7 b1 0b 3d
       -0.09760306 -0.11165694 0.044622034 0.03410497
000010 15 cf 85 3d 66 fe 53 bc 04 e8 62 3d 9e c0 9b bc
       0.065336384 -0.012939071 0.05539705 -0.019012745
000020 41 00 fc 3c 96 47 66 3d 3e d0 f0 3c 08 92 92 bd
       0.03076184 0.056220613 0.029396173 -0.071567595
000030 00 30 32 3c 82 76 b9 3d 2d f4 25 3d d1 5c a8 bd
       0.010875702 0.09055807 0.040516067 -0.08220828
000040 6e 9d fb 3b b4 08 92 3d bc 2b 9f 3d e8 f4 8d bc
       0.007678679 0.07130566 0.077720135 -0.017328694
000050 2c 4c 92 3d ca 70 f0 bd 92 4b 60 bc de 7b bb 3d
       0.07143435 -0.11740263 -0.013689892 0.09154485
000060 90 7c a8 3d 11 7e 85 3d 22 b1 a1 bd 86 a9 4b bb
       0.082268834 0.06518186 -0.078951135 -0.0031076386
000070 ac cb d9 bc 3c 6a 5d 3c 6d 55 36 be 9d 24 b7 3d
       -0.026586376 0.013514098 -0.17806025 0.0894253

features.1.running_var f4 [32]
000000 ce d2 c6 3e 4f 2b 0e 3f 8d cd d3 3e 28 8d 57 3f
       0.38832706 0.55534834 0.4136776 0.8419976
000010 64 e8 82 3f 56 12 9f 3f 92 56 0c 40 a1 e3 46 3f
       1.022717 1.2427471 2.1927838 0.77691084
000020 29 8e 49 3f db c3 e9 3e f8 92 2f 3f c6 90 48 3f
       0.78732544 0.45657238 0.6858363 0.78345907
000030 f5 25 4b 3f 39 8c 7c 3f 8e 11 f4 3e ca 7c 89 3f
       0.7935479 0.9865146 0.47669643 1.0741208
000040 a4 2d 57 3f 85 37 61 3f 16 bf d3 3e eb 2f 98 3f
       0.8405402 0.8797534 0.41356725 1.1889623
000050 dd c3 63 3f c4 af 85 3f 84 b7 46 3f 30 de 3d 3f
       0.8897074 1.0444264 0.7762377 0.74167156
000060 2a b4 53 3f b7 23 f2 3e 9a bb 60 3e f6 a4 b4 3f
       0.82696784 0.47292873 0.21946564 1.4112842
000070 43 45 c3 3e d1 6a ca 3e 16 ac 34 3e 30 49 de 3f
       0.3813878 0.3953462 0.1764377 1.7366085

features.4.weight f4 [64, 32, 5]
000000 08 e8 30 bd 86 dd cd 3c 36 39 bd 3c 70 81 5c bd
       -0.043190032 0.025130045 0.02309857 -0.05383438
000010 08 65 d7 bc 0f ee 95 bd 6b 46 76 bd b2 cd de bc
       -0.026293293 -0.07320797 -0.06012575 -0.027197693
000020 5c ee 5a 3a 2d ec 7c 3c b9 15 11 bc e0 7a 99 3c
       0.00083515584 0.015437168 -0.008855277 0.01873535
000030 cc 09 94 3d 4a 6f 88 bc 3d 94 5e bc 99 4e 2d 3d
       0.07228431 -0.01665463 -0.013585147 0.042311285
000040 3b 8f a5 bc a7 b5 6b bd ff 01 2d bd 7b b2 ee bd
       -0.0202099 -0.057546284 -0.04223823 -0.11655136
000050 9f 5e c2 bd ef 87 09 bd cd 8e 53 bd 53 97 bd 3c
       -0.09490704 -0.033576902 -0.051649857 0.023143446
000060 08 89 25 3d b3 98 cc bc 30 e4 5e 3c 64 39 20 bb
       0.040413886 -0.024975156 0.013604209 -0.002444827
000070 a2 1e 44 3c 5b 95 5d 3c 00 75 aa 3c b0 bf 33 3b
       0.011970194 0.013524379 0.020807743 0.0027427487
000080 fe 32 b3 bb 69 45 44 3d e0 04 90 3d 1c f6 5c bd
       -0.005468725 0.047917757 0.0703218 -0.053945646
000090 a5 da c1 bd 44 5b 56 bd 25 f6 cf bd 7a 58 5d bb
       -0.09465531 -0.05233313 -0.1015437 -0.003377466
0000a0 46 2c 5d bd e2 e8 9e bd 35 1a 8b 3a 1f 69 c2 bd
       -0.0539973 -0.077592626 0.0010612669 -0.094927065
0000b0 3b 4e 3e bd e1 5d 90 bd f1 d7 9d 3d 70 80 d7 bc
       -0.046461325 -0.07049156 0.07707203 -0.026306361
0000c0 10 65 62 3d e5 aa b9 3d e3 34 21 3c eb 9f b9 3c
       0.055272162 0.09065799 0.009839269 0.022659263
0000d0 c6 c9 5a bd 5d b0 5f bd 77 51 8c bd 4e b2 e8 3c
       -0.053415082 -0.054611553 -0.06851476 0.028405335
0000e0 db 72 82 3d bd 04 9b 3d e4 5f 43 bd 80 1c 8e b8
       0.06369563 0.07569263 -0.04769887 -6.776396e-05
0000f0 48 3b a4 bd 53 ba 20 bd cf d3 55 3c 43 25 f0 bd
       -0.080191195 -0.039240193 0.013050987 -0.11725857
000100 ae 99 75 bd 78 80 69 bd 9b 11 e6 bc 7b 47 8d bc
       -0.059961013 -0.057007283 -0.028084567 -0.017245999
000110 6e 19 0f bd 7f c9 81 3c 93 10 cd 3c 77 fa 80 bd
       -0.03493636 0.015843151 0.025032317 -0.062977724
000120 ce e4 36 bd 36 62 8f bd be 9c 74 3d 9b a5 d8 bd
       -0.0446518 -0.07001154 0.059719793 -0.10578462
000130 19 e5 41 bd e0 a9 74 3d 77 82 e4 bb 96 9c e8 3c
       -0.047337625 0.059732318 -0.0069735604 0.028394978
000140 b2 17 d0 bc b2 25 ae 3d 05 0d 36 bc 10 f1 66 3d
       -0.025401924 0.085032836 -0.011111503 0.05638224
000150 30 7d b4 3d d4 14 42 bd 97 c7 83 bd 53 16 83 3c
       0.0881294 -0.047383144 -0.06434553 0.016001856
000160 42 01 82 3d 7e 13 33 3d 00 98 77 bd 4c b2 56 b9
       0.06347896 0.04371976 -0.060447693 -0.00020475051
000170 49 37 13 bb a7 63 c4 bb d7 49 16 bd 42 ec d0 bb
       -0.0022463372 -0.005993325 -0.036691513 -0.0063758204
000180 4d c5 27 3d cb 71 63 bd 58 0d 94 bc ad 6f 8f 3d
       0.040959645 -0.055528443 -0.018072769 0.07003722
000190 ef 2a 55 3b 70 0d 92 ba bc cc 9d 3d 21 93 de bc
       0.003252681 -0.0011142921 0.077050656 -0.027169766
0001a0 cb f8 8c bd 90 47 12 bd 41 4c df bc 91 51 79 3d
       -0.06883391 -0.03571278 -0.02725804 0.060868803
0001b0 5a 03 4d bd 72 a9 6c bd ee d4 a5 3d d3 5a 23 3d
       -0.050052024 -0.057778783 0.08097254 0.03988154
0001c0 2a 9c e1 bc 1f c7 76 3d 2a 17 e0 bc d9 43 0a bd
       -0.027540285 0.06024849 -0.027354795 -0.03375611
0001d0 82 b6 53 3d b1 e8 68 3d 6d fe 5c 3d c2 63 b5 3d
       0.051687725 0.056862537 0.053953577 0.08856918
0001e0 5d 62 2c bd 10 71 95 bd ee 25 ba bc a2 f5 cb bd
       -0.042085994 -0.072969556 -0.022723164 -0.0995896
0001f0 d9 10 8b bd a9 a6 20 3c aa b5 a2 bd 47 7e 90 bd
       -0.06790323 0.00980536 -0.07944806 -0.070553355
000200 a5 2b 4d bc b6 44 98 bd c6 78 04 3c d2 8f c5 3d
       -0.012522613 -0.074349806 0.008085435 0.09646572
000210 7f b1 41 bd d2 9c 83 3d 63 bf af 3d 29 e7 40 3c
       -0.047288414 0.064263955 0.08581426 0.011773863
000220 21 bb af bd e3 12 ad bc 62 92 ad bd b1 63 49 3d
       -0.08580614 -0.02112717 -0.08475186 0.04916734
000230 ff 11 8a 3b 80 6c e7 3c 17 20 80 3d 9b fe bb bc
       0.004213571 0.028249979 0.06256121 -0.022948554
000240 1e d9 43 3d ad c5 77 bc 66 fc 43 3b 10 a7 56 3d
       0.04781448 -0.015122813 0.002990508 0.052405417
000250 e5 f5 6b 3d a7 df 83 3d df c7 87 3c 99 e6 84 bd
       0.05760755 0.06439143 0.016574798 -0.064892955
000260 cc 47 27 3b b1 79 1c bc 1a 87 37 3d fe a9 89 bc
       0.0025524972 -0.009550498 0.044806577 -0.016804691
000270 ce d2 5b bc 48 72 21 bd 93 9f 05 3c d9 a1 a3 3c
       -0.013416959 -0.039415628 0.008155721 0.019974636
000280 5d a1 80 bd 30 64 21 3c a1 10 63 bd 37 7a 66 bd
       -0.062807776 0.009850547 -0.05543578 -0.056268897
000290 8b 3d 9d 3d 73 f2 42 bd f8 e3 e2 bd 9f a0 c1 bc
       0.07677754 -0.0475945 -0.11078638 -0.02363616
0002a0 56 c6 03 3d 98 67 6c 3d 51 ad d1 bc 6a 1f 74 bd
       0.03217157 0.057715982 -0.025595339 -0.05960027
0002b0 50 d3 47 3c 0b 7e 78 3d 35 bf cc 3d bd 4b 66 bd
       0.012196377 0.06066708 0.09997407 -0.056224573
0002c0 bc da b7 bd 72 04 a0 bd 03 53 22 3d 35 53 af 3d
       -0.08977267 -0.07813348 0.039629947 0.08560792
0002d0 eb d7 94 3d 6e 8d 49 bc 88 16 aa 3d 5f 02 9e bd
       0.072677456 -0.012301786 0.08305079 -0.07715296
0002e0 b6 02 54 bd fc 53 26 3c a0 7d fd bb 89 bb d9 3c
       -0.051760398 0.010151859 -0.007735923 0.026578682
0002f0 f5 9b 84 3c de ba 6e 3d 6f f8 4a 3d c7 92 08 3c
       0.016187647 0.05828368 0.04955333 0.008335776
000300 13 f5 78 3d 3c f1 df 3d 97 04 fa 3b e9 f7 c8 bd
       0.060780596 0.10934684 0.0076299417 -0.0981291
000310 87 54 2e bd 39 fc 50 bd 59 74 6a 3d 85 0c ea 3b
       -0.04256108 -0.05102179 0.057239864 0.0071426057
000320 a5 9d 9c 3b 50 11 53 bd 59 70 49 bd 82 2d 37 bd
       0.004779535 -0.051530182 -0.04917941 -0.044721134
000330 f0 35 82 3d b5 4d 8e bd 10 1e 02 3d 36 a3 8b 3b
       0.06357944 -0.06948415 0.03176695 0.0042613996
000340 22 30 65 bc 1b 8c 6e 3d 2f d3 cc bc 89 cb 8a 3c
       -0.013988527 0.058239084 -0.025003044 0.016942756
000350 24 ed 86 3c a0 51 c2 3d 58 a0 2e bd d6 86 04 be
       0.0164705 0.09488225 -0.042633384 -0.12942061
000360 b8 d7 30 bd 05 3e 3b bc 69 46 2f 3d 5e fa 60 3d
       -0.043174475 -0.011428361 0.042791758 0.05492627
000370 0d 3d f0 bd e2 7c c9 bd 0b 55 59 bd 6f 28 c3 3d
       -0.117303945 -0.09838273 -0.05305962 0.095291965
000380 65 29 d3 3d ec 69 8b 3d 16 82 15 bd f8 f3 95 3c
       0.1031063 0.06807312 -0.036501013 0.01830481
000390 23 aa 4a 3d 67 26 97 bd 2f db 7f 3c b1 5d 01 bd
       0.04947866 -0.073803715 0.015616222 -0.03158349
0003a0 e6 db 53 3c 7b 48 b6 3c 94 0b 78 bd 72 fc 83 3d
       0.012930846 0.022251358 -0.060557917 0.064446345
0003b0 ce 0c 2b bb 5c ae dd 3c 28 92 08 bd 16 af 8b 3d
       -0.0026100161 0.02706068 -0.03334251 0.06820504
0003c0 49 8f d3 bd 2b fd bb bd 57 eb 58 bd 90 86 b7 3b
       -0.10330064 -0.09179147 -0.052958813 0.005600758
0003d0 f4 37 80 bd d7 00 9d 3d 21 0e 64 bc ad c8 be 3c
       -0.06260672 0.07666176 -0.013919384 0.023289049
0003e0 14 7c 73 bb 3f 6f 41 bd 97 af a3 3d e8 2e f0 3c
       -0.0037152814 -0.047225233 0.079924755 0.029319242
0003f0 64 c1 b3 bb 28 1e 19 3b 5c 9e db bc da 30 04 be
       -0.0054857004 0.0023363922 -0.02680891 -0.1290926

features.4.bias f4 [64]
000000 67 cf 14 3d bc 21 89 bc 1e 3c 39 bd 59 0f 42 3c
       0.036330607 -0.016739719 -0.045223348 0.0118444795
000010 24 24 0b 3d 3c c5 ee bc 71 71 12 3d 6c d2 aa bc
       0.033970013 -0.029146783 0.035752717 -0.02085229
000020 59 e2 b3 3c 0a ca 1f bd 36 9d d1 3c f5 47 93 3d
       0.021958517 -0.03901104 0.02558766 0.07191459
000030 bb 13 7d 3d 3a 08 a1 bd 21 e5 3a 3d 46 da d5 3a
       0.061786395 -0.07862897 0.04562867 0.0016315661
000040 f3 bf 6b 3d 03 85 ca 3c 4a e4 18 3c 20 31 8a 3b
       0.057556104 0.024721628 0.009331772 0.004217282
000050 57 b2 58 3d cf 78 a2 3d 21 8f 65 3d f6 57 81 bc
       0.052904453 0.07933199 0.0560447 -0.015789013
000060 75 11 6f 3d 46 27 b4 bd 86 07 a6 bd e5 0e 7e bd
       0.058366258 -0.08796553 -0.08106904 -0.062025923
000070 a5 f3 79 bd f7 f7 30 bd 61 66 3c 3d 53 44 81 3c
       -0.061023373 -0.043205228 0.045996074 0.01577965
000080 3d 16 19 bd a9 cd 9b bd 98 4b 57 bd ac 24 b7 bd
       -0.037374724 -0.07607586 -0.052562326 -0.089425415
000090 9a c9 26 bd 09 b1 4b 3d 96 fd e4 bc 1d 07 af 3c
       -0.040719606 0.04972938 -0.02795295 0.021365697
0000a0 29 7b 62 3d c5 98 e0 3c 1b fd 77 bb 60 d4 27 3d
       0.055293236 0.027416596 -0.0037840072 0.04097402
0000b0 a4 e8 72 bd 65 74 cf 3c a5 25 84 3d cb 3d 8c 3d
       -0.059303895 0.025324056 0.064524926 0.068477236
0000c0 f9 e5 ac bc 3b 82 8b bb 36 7c bd 3d f8 7b 43 3d
       -0.021105753 -0.004257468 0.09252207 0.047725648
0000d0 1a ff a2 3b e6 e4 23 3d 9c 1d 84 bd 7e 6f 76 3b
       0.004974258 0.040013216 -0.0645096 0.0037603076
0000e0 eb bf e6 bc 15 c1 9a 3d 05 f2 92 bd 2f 25 81 bd
       -0.028167685 0.07556359 -0.07175068 -0.0630592
0000f0 5f 1a 42 3d be dd b7 bc 85 46 80 bd bf d7 5a ba
       0.04738843 -0.022444602 -0.062634505 -0.0008348189

features.5.weight f4 [64]
000000 01 92 82 3f 22 d1 80 3f 48 12 75 3f c1 6f 76 3f
       1.0200807 1.0063822 0.9573102 0.9626427
000010 12 27 68 3f c3 c4 83 3f 3a 58 80 3f a1 45 81 3f
       0.90684617 1.0294422 1.0026925 1.0099374
000020 dc 9d 6c 3f 4e 18 83 3f 40 29 7d 3f 8f 04 72 3f
       0.92428374 1.0241792 0.9889107 0.94538206
000030 d7 c3 7c 3f 31 8a 83 3f 21 7f 74 3f 60 0f 81 3f
       0.9873633 1.0276548 0.95506483 1.0082817
000040 c9 5d 86 3f cc 10 81 3f c7 ee 79 3f eb 86 82 3f
       1.0497371 1.0083251 0.9762997 1.0197424
000050 ff c6 84 3f 5a 09 89 3f df 71 83 3f 7c 8f 7c 3f
       1.0373229 1.0705979 1.0269126 0.9865644
000060 5d 7d 6e 3f 64 a2 80 3f 80 dc 82 3f 92 38 6e 3f
       0.9316004 1.0049558 1.0223541 0.9305507
000070 77 0d 81 3f 22 69 83 3f fd 32 82 3f a9 a5 82 3f
       1.0082234 1.0266459 1.017181 1.0206805
000080 54 d6 75 3f bf d9 76 3f da f3 82 3f d9 ba 81 3f
       0.96030164 0.96426004 1.0230668 1.0135146
000090 2f 80 77 3f 6b 67 84 3f 9a 7a 85 3f 7e 7f 66 3f
       0.9667997 1.0344061 1.042804 0.9003829
0000a0 f8 29 7b 3f a2 9b 81 3f 06 e3 86 3f e4 e1 84 3f
       0.98110914 1.012562 1.0538032 1.0381436
0000b0 1f 19 80 3f 9e 1c 81 3f ff ec 80 3f 31 77 84 3f
       1.0007666 1.0086858 1.0072325 1.0348874
0000c0 e6 6a 7d 3f c9 f1 6e 3f 21 81 81 3f a8 49 80 3f
       0.9899124 0.93337685 1.0117532 1.0022478
0000d0 ef aa 82 3f a4 8e 7b 3f aa c6 83 3f ff 21 84 3f
       1.0208415 0.9826453 1.0295002 1.0322875
0000e0 0f 0b 86 3f fc 19 7a 3f 68 7a 6c 3f 5d 5d 78 3f
       1.0472125 0.976959 0.9237428 0.9701746
0000f0 26 bd 81 3f 23 07 81 3f ea 0f 74 3f 50 02 82 3f
       1.0135849 1.0080303 0.9533678 1.0156956

features.5.bias f4 [64]
000000 91 f8 57 bc f2 5b 69 bc b3 12 77 bd 2a 2c f0 bc
       -0.013181821 -0.014243113 -0.060320567 -0.029317934
000010 2c 90 4d bd 9b 3c fd 3c 2b be 38 bd 7f ff 6b 3d
       -0.05018632 0.030912688 -0.045103233 0.057616707
000020 b2 1e 74 bd e7 f0 d4 3b 80 bf 86 bd 4b 42 77 bb
       -0.059599586 0.0064984444 -0.065794945 -0.0037728723
000030 eb c8 01 bc 6e eb 32 bd 28 40 6f bd 0c 3d 11 3d
       -0.007921438 -0.043681554 -0.058410794 0.03545861
000040 65 b0 d7 bc 6f 7c 24 bd 87 68 93 3d e4 71 bd bc
       -0.026329229 -0.04015773 0.071976714 -0.023125596
000050 6b a0 55 3d 99 bd c4 bc b5 1d 61 3d b2 1e 48 3d
       0.05215494 -0.024016188 0.05495997 0.0488574
000060 f7 1b 37 bd d7 8d 01 3b 2f 2e 28 3d ad c6 20 be
       -0.044704404 0.001976838 0.04105967 -0.15700789
000070 3c e3 c5 3c 8b 90 a0 bc 6f e9 fd bb 92 a4 21 bd
       0.024156205 -0.019600173 -0.0077487747 -0.039463587
000080 87 ae f0 bb ce 2a 62 bd fa 2d b4 bb c4 ba 81 bd
       -0.007345024 -0.055216603 -0.005498645 -0.06334451
000090 5c 24 96 bd 87 05 9e 3d 84 0b 30 bd ae 4c 76 bd
       -0.07331154 0.07715898 -0.042979732 -0.06013172
0000a0 16 08 bf bc 30 c8 24 ba 84 a8 5a 3d 84 e8 a0 3d
       -0.023319285 -0.0006285934 0.053383365 0.07856849
0000b0 39 ab e1 bc 16 c2 76 3c be 54 37 3d 3b 9d 57 3a
       -0.027547466 0.015060922 0.04475855 0.0008225028
0000c0 98 b1 f0 3b fa 00 23 bc ce c1 8e 3a 85 0f b0 3c
       0.0073453896 -0.009948963 0.0010891499 0.021491775
0000d0 22 a5 a7 3b fb a2 12 bc b7 43 2d 3d 34 93 d0 bc
       0.005116121 -0.00894999 0.042300906 -0.025460817
0000e0 9a 2b 79 bd 25 37 24 bd e3 59 06 bc 9b 3f 42 bc
       -0.060832597 -0.040091652 -0.008200142 -0.011855985
0000f0 e7 f9 e2 3c 2b d3 49 3d 8b 53 4d 3d 82 cc fd 3c
       0.027707053 0.04927365 0.0501285 0.030981306

features.5.running_mean f4 [64]
000000 16 57 cd be 14 a1 ac be 4c b8 a4 be d9 38 e7 3e
       -0.40105504 -0.33716643 -0.32171857 0.4516056
000010 01 a7 67 3a 7a dc 01 bf 7d 02 ec 3e 26 13 b0 be
       0.0008836836 -0.50727046 0.46095648 -0.3438961
000020 30 d9 81 3d f6 08 1e bf 14 2f 97 be 4a 37 8e 3f
       0.06340253 -0.61732423 -0.29528105 1.1110623
000030 06 b7 7a 3e f3 bd 2a bf 07 27 1e be d9 74 be bd
       0.2448388 -0.6669609 -0.15444575 -0.09299631
000040 33 6d 8f 3e 3a 74 32 3e d2 5d 31 3e 07 de 0b bf
       0.28013 0.1742715 0.17320946 -0.5463566
000050 49 03 ff be cd 2a 01 bd 6b ef ab be df 6f 71 3f
       -0.49807194 -0.03153496 -0.335811 0.94311327
000060 62 e0 d9 3e 2e b1 18 bf 85 1c ff be e4 40 fa 3e
       0.42554003 -0.59645355 -0.49826446 0.48877633
000070 94 59 ed be 3c 79 84 be c3 1c f4 bd d5 fa a1 bd
       -0.46357405 -0.25873744 -0.11919548 -0.079091705
000080 a5 e4 89 3e 85 2d 27 bf e2 f9 c5 be 36 24 38 3e
       0.26932254 -0.6530383 -0.38667208 0.17982563
000090 34 a6 4c 3e 84 ed 08 bf 5a 9e 9d 3e a4 1e 09 3e
       0.19985276 -0.5348742 0.30784875 0.13390595
0000a0 b6 06 08 bf 0e 3d e7 3e fd 7b 93 3d 90 c2 23 bf
       -0.5313524 0.4516377 0.07201383 -0.63968754
0000b0 02 4c b8 be 59 98 fa be 40 97 2b bf 97 f7 03 bf
       -0.3599549 -0.48944357 -0.67027664 -0.5154967
0000c0 09 57 7a bf b4 51 96 3e ea 1c e3 3e a1 f9 5a be
       -0.97789055 0.2935921 0.44357997 -0.21384288
0000d0 6e 00 4d bf e8 e5 20 bf ce e8 be be ad 11 9f be
       -0.8007878 -0.6285081 -0.3728699 -0.31068173
0000e0 28 a0 13 bf 15 14 06 bf d4 8e 0d bf 73 ac d2 be
       -0.57666254 -0.5237439 -0.55296063 -0.41147193
0000f0 2d 41 60 3d e8 c8 9a be c8 da e2 3e 31 fe b4 be
       0.054749656 -0.30231404 0.44307542 -0.35350183

features.5.running_var f4 [64]
000000 27 b4 1c 3f d0 02 9d 3e 21 4c 09 3f 5d 4a a8 3e
       0.6121239 0.30666208 0.5363179 0.32869235
000010 7c 3b 6f 3e 81 fe 0f 3f 60 67 0c 3f df 7a de 3e
       0.23362535 0.5624772 0.5484524 0.43453118
000020 83 e8 c8 3e 71 77 82 3f d8 ad 73 3e 98 76 45 3f
       0.39239892 1.0192701 0.23796785 0.77134085
000030 2b 8d 71 3e 11 18 a9 3e 8f 4b bd 3e d1 53 04 3f
       0.23589008 0.33026174 0.3697171 0.51690394
000040 e2 24 26 3f 6e e7 16 3f 5e 1d f6 3e 1b 69 aa 3e
       0.6490003 0.58946884 0.4806928 0.33283314
000050 6a e6 01 3f c1 23 82 3e 8c 4a a6 3e a0 d7 33 3f
       0.5074221 0.25417903 0.3247875 0.7025089
000060 3c b4 f5 3e ab d2 fa 3e 42 ce a2 3e 4d 34 10 3f
       0.4798907 0.48988852 0.31797987 0.56329805
000070 80 95 60 3f 59 22 92 3e 7c 04 53 3e c4 b5 7f 3e
       0.8772812 0.2854183 0.2060718 0.24971682
000080 fb 1b 09 3f 06 c9 f9 3e 12 09 d9 3e 3f bc 9f 3e
       0.5355832 0.4878618 0.42389733 0.31198308
000090 3b 9a be 3e 85 c8 14 3f b2 4e 59 3f 9f f5 9d 3e
       0.37227044 0.5811847 0.84885705 0.30851457
0000a0 da fe 2f 3f ce bb 40 3f 76 0f 26 3e d2 cd ec 3e
       0.6874825 0.7528657 0.16216835 0.46250778
0000b0 24 c7 27 3f f6 ee 73 3f 3e 78 6c 3f 1d dc 41 3f
       0.6553824 0.952865 0.92370975 0.7572649
0000c0 c7 6b 32 3f a6 9f 9f 3e 7a 4c fa 3e 0c 49 39 3e
       0.69695705 0.3117649 0.48886472 0.18094271
0000d0 07 83 56 3f 32 b3 43 3f c0 b3 26 3e fa a4 3a 3e
       0.8379368 0.76445305 0.16279507 0.18226996
0000e0 c5 8d 8c 3e 36 8b 76 3f ab 0f a5 3e aa 95 44 3f
       0.27451912 0.9630617 0.32238516 0.7679087
0000f0 74 72 e8 3e 49 8a f1 3e 63 29 cb 3e 2d 0e 3b 3f
       0.4539982 0.47175816 0.39680013 0.73068506

features.8.weight f4 [128, 64, 5]
000000 6b 95 a8 bb 5b b1 5b bc 64 fd a8 3c d2 c4 d0 bb
       -0.005144765 -0.013408984 0.020628639 -0.006371119
000010 2d 84 21 bd 24 1f f2 b8 32 37 9a bd 69 b8 6f bd
       -0.039432693 -0.000115452596 -0.07530059 -0.058525477
000020 1d 39 5a bb 0d d8 92 bd 6c 40 12 bd a4 8f ac bd
       -0.0033298202 -0.07170115 -0.03570597 -0.08425835
000030 ac ad 61 bc 78 fc 90 bc 1f 28 8b bc fc c1 85 bd
       -0.013774317 -0.017698511 -0.016986905 -0.0653114
000040 5d 58 2a 3d af 20 39 3c e3 82 23 3d 89 7f 0c bd
       0.041588176 0.011299296 0.039919745 -0.034301315
000050 52 d3 b9 39 33 8b a1 3c 27 a1 ee 3c 00 12 cf 3c
       0.00035443396 0.019719696 0.029129578 0.025277138
000060 d8 7a 3f bd d1 ab 14 3b dc 96 bb bc d6 9a a1 bd
       -0.046748012 0.0022685418 -0.022899084 -0.07890861
000070 df 2e 63 bd 80 a5 97 bc 5f 76 c0 bd 42 1f 79 bd
       -0.05546462 -0.018511534 -0.093975775 -0.060820825
000080 7f 16 2c bd 7f 8e e8 bb 27 24 88 bd 5e 72 9b 3c
       -0.04201364 -0.007097065 -0.066475205 0.018975433
000090 72 b1 48 bb 5e a2 e7 bc a6 0c 3e 3c bc be 76 bd
       -0.0030623344 -0.028275665 0.011599695 -0.060240492
0000a0 ae 28 aa 3b d2 c1 b1 3b 11 6d a3 3c 90 8c a9 bc
       0.0051928377 0.0054247165 0.019949468 -0.020696908
0000b0 ed a9 8f bd 4e 9e b7 bc 0e f3 86 bc 28 5d af 3c
       -0.07014833 -0.022414353 -0.01647332 0.021406725
0000c0 18 fb 1b bd a7 82 ee bc 29 14 1d bc 2a 28 5c 39
       -0.03808126 -0.029115034 -0.009587326 0.00020995797
0000d0 6d f2 c9 3c 55 b7 66 3c 25 75 61 bd a7 3a b6 3c
       0.02465173 0.014081796 -0.05504336 0.022244764
0000e0 2d e0 01 3c c7 e4 26 bc 03 29 3a bc 54 f7 32 bd
       0.007926983 -0.010186381 -0.011362317 -0.0436929
0000f0 3e 17 85 bd 9b a1 c5 bc 3e 11 23 3b 64 d2 b0 bc
       -0.06498574 -0.024124911 0.0024882103 -0.021584697
000100 5e a5 03 bd 71 9e 8a 3c 75 b6 b4 bc af 87 11 bd
       -0.03214013 0.016921254 -0.022059659 -0.03552979
000110 eb d1 36 bd dd 6e 78 bd d7 99 0f bc cd eb 0c bd
       -0.044633787 -0.060652602 -0.008764706 -0.034404565
000120 cb 83 2e bc 65 82 0a bc d9 18 9a bd 93 cb 8f bd
       -0.010651539 -0.00845394 -0.075242706 -0.070212506
000130 02 a8 61 bd 16 ee bd 3c df e0 76 bd 0c 29 9a bc
       -0.055091865 0.023184817 -0.060273048 -0.0188184
000140 44 05 55 bd a5 8b 9c bc 21 ce 07 bc 69 90 48 bd
       -0.052006975 -0.019109556 -0.008288891 -0.048965845
000150 76 dc f3 3c be 16 48 bd 4c 01 a6 3b 2d e8 e7 3b
       0.02976821 -0.048849814 0.0050660726 0.007077238
000160 10 fa 59 3c 65 b8 6d bd c1 28 c5 bd 3c a9 b4 bc
       0.013304248 -0.05803718 -0.09626914 -0.022053353
000170 9c 21 2b bd 09 32 d9 bd 29 61 81 bd 5e 11 34 bb
       -0.0417801 -0.106052466 -0.0631736 -0.0027476172
000180 73 9a 78 3b ea 53 86 3b 9f eb 8d 3b 6c 8f 4c 3c
       0.0037933856 0.004099359 0.0043310667 0.012485366
000190 19 ee d5 bc c8 11 0d bc e0 88 cc ba ce 56 16 bd
       -0.02611451 -0.008610196 -0.0015604757 -0.036703877
0001a0 84 02 6c bd 64 69 a8 bd c4 41 27 bd 4d e4 85 bc
       -0.057619587 -0.08223227 -0.040834203 -0.016344214
0001b0 92 7d 19 bc ca 66 a1 bd ec b9 8d bc 1e 95 cd bd
       -0.009368317 -0.078809336 -0.017300569 -0.100382075
0001c0 83 a9 9d bc 10 b4 1b bc a3 ac 88 bd 7b 25 fe bc
       -0.019245869 -0.009503379 -0.06673553 -0.031023731
0001d0 e2 cc bf bd 1e 53 36 bd 64 c6 60 bd e3 d4 d1 bd
       -0.0936525 -0.04451286 -0.0548767 -0.10245683
0001e0 d2 50 e3 3b 3c 5e 0e 3d a6 c7 7b 3d 5b 4b e1 3c
       0.0069371248 0.034757838 0.061469696 0.027501753
0001f0 f3 4c 46 3d 0f 07 fc bb 57 4a b4 3c 5a 11 ff 3c
       0.04841323 -0.007691271 0.022008104 0.031136204
000200 b9 fb b3 bb b0 ca 69 bd b4 f0 5d bd d8 0b fd bb
       -0.005492654 -0.057078063 -0.05418463 -0.007722359
000210 58 5e 0b 3c 10 01 ac bc b8 72 51 bd c8 6a 08 3d
       0.00850638 -0.0209966 -0.051134795 0.03330496
000220 8d 55 0c bd 52 09 8f 3c d0 aa 1f 3d bc d7 c4 3c
       -0.034261275 0.017460499 0.03898126 0.024028651
000230 da 4f ab bc 10 56 47 bd d6 6b 85 bd f3 94 95 3a
       -0.0209121 -0.04866606 -0.06514709 0.0011412188
000240 a8 33 87 bd aa 64 ba 3c 06 8d 63 3b 10 45 35 3c
       -0.066016495 0.022753078 0.0034721508 0.011063829
000250 6d 46 0e bd 66 6a 09 bd 7f ab 37 bd 10 6c 32 bd
       -0.034735132 -0.033548735 -0.044841286 -0.043560088
000260 fc c9 e4 bc 65 e9 3a 3c f3 af a8 3b a2 67 1f 3d
       -0.027928345 0.011408185 0.005147928 0.03891719
000270 78 6b f6 bc 3d 97 55 bd 04 d3 d0 bc 2c 47 51 bd
       -0.030080542 -0.052146185 -0.025491245 -0.051093265
000280 60 9e db bc b5 5d f1 bc 17 fe 97 bd 19 36 ef ba
       -0.026808918 -0.029463628 -0.07421511 -0.0018250375
000290 a1 e9 9c bd c9 4b a0 bb 2f 2b 89 3c ef 5e e6 3c
       -0.07661749 -0.004891847 0.016744224 0.02812144
0002a0 33 75 2f 3c 90 c6 1b 3d 9a 17 1f bd 6c e6 0a bd
       0.010709095 0.03803116 -0.038840868 -0.033911154
0002b0 94 d4 50 bc d0 4b a3 bc 20 3d 30 bc 11 83 a6 3c
       -0.012745995 -0.019933611 -0.010756761 0.02032617
0002c0 68 49 6f bd dc eb 3e 3b f9 5b 6b 3b 88 f8 7f bd
       -0.058419615 0.0029132282 0.0035912974 -0.062492877
0002d0 ba 7a 42 bd ea 0e 53 3b 40 c0 1e bd 08 3d 09 bc
       -0.047480322 0.0032204934 -0.038757563 -0.008376367
0002e0 ac 26 e5 3b 2e a9 4c 3c c4 4a 13 3d 77 16 28 bd
       0.0069931354 0.012491507 0.035959974 -0.04103705
0002f0 20 2b 89 bd c5 b0 83 bd 9d 16 bf 3b f4 ac 97 bb
       -0.066976786 -0.064302005 0.005831553 -0.004628772
000300 07 2e 08 3d 0c 09 15 3d c4 8d 10 bd 0e dd 12 bd
       0.03324702 0.03638558 -0.03529145 -0.035855345
000310 e6 e6 62 bd 20 8d 79 bd d6 fd b9 bb af 21 d1 bc
       -0.055395983 -0.060925603 -0.0056760116 -0.025528757
000320 53 dc 85 bc 0b 6f 95 3d 94 65 d9 3c 5a bd 59 bb
       -0.01634041 0.072965704 0.026537694 -0.0033224435
000330 2a f2 3c 3c 16 de 23 bc af 1b 2f bd b1 44 84 bd
       0.011532346 -0.01000168 -0.04275101 -0.06458414
000340 f9 f5 78 3c 9c d1 6a bd d2 2c 9c bd cd c9 ad bd
       0.015195363 -0.057328805 -0.07625736 -0.08485756
000350 c3 68 6b bc eb a3 83 3c ee a7 0e bd 23 fe c4 3c
       -0.014368239 0.016069373 -0.03482812 0.024046963
000360 e9 f7 82 bd a6 2d 12 bd 24 86 4e bd a5 de 4f bd
       -0.06394941 -0.035688065 -0.050420895 -0.05074944
000370 64 15 95 bd c1 c4 ba 3b 9f cb 5c bd 13 e1 01 3c
       -0.072794706 0.0056997244 -0.053905126 0.007927197
000380 dc d1 46 bc 11 37 0a bd 93 78 4b bd 6c 83 02 bc
       -0.012134995 -0.03374392 -0.049675535 -0.007965904
000390 18 2b c1 3c d4 34 95 3c 5f 4e bc bb 27 c5 42 3d
       0.023580119 0.018213667 -0.0057466472 0.0475513
0003a0 b3 bf dd bc dd 08 29 3d f2 54 44 bd 98 c6 31 bc
       -0.027068948 0.04126822 -0.047932573 -0.010850571
0003b0 7c 6f 89 bc c9 de 26 bd 1f 8d ee bc c2 75 86 3c
       -0.016776793 -0.04073981 -0.029120026 0.016413573
0003c0 7b f3 2c 3c 3a 2b 01 bd 74 2e 0d bd b4 6e a3 3b
       0.010556097 -0.031535365 -0.03446813 0.004987562
0003d0 e9 23 dc 3c 36 87 59 bd c9 d5 2c bd 73 9b 09 3d
       0.026872592 -0.053107463 -0.04219607 0.033595514
0003e0 f3 1c 16 bd 9c 9f 23 bc 03 a7 47 3d 90 51 68 3d
       -0.036648702 -0.009986784 0.04874326 0.05671841
0003f0 cc e9 53 3d 22 b6 95 bc c0 7e 92 bd 50 cf 3e 3d
       0.051736638 -0.018275324 -0.07153082 0.046584427

features.8.bias f4 [128]
000000 2a 29 f2 3c db 08 9c bc 1c dd 80 3d 5d 55 81 3c
       0.029560644 -0.019047191 0.06292173 0.015787775
000010 fd 17 a6 bc 3e e3 ec bc 07 13 18 3d 7a 43 40 bd
       -0.02027511 -0.028916951 0.03712752 -0.04693935
000020 a0 50 02 bd bc 54 ee 3b 98 b9 cd b9 fd 62 ae bc
       -0.03181517 0.0072732847 -0.00039238925 -0.021287436
000030 7c 98 6c 3c 80 1a 91 bb 9f 54 4b 3d 6c 30 48 3d
       0.014440652 -0.004428208 0.049641248 0.048874304
000040 e9 de 9d 3d 52 15 25 3c 5c c8 88 3d 08 74 04 3d
       0.07708532 0.010075884 0.066788405 0.03233722
000050 a2 56 19 bd f6 16 af ba 5d 9d b5 bc a4 92 f4 bc
       -0.037436135 -0.0013358283 -0.022169763 -0.02985508
000060 1e 9c 0c 3d 7b 13 8e 3d 6d 51 22 bd 97 91 50 bd
       0.034328572 0.06937309 -0.039628435 -0.050920095
000070 1b 21 4c 3d aa 73 88 3c 82 0a 02 3d 1b 7c 22 3d
       0.04983626 0.016656715 0.031748302 0.039669137
000080 93 f4 56 bd e2 83 bd 3c 08 47 09 bd 96 48 2f 3d
       -0.052479338 0.023134176 -0.033515006 0.042793833
000090 9c 13 15 3c 6b 99 88 3b fb 1b 7f 3c a2 b6 d2 39
       0.0090989135 0.0041686795 0.015570636 0.00040190393
0000a0 7c 11 11 3d 69 55 99 bc a5 8f b1 bd ae fb 8a bd
       0.035417065 -0.018717485 -0.08669976 -0.06786285
0000b0 3e 58 72 bc 9d d0 40 bb 8c 9f c8 b9 7e 08 04 bb
       -0.014791546 -0.0029421218 -0.00038265844 -0.0020146663
0000c0 a3 07 c0 bc 73 04 f4 3c 61 07 5d 3d b7 9f b3 3c
       -0.023441141 0.029787278 0.053962115 0.021926744
0000d0 bd 28 84 3d c6 82 42 bd b3 86 a4 3c 75 b8 29 bc
       0.06453083 -0.047487997 0.02008376 -0.010358919
0000e0 f1 85 ea bc f7 60 8b bc ae f9 0c bd 7f 8b 24 3d
       -0.028628321 -0.01701401 -0.0344178 0.040172096
0000f0 c8 5e cd bb c6 af 94 bc 75 09 09 bd ac ef 4a ba
       -0.0062674023 -0.018150222 -0.033456285 -0.00077414024
000100 8e 8c b8 bd 8e af 20 3d 47 55 2e 3d 8b 2d 10 bd
       -0.09011184 0.039229922 0.042561796 -0.035199683
000110 2d c5 18 bd ee 3f 48 3d 89 25 90 bb b5 8f 67 3d
       -0.037297416 0.048889093 -0.004399006 0.056533534
000120 bd 59 82 bd a2 f7 59 3d b0 cb 7f bb b9 da f8 3a
       -0.063647725 0.053214677 -0.003903132 0.0018986083
000130 e0 31 05 3c 4d d4 1f 3d 06 61 3e 3c 90 58 8a 3c
       0.008129567 0.039020825 0.011619812 0.016887933
000140 81 67 0e bd 05 22 11 bd 43 6a 4e bd 0a fd 6b bc
       -0.034766678 -0.035432834 -0.050394308 -0.014403591
000150 4d b5 d1 bc c6 65 b6 3c 9c e8 4b bd b4 79 d6 ba
       -0.025599146 0.022265326 -0.04978238 -0.0016363175
000160 1d 5e fe 3c c8 99 85 bb 02 7b 0b 3d c6 53 2f 3d
       0.031050736 -0.00407717 0.034052856 0.042804502
000170 d6 76 58 bd ef d0 9c 3b a8 33 ab bc b1 29 74 bb
       -0.052847706 0.004785649 -0.020898655 -0.0037256295
000180 eb 7f 56 bd 11 02 45 bd de af 3f bd 28 dc 18 3d
       -0.052368086 -0.048097674 -0.04679858 0.037319332
000190 45 85 80 bd b8 d3 be bd c6 02 4e 3d ce 6f 24 bd
       -0.06275419 -0.09317726 0.050295614 -0.040145688
0001a0 26 e0 19 bd b6 18 49 3c 7a dc 8c 3d ac db 83 bc
       -0.03756728 0.012273958 0.0687799 -0.016095959
0001b0 97 86 39 bd 02 0b a3 bc 81 54 60 3d 99 ab 27 3d
       -0.04529437 -0.01990271 0.05476809 0.040935133
0001c0 fb 06 20 bd 41 7d ed 3c 4d 0d 19 3c 19 dc 8e 3c
       -0.039069157 0.02899039 0.00934155 0.017438935
0001d0 81 c8 16 bd db 19 ef bc dc 7e 2b bc ae 4b d0 3c
       -0.03681231 -0.029187134 -0.010467257 0.025426712
0001e0 3c 2c 00 3d 89 5e 70 3c 0b 5a cc 3c ee fd df 3c
       0.031292185 0.014670976 0.02494528 0.027342763
0001f0 81 0e 09 bd ea 1c 63 3d d4 50 8d bb b3 67 0b bc
       -0.033461098 0.055447496 -0.004312614 -0.008508611

features.9.weight f4 [128]
000000 2a 10 71 3f 01 da 60 3f 39 52 57 3f 74 2c 79 3f
       0.9416529 0.8783265 0.84109837 0.97333455
000010 4f ff 75 3f 3d fa 6d 3f 38 15 7c 3f 9f c8 80 3f
       0.96092695 0.9295996 0.9846988 1.0061225
000020 e6 cd 81 3f e7 8a 81 3f ce 38 76 3f 25 2b 8c 3f
       1.014096 1.0120515 0.9618043 1.0950667
000030 66 15 6c 3f 90 05 6f 3f 92 f0 84 3f 66 f6 83 3f
       0.9222015 0.9336786 1.0385916 1.030957
000040 f9 f7 84 3f eb d7 60 3f 17 20 6b 3f cb 69 80 3f
       1.0388175 0.87829465 0.9184584 1.0032285
000050 ad ea 6e 3f 11 54 72 3f b1 f8 75 3f d2 5e 73 3f
       0.93326837 0.94659525 0.960826 0.9506656
000060 65 6c 83 3f 73 71 74 3f 19 59 80 3f a6 c1 85 3f
       1.0267454 0.9548561 1.002719 1.0449722
000070 83 4f 6f 3f 2f 68 5e 3f 75 3a 80 3f 36 39 85 3f
       0.934807 0.8687772 1.001784 1.0408084
000080 79 ad 71 3f fe 8f 82 3f 29 be 6d 3f 2a 47 7d 3f
       0.94405323 1.0200193 0.92868286 0.9893671
000090 59 5f 7e 3f 8b 2a 61 3f b7 c2 7e 3f 20 53 6e 3f
       0.9936424 0.8795554 0.9951586 0.9309559
0000a0 73 41 7e 3f 86 2d 7c 3f 3e d1 7c 3f 20 7e 84 3f
       0.9931862 0.98506963 0.9875678 1.035099
0000b0 bf b8 7a 3f 82 f9 68 3f c3 64 76 3f 41 bf 87 3f
       0.9793815 0.9100572 0.962475 1.0605241
0000c0 7c 81 62 3f 23 d1 81 3f ca 20 81 3f b0 c4 82 3f
       0.8847883 1.0141948 1.0088131 1.0216274
0000d0 b2 55 83 3f 81 ae 7b 3f eb d8 74 3f 05 c2 6f 3f
       1.0260527 0.98313147 0.9564349 0.93655425
0000e0 4a 22 7c 3f ad 68 7c 3f 79 28 72 3f 7d 4c 6b 3f
       0.9848982 0.9859722 0.94593006 0.91913587
0000f0 1d a8 83 3f 19 9a 80 3f 39 c8 6a 3f 21 c8 84 3f
       1.0285679 1.0047027 0.91711766 1.0373574
000100 ed c6 75 3f f6 f8 84 3f 31 05 78 3f 4e a3 7d 3f
       0.9600666 1.0388477 0.9688292 0.9907731
000110 a9 0a 5b 3f 8f 08 84 3f f2 29 80 3f 66 6c 85 3f
       0.8556314 1.0315112 1.0012801 1.0423706
000120 2e d0 81 3f 40 1f 77 3f d0 b9 77 3f a3 7f 86 3f
       1.0141656 0.9653206 0.967679 1.0507702
000130 71 d2 6d 3f 76 e5 7d 3f b0 7c 62 3f 22 3f 84 3f
       0.92899233 0.99178255 0.8847151 1.0331767
000140 3b 75 64 3f a8 2f 77 3f 09 63 75 3f c2 f8 6b 3f
       0.8924138 0.9655709 0.9585424 0.9217645
000150 6e 58 69 3f 97 23 7d 3f 57 80 76 3f e0 86 80 3f
       0.9115056 0.9888243 0.9628958 1.004116
000160 3a 15 72 3f 66 3b 78 3f cb e2 7f 3f 23 56 89 3f
       0.9456364 0.96965635 0.99955434 1.0729412
000170 e1 8c 79 3f cc d6 6a 3f de df 8b 3f 3d 97 7a 3f
       0.9748059 0.91734004 1.0927694 0.9788702
000180 ba d7 6e 3f 1b 13 77 3f c3 58 86 3f 3d e2 81 3f
       0.9329792 0.9651353 1.0495838 1.0147167
000190 78 06 81 3f f3 e5 6f 3f 84 37 82 3f 4c e2 76 3f
       1.0080099 0.9371025 1.0173192 0.9643905
0001a0 4c d0 80 3f 3d 0e 7a 3f 95 2b 8a 3f fa 67 71 3f
       1.0063567 0.97677976 1.079455 0.9429928
0001b0 61 73 89 3f 7e f1 71 3f 2f 78 76 3f 2d 3d 84 3f
       1.0738336 0.9450911 0.96277136 1.0331169
0001c0 21 34 81 3f f3 75 6e 3f 49 7a 66 3f 8e 61 80 3f
       1.0094033 0.93148726 0.9003034 1.0029771
0001d0 c7 0f 76 3f 04 c5 7b 3f a7 d3 80 3f 48 d7 6b 3f
       0.96117824 0.98347497 1.0064591 0.9212537
0001e0 8a 7d 80 3f 29 9c 71 3f 3c 7e 78 3f 3c cb 78 3f
       1.0038311 0.94378906 0.9706762 0.9718511
0001f0 48 7a 7f 3f 96 fb 72 3f f5 f4 7e 3f da 60 68 3f
       0.9979596 0.9491514 0.99592525 0.90772784

features.9.bias f4 [128]
000000 85 0a 00 bd 8e 02 cf bd d7 ed 82 bd 54 41 d4 bd
       -0.031260032 -0.10107909 -0.063930206 -0.10364023
000010 87 39 08 bc 13 9d b9 bd 1f fc 13 be fb 50 6d bd
       -0.008314497 -0.09063163 -0.14451645 -0.057938557
000020 5e e4 10 bd 7c 4d af bc cc 6d f2 bc 28 40 b1 bd
       -0.035374038 -0.021399252 -0.02959337 -0.08654815
000030 9e a7 14 bd ad fa 63 bd a8 83 cc bd 19 17 fd bd
       -0.036292665 -0.055658985 -0.09986049 -0.12357921
000040 c5 0b 0b bd c8 97 03 be 6e 42 da bd 17 fd bd bd
       -0.03394677 -0.12850869 -0.10657202 -0.09276789
000050 61 75 86 bd 30 d5 b1 bd a2 27 a7 bd 5f 1c 8c bd
       -0.06565357 -0.086832404 -0.08161856 -0.06841349
000060 d7 92 35 be 78 3b c5 bd 8f d0 a8 bd 7f 58 2f be
       -0.17731796 -0.096304834 -0.082429044 -0.17123602
000070 66 2e de bd bf 29 12 be f8 6e f7 bd cd ae 23 bc
       -0.108486935 -0.14273737 -0.120817125 -0.009990406
000080 06 36 51 be 3f d1 42 be a6 3d a3 bd 58 ba 9b bd
       -0.20430765 -0.19025134 -0.07970743 -0.076039016
000090 b3 c0 ac bd 86 ee 37 bd dd df 14 be e1 99 98 bd
       -0.08435192 -0.044905208 -0.14538522 -0.07451225
0000a0 d5 53 41 bd 2e cf b2 bd d6 0b 66 be 9a ec 1e be
       -0.04719909 -0.08730923 -0.22465453 -0.15519944
0000b0 89 b0 8f bd 24 39 f5 bd de 24 01 be 99 b2 96 bc
       -0.07016093 -0.11973789 -0.1261172 -0.018395709
0000c0 71 87 36 be e4 43 04 be 8a 4f 15 be 11 26 4d bc
       -0.17825104 -0.12916523 -0.14581123 -0.012521283
0000d0 32 bf e4 bd d5 aa 88 bd 45 53 4a bd 6a b2 2a bd
       -0.1116928 -0.066732086 -0.04939582 -0.041674055
0000e0 2e 8a 84 bd 5d ac 07 be e6 30 cb bc 60 84 ed bd
       -0.06471668 -0.13249345 -0.02480359 -0.11597514
0000f0 27 f6 16 be 58 df d7 bd 6b 73 82 bd 8d 3c d8 bd
       -0.14742337 -0.10540646 -0.063696705 -0.10558424
000100 e9 12 9c bd 41 a9 55 be 09 bd 80 bd eb a6 af bd
       -0.07620794 -0.20865346 -0.062860556 -0.08576759
000110 8a d2 8c bd e3 21 74 be 9d bb 10 be 19 1b a9 bd
       -0.06876095 -0.23841052 -0.14134069 -0.082571216
000120 8c ad 05 be a4 ca de bd 53 80 55 be b0 3c 31 bb
       -0.13054484 -0.108784944 -0.20849733 -0.002704423
000130 90 15 92 bd 2d e0 10 bd cc af ee bd 71 89 0d be
       -0.07133019 -0.03537004 -0.11654624 -0.13821961
000140 4b 49 c6 bd ab 8f fe bd 90 03 86 bd a4 5b 17 be
       -0.09681948 -0.12429746 -0.06543648 -0.14781052
000150 26 92 2a be d1 1d aa bd 66 29 0c be 6f 01 6a 3c
       -0.16657314 -0.08306468 -0.13687667 0.014282568
000160 42 d7 91 bd 01 50 44 bd f2 59 cc bd 4b 82 ee bc
       -0.07121135 -0.04792786 -0.09978093 -0.029114863
000170 28 21 ba bb 13 cd 1f be e2 3f 85 bc 95 83 b7 bd
       -0.005680222 -0.15605573 -0.016265813 -0.08960644
000180 e4 5a f0 bd fc 78 c7 bd c1 4e 40 be c0 9c 2e bd
       -0.11736086 -0.09739873 -0.18780042 -0.042629957
000190 57 9b 72 bc 4e ac 24 be 16 57 25 be 22 c4 0a bd
       -0.014807544 -0.16081354 -0.16146502 -0.033878453
0001a0 c0 dd 6b be 2b 31 a1 bd b4 5a d6 bd a8 61 e0 bd
       -0.2303381 -0.07870706 -0.10466519 -0.109561265
0001b0 c8 53 1d bd ca e6 8f bd 8a ce 0a be f7 a2 26 be
       -0.03840998 -0.070264414 -0.13555351 -0.16273104
0001c0 32 ee 20 be 3f 42 dc bc 36 b3 6c bd 45 02 d5 bd
       -0.15715864 -0.026887057 -0.057788096 -0.104008235
0001d0 24 35 4d bd 72 e9 f4 bd fb c3 a7 bd 6c 9a 8b bd
       -0.050099507 -0.11958589 -0.08191677 -0.06816563
0001e0 8b fe 14 be 25 3c 53 bd 01 41 0b be b8 48 73 bd
       -0.14550225 -0.05157103 -0.13599016 -0.059395522
0001f0 26 59 93 bd 9d 39 15 bd e6 bd 9f bd 68 09 89 bd
       -0.07194738 -0.036431897 -0.07799892 -0.06691247

features.9.running_mean f4 [128]
000000 72 22 f3 bf 3e a8 b2 be ec 53 47 3f 4d 02 a6 be
       -1.8994887 -0.34893984 0.7786243 -0.3242363
000010 62 29 a5 bf c8 c0 b9 bf b9 40 6b be b0 de b6 bf
       -1.2903254 -1.4511957 -0.22973908 -1.4286709
000020 7e 75 a7 bf b5 3c 5c bf 01 48 cc be 08 b5 28 be
       -1.3082731 -0.8603013 -0.39898685 -0.16475308
000030 b9 2d d2 bf 2e 42 7f bf fe 43 7a be 04 4f b4 be
       -1.6420203 -0.9971036 -0.2444 -0.35216534
000040 7c 38 35 bf 41 56 7d bf 3a 26 91 bf 0c 81 a8 bc
       -0.70789313 -0.9895974 -1.1339791 -0.020569347
000050 cb 07 80 bf 68 96 c8 bf b9 c0 eb be bc f2 86 bf
       -1.0002378 -1.56709 -0.46045473 -1.0542827
000060 b5 f4 2f bf 97 3d 9a bf 08 cd 7f 3e ed 25 81 bf
       -0.6873277 -1.2050046 0.24980557 -1.0089699
000070 4f 57 ed be 14 34 a5 bf 6a fc 54 3d da 67 24 bf
       -0.46355674 -1.2906518 0.051998533 -0.64220965
000080 d6 1e d7 3f de 67 4b bf 91 6c 91 bf 24 68 7d bd
       1.6806285 -0.79455364 -1.1361257 -0.061866894
000090 96 61 86 bf ce 00 27 3f 5d a9 a2 3e 84 8c a0 bf
       -1.0498531 0.652356 0.3176984 -1.2542882
0000a0 07 12 33 bf f8 12 bd bf 4c 36 95 3f 55 69 1e bf
       -0.6994938 -1.4771414 1.1657195 -0.61879474
0000b0 b9 d5 a1 be 4e 68 77 bf 7e 19 32 be 7a 23 a2 bf
       -0.3160837 -0.9664353 -0.17392537 -1.2667077
0000c0 63 3a ac 3f 7c 5d b7 be 47 19 55 be fc 4a c6 be
       1.3455318 -0.3581351 -0.20810424 -0.38729084
0000d0 76 2b c2 bd 41 45 13 3e 64 bf 88 bf db 99 40 bf
       -0.09480946 0.14381887 -1.0683408 -0.75234765
0000e0 ac 22 c3 bf ec 4c 14 bf 56 55 26 bf ed 9b 9b be
       -1.5244956 -0.57929873 -0.6497396 -0.303924
0000f0 4a e2 27 be 1e 4a 45 bf d7 61 56 bf cb 57 8c bf
       -0.16394916 -0.7706622 -0.8374304 -1.0964292
000100 d2 01 50 bf cf 3a a0 3f a8 63 c3 be 44 c5 c0 bd
       -0.8125278 1.2517947 -0.3816197 -0.094126254
000110 89 9f 5f 3f ed 96 ce 3f 70 6c 25 bf db 2a 00 be
       0.87352806 1.6139809 -0.6461859 -0.12516348
000120 d6 9d 82 be 63 c8 a2 bd 8f 3f c4 3f 69 ba 7f bf
       -0.25511044 -0.07948377 1.5331897 -0.99893814
000130 70 8e a0 bf be ca a0 bf e4 f2 a6 bf 75 45 84 bf
       -1.2543468 -1.2561872 -1.3042874 -1.0333697
000140 c8 90 7a bf 66 cb 4e bf e6 4a 9e bf c3 af 52 bf
       -0.9787717 -0.8077911 -1.2366607 -0.8229944
000150 e4 8f 18 bf 46 80 e3 bd 71 fa b3 be bb 89 c5 bf
       -0.5959456 -0.111084506 -0.3515201 -1.5432657
000160 22 be a5 bf 93 73 01 bf 68 ca 24 bf fc 15 6a be
       -1.2948649 -0.5056698 -0.6437135 -0.22859949
000170 d8 53 0b c0 5b 25 40 bf 98 ae 09 bf 96 67 20 bf
       -2.1769924 -0.75057 -0.53782034 -0.6265806
000180 15 0b 31 be 32 e7 81 be ed 7d 96 be 5b fe 24 3e
       -0.17289384 -0.253717 -0.2939295 0.16112654
000190 cc bf 9d bf 28 48 2c be 73 63 91 be 41 1f ab bf
       -1.2324157 -0.168244 -0.28396186 -1.3368913
0001a0 de b1 7d 3f 94 66 64 bf ae f8 c9 bc 18 84 4f bf
       0.9909953 -0.8921902 -0.024654713 -0.81060934
0001b0 a4 01 52 be 83 5b b7 bf 8b 26 ae bf 3f aa 0d 3d
       -0.20508438 -1.4324802 -1.3605512 0.034586187
0001c0 d7 55 ab bc 3e 43 7e bf 02 d7 60 bf 0b e8 04 bf
       -0.020914955 -0.99321353 -0.87828076 -0.5191657
0001d0 2e 77 87 bf c1 83 08 bf 43 74 5a bf ae 00 90 bf
       -1.0583246 -0.5332604 -0.8533365 -1.1250207
0001e0 37 f4 d9 3d 94 ba 0f bd cc 78 44 bd 2e cc 39 3e
       0.106422834 -0.035090044 -0.047966763 0.18144295
0001f0 a8 77 5f be da 4e e5 bf e4 1e 23 bf 9d 69 bb bf
       -0.21822989 -1.7914689 -0.6371901 -1.4641606
