experiment_testing/mz-testing/checkpoints/ptbxl/500hz/cnn1d/fold_1/best.pt (torch, 628765 bytes, 26 tensors)

features.0.weight f4 [32, 12, 7]
0.112817764 0.120729126 0.00078024686 0.13459912 0.014564444 0.042081587 -0.050452724 0.08769024
0.11877184 -0.059551097 0.11375853 0.028369797 0.07528512 -0.004417541 0.032905344 -0.037289206
0.06650076 -0.008889507 -0.0821904 0.009349279 -0.0581058 -0.034311045 -0.06574057 0.05540016
-0.104032695 -0.0605415 -0.017258998 -0.03445589 0.027349666 -0.08965272 0.10923377 -0.072982974
0.109751366 0.024862649 -0.044990644 0.06487027 0.01666566 0.09079662 0.013283523 -0.039585166
0.02337928 -0.038669825 0.013497492 0.063079186 0.027666647 -0.08564171 0.023523698 -0.02003316
0.014810331 -0.059417237 -0.10557187 -0.042626224 -0.0859573 0.08597992 0.026216235 0.037661757
0.06501696 0.023067437 0.10741266 -0.058063217 0.025781354 -0.054195497 0.054630462 -0.07269173
-0.004392005 -0.06305681 0.047130357 -0.10978286 -0.11065715 -0.11153247 0.080453366 0.015281267
0.079146735 -0.12186996 -0.14501348 -0.12840226 -0.121380866 0.058557957 0.052402213 0.10261277
-0.045857247 -0.06585871 0.06414527 -0.042947818 0.11730374 0.009148679 0.07815646 -0.07504429
-0.046947483 0.043515522 0.0315679 -0.055143014 0.0478558 0.06743854 -0.06964899 -0.03865312
0.12552497 -0.009389591 -0.071151465 -0.13065179 -0.070094526 0.0396628 0.009108687 -0.046186145
0.05040887 -0.1037509 -0.11260547 -0.06779192 -0.10090112 -0.071015835 0.1111911 0.028392423
0.05940308 -0.0949107 -0.089093246 -0.06928302 -0.02148802 -0.13378328 -0.08683203 -0.10794204
-0.03923495 -0.07274617 -0.025274029 -0.08029739 -0.07137455 -0.05052886 -0.064940125 -0.109641396
0.068967946 -0.04477177 0.069130905 0.0044449037 -0.12394537 0.020430205 -0.07877209 -0.08153921
-0.118288435 -0.13229303 0.006470798 -0.04656336 0.03175944 -0.09495308 0.08065868 -0.07470908
-0.008630173 0.035358567 0.0674924 0.104501 0.12953912 -0.04532405 0.07568275 0.0036089413
0.03343001 -0.050091136 0.095933646 -0.08908045 0.04443202 0.018951729 0.008732298 -0.094979055
0.05009699 0.03073865 0.010375689 -0.11130184 0.01884266 -0.05441993 -0.09883747 0.032666285
-0.0021272865 -0.083297364 -0.07165803 -0.023869937 0.0359285 -0.047721125 -0.07577915 -0.03319118
-0.07748344 0.04157474 0.07911723 -0.11549122 0.009903599 0.038926397 0.020465635 -0.0406535
0.051152788 0.050492667 0.03412776 -0.035499357 -0.0561944 0.0033829836 -0.028441735 -0.04070118
0.06705151 0.09788074 -0.004391568 -0.016502524 -0.014386244 -0.018602835 0.0236531 0.029500958
-0.101220876 -0.028521819 0.11966219 0.04889351 -0.001420402 -0.06423816 -0.07335953 -0.11313088
-0.05640853 0.0110242115 0.07489226 0.051365055 -0.098660536 -0.07088616 -0.025924359 0.09559449
0.007983164 -0.034772333 0.04002233 -0.046020094 -0.074847415 0.07599864 -0.05208319 -0.023470752
-0.14598818 0.037574124 0.048058763 0.0032003494 -0.11407359 -0.14708202 -0.12866 0.0817922
0.053402107 0.09141262 0.051795732 0.016248835 -0.020167539 -0.11154405 -0.097335406 -0.11258009
0.028502537 -0.077012256 -0.052689087 -0.09665582 -0.056882244 -0.07878142 -0.07680984 0.027896283
-0.04493067 0.051612496 -0.05256874 -0.09885593 -0.11557901 -0.1459774 -0.12448111 -0.19829078
00000000: 000d e73d d540 f73d 7b89 4c3a 5ad4 093e
00000010: b59f 6e3c be5d 2c3d 84a7 4ebd f196 b33d
00000020: a73e f33d daeb 73bd 3bfa e83d c767 e83c
00000030: 162f 9a3d 05c1 90bb c1c7 063d 91bc 18bd
00000040: 8d31 883d 4ba5 11bc 7153 a8bd b82d 193c
00000050: 5900 6ebd bd89 0cbd fea2 86bd 47eb 623d
00000060: 180f d5bd 5dfa 77bd be62 8dbc 9f21 0dbd
00000070: 680c e03c d89b b7bd f4b5 df3d 1978 95bd
00000080: 53c5 e03d c1ac cb3c 1c48 38bd b4da 843d
00000090: 6c86 883c 94f3 b93d 22a3 593c 0e24 22bd
000000a0: e785 bf3c 4064 1ebd 9624 5d3c a92f 813d
000000b0: 2aa5 e23c ec64 afbd c5b4 c03c 951c a4bc
000000c0: 08a7 723c 7d5f 73bd 1136 d8bd d698 2ebd
000000d0: 620a b0bd 3e16 b03d 6ec3 d63c 3743 1a3d
000000e0: 9d27 853d ecf7 bc3c 2bfb db3d b2d3 6dbd
000000f0: 6b33 d33c 19fc 5dbd 31c4 5f3d 67df 94bd
00000100: cfea 8fbb ee23 81bd c30b 413d d6d5 e0bd
00000110: 37a0 e2bd 236b e4bd bcc4 a43d 485e 7a3c
00000120: af17 a23d f596 f9bd 6a7e 14be e27b 03be
00000130: 8896 f8bd 78da 6f3d b4a3 563d a526 d23d
00000140: cfd4 3bbd eee0 86bd 985e 833d 0dea 2fbd
00000150: f13c f03d 57e4 153c 7e10 a03d d2b0 99bd
00000160: 014c 40bd 553d 323d 584d 013d a4dd 61bd
00000170: 7104 443d 381d 8a3d 21a4 8ebd bc52 1ebd
00000180: 9e89 003e cdd6 19bc dcb7 91bd 95c9 05be
00000190: b88d 8fbd 7675 223d 9a3c 153c af2d 3dbd
000001a0: 8879 4e3d 5a7b d4bd b29d e6bd 7dd6 8abd
000001b0: 3fa5 cebd c070 91bd 29b8 e33d 3a97 e83c
000001c0: a550 733d 8b60 c2bd 8576 b6bd 42e4 8dbd
000001d0: a507 b0bc 7cfe 08be fed4 b1bd b710 ddbd
000001e0: d4b4 20bd f2fb 94bd 7b0b cfbc f572 a4bd
000001f0: d22c 92bd 5af7 4ebd 54ff 84bd ab8b e0bd
00000200: 113f 8d3d 9a62 37bd 8194 8d3d 8ea6 913b
00000210: 12d7 fdbd 3f5d a73c 4353 a1bd 08fe a6bd
00000220: 3541 f2bd d377 07be fd08 d43b 39b9 3ebd
00000230: 3016 023d c376 c2bd 6130 a53d 1301 99bd
00000240: 9265 0dbc 25d4 103d 7539 8a3d 9f04 d63d
00000250: e7a5 043e b6a5 39bd 8fff 9a3d fd83 6c3b
00000260: e8ed 083d 5d2c 4dbd dc78 c43d d06f b6bd
00000270: 5afe 353d a840 9b3c ea11 0f3c 6184 c2bd
00000280: 8032 4d3d 9fcf fb3c cbfe 293c 38f2 e3bd
00000290: ec5b 9a3c 6fe7 5ebd 4d6b cabd 15cd 053d
000002a0: f269 0bbb cf97 aabd 72c1 92bd e38a c3bc
000002b0: c329 133d 3a77 43bd 1932 9bbd 7af3 07bd
000002c0: a3af 9ebd 464a 2a3d 3708 a23d a986 ecbd
000002d0: b442 223c 4971 1f3d 8ca7 a73c 4984 26bd
000002e0: 9685 513d 66d1 4e3d 8dc9 0b3d c667 11bd
000002f0: 192c 66bd 0cb5 5d3b a4fe e8bc 48b6 26bd
00000300: 4d52 893d b375 c83d 24e7 8fbb 4d30 87bc
00000310: 48b4 6bbc f964 98bc 25c4 c13c feab f13c
00000320: e44c cfbd 97a6 e9bc 7311 f53d 9044 483d
00000330: c82c baba 4c8f 83bd 853d 96bd 2ab1 e7bd
00000340: a10c 67bd e59e 343c 1d61 993d 2a64 523d
00000350: 890e cabd c32c 91bd 525f d4bc 0bc7 c33d
00000360: d1cb 023c 6f6d 0ebd 74ee 233d 917f 3cbd
00000370: 9a49 99bd 2da5 9b3d 2f55 55bd bc45 c0bc
00000380: ed7d 15be 53e7 193d 44d9 443d f4bc 513b
00000390: 6a9f e9bd ab9c 16be 72bf 03be ab82 a73d
000003a0: 2bbc 5a3d 8a36 bb3d c327 543d 471c 853c
000003b0: 6536 a5bc 3571 e4bd c957 c7bd 6490 e6bd
000003c0: 277e e93c 9ab8 9dbd 83d0 57bd 7df3 c5bd
000003d0: 5bfd 68bd 2758 a1bd 7a4e 9dbd bf86 e43c
000003e0: 3909 38bd a067 533d 5252 57bd fa74 cabd
000003f0: b0b4 ecbd 197b 15be f4ef febd bd0c 4bbe

features.0.bias f4 [32]
-0.0043798927 -0.007171464 0.13018784 0.10221456 0.0038401564 -0.051734142 0.09120565 -0.02571413
0.08637293 -0.13258424 -0.044289615 -0.100172 0.12491254 -0.051374536 -0.08887235 -0.011901927
-0.033705175 0.005447902 0.039104573 -0.046473783 0.040422324 -0.11867151 0.040191278 -0.08645896
-0.012491631 0.08767805 0.10324265 0.011005905 0.028760042 0.10689741 0.08994286 0.0005815571
00000000: 3485 8fbb 9afe eabb f64f 053e de55 d13d
00000010: 22ab 7b3b 2ee7 53bd 07ca ba3d 70a6 d2bc
00000020: 4ae4 b03d 2ac4 07be 0769 35bd fa26 cdbd
00000030: 25d2 ff3d 1b6e 52bd b502 b6bd 4d00 43bc
00000040: 700e 0abd 5084 b23b 1e2c 203d 4b5b 3ebd
00000050: e191 253d 0c0a f3bd 9c9f 243d 6511 b1bd
00000060: b3a9 4cbc 8d90 b33d e270 d33d 1d52 343c
00000070: 2e9a eb3c 07ed da3d f633 b83d a373 183a

features.1.weight f4 [32]
0.96579236 0.96328706 1.0292207 1.0206121 0.94253635 1.0261608 0.95184696 1.0815876
1.0629047 0.99123186 1.0102943 1.0112005 1.0033466 0.99473333 0.98877066 0.94122416
0.9595201 0.9693745 0.97857803 1.0188322 1.0501639 1.0084404 1.0068871 0.9547665
0.9867497 1.018649 1.0158274 0.9926209 0.98192805 1.0227292 1.0176964 0.9749033
00000000: 2b3e 773f fb99 763f 81bd 833f 6ba3 823f
00000010: 104a 713f 3d59 833f 3eac 733f 7671 8a3f
00000020: 430d 883f 5fc1 7d3f 5351 813f 056f 813f
00000030: a96d 803f d8a6 7e3f 1320 7d3f 11f4 703f
00000040: 1ca3 753f ed28 783f 1784 7a3f 1869 823f
00000050: c56b 863f 9314 813f ade1 803f 946b 743f
00000060: a19b 7c3f 1763 823f a206 823f 671c 7e3f
00000070: a35f 7b3f cae8 823f e043 823f 4393 793f

features.1.bias f4 [32]
0.03328633 0.059589416 0.04295022 0.008861822 -0.07523411 -0.003936717 -0.075308785 -0.014126439
0.03593686 -0.031596612 0.017492102 -0.013693525 0.05686674 0.0020725606 0.03744107 -0.021426845
0.04115906 -0.08260321 -0.012148322 0.01828958 0.10007021 0.031470656 0.003341872 0.029491542
0.007401035 0.04672679 0.032000892 -0.069974594 -0.033078007 0.1107985 0.05010946 -0.039349336
00000000: 3f57 083d 0814 743d 92ec 2f3d 2d31 113c
00000010: 5714 9abd 93ff 80bb 7e3b 9abd 9472 67bc
00000020: 8732 133d 736b 01bd 994b 8f3c cf5a 60bc
00000030: 19ed 683d ccd3 073b cf5b 193d 5a87 afbc
00000040: 6796 283d df2b a9bd c109 47bc 07d4 953c
00000050: 9cf1 cc3d 60e7 003d 4f03 5b3b 3f98 f13c
00000060: 6284 f23b 9764 3f3d 5e13 033d d74e 8fbd
00000070: ce7c 07bd 53ea e23d 943f 4d3d c52c 21bd

features.1.running_mean f4 [32]
-0.003026954 -0.00724334 0.13023627 0.10216387 0.0035844995 -0.052119758 0.0913616 -0.02583299
0.086416885 -0.13213807 -0.044319153 -0.10039365 0.124877125 -0.051354896 -0.08864947 -0.011763612
-0.033829097 0.005508476 0.03916934 -0.04634679 0.040342886 -0.11977121 0.040505238 -0.08638975
-0.012366401 0.08772876 0.10275395 0.010969591 0.028764648 0.106699295 0.09016268 0.002510287
00000000: dc5f 46bb 8a59 edbb a85c 053e 4b3b d13d
00000010: ece9 6a3b 877b 55bd ca1b bb3d b59f d3bc
00000020: 56fb b03d 344f 07be 0088 35bd 309b cdbd
00000030: 94bf ff3d 8359 52bd da8d b5bd 2abc 40bc
00000040: 6190 0abd 7280 b43b 0870 203d 22d6 3dbd
00000050: 953e 253d 9c4a f5bd d2e8 253d 1ced b0bd
00000060: 729c 4abc 23ab b33d aa70 d23d cdb9 333c
00000070: d7a3 eb3c 2985 da3d 36a7 b83d a183 243b

features.1.running_var f4 [32]
0.78834236 0.46456245 1.1854465 1.0650405 1.5424443 0.32290757 0.93406695 0.6653651
0.9598432 0.59458804 1.5810966 1.8997691 0.34348652 0.22401741 0.67337185 1.3772235
0.87239724 0.5667196 0.53265315 0.16029583 0.42463455 0.68069065 0.17450528 0.6016731
0.504731 0.45204994 1.4072857 1.4145693 0.635025 0.5514795 0.36651286 1.6582814
00000000: ced0 493f 21db ed3e b6bc 973f 3f53 883f
00000010: d16e c53f 2454 a53e 031f 6f3f 5e55 2a3f
00000020: 49b8 753f ec36 183f 6061 ca3f a22b f33f
00000030: 77dd af3e d264 653e 1962 2c3f dc48 b03f
00000040: 6d55 5f3f 8914 113f f55b 083f 9724 243e
00000050: b369 d93e be41 2e3f 83b1 323e 4007 1a3f
00000060: 0d36 013f 1773 e73e f021 b43f 9b10 b53f
00000070: 0091 223f c32d 0d3f 93a7 bb3e 9142 d43f

features.4.weight f4 [64, 32, 5]
-0.05658889 0.038861655 0.076292485 0.008457338 0.06797269 -0.072779045 -0.015818251 -0.112325214
0.013836278 -0.012315873 0.108567365 0.05964396 -0.04499442 -0.005237845 -0.04629243 -0.024734292
0.09989071 0.076785155 0.061020467 -0.0062686354 0.115389705 0.0150640225 0.0033857587 0.040162146
0.013226449 0.04248472 -0.0564665 0.08692495 0.009374035 0.14266142 0.05034963 0.012595973
0.067382224 0.046094384 0.05025661 0.049543224 0.123931296 0.05291925 0.07103938 -0.017693656
0.074506424 0.06427808 -0.07294841 0.057780515 -0.06052391 -0.09328921 -0.09127252 0.01162613
-0.047040243 0.006203709 -0.06801247 -0.010223778 -0.09475867 -0.033339918 0.01746271 0.0038945358
-0.03375787 0.04534381 -0.024274947 -0.034813523 -0.102205455 -0.12090317 0.028985342 -0.028921034
0.046941034 0.0024359212 -0.07640981 0.07184998 0.0003680889 0.035647616 -0.11990562 -0.08507458
-0.06484106 -0.07475953 0.053038586 -0.10410556 0.004687441 0.010816971 0.062257838 0.06569781
0.043651138 0.08171706 0.06789863 -0.057146028 -0.0020178643 -0.081204295 -0.0011769761 -0.01932991
0.08774796 0.035719115 -0.09777259 -0.12682323 -0.09786902 0.012092594 0.0008780647 -0.047780044
0.044998705 -0.037047256 -0.023777232 0.063746296 -0.025179831 -0.06621793 0.038822327 0.09237199
0.017320892 -0.05624229 -0.01428768 -0.0022343106 0.110472314 0.014490764 0.028187893 -0.029314982
-0.03781772 0.11509368 0.059806332 0.0020636958 0.038285956 -0.07203675 -0.05728504 0.05284704
0.0022416895 -0.058553528 0.025014495 0.03290282 0.07128051 -0.1042942 0.022525841 -0.0012606219
-0.0039443625 0.07051952 -0.0035574224 0.062157422 -0.017582161 -0.01055538 -0.028255645 0.080429114
0.028681926 -0.07264723 -0.08102801 -0.055327706 0.0004194964 -0.049521204 0.09190959 0.028858528
-0.011951017 0.07538138 0.061866533 -0.026980586 0.03211705 -0.07858333 -0.01478714 0.057487693
0.067829825 0.090376414 0.07842016 -0.018626897 0.016964044 0.036395058 0.027144035 0.08520569
-0.05624028 -0.058286127 -0.08363394 -0.07768523 -0.06256821 0.12887342 0.07325778 -0.022637477
-0.013364397 0.028146451 0.043216053 0.03028943 0.012162253 0.010453817 0.017274957 0.019648531
0.06900146 0.0684253 0.07488176 -0.0056947893 0.03159326 0.049403463 -0.01782805 0.05624859
0.0027203565 -0.030171406 -0.07048546 0.044401538 0.06433615 0.10821896 -0.003271803 0.028480783
-0.0060164602 -0.06762636 -0.0656757 0.11008434 -0.0017242319 0.08256625 0.04421881 0.042986628
0.08085154 0.04895084 0.027785731 0.028194087 -0.049881317 -0.060328852 -0.041125037 0.018475236
0.04388919 0.06735855 -0.018505028 0.00052337645 -0.047194555 0.04597166 -0.06510911 -0.015242766
0.07462488 0.020995475 -0.036974397 -0.06271064 -0.032868322 0.08693479 -0.051204868 0.09245889
0.08995084 0.008286973 0.00031704886 0.075195014 0.052702066 0.091444165 0.057695974 -0.06754053
0.030903175 0.032245006 -0.043872025 0.02615147 -0.059179474 -0.06822159 -0.0116811115 0.0030710401
-0.016457437 -0.046864603 0.04813029 0.08276478 -0.023143679 -0.03027387 0.0035431392 -0.0732886
-0.07677191 -0.041889593 0.026193485 -0.08758206 -0.03784908 -0.05856102 -0.063578986 0.011267796
00000000: c0c9 67bd 662d 1f3d 3c3f 9c3d a690 0a3c
00000010: 4435 8b3d 2e0d 95bd 4795 81bc c30a e6bd
00000020: 8eb1 623c 84c8 49bc 9158 de3d 3a4d 743d
00000030: 124c 38bd 3aa2 abbb 229d 3dbd 929f cabc
00000040: 8093 cc3d 8941 9d3d 99f0 793d 2069 cdbb
00000050: 7051 ec3d 17cf 763c 9be3 5d3b 1081 243d
00000060: bfb3 583c 7504 2e3d 6b49 67bd b505 b23d
00000070: 8d95 193c d615 123e 6a3b 4e3d 575f 4e3c
00000080: b1ff 893d 77cd 3c3d e0d9 4d3d d6ed 4a3d
00000090: b1cf fd3d dbc1 583d 187d 913d 49f2 90bc
000000a0: d396 983d 3aa4 833d fa65 95bd 43ab 6c3d
000000b0: ebe7 77bd 6a0e bfbd 16ed babd 867b 3e3c
000000c0: 45ad 40bd 7c48 cb3b 1f4a 8bbd a281 27bc
000000d0: d510 c2bd 708f 08bd f50d 8f3c 783b 7f3b
000000e0: b145 0abd 6eba 393d 41dc c6bc a098 0ebd
000000f0: 1851 d1bd 159c f7bd ab72 ed3c ceeb ecbc
00000100: 3e45 403d faa3 1f3b bf7c 9cbd 1526 933d
00000110: 0efc c039 3c03 123d 1491 f5bd 953b aebd
00000120: 64cb 84bd 861b 99bd fd3e 593d 4c35 d5bd
00000130: 1b99 993b aa39 313c 1302 7f3d 938c 863d
00000140: 89cb 323d 465b a73d 700e 8b3d f411 6abd
00000150: 253e 04bb 704e a6bd c444 9aba c259 9ebc
00000160: 34b5 b33d 354e 123d ff3c c8bd f3dd 01be
00000170: 8e6f c8bd 0420 463c ed2d 663a 02b5 43bd
00000180: 9050 383d ddbe 17bd 78c8 c2bc 6b8d 823d
00000190: ef45 cebc 449d 87bd 2904 1f3d 872d bd3d
000001a0: 8be4 8d3c 515e 66bd e016 6abc 836d 12bb
000001b0: 4f3f e23d ab6a 6d3c 4cea e63c f925 f0bc
000001c0: c1e6 1abd 3cb6 eb3d 7cf7 743d 123f 073b
000001d0: bcd1 1c3d 0188 93bd b8a3 6abd 2376 583d
000001e0: 4fe9 123b d3d5 6fbd 33eb cc3c 1bc5 063d
000001f0: 84fb 913d 3398 d5bd 1d88 b83c 743b a5ba
00000200: b63f 81bb 8a6c 903d a523 69bb c898 7e3d
00000210: 7708 90bc 79f0 2cbc 6278 e7bc 05b8 a43d
00000220: 5cf6 ea3c 12c8 94bd 03f2 a5bd 4e9f 62bd
00000230: dbef db39 bfd6 4abd 183b bc3d b868 ec3c
00000240: 33ce 43bc 8e61 9a3d c367 7d3d 6406 ddbc
00000250: 2b8d 033d 4cf0 a0bd c345 72bc 3778 6b3d
00000260: 5dea 8a3d 4517 b93d c09a a03d 6f97 98bc
00000270: 2ef8 8a3c fc12 153d 2b5d de3c 5280 ae3d
00000280: 355c 66bd 6fbd 6ebd 4548 abbd 6f19 9fbd
00000290: c323 80bd 65f7 033e 2d08 963d 3b72 b9bc
000002a0: 58f6 5abc 6393 e63c 5103 313d 8a21 f83c
000002b0: 3044 473c 7d46 2b3c 3684 8d3c f5f5 a03c
000002c0: a350 8d3d 9022 8c3d 9c5b 993d 5b9b babb
000002d0: ef67 013d 495b 4a3d 210c 92bc ec64 663d
000002e0: 0248 323b 062a f7bc ae5a 90bd 63de 353d
000002f0: acc2 833d e7a1 dd3d bf6b 56bb 8850 e93c
00000300: ba25 c5bb b07f 8abd fb80 86bd e673 e13d
00000310: 9fff e1ba 7e18 a93d c81e 353d bf12 303d
00000320: 7e95 a53d ad80 483d e79e e33c 49f7 e63c
00000330: 5a50 4cbd 631b 77bd ba72 28bd 6159 973c
00000340: 27c5 333d 48f3 893d db97 97bc 3333 093a
00000350: 144f 41bd c84c 3c3d ed57 85bd cbbc 79bc
00000360: eed4 983d b4fe ab3c 7772 17bd 706e 80bd
00000370: efa0 06bd de0a b23d 32bc 51bd 165b bd3d
00000380: 2538 b83d 16c6 073c 9439 a639 d8ff 993d
00000390: 1fde 573d 1447 bb3d 9d52 6c3d b052 8abd
000003a0: a828 fd3c 5713 043d 27b3 33bd 9c3b d63c
000003b0: 2d66 72bd c3b7 8bbd 2262 3fbc 8143 493b
000003c0: bfd1 86bc 19f5 3fbd 4424 453d 9580 a93d
000003d0: d097 bdbc e800 f8bc 0334 683b 5518 96bd
000003e0: 973a 9dbd 6c94 2bbd b893 d63c 395e b3bd
000003f0: a307 1bbd aedd 6fbd b335 82bd 909c 383c

features.4.bias f4 [64]
0.06949017 -0.06902401 -0.001626226 -0.05246009 -0.03494063 0.13662663 0.036359075 -0.015136314
-0.0027510887 0.0039570522 0.033974115 0.011765217 -0.07377848 -0.101160154 -0.05924414 -0.06423098
-0.0053333873 0.051819038 0.029350929 0.07298521 0.04899583 0.050138973 -0.030296404 0.028030725
-0.062217627 0.061494976 0.03907446 -0.012689107 -0.03408033 0.058240406 -0.061335906 -0.04534242
-0.03131293 -0.018046485 -0.010469623 -0.048837714 0.056116734 -0.043379202 0.056181107 -0.04442009
0.061629836 0.0143240215 0.003592673 0.039091617 0.025539 -0.07169719 0.04085036 -0.04385663
0.03100781 0.037784513 0.067536615 0.00010216099 -0.03381914 -0.019037118 -0.01861241 -0.0017639399
0.07969854 -0.050766263 0.008054528 -0.0146478545 0.05464772 0.02905319 0.011164982 -0.010720647
00000000: dd50 8e3d 765c 8dbd 1727 d5ba 64e0 56bd
00000010: e81d 0fbd dae7 0b3e 41ed 143d 4dfe 77bc
00000020: 9c4b 34bb 29aa 813b 7128 0b3d e6c2 403c
00000030: 2c19 97bd 0e2d cfbd fca9 72bd 888b 83bd
00000040: b2c3 aebb 3340 543d 5c71 f03c 4579 953d
00000050: daaf 483d 865e 4d3d 2a30 f8bc b1a0 e53c
00000060: e9d7 7ebd 28e2 7b3d 8a0c 203d f9e5 4fbc
00000070: d197 0bbd 7e8d 6e3d 5c3b 7bbd f9b8 39bd
00000080: fd41 00bd 39d6 93bc c888 2bbc 0e0a 48bd
00000090: a9da 653d 64ae 31bd 291e 663d d7f1 35bd
000000a0: 916f 7c3d 4daf 6a3c 0d73 6b3b 881e 203d
000000b0: 2a37 d13c fad5 92bd b552 273d 02a3 33bd
000000c0: 1704 fe3c efc3 1a3d a350 8a3d 443f d638
000000d0: f085 0abd bbf3 9bbc 0e79 98bc 0034 e7ba
000000e0: fd38 a33d 49f0 4fbd 24f7 033c 8efd 6fbc
000000f0: 4ad6 5f3d f500 ee3c 54ed 363c a7a5 2fbc

features.5.weight f4 [64]
1.0119842 0.9426852 1.0146933 0.99929994 1.03147 1.0043226 1.050963 1.0006564
0.9961606 1.0100735 0.988986 1.0393351 1.0659131 1.0521826 0.989321 1.0985001
0.8783281 0.94168764 0.98622847 1.0232353 1.0257812 1.006561 0.9811782 0.89678156
0.9371072 0.98622555 1.0768557 1.01684 1.0257388 1.0862921 1.0265504 0.97553587
0.9870294 1.0116701 0.94385463 0.9503564 0.9511427 0.90922153 1.0274063 0.8644693
0.94249356 0.99841684 1.0477976 1.0208217 1.0227325 0.9818512 0.92113066 1.0064129
0.95950866 0.97019094 1.009393 1.0186315 0.97605354 1.0189667 1.0060501 1.0037637
1.0260007 1.0191327 0.9831119 1.0050278 1.0392071 1.0177506 0.97600865 1.100065
00000000: b388 813f d153 713f 78e1 813f 1fd2 7f3f
00000010: 3507 843f a58d 803f f585 863f 8215 803f
00000020: 6204 7f3f 174a 813f 302e 7d3f ef08 853f
00000030: d76f 883f ebad 863f 2444 7d3f a79b 8c3f
00000040: 1cda 603f 7112 713f 7879 7c3f 60f9 823f
00000050: cc4c 833f fed6 803f 7f2e 7b3f 7a93 653f
00000060: 42e6 6f3f 4779 7c3f 68d6 893f d027 823f
00000070: 694b 833f 9f0b 8b3f 0166 833f b8bc 793f
00000080: f5ad 7c3f 687e 813f 75a0 713f 8f4a 733f
00000090: 177e 733f bec2 683f 0d82 833f dc4d 5d3f
000000a0: 4247 713f 3f98 7f3f 3b1e 863f 49aa 823f
000000b0: e6e8 823f 9a5a 7b3f 38cf 6b3f 23d2 803f
000000c0: 5ca2 753f 6f5e 783f ca33 813f 8462 823f
000000d0: a5de 793f 806d 823f 40c6 803f 547b 803f
000000e0: fe53 833f f172 823f 39ad 7b3f c0a4 803f
000000f0: bd04 853f a745 823f b4db 793f eece 8c3f

features.5.bias f4 [64]
0.023435036 -0.04045791 0.07067201 0.02490653 0.009523399 -0.012613959 0.05692062 -0.021703372
0.016542315 -0.037105165 -0.045351677 0.051733352 0.046002835 0.039641976 -0.06528758 -0.024903921
-0.04864952 -0.037401304 0.03348503 -0.050618965 0.042133164 -0.0110159675 -0.082106285 -0.055947676
-0.05515456 -0.033561293 0.03087295 0.053353846 0.0067018634 0.17069583 -0.0015265644 -0.019838938
0.022343853 -0.040447444 -0.11283974 0.015743963 -0.07061408 -0.049258 0.026611332 -0.030238586
0.049518447 -0.034446612 -0.031196274 -0.07943095 -0.055598784 0.08451483 -0.03638305 -0.0005540035
0.00020754676 0.011082422 0.036682706 -0.00034401155 -0.09662962 -0.03418937 -0.044598274 -0.026390046
0.104676165 0.012590158 -0.01661252 0.03382784 0.028373197 -0.004868166 -0.0017898213 0.12243914
00000000: d5fa bf3c 32b7 25bd 7dbc 903d c708 cc3c
00000010: 0808 1c3c c7aa 4ebc 9925 693d 45cb b1bc
00000020: c083 873c 96fb 17bd aec2 39bd 5ae6 533d
00000030: 786d 3c3d a05f 223d 7fb5 85bd 4f03 ccbc
00000040: b844 47bd 1c32 19bd 9927 093d d555 4fbd
00000050: d393 2c3d 517c 34bc 5727 a8bd 6429 65bd
00000060: bfe9 61bd 9177 09bd 45e9 fc3c 9089 5a3d
00000070: 4e9b db3b e3ca 2e3e 0017 c8ba 4585 a2bc
00000080: 750a b73c 38ac 25bd 8618 e7bd 7cf9 803c
00000090: 1d9e 90bd c2c2 49bd 0200 da3c e9b6 f7bc
000000a0: dbd3 4a3d e417 0dbd 548f ffbc b2ac a2bd
000000b0: 8dbb 63bd 1c16 ad3d 6506 15bd 8c3a 11ba
000000c0: e9a0 5939 0c93 353c 9b40 163d 735c b4b9
000000d0: c0e5 c5bd 270a 0cbd aeac 36bd f02f d8bc
000000e0: 7560 d63d f346 4e3c fb16 88bc 108f 0a3d
000000f0: e86e e83c 2385 9fbb 7098 eaba 5fc1 fa3d

features.5.running_mean f4 [64]
0.34979764 0.23768128 -0.67099226 -1.1465507 -0.7804658 -0.239085 -0.31118247 0.21961144
-0.50321925 -0.5648031 -0.9698179 -0.70678663 -0.59907913 -0.00055442855 0.4564855 0.18340015
-0.4132173 0.65688205 -0.04878294 0.20256501 -0.5303977 -0.9168047 -0.26181546 -0.3523406
-0.52199423 -0.34865755 -0.2525214 -0.5676496 -0.22098894 -0.99980885 -0.46775523 -0.9374899
-0.68651783 -0.53432393 0.48380685 -0.3544628 0.39326927 -0.16331612 -0.25807953 -0.582316
-0.6840509 -0.24140795 -0.124880776 0.036649026 -0.3252965 -1.2774619 -0.8159905 -0.55085045
-0.34921846 -1.0099715 -0.6082025 -0.32076493 0.6964392 -0.5830156 0.12100112 0.07560667
-0.69544667 -0.33183196 -0.62950516 -0.8568844 0.4671823 -0.6316168 -0.3052106 -0.85073924
00000000: ad18 b33e b962 733e 26c6 2bbf 2cc2 92bf
00000010: 9bcc 47bf b3d2 74be 4f53 9fbe d2e1 603e
00000020: fad2 00bf f096 10bf fc45 78bf f8ef 34bf
00000030: 405d 19bf 1257 11ba 78b8 e93e 40cd 3b3e
00000040: 3891 d3be 6c29 283f 9fd0 47bd 346d 4f3e
00000050: 25c8 07bf b6b3 6abf ad0c 86be fd65 b4be
00000060: 6aa1 05bf 3e83 b2be 7c4a 81be 7c51 11bf
00000070: ed4a 62be 79f3 7fbf 9d7d efbe 57ff 6fbf
00000080: a2bf 2fbf 74c9 08bf 88b5 f73e 267c b5be
00000090: 975a c93e 573c 27be 0023 84be a912 15bf
000000a0: f61d 2fbf a533 77be 7ec1 ffbd 4a1d 163d
000000b0: 438d a6be df83 a3bf c1e4 50bf 8904 0dbf
000000c0: c3cc b2be bf46 81bf 29b3 1bbf 4d3b a4be
000000d0: d749 323f 8340 15bf 6fcf f73d abd7 9a3d
000000e0: cb08 32bf e1e5 a9be 4027 21bf c75c 5bbf
000000f0: 8532 ef3e a3b1 21bf 9044 9cbe 0cca 59bf

features.5.running_var f4 [64]
0.5482087 0.58562225 0.93763286 1.2214516 2.04789 1.2234555 0.36598447 0.3042564
0.903396 0.50598365 1.0369853 0.46647942 0.5406502 0.16337454 0.67927337 0.307688
0.90360224 1.1509503 0.50377715 0.3271324 1.3641173 0.7316822 0.6013666 0.49286133
0.7377329 0.65452486 0.5617668 0.9594525 0.37813452 1.0611703 1.182445 1.7232397
1.2511401 0.45127022 0.7150005 0.76628006 0.575082 0.5114622 0.3055019 0.705925
2.3441432 0.4063776 0.44654533 0.23414785 0.54226476 1.4290015 1.1357787 1.8706908
2.037785 1.0451672 0.3749089 0.29082978 0.4529542 0.47811767 0.48077685 0.2829215
0.5812327 0.43159708 1.596615 1.8234295 0.5943923 0.49984974 0.5541729 0.76766
00000000: 6857 0c3f 57eb 153f b508 703f 8758 9c3f
00000010: a110 0340 319a 9c3f 5162 bb3e 7fc7 9b3e
00000020: f644 673f 2588 013f efbb 843f 64d6 ee3e
00000030: 0d68 0a3f a84b 273e dce4 2d3f 4889 9d3e
00000040: 7a52 673f 5752 933f 8af7 003f e67d a73e
00000050: 659b ae3f 864f 3b3f 29f3 193f 5258 fc3e
00000060: 10dc 3c3f f18e 273f f3cf 0f3f ae9e 753f
00000070: d99a c13e 6ed4 873f 5c5a 973f 1e93 dc3f
00000080: 5c25 a03f e40c e73e 460a 373f ee2a 443f
00000090: 9338 133f 30ef 023f bf6a 9c3e 80b7 343f
000000a0: 7106 1640 ba10 d03e 97a1 e43e 74c4 6f3e
000000b0: ddd1 0a3f 85e9 b63f 3261 913f cc72 ef3f
000000c0: 126b 0240 0ac8 853f 0ff4 bf3e a4e7 943e
000000d0: 9de9 e73e d7cb f43e 6228 f63e 16db 903e
000000e0: abcb 143f 4bfa dc3e e15d cc3f 2366 e93f
000000f0: 182a 183f 4eec ff3e 46de 0d3f 5e85 443f

features.8.weight f4 [128, 64, 5]
0.02001844 0.039270613 0.029095463 -0.0085002035 -0.008268943 0.084935345 0.030446809 -0.01143822
-0.010184814 0.0064484435 -0.006130401 0.05654661 -0.027815187 -0.0022484858 0.048504658 0.06137868
0.0647214 0.026982311 -0.038532764 -0.000976245 0.01909144 0.00069494767 0.039773446 0.00410043
0.037202716 0.0009055599 0.011443705 0.03623454 0.00015185881 0.015151327 0.09822675 0.03251211
0.043594066 -0.028341524 -0.009631496 0.074265555 0.078755364 0.0117226755 0.019168906 -0.012617577
-0.016611023 0.03329385 0.00544135 0.025971444 0.016320392 0.032527838 -0.054334283 -0.0154456105
0.012670026 0.06994237 -0.100547396 -0.0243874 0.028678335 0.074177176 0.031613663 -0.10247635
-0.10198742 -0.023006484 -0.055360183 -0.046254262 -0.050117355 -0.0686601 0.07142823 0.111741364
0.09013975 0.01868002 -0.051678803 -0.012713665 -0.031736907 -0.039524693 0.039653078 0.017755987
0.05404122 -0.008260993 -0.021931153 0.029323885 0.025767013 -0.020844491 0.024949986 0.044803787
0.06154447 -0.0061906064 -0.020804299 -0.0116141755 0.05102 0.044801712 0.024516296 -0.023390464
0.05978478 0.061850853 0.06680879 0.027006397 0.0063113724 0.01733068 0.0014618116 0.043208633
0.0068166465 0.050378717 0.04626398 0.053331986 -0.09434823 -0.04077594 0.050555322 0.0344808
0.08992363 -0.010590693 -0.037183437 0.0061292467 -0.025182337 0.017102955 0.024552716 0.07730724
0.08808437 0.03553382 0.077734634 0.00013596249 0.033306014 0.018750072 -0.0068169096 0.027748888
-0.051626805 -0.013689974 0.007120457 -0.055603594 0.043568656 0.008454097 0.032201204 -0.019484181
0.045488644 0.0698788 -0.0073099155 -0.0016026264 0.063540764 0.09089151 0.07376498 0.01745135
0.025574178 -2.715451e-05 -0.052039105 0.064672075 0.022452023 0.040913463 -0.010734116 0.032339174
0.0042435355 -0.046233956 -0.037727628 0.05912384 0.0014502229 -0.04789601 0.080609694 0.054609757
0.08908278 0.061867084 -0.015023696 -0.0568859 -0.032240074 -0.0054866346 -0.026871614 0.04528691
0.0029446569 0.06312297 0.06136884 0.047208235 0.06949835 0.009536117 0.009454823 0.048358187
0.0026377228 0.07800252 0.009951673 0.050966617 0.051724985 0.09463466 0.09746731 -0.025912782
0.019445991 0.0722305 0.03302141 0.038828615 0.039210986 0.0023732325 0.04594937 -0.007874192
0.0992681 0.0058752163 0.051064067 -0.026810104 -0.0402002 0.021502648 -0.031858765 -0.030276174
0.04226533 -0.0045865555 0.085191846 -0.04629739 0.0057359217 -0.038505662 0.00709293 0.042094894
-0.03224585 0.0030271865 -0.015859278 -0.00025549572 -0.013101552 -0.003976366 -0.02305208 0.024131283
-0.038081538 -0.0141242435 -0.039874062 -0.02014383 0.015289979 0.025022822 0.06471058 -0.009601529
0.0509353 -0.034481715 -0.062376793 0.04154493 -0.027984785 0.0059002773 -0.005130461 0.002477545
0.03340486 -0.11015164 0.044709492 -0.022506582 0.050167017 -0.02347537 -0.038545948 -0.004800108
-0.012361915 -0.013877492 -0.05013326 0.03422572 0.060465816 0.035566833 0.014963822 0.0008055617
0.06747395 0.0036970058 0.00807026 0.02764036 0.008846686 0.055105615 0.0298366 0.05654151
-0.025548313 -0.06338407 -0.050008163 -0.020174393 0.02815612 -0.03642755 -0.033192996 -0.044431426
00000000: b6fd a33c 39da 203d 9c59 ee3c 7044 0bbc
00000010: 767a 07bc 95f2 ad3d 966b f93c 5f67 3bbc
00000020: 35de 26bc 774d d33b 88e1 c8bb 6b9d 673d
00000030: addc e3bc 555b 13bb d2ac 463d 3668 7b3d
00000040: a78c 843d 020a dd3c 88d4 1dbd b1ea 7fba
00000050: a765 9c3c 262d 363a 7be9 223d e65c 863b
00000060: e061 183d 1963 6d3a 617e 3b3c ab6a 143d
00000070: 4a3c 1f39 453d 783c 1b2b c93d 6b2b 053d
00000080: b18f 323d 7c2c e8bc 6ccd 1dbc 8a18 983d
00000090: 7e4a a13d 7710 403c 1c08 9d3c f4b9 4ebc
000000a0: d713 88bc 225f 083d 5a4d b23b 11c2 d43c
000000b0: 58b2 853c e93b 053d a08d 5ebd 960f 7dbc
000000c0: f195 4f3c f23d 8f3d cbeb cdbd 16c8 c7bc
000000d0: d4ee ea3c 34ea 973d 547d 013d 1fdf d1bd
000000e0: c8de d0bd 1878 bcbc 5cc1 62bd 1c75 3dbd
000000f0: db47 4dbd ab9d 8cbd f748 923d a8d8 e43d
00000100: 309b b83d d706 993c 27ad 53bd fa4c 50bc
00000110: 8ffe 01bd a5e4 21bd 446b 223d 0175 913c
00000120: 545a 5d3d 1e59 07bc f6a8 b3bc a538 f03c
00000130: 5815 d33c 11c2 aabc ea63 cc3c 2d84 373d
00000140: 0e16 7c3d 92da cabb c76d aabc 6249 3ebc
00000150: 59fa 503d 0082 373d 66d6 c83c 5c9d bfbc
00000160: e3e0 743d 5257 7d3d 0cd3 883d 853c dd3c
00000170: a1cf ce3b 12f9 8d3c 429a bf3a 89fb 303d
00000180: 2d5e df3b ea59 4e3d 4d7f 3d3d a472 5a3d
00000190: a539 c1bd ac04 27bd 1913 4f3d bd3b 0d3d
000001a0: e129 b83d 9684 2dbc a94d 18bd d9d7 c83b
000001b0: 304b cebc 7f1b 8c3c c722 c93c 4253 9e3d
000001c0: 9465 b43d e98b 113d 5633 9f3d 2791 0e39
000001d0: e36b 083d c099 993c 6260 dfbb a351 e33c
000001e0: a176 53bd ea4b 60bc b952 e93b 98c0 63bd
000001f0: 0c75 323d 0e83 0a3c 69e5 033d 4a9d 9fbc
00000200: 4d52 3a3d 9e1c 8f3d 0488 efbb 380f d2ba
00000210: a921 823d 5425 ba3d 1812 973d 22f6 8e3c
00000220: f080 d13c dec9 e3b7 f526 55bd cb72 843d
00000230: 4eed b73c e094 273d 25de 2fbc 1576 043d
00000240: 5b0d 8b3b d15f 3dbd 4988 1abd d72b 723d
00000250: 6815 be3a 9b2e 44bd b216 a53d 7bae 5f3d
00000260: 0871 b63d 5768 7d3d f325 76bc 3101 69bd
00000270: 2b0e 04bd 3ac9 b3bb dc21 dcbc c47e 393d
00000280: 25fb 403b 9e46 813d e55d 7b3d 6c5d 413d
00000290: 2755 8e3d 603d 1c3c 67e8 1a3c 3c13 463d
000002a0: a5dd 2c3b c9bf 9f3d 580c 233c 5fc2 503d
000002b0: 94dd 533d d1cf c13d f19c c73d 0b47 d4bc
000002c0: 334d 9f3c 96ed 933d 7541 073d c10a 1f3d
000002d0: b39b 203d 3c88 1b3b 6835 3c3d c102 01bc
000002e0: 134d cb3d e384 c03b 8e28 513d dda0 dbbc
000002f0: f7a8 24bd 5226 b03c 567e 02bd bd05 f8bc
00000300: 691e 2d3d d14a 96bb 1079 ae3d 55a2 3dbd
00000310: 66f4 bb3b 1db8 1dbd cf6b e83b b26b 2c3d
00000320: 3914 04bd c363 463b 51eb 81bc 0ef4 85b9
00000330: e4a7 56bc 2d4c 82bb b7d7 bcbc f8ae c53c
00000340: 63fb 1bbd 5f69 67bc fc52 23bd ac04 a5bc
00000350: d282 7a3c a9fc cc3c fb86 843d bb4f 1dbc
00000360: 88a1 503d b33c 0dbd cf7e 7fbd 042b 2a3d
00000370: 5940 e5bc 1d57 c13b 6d1d a8bb 4f5e 223b
00000380: 89d3 083d 2f97 e1bd 4d21 373d b95f b8bc
00000390: ee7b 4d3d 6b4f c0bc 5be2 1dbd 394a 9dbb
000003a0: a189 4abc 6c5e 63bc 8958 4dbd 4530 0c3d
000003b0: 01ab 773d 87ae 113d d22a 753c 552c 533a
000003c0: c82f 8a3d 7749 723b 2039 043c 096e e23c
000003d0: b1f1 103c 6db6 613d e36b f43c 1298 673d
000003e0: b24a d1bc 82cf 81bd 5cd5 4cbd c544 a5bc
000003f0: aaa7 e63c 0e35 15bd 61f5 07bd bafd 35bd

features.8.bias f4 [128]
0.0068658786 0.09527906 -0.019788213 0.055657838 -0.0040933555 0.05544044 0.010478617 -0.032446213
0.03566846 0.015946973 0.115139626 0.03532766 0.014619894 -0.011294276 0.023624511 0.003348133
-0.02186854 -0.002604689 0.01690309 -0.0017699248 -0.05215261 -0.06257262 -0.035535995 -0.055027746
-0.06086991 0.0029539492 0.054230582 0.026631137 0.05004098 -0.10787234 -0.0034588198 0.0056933817
-0.0102656055 -0.004060144 0.055298995 0.009505781 -0.030899208 -0.055403467 0.038741644 -0.0410232
0.028845517 -0.02627947 0.059904188 0.06005132 -0.04100798 -0.0102254255 -0.036173385 -0.05215786
0.06118088 -0.008619928 -0.046839967 0.06445422 -0.040836766 -0.061871134 0.044575997 0.0015472426
0.05860168 0.03378082 -0.011009786 0.019397547 -0.04420106 0.07812869 -0.08009 0.032334942
0.07002547 0.04338962 0.009981281 -0.010568763 -0.054440543 0.05812731 -0.056653496 -0.0068221497
0.027172115 0.004193253 0.00064863387 -0.08504514 -0.031985097 0.027586432 -0.056433972 0.0003007265
-0.0018544889 -0.07152481 -0.0147529105 -0.010866083 0.0065572807 -0.040316004 -0.06648004 0.019835573
-0.085995026 0.03434074 -0.042400267 0.01979955 0.06667435 0.08115189 0.015129046 -0.028342744
0.048730228 0.031067012 -0.023141913 -0.007391751 -0.001450918 5.340018e-05 0.01880078 0.009467969
0.030675814 0.009301316 -0.09581234 -0.011551285 0.024587309 0.042177707 0.019300107 0.047086302
-0.03062193 -0.05058953 0.010753312 0.0017680071 -0.017229363 0.035075434 -0.009023544 -0.029828554
0.015316592 0.051522974 -0.02733211 -0.027729273 0.030946033 -0.019446557 -0.031128338 -0.02777347
00000000: 2afb e03b ab21 c33d e41a a2bc 79f9 633d
00000010: 8e21 86bb 8415 633d 81ae 2b3c 52e6 04bd
00000020: 1719 123d 3aa3 823c 53ce eb3d bdb3 103d
00000030: 4888 6f3c a10b 39bc 3188 c13c 5a6c 5b3b
00000040: a725 b3bc 6eb3 2abb 5978 8a3c d2fc e7ba
00000050: fa9d 55bd 1326 80bd 318e 11bd c664 61bd
00000060: ba52 79bd 0b97 413b e320 5e3d 8b29 da3c
00000070: c5f7 4c3d 2cec dcbd 5ead 62bb 8c8f ba3b
00000080: 1231 28bc f50a 85bb 3381 623d 23be 1b3c
00000090: 5620 fdbc bfee 62bd 8faf 1e3d f107 28bd
000000a0: 6f4d ec3c 0b48 d7bc 185e 753d 5ff8 753d
000000b0: fcf7 27bd 8b88 27bc 8b2a 14bd 7ba3 55bd
000000c0: cd98 7a3d 993a 0dbc 44db 3fbd 9300 843d
000000d0: 7444 27bd 966c 7dbd 5295 363d d9cc ca3a
000000e0: 5108 703d c25d 0a3d 6462 34bc 9be7 9e3c
000000f0: 2c0c 35bd ef01 a03d 3a06 a4bd a571 043d
00000100: 8369 8f3d 50b9 313d 8788 233c 9b28 2dbc
00000110: 0cfd 5ebd e716 6e3d 7f0d 68bd 578c dfbb
00000120: 0e98 de3c 8e67 893b 1509 2a3a 252c aebd
00000130: ce02 03bd f1fc e13c 4f27 67bd d4aa 9d39
00000140: 5212 f3ba 997b 92bd 31b6 71bc a807 32bc
00000150: 75de d63b 6522 25bd b026 88bd 367e a23c
00000160: 291e b0bd e0a8 0c3d e7ab 2dbd aa32 a23c
00000170: 908c 883d f632 a63d d1df 773c 0b2f e8bc
00000180: 5999 473d 3f80 fe3c 1c94 bdbc 8036 f2bb
00000190: bb2c beba 02fa 5f38 1804 9a3c 8a1f 1b3c
000001a0: d84b fb3c 8c64 183c 4339 c4bd 9a41 3dbc
000001b0: 536b c93c 88c2 2c3d 421b 9e3c 91dd 403d
000001c0: d7da fabc f836 4fbd a92e 303c 79bc e73a
000001d0: 9824 8dbc 42ab 0f3d 7dd7 13bc 035b f4bc
000001e0: 71f2 7a3c c109 533d 97e7 dfbc 8028 e3bc
000001f0: 8982 fd3c 634e 9fbc db00 ffbc 3085 e3bc

features.9.weight f4 [128]
0.93281233 1.0557767 1.0109543 1.066941 0.9943082 0.97986 0.9696599 1.0653344
0.93588215 0.94584596 1.0009652 0.9966206 0.94833595 1.0261807 1.01982 0.9102058
0.91678464 0.96738654 0.9934425 0.89953387 1.0029604 0.9742892 0.93185526 1.0492405
1.0352634 0.9650724 0.9285456 0.96811384 0.85706025 0.9836281 0.9458235 0.9423063
1.1409922 0.9745976 1.0248333 0.9455338 0.87198883 0.8498885 0.9462904 0.8546658
1.0574017 1.032425 1.0385506 1.0024635 1.0612823 1.0439291 1.0030831 0.8988748
0.97131354 0.9355365 0.96769804 0.98422533 0.9754519 0.97691494 0.93483263 0.9929535
0.9461987 1.0054803 1.0323311 1.0175774 0.8906068 0.9973212 1.0271096 0.87592864
0.9155718 1.0413176 0.89856195 0.9701613 1.0442886 0.9425852 1.0062232 0.95448726
0.9387502 0.9866645 0.892411 1.0178077 1.0124875 0.8739064 0.9869712 1.069442
0.9633812 0.9933933 0.97024596 1.006483 0.98868096 0.86959004 0.93971014 1.0161955
0.98898214 1.0040399 0.99849004 0.9886718 0.8669839 0.95695734 0.96783185 0.9975619
0.9623052 0.9264732 0.9890958 0.9436711 0.98762506 0.92359245 1.0372785 0.9949487
0.92215407 1.0099149 0.8966869 1.0274104 1.0236634 0.99389404 0.968852 1.0572582
0.8895056 0.83291525 0.94315225 1.0065442 0.956084 1.0385118 0.9694816 1.031449
0.8513511 1.0086203 1.0073056 1.0761654 0.86952347 0.9325501 0.9448217 0.9931064
00000000: cacc 6e3f b123 873f f366 813f 8691 883f
00000010: fb8a 7e3f 1bd8 7a3f a23b 783f e15c 883f
00000020: f995 6f3f f622 723f a11f 803f 8722 7f3f
00000030: 25c6 723f e459 833f 7689 823f 3f03 693f
00000040: 66b2 6a3f a5a6 773f 3f52 7e3f da47 663f
00000050: 0261 803f 046b 793f 118e 6e3f 834d 863f
00000060: 8383 843f fc0e 773f 2ab5 6d3f 4fd6 773f
00000070: 4d68 5b3f 0dcf 7b3f 7d21 723f fc3a 713f
00000080: 080c 923f 3a7f 793f bd2d 833f 810e 723f
00000090: a93a 5f3f 4b92 593f 1640 723f 61cb 5a3f
000000a0: f058 873f 8126 843f 3aef 843f b950 803f
000000b0: 19d8 873f 789f 853f 0765 803f a91c 663f
000000c0: 01a8 783f 527f 6f3f 0fbb 773f 31f6 7b3f
000000d0: 37b7 793f 1917 7a3f 3151 6f3f 3332 7e3f
000000e0: 143a 723f 94b3 803f 6d23 843f fa3f 823f
000000f0: cffe 633f 7150 7f3f 5478 833f dc3c 603f
00000100: ea62 6a3f e549 853f 2808 663f 7e5c 783f
00000110: 40ab 853f 434d 713f eccb 803f 4759 743f
00000120: ef51 703f 0b96 7c3f 0c75 643f 8647 823f
00000130: 3199 813f 54b8 5f3f 25aa 7c3f 7ae3 883f
00000140: 26a0 763f 064f 7e3f 0a62 783f 6fd4 803f
00000150: 321a 7d3f 749d 5e3f d890 703f b212 823f
00000160: ef2d 7d3f 6184 803f 0b9d 7f3f 9819 7d3f
00000170: a8f2 5d3f 28fb 743f d4c3 773f 3760 7f3f
00000180: a259 763f 592d 6d3f 6235 7d3f 6e94 713f
00000190: ffd4 7c3f 8e70 6c3f 8bc5 843f f5b4 7e3f
000001a0: 4a12 6c3f e444 813f 468d 653f 2f82 833f
000001b0: 6707 833f d76f 7e3f af06 783f 3d54 873f
000001c0: a4b6 633f ef39 553f 6d72 713f 71d6 803f
000001d0: ecc1 743f f4ed 843f f22f 783f 8506 843f
000001e0: 25f2 593f 781a 813f 64ef 803f cabf 893f
000001f0: 1799 5e3f 9abb 6e3f d6df 713f 393c 7e3f

features.9.bias f4 [128]
-0.19778982 -0.097833656 -0.08474449 -0.16579533 -0.08996525 -0.016939124 -0.03954687 -0.051326223
-0.0909007 -0.15658773 -0.078167275 -0.12306626 -0.0762177 -0.08824602 -0.0477347 -0.11516708
-0.11308375 -0.04705125 -0.030485155 -0.060591895 -0.08615833 -0.11495897 -0.14711048 -0.23576188
-0.023631062 -0.067490734 -0.099090144 -0.043301445 -0.051846847 -0.06623684 -0.1485937 -0.07027455
-0.1675956 -0.124754965 -0.035619147 -0.14019918 -0.122696795 -0.093438186 -0.092657074 -0.15071146
-0.17396265 -0.077507235 -0.20623516 -0.069010004 -0.045135356 -0.017461393 -0.2436316 -0.27119154
-0.04977601 -0.087820426 -0.1212115 -0.28411394 -0.08105732 -0.052839108 -0.058991738 -0.13638191
-0.107048094 -0.10432103 -0.08136521 -0.0383789 -0.12824246 -0.072890274 -0.087118804 -0.111775845
-0.08667166 -0.028242758 -0.093048625 -0.074357904 -0.12152444 -0.16146466 -0.1744722 0.013346931
-0.1588315 -0.10037876 -0.2586415 -0.022785794 -0.019390542 -0.09466675 -0.08694605 -0.05524777
-0.034401905 -0.07243961 -0.121404335 -0.22807497 -0.163769 -0.11689999 -0.095920734 -0.14343323
-0.18524456 -0.13027507 -0.06726613 -0.08190858 -0.14700744 -0.13115275 -0.05843486 -0.18571419
-0.08741953 -0.066616796 -0.13585344 -0.11797244 -0.2042343 -0.07410618 -0.11520423 -0.1514009
-0.060712684 -0.17600204 -0.115296565 -0.1275052 -0.023842098 -0.08714226 -0.123614475 -0.15127373
-0.12118925 -0.18845478 -0.10002121 -0.09629987 -0.10281866 -0.11545544 -0.18156126 -0.14016911
-0.16269003 -0.13082588 -0.09304747 -0.08184627 -0.07775611 -0.14802046 -0.17066701 -0.14731358
00000000: 6a89 4abe 035d c8bd 858e adbd 40c6 29be
00000010: b33f b8bd ebc3 8abc e6fb 21bd 723b 52bd
00000020: 252a babd 8958 20be 2a16 a0bd 2a0a fcbd
00000030: 0718 9cbd 54ba b4bd 7685 43bd b8dc ebbd
00000040: 7498 e7bd d0b8 40bd 01bc f9bc 352f 78bd
00000050: c773 b0bd 9c6f ebbd 21a4 16be 906b 71be
00000060: ee95 c1bc 9538 8abd c6ef cabd db5c 31bd
00000070: 5c5d 54bd 2ea7 87bd f228 18be 1aec 8fbd
00000080: 2e9e 2bbe 887f ffbd 62e5 11bd 6090 0fbe
00000090: 7548 fbbd 855c bfbd fec2 bdbd 1b54 1abe
000000a0: 4423 32be 1dbc 9ebd 4f2f 53be 1e55 8dbd
000000b0: dadf 38bd 320b 8fbc 907a 79be 9ed9 8abe
000000c0: eee1 4bbd 32db b3bd bc3d f8bd 6277 91be
000000d0: 6101 a6bd d26d 58bd 52a1 71bd b3a7 0bbe
000000e0: 083c dbbd 44a6 d5bd cea2 a6bd 3233 1dbd
000000f0: fe51 03be 7f47 95bd 586b b2bd bcea e4bd
00000100: e980 b1bd 5b5d e7bc 4790 bebd f548 98bd
00000110: cee1 f8bd fe56 25be d7a8 32be 16ad 5a3c
00000120: baa4 22be 6193 cdbd a96c 84be 46a9 babc
00000130: ead8 9ebc a4e0 c1bd c510 b2bd 7c4b 62bd
00000140: 03e9 0cbd 385b 94bd d6a2 f8bd 7c8c 69be
00000150: 10b3 27be 4369 efbd 1772 c4bd 29e0 12be
00000160: c0b0 3dbe d466 05be d3c2 89bd b0bf a7bd
00000170: 1e89 16be e84c 06be 6459 6fbd dc2b 3ebe
00000180: 0309 b3bd 636e 88bd 2a1d 0bbe 899b f1bd
00000190: cc22 51be fbc4 97bd 32f0 ebbd d608 1bbe
000001a0: ddad 78bd e139 34be 9b20 ecbd b990 02be
000001b0: 8150 c3bc a477 b2bd 9629 fdbd 80e7 1abe
000001c0: 1232 f8bd 4afa 40be ecd7 ccbd de38 c5bd
000001d0: 9792 d2bd e773 ecbd 32eb 39be 7e88 0fbe
000001e0: 3798 26be 38f7 05be ac8f bebd 049f a7bd
000001f0: 983e 9fbd ad92 17be 55c3 2ebe 5fd9 16be

features.9.running_mean f4 [128]
1.0947529 -0.59009045 -0.15750168 -0.122847654 -0.2899694 -0.68776083 -0.9675802 -0.7886275
0.15634114 0.98063964 -0.22895768 -0.16398287 0.08768926 -0.9756072 -0.85864604 -0.78482765
-0.4860551 -1.3372074 -0.30517662 -0.9022771 -1.2776545 0.26538658 -1.180452 1.0013745
-0.77502745 -0.136072 -0.5616809 0.20020165 0.5059921 -0.34034383 0.4596586 -0.7427088
-0.46023995 -1.1068182 -0.5804551 0.4020977 -0.48565453 0.5527126 -0.83175755 -0.6842687
-0.1716411 -0.6616406 1.5305587 -1.0054241 -0.45305303 -1.6308135 1.0950146 -0.60097605
-1.0851135 -1.1929724 -1.0994914 0.6395495 -0.011264102 -1.1229988 -1.3959153 -0.4165401
-0.5056064 -1.3285543 -1.2533991 -0.57109 -0.41415033 0.04715936 -0.33393985 -0.15172987
-0.13445303 -1.1713014 -1.0591917 -0.9786664 -0.47452542 -1.3532487 -0.34560958 -1.4237282
-0.23623557 0.37236091 1.7322508 -1.7019405 -1.7471491 -0.17684709 -0.7925644 -1.0444472
0.07111503 -1.4681419 0.33369628 -0.38507745 0.07843225 -0.48624796 0.16420399 -0.084422976
0.030934574 0.15851551 -0.973431 -1.64705 -1.3622259 0.29221395 -1.1949362 -0.31529725
0.43104976 -0.31121936 -0.87168527 -0.21449363 1.2643659 -1.2917068 -0.5331658 -0.49731904
-0.43046877 0.011400289 -1.0318854 -0.4782782 -1.7539183 -0.8052107 -1.382961 0.09781684
-1.0560861 -0.9388715 -1.1103635 -0.475015 -0.27501053 -0.3594732 0.59119546 0.018559938
-0.39832726 -0.19119297 -0.30720297 -0.886117 0.5347839 -0.54323655 -0.76811385 -0.13147682
00000000: dd20 8c3f 2b10 17bf 1f48 21be 8d97 fbbd
00000010: df76 94be 1811 30bf 56b3 77bf 7ee3 49bf
00000020: e417 203e 330b 7b3f e273 6abe 20eb 27be
00000030: 6d96 b33d 65c1 79bf 3ad0 5bbf 77ea 48bf
00000040: 37dc f8be 9d29 abbf 1c40 9cbe a2fb 66bf
00000050: 2f8a a3bf c0e0 873e 0d19 97bf 0a2d 803f
00000060: 3368 46bf 7556 0bbe 52ca 0fbf a901 4d3e
00000070: b388 013f 8c41 aebe 5f58 eb3e 2a22 3ebf
00000080: 92a4 ebbe 38ac 8dbf b598 14bf c0df cd3e
00000090: b6a7 f8be 937e 0d3f 10ee 54bf 3c2c 2fbf
000000a0: afc2 2fbe 4761 29bf 59e9 c33f bdb1 80bf
000000b0: 91f6 e7be 7fbe d0bf 7029 8c3f 91d9 19bf
000000c0: 00e5 8abf 52b3 98bf 22bc 8cbf 84b9 233f
000000d0: 118d 38bc 6dbe 8fbf 5aad b2bf be44 d5be
000000e0: 6c6f 01bf 110e aabf 626f a0bf f432 12bf
000000f0: 830b d4be 2c2a 413d 2afa aabe 135f 1bbe
00000100: 0eae 09be 34ed 95bf 9893 87bf e289 7abf
00000110: fff4 f2be 4137 adbf bdf3 b0be ba3c b6bf
00000120: bde7 71be 17a6 be3e 65ba dd3f 30d9 d9bf
00000130: 95a2 dfbf 6717 35be 80e5 4abf 72b0 85bf
00000140: c2a4 913d 13ec bbbf 3dda aa3e df28 c5be
00000150: 16a1 a03d 7ef5 f8be 1725 283e f4e5 acbd
00000160: 816a fd3c e451 223e c632 79bf 89d2 d2bf
00000170: 6b5d aebf 119d 953e abf3 98bf a46e a1be
00000180: 8eb2 dc3e 2558 9fbe c426 5fbf 38a4 5bbe
00000190: bed6 a13f a656 a5bf 8e7d 08bf 9aa0 febe
000001a0: 6766 dcbe 47c8 3a3c d214 84bf e1e0 f4be
000001b0: 6580 e0bf 4a22 4ebf de04 b1bf 3254 c83d
000001c0: d42d 87bf e259 70bf 6420 8ebf 2b35 f3be
000001d0: 2ece 8cbe df0c b8be 9658 173f 030b 983c
000001e0: 8df1 cbbe 17c8 43be b549 9dbe 90d8 62bf
000001f0: 99e7 083f 8d11 0bbf 1ca3 44bf dca1 06be

features.9.running_var f4 [128]
1.0891562 1.256822 0.7104635 0.56180227 0.5307002 0.9208693 1.7124856 0.6160648
0.323993 1.6737055 0.30882016 1.1685046 0.5369723 0.7511385 0.7138042 0.80799496
0.659915 1.0890675 0.30471003 1.2833977 1.0199236 0.5050324 1.0159215 1.2648044
0.7747426 0.6118688 0.85693854 0.5185583 0.5906434 0.54755265 0.5857059 0.6897627
1.0343913 0.5631288 1.0045762 0.5825695 0.78188795 0.9462551 0.7288136 1.3640312
0.53406405 0.69643253 1.2630836 1.039741 0.5237621 1.4119618 1.1952064 0.8095264
1.227283 1.0369457 1.1644297 0.6700549 0.81799513 1.0002414 1.5106604 0.35379025
0.8886718 0.7131595 0.69735867 0.8309618 1.2518536 0.40760252 0.34142053 1.1631631
0.49189705 1.0452379 1.5111716 0.80015755 0.4946828 0.814875 0.8715796 1.8573465
0.4457146 0.38953385 1.2818117 1.6782379 1.3199333 0.49177867 0.86826664 0.7353223
0.5322238 0.65891874 0.57373506 0.8788061 0.6182395 1.3021451 0.6680812 0.77605695
1.0239354 0.5159181 0.8698555 1.0103929 1.1435053 0.6152962 0.7300464 0.58657444
0.7212131 0.8656571 1.1289297 0.34966257 1.0761923 0.9841874 1.2353474 0.9358514
0.5853646 0.6330082 0.5865189 1.1033267 1.8307532 0.9771256 0.45012364 1.2171575
0.6597332 1.1637264 0.8521357 1.1776322 0.49233627 1.2414777 0.6782468 0.80882347
0.87412083 0.6542205 1.1105311 0.65718335 0.6668459 0.79870605 1.0197556 0.5307356
00000000: 7869 8b3f 8bdf a03f f0e0 353f 46d2 0f3f
00000010: f8db 073f 17be 6b3f ba32 db3f 6cb6 1d3f
00000020: 69e2 a53e fb3b d63f ad1d 9e3e 8f91 953f
00000030: 0477 093f 9d4a 403f dfbb 363f c2d8 4e3f
00000040: 30f0 283f 9066 8b3f f402 9c3e 6046 a43f
00000050: db8c 823f ce49 013f b709 823f 1ce5 a13f
00000060: 8855 463f 6fa3 1c3f 5360 5b3f 3dc0 043f
00000070: 6834 173f 692c 0c3f d2f0 153f 4a94 303f
00000080: ef66 843f 3629 103f f495 803f 4623 153f
00000090: cf29 483f c63d 723f 8793 3a3f 9398 ae3f
000000a0: 6cb8 083f 6749 323f b9ac a13f 3c16 853f
000000b0: 4615 063f 2abb b43f 86fc 983f 1f3d 4f3f
000000c0: 9c17 9d3f a3ba 843f 080c 953f b888 2b3f
000000d0: 2168 513f e907 803f 525d c13f ff23 b53e
000000e0: ff7f 633f 9f91 363f 1986 323f eab9 543f
000000f0: bd3c a03f 47b1 d03e acce ae3e 87e2 943f
00000100: eed9 fb3e 5bca 853f 126e c13f 20d7 4c3f
00000110: 1047 fd3e a69b 503f d71f 5f3f 88bd ed3f
00000120: b434 e43e fb70 c73e 6812 a43f 80d0 d63f
00000130: 93f3 a83f 6aca fb3e b946 5e3f 153e 3c3f
00000140: d23f 083f e6ae 283f 4de0 123f 70f9 603f
00000150: f244 1e3f b1ac a63f 5f07 2b3f abab 463f
00000160: 5110 833f 3513 043f daae 5e3f 8e54 813f
00000170: 625e 923f 0d84 1d3f 52e4 3a3f be29 163f
00000180: 6ca1 383f b49b 5d3f c580 903f f906 b33e
00000190: abc0 893f b5f3 7b3f dd1f 9e3f f593 6f3f
000001a0: 74da 153f d30c 223f 1a26 163f cf39 8d3f
000001b0: 1f56 ea3f e724 7a3f 9b76 e63e d1cb 9b3f
000001c0: 46e4 283f fdf4 943f 9125 5a3f a7bc 963f
000001d0: 8013 fc3e bee8 9e3f 95a1 2d3f 0e0f 4f3f
000001e0: 62c6 5f3f ff7a 273f e225 8e3f 2b3d 283f
000001f0: 6ab6 2a3f 0078 4c3f 5a87 823f 4ade 073f
