experiment_testing/mz-testing/checkpoints/ptbxl/100hz/cnn1d/fold_2/best.pt (torch, 628765 bytes, 26 tensors)

features.0.weight f4 [32, 12, 7]
000000 d0 94 a8 bd fc 8b b9 bb 9f 2f bb bd a4 47 8b 3d
       -0.08231509 -0.0056624394 -0.091399424 0.06800774
000010 8b 18 e0 bd c0 91 59 bd 0b 4d fe bd 76 19 59 bd
       -0.10942181 -0.053117514 -0.124170385 -0.053002797
000020 19 23 6f bd 9a b9 12 3d 50 1f 63 bc 74 1f 9d 3c
       -0.05838308 0.035821535 -0.013862446 0.019180037
000030 6f 2e 08 be 0d 9b a0 3d 9d f4 a0 bd 40 5f 37 3d
       -0.13298963 0.078420736 -0.07859156 0.04476857
000040 43 a7 5a bd fa 58 93 bd c3 3b 6e 3d 0a 94 a9 bd
       -0.05338217 -0.07194705 0.058162462 -0.08280189
000050 11 ff ce 3d 82 32 88 3c 60 43 c5 bb cb d3 8b bd
       0.10107244 0.016625647 -0.0060199946 -0.06827506
000060 e0 31 53 3d f8 58 12 3e 62 56 82 3d 5f a0 47 bd
       0.051561236 0.14291751 0.063641325 -0.048736926
000070 73 57 f9 bb 26 37 89 3c 65 ed 28 3c e8 68 4b 3d
       -0.0076093017 0.01674993 0.0103105055 0.049660593
000080 6a 9c 94 bd cb b0 c6 3d bb 46 3a bc e6 e7 d1 3c
       -0.07256396 0.09701689 -0.0113694025 0.025623273
000090 36 b7 c9 bd 14 12 07 bd 59 8b 55 3d fe c1 23 3d
       -0.09849398 -0.032976225 0.052134845 0.039979927
0000a0 bd 52 a2 bd 2d 7b 7a bd b6 30 8a bb 06 b9 04 3d
       -0.07925937 -0.061152626 -0.0042172326 0.032403015
0000b0 51 88 1a bc 30 63 d6 bd 7b 77 88 3c 11 36 16 3e
       -0.009431914 -0.10468137 0.016658535 0.14669062
0000c0 3d 99 2a 3e ee c3 05 bc 0e fa 55 3c 79 c7 02 bd
       0.16660018 -0.008164389 0.013060106 -0.031928513
0000d0 85 f0 fd 3c 21 24 a5 bd 50 13 ce 3d a5 7f 26 3d
       0.030998478 -0.08063532 0.10062277 0.040649075
0000e0 e9 37 c1 bd aa 92 3e bb 5b 35 1f 3c 02 85 a3 bd
       -0.09434492 -0.0029079118 0.009717311 -0.079843536
0000f0 b1 1e a7 bd dc 55 c9 b9 ff ce ef bc 75 96 ab 3b
       -0.08160151 -0.00038401678 -0.029273508 0.0052364417
000100 4c 71 40 3d c1 ae c1 3d e4 ec 1e 3d b5 c6 d3 3c
       0.04698305 0.0945716 0.038800135 0.025851587
000110 21 83 1c bd 1f cd 89 3d 3d 5a d4 3d fd 6b 28 bc
       -0.03821099 0.06728577 0.10368774 -0.010279653
000120 1f 17 be 3d 51 e0 d2 bd 29 c1 94 3d 71 d7 d2 bd
       0.09281754 -0.10296691 0.07263405 -0.102949984
000130 2d 4d 6b bd 4d 21 9a 3d 8c a9 b2 3d 4f 3f c7 3d
       -0.057446647 0.07525883 0.08723745 0.09728872
000140 f9 b7 3c bc 60 c2 43 bd 94 df 05 be 6e 94 31 bd
       -0.011518472 -0.047792792 -0.1307357 -0.043354444
000150 5f 12 0b 3d 8c f1 e0 3d 04 11 8c 3d 37 0d b1 bd
       0.033953067 0.109835714 0.06839183 -0.08645099
000160 b2 39 7d 3d da 7a f0 3c 36 d9 bd 3d 12 c3 42 3c
       0.0618226 0.029355455 0.09269945 0.011887329
000170 f3 29 ab bd 0b 32 20 3d 92 54 ba bc 56 c7 4b bd
       -0.083576106 0.039110225 -0.022745404 -0.04975065
000180 11 df c3 3d df 59 68 3c 5e 0a 92 3d f2 0d 9f 3d
       0.09564031 0.014181583 0.07130884 0.07766332
000190 19 23 67 3d c7 fb c2 bd 86 f0 b9 3d f5 53 bf bd
       0.056429956 -0.09520679 0.09079079 -0.093421854
0001a0 72 e6 d7 ba 2e dd 25 3d ab 14 8f 3c 04 8a 9c 3d
       -0.0016471876 0.040494137 0.01746591 0.07643512
0001b0 46 ba 60 3d ae 19 4a bd 90 30 03 bc 29 f2 1b bd
       0.054865144 -0.049340896 -0.008007184 -0.03807274
0001c0 8f fa bd 3c cd b3 d8 3d 76 86 a1 3d fd bc 59 3d
       0.023190765 0.10581169 0.078869745 0.05315875
0001d0 1d 82 d7 3d e0 70 67 bd 58 39 34 bc e4 84 d3 bc
       0.10522864 -0.05650413 -0.011 -0.025820203
0001e0 64 ea 07 bc f4 c5 b0 3d dc 58 b9 3d 9f 7c c1 bc
       -0.008295629 0.086315066 0.09050152 -0.023618994
0001f0 47 88 cc 3c 65 5d 22 3c f9 f1 d6 3d 28 fb 1d 3d
       0.024967326 0.009909962 0.10495371 0.0385696
000200 94 1b 3f 3d fb e3 92 bc 05 6c 04 bd f6 e9 9f bd
       0.04665716 -0.017930975 -0.032329578 -0.078082964
000210 21 e4 9c 3d 41 e5 8b bc c1 0e ae 3d e9 ef ab 3d
       0.076607 -0.01707709 0.08498908 0.083953686
000220 14 56 ce 3d ff 5c 6d 3d 1c f6 8a bd 61 48 ff 3a
       0.10075012 0.057950016 -0.06785223 0.0019476527
000230 b6 9c 15 3d ed 2e 53 3a 53 90 27 3b 69 82 ab 3d
       0.036526404 0.0008056004 0.0025568202 0.08374483
000240 d0 29 25 3c c1 9b ff bc a7 c0 07 3c e3 f2 2c bd
       0.01008077 -0.031202199 0.008285678 -0.042223822
000250 e4 d4 97 bd e6 d1 f5 bc 3f f6 3e 3c 60 b8 87 bd
       -0.074136525 -0.030007314 0.011655389 -0.066269636
000260 c2 a7 bb 3d 8f 01 a3 3d 5c c3 4f 3d 64 4c 93 3d
       0.09162857 0.07959282 0.05072342 0.07192305
000270 ad 35 19 bc 09 3b 5c bd 63 1a 92 3d cf f9 12 3e
       -0.009351176 -0.053767238 0.07133939 0.14353107
000280 2a d8 9f 3d 2b 1f 51 bd f4 2b 68 3d 88 92 14 bb
       0.07804902 -0.051055115 0.056682542 -0.0022670347
000290 fb 96 64 3d c2 16 28 3c 39 53 96 bd e5 4a f9 3d
       0.05580805 0.010259332 -0.07340092 0.12172488
0002a0 8f 44 10 bd 55 4e a7 3d 9a 2e fa bd bc 9a 8e 3d
       -0.035221633 0.081692375 -0.1221592 0.06963107
0002b0 59 7e 4a 3c fe 07 be bd 4f 17 d2 3c d6 b6 af 3d
       0.012359225 -0.09278868 0.02564588 0.08579795
0002c0 da 9b b2 3d 3d b4 75 bd 6a 52 23 3d 78 03 26 bd
       0.087211326 -0.05998634 0.039873518 -0.04053065
0002d0 4d 2f 85 bd ee f2 d7 bd a3 09 30 bd a8 e8 ff ba
       -0.065031625 -0.10544382 -0.04297794 -0.0019524293
0002e0 95 f3 ec bc 61 4c c1 3d aa 8a 85 3b dd f8 a9 bd
       -0.028924743 0.09438396 0.004075368 -0.0829942
0002f0 c7 68 2f bc 8d a1 b7 bd 09 46 97 bd 34 51 d5 bb
       -0.010706133 -0.0896636 -0.07386405 -0.0065099243
000300 c3 62 f1 3c ab 58 8c 3c 81 39 bb 3d 2c 15 24 bd
       0.029466039 0.017132124 0.091418274 -0.040059254
000310 21 81 ab bb ba 24 df bd 76 e5 a0 3d 52 f5 44 bd
       -0.005233899 -0.10895677 0.07856266 -0.04808552
000320 91 30 60 3d d1 e5 a5 bd 56 26 35 3d 9c 86 ab bc
       0.054733817 -0.081004746 0.044226013 -0.02093821
000330 1c 6a 6d bb 05 16 b4 3d 48 9c 0d bd 6a ea 8e 3c
       -0.0036226576 0.087932624 -0.03457287 0.017445762
000340 f7 3e 1c 39 d5 89 ee bd c6 e2 50 bd 02 88 59 bc
       0.00014900776 -0.11647383 -0.050997518 -0.013277056
000350 4b c3 e5 3c e9 11 a2 3d 72 e7 fb bb d2 fd 94 3d
       0.028047225 0.07913572 -0.0076875025 0.07274975
000360 54 56 4d 3d 86 72 8b 3d d2 9c 88 bd 6a 95 a4 3d
       0.050131157 0.06808953 -0.06670536 0.08036311
000370 61 85 01 3d 68 85 2a 3d 53 24 bf bd 74 aa f2 bc
       0.03162134 0.041631132 -0.093331 -0.029622294
000380 e4 ec 00 3e 03 d3 cb bd bd c5 9c bc 9d 3c 39 3d
       0.12590367 -0.09952357 -0.019137258 0.04522382
000390 c7 88 c8 bd 9b c4 78 bd d8 dd bc 3c 7c 2f bd bc
       -0.09791713 -0.060734373 0.023055002 -0.023093931
0003a0 cd 63 0c bd e6 b9 a6 3d 9e 0b b6 bc 49 45 8a bd
       -0.034274865 0.08140926 -0.022222336 -0.06751496
0003b0 84 83 43 3d bf 88 a6 3d 5e c7 99 bd 77 a8 c2 bd
       0.047732845 0.08131551 -0.075087294 -0.09504788
0003c0 04 39 a6 3d b0 4d d9 bc 4b 0f fc bd 33 14 a6 3d
       0.081163436 -0.026526302 -0.123076044 0.081093214
0003d0 68 2c 4e 3d 8b 03 b6 bc f7 45 ee bc 48 8c 96 3d
       0.050335318 -0.022218486 -0.029086096 0.07350975
0003e0 fb 71 23 3d c1 88 bc bc cd f8 64 3c db 26 cc 3c
       0.039903622 -0.023014428 0.013975334 0.024920871
0003f0 b2 c5 c6 3c 99 75 bf 3d 78 00 56 3d 7b be a0 3d
       0.02426419 0.09348602 0.05224654 0.07848831

features.0.bias f4 [32]
000000 1f 5a a3 3d c8 8f 8e bd ea 85 a0 bd ee 2a 27 3d
       0.079761736 -0.06961018 -0.07838042 0.040812425
000010 c7 8c 84 3d ea bf bd bd 4b 7c 83 bd 5d 13 da bd
       0.06472164 -0.0926512 -0.064201914 -0.106482245
000020 fc e0 8d b9 a1 b2 ee bd e5 c4 ac 3d 8c 47 01 bd
       -0.00027061242 -0.116551645 0.08435992 -0.031562373
000030 ba a8 01 3d de 4e 11 3b 26 7d 9c 3c 09 14 de bd
       0.03165505 0.0022172253 0.019102644 -0.10843665
000040 df c2 dc bc 85 2d aa 3d 9c 75 76 3d 80 2a 7d 3d
       -0.02694839 0.083094634 0.060170755 0.06180811
000050 3b 3a 72 bd fa 04 1e bd b9 f4 7c 3d a1 f5 c0 3d
       -0.059137564 -0.038578965 0.061756823 0.0942185
000060 64 bf c3 3c 57 33 53 bd 86 01 07 bc 62 3f cf 3d
       0.023894973 -0.051562633 -0.008240109 0.10119511
000070 99 5d f7 3d a7 4c 46 3d 8a 75 b2 bd f5 25 b4 bd
       0.12078399 0.048412945 -0.08713825 -0.08796302

features.1.weight f4 [32]
000000 29 54 80 3f be 2d 81 3f 7e 2d 81 3f e3 1b 81 3f
       1.0025684 1.0092084 1.0092008 1.0086635
000010 1b e1 7c 3f fd 27 86 3f 45 f9 7f 3f a8 b4 81 3f
       0.98780984 1.0480953 0.9998973 1.0133257
000020 65 b3 7a 3f 90 ec 84 3f d1 c0 83 3f 45 64 75 3f
       0.97929984 1.0384693 1.0293218 0.95856124
000030 77 07 78 3f e5 e9 80 3f 39 9e 6e 3f 15 a9 80 3f
       0.9688639 1.0071379 0.9321018 1.00516
000040 6c 40 83 3f 26 82 81 3f 0e ff 7f 3f 92 70 80 3f
       1.0254035 1.0117843 0.9999856 1.0034354
000050 6d 5f 81 3f e4 98 7e 3f 1a 08 81 3f 23 56 78 3f
       1.0107247 0.9945204 1.0080597 0.97006434
000060 94 e2 76 3f 8c 25 84 3f d0 ae 7f 3f 23 d4 7d 3f
       0.9643948 1.0323958 0.9987612 0.9915182
000070 5c 81 80 3f c5 7a 7c 3f eb 03 7b 3f a6 5e 80 3f
       1.0039477 0.9862483 0.98052853 1.0028884

features.1.bias f4 [32]
000000 af f0 22 3c 08 0d 18 bd bd 20 e4 3c a5 65 8e 3c
       0.009945079 -0.037121803 0.027847642 0.017382452
000010 64 84 c0 3c 20 c2 9b 3d 61 68 82 bc 7e 63 76 bb
       0.023500629 0.07605386 -0.015918912 -0.0037595923
000020 73 8a 5e bc f2 11 e7 3c 82 ad 84 3d 5d 74 fb 3c
       -0.013582814 0.0282068 0.064784065 0.030695135
000030 d5 b8 23 bd 0d 38 33 3c cb 8c e9 bc 7b 16 9a 3c
       -0.03997119 0.0109386565 -0.028509518 0.018809548
000040 2a 6c d8 3d c5 42 91 3c 06 23 6b 3c 88 04 b3 3d
       0.10567506 0.017732034 0.014351612 0.08741099
000050 15 da 6c 3c ca e9 72 3c a9 22 a6 3c 32 91 9e 3c
       0.014456292 0.0148262475 0.0202802 0.019356344
000060 b7 25 f1 3c 75 cf 19 3d 14 0b 42 3c 6d 4b 03 bd
       0.02943693 0.037551362 0.011843462 -0.032054354
000070 3f b5 3b 3d 79 cd 26 bd b3 17 4b 3d 14 20 58 3d
       0.045827147 -0.040723298 0.04958315 0.052764967

features.1.running_mean f4 [32]
000000 44 2b a3 3d 7e 47 8e bd ba 16 a1 bd be 7f 27 3d
       0.07967237 -0.0694723 -0.07865663 0.04089331
000010 f6 d9 81 3d 72 e4 bd bd af a6 83 bd 67 2a d5 bd
       0.06340401 -0.09272088 -0.06428277 -0.10408478
000020 59 52 7e 38 3a 43 ec bd 0b 98 ab 3d 9d 55 02 bd
       6.063501e-05 -0.1153626 0.08378609 -0.03181993
000030 8e e3 02 3d 15 f6 10 3b 73 6c 9e 3c ec bd e0 bd
       0.031955294 0.0022119333 0.019338822 -0.10973725
000040 fd c4 d7 bc 3e 49 a2 3d 8c 7d 78 3d 3c 04 7a 3d
       -0.026339049 0.07924126 0.060666606 0.061039194
000050 c8 e4 73 bd c2 7e 1e bd 5f b5 7c 3d 24 62 c1 3d
       -0.059544355 -0.038695104 0.061696406 0.09442547
000060 55 ac c7 3c b6 1e 4f bd 18 31 2a bc 87 4b d0 3d
       0.024374167 -0.050566398 -0.010387681 0.10170656
000070 64 5e f4 3d 8f f9 45 3d 3a d6 af bd ea d9 b5 bd
       0.11932066 0.0483337 -0.08585782 -0.088794544

features.1.running_var f4 [32]
000000 a8 42 8d 3f 72 28 2e 3f f6 51 4f 3e ae 2f 1b 3f
       1.1035967 0.68030465 0.2024611 0.6061963
000010 b3 e7 82 3f ed 19 47 3f b2 13 e2 3e eb a4 36 3f
       1.0226959 0.77773935 0.4415565 0.71345395
000020 b9 41 1f 3f b3 60 d9 3e de 99 05 3f c8 86 03 3f
       0.6220966 0.42456588 0.5218791 0.51377535
000030 e2 30 01 3f 72 df 56 3f 7f 04 27 3f ad 96 6b 3f
       0.50465214 0.839347 0.65241235 0.9202679
000040 d0 3d a4 3e 28 03 6d 3e ec 5b a0 3e 63 9c 9a 3e
       0.3207841 0.23145735 0.3132013 0.3019744
000050 f6 a4 3f 3f 72 13 a0 3e fb 5d d4 3e 4c 56 0d 3f
       0.74861085 0.31264836 0.4147795 0.55209804
000060 47 79 1e 3f 25 bc d4 3f 46 09 12 3f 46 ee 4a 3f
       0.61903805 1.6619917 0.570454 0.79269826
000070 10 f4 40 3f 3f 13 3d 3f 4e 78 0b 3f 7d 27 eb 3e
       0.7537241 0.7385749 0.54480445 0.45928565

features.4.weight f4 [64, 32, 5]
000000 74 3e ac 3b d0 f7 e2 ba 49 52 cd ba db e3 22 bc
       0.0052564684 -0.0017316286 -0.0015664782 -0.00994202
000010 8e da c1 3b 7a 23 0f 3d 49 a9 b5 bd 89 9f 69 bd
       0.0059159463 0.034945942 -0.08870179 -0.05703691
000020 62 96 8a bd 78 30 a7 bc ef fb 8d 3a dc a6 4e bd
       -0.067669645 -0.020408854 0.0010832528 -0.0504521
000030 2c c9 ac ba 7a 09 1b 3d 31 05 b4 bc bc b7 5a bd
       -0.0013182512 0.037850834 -0.021975132 -0.05339788
000040 61 57 2d bd 9e 30 13 bd 6e be 0d bd 65 cc f1 bc
       -0.04231966 -0.035935037 -0.034605436 -0.029516408
000050 4c 14 69 3d 27 9e dd 3c 0b d1 ca 3c 8e 3d 28 3d
       0.056904122 0.027052952 0.024757883 0.041074328
000060 cf 1a 5d bd 49 3d 11 3d 9d fd c3 3d c5 1a 94 bc
       -0.053980645 0.035458837 0.09569857 -0.018079171
000070 8c 59 3a 3d d5 21 c0 bc b4 3f 3e bd ee c4 39 bd
       0.045495555 -0.023453632 -0.04644747 -0.045353822
000080 db 22 b3 bd 7e f0 8e 3d 33 57 83 bd 50 06 6d bd
       -0.087468825 0.06979464 -0.06413116 -0.05786735
000090 c7 ad d3 bc 5a 50 5c bd c6 6e 2c bd 50 42 19 bd
       -0.0258397 -0.053787567 -0.04209783 -0.037416756
0000a0 80 7d 68 3d b5 05 88 3d 50 ff 08 bd 79 63 2e bc
       0.05676031 0.066417135 -0.03344661 -0.010643833
0000b0 f4 27 91 bc ab 0d 6e bd 0a dc e8 bc e8 d3 95 3c
       -0.017719246 -0.058118504 -0.028425235 0.018289521
0000c0 8f ff 2f 3d 21 91 5b bd 11 32 04 bd 93 fd d7 bd
       0.04296833 -0.053605203 -0.03227431 -0.10546412
0000d0 e4 f7 fe bd 6e 73 74 3b f4 26 40 bd 59 b7 22 3d
       -0.12449625 0.0037300247 -0.04691215 0.039725635
0000e0 65 a7 b1 bd 71 23 f6 3c 56 d9 2a bc 50 d0 da bc
       -0.08674506 0.030046197 -0.0104277935 -0.02671066
0000f0 5e 4f 95 bd ea 2a 6b 3c da 6f 56 3d 04 3f 17 3d
       -0.07290529 0.014353493 0.052352764 0.03692533
000100 e0 90 c2 bc 1a 5f 1b 3d fd e2 1d 3c 97 70 04 bd
       -0.023750722 0.037932493 0.009636638 -0.032333937
000110 91 70 26 3d d1 c3 2c bd 52 d2 78 3b 71 09 d5 bc
       0.040634695 -0.042178933 0.0037967158 -0.026005479
000120 09 fd ad 3c c7 33 51 3c 4d 8f f6 3d 52 a9 68 bd
       0.02123882 0.012768692 0.12039051 -0.0568021
000130 91 55 cb 3a c2 11 8b bb 2d 56 41 bd 32 35 d3 3c
       0.0015513172 -0.0042440603 -0.047201324 0.025782201
000140 fb 7f 52 bd f6 a0 8f 3d 9f d5 4e bd cf 21 d6 bd
       -0.051391583 0.07013123 -0.050496694 -0.10455667
000150 6e 75 93 3a 7f 01 bf bc 58 cc 17 3d 53 2a 0c 3c
       0.0011250207 -0.023316143 0.03706011 0.008555013
000160 39 05 33 bd a5 87 aa bb 1a fe f1 3d a6 7b e4 3d
       -0.043706153 -0.0052041584 0.11816044 0.111563966
000170 5d 82 7f 3c ae 03 1b bd 10 7d 18 bd c2 48 0c 3d
       0.015595046 -0.037845306 -0.037228644 0.034249075
000180 31 31 ba 3b 8c 74 69 bd 27 35 a8 bd 66 08 9f bc
       0.0056821336 -0.056995913 -0.08213263 -0.019413184
000190 f6 49 12 bd 25 c7 43 3d 42 89 37 3d ba 4d 5e 3d
       -0.035715066 0.04779734 0.044808634 0.054273345
0001a0 09 61 43 bd a2 78 fa bc 7c be 89 3d 32 65 d8 3d
       -0.04769996 -0.0305751 0.06725785 0.105661765
0001b0 c2 fb b1 3d 61 90 be 3c 2a ef cd 3c 17 c1 47 bd
       0.08690597 0.023262205 0.025138456 -0.04876813
0001c0 98 5c 22 bd 86 87 2a bc d4 12 b0 bd a3 d0 81 bd
       -0.039639086 -0.010408288 -0.08597341 -0.063386224
0001d0 29 6b 3f bd 1a 12 f9 bb 07 dc c9 3c 12 74 8e bd
       -0.046733055 -0.007601035 0.02464105 -0.069557324
0001e0 b7 a6 c3 3b 12 c4 50 3c 6e 79 29 39 06 cb d7 bd
       0.0059708017 0.012742059 0.00016162332 -0.105367705
0001f0 58 b9 99 3c 40 b8 96 3d 88 a4 eb bb fd dd 48 bd
       0.018765137 0.07359362 -0.0071912445 -0.04903983
000200 6f 98 b3 bd dc b0 c4 bd 3a 73 91 3d 53 a1 71 bc
       -0.08769309 -0.09604046 0.07102056 -0.014747935
000210 ad 93 9b 3d f9 59 95 bc f4 58 6b b9 51 4a dd bc
       0.07596526 -0.018231379 -0.00022444484 -0.027012976
000220 f5 dd 13 bd be 77 18 3c 5e a2 9d 3d 70 1b 06 3d
       -0.036100347 0.0093058925 0.07696985 0.03274101
000230 f5 29 a7 bd 7d 7e 46 3a 70 d0 31 bd 25 74 5c 3c
       -0.081622995 0.0007571949 -0.043411672 0.013455425
000240 c2 76 25 bb 66 ac 7d bb ac 6d 82 3d ee d8 af bd
       -0.0025247787 -0.0038707494 0.063685745 -0.08586298
000250 cd f4 88 3d 80 74 89 3c 9a c5 12 3d 3c 09 dc bb
       0.06687317 0.016779184 0.03583298 -0.006714968
000260 5c 7d 00 bd a3 50 3e bd 49 d0 bb 3d f2 34 d1 3c
       -0.031369552 -0.04646362 0.091705866 0.025537942
000270 cb 82 cc 3c 2f 6f fa bb 4d 2b 86 3b e8 a5 37 3d
       0.02496471 -0.0076426486 0.0040945173 0.044835955
000280 5c c3 80 bd 3b fd 4f bd b8 cc 9f bc ea 14 3f 3c
       -0.06287262 -0.05077861 -0.019506797 0.011662701
000290 1a f9 8e bd 98 21 85 3c 55 e5 2c bd e1 92 05 bc
       -0.06981106 0.01625137 -0.042210896 -0.008152694
0002a0 33 ad 4f 3d e8 48 05 3d 1b f5 16 3c df b9 5f 3c
       0.050702285 0.032540232 0.009213711 0.013655155
0002b0 cf 2c 6d bd 67 a1 9e 3d 88 a2 c1 3d 42 43 02 be
       -0.05790406 0.07745629 0.094548285 -0.1272097
0002c0 c7 c3 25 3d 14 15 74 3b f9 3d 2f bd 63 a0 b7 3d
       0.04046991 0.003724401 -0.04278371 0.08966138
0002d0 4d b7 9f bd 6d 22 d3 3c 0a 26 7e bc d0 8c 30 bd
       -0.07798634 0.025773251 -0.015511999 -0.04310304
0002e0 8e da b1 3b b7 f2 95 bd ca 29 c2 bd dc 67 d3 bc
       0.005427665 -0.07321685 -0.09480627 -0.02580636
0002f0 eb 3a 38 bd 25 8f 83 3c 60 a8 16 bc 57 ea b3 3d
       -0.044978064 0.016059468 -0.009195417 0.08784931
000300 cc 08 ca bb bd 86 73 3d da 5a 6b 3c 23 05 d1 bd
       -0.0061655995 0.05945467 0.014364922 -0.10206058
000310 91 18 b0 bd c5 9e 6f bd 7f 2e 96 bc 30 50 19 bd
       -0.08598436 -0.058501024 -0.018332718 -0.03742999
000320 ff 71 fa 3c fd 14 0d 3d 1c 04 15 3b f1 9f 4f 3d
       0.030571936 0.034443844 0.0022738045 0.05068964
000330 94 c5 78 3d db 39 e9 3c d0 ff 53 bb f0 b8 83 3d
       0.0607353 0.02846997 -0.003234852 0.064317584
000340 f4 92 94 3b 25 81 86 3d e6 bc 9d bc ea 06 b0 3c
       0.0045341197 0.06567601 -0.019255113 0.021487672
000350 c5 26 26 bd 44 66 f9 3c 45 06 5a bc 92 78 b8 3c
       -0.040564317 0.030444272 -0.013307159 0.02251843
000360 73 f6 82 3d d5 53 bb 3d ed b5 e3 3c 69 09 49 3d
       0.06394663 0.09146849 0.02779671 0.04908124
000370 a2 31 94 bd ca 52 08 ba 93 7f cb bc c5 db 3e 3d
       -0.07236029 -0.0005200325 -0.024841106 0.046596307
000380 ac a8 74 3d 37 e2 9c bd a5 23 ac bc 50 8c 76 3b
       0.05973117 -0.076603346 -0.02101309 0.0037620254
000390 c1 c0 94 3d 63 41 22 3b e7 01 5c bd e7 5d 3c bd
       0.072633274 0.0024758212 -0.05371275 -0.04598799
0003a0 ac 7f 2a 3c 2e ac 45 bd fc 1a 14 bc 38 d9 0c bd
       0.010406416 -0.048259906 -0.009039637 -0.034386843
0003b0 60 f7 3c bd a4 46 77 3d 1c 18 74 bd c1 90 6e 3d
       -0.046134353 0.060370103 -0.059593305 0.058243517
0003c0 0c 03 a7 3d 04 9d 3f bd 46 8f 9f 3d a7 52 b4 3d
       0.08154878 -0.0467806 0.07790999 0.08804827
0003d0 78 3d 1b 3d 74 f3 a9 bd 76 71 2e 3d 3a 44 8c 3d
       0.037900418 -0.08298388 0.042588674 0.06848951
0003e0 da e7 1f bc fe dd c4 3d 54 79 f9 bc 7e 2e d2 bd
       -0.009759868 0.09612654 -0.030453362 -0.10262774
0003f0 2e 45 a7 bd 3f 5e 1a bd 60 cb fc 3c 5e 16 31 3d
       -0.08167492 -0.037687536 0.030858696 0.04323422

features.4.bias f4 [64]
000000 b2 18 de bb 7d 8f 21 bd 72 51 2f 3d 2f 16 ea bc
       -0.0067778463 -0.03944348 0.04280228 -0.028575031
000010 35 4b ad bc 00 99 9d 3d 66 dd 22 3c d8 1e 02 bc
       -0.021154026 0.07695198 0.009940481 -0.007941924
000020 b7 a1 92 bd 88 81 ea 3c 17 8f c4 3c 5a 71 04 bd
       -0.07159751 0.028626218 0.023994012 -0.032334663
000030 2e 53 16 bd f0 2c 0f 3c 62 07 82 3d 58 1c ab bc
       -0.03670042 0.008738741 0.063490644 -0.020887539
000040 82 a7 8f 3c 3b 00 ef 3c 33 c1 6b bd 37 41 a9 3c
       0.017535929 0.029174915 -0.057557296 0.02066098
000050 63 f8 a3 3d f5 e8 aa 3c d2 4b 03 3d 5f 09 60 bb
       0.080063604 0.020863036 0.03205473 -0.0034185273
000060 77 71 03 3d 9e 4a ea 3c 3a 18 a3 3c ab 1a 82 3d
       0.03209063 0.028600033 0.019909013 0.06352743
000070 c7 57 15 3d 43 6b 1a bd 96 48 58 3d f4 d3 85 3d
       0.036460664 -0.03769995 0.0528036 0.065345675
000080 37 c3 bf 3d a8 65 43 bd e2 21 48 bd 0b d3 5e 3d
       0.09363406 -0.04770437 -0.04886044 0.054400485
000090 54 68 78 3d 1f 20 dc bc 8d 82 95 3c d9 40 4a bd
       0.06064637 -0.026870785 0.018250728 -0.04937825
0000a0 c9 2e 4a bd e4 a2 5a bd 0b 34 36 bd b0 6b 95 3d
       -0.049361024 -0.053378 -0.044483226 0.072959304
0000b0 27 ad 96 bd b1 fc a3 bb 6e 12 16 3d c0 eb 54 3d
       -0.07357245 -0.0050044884 0.03663867 0.05198264
0000c0 bb ef 97 3d dc 1e 9a 3c 56 31 83 bd 0a 83 a1 bd
       0.07418772 0.018813543 -0.064058945 -0.07886322
0000d0 96 0e 83 bd 7c b2 62 bd 26 0b d8 bc cf 88 1f bd
       -0.063992664 -0.055345997 -0.026372503 -0.03894883
0000e0 7b ce 45 bd 51 f6 06 3c a8 86 43 bd 2e fe db 3b
       -0.04829262 0.008237437 -0.04773584 0.00671365
0000f0 e2 20 03 3d f9 82 b3 bd f5 a2 ab bd e6 0e 0e 3d
       0.03201378 -0.087652154 -0.08380691 0.034682177

features.5.weight f4 [64]
000000 00 11 87 3f 59 77 81 3f cb c5 70 3f 9d 8e 76 3f
       1.0552063 1.0114547 0.9405181 0.9631136
000010 78 f9 82 3f ff c7 79 3f df e2 81 3f 0b 2d 7a 3f
       1.0232382 0.97570795 1.014736 0.9772498
000020 d6 95 7f 3f 35 1a 84 3f b2 a9 81 3f 2f 6b 82 3f
       0.99838006 1.0320498 1.0129912 1.018896
000030 39 2b 7c 3f b1 e7 76 3f 3f 59 71 3f 35 d7 80 3f
       0.9850345 0.96447283 0.94276804 1.0065676
000040 f3 7c 83 3f 60 f3 78 3f 9f 2d 73 3f 81 88 85 3f
       1.0272506 0.9724636 0.9499149 1.0432283
000050 d6 67 7f 3f df 10 7e 3f ce 4c 81 3f 06 c1 8a 3f
       0.99767816 0.99244493 1.0101564 1.0840156
000060 b0 35 85 3f d7 fc 78 3f 0c 60 86 3f b9 8e 74 3f
       1.0407009 0.97260803 1.0498061 0.9553028
000070 ed 27 86 3f d0 df 76 3f b9 e5 7f 3f e3 b5 80 3f
       1.0480934 0.9643526 0.99959904 1.0055507
000080 d3 b3 80 3f 87 f2 7b 3f 16 b2 80 3f 0a 2e 80 3f
       1.0054878 0.9841694 1.0054348 1.001405
000090 92 da 7e 3f 82 bf 83 3f b3 73 79 3f e0 d7 90 3f
       0.9955226 1.0292819 0.9744217 1.131588
0000a0 7d 76 84 3f 31 85 7f 3f c6 03 78 3f 20 9a 73 3f
       1.034866 0.9981261 0.9688076 0.9515705
0000b0 1d a4 82 3f 22 9b 84 3f 8b 7d 82 3f 46 c3 79 3f
       1.0206333 1.0359843 1.0194563 0.9756359
0000c0 03 de 7d 3f 04 e9 7c 3f 67 84 80 3f dd 85 71 3f
       0.9916689 0.98793054 1.0040406 0.94344884
0000d0 bd 56 73 3f f1 91 76 3f ac 15 80 3f 11 20 7a 3f
       0.9505423 0.9631644 1.0006614 0.9770518
0000e0 b4 8f 83 3f cc 52 7a 3f 6d a2 82 3f 9d b9 84 3f
       1.027823 0.9778259 1.0205818 1.0369145
0000f0 29 a2 82 3f d0 c8 7e 3f 5f a5 83 3f e2 41 81 3f
       1.0205737 0.99525166 1.0284842 1.0098231

features.5.bias f4 [64]
000000 5a d7 9c 3b 20 ba 9e bc ef df 1f bd 60 44 4f bd
       0.004786414 -0.01937586 -0.03903192 -0.050602317
000010 65 aa fe 3b 32 89 50 bd f2 27 10 bc 6a 10 f3 ba
       0.0077717775 -0.05091209 -0.008798586 -0.001854432
000020 0e 25 c9 3c ca d1 c4 3c 52 ac 6f 3c a3 49 f4 3c
       0.024553802 0.024025816 0.014628487 0.029820269
000030 bf 5e 82 ba 66 66 10 bd 66 9f c0 bc 31 4d a8 3b
       -0.000994645 -0.035253905 -0.023513507 0.005136155
000040 f1 66 25 bc 50 cf c3 bc b9 20 52 bd 0e bb 45 3c
       -0.010095344 -0.023902565 -0.051300738 0.012068523
000050 0a f3 ab bc 9e 96 a1 bc af 17 c2 bc d8 91 49 3b
       -0.020989913 -0.01972514 -0.023692934 0.0030757096
000060 7d c7 1f 3c d8 99 04 bd 21 e1 a2 3d 87 4b 89 bc
       0.009752152 -0.03237328 0.07953096 -0.016759647
000070 25 48 2a bd a2 fd 41 bd 33 5c 4d bd 84 1d d1 bb
       -0.04157271 -0.047361024 -0.050136756 -0.0063816924
000080 1d 3f a2 bc 5a dd cd bc 29 46 ad 3b cd dd 09 3c
       -0.019805485 -0.025129963 0.0052879048 0.008414698
000090 4d 3e 1e bd b0 f3 62 bb 75 da 2b 3d f3 93 c6 3b
       -0.038633633 -0.0034630112 0.041956384 0.0060601174
0000a0 5a 81 8a 3c 6b 5c 48 bc 52 ff 33 bc 0d 04 91 bc
       0.016907383 -0.012229065 -0.010986166 -0.017702127
0000b0 2f 09 0b 3c cf eb 6e bc 54 e6 83 bb 23 6e bf bc
       0.008486076 -0.014582588 -0.00402526 -0.023367947
0000c0 88 8e f8 3c f5 c2 a0 3c fd 6e 07 bd 25 ce 8e bc
       0.030341402 0.019624213 -0.03306483 -0.017432282
0000d0 22 3a ac bc f5 cc 18 bd 85 78 d5 bc 56 84 96 bc
       -0.021023814 -0.037304837 -0.026058445 -0.01837365
0000e0 ca 8e d3 3c c6 02 6d bd 0e fb bd bc 90 63 d7 bc
       0.025824923 -0.057863973 -0.023191001 -0.026292592
0000f0 20 f1 52 3a d1 58 18 3b 38 be 06 3d e8 86 db bc
       0.00080467947 0.0023246298 0.03289625 -0.026797727

features.5.running_mean f4 [64]
000000 07 2d c6 be 62 69 a9 bd 0a d5 da bd 71 06 7d be
       -0.38706228 -0.08272053 -0.10685165 -0.24709488
000010 d8 40 19 be 0f 80 9c 3f 9b 2e 38 be ff 3f ba 3e
       -0.14966142 1.222658 -0.17986529 0.3637695
000020 07 c2 fe be 3a 6c 27 bd f4 5a aa be 89 10 a6 be
       -0.49757406 -0.040874697 -0.33272517 -0.3243449
000030 ee 2a 8c be 07 51 45 bc 94 07 d3 3c 46 7d 97 be
       -0.27376503 -0.012043244 0.02576045 -0.29587764
000040 1d f5 31 be 0a 74 2f 3f f7 a3 fd 3e 9c 56 c0 be
       -0.1737866 0.68536437 0.49539158 -0.37566078
000050 1a 90 fb bd c8 5f 30 be 30 32 b6 be 2b e7 1b bf
       -0.122833446 -0.17224038 -0.35585165 -0.6089961
000060 b9 0a cb be f3 c8 e3 bd 74 d8 86 be 39 03 c3 3e
       -0.39656618 -0.111223124 -0.26337016 0.38088396
000070 67 bd cb bd 0f d1 33 bd 45 f2 32 3f f6 2a cc be
       -0.09948235 -0.043900546 0.69900924 -0.39876527
000080 02 25 1e bf ec 87 fb be 98 5f c1 3d 5a e5 66 be
       -0.6177522 -0.49127138 0.09442061 -0.22548428
000090 f5 90 4e 3e 61 56 42 bf 09 f6 c2 bc d4 bf e0 be
       0.20172484 -0.75913054 -0.02379896 -0.43896353
0000a0 5f 1d 24 bf 7a 56 35 bf 64 12 14 bf c0 57 e6 3b
       -0.64107317 -0.7083508 -0.5784056 0.0070295036
0000b0 f7 5a 3f be 2d 9c f7 be d9 c7 8e be 70 08 7a 3e
       -0.18687044 -0.4836134 -0.27886847 0.24417281
0000c0 de 5f a7 be 78 06 89 3c 04 d6 9a be 04 73 34 bf
       -0.32690328 0.016726717 -0.30241406 -0.70488
0000d0 fa 17 04 3f ed 71 6c 3e 87 03 f9 be 08 74 c9 be
       0.51599085 0.23090334 -0.48635504 -0.39346337
0000e0 81 fb 3b be d4 9f 99 be 3a 3c c7 bd ee 6d 26 bf
       -0.1835766 -0.30004752 -0.09728284 -0.6501149
0000f0 48 36 62 be 7a 84 d6 bd 8c 5b e5 be 83 3f 25 bd
       -0.22091019 -0.10474487 -0.44796407 -0.040343773

features.5.running_var f4 [64]
000000 80 ca 97 3e ed 22 f9 3e f4 0b 6f 3e 2e f6 b3 3e
       0.29646683 0.4865946 0.23344404 0.35148758
000010 6c 3d 0a 3f f4 86 ac 3f ce 9a 59 3e 71 b4 13 3f
       0.5399997 1.3478684 0.2125046 0.57697207
000020 0d 75 b1 3e 34 8a b8 3e 23 2b d0 3e af ad 08 3f
       0.34659615 0.3604294 0.4065791 0.5339002
000030 c9 26 b3 3e 17 e0 22 3f 62 21 b7 3e ea 22 68 3e
       0.34990528 0.63623184 0.35767657 0.22669569
000040 1d d7 70 3e 53 51 27 3f 63 80 15 3f 0f 20 e3 3e
       0.23519559 0.65358466 0.5839903 0.44360396
000050 9c ea 24 3f 1e 45 70 3e 3b 1f a9 3e 08 ff 20 3f
       0.64420485 0.23463866 0.3303164 0.62889147
000060 85 fc 58 3e 45 ed 84 3e 89 b0 8c 3e ca 95 05 3f
       0.21190079 0.25962272 0.27478436 0.52181685
000070 c3 7a 81 3e ff f7 e2 3e 11 c3 7f 3f b4 f2 0b 3f
       0.25288972 0.4432983 0.9990702 0.5466721
000080 88 51 1e 3f 32 2a 0c 3f bb 38 1e 3f 6b c4 9b 3e
       0.61843157 0.54751885 0.61805314 0.30423293
000090 66 68 d9 3e 35 41 55 3f 49 1b 44 3e e5 04 5a 3e
       0.42462462 0.83302623 0.19151033 0.2129093
0000a0 85 61 61 3f c6 ca 35 3f 51 14 4f 3f 65 a3 01 3f
       0.8803943 0.7101253 0.80890375 0.50639945
0000b0 d8 9c 4a 3e e8 01 d6 3e 02 04 df 3e a7 02 06 3f
       0.19786394 0.4179833 0.43557745 0.523478
0000c0 08 25 78 3e 89 f2 7e 3e 7e bc e2 3e 33 3e 0d 3f
       0.24232876 0.24897207 0.44284433 0.55173033
0000d0 29 97 05 3f 13 c6 e6 3e 25 27 d1 3e 14 7c 2c 3f
       0.5218378 0.45072994 0.40850177 0.6737683
0000e0 9b a4 37 3e 25 7f b3 3e 7a a4 62 3e de c4 a7 3e
       0.17933886 0.3505794 0.22133055 0.32767385
0000f0 6a e0 09 3f c1 e9 f0 3e 02 b1 af 3e 64 3e 3c 3e
       0.53858054 0.4705334 0.34314734 0.18383175

features.8.weight f4 [128, 64, 5]
000000 bc bd 75 bd 73 6c d6 3d fd 9d 80 bc a6 8b d7 bc
       -0.059995398 0.10469904 -0.015700335 -0.026311707
000010 e4 00 8e 3d e2 d1 38 3d c2 8f fc bc 5a e9 84 3d
       0.069337636 0.045122035 -0.030830268 0.06489821
000020 59 8a e7 bc 38 c2 3b ba 6a 24 7c 3c ca cc 92 3c
       -0.028264211 -0.0007162425 0.015389541 0.017919917
000030 1a f1 04 3c c1 41 a8 bc ad 24 3b 3d f3 55 36 3d
       0.008114124 -0.020539166 0.045689274 0.04451556
000040 72 ef 3b bd 16 9e 4e 3d e8 a2 65 3c 02 b5 29 3b
       -0.04588265 0.05044373 0.014015891 0.0025895243
000050 9d a5 9e bd 96 79 22 3d 16 f5 d6 3c 62 43 56 3d
       -0.07746432 0.039666735 0.026239913 0.052310355
000060 98 54 5b bb e6 7f 0b 3d bc 14 a8 bc 7e fc 06 3d
       -0.003346717 0.03405752 -0.0205177 0.03295564
000070 36 91 ea 3c 8b e5 21 bd 21 82 2c bd 48 ca e3 3c
       0.028633695 -0.03952555 -0.042116288 0.027806416
000080 6c b1 09 bd 66 4d 33 3c 0c 59 2e bc 4a 11 c9 bb
       -0.03361647 0.010943746 -0.010641348 -0.006136094
000090 4e 89 88 bc ad 26 34 3b ef b4 12 bc 10 45 09 3d
       -0.016667034 0.0027488873 -0.008954271 0.03351313
0000a0 44 b1 41 3d 7f 27 5f 3b 70 20 00 bd 50 70 e3 bc
       0.047288194 0.003405064 -0.031280935 -0.027763516
0000b0 66 5b 9d 3c be 88 41 3d ce 66 64 bd 4b 9e 1f 3d
       0.019208621 0.047249548 -0.055762105 0.03896932
0000c0 c0 ec 90 3d 43 9d aa bc b1 23 37 bc ac ed 88 bd
       0.070764065 -0.020826941 -0.011177943 -0.06685957
0000d0 4d 49 68 3d 9b ea 0c 3d 79 06 93 3d b3 91 a2 3c
       0.05671053 0.034403425 0.07178969 0.019844865
0000e0 ad a3 33 bd 60 dd dd 3c 66 75 aa 3c 4c cf 56 bc
       -0.043857265 0.027083099 0.020807933 -0.013110947
0000f0 c2 45 a3 3d 35 c0 6d 3a 13 83 08 bd 3f b3 a7 bb
       0.079722896 0.00090694736 -0.033328127 -0.0051178033
000100 54 32 1c 3c fb a7 a9 3c 97 8d 81 3c 5b 6e f9 bc
       0.009533484 0.020709982 0.015814586 -0.03044813
000110 94 6b 95 3c 02 52 2b bd 17 74 82 bc ca aa b9 bc
       0.018239774 -0.041826256 -0.015924497 -0.022664446
000120 ea a7 b3 bc 51 d2 9c bc 7e 59 ac 3c 13 49 76 3d
       -0.021930654 -0.019143255 0.021038767 0.060128283
000130 24 80 15 3d f4 00 7e bd 23 db 03 3d b2 8d 00 3d
       0.036499158 -0.062012628 0.032191407 0.03138513
000140 96 6b a5 3c 12 e8 70 3d 59 83 b8 bd 8b 65 3b bb
       0.020192903 0.05881507 -0.090094276 -0.002859446
000150 a0 67 28 3d 52 f8 d3 3b 9b 55 61 bd ec 7f 4a 3c
       0.04111445 0.006468811 -0.05501328 0.0123596005
000160 5d cf 6c 3d 7d 24 21 bd bb e1 e8 bc f7 ce eb bc
       0.057814945 -0.03934144 -0.02842795 -0.028785212
000170 f0 1e 53 3d 62 b3 9c bc 6e 2d e8 bc 1b 27 1b bc
       0.051543176 -0.019128505 -0.028341975 -0.009469773
000180 62 13 5b 3d 41 df 1b 3d be b9 a6 ba 8b 02 90 bc
       0.05348528 0.03805471 -0.001272015 -0.017579338
000190 6e 9c 8e bd b8 ef 64 bd ef 1c 0d 3c 50 2f 5d 3c
       -0.0696343 -0.055892676 0.008612855 0.01350005
0001a0 cb 00 02 bd 6e 86 9b 39 ea a4 8b 3d 7c 45 34 3c
       -0.031739037 0.00029664062 0.06818564 0.0110028945
0001b0 26 58 01 b9 45 9c 05 bb c7 f2 78 bd bb 60 1a 3d
       -0.00012335237 -0.0020387333 -0.060778406 0.037689906
0001c0 82 c9 8c bc dd 66 05 bd e8 69 da 3c 28 c3 ad bc
       -0.01718593 -0.0325688 0.026661828 -0.021211222
0001d0 0a 42 a8 3d a2 87 53 3b 9b 4a c6 bc b3 39 06 bc
       0.08215721 0.0032276888 -0.024205497 -0.0081924675
0001e0 c7 f8 55 3c 50 82 9b bc 34 89 80 3d 6c 00 13 3c
       0.013059801 -0.018983036 0.062761694 0.008972269
0001f0 11 48 16 bd 15 dd 04 bc 31 00 29 bd 92 6b 36 3d
       -0.03668982 -0.008109351 -0.04125995 0.04453618
000200 f2 c4 d2 3c 77 5b 77 bd 1f 77 f7 bb 87 f3 cf 3b
       0.025728676 -0.060389962 -0.007552042 0.0063461694
000210 51 ce a2 bc ec 69 f8 3b 92 3e 70 bb 24 b2 92 3c
       -0.01987377 0.0075809862 -0.0036658389 0.01790721
000220 9a 5b d6 3c b6 24 8e bd ed f4 fa bb 1e 9f 3e 3c
       0.026166726 -0.06940596 -0.007658592 0.011634616
000230 06 ac 51 3c 39 a0 2c 3d 1a 17 a9 bc 09 75 a4 bb
       0.012797361 0.042144988 -0.020640898 -0.0050188345
000240 cf ad 16 3b 2d f2 f6 3c 0b a3 42 bd 6a 85 71 3b
       0.0022991782 0.030144775 -0.04751877 0.0036853203
000250 92 bb 04 bd c1 fc b3 bc d8 15 bc 3c 65 83 16 3d
       -0.032405443 -0.021971108 0.022959635 0.0367464
000260 e8 3f 57 bd 17 dd 2a bd d5 23 03 bd 90 d7 a7 3c
       -0.05255118 -0.041714754 -0.032016594 0.02048853
000270 c6 67 17 3d bf b7 61 ba 25 a2 f2 bc 32 cc 5f bd
       0.0369642 -0.0008610449 -0.029618332 -0.054638095
000280 76 3a 80 bc 9b c6 58 bd ad 31 7c 3c 62 d6 28 bb
       -0.015652876 -0.05292378 0.015392703 -0.0025762548
000290 e0 e3 6b bc 89 4d 89 3d 68 32 87 bb b8 f5 bd 3c
       -0.014397591 0.06704242 -0.004125882 0.023188457
0002a0 16 53 18 bd 61 00 32 bd af 35 bf bc 72 05 e4 bc
       -0.037188612 -0.043457393 -0.023341028 -0.027834628
0002b0 cb 55 43 bd 9e 07 cf 3b 41 3b 74 bd 4c ab 05 bd
       -0.04768924 0.0063180467 -0.05962682 -0.032634065
0002c0 e4 88 ee bc f9 31 b1 bc 76 40 25 3d 30 71 a8 3c
       -0.029118009 -0.021630274 0.040344678 0.020561785
0002d0 e5 ab 69 3d af 10 08 bb c6 fc ab bd 60 3d 9b 3c
       0.057048697 -0.0020761897 -0.08397822 0.018950164
0002e0 90 9f 4e 3d d7 93 26 3d 9a af fd 3c d2 e4 1b bd
       0.05044514 0.040668335 0.030967522 -0.038060017
0002f0 93 dc 90 bc 6a f4 3f 3d 02 2a 31 bc 01 5e ca 3b
       -0.017683303 0.04686395 -0.010813238 0.006175757
000300 3a 89 7e 3d 56 e5 69 3c 69 d3 9a bc be 26 97 3c
       0.06214259 0.014275869 -0.018899636 0.01845109
000310 19 ac f1 3b 2e a6 e8 3c 70 49 c1 ba f9 0c 01 3d
       0.007375252 0.028399553 -0.0014746618 0.031506512
000320 bb fd 7c 3c 46 ba 16 bd 14 15 72 bd 86 72 47 bb
       0.015441353 -0.036798738 -0.059102133 -0.0030433252
000330 7c 29 7d 3d de 16 74 3b 31 b1 6d 3d ee f1 99 3c
       0.06180714 0.0037245075 0.05803031 0.018792119
000340 9c 3a 31 3d 9f c1 37 bd ac c7 89 3d 15 68 52 bc
       0.043268785 -0.044862386 0.067275375 -0.012842198
000350 7d ae 0d 3c f5 81 44 3d c3 7c 33 bc e4 7e 3c bd
       0.008647558 0.0479755 -0.0109550385 -0.04601945
000360 a1 4b 80 bb 1f 63 43 bd 44 85 4c bd 43 15 e2 3b
       -0.0039152657 -0.04770195 -0.04993178 0.0068995073
000370 bc ac a7 3c 1a 06 3a bd db 34 c8 3c 05 36 50 3d
       0.020468108 -0.045415975 0.024439266 0.050832767
000380 c5 78 29 3d 2c d6 a1 bd 10 20 ca 3c bd ea 14 3b
       0.04137494 -0.07902178 0.024673492 0.0022722923
000390 8c dd fb 3c f9 63 c8 3c af 33 66 3c e0 0c 67 bc
       0.03074529 0.024461733 0.014050408 -0.014102191
0003a0 72 72 50 3c da a4 7b 3d a2 8b 98 3d 2d 11 62 3d
       0.012722598 0.06143651 0.07448508 0.05519216
0003b0 e1 dd 8b bc 7c 1a ea 3c 9b 42 bd 3c f7 85 11 3d
       -0.017073574 0.028577082 0.023103049 0.03552815
0003c0 a8 79 bb 3a a2 5b 0f bd cd b8 28 3c 33 ff d2 3c
       0.0014303224 -0.034999497 0.010297966 0.025756454
0003d0 0e 13 f6 3c 24 74 87 3d b8 c1 bc bb a8 3d 1d 3c
       0.030038383 0.06613949 -0.0057603978 0.0095972195
0003e0 73 ea 31 bc 3b b9 26 bd fd 38 bb bd b1 1a 8e bc
       -0.01085912 -0.040703993 -0.09141729 -0.017346712
0003f0 df 60 a6 3d 18 ff 23 bd 7b 59 64 bb 27 91 01 3c
       0.081239454 -0.0400382 -0.0034843374 0.007908142

features.8.bias f4 [128]
000000 e2 62 d6 bb ce 7b 98 3b 0b 7a 0d 3c 53 86 35 3d
       -0.0065425495 0.0046534305 0.008635054 0.044317555
000010 2e 5b 3a 3d 4b 2e c2 3c c4 07 7e 3c 1b 27 9e bc
       0.045497112 0.023703715 0.015504781 -0.019305756
000020 25 24 6d bd 74 91 19 bc a0 9d d3 3c 53 1b ce 3c
       -0.0578958 -0.009373058 0.025831997 0.025159514
000030 f7 43 b5 bc 35 3e 24 bd ce 71 6d 3d ec f0 02 bd
       -0.022127135 -0.040098388 0.05796986 -0.031968042
000040 63 61 4d bc 12 49 4c 3d 4c 33 d3 bc a0 12 20 bd
       -0.012535426 0.049874373 -0.025781296 -0.039080262
000050 0d e9 36 bd 9d 75 16 bd ad c7 20 3d 5d 68 e8 3c
       -0.04465585 -0.03673326 0.039252926 0.028370077
000060 c5 5b 2e bd ec ed f2 3c 83 36 68 bd 79 57 6a 3c
       -0.042567987 0.029654466 -0.05669261 0.014303082
000070 f6 1e 28 3d ac f4 f5 3c 5e 10 f2 bb 91 2a ae b9
       0.04104515 0.030023895 -0.007387205 -0.0003321958
000080 e3 06 27 3d 87 52 17 bd a5 3f f5 bc 3b ff a8 3c
       0.040778052 -0.03694394 -0.029937575 0.020629516
000090 59 df a5 bc a0 83 35 3c cb 07 3a bc 70 ab 1e 3d
       -0.020248102 0.011078745 -0.011354397 0.038737714
0000a0 97 0e f1 bb a0 24 e2 bc 2c 6c f2 bc fa ae 27 3d
       -0.0073564756 -0.027605355 -0.029592596 0.040938355
0000b0 f3 a4 10 bd eb ff de bc b5 0f 47 bd 65 48 28 3b
       -0.035313558 -0.02722164 -0.048598964 0.0025677916
0000c0 42 51 02 bd 33 a4 ee 3c c4 25 a5 3c e3 4b 20 bc
       -0.031815775 0.02913103 0.02015961 -0.009783718
0000d0 64 89 4c bd 76 5e 7b bb 3e 91 d6 bc b6 0d 12 bd
       -0.049935713 -0.0038355864 -0.026192304 -0.035657607
0000e0 ba 53 2f 3b 5b db a6 3b 3f b3 0a bc e0 f4 8b bc
       0.0026752786 0.005092067 -0.008465587 -0.017084539
0000f0 58 0e 26 bd 9d c9 21 bd 8d 1f 95 bc 44 a4 0f bd
       -0.040541023 -0.039498914 -0.018203521 -0.035068765
000100 9d ed 33 bd d1 6d 48 3d 40 76 15 3d e0 c8 da bc
       -0.043927778 0.048932854 0.036489725 -0.026707113
000110 ef 9c 26 3d 16 54 07 bd 4f 6a 65 bd 6f a7 14 bd
       0.040677007 -0.033039175 -0.056009587 -0.03629249
000120 c8 9c 63 3d 0e 9d 81 3d 29 66 aa 3c 1b 32 0e bd
       0.05556944 0.06328784 0.020800667 -0.034715753
000130 76 3a c4 b9 ce 4a 2f 3c b3 d0 04 3d 2b 99 5f 3d
       -0.0003742759 0.010698987 0.032425594 0.05458943
000140 fd 62 82 bd ea 7f 43 3d e9 97 4c bc 91 a8 93 3c
       -0.06366537 0.04772941 -0.01248739 0.018024715
000150 e3 5a b7 3c b6 7c 02 3d ad 41 53 bc ff b5 4a bd
       0.022382205 0.031857215 -0.012894076 -0.04948997
000160 d6 85 cb bc 7c 5c 6c bc 33 40 f4 bc 49 00 0f bd
       -0.024844091 -0.014426347 -0.029815769 -0.03491238
000170 d4 ad 47 bd bd 50 2d 3d 55 d0 3b 3d a6 e9 5c bd
       -0.04874976 0.042313326 0.045852978 -0.053933762
000180 a7 31 e1 bb 58 5a 3a 3c 39 8e 1c bb 47 78 e3 3b
       -0.006872374 0.011374079 -0.0023888482 0.0069418284
000190 c0 ad 0b bd 3c 17 38 bb 65 5a 52 bc 49 4f 5f 3c
       -0.034101248 -0.002809002 -0.012838935 0.013629743
0001a0 f5 d9 54 3d b2 87 c2 3c 8f ff f9 3b 2c b2 23 bd
       0.051965673 0.023746345 0.007629342 -0.03996484
0001b0 bc 4b 38 bc 97 47 b2 bb e0 ff 1b bd 18 62 bc 3c
       -0.011248525 -0.005440663 -0.03808582 0.022995993
0001c0 6e 60 0b bd 54 27 ea 3b 3f 0e 8d bc 4e 9a 44 bd
       -0.03402751 0.0071458016 -0.017218707 -0.04799872
0001d0 cc 88 77 3d 27 33 05 bd 4b a8 bb bc 5d 51 4c bd
       0.060433194 -0.032519486 -0.022907397 -0.04988228
0001e0 16 65 e5 39 39 f4 14 bd 86 0f 5f bd 19 6a 01 3d
       0.000437536 -0.03636572 -0.054458164 0.031595323
0001f0 6a 26 15 bb c5 96 f1 3c f9 b6 5c 3b fa c8 c2 bc
       -0.0022758492 0.029490838 0.0033678396 -0.023777474

features.9.weight f4 [128]
000000 99 57 81 3f 65 91 72 3f a9 f7 7d 3f 65 fc 80 3f
       1.0104858 0.94753104 0.99206024 1.0077025
000010 cf 63 76 3f f8 bd 81 3f 64 36 76 3f 89 3a 81 3f
       0.96246046 1.0136099 0.96176744 1.0095989
000020 5d b8 82 3f 77 5a 77 3f 8a 4a 73 3f b0 d1 7f 3f
       1.0212513 0.96622413 0.9503561 0.9992933
000030 bc c0 77 3f 14 9d 81 3f f7 ae 73 3f 4b 64 80 3f
       0.96778464 1.0126061 0.9518885 1.0030607
000040 0a e0 6f 3f 2a 55 6e 3f 85 eb 71 3f af ce 80 3f
       0.9370123 0.930987 0.945 1.0063075
000050 48 cd 6f 3f fb 53 8b 3f 2a a8 83 3f a7 e6 7b 3f
       0.9367261 1.0885004 1.0285695 0.9839882
000060 82 ce 78 3f e2 3f 79 3f 88 6b 72 3f 51 63 7e 3f
       0.97190106 0.973631 0.9469533 0.99370295
000070 15 ac 77 3f 32 fa 76 3f 24 77 7d 3f 84 75 88 3f
       0.9674695 0.9647552 0.9900992 1.0660863
000080 14 42 74 3f d4 05 82 3f 22 75 83 3f 2c a6 75 3f
       0.9541333 1.0158029 1.0270121 0.95956683
000090 7c 11 79 3f 24 29 83 3f 6b a9 78 3f 03 fb 70 3f
       0.97292304 1.024693 0.9713351 0.94133013
0000a0 c3 8b 87 3f e9 3c 72 3f 0b e3 85 3f 55 20 82 3f
       1.0589527 0.9462419 1.0459913 1.0166117
0000b0 20 73 70 3f e9 49 76 3f e4 eb 8a 3f c9 eb 6b 3f
       0.93925667 0.9620653 1.0853238 0.92156655
0000c0 97 4f 74 3f 84 36 7b 3f 40 d5 7a 3f 44 d2 69 3f
       0.95433944 0.9813006 0.97981644 0.91336465
0000d0 bf f3 79 3f cd 13 84 3f 67 8a 73 3f 94 b1 83 3f
       0.9763755 1.0318543 0.9513306 1.0288568
0000e0 f1 4f 6c 3f e0 fd 85 3f a5 d4 7e 3f ef df 7a 3f
       0.9230948 1.0468102 0.9954322 0.97997946
0000f0 32 73 68 3f 60 20 7c 3f 54 5f 78 3f 99 62 76 3f
       0.90800774 0.984869 0.9702046 0.962442
000100 31 5a 7d 3f 78 cc 84 3f c4 1e 85 3f fb be 74 3f
       0.98965746 1.0374899 1.0400014 0.95603913
000110 c5 53 79 3f 38 10 83 3f 1b af 81 3f 64 53 85 3f
       0.9739345 1.0239325 1.0131563 1.0416074
000120 9e 18 8a 3f 7f 19 78 3f bc fc 70 3f b2 51 77 3f
       1.0788763 0.96913904 0.9413564 0.9660903
000130 8a 36 77 3f 6f b5 7a 3f 60 1a 7b 3f cf a4 7c 3f
       0.96567595 0.97933096 0.9808712 0.9868898
000140 1b 02 79 3f b6 a4 7f 3f 9b 03 84 3f 86 8e 81 3f
       0.9726884 0.99860704 1.03136 1.012162
000150 c5 da 85 3f 2e 7a 87 3f b8 b0 79 3f 94 9c 85 3f
       1.0457388 1.0584161 0.97535276 1.0438409
000160 55 c2 73 3f f1 9b 7c 3f 5e 4c 7b 3f ab e5 6d 3f
       0.952184 0.9867545 0.981634 0.9292857
000170 93 f4 82 3f 5a 0e 80 3f a8 be 84 3f af ea 80 3f
       1.0230888 1.000438 1.0370684 1.007162
000180 6f 9d 7b 3f de 08 78 3f b8 34 79 3f 7e 04 85 3f
       0.982871 0.9688853 0.9734607 1.0391996
000190 fe 81 81 3f e0 6f 80 3f ec f0 70 3f 1d f0 74 3f
       1.0117795 1.0034142 0.9411762 0.95678884
0001a0 1f 7f 73 3f 85 b3 76 3f 33 87 7e 3f 66 c9 6f 3f
       0.95115846 0.96367675 0.9942505 0.93666685
0001b0 91 b2 71 3f 81 c6 82 3f 22 28 71 3f e8 2d 73 3f
       0.94413096 1.0216829 0.9420186 0.9499192
0001c0 dd f0 6b 3f 33 94 8c 3f 1d eb 7d 3f c8 d1 85 3f
       0.92164403 1.0982727 0.9918688 1.0454645
0001d0 ca 46 85 3f 1f 8b 75 3f d2 20 70 3f 0b b1 7b 3f
       1.0412228 0.95915407 0.9380008 0.9831702
0001e0 97 d6 82 3f 6c 53 6c 3f 40 98 6d 3f e1 52 73 3f
       1.0221738 0.9231479 0.9281044 0.9504834
0001f0 c4 cd 78 3f 70 36 7e 3f a2 93 73 3f b0 8c 7e 3f
       0.97188973 0.99301815 0.95147145 0.9943342

features.9.bias f4 [128]
000000 3c 08 35 bd 85 74 58 bd f2 83 90 bc d4 e7 c8 bc
       -0.044197306 -0.052845497 -0.017641041 -0.024524607
000010 ee 51 68 bd 0b be c6 bd 06 52 1a bd b1 8d 55 bd
       -0.05671876 -0.097042166 -0.03767588 -0.05213708
000020 f2 18 41 bd 00 fd 96 bd 93 28 a0 bd d1 e7 a5 bd
       -0.04714293 -0.07372475 -0.07820239 -0.08100856
000030 ed 06 7a bd 69 4e 40 bc c9 65 be bd db 7f 86 bd
       -0.06104176 -0.011737444 -0.09296758 -0.06567355
000040 8b 3d 65 bd a0 17 a0 bd 46 13 2f bd ec 01 f4 bc
       -0.055966895 -0.07817006 -0.04274299 -0.029786073
000050 8f 06 d9 bd 67 cb 86 bd b2 4c 9a bb 1b 0f 5c bd
       -0.10596954 -0.06581765 -0.00470885 -0.053725343
000060 7f f8 e4 bd 5f be 97 bd a7 c3 96 bc 3c 62 4a bd
       -0.11180209 -0.07409357 -0.018403841 -0.04941009
000070 3b e1 d9 bd 7a af 03 be d6 1b 14 bd cc 06 f9 bd
       -0.106386624 -0.12859908 -0.03615936 -0.121594995
000080 b2 4b 49 bd 64 a9 b6 bd ae db b2 bc 43 c5 24 bd
       -0.049144454 -0.089190274 -0.021833267 -0.040227186
000090 45 37 9f bd 0b c8 9f bc 8e ba 26 bd 83 63 14 bd
       -0.07774214 -0.019504568 -0.040705256 -0.036227714
0000a0 42 a6 ff bc c6 09 d2 bc bd 4d b6 bd e9 ea 66 bd
       -0.031207208 -0.025639426 -0.08901546 -0.05637637
0000b0 fb c4 5a bd 74 2d 23 bd 6e 90 78 bd 27 b5 03 bd
       -0.05341051 -0.03983827 -0.060684614 -0.032155182
0000c0 cd 78 1e bd bb 9b b8 bd f6 df 78 bc ed e2 b0 bd
       -0.038689423 -0.09014078 -0.015190115 -0.08637033
0000d0 f6 3b 9f bd e8 55 65 bd c4 0c 06 bd c4 92 8d bd
       -0.077751085 -0.05599013 -0.032727018 -0.06912759
0000e0 58 b4 2d bd ff bc 77 bd 87 b5 17 bc 42 80 d9 bb
       -0.042408317 -0.060482975 -0.009259588 -0.006637604
0000f0 dd f2 9d bc 29 14 a0 bd 6f fa 19 bd 2b a1 e7 bd
       -0.019280845 -0.07816345 -0.037592348 -0.11310037
000100 34 52 26 bd cf 5f 23 bd 30 6f 4b bd d2 ae 60 bd
       -0.04060574 -0.039886292 -0.049666584 -0.05485422
000110 2b 82 82 bc b6 75 b5 3a 49 3e a3 bd 1a bc 49 bc
       -0.01593121 0.0013844285 -0.07970864 -0.012312913
000120 b5 bc 29 bd 9c 8e a8 bd 02 c1 66 bd 52 48 fc bc
       -0.04143973 -0.082303256 -0.05633641 -0.030796204
000130 df 73 5f bd 46 fa 44 bd 28 30 89 bc f3 55 91 bb
       -0.054553863 -0.04809024 -0.016746596 -0.004435295
000140 10 10 60 bd 32 6b 5d bd 09 26 e9 bd 7d 07 22 bd
       -0.05470282 -0.054057308 -0.11384208 -0.039557923
000150 a6 a7 d4 bc 7e 94 c7 bd 8c f6 34 bd 2a ff 9d bc
       -0.025958847 -0.097451195 -0.044180438 -0.01928671
000160 0f 12 85 bd 56 03 7f bd e9 7f 00 be b0 99 78 bd
       -0.06497585 -0.06225904 -0.12548794 -0.060693443
000170 59 59 23 bd 0d 86 3c bd e8 3a a9 bd 8d 38 e5 bc
       -0.03988013 -0.04602628 -0.082631886 -0.027981067
000180 8f 72 87 bd 34 14 45 bd 06 ad 13 bd cb 87 25 bd
       -0.06613647 -0.04811497 -0.03605368 -0.040412705
000190 e5 6b 33 bd 2a cb 1e b9 a3 ba a2 bd ca a4 88 bd
       -0.043804068 -0.00015143739 -0.079457544 -0.06672056
0001a0 b1 b3 c5 bd 78 02 da bd 81 e0 65 bd bd d9 38 bd
       -0.09653414 -0.10645002 -0.056122307 -0.045129526
0001b0 5a 5c c4 bd f0 7f 88 bd ad 2f 89 bd 1f 6c fb bc
       -0.09587927 -0.06665027 -0.066985466 -0.030691205
0001c0 01 5f b5 bc ef 9a d7 bd 16 80 50 bb d9 46 3d bd
       -0.022140028 -0.10527598 -0.0031814626 -0.046210144
0001d0 76 a7 06 bd a8 5f 40 bd c7 2a cd bc e6 39 e1 bc
       -0.032874547 -0.046966225 -0.025044812 -0.027493428
0001e0 33 c7 97 bd df d9 bb bd cb 72 e0 bd 33 fd 1c bd
       -0.07411041 -0.09172415 -0.10959395 -0.038327407
0001f0 9a 96 21 bd 39 96 20 bd e4 3c 18 bd d1 2a ef bd
       -0.039450265 -0.039205763 -0.037167445 -0.116780885

features.9.running_mean f4 [128]
000000 88 2c 99 3e d8 62 09 bf 2e cc 00 bf 16 9b bd be
       0.29916787 -0.5366645 -0.50311553 -0.37032384
000010 9d 3d 83 bf f0 dc d2 bd 66 93 0c 3f ce d9 ab 3d
       -1.0253178 -0.10296047 0.5491241 0.08391152
000020 a3 03 04 bc 2b d0 4e bf cf f9 96 bd 68 16 6c 3e
       -0.008057508 -0.8078639 -0.07371866 0.23055422
000030 63 ff e7 be 60 39 aa bf 35 9e 0b 3f 54 8c 32 3e
       -0.45312032 -1.329876 0.5453828 0.17436343
000040 76 d0 8b 3f 25 90 f9 be b8 df 33 be 6d 95 05 be
       1.0922992 -0.48742786 -0.1756581 -0.13045283
000050 20 ea a0 be 0b a6 8c bf c9 e9 7c 3d f2 e0 58 bf
       -0.31428623 -1.0988172 0.061746392 -0.8471824
000060 7c 28 e6 be d0 f8 23 b9 84 23 41 bf 5c 37 e0 be
       -0.44952762 -0.00015637581 -0.7544482 -0.43792236
000070 02 d3 68 3f 92 db 48 be 5a 27 87 bf 30 24 85 bf
       0.9094697 -0.1961501 -1.0558884 -1.0401669
000080 68 e9 aa 3e 3f 0d 9d be 70 51 3c be df cb f7 3e
       0.333812 -0.30674168 -0.18390441 0.4839773
000090 04 f5 f2 be 44 ce b7 bd 84 17 5c be ee a6 83 be
       -0.47452557 -0.08974889 -0.21493345 -0.25713295
0000a0 76 e5 64 bf f9 df 37 bf ee 60 0b bf 48 75 3c bd
       -0.8941263 -0.7182613 -0.5444478 -0.046010286
0000b0 44 fa 2f bf 75 14 46 be f5 a9 96 bf 4c f0 10 3f
       -0.6874125 -0.19343741 -1.1770617 0.56616664
0000c0 8e 31 f5 be fc fa 3a bf 91 89 6c be 4b c3 29 3f
       -0.4788937 -0.7303922 -0.23099352 0.6631362
0000d0 d5 d2 a5 bf 44 78 cc bc 20 ed 23 bf 02 86 40 bf
       -1.2954966 -0.02495969 -0.640337 -0.7520448
0000e0 73 2c 1d be 6f e9 8e bf 84 bd e6 bf 37 ed 86 bf
       -0.15348987 -1.1164988 -1.8026586 -1.0541142
0000f0 4e 97 ba 3c da bc b1 bf 1d ea de 3d 4d 78 1d bf
       0.022777226 -1.3885758 0.10884497 -0.6151169
000100 0e e9 f1 be f0 e2 2c 3d b7 77 d8 bf f1 7d 57 bf
       -0.4724812 0.042208612 -1.6911534 -0.84176546
000110 22 83 53 bf c3 a9 09 bf a2 58 4a 3c 2f 4b d9 be
       -0.8262197 -0.5377466 0.012350233 -0.42440173
000120 59 d4 1e be ec 82 56 3e 2a cd 97 3e 2b ac a0 bf
       -0.15510692 0.2094838 0.29648715 -1.2552541
000130 12 bf 77 bf a0 b4 41 bf ff 74 61 be 34 31 9b bf
       -0.96775925 -0.75666237 -0.22017287 -1.2124391
000140 aa 84 08 bf 04 d1 7f bf 23 e8 3a 3e 63 fd 02 3f
       -0.5332743 -0.9992831 0.18252616 0.5116789
000150 f2 10 11 3d cc 49 80 bf f4 5e 0e bf 36 ae e6 be
       0.03541655 -1.0022521 -0.55613637 -0.45054787
000160 a5 96 48 bf ba b1 77 bf 14 c0 95 be 58 83 06 bf
       -0.78354865 -0.96755564 -0.29248106 -0.52544165
000170 80 64 ba bf 14 a2 ac 3e da d5 9a 3e c0 65 65 bf
       -1.456192 0.33717406 0.3024128 -0.89608383
000180 2a 1c cc be 7f b8 1d be ab 5c 3f bf e6 b2 b8 be
       -0.39865237 -0.15402411 -0.74750775 -0.3607399
000190 78 59 72 bf 6c 0d fc bd 59 01 7d bf aa f9 e7 3e
       -0.9466777 -0.123072475 -0.9883018 0.45307666
0001a0 37 0b 4d bf 83 7d 7d 3e 44 b1 ce bf 7c 80 69 bd
       -0.8009524 0.2475491 -1.6147847 -0.057007298
0001b0 e0 6b 7f bf 63 30 52 3e a6 e0 65 be 62 f5 0e bf
       -0.9977398 0.2052627 -0.22448978 -0.55843174
0001c0 eb 0f 66 bf ec 6a 16 bf d3 89 14 bf 90 a8 c0 bf
       -0.8986804 -0.587569 -0.58022803 -1.5051441
0001d0 0c 69 95 bf 1e 5a 56 bf 60 50 c2 3e 19 7f 6e bf
       -1.1672683 -0.8373126 0.37951946 -0.93162686
0001e0 5f 77 fd 3d 93 c0 e7 be 2a b1 68 3f 83 1b 9a bf
       0.12376284 -0.4526411 0.9089533 -1.2039646
0001f0 5d 73 fb bf e3 b5 90 3d 90 1d 28 bf 27 7c a0 be
       -1.9644581 0.07065942 -0.6567011 -0.3134472
