experiment_testing/mz-testing/checkpoints/ptbxl/100hz/cnn1d/fold_2/last.pt (torch, 628765 bytes, 26 tensors)

features.0.weight f4 [32, 12, 7]
0	0xbd9d547b	-0.07682129
1	0x3b784725	0.0037884202
2	0xbd9eeb71	-0.07759751
3	0x3d9fb581	0.07798291
4	0xbdde39bf	-0.10850858
5	0xbd4ab011	-0.049484316
6	0xbe03c5b2	-0.12868384
7	0xbd59a770	-0.053138196
8	0xbd8650fa	-0.06558414
9	0x3d0b2613	0.033971857
10	0xbbdc23ce	-0.0067181354
11	0x3cdad747	0.02671398
12	0xbe0516c9	-0.12996973
13	0x3dadf4c6	0.084939525
14	0xbda5b7d5	-0.08091704
15	0x3d14576c	0.036216184
16	0xbd76ae4b	-0.060224812
17	0xbd956c9f	-0.072961085
18	0x3d6b8bb9	0.057506297
19	0xbdba2a30	-0.09090078
20	0x3dda5fc0	0.10662794
21	0x3c970c10	0.018438369
22	0x3a8f9fb2	0.0010957627
23	0xbd819ea9	-0.0632909
24	0x3d62dfe5	0.055389304
25	0x3e1a22f5	0.15052398
26	0x3d8d0bd8	0.06887025
27	0xbd508d3b	-0.050915938
28	0xbafddac8	-0.001936757
29	0x3cd32a64	0.02577705
30	0x3ca537b3	0.020168161
31	0x3d655dc3	0.05599762
32	0xbd91563a	-0.070965245
33	0x3dd8540d	0.105629064
34	0xbca21308	-0.019784465
35	0x3cb0e2db	0.021592548
36	0xbdda89ce	-0.106708154
37	0xbd104f40	-0.03523183
38	0x3d6c4c6f	0.05769008
39	0x3d3c095f	0.045907374
40	0xbda37475	-0.07981197
41	0xbd5a758c	-0.053334758
42	0xbc714b07	-0.014727361
43	0x3cd5bffb	0.02609252
44	0xbc23176f	-0.0099543175
45	0xbdda49c5	-0.10658602
46	0x3c901fd5	0.017593304
47	0x3e178ba7	0.14799367
48	0x3e29509e	0.1653466
49	0xbb9bfb98	-0.004760217
50	0x3c8d2c82	0.017233137
51	0xbcda198f	-0.026623515
52	0x3d19f032	0.037582584
53	0xbd9463c9	-0.07245595
54	0x3de7600f	0.112976186
55	0x3d2feb7c	0.042949185
56	0xbdcbe7d7	-0.09956329
57	0xbb9b10ee	-0.004732243
58	0x3c1d89a5	0.009615337
59	0xbda1f8d0	-0.07908785
60	0xbda6e2ab	-0.08148702
61	0x3bc74fdc	0.006082518
62	0xbcf07bdb	-0.029355934
63	0x3b7bba12	0.0038410467
64	0x3d33370b	0.043753665
65	0x3dc15e6a	0.09441836
66	0x3d1a6d5f	0.03770196
67	0x3c8be779	0.017078148
68	0xbd1e1582	-0.03859473
69	0x3d90f748	0.07078415
70	0x3ddc372b	0.1075271
71	0xbc798b2c	-0.015230935
72	0x3daf9d53	0.08574929
73	0xbddff016	-0.10934465
74	0x3d6a0b44	0.05713965
75	0xbdd82ea2	-0.105557695
76	0xbd6b0b5d	-0.057383884
77	0x3d938075	0.072022356
78	0x3dad16fa	0.08451648
79	0x3dc502f6	0.096197054
80	0xbc6fcefc	-0.014636751
81	0xbd78c968	-0.06073895
82	0xbe0da358	-0.13831842
83	0xbd45c890	-0.048286974
84	0x3d3b9e46	0.04580524
85	0x3df11bec	0.11772904
86	0x3d9b3e3e	0.07580231
87	0xbd9a2fab	-0.07528623
88	0x3d8e120b	0.06937035
89	0x3c117175	0.008877148
90	0x3da71683	0.08158591
91	0x3cc23ab3	0.02370963
92	0xbd973ae4	-0.07384279
93	0x3d332b65	0.043742556
94	0xbca7df35	-0.020492176
95	0xbd33f2b8	-0.043932647
96	0x3dcbb4e4	0.099466115
97	0x3ca50ab2	0.020146701
98	0x3d91eb9e	0.071250185
99	0x3da62e82	0.081143394
100	0x3d747819	0.059684847
101	0xbdc51b3b	-0.096243344
102	0x3dbf7a81	0.09349538
103	0xbda2bc29	-0.07946045
104	0x3b989a13	0.004657039
105	0x3cde64e5	0.02714772
106	0x3c096f86	0.008388406
107	0x3d92af55	0.07162348
108	0x3d4ce829	0.050026093
109	0xbd6f673d	-0.058448065
110	0xbbfc0c10	-0.0076918676
111	0xbd377919	-0.044793222
112	0x3d0b3c4d	0.033993054
113	0x3de9d807	0.11418157
114	0x3db08657	0.08619373
115	0x3d82f0a2	0.06393553
116	0x3ddb297e	0.107012734
117	0xbda354ce	-0.079751596
118	0xbcb70aa6	-0.022343945
119	0xbc9c4241	-0.019074561
120	0x370ac25a	8.270692e-06
121	0x3dbd9a94	0.09257999
122	0x3dc14e82	0.09438802
123	0xbc8f9771	-0.017528268
124	0x3d0c7419	0.034290407
125	0x3c8b76bb	0.017024389
126	0x3dc54100	0.096315384
127	0x3d00b7af	0.031425174
128	0x3d20c171	0.03924698
129	0xbce48c5e	-0.027898964
130	0xbd3cc5a8	-0.046086937
131	0xbdabdf7c	-0.08392236
132	0x3d977e15	0.07397095
133	0xbc3313eb	-0.010930042
134	0x3db63f88	0.088988364
135	0x3dab7291	0.08371461
136	0x3dd4b2a1	0.10385633
137	0x3d67c6e3	0.056586158
138	0xbd942357	-0.07233303
139	0x3c08548f	0.008320942
140	0x3d163343	0.03666998
141	0xbb01091c	-0.0019689268
142	0xbc157a76	-0.009123435
143	0x3d920d78	0.07131475
144	0xbbef8c4a	-0.007310425
145	0xbd61d639	-0.05513594
146	0xbb8ca6ff	-0.0042923684
147	0xbd080769	-0.033210192
148	0xbd8e6cda	-0.069543555
149	0xbd12bd63	-0.035825144
150	0x3b5ff1bf	0.0034171192
151	0xbd9f717f	-0.077853195
152	0x3da2bd80	0.079463005
153	0x3d9736a7	0.07383471
154	0x3d57f9f9	0.052728627
155	0x3d95ad81	0.07308484
156	0xbc560d63	-0.013064715
157	0xbd6cc25d	-0.057802547
158	0x3d8e24f2	0.069406405
159	0x3e0f63d9	0.14002933
160	0x3d97d2a4	0.074132234
161	0xbd3fe7c8	-0.046851903
162	0x3d6bfeb9	0.05761597
163	0xbbcbc674	-0.006218726
164	0x3d456b81	0.048198227
165	0xbb11a69d	-0.0022224553
166	0xbdb41c35	-0.087944426
167	0x3df66aff	0.12032127
168	0xbcf6290c	-0.03004887
169	0x3dc19c53	0.094536446
170	0xbdf810a1	-0.12112547
171	0x3d93cb26	0.07216482
172	0x3c0d5e88	0.008628495
173	0xbdba49c0	-0.09096098
174	0x3cea8796	0.028629106
175	0x3dbd1d46	0.09234099
176	0x3dc03fec	0.09387192
177	0xbd548f60	-0.051894546
178	0x3d2d3691	0.042288367
179	0xbd29c6ee	-0.04144948
180	0xbd74d721	-0.059775475
181	0xbdd3f02e	-0.10348545
182	0xbd42461f	-0.047430154
183	0xbc8e43f3	-0.017366385
184	0xbd0f03b5	-0.034915645
185	0x3dbb6453	0.09149995
186	0x3b81782c	0.003951093
187	0xbdaae443	-0.08344319
188	0xbc881103	-0.016609674
189	0xbdbf97e0	-0.0935514
190	0xbda80e70	-0.08205879
191	0xbc589529	-0.013219156
192	0x3cde3a5d	0.02712744
193	0x3c94beb1	0.018157335
194	0x3dac2605	0.08405689
195	0xbd3c2f22	-0.045943387
196	0xb937e344	-0.00017536903
197	0xbdbc1d31	-0.09185255
198	0x3dac5031	0.08413733
199	0xbd29c869	-0.04145089
200	0x3d575af5	0.052576978
201	0xbda35db4	-0.07976857
202	0x3d3604b2	0.04443807
203	0xbcb6eb1e	-0.02232891
204	0xbc38b6ee	-0.011274083
205	0x3daefcc1	0.08544303
206	0xbd184d98	-0.037183374
207	0x3c94990a	0.018139381
208	0x3b85dad9	0.0040849266
209	0xbdf88c33	-0.12136116
210	0xbd6cd547	-0.057820585
211	0xbc9f284c	-0.019428395
212	0x3cda56a1	0.026652636
213	0x3db0e8a9	0.086381264
214	0x3ada478d	0.0016653404
215	0x3d9a11e4	0.075229436
216	0x3d4d17ba	0.050071456
217	0x3d8e6b84	0.06954101
218	0xbd90b748	-0.07066208
219	0x3da9d09b	0.082917415
220	0x3d0ec6c4	0.034857526
221	0x3d303db3	0.04302759
222	0xbdbfaac7	-0.09358745
223	0xbd00a067	-0.03140297
224	0x3e0ef150	0.13959241
225	0xbdc631c2	-0.09677459
226	0xbc72ba74	-0.014814962
227	0x3d5e4c07	0.054271724
228	0xbdb601d2	-0.08887066
229	0xbd5f260a	-0.054479636
230	0x3ca44411	0.020051988
231	0xbcf02071	-0.029312344
232	0xbd30dd90	-0.04318005
233	0x3d9ca446	0.0764852
234	0xbccc8922	-0.024967734
235	0xbd8c5e72	-0.068539515
236	0x3d5aaa50	0.05338508
237	0x3da708ee	0.08156
238	0xbdb05b0b	-0.08611115
239	0xbdd7b5f2	-0.1053275
240	0x3dae2210	0.08502591
241	0xbcbad994	-0.022808827
242	0xbe0334ed	-0.12813158
243	0x3daa4a54	0.08314958
244	0x3d5db787	0.054130103
245	0xbce9feb8	-0.028563842
246	0xbd20ee1d	-0.039289583
247	0x3d956aa3	0.0729573
248	0x3d1e664e	0.038671784
249	0xbd0162da	-0.031588413
250	0x3c1793ac	0.009251516
251	0x3c979c45	0.018507132
252	0x3d03b9e4	0.0321597
253	0x3ddb40d5	0.10705725
254	0x3d60cd6c	0.054883406
255	0x3d9df530	0.077127814

features.0.bias f4 [32]
0	0x3da8c5d4	0.08240858
1	0xbd8b715c	-0.06808731
2	0xbdbd244f	-0.09235441
3	0x3d211a05	0.039331455
4	0x3d92ea3c	0.07173583
5	0xbdab2db8	-0.083583295
6	0xbd6f8067	-0.058472063
7	0xbdcbfc3d	-0.0996022
8	0xbca76499	-0.02043371
9	0xbe1112fa	-0.14167395
10	0x3dafef64	0.08590582
11	0xbc4e2208	-0.012581356
12	0x3d1047f6	0.035224877
13	0x3b92e70b	0.004483109
14	0x3c6b692f	0.014368339
15	0xbd98852f	-0.07447278
16	0xbcf180d5	-0.029480377
17	0x3da26aef	0.07930552
18	0x3d82ecf6	0.06392853
19	0x3d81850e	0.06324206
20	0xbd363042	-0.044479616
21	0xbd22ad38	-0.039715976
22	0x3d833051	0.064057
23	0x3dd7e191	0.1054107
24	0x3c77444a	0.015091965
25	0xbd50b8e9	-0.050957594
26	0xbc0ec4b2	-0.008713888
27	0x3dd0fda6	0.102046296
28	0x3e00bace	0.1257126
29	0x3d54ea44	0.051981226
30	0xbd9e59c9	-0.07731969
31	0xbda43953	-0.08018746

features.1.weight f4 [32]
0	0x3f7bd1c7	0.9836697
1	0x3f810109	1.0078441
2	0x3f823dde	1.017513
3	0x3f8235f9	1.0172721
4	0x3f7f13b8	0.99639463
5	0x3f8685e1	1.0509607
6	0x3f81361d	1.0094639
7	0x3f825b42	1.01841
8	0x3f77789a	0.966684
9	0x3f863105	1.048371
10	0x3f83f3e8	1.0308809
11	0x3f752051	0.95752436
12	0x3f7817b0	0.96911144
13	0x3f80b670	1.0055676
14	0x3f68386f	0.9071111
15	0x3f7e9c46	0.99457204
16	0x3f82a1af	1.0205592
17	0x3f81253f	1.0089492
18	0x3f812f00	1.0092468
19	0x3f83086e	1.0236948
20	0x3f828997	1.0198239
21	0x3f7e2e2c	0.992892
22	0x3f82805b	1.0195421
23	0x3f7763ca	0.9663664
24	0x3f75c836	0.9600862
25	0x3f84909d	1.0356632
26	0x3f800bf2	1.0003645
27	0x3f7b18ef	0.9808492
28	0x3f800b56	1.000346
29	0x3f7b3f4b	0.9814345
30	0x3f78c680	0.97177887
31	0x3f80fa11	1.0076314

features.1.bias f4 [32]
0	0xbbf5d12e	-0.007501743
1	0xbd39bb56	-0.045344673
2	0x3cfadc04	0.03062249
3	0x3cf2adf3	0.029623961
4	0x3c9d2f51	0.019187601
5	0x3d9a6f49	0.07540757
6	0xbceb8b33	-0.028752899
7	0xbc23e459	-0.010003173
8	0xbc68ffa6	-0.014221108
9	0x3ce0f15a	0.027458835
10	0x3d8e834a	0.06958635
11	0x3d01e577	0.031712975
12	0xbd399f74	-0.045318082
13	0x3be4c7ab	0.00698181
14	0xbd523eb5	-0.051329333
15	0x3bb485b9	0.005509105
16	0x3ddf3844	0.10899404
17	0x3caf459c	0.021395497
18	0x3c463d76	0.012099614
19	0x3db1c1fe	0.08679579
20	0x3cafc1f4	0.021454789
21	0x3c8aa1b0	0.016922802
22	0x3c889908	0.016674533
23	0x3c5e287a	0.013559455
24	0x3cffc5fa	0.031222332
25	0x3cf40dbd	0.029791707
26	0x3c6d0f60	0.014468998
27	0xbd0e151f	-0.03468811
28	0x3d47c48d	0.04877143
29	0xbd6704c5	-0.056401033
30	0x3d655e45	0.055998106
31	0x3d96f92a	0.07371743

features.1.running_mean f4 [32]
0	0x3da896f5	0.08231918
1	0xbd8b7d8a	-0.06811054
2	0xbdbd2536	-0.09235613
3	0x3d20ed31	0.039288703
4	0x3d92cc95	0.07167927
5	0xbdab5e9c	-0.08367655
6	0xbd6edd7b	-0.05831669
7	0xbdcbd289	-0.09952266
8	0xbca55730	-0.020183176
9	0xbe10ff2a	-0.14159837
10	0x3db04037	0.08605998
11	0xbc4ed780	-0.012624621
12	0x3d1011e0	0.035173297
13	0x3b8ed128	0.0043584295
14	0x3c6d32f4	0.01447748
15	0xbd98cf1c	-0.07461378
16	0xbcf124ac	-0.029436432
17	0x3da23dc2	0.079219356
18	0x3d8304af	0.06397378
19	0x3d817c26	0.063225076
20	0xbd3673ff	-0.044544216
21	0xbd23004a	-0.039795198
22	0x3d833578	0.06406683
23	0x3dd80f3d	0.105497815
24	0x3c7ab9f6	0.015303126
25	0xbd515e9d	-0.05111562
26	0xbc11e799	-0.008905315
27	0x3dd12d73	0.10213747
28	0x3e00a4d1	0.12562872
29	0x3d54d863	0.051964175
30	0xbd9e5b25	-0.07732228
31	0xbda429c5	-0.080157794

features.1.running_var f4 [32]
0	0x3f963bf0	1.1737041
1	0x3f18e94d	0.5973099
2	0x3e4b9c7a	0.1988391
3	0x3f31e403	0.69488543
4	0x3f52983d	0.8226355
5	0x3f4266f4	0.75938344
6	0x3efdcb5b	0.4956921
7	0x3f4a6ece	0.79075325
8	0x3f1e6a3a	0.6188084
9	0x3ef186d7	0.47173187
10	0x3f10b251	0.5652209
11	0x3f07d0f3	0.53053206
12	0x3f0ec29e	0.5576571
13	0x3f62e29e	0.8862704
14	0x3f322cbd	0.69599515
15	0x3f72a24b	0.9477889
16	0x3eb93601	0.36174014
17	0x3ed5fa3b	0.41792473
18	0x3ec2bfd2	0.38036972
19	0x3e9dc897	0.308171
20	0x3f2eb0c2	0.6823846
21	0x3ec23965	0.37934414
22	0x3ed47a42	0.41499525
23	0x3f1badb0	0.608119
24	0x3f21df24	0.6323111
25	0x3fe5fe1f	1.7968177
26	0x3f183f73	0.59471816
27	0x3f3806c1	0.71885306
28	0x3f72451f	0.9463672
29	0x3f375ab6	0.7162279
30	0x3f160f34	0.5861695
31	0x3f01ab99	0.5065246

features.4.weight f4 [64, 32, 5]
0	0x3ca65438	0.02030383
1	0x3c05e458	0.008172117
2	0x3b91460c	0.004433399
3	0xbbffbeb5	-0.0078047165
4	0x3c70fb7b	0.014708395
5	0x3cfad0aa	0.030617077
6	0xbdcb67ab	-0.099318825
7	0xbda4fb14	-0.08055702
8	0xbdb70aae	-0.08937584
9	0xbce5480d	-0.027988458
10	0x3bb98271	0.005661302
11	0xbd7b5f87	-0.0613704
12	0x3c762826	0.015024221
13	0x3d73a619	0.059484575
14	0xbcdb7979	-0.026791321
15	0xbd63ab1c	-0.055583104
16	0xbd2c62d7	-0.04208645
17	0xbd1c8708	-0.038214713
18	0xbd16784b	-0.036735814
19	0xbcce9b03	-0.0252204
20	0x3d85d3dd	0.0653455
21	0x3d1108a9	0.03540865
22	0x3d00f772	0.031485982
23	0x3d1c5d57	0.038174953
24	0xbd4fff01	-0.0507803
25	0x3ce9a26a	0.028519828
26	0x3dd54693	0.104138516
27	0xba61b76a	-0.00086103997
28	0x3d268257	0.040651646
29	0xbd152285	-0.036409874
30	0xbd4bce56	-0.049757324
31	0xbd48739f	-0.04893839
32	0xbdbaf761	-0.09129215
33	0x3d9db709	0.07700927
34	0xbdadbd9f	-0.08483433
35	0xbd71a9d1	-0.05899984
36	0xbcc41fa5	-0.02394087
37	0xbd5eb7af	-0.054374393
38	0xbd0fe12f	-0.03512686
39	0xbca59e51	-0.020217093
40	0x3d3da919	0.046303842
41	0x3d77cad3	0.060496163
42	0xbd1c1b70	-0.038112104
43	0xbc403140	-0.011730492
44	0xbce84d3c	-0.02835714
45	0xbd861ff6	-0.06549065
46	0xbd26df36	-0.040740214
47	0x3c8e6bb5	0.017385343
48	0x3d1b601f	0.037933465
49	0xbdb5c07b	-0.08874603
50	0xbccb738e	-0.024835374
51	0xbde743af	-0.112922065
52	0xbdf47235	-0.11935846
53	0x3ca89365	0.020578096
54	0xbcf74505	-0.030184278
55	0x3d1b5f7d	0.03793286
56	0xbdb4e437	-0.08832591
57	0x3cccd6e2	0.025004808
58	0xbc25d528	-0.010121621
59	0xbd159d9a	-0.036527254
60	0xbda1f712	-0.07908453
61	0x3c1e66e3	0.009668085
62	0x3d2b5051	0.041824643
63	0x3cbe78fa	0.023251045
64	0xbd084677	-0.033270326
65	0x3d16be03	0.036802303
66	0x3c31200e	0.010810865
67	0xbd28e0e8	-0.041230112
68	0x3ceb44ff	0.028719423
69	0xbd61ede5	-0.055158515
70	0xbc67f663	-0.014157864
71	0xbd30b9ad	-0.043145824
72	0x3b27c4ae	0.0025599408
73	0x3c03b9e4	0.008039925
74	0x3de5a30a	0.11212738
75	0xbd70d41b	-0.05879603
76	0x3bec2318	0.007206332
77	0xbbc15cb8	-0.0059009455
78	0xbd611160	-0.05494821
79	0x3d1049bc	0.03522657
80	0xbd90c7c6	-0.07069354
81	0x3d87bcec	0.06627831
82	0xbd1c7120	-0.038193822
83	0xbdbb94ca	-0.09159239
84	0x3b5ac39e	0.0033380757
85	0xbb5ceb0e	-0.003370944
86	0x3d3e7818	0.04650125
87	0x3bbbc85e	0.0057306727
88	0xbd55e494	-0.052219942
89	0xbcb5b9fa	-0.022183407
90	0x3e0d9b6e	0.13828823
91	0x3dfe4de6	0.12417202
92	0x3bf3a8ee	0.0074359095
93	0xbd62cd23	-0.055371415
94	0xbd49c845	-0.049263258
95	0x3d51c0fe	0.051209442
96	0x3c3cca90	0.011522904
97	0xbd6eaaa1	-0.058268193
98	0xbd35a2fc	-0.044344887
99	0x3c6d0533	0.014466572
100	0xbd3ed4b2	-0.04658956
101	0x3d3ec451	0.04657394
102	0x3d114b0a	0.035471953
103	0x3d563a46	0.052301668
104	0xbd6ce687	-0.057837036
105	0xbd2ec634	-0.04266949
106	0x3d84e683	0.06489279
107	0x3dda9b1b	0.10674115
108	0x3db79b0f	0.08965122
109	0x3c55a21f	0.013039141
110	0x3ca04a1c	0.019566588
111	0xbd824b89	-0.063620634
112	0xbd2c3737	-0.042044844
113	0xbca5a490	-0.020220071
114	0xbdde0f19	-0.108427234
115	0xbd65c51b	-0.056096178
116	0xbd33cfbf	-0.043899294
117	0xbc0d6b6c	-0.008631568
118	0x3d07573a	0.03304217
119	0xbd5caaf5	-0.053873975
120	0x3b54c5b9	0.0032466485
121	0x3ca43dcd	0.020049
122	0x3c8fd74a	0.017558713
123	0xbdc21691	-0.094769605
124	0x3ca9061a	0.020632792
125	0x3d9e0a94	0.07716861
126	0xbc092402	-0.008370401
127	0xbd68540f	-0.05672079
128	0xbdc4bbb8	-0.09606117
129	0xbdc79ac2	-0.097463146
130	0x3d7f2a5c	0.062296256
131	0xbc80e82e	-0.015735712
132	0x3da47e17	0.08031862
133	0xbcba1a0a	-0.022717495
134	0xbb1ccc4e	-0.0023925486
135	0xbd199847	-0.03749874
136	0xbd31587f	-0.043297287
137	0x3c2c9593	0.010533708
138	0x3d931e83	0.07183554
139	0x3ca6ffbb	0.020385614
140	0xbdc2b704	-0.09507564
141	0xbc318d12	-0.010836856
142	0xbd6e648d	-0.05820136
143	0x3ae63c77	0.0017565627
144	0xbc9e5028	-0.01932533
145	0xbb2f2e9e	-0.0026730667
146	0x3d8310ae	0.06399666
147	0xbdb6a2a9	-0.08917744
148	0x3d4de03e	0.050262682
149	0x3baaf36c	0.0052170064
150	0x3cdbe2a9	0.026841478
151	0xbc9c71b9	-0.019097196
152	0xbd4abe23	-0.049497735
153	0xbd8bdf76	-0.06829731
154	0x3dc62e00	0.096767426
155	0x3b32b478	0.0027268212
156	0x3be11dc1	0.006870002
157	0xbc118910	-0.008882776
158	0xbc2c5c74	-0.010520089
159	0x3d529fc8	0.05142191
160	0xbd7781c3	-0.060426485
161	0xbd34e97c	-0.04416798
162	0xbc93107f	-0.017952202
163	0x3c8e9b19	0.01740794
164	0xbd98f4ee	-0.07468592
165	0x3c9c1ed1	0.019057663
166	0xbd13de74	-0.03610082
167	0xbc5c9deb	-0.013465385
168	0x3d5cae38	0.053877085
169	0x3d1e478b	0.038642447
170	0x3b9677d3	0.004591921
171	0x3cae5818	0.02128224
172	0xbd923fd6	-0.07141082
173	0x3dba4cef	0.09096705
174	0x3dca15cd	0.098674394
175	0xbe01d8d6	-0.12680373
176	0x3d1fb8d0	0.03899461
177	0x3bad6587	0.005291644
178	0xbd4e04e4	-0.050297633
179	0x3dc3e46a	0.09565051
180	0xbd93eb5b	-0.07222625
181	0x3d053193	0.03251798
182	0xbbf11ba4	-0.0073580313
183	0xbd0342de	-0.03204619
184	0x3c850172	0.01623604
185	0xbd90d314	-0.0707151
186	0xbdbb348f	-0.09140884
187	0xbca84912	-0.020542655
188	0xbd1a4a56	-0.03766855
189	0x3ca1c0da	0.01974528
190	0xba1a0c9a	-0.00058765116
191	0x3dcf3ad7	0.10118645
192	0xbc0794dc	-0.008275237
193	0x3d3d2d92	0.046186037
194	0x3c8f5dd5	0.017500797
195	0xbdd16129	-0.1022361
196	0xbdacb69d	-0.08433268
197	0xbd6cb1ae	-0.057786636
198	0xbcad029b	-0.021119406
199	0xbd1766dd	-0.036963332
200	0x3d165a06	0.036706947
201	0x3d264e44	0.040601984
202	0x3b8bbc3e	0.0042643836
203	0x3d545469	0.051838312
204	0x3d80cab6	0.06288664
205	0x3ceb5960	0.02872914
206	0x3b4d89ee	0.003136273
207	0x3d7794a4	0.06044449
208	0xbb12b5b6	-0.002238614
209	0x3d8e3712	0.069440976
210	0xbcde8717	-0.027164025
211	0x3c6a482e	0.014299436
212	0xbd46c3c8	-0.048526555
213	0x3cc0fe60	0.023558795
214	0xbcb8ed23	-0.022574013
215	0x3d14665d	0.036230434
216	0x3d7e3f21	0.062071923
217	0x3de674c0	0.11252737
218	0x3cb1bb73	0.021695828
219	0x3d652d7e	0.055951588
220	0xbd87eefd	-0.0663738
221	0x3b8b390e	0.004248745
222	0xbcae7c60	-0.021299541
223	0x3d5bc918	0.053658575
224	0x3d7a6175	0.0611281
225	0xbd9c52bf	-0.0763297
226	0xbcd0c9e1	-0.025486888
227	0x3bb7846b	0.0056005022
228	0x3d9c89de	0.076434836
229	0xbb3d00d6	-0.002883961
230	0xbd7ce870	-0.061745107
231	0xbd49698c	-0.049172923
232	0x3c117581	0.008878113
233	0xbd5ea8f3	-0.05436034
234	0xbc17b651	-0.009259776
235	0xbcfa6d2d	-0.030569637
236	0xbd28024e	-0.041017823
237	0x3d8cf634	0.06882897
238	0xbd7651a3	-0.06013645
239	0x3d5bc1f5	0.05365177
240	0x3db3535b	0.08756133
241	0xbd3ac7c8	-0.045600682
242	0x3dacdda0	0.08440709
243	0x3dae602e	0.085144386
244	0x3d1eaec8	0.038740903
245	0xbd9ec25a	-0.07751913
246	0x3d44dd45	0.04806258
247	0x3d9731c0	0.07382536
248	0xbba31c81	-0.004977763
249	0x3dc3a65e	0.095532164
250	0xbd200383	-0.03906585
251	0xbdf7c1cf	-0.12097513
252	0xbdbc5531	-0.091959365
253	0xbd7471b1	-0.059678737
254	0x3c6486b3	0.01394813
255	0x3d555c7c	0.052090153

features.4.bias f4 [64]
0	0xba8257fb	-0.0009944433
1	0xbd5cf533	-0.053944778
2	0x3d397072	0.04527325
3	0xbcd46e72	-0.02593157
4	0xbc9ef8b1	-0.019405695
5	0x3d87dfbd	0.066344716
6	0x3cc4e89f	0.024036704
7	0xbc23bbe0	-0.009993523
8	0xbd9241d7	-0.07141464
9	0x3cd53fd8	0.02603142
10	0x3ce5c355	0.028047243
11	0xbd5a48c0	-0.053292036
12	0xbd19aaf4	-0.03751655
13	0xbba2471b	-0.004952324
14	0x3d74df9f	0.059783574
15	0xbaf597ff	-0.0018737315
16	0x3a8a4cca	0.0010551449
17	0x3d294dd0	0.041333973
18	0xbd738957	-0.05945715
19	0x3c841b5c	0.016126327
20	0x3db666d5	0.089063324
21	0x3c52b137	0.012859634
22	0x3cf202ff	0.029542444
23	0xbb366c98	-0.0027835723
24	0x3ce6996d	0.028149331
25	0x3d8f754c	0.070047945
26	0x3c3f367e	0.011670707
27	0x3d85dec5	0.065366305
28	0x3c8f3b2b	0.017484268
29	0xbd2721c0	-0.04080367
30	0x3d16f066	0.036850356
31	0x3d8addb8	0.06780571
32	0x3dc97680	0.09837055
33	0xbd649f8d	-0.055816222
34	0xbd4af15f	-0.049546596
35	0x3d2b911e	0.04188644
36	0x3d663eb7	0.056212153
37	0xbcc52abd	-0.02406823
38	0xbba4263b	-0.0050094402
39	0xbcf6f0aa	-0.030144054
40	0xbd2f3f50	-0.04278499
41	0xbd37df9a	-0.044890977
42	0xbd5531f0	-0.052049577
43	0x3d91b8ed	0.0711535
44	0xbd853637	-0.06504481
45	0x3ab0ee13	0.0013498686
46	0x3d438838	0.04773733
47	0x3d5a187b	0.053246003
48	0x3d98b68b	0.07456692
49	0x3c8fa792	0.017535958
50	0xbd939569	-0.07206232
51	0xbd9beb14	-0.07613197
52	0xbd7f2f7e	-0.06230115
53	0xbd61b127	-0.055100586
54	0xbd031569	-0.03200284
55	0xbd26f772	-0.040763326
56	0xbd41cf66	-0.04731693
57	0x3cb7a73d	0.022418613
58	0xbd299580	-0.04140234
59	0x3c5de6cc	0.013543796
60	0x3d1e50fb	0.038651448
61	0xbdb5d3dc	-0.088782996
62	0xbd9bc721	-0.0760634
63	0x3d2987e9	0.04138938

features.5.weight f4 [64]
0	0x3f8a4cec	1.0804725
1	0x3f8211f4	1.0161729
2	0x3f6badcb	0.9206206
3	0x3f73c861	0.9522763
4	0x3f838850	1.0275974
5	0x3f7716e2	0.9651929
6	0x3f82e769	1.0226871
7	0x3f76bdf6	0.9638361
8	0x3f7ed2ae	0.9954022
9	0x3f824f48	1.0180445
10	0x3f824cf4	1.0179734
11	0x3f827188	1.0190897
12	0x3f79ea79	0.976234
13	0x3f73c5b6	0.9522356
14	0x3f6d0ad4	0.9259465
15	0x3f827d7a	1.0194542
16	0x3f83f02f	1.0307673
17	0x3f757c68	0.95892954
18	0x3f6e9526	0.9319633
19	0x3f86863c	1.0509715
20	0x3f7eabca	0.9948088
21	0x3f7d43b2	0.9893142
22	0x3f82688e	1.0188158
23	0x3f8dbb8d	1.1072861
24	0x3f85d8ce	1.0456789
25	0x3f77f1b8	0.9685321
26	0x3f86f041	1.054207
27	0x3f6eaff8	0.93237257
28	0x3f87c707	1.0607613
29	0x3f725ab5	0.9466966
30	0x3f7d000b	0.9882819
31	0x3f8149fc	1.0100703
32	0x3f80af1d	1.005344
33	0x3f7b01f9	0.98049885
34	0x3f7f9590	0.9983759
35	0x3f802138	1.0010138
36	0x3f7eeaaa	0.9957682
37	0x3f832eb3	1.0248626
38	0x3f774033	0.96582335
39	0x3f9417f4	1.156981
40	0x3f867d1b	1.0506929
41	0x3f7fd900	0.9994049
42	0x3f76b6fe	0.96372974
43	0x3f703c82	0.9384233
44	0x3f82f1ec	1.0230079
45	0x3f8559a3	1.041798
46	0x3f817ee9	1.0116855
47	0x3f78a681	0.97129065
48	0x3f7d8bbb	0.99041337
49	0x3f81099f	1.0081061
50	0x3f80f733	1.0075439
51	0x3f7214bb	0.9456288
52	0x3f6d7c3b	0.92767686
53	0x3f75fd45	0.96089584
54	0x3f7f5b4e	0.99748695
55	0x3f77c0e1	0.96778685
56	0x3f84fc0e	1.0389421
57	0x3f78c172	0.97170174
58	0x3f82822f	1.0195979
59	0x3f8555a5	1.0416762
60	0x3f833b8a	1.0252545
61	0x3f7dff20	0.99217415
62	0x3f87caf4	1.0608811
63	0x3f811338	1.008399

features.5.bias f4 [64]
0	0x3c87953b	0.01655065
1	0xbd104271	-0.035219613
2	0xbd56518e	-0.05232387
3	0xbd5d64d1	-0.054051224
4	0xbc13e53e	-0.009026824
5	0xbd90a8e6	-0.07063465
6	0xbc297e6e	-0.010345085
7	0xbc2e1872	-0.010625945
8	0x3cdafc84	0.026731737
9	0x3c21ab40	0.009867489
10	0x3c85598c	0.01627805
11	0x3cb8c5d9	0.022555279
12	0xbbcf3da2	-0.006324486
13	0xbd2d93b1	-0.042377178
14	0xbd3e2c40	-0.04642892
15	0x3cb0df73	0.021590924
16	0xbd0490b4	-0.032364562
17	0xbd2c0e85	-0.042006034
18	0xbda46fad	-0.08029113
19	0xba7588c2	-0.0009366387
20	0xbcd63e40	-0.02615273
21	0xbd257bf6	-0.04040142
22	0xbcc29324	-0.023751803
23	0xbabe61a9	-0.0014524955
24	0xbbe1cbef	-0.006890766
25	0xbd5904d9	-0.05298314
26	0x3dae5f00	0.085142136
27	0xbd0c31b8	-0.034227103
28	0xbd635bc5	-0.05550744
29	0xbd862c7b	-0.06551453
30	0xbd811fb3	-0.06304874
31	0xbbf96998	-0.0076114647
32	0xbced7843	-0.02898801
33	0xbd1f5da2	-0.038907655
34	0xbbc9abc3	-0.006154509
35	0x3c81a639	0.015826331
36	0xbd259467	-0.04042473
37	0xbd067496	-0.03282603
38	0x3d286d56	0.041119896
39	0x3c97d5e1	0.018534603
40	0x3c49644b	0.012291978
41	0xbd07317f	-0.033006188
42	0xbca11b1e	-0.01966625
43	0xbc819dfe	-0.015822407
44	0xbb271014	-0.002549176
45	0xbd167fbf	-0.036742922
46	0xbc153806	-0.009107595
47	0xbd21ff5b	-0.039550167
48	0x3cb46897	0.022022529
49	0x3d053cdd	0.032528747
50	0xbcc3dad2	-0.023908053
51	0xbd0027f5	-0.031288106
52	0xbd089dff	-0.0333538
53	0xbd96e537	-0.07367938
54	0xbcf27419	-0.029596375
55	0xbd00b302	-0.031420715
56	0x3d190551	0.037358586
57	0xbdac1828	-0.08403045
58	0xbd5e1319	-0.05421743
59	0xbcfe5193	-0.031044757
60	0xbcaeea07	-0.021351827
61	0xbb93e4e1	-0.0045133685
62	0x3d2a1b4b	0.041529935
63	0xbd38fbf9	-0.045162175

features.5.running_mean f4 [64]
0	0xbf0f6580	-0.5601425
1	0xbbd466b3	-0.0064819693
2	0xbe5115ac	-0.20418423
3	0xbed11568	-0.40836644
4	0xbe5b6680	-0.2142582
5	0x3f992750	1.1965122
6	0xbe6587e4	-0.2241512
7	0x3e5d234c	0.21595496
8	0xbf143bef	-0.5790395
9	0xbdfdf9a6	-0.12401132
10	0xbebd5581	-0.36979297
11	0xbea49dd4	-0.32151663
12	0xbebec50f	-0.3725972
13	0xbd23be38	-0.03997633
14	0x3e0db497	0.13838421
15	0xbed5452b	-0.41654333
16	0xbdaf2c4c	-0.08553371
17	0x3f5d84a8	0.8653054
18	0x3ef69524	0.4816066
19	0xbf12394e	-0.5711869
20	0xbe778334	-0.24171144
21	0xbea5c6db	-0.32378277
22	0xbee70508	-0.45121026
23	0xbf09dd62	-0.5385343
24	0xbe925913	-0.28583583
25	0xbe31f17c	-0.17377275
26	0xbe9ffb73	-0.31246528
27	0x3f1b87bd	0.60753995
28	0xbde850d7	-0.11343544
29	0xbde5b1b1	-0.112155326
30	0x3f17412d	0.59083825
31	0xbeace680	-0.33769608
32	0xbf37fc0f	-0.71868986
33	0xbe9eefdd	-0.31042376
34	0x3cff338f	0.031152515
35	0xbe9b9228	-0.30384946
36	0x3ec3fc67	0.38278505
37	0xbf3ec1ed	-0.7451466
38	0x3c2bb51f	0.010480194
39	0xbea024fc	-0.31278217
40	0xbf2bf7e0	-0.671751
41	0xbf1a2436	-0.60211504
42	0xbf036dc0	-0.5133934
43	0xbea50fcb	-0.32238612
44	0xbe9ad04b	-0.3023704
45	0xbe8ef7d8	-0.27923465
46	0xbea4a175	-0.32154432
47	0x3e9083ec	0.28225648
48	0xbd5bbd06	-0.053647064
49	0xb9d98278	-0.00041486672
50	0xbea0f8db	-0.31439862
51	0xbf07d70c	-0.5306251
52	0x3eee637b	0.46560273
53	0x3eb0f2c2	0.3456021
54	0xbf045b7b	-0.5170209
55	0xbe9c8d27	-0.3057644
56	0xbea4487e	-0.32086557
57	0xbed5e12a	-0.4177335
58	0xbd0da3be	-0.034579985
59	0xbf122977	-0.5709452
60	0xbe3b1194	-0.18268424
61	0xbe4a8a63	-0.19779353
62	0xbe7aa0f4	-0.24475461
63	0xbe28fe62	-0.1650329

features.5.running_var f4 [64]
0	0x3ec2c180	0.38038254
1	0x3ec11c02	0.3771668
2	0x3e9cea58	0.3064754
3	0x3ee48ba4	0.44637787
4	0x3eca3df7	0.395004
5	0x3f92e81f	1.1477088
6	0x3e65adf5	0.2242964
7	0x3f00e703	0.50352496
8	0x3eb4c770	0.3530841
9	0x3eeaab5a	0.45833856
10	0x3edc9e54	0.43089545
11	0x3f00cd6a	0.50313437
12	0x3ede6a67	0.43440554
13	0x3f2b0136	0.6679872
14	0x3ecd86f6	0.4014203
15	0x3ebeff6b	0.37304243
16	0x3e650090	0.22363496
17	0x3f1c0375	0.60942775
18	0x3f198113	0.59962577
19	0x3f0f07f1	0.5587149
20	0x3f17a95e	0.5924281
21	0x3ebe494d	0.371653
22	0x3eb9d0ed	0.3629221
23	0x3ee8f31f	0.45497987
24	0x3e4725c5	0.19448002
25	0x3e98a9a3	0.29816923
26	0x3e8cd83c	0.27508724
27	0x3f02b7de	0.5106181
28	0x3e8b0a84	0.2715646
29	0x3eb8239b	0.35964665
30	0x3f67f4d3	0.9060795
31	0x3f0767d3	0.528928
32	0x3f214fd2	0.6301242
33	0x3eb90a5d	0.3614072
34	0x3f186f03	0.5954439
35	0x3ea0a8e6	0.3137886
36	0x3ed491c0	0.41517448
37	0x3f6536d9	0.89536816
38	0x3e83dea2	0.25755793
39	0x3e64f7b9	0.22360124
40	0x3f64a805	0.8931888
41	0x3f074ba6	0.52849805
42	0x3f3404f5	0.70320064
43	0x3f3db6ac	0.7410686
44	0x3e403fa7	0.18774281
45	0x3ea40378	0.32033896
46	0x3f10b38f	0.56523985
47	0x3f13c8fd	0.5772856
48	0x3e70ae48	0.23503983
49	0x3e3aa645	0.1822749
50	0x3ec6a25c	0.38795745
51	0x3eb4b7a3	0.35296354
52	0x3ebca924	0.36847794
53	0x3ed2693c	0.41095912
54	0x3eda7267	0.42665407
55	0x3f22198a	0.6332022
56	0x3e62d1fb	0.22150414
57	0x3efc64f2	0.49295765
58	0x3e7960b0	0.2435329
59	0x3eaa4ff1	0.33264115
60	0x3f13ff08	0.5781102
61	0x3edc09e4	0.42976296
62	0x3e66b80b	0.22531144
63	0x3e9451db	0.289687

features.8.weight f4 [128, 64, 5]
0	0xbd8800b1	-0.06640757
1	0x3dc2e86d	0.09516988
2	0xbc9f9870	-0.019481868
3	0xbcaacccd	-0.02084961
4	0x3d903f9a	0.07043381
5	0x3d49e3d8	0.049289554
6	0xbcdb0f00	-0.026740551
7	0x3d8813a5	0.06644372
8	0xbcbd3ef3	-0.023101306
9	0x3bbecdc9	0.0058228713
10	0x3b183f3d	0.0023231052
11	0x3c868910	0.016422778
12	0x39ab2542	0.0003264342
13	0xbcce64b0	-0.025194496
14	0x3d2ebc23	0.04265989
15	0x3d5749ac	0.052560493
16	0xbd33a578	-0.043858975
17	0x3d451a4b	0.048120778
18	0x3c3999c6	0.011328166
19	0x3bd16ba2	0.0063910047
20	0xbda9b69e	-0.082867846
21	0x3d4275b6	0.04747554
22	0x3d0b2260	0.03396833
23	0x3d5b96c4	0.05361058
24	0xbbc035d7	-0.005865793
25	0x3d2a21fb	0.041536313
26	0xbcbb4142	-0.022858266
27	0x3d159075	0.036514718
28	0x3d01442b	0.03155915
29	0xbcf00b8a	-0.029302377
30	0xbd32dfd1	-0.04367048
31	0x3d0ba647	0.03409412
32	0xbd1462fc	-0.03622721
33	0x3c719ee0	0.014747351
34	0xbc806eae	-0.015677776
35	0xbbf5a066	-0.0074959276
36	0xbc5735cd	-0.013135386
37	0x3c1f3cc4	0.0097190775
38	0xbb3b6c00	-0.0028598309
39	0x3d2260ab	0.03964297
40	0x3d515266	0.051103972
41	0x3b872cf9	0.004125234
42	0xbd209df6	-0.039213143
43	0xbd0b88fc	-0.034066185
44	0x3cb72276	0.0223553
45	0x3d42c450	0.0475505
46	0xbd8e9916	-0.069627926
47	0x3d11f2c0	0.035631895
48	0x3d878255	0.06616656
49	0xbcb9e6e1	-0.0226931
50	0xbc8868df	-0.016651569
51	0xbd98cf2e	-0.074613914
52	0x3d544eca	0.05183295
53	0x3d02fef4	0.031981423
54	0x3d708a4b	0.058725636
55	0x3cefe35d	0.02928322
56	0xbd02aa27	-0.03190055
57	0x3d3aadd4	0.04557593
58	0x3ce96ff7	0.028495772
59	0xbc035d56	-0.0080178585
60	0x3db706e4	0.08936861
61	0xbc11b6b8	-0.008893661
62	0xbd272f98	-0.040816873
63	0xbbb4d472	-0.0055184895
64	0x3c205754	0.009786446
65	0x3c841564	0.016123481
66	0x3c3b43fa	0.011429781
67	0xbcf1d499	-0.02952032
68	0x3cdad4eb	0.026712855
69	0xbd29c70e	-0.0414496
70	0xbc0112d1	-0.007878021
71	0xbca92f9f	-0.02065259
72	0xbc93cad5	-0.018041054
73	0xbc728154	-0.014801342
74	0x3cce8a79	0.025212513
75	0x3d950c48	0.07277733
76	0x3d500298	0.050783724
77	0xbd8e874f	-0.06959402
78	0x3cdac574	0.026705481
79	0x3cd7a378	0.026323065
80	0x3c9767be	0.018482085
81	0x3d689e56	0.056791626
82	0xbdce0785	-0.10060028
83	0x3b2a27af	0.0025963595
84	0x3d396e17	0.045271005
85	0x3c30c614	0.010789413
86	0xbd7e517f	-0.06208944
87	0x3c5c5c14	0.0134496875
88	0x3d6f6336	0.058444224
89	0xbd1b6fbc	-0.037948355
90	0xbcdafea9	-0.02673276
91	0xbcf69c32	-0.030103777
92	0x3d700f73	0.058608484
93	0xbc389f17	-0.011268399
94	0xbc8e1d17	-0.017347855
95	0xbc36788b	-0.011137138
96	0x3d2d852f	0.042363342
97	0x3d11fd46	0.03564193
98	0x3c028b34	0.007967759
99	0xbc1f3ba4	-0.009718809
100	0xbd8e14b4	-0.069375426
101	0xbd67108c	-0.056412265
102	0x3c8b50a3	0.017006224
103	0x3cae89fc	0.02130603
104	0xbd0e7343	-0.03477789
105	0xbb34151c	-0.0027478402
106	0x3d7678bc	0.060173735
107	0x3c1d8bc1	0.009615839
108	0x3a45c670	0.0007544523
109	0xbb705cbe	-0.0036676372
110	0xbd65abda	-0.056072094
111	0x3d1c9b09	0.03823379
112	0xbc6ce950	-0.014459923
113	0xbcf9254f	-0.030413298
114	0x3d360719	0.044440363
115	0xbcd96f4e	-0.026542332
116	0x3da8a480	0.08234501
117	0x3b01cea6	0.001980701
118	0xbc8fb7ce	-0.0175437
119	0xbc3304eb	-0.0109264655
120	0x3cb3f14d	0.021965647
121	0xbc93a0ef	-0.018021075
122	0x3d79c8e2	0.060982592
123	0x3c510f1c	0.01275995
124	0xbc9b455c	-0.018953972
125	0xbc7e6f1c	-0.01552942
126	0xbd3fb9ad	-0.046807934
127	0x3d5448a9	0.051827107
128	0x3cd13abd	0.025540704
129	0xbd743812	-0.059623785
130	0xbc91f620	-0.017817557
131	0xbb15c015	-0.0022850086
132	0xbc357253	-0.01107462
133	0x3c209f29	0.009803572
134	0xbb3b478a	-0.0028576576
135	0x3cbf90f4	0.023384549
136	0x3cf4d511	0.029886754
137	0xbd80a590	-0.062815785
138	0xbb8983be	-0.004196613
139	0x3caf540b	0.02140238
140	0x3cd71373	0.026254391
141	0x3d4508d4	0.048104122
142	0xbc8f59dd	-0.017498905
143	0xbb1eab1a	-0.0024210871
144	0x3c943838	0.018093213
145	0x3d379b06	0.044825576
146	0xbd46163a	-0.04836104
147	0x3bff4fd8	0.0077915005
148	0xbcf95bc9	-0.030439274
149	0xbc766092	-0.015037673
150	0x3cad4564	0.021151252
151	0x3d221c32	0.03957767
152	0xbd4532b6	-0.048144065
153	0xbd118ffb	-0.0355377
154	0xbcbfc1de	-0.023407873
155	0x3ce2594c	0.02763047
156	0x3cfb2161	0.030655565
157	0xbbdcbf89	-0.0067367
158	0xbcbef474	-0.023309924
159	0xbd388f35	-0.045058448
160	0xbc5f3fe5	-0.0136260735
161	0xbd8746b9	-0.06605286
162	0x3c3fc475	0.011704554
163	0x3c05d133	0.008167553
164	0xbbc49cd2	-0.0060001398
165	0x3d8b374d	0.06797657
166	0xbc2b9a9c	-0.0104738735
167	0x3cce1efc	0.025161259
168	0xbcfd0d49	-0.030890124
169	0xbd47d849	-0.04879025
170	0xbc3e06e7	-0.011598325
171	0xbcd4ad71	-0.02596161
172	0xbd3b68a0	-0.045754075
173	0x3c0a9c3d	0.008460102
174	0xbd4679b7	-0.04845592
175	0xbcfb2cad	-0.030660952
176	0xbd05c524	-0.03265871
177	0xbcde1d71	-0.027113648
178	0x3d2975b8	0.04137203
179	0x3c714c78	0.014727704
180	0x3d7c6ed8	0.061629146
181	0x3bf41e8e	0.0074499315
182	0xbdad5662	-0.08463742
183	0x3cd81bf4	0.026380517
184	0x3d52fa03	0.05150796
185	0x3d2205a3	0.039556157
186	0x3cb86f36	0.022513967
187	0xbd104a82	-0.035227306
188	0xbc659d41	-0.014014543
189	0x3d4b8c12	0.04969413
190	0xbc2908f6	-0.010317078
191	0x3c21c1fb	0.009872909
192	0x3d8159ca	0.06315954
193	0x3c99e115	0.018784085
194	0xbbe7a0b5	-0.0070687183
195	0x3cdd433a	0.027009595
196	0x3b086d26	0.002081701
197	0x3cb34bc1	0.021886708
198	0xbb55202a	-0.0032520392
199	0x3d45842f	0.048221763
200	0x3c7d7fb2	0.0154723395
201	0xbd01d257	-0.031694736
202	0xbd83c926	-0.064348504
203	0xbb8d0201	-0.0043032174
204	0x3d755270	0.05989307
205	0x3bdaa6a1	0.0066726957
206	0x3d66fa6d	0.05639117
207	0x3cb46292	0.022019658
208	0x3d41ce02	0.047315605
209	0xbd032311	-0.032015864
210	0x3d809dd8	0.06280106
211	0xbb7122ea	-0.0036794492
212	0x3b15f000	0.0022878647
213	0x3d45baab	0.048273724
214	0xbc2f272a	-0.01069049
215	0xbd3f8024	-0.046753064
216	0x3b2e4aef	0.0026594957
217	0xbd2ab07e	-0.041672222
218	0xbd1e498b	-0.038644355
219	0x3c2a22b4	0.01038425
220	0x3c6c01bf	0.014404713
221	0xbd616c82	-0.05503512
222	0x3be4d642	0.0069835493
223	0x3d4e1e61	0.05032194
224	0x3d0dca29	0.034616623
225	0xbdb97333	-0.09055176
226	0x3cec3649	0.028834479
227	0x3bbe7e6f	0.005813412
228	0x3cca6e80	0.024710894
229	0x3ca0403d	0.019561881
230	0x3c6d9f27	0.014503277
231	0xbc560173	-0.013061869
232	0x3c77e3b5	0.015129973
233	0x3d8afa12	0.067859784
234	0x3d964654	0.07337633
235	0x3d626faa	0.055282272
236	0xbca79a59	-0.02045934
237	0x3cee35a6	0.029078316
238	0x3cad8ff5	0.021186808
239	0x3d261e25	0.04055609
240	0x3c084b92	0.008318799
241	0xbd0a7dff	-0.033811565
242	0x3c904adb	0.017613819
243	0x3d0a9946	0.03383758
244	0x3d130292	0.035891123
245	0x3da19576	0.078898355
246	0xbc193d88	-0.009353049
247	0x3c3d14fd	0.0115406485
248	0xbbbe4bd5	-0.0058073797
249	0xbd0ee957	-0.0348905
250	0xbde0e4a9	-0.109811135
251	0xbcad70c6	-0.021171939
252	0x3daeab7d	0.085288025
253	0xbd3dc61f	-0.04633152
254	0xbc5b62b3	-0.013390231
255	0x3bb87293	0.0056288927

features.8.bias f4 [128]
0	0xb9fae356	-0.00047853094
1	0x3be45f08	0.0069693364
2	0x3bd7e335	0.0065883645
3	0x3d276431	0.040867034
4	0x3d433eae	0.047667198
5	0x3cb15703	0.021647936
6	0x3c5f6361	0.013634534
7	0xbca65e99	-0.02030878
8	0xbd76774e	-0.06017237
9	0xbc116f7e	-0.008876679
10	0x3d03d864	0.032188788
11	0x3ccfdf26	0.02537496
12	0xbc8f36f0	-0.01748225
13	0xbd592e58	-0.053022712
14	0x3d76e876	0.060280286
15	0xbd0e4c38	-0.034740657
16	0xbc44cae4	-0.0120112635
17	0x3d4418d1	0.04787523
18	0xbcd01672	-0.025401328
19	0xbd2e77d1	-0.042594735
20	0xbd27e7ba	-0.040992476
21	0xbce32ea0	-0.027732193
22	0x3d35e25e	0.044405334
23	0x3cce9fdc	0.025222711
24	0xbd24bebc	-0.04022096
25	0x3ce88dbe	0.0283879
26	0xbd63beba	-0.055601813
27	0x3c34dd7a	0.011039132
28	0x3d32ee42	0.04368425
29	0x3ce9e8eb	0.028553447
30	0xbbbfbd72	-0.005851441
31	0xbc026c77	-0.00796043
32	0x3d16af32	0.036788173
33	0xbd1d3327	-0.03837886
34	0xbd0906aa	-0.03345362
35	0x3c4bd9a7	0.012442029
36	0xbc9a2785	-0.018817673
37	0x3bf77bcb	0.007552599
38	0xbc226771	-0.009912358
39	0x3d224e90	0.039625704
40	0x3b06133f	0.002045825
41	0xbcef94d4	-0.029245771
42	0xbcdedb43	-0.027204162
43	0x3d40080d	0.046882678
44	0xbd0e76e0	-0.034781337
45	0xbccd902f	-0.025093166
46	0xbd2adcca	-0.041714467
47	0x3b3da3cb	0.002893674
48	0xbd0045fd	-0.031316746
49	0x3ce689a1	0.028141798
50	0x3c964b6b	0.018346509
51	0xbc03ba16	-0.008039972
52	0xbd509426	-0.050922535
53	0xbc0ec58f	-0.008714094
54	0xbcda47b4	-0.026645519
55	0xbd0b25f9	-0.03397176
56	0x3b0027c0	0.0019554943
57	0x3ca323b3	0.019914484
58	0xbc1c11d9	-0.00952574
59	0xbc9bc1b4	-0.019013263
60	0xbd2648f9	-0.040596936
61	0xbd225b55	-0.039637882
62	0xbc873ac7	-0.01650752
63	0xbd161854	-0.036644295
64	0xbd128ef3	-0.03578086
65	0x3d88293c	0.0664849
66	0x3d433c25	0.04766478
67	0xbcab1572	-0.02088425
68	0x3d256780	0.04038191
69	0xbd26cf55	-0.04072507
70	0xbd8cfca5	-0.068841256
71	0xbcfdd24f	-0.030984072
72	0x3d8286b5	0.063733496
73	0x3d83f798	0.06443709
74	0x3c61a671	0.013772593
75	0xbce1cb49	-0.027562754
76	0x3b31fd9f	0.0027159227
77	0x3c3d6251	0.011559085
78	0x3ceda1a4	0.02900774
79	0x3d781fa4	0.06057705
80	0xbd5bf722	-0.05370248
81	0x3d37a467	0.04483452
82	0xbc9b3077	-0.018944008
83	0x3cdcabb5	0.026937345
84	0x3d09057b	0.033452492
85	0x3d013781	0.031547073
86	0xbc085360	-0.008320659
87	0xbd54d601	-0.051961903
88	0xbcbf1b18	-0.023328349
89	0xbc7d2a11	-0.015451924
90	0xbcad12a9	-0.021127062
91	0xbd0cc97b	-0.034371834
92	0xbd5a96cd	-0.05336647
93	0x3d71eb8b	0.059062522
94	0x3d5ccabf	0.05390429
95	0xbd583167	-0.05278149
96	0xbc376055	-0.011192401
97	0x3c23ed12	0.010005252
98	0xbb84744d	-0.0040421844
99	0x3c40d76b	0.01177011
100	0xbd08b975	-0.03337999
101	0xba69e0bc	-0.00089217327
102	0xbc520111	-0.012817637
103	0x3c8ed2ba	0.017434467
104	0x3d58a49d	0.052891362
105	0x3ce62399	0.028093146
106	0xbb84bb9d	-0.0040506856
107	0xbd35541e	-0.044269674
108	0xbc25cc60	-0.010119528
109	0xbb2e38d5	-0.0026584167
110	0xbd48a6f7	-0.048987355
111	0x3cb1d35d	0.021707231
112	0xbd111447	-0.03541973
113	0x3bc200da	0.0059205117
114	0xbca1a65b	-0.019732645
115	0xbd189059	-0.037247036
116	0x3d956da5	0.07296304
117	0xbcfd2a49	-0.030903952
118	0xbccbc254	-0.024872936
119	0xbd4bf171	-0.049790803
120	0x3b82a4fa	0.003986952
121	0xbd134673	-0.035955857
122	0xbd5445a0	-0.051824212
123	0x3d0f3139	0.03495905
124	0xbbd40a38	-0.0064709447
125	0x3d203734	0.039115146
126	0x3b438512	0.0029833955
127	0xbca81547	-0.020517958

features.9.weight f4 [128]
0	0x3f808d67	1.0043153
1	0x3f6f3822	0.93445027
2	0x3f7d107f	0.98853296
3	0x3f81cd03	1.014069
4	0x3f724fe0	0.9465313
5	0x3f81e143	1.014687
6	0x3f72a5c7	0.94784206
7	0x3f803f58	1.0019331
8	0x3f840763	1.0314754
9	0x3f73ca58	0.9523063
10	0x3f6d4781	0.9268723
11	0x3f7e035a	0.99223864
12	0x3f7479be	0.95498264
13	0x3f80c42e	1.0059869
14	0x3f6f0535	0.9336732
15	0x3f8002bd	1.0000836
16	0x3f6c6561	0.9234219
17	0x3f6ae7c2	0.91759884
18	0x3f70545e	0.93878734
19	0x3f7e2409	0.99273735
20	0x3f6e3cf2	0.93061745
21	0x3f8ca0cb	1.098657
22	0x3f841295	1.0318171
23	0x3f7a479a	0.97765505
24	0x3f77e859	0.9683891
25	0x3f767983	0.9627916
26	0x3f712789	0.9420095
27	0x3f7d9e4c	0.99069667
28	0x3f76ee83	0.9645769
29	0x3f73ea22	0.95279133
30	0x3f7ca6ea	0.9869219
31	0x3f898749	1.0744411
32	0x3f735854	0.95056653
33	0x3f828500	1.0196838
34	0x3f839497	1.0279721
35	0x3f724933	0.94642943
36	0x3f7668b2	0.962535
37	0x3f840ca8	1.0316362
38	0x3f702969	0.93813187
39	0x3f6e0642	0.929783
40	0x3f891275	1.0708758
41	0x3f6d2433	0.9263336
42	0x3f864216	1.0488918
43	0x3f833f61	1.0253717
44	0x3f6dcbac	0.92888904
45	0x3f73b94c	0.95204616
46	0x3f8bdfda	1.0927689
47	0x3f62e9c1	0.8863793
48	0x3f7104a8	0.9414773
49	0x3f79ae5c	0.97531676
50	0x3f7830fc	0.96949744
51	0x3f64f25f	0.8943233
52	0x3f7a512e	0.9778012
53	0x3f83e012	1.0302756
54	0x3f70b4bf	0.94025797
55	0x3f842a14	1.0325341
56	0x3f6670cc	0.90015864
57	0x3f85fee4	1.0468411
58	0x3f7fa8f5	0.9986718
59	0x3f77be35	0.9677461
60	0x3f624eb0	0.8840132
61	0x3f7a10b5	0.9768174
62	0x3f767437	0.9627108
63	0x3f73928f	0.95145506
64	0x3f7d1503	0.98860186
65	0x3f862073	1.0478653
66	0x3f85ce8d	1.0453659
67	0x3f715e56	0.9428457
68	0x3f780fb8	0.96898985
69	0x3f82ae48	1.0209436
70	0x3f80f914	1.0076013
71	0x3f866f0c	1.0502639
72	0x3f8bf294	1.0933404
73	0x3f73b954	0.95204663
74	0x3f6bbafe	0.920822
75	0x3f71ee05	0.94503814
76	0x3f7378d4	0.95106244
77	0x3f78b1cf	0.97146314
78	0x3f76bd04	0.96382165
79	0x3f7f4ca1	0.997263
80	0x3f789b16	0.9711164
81	0x3f7e37d0	0.99303913
82	0x3f835b5a	1.0262253
83	0x3f822223	1.0166668
84	0x3f85a4db	1.0440935
85	0x3f88f840	1.070076
86	0x3f780ac9	0.96891457
87	0x3f897b93	1.0740837
88	0x3f71faac	0.9452312
89	0x3f79e7f3	0.9761955
90	0x3f78d8cb	0.972058
91	0x3f6aa404	0.9165652
92	0x3f836195	1.0264155
93	0x3f803e1c	1.0018954
94	0x3f85317a	1.0405724
95	0x3f82c5ce	1.0216615
96	0x3f80ac99	1.0052673
97	0x3f73f6a6	0.9529823
98	0x3f76ab89	0.9635549
99	0x3f887f55	1.0663859
100	0x3f8170bc	1.0112529
101	0x3f80aada	1.005214
102	0x3f6c6f58	0.923574
103	0x3f731b21	0.9496327
104	0x3f6e0777	0.9298014
105	0x3f74043b	0.95318955
106	0x3f7d46c6	0.98936117
107	0x3f6aaaf9	0.91667134
108	0x3f6eb09d	0.9323824
109	0x3f83169a	1.0241272
110	0x3f6dd636	0.92904985
111	0x3f706940	0.939106
112	0x3f632ae4	0.8873732
113	0x3f8db919	1.1072112
114	0x3f7a8eb0	0.97873974
115	0x3f86f1bf	1.0542525
116	0x3f86857d	1.0509487
117	0x3f72194d	0.94569856
118	0x3f6c2fb7	0.9226031
119	0x3f7a2578	0.9771342
120	0x3f81820b	1.0117811
121	0x3f6a8337	0.9160647
122	0x3f65a491	0.89704233
123	0x3f6fea2a	0.9371668
124	0x3f796b95	0.9742978
125	0x3f7bd438	0.98370695
126	0x3f709a4e	0.9398545
127	0x3f7c8e52	0.98654664

features.9.bias f4 [128]
0	0xbd73326d	-0.05937426
1	0xbd95a0ab	-0.073060356
2	0xbcea0b81	-0.028569939
3	0xbd0ca3d4	-0.034335926
4	0xbdb066c9	-0.08613355
5	0xbdcdb6a1	-0.10044599
6	0xbd867d62	-0.065668836
7	0xbd8c4c50	-0.06850493
8	0xbd80b1cf	-0.06283914
9	0xbdae0dd6	-0.08498733
10	0xbdf2fb0b	-0.11864289
11	0xbdc07276	-0.09396832
12	0xbd8fd3ed	-0.070228435
13	0xbcfac5ca	-0.030611891
14	0xbdead1ef	-0.11465823
15	0xbdc1313b	-0.09433218
16	0xbda4a687	-0.08039575
17	0xbde65f88	-0.1124869
18	0xbd89f5af	-0.067363136
19	0xbd514c10	-0.05109793
20	0xbe1ecbce	-0.15507433
21	0xbd96bb27	-0.07359915
22	0xbc6b0b99	-0.014346027
23	0xbd9ddb6e	-0.077078685
24	0xbe021ffc	-0.12707514
25	0xbdc3c84e	-0.095596895
26	0xbc6222d9	-0.013802254
27	0xbdb07af9	-0.08617205
28	0xbdffd093	-0.12490954
29	0xbe1ddc47	-0.1541606
30	0xbd683a44	-0.05669619
31	0xbe14b84a	-0.14523426
32	0xbd9299ee	-0.07158266
33	0xbdcc977a	-0.09989829
34	0xbd0504ee	-0.032475404
35	0xbd5e2207	-0.05423167
36	0xbdec728d	-0.11545286
37	0xbc806bf2	-0.015676472
38	0xbd7bdc94	-0.061489657
39	0xbd97982e	-0.07402073
40	0xbd1580de	-0.03649985
41	0xbd40417a	-0.046937443
42	0xbdef37ac	-0.116805404
43	0xbd94472a	-0.07240136
44	0xbd840d03	-0.06447794
45	0xbd5ddea6	-0.054167412
46	0xbdaac4a6	-0.08338289
47	0xbd827467	-0.06369858
48	0xbd57cf0e	-0.052687697
49	0xbdf48a0f	-0.11940395
50	0xbcfd375b	-0.030910185
51	0xbdd11882	-0.102097526
52	0xbdb9c8c5	-0.09071497
53	0xbd893a46	-0.06700568
54	0xbd2b659a	-0.04184494
55	0xbdb83671	-0.08994759
56	0xbd8d17ca	-0.06889303
57	0xbd9bc393	-0.07605662
58	0xbc17decb	-0.009269427
59	0xbc1f2f84	-0.009715918
60	0xbcf7df65	-0.03025789
61	0xbde34048	-0.11096245
62	0xbd7cd368	-0.06172505
63	0xbe128a70	-0.14310622
64	0xbd95e0da	-0.07318278
65	0xbd552565	-0.052037615
66	0xbd88862a	-0.06666215
67	0xbdc52238	-0.09625667
68	0xbd0e1d81	-0.034696106
69	0xbc444e43	-0.01198155
70	0xbdd14978	-0.10219091
71	0xbc3554fa	-0.011067623
72	0xbd821006	-0.063507125
73	0xbdd6786a	-0.10472186
74	0xbda79b75	-0.08183948
75	0xbd616b36	-0.055033885
76	0xbdc12d3c	-0.09432456
77	0xbd8fd612	-0.070232525
78	0xbcf3c64d	-0.029757643
79	0xbcc7724d	-0.024346495
80	0xbd8c78a1	-0.06858946
81	0xbda3fbd2	-0.08007015
82	0xbe00960c	-0.12557238
83	0xbd53641f	-0.051609155
84	0xbd2cbca2	-0.04217208
85	0xbde6fb7d	-0.11278436
86	0xbd6bc7a4	-0.05756344
87	0xbbf29894	-0.0074034426
88	0xbdc1eec9	-0.09469373
89	0xbddf6607	-0.10908132
90	0xbe1f8c6d	-0.15580912
91	0xbda6bda4	-0.0814164
92	0xbd6e707d	-0.058212746
93	0xbd8ccd0a	-0.068750456
94	0xbddb1e65	-0.10699157
95	0xbd2c4f34	-0.04206772
96	0xbd82d392	-0.0638801
97	0xbd9c784b	-0.076401316
98	0xbd2a8411	-0.041629855
99	0xbd3ad714	-0.04561527
100	0xbd629823	-0.05532087
101	0xba8a58ad	-0.0010554992
102	0xbddafeaf	-0.10693108
103	0xbdb8794c	-0.090075105
104	0xbdfb277b	-0.1226339
105	0xbe0db1e6	-0.13837394
106	0xbdb8bfd3	-0.090209626
107	0xbd94b7fb	-0.07261654
108	0xbe0896d7	-0.13338791
109	0xbd92f882	-0.07176305
110	0xbdc86412	-0.09784712
111	0xbd0fd9c5	-0.03511979
112	0xbd17f5c7	-0.037099626
113	0xbe0cfe60	-0.13768911
114	0xbcd11f32	-0.02552757
115	0xbd918a1d	-0.07106421
116	0xbd0ce2f6	-0.034396134
117	0xbd93922c	-0.072056144
118	0xbd713234	-0.058885768
119	0xbd2e688e	-0.04258018
120	0xbdc7528c	-0.097325414
121	0xbde4fa74	-0.11180583
122	0xbe0342f1	-0.12818505
123	0xbd6c6cd1	-0.057720963
124	0xbd69ad1b	-0.057049852
125	0xbd1c5a72	-0.038172193
126	0xbd68f22e	-0.056871586
127	0xbe22d196	-0.15900263

features.9.running_mean f4 [128]
0	0x3ee3669d	0.44414225
1	0xbf2c31ce	-0.67263496
2	0xbf107e8c	-0.56443095
3	0xbf1182a8	-0.5683999
4	0xbf91ac1c	-1.1380649
5	0xbddaf645	-0.106915034
6	0x3ebbf356	0.36709088
7	0xbe46a1a0	-0.19397593
8	0x3b83d640	0.0040233433
9	0xbf83c63f	-1.0294875
10	0xbe2f3ab2	-0.17112234
11	0xbbea36dd	-0.0071476535
12	0xbf390d82	-0.72286236
13	0xbfbb6a1d	-1.4641758
14	0x3ef33c5a	0.47506982
15	0x3e657964	0.22409588
16	0x3fa597cd	1.2936951
17	0xbf0acafb	-0.54215974
18	0xbf0c6b93	-0.54851645
19	0xbe79e07d	-0.24402042
20	0xbf238aa2	-0.6388341
21	0xbf6dcfb2	-0.9289504
22	0x3dd6a185	0.10480026
23	0xbf0f9e40	-0.56100845
24	0xbf1aeb1e	-0.6051501
25	0xbec19a3d	-0.37812987
26	0xbf78a6b5	-0.97129375
27	0xbeff8484	-0.4990579
28	0x3f7d41f8	0.98928785
29	0xbf117daa	-0.56832373
30	0xbfa46a29	-1.2844898
31	0xbf81e31b	-1.0147432
32	0x3e77f862	0.24215844
33	0xbe54538f	-0.20735
34	0xbe45a5bb	-0.19301502
35	0x3e995ae9	0.2995217
36	0xbf4a8109	-0.7910314
37	0xbdb3cb77	-0.08779042
38	0xbf9b5e22	-1.2138102
39	0xbef7520b	-0.4830478
40	0xbf617957	-0.88075775
41	0xbf797a82	-0.9745256
42	0xbef8f427	-0.48623773
43	0xbd324967	-0.043527033
44	0xbf4a0cca	-0.78925765
45	0xbe485667	-0.1956421
46	0xbf982c09	-1.1888438
47	0x3eb2b2a8	0.3490193
48	0xbf5e10b5	-0.8674424
49	0xbf5001e2	-0.8125287
50	0xbe996856	-0.29962415
51	0x3eeaabee	0.45834297
52	0xbfaec8e2	-1.3655055
53	0xbe52a504	-0.20570761
54	0xbf4f85b2	-0.8106338
55	0xbf5ab03e	-0.85425174
56	0xbf5fba0a	-0.8739325
57	0xbf85a8d4	-1.0442147
58	0xc0056225	-2.0841153
59	0xbfaa3937	-1.329871
60	0x3d111c59	0.035427425
61	0xbfa75aaf	-1.307455
62	0xbd88d9a4	-0.06682137
63	0xbf14b1b2	-0.5808364
64	0xbe8d8268	-0.27638555
65	0x3c43954a	0.011937449
66	0xbfdbffc6	-1.7187431
67	0xbf7863d7	-0.97027344
68	0xbf59dc95	-0.85102206
69	0xbeef33cb	-0.46719202
70	0x3dce5c67	0.10076218
71	0xbf01afab	-0.50658673
72	0xbe971089	-0.29504803
73	0x3ea16afd	0.31526938
74	0xbd0aeca7	-0.033917096
75	0xbfa69592	-1.3014395
76	0xbf786311	-0.97026163
77	0xbf2acf14	-0.66722226
78	0xbe9893f7	-0.29800388
79	0xbf961fa0	-1.1728401
80	0xbe5f5221	-0.21808673
81	0xbf8022f7	-1.001067
82	0x3dc5eb22	0.09663989
83	0x3f1f04d3	0.62116736
84	0x3e35e2b4	0.17762262
85	0xbf34d392	-0.7063533
86	0xbf626cac	-0.8844707
87	0xbf0ac064	-0.54199815
88	0xbf2804c8	-0.65632296
89	0xbf8484a1	-1.0352975
90	0xbec231e6	-0.37928694
91	0xbf3f276f	-0.74669546
92	0xbfbd5c5a	-1.4793808
93	0x3ed0f5b2	0.4081245
94	0x3ef3c725	0.47612873
95	0xbf5e3368	-0.8679719
96	0xbe2f940c	-0.17146319
97	0xbea8ffc9	-0.3300765
98	0xbf94573f	-1.1589125
99	0xbf1e330a	-0.6179663
100	0xbf6cb880	-0.92469025
101	0xbf04cb86	-0.5187305
102	0xbf9c825e	-1.2227285
103	0x3e55fd76	0.20897469
104	0xbf7ec520	-0.9951954
105	0x3e7f38be	0.24923989
106	0xbfd3b09a	-1.653827
107	0xbd1dcea7	-0.038527157
108	0xbf966851	-1.1750585
109	0x3eaa133e	0.33217806
110	0xbeb125a7	-0.3459904
111	0xbe97ae55	-0.29625192
112	0xbf8dbcaf	-1.1073207
113	0xbed3e6d4	-0.41387045
114	0xbf0bc29e	-0.5459384
115	0xbfbcdee2	-1.4755518
116	0xbf93c99a	-1.1545899
117	0xbf535fa6	-0.8256782
118	0xbb12ba81	-0.0022388997
119	0xbf8c95cd	-1.0983216
120	0xbaaf29f0	-0.0013363939
121	0xbf70303d	-0.93823606
122	0x3f67fd4c	0.90620875
123	0xbfad6197	-1.3545407
124	0xc00697d1	-2.1030161
125	0x3da505c2	0.08057739
126	0xbf6521a4	-0.89504457
127	0xbf08efd0	-0.53490925

features.9.running_var f4 [128]
0	0x3e9565d4	0.2917925
1	0x3f0ee5c7	0.5581936
2	0x3f0d7f96	0.55272806
3	0x3ed898a7	0.42303964
4	0x3f98ea62	1.1946528
5	0x3f317abb	0.69327897
6	0x3f683686	0.90708196
7	0x3f3868ca	0.72034895
8	0x3ec05e25	0.37571827
9	0x3f5e1a48	0.8675885
10	0x3f105d99	0.5639282
11	0x3f3da77c	0.74083686
12	0x3f1914d9	0.59797436
13	0x3fbf8584	1.4962621
14	0x3f505006	0.81372106
15	0x3f64fd09	0.894486
16	0x3f4b6c9f	0.7946262
17	0x3f850ba7	1.0394181
18	0x3f155151	0.58327204
19	0x3f0e7413	0.55645865
20	0x3ef56ea8	0.47935987
21	0x3f7ab178	0.97927046
22	0x3ef7f132	0.48426205
23	0x3f04857e	0.5176619
24	0x3f8ec7d5	1.1154734
25	0x3f79a4b8	0.97516966
26	0x3f94cb56	1.1624553
27	0x3f225468	0.63410044
28	0x3f50a292	0.8149806
29	0x3f59469f	0.84873384
30	0x3f4ce8b3	0.8004257
31	0x3f990b99	1.1956664
32	0x3edb63c3	0.4284955
33	0x3f3dd96e	0.74159896
34	0x3ecf8ae6	0.4053566
35	0x3f0d6fb6	0.5524858
36	0x3f06346f	0.5242376
37	0x3ec0254b	0.37528452
38	0x3f1be8b5	0.6090196
39	0x3faf547c	1.3697658
40	0x3f86e35a	1.0538132
41	0x3f51d5a8	0.8196664
42	0x3f2a2a39	0.66470677
43	0x3f499501	0.78742987
44	0x3f4852b1	0.7825118
45	0x3f0c8369	0.54888016
46	0x3fa4643f	1.2843093
47	0x3fb9b6b1	1.4508878
48	0x3f453002	0.7702638
49	0x3f3488fc	0.7052152
50	0x3f2df183	0.6794664
51	0x3f8b1b51	1.0867711
52	0x3f61f0ee	0.88258255
53	0x3eb2a9a5	0.34895054
54	0x3f3cdec6	0.73777425
55	0x3ed9f625	0.42570606
56	0x3f24122b	0.6409022
57	0x3f9fb575	1.2477251
58	0x3fae8424	1.3634076
59	0x3f8e0fa2	1.1098521
60	0x3ece40eb	0.40283903
61	0x3fa8ed3a	1.3197396
62	0x3f0e906e	0.5568913
63	0x3edca7de	0.43096823
64	0x3ef188c7	0.47174665
65	0x3f0c51e9	0.54812485
66	0x3fcca865	1.598889
67	0x3f2e8ef4	0.6818688
68	0x3f8625e0	1.0480309
69	0x3f241426	0.64093244
70	0x3f0b5d2c	0.54439044
71	0x3ec7834f	0.38967368
72	0x3edf3cd5	0.436011
73	0x3f61d482	0.88214886
74	0x3f6ad5f3	0.9173271
75	0x3fb15879	1.3855125
76	0x3f84bb0c	1.0369582
77	0x3f86c2e6	1.0528228
78	0x3f26daab	0.6517741
79	0x3fbb688f	1.4641284
80	0x3e92f92b	0.28705725
81	0x3f666634	0.899997
82	0x3edd4edd	0.4322423
83	0x3ec89ed6	0.39183682
84	0x3eb4ce06	0.35313433
85	0x3f4ddcb2	0.8041488
86	0x3f3c84dd	0.73640233
87	0x3f498822	0.7872335
88	0x3f1737fb	0.59069794
89	0x3f6ea732	0.9322387
90	0x3f338fbf	0.70141214
91	0x3f5205fc	0.8204038
92	0x3f9c4c86	1.2210853
93	0x3f527268	0.8220582
94	0x3f20446c	0.62604403
95	0x3f03e704	0.51524377
96	0x3efdb068	0.4954865
97	0x3eadeb0f	0.33968398
98	0x3f3c3a61	0.7352658
99	0x3f7fd50f	0.99934477
100	0x3f5de05c	0.8667047
101	0x3e95c78f	0.29253814
102	0x3f8ca80e	1.0988786
103	0x3f2f95d2	0.6858798
104	0x3f3cc05f	0.73731035
105	0x3f3b8837	0.7325472
106	0x3fdb6e8b	1.714311
107	0x3eac8b2c	0.3369993
108	0x3f82a5c1	1.0206834
109	0x3f2c6c93	0.6735317
110	0x3f864886	1.0490882
111	0x3f4b76e4	0.7947829
112	0x3f65bccb	0.897412
113	0x3f4d9b07	0.8031468
114	0x3f8a700f	1.0815448
115	0x3fa45a94	1.2840142
116	0x3fc482f8	1.5352468
117	0x3f4e4879	0.80579334
118	0x3f16dbcb	0.5892913
119	0x3f281c07	0.65667766
120	0x3f527560	0.8221035
121	0x3f66c7ec	0.90148807
122	0x3f852142	1.0400774
123	0x3f8fefea	1.1245091
124	0x3fcc6ac6	1.5970085
125	0x3eb873da	0.36025888
126	0x3f301d5c	0.687948
127	0x3f5938bc	0.84852195
