LSTM/final_model.pt (torch, 823728 bytes, 10 tensors)

lstm.weight_ih_l0 f4 [512, 12]
000000 85 1e 03 3e 6e f2 ca 3d 91 03 d3 bd da f1 c0 bd
       0.12804611 0.09909521 -0.103034146 -0.094211295
000010 5b 36 63 3d 57 64 31 3d f6 b7 d1 3d 63 1e 53 be
       0.05547176 0.043308582 0.10240166 -0.2061706
000020 36 bb d0 3d 5f 5f ee 3c 41 fc 12 be 5d ad 57 be
       0.10191958 0.02909821 -0.1435404 -0.21062227
000030 27 71 8e 3d 19 ce 22 3d 96 53 0f be eb d5 5c bd
       0.06955176 0.03974733 -0.13996729 -0.053914946
000040 ca 7b 72 3e 7c d8 00 3c e9 19 8a 3d 28 5d af bd
       0.23680034 0.007864114 0.06743223 -0.0856269
000050 75 63 88 bc 1f 25 5d bd 76 67 88 3d 52 7b fc 3d
       -0.016648987 -0.05399048 0.066603586 0.12328209
000060 bb 33 c5 3c 39 45 0f be b3 2a 0a bd b0 52 fd 3c
       0.024072519 -0.1399125 -0.033732127 0.030923218
000070 0b 50 dd 3b d5 8a dd bc e9 3c 19 3d 61 4d 36 be
       0.0067539266 -0.02704374 0.037411604 -0.17802955
000080 bf e9 ab 3d 99 48 bf bd e6 0a 07 be ad bb 52 be
       0.08394193 -0.09340019 -0.13187751 -0.20579405
000090 f1 89 be bd ea 5d 16 be a4 f6 37 3c 03 9d a8 3d
       -0.09303654 -0.14684263 0.011228237 0.082330726
0000a0 c1 ab be 3d a7 67 11 be ec d0 0d 3e 6a b3 dd bd
       0.09310103 -0.14199696 0.13849229 -0.10825236
0000b0 e7 1c 55 be 6b 75 4a be 21 de 5f be fc 76 af 3d
       -0.20811807 -0.19771354 -0.21862079 0.08567616
0000c0 78 61 3a bd 87 78 0b 3e 53 89 6d 3c 8a ef 4d 3d
       -0.04550311 0.13620196 0.014498073 0.05027727
0000d0 c1 2d 86 3c ad 37 20 3e 33 6b 6c 3c d2 06 0b 3e
       0.016379239 0.15646239 0.014429855 0.1357682
0000e0 43 11 c9 3c 08 5c c4 3d 2b 6e 01 3c 37 ad 07 bd
       0.024544364 0.09587866 0.007899801 -0.033124175
0000f0 f3 a8 00 bd ec 15 b4 bb e3 cb 7d 3d 2e 87 13 be
       -0.031411123 -0.0054957774 0.06196202 -0.14407036
000100 dc 08 aa bd 65 2a 67 bd 34 df b7 bd 5e 01 f1 3d
       -0.08302471 -0.056436915 -0.089781195 0.11767839
000110 8f 2a 15 3d c1 8e e5 3d 14 71 91 be 83 cc 36 be
       0.03641754 0.11208869 -0.28406584 -0.17851453
000120 f4 e0 28 3e 96 ef fb 3d ef aa 9a be f1 c8 94 be
       0.16492063 0.12301557 -0.30208537 -0.29059556
000130 96 b2 08 3e 29 a8 c5 3c 9f 99 03 be 74 f5 80 bd
       0.13349375 0.024128037 -0.1285157 -0.062968165
000140 1b 0a 85 bd 7f f1 79 3d ea e7 85 3e 49 a8 fa 3d
       -0.06496068 0.061021324 0.261535 0.12239129
000150 41 92 36 3c 68 1b 41 3b 3a 89 02 bd a6 c6 c6 3d
       0.011143268 0.0029465798 -0.03186915 0.09705858
000160 f0 df 03 3e 35 e9 2b 3d 41 43 13 be f9 f0 6f 3c
       0.12878394 0.04197045 -0.14381124 0.014644855
000170 48 92 ac bd 99 79 9e bc 94 27 c8 bd c2 35 5b be
       -0.084263384 -0.019345092 -0.09773174 -0.21407226
000180 aa 84 f7 bc 13 46 97 3d 6d b6 f1 3d ca 87 e4 3d
       -0.030214626 0.073864125 0.11802373 0.11158712
000190 98 7e 8f 3d bb f7 52 3e c1 cc 86 3d 5d c6 df 3c
       0.07006568 0.20602314 0.065820225 0.027316267
0001a0 f5 69 a6 3d fb 44 33 bd c5 22 6e bd b5 3c 13 be
       0.081256784 -0.043766957 -0.058138628 -0.14378627
0001b0 52 f4 a4 bd 08 ea 73 be df 68 b7 3c 8d 7a 11 3e
       -0.08054413 -0.23819745 0.022388874 0.14206906
0001c0 da cf be bd 84 a9 8b be a5 69 89 3e 0d 05 a3 3d
       -0.09316988 -0.27277768 0.26838413 0.07959948
0001d0 56 74 2c 3d f1 c9 c6 bd 3d d8 70 3e 10 c8 6d 3d
       0.042103134 -0.09706486 0.23519988 0.058052123
0001e0 d9 7d 65 3d 7d 7c 0e 3d bd 4a 20 be c8 18 09 bd
       0.05602822 0.03478669 -0.1565351 -0.0334709
0001f0 71 8e 29 3d b7 5c a6 bc b7 ee b8 3d 88 cc 9d 3d
       0.04139561 -0.020307882 0.09029906 0.07705027
000200 a3 70 55 3d 87 60 df 3d 7c da 55 3d e0 8e 0e 3e
       0.052109372 0.10907083 0.052210316 0.1392169
000210 a8 16 52 3e b4 41 86 bc 95 f4 d4 bd 53 23 22 be
       0.20516455 -0.016388752 -0.10398213 -0.15833788
000220 37 c3 0b 3e 96 e2 f6 3c 63 31 00 bd f7 4b 1c bc
       0.13648687 0.030137341 -0.0312971 -0.009539596
000230 7f be e1 3d a8 3b 21 3d 0a c7 00 3e 57 da 2a 3e
       0.11022662 0.039363533 0.12575927 0.16684853
000240 82 73 8b be 42 5b 46 3c 42 7e 45 bd dc 72 00 3e
       -0.27236563 0.0121067185 -0.048216112 0.12543815
000250 46 38 10 bd 78 c0 d3 bd b4 ff 2c 3d 08 70 ad 3d
       -0.035209917 -0.10339445 0.042236045 0.08468634
000260 ef e1 63 bd e8 72 83 3d 53 2d 01 3e 35 f0 3c be
       -0.05563539 0.06418401 0.12614946 -0.18451007
000270 b1 6f 95 3d bd 8c c8 bc 11 6c bd 3d 4a 4f 74 bd
       0.07296694 -0.024481172 0.09249128 -0.05964593
000280 db 20 4a 3d ad 7b 4e 3d 44 c8 63 bc 77 62 03 3d
       0.04934774 0.050410915 -0.0139027275 0.032076325
000290 21 e8 ff 3c f9 6e 02 3e 8a 5f 35 be 8e 69 b2 be
       0.031238617 0.12737645 -0.17712227 -0.34846157
0002a0 d0 3f c0 3d cb 5c ef bd 81 10 1f be 58 ac de 3d
       0.09387171 -0.11687621 -0.1553364 0.10872716
0002b0 25 b4 0f 3e f5 dc a5 be 12 d2 41 3a 4f 12 3d bd
       0.14033563 -0.3239514 0.00073936686 -0.04616004
0002c0 61 b2 7b 3d fb c8 51 3c 55 90 bf bc 52 fb d8 bd
       0.061449412 0.012804265 -0.023384253 -0.105948105
0002d0 14 2d 95 3d 12 0d 75 be 76 91 69 be 8d b7 9b 3d
       0.072839886 -0.23930767 -0.22809395 0.07603369
0002e0 05 98 6d 3d 80 7a cf be a2 13 f0 bc 6e c8 84 bd
       0.058006305 -0.40523148 -0.029306237 -0.064835414
0002f0 aa 33 6d 3d 1d c8 e6 bd 6a 61 91 bd 82 ba 10 3e
       0.0579106 -0.11268637 -0.070986584 0.14133647
000300 ef c3 96 3d 43 1f 3e be df 9c 39 be ac d3 9c bc
       0.0736159 -0.18566613 -0.18126248 -0.019143902
000310 71 e5 d8 3d 6d e9 5f be c3 79 ba bd e4 d5 12 be
       0.105906375 -0.21866389 -0.091052555 -0.14339405
000320 1f 3a ad 3c b2 e1 63 be ca 2f ae bc 53 1f 8b 3d
       0.021145878 -0.22254065 -0.021263022 0.06793084
000330 a8 79 f1 3d 42 f9 49 3b 65 56 9e bd d5 cf 81 3c
       0.11790782 0.0030818735 -0.07731322 0.015846172
000340 19 e6 0e 3e 79 bd b9 3d fb d8 17 bd 9b 00 d4 3c
       0.13954963 0.09069342 -0.037072163 0.025879195
000350 2b b4 51 3b bb b2 91 bd cd 55 97 3b f0 00 bd bc
       0.0031998258 -0.07114168 0.0046183825 -0.023071736
000360 82 9e bb 3d 05 1f 52 3d 90 53 40 3c ff 1b a0 3b
       0.09161092 0.051299114 0.011738673 0.00488615
000370 32 ff 70 bd 37 2a b0 bd 02 7e 94 bd f2 43 a9 bc
       -0.058837123 -0.08601802 -0.072505966 -0.020662282
000380 79 96 88 bd 9a 29 a6 bc b2 ff 24 be 01 a6 f3 bd
       -0.066693254 -0.020283509 -0.16113165 -0.11896897
000390 f3 42 05 3e 30 a3 4d bd e4 b1 0f be 08 d0 d1 bd
       0.1301382 -0.050204456 -0.14032704 -0.10244757
0003a0 2e 9d 9a 3d 06 7b 85 bd 0e 7b 1f be 72 d5 86 bd
       0.07549511 -0.065176055 -0.15574285 -0.0658368
0003b0 e0 b6 18 bd 20 0a 24 be 6b 76 a4 3d 25 95 f4 bd
       -0.03728378 -0.16019487 0.08030399 -0.119425096
0003c0 ff ba f7 bb 83 5a 4c 3d c1 f4 c0 bd 26 0c 00 bd
       -0.0075601335 0.049891006 -0.09421683 -0.031261586
0003d0 1e 2a e3 bc 4e da bd bd 49 75 93 3c 06 2a c6 bd
       -0.027730044 -0.09270154 0.018000262 -0.09675984
0003e0 29 82 a1 bd b4 64 76 3d 6d e3 31 3d ed fb a2 3c
       -0.07886154 0.06015463 0.04342978 0.019895518
0003f0 a9 41 ea 3d 62 25 bf 3d da c8 19 bc 5c 62 d8 bd
       0.11438305 0.09333302 -0.009386266 -0.105656356

lstm.weight_hh_l0 f4 [512, 128]
000000 00 89 45 3c ee e1 c8 bd e5 a5 1f bd d6 ea 47 bd
       0.012056589 -0.09808718 -0.03897657 -0.04880794
000010 af 12 ca 3c 32 f7 2b 3d 6e 25 46 be 56 9e 92 3d
       0.024667112 0.04198379 -0.19350216 0.071591064
000020 28 22 b9 3d b6 f6 6c bd 39 d7 8f 3e 2d 8e 08 3d
       0.09039718 -0.05785247 0.2809389 0.033338714
000030 9f b4 3a 3e a1 46 79 3b 4f 2b 5d 3d 24 48 96 3d
       0.18232964 0.0038036483 0.05399638 0.073379785
000040 94 aa e3 bd e8 11 9d bd 86 0c 13 3e 0c aa 48 be
       -0.111165196 -0.07669431 0.14360246 -0.19596118
000050 b0 02 aa 3d ec 0c 46 bd e6 94 ef bd fb cb 55 3d
       0.08301294 -0.048352167 -0.11698322 0.052196484
000060 45 e9 14 3e cf d2 99 bd 15 48 05 3e fb 20 04 bb
       0.1454211 -0.07510912 0.13015778 -0.002016126
000070 81 e3 05 3d d3 84 1a bd 9c c7 87 bd 7f 6e 86 3c
       0.032687668 -0.037724327 -0.06629869 0.01641011
000080 ce 5c 92 bd 91 02 9d bc 83 37 95 bd 97 02 0d bd
       -0.07146607 -0.019166263 -0.07285979 -0.034426298
000090 19 95 29 be a3 17 16 bd e4 a7 09 3e 72 f9 a8 3d
       -0.16560782 -0.036643635 0.13442951 0.08250703
0000a0 23 f9 48 be 47 59 15 be 29 58 37 3e 11 a2 49 be
       -0.19626288 -0.14584838 0.17904724 -0.1969073
0000b0 01 00 48 3d fa 77 8e bc 07 47 ef bd 5a a4 9a bd
       0.04882813 -0.017391194 -0.11683469 -0.07550879
0000c0 d6 00 58 3e 51 1a 1f bd ac 46 a9 3d 84 e8 8c 3d
       0.21094069 -0.038843457 0.08265433 0.06880286
0000d0 0d d1 ea bd 0f 3a b3 3d b8 5d b5 3d 34 98 83 3c
       -0.114656545 0.08751308 0.08855766 0.016063787
0000e0 f3 d0 b9 bd c3 0e 2b be 68 53 cd bc 54 aa e9 bd
       -0.09073057 -0.1670485 -0.025064185 -0.11409441
0000f0 e7 07 1a 3d 11 0f 17 3e ac cf 04 3c 64 8c 9c bd
       0.037605193 0.14751841 0.008106153 -0.07643965
000100 63 e8 b0 bd 45 c4 57 be a5 dc f1 3d 2f a4 d1 bc
       -0.08638074 -0.21070965 0.11809663 -0.025590984
000110 6a ad 6e 3d 1a 9b a5 bc a2 e3 22 bd 01 9c d0 3d
       0.05827085 -0.02021556 -0.03976787 0.101860054
000120 32 fa 9f 3b a6 81 b0 3b 1f c7 5d 3d 8a 81 c1 3d
       0.0048821205 0.005386549 0.054144975 0.09448536
000130 5d 7c 0b bd 42 7a d5 3d 2d 1d a3 bd aa e2 4a 3d
       -0.03405415 0.104237095 -0.07964549 0.04953257
000140 49 bf 84 3c 53 b5 0a 3d 49 05 9d 3d 33 13 0d 3d
       0.016204493 0.03386433 0.07667024 0.034442138
000150 dc c3 8a 3c b9 fa 32 3c 2f cb 6c 3d f8 8b 4c 3d
       0.016939096 0.010924035 0.05781096 0.049938172
000160 69 8b e8 bc a7 9b b8 be ee af 19 bd ea ac 6a 3d
       -0.028386788 -0.36056253 -0.037521295 0.05729381
000170 e8 07 79 3d 27 2a dd bd f6 d5 e6 bd 30 18 a3 3d
       0.060798556 -0.107990555 -0.112712786 0.07963598
000180 9f 05 41 3d 6a 82 38 be fb e8 a4 3d 3e 22 1c bd
       0.0471245 -0.18018499 0.0805225 -0.038118593
000190 b5 e2 8c bd 36 3f dd bd bd e1 1b 3d 97 93 bd 3d
       -0.068791784 -0.10803072 0.038057078 0.09256666
0001a0 d1 7a 49 3e f8 18 92 3d e9 a0 9a bd 21 e0 69 bc
       0.19675757 0.07133669 -0.075502224 -0.014274628
0001b0 32 60 22 3d 8a 15 9f 3d cd 88 b8 bd cb 9d 72 bd
       0.03964252 0.0776778 -0.09010468 -0.059232514
0001c0 6f c0 6b 3d 81 1d 17 3d a0 cc 2a bb fe 3b 09 be
       0.057556566 0.03689337 -0.0026061907 -0.13401791
0001d0 5f b9 39 3e 67 60 e9 3c c4 98 05 3d 96 d2 82 bd
       0.1813712 0.028488351 0.03261639 -0.06387822
0001e0 95 bf f8 3c df 5b 93 be d4 8e 6b bc ac ec fb 3c
       0.030364791 -0.2878103 -0.014377315 0.030752502
0001f0 0f d9 93 3d b5 3e 4c 3c 8c 81 f7 bc bb a2 d9 3c
       0.07219135 0.012466122 -0.03021314 0.026566854
000200 a0 51 ce bd d2 8e 52 3d 04 08 0a 3e 63 1b 3d bd
       -0.100741625 0.051405735 0.1347962 -0.046168696
000210 73 15 f8 bd 86 0c 78 3d 58 b9 3b be 87 bc 11 be
       -0.12113466 0.06055882 -0.18332422 -0.14232074
000220 85 f7 66 bd 9d 1a 8d be c7 eb a6 bd c9 5a e1 bd
       -0.056388397 -0.27559367 -0.0815044 -0.11003644
000230 7f d3 98 3c f8 ea bf bd 8c 61 39 3d 86 3a 91 bd
       0.018655537 -0.093709886 0.045259044 -0.070912406
000240 cd 85 65 3c 3a 15 50 bd 52 67 c9 3c 3d 3c 15 3e
       0.014008951 -0.050801493 0.0245854 0.1457376
000250 0e 1b 23 bd e0 e1 95 3d fe 24 b1 ba d8 b6 1e 3e
       -0.039820723 0.07318473 -0.0013515053 0.15499437
000260 9d 41 0e be 98 0a fb bd 02 5f aa 3d 9b 0e c4 3c
       -0.13892217 -0.1225788 0.083189026 0.023932746
000270 83 de 41 bc 08 ae e0 ba 9c b5 78 bd 6a 5c c1 bd
       -0.011832836 -0.0017141709 -0.06072007 -0.09441455
000280 ec c7 a3 3c 17 81 d0 3c 59 ae 60 be 58 bd 97 bd
       0.019992791 0.02545218 -0.21941508 -0.07409161
000290 64 ff dd bd 52 91 89 bc 60 e6 91 3c b6 74 e4 bd
       -0.108397275 -0.016792927 0.017810047 -0.11155073
0002a0 93 2e 9f bc 94 85 db bd 29 eb 3a bc 37 4e de bd
       -0.019431388 -0.107188374 -0.011408606 -0.10854762
0002b0 f5 48 22 3d 70 2a 29 bd 66 c0 f9 bd 01 92 d8 bd
       0.03962036 -0.041300237 -0.121949 -0.10574723
0002c0 b2 ef 2f 3e cf c9 1b bd 70 47 ff bc 90 ee a0 3d
       0.1718128 -0.038034257 -0.031161994 0.07858002
0002d0 fc d9 e1 bd 2d ba f4 bd 68 e2 f6 3d 2c 8b ba bd
       -0.11027905 -0.11949573 0.12054902 -0.09108576
0002e0 4f 85 8a bd fe 10 e6 3c 9f e4 97 3d 16 cd 83 bd
       -0.06763708 0.028084274 0.07416653 -0.064356014
0002f0 4e fa b1 3d 3b ff cb 3c 2b a3 06 be 8e b5 6f 3e
       0.0869032 0.024901977 -0.13148181 0.23409101
000300 ee 6c 93 3d 3a 31 8b bd 39 03 f8 3d e1 4a 12 bd
       0.07198511 -0.067964986 0.1210999 -0.03571594
000310 c9 69 04 3d 08 31 79 3e 09 c2 46 3d b8 b3 ca 3d
       0.032327447 0.2433511 0.04852489 0.0989756
000320 09 02 ca 3d be 5f f1 bd 4d d3 15 3c 80 14 ca 3c
       0.098636694 -0.117858395 0.009144616 0.024667978
000330 22 3e e6 3d 5d fa a5 3c b9 1a bb bc 0e 60 5a bd
       0.1124232 0.020260984 -0.02283989 -0.05331426
000340 8b bc 25 be 9a 7c c8 bc 2b 35 4a bd c7 b4 b2 bd
       -0.16185205 -0.024473477 -0.04936711 -0.08725887
000350 64 1d 6b 3d e1 e5 a8 bd 53 34 f0 3d 0e 3f 55 3b
       0.057401076 -0.08246971 0.1172873 0.0032538804
000360 a2 38 92 3d e5 55 8a bd ee 77 1c 3e e0 26 a2 bd
       0.07139708 -0.06754664 0.15280125 -0.07917571
000370 40 9e 96 3c 80 d5 3f 3d d2 e3 b1 bc b6 3c c3 bc
       0.018386006 0.04683447 -0.021715079 -0.02383266
000380 d1 3e 3b 3c fa bb a2 bd 60 b7 ef bd 00 db f1 3d
       0.011428551 -0.0794601 -0.11704898 0.11809349
000390 c3 3d 1f bd 88 76 37 3d 86 b6 5d bc bd 18 8f 3b
       -0.03887726 0.044790775 -0.0135322865 0.0043669627
0003a0 83 4d 92 bd 48 a2 d2 bd fa 2e 8a bd ad 28 7d 3d
       -0.071436904 -0.10284859 -0.06747241 0.06180637
0003b0 34 0e 9e 3d 71 ef 24 3e 5b 13 cc bd 36 84 a4 3c
       0.07717553 0.16106965 -0.09964629 0.020082574
0003c0 97 6c 3c 3d d0 d8 a1 bd ab 28 4e bd 78 ec 3e 3d
       0.046001997 -0.07902682 -0.050331753 0.046612233
0003d0 71 58 bd 3d 16 17 03 3a 94 3a cb 3d d1 12 ef 3c
       0.092453845 0.00050006935 0.09923282 0.029183777
0003e0 8f 5e 36 bd 71 20 bf bc df bd 13 bc fc 1b f8 3c
       -0.04452377 -0.023330899 -0.009017437 0.030286781
0003f0 83 03 17 3c 39 48 4e be 6e 1a 08 3d 29 58 2b bd
       0.009217146 -0.20144738 0.03322833 -0.041832123

lstm.bias_ih_l0 f4 [512]
000000 3d b1 0b be 55 ee 00 bd 3a b6 07 bc 58 03 22 be
       -0.1364183 -0.03147729 -0.008283192 -0.15821588
000010 c2 60 39 bc ac ae 9c bd e2 f6 aa 3b 3d 75 db bd
       -0.011314573 -0.076505035 0.005217419 -0.10715721
000020 35 3f 84 bd 1e 0d 56 be 22 21 11 be a4 df ca bd
       -0.06457368 -0.20903441 -0.14172795 -0.09905937
000030 f4 73 fc 3c 30 99 93 bd e1 d0 86 bd 54 59 bf ba
       0.03081701 -0.072069526 -0.06582809 -0.0014598765
000040 b0 2a 8c bd 0f cd a9 bc c3 fa 17 bd 5f 01 8c 3c
       -0.068440795 -0.020727662 -0.03710438 0.017090498
000050 1d 72 90 be 60 29 06 3d e9 30 e6 bd be 63 f9 bd
       -0.28212062 0.032754302 -0.112397976 -0.121772274
000060 d3 f4 f6 bd f2 82 62 be bf 93 2f 3d 94 25 42 be
       -0.12058415 -0.22120264 0.04286551 -0.18959647
000070 d6 4e 94 3c 0b 66 d4 bc 6e 35 a7 bd 0c dc b6 3d
       0.018103998 -0.025927564 -0.08164488 0.08928689
000080 14 03 60 bd 7a 8e 7e bd a6 01 22 be 03 f3 4a 3d
       -0.054690436 -0.062147595 -0.15820941 0.04954816
000090 0b 18 f2 3d 11 40 fd bd f5 a7 de 3b 02 cb 4f bd
       0.11820992 -0.12365735 0.0067949244 -0.050730713
0000a0 a2 68 56 3d e8 9b c3 bd 83 50 dd bd c7 c2 e8 3b
       0.05234588 -0.09551221 -0.10806372 0.0071032974
0000b0 3f 83 58 bd 58 cf b8 bc 16 15 36 3d e1 57 2c 3c
       -0.05285954 -0.022559807 0.044453703 0.010518999
0000c0 48 01 4f 3d 46 35 bb bd 44 c4 9b bb fc 62 4e be
       0.05053833 -0.091410205 -0.0047536213 -0.20154947
0000d0 ce 4c 27 3d 39 7b 43 be fd 3e ac bd 82 11 0f be
       0.04084473 -0.19089974 -0.084104516 -0.13971522
0000e0 a0 b5 29 bd 0b 2a 49 be fa f8 f5 bd d5 8b 4a be
       -0.041432977 -0.19644944 -0.12010379 -0.19779904
0000f0 08 8b c6 bd bd c9 15 be 88 18 1a be b4 4e 05 be
       -0.09694487 -0.14627738 -0.1504842 -0.13018304
000100 95 eb 26 be 22 74 c1 bd eb 0f 45 be 41 90 c2 3c
       -0.16300805 -0.09445979 -0.19244353 0.023750426
000110 e1 84 a7 bd 1a be 70 bd dd 46 59 bd a0 47 63 be
       -0.081796415 -0.058775045 -0.053046096 -0.22195292
000120 ac 0d c1 bd 02 cd 27 be 09 bc 46 3d b9 a4 c1 bd
       -0.09426436 -0.16386798 0.048519168 -0.094552465
000130 ad 7b 98 3c fe 66 19 be 90 de 22 3d 83 3b fc 3c
       0.01861366 -0.14980695 0.039763033 0.030790096
000140 49 92 6e be f2 aa 98 bd 0b 22 2f bd 5d 36 7a bd
       -0.23297991 -0.0745448 -0.042757075 -0.061087
000150 b3 ee 1b 3d 91 d3 dc bd de a2 63 be 29 05 ba bd
       0.03806944 -0.107825406 -0.22230098 -0.090830155
000160 a8 fa 84 3d 56 04 06 3e 6e 3e 92 3b 4c 21 cd bd
       0.064931214 0.13087592 0.0044630086 -0.100161165
000170 e1 9f 87 bd 39 59 85 bd cc 0c 8d bd de a4 86 be
       -0.06622291 -0.065111585 -0.068872064 -0.2629766
000180 b4 58 b7 bd 50 73 91 bd a0 4d e1 bd f0 00 e8 bd
       -0.08952466 -0.07102072 -0.11001134 -0.11328304
000190 b9 b5 86 3d 65 ed df bd e6 36 2a bd 6f 63 86 bd
       0.065776296 -0.10933951 -0.04155626 -0.06561934
0001a0 6c dc ab bd 06 db 15 bc 00 d2 03 bd 86 ed 4c be
       -0.083916515 -0.009146458 -0.032182693 -0.20012483
0001b0 56 24 1f bd 18 5b 6a bd 47 7f 9f bd 89 c7 8a 3c
       -0.038853012 -0.05721578 -0.07787948 0.016940849
0001c0 f3 a6 db bd 59 47 9e 3d 1f c1 be bd 21 70 60 bd
       -0.107252024 0.07728452 -0.09314179 -0.054794434
0001d0 02 14 e6 bd d3 4f e1 bd 60 cd 84 bd e4 08 c6 bd
       -0.11234285 -0.110015534 -0.06484485 -0.096696645
0001e0 1d ec f0 3d 41 e8 9b 3d f3 c9 c1 bd 9b 6c d2 3d
       0.11763785 0.07612658 -0.09462347 0.10274621
0001f0 f8 96 37 bd 4b 3f 81 3d 05 65 54 be 11 1b 83 bd
       -0.04482171 0.063109 -0.20741661 -0.06401647
000200 54 28 f5 3c 50 92 3a bd 56 17 4c bc f5 de 17 3d
       0.029926457 -0.04554969 -0.012456736 0.037077863
000210 43 fc 5f bc 5d 1f 22 3d 50 10 2b bc 9f 04 43 be
       -0.013670984 0.03958069 -0.010440901 -0.19044732
000220 05 ca 90 3c e1 9c 50 bd 28 16 73 bd 14 63 c2 3b
       0.017674455 -0.05093086 -0.0593473 0.005932221
000230 7c b1 97 bd 8e 42 94 ba 71 17 00 be 26 0e c7 3d
       -0.07406899 -0.0011311339 -0.12508942 0.097194955
000240 16 b5 77 bd 07 85 cb bd ef d1 93 bd 19 22 ba bd
       -0.06047543 -0.09937482 -0.07217776 -0.09088535
000250 7c bd f3 bd 5e 29 94 3d d8 92 97 bd 48 2a 35 bd
       -0.11901376 0.07234453 -0.07401055 -0.044229776
000260 7e 56 83 bd 05 e3 7a bd 5f 41 0f 3d 22 58 5f bd
       -0.064129815 -0.06125166 0.034974452 -0.05452741
000270 66 8f 22 3d 5a 6e 8b bd 87 f4 1b 3d e9 34 60 3d
       0.039687537 -0.06808157 0.038074996 0.05473796
000280 71 90 c0 bb 67 fb 10 bd 2d b6 85 bd b8 65 e7 3c
       -0.0058765938 -0.035396006 -0.06528888 0.028246745
000290 23 fe 1e 3e ae e8 af bd 82 0f 88 3c 92 41 e6 bc
       0.15526633 -0.08589302 0.016608957 -0.028107438
0002a0 bc ca fe 3b 09 99 bc 3c 44 c3 c3 bd 7b 26 90 bc
       0.0077756327 0.023022192 -0.09558728 -0.017596474
0002b0 79 0f fa bd 17 15 56 bc 3c 3f f7 3c bc 51 83 bc
       -0.122099824 -0.013066552 0.03018152 -0.016030185
0002c0 e7 15 80 3d 2a 24 cf 3c fb 4a b9 bd c1 f8 b8 bc
       0.062541775 0.025285799 -0.090475045 -0.022579553
0002d0 99 ea 20 3d b0 d2 15 bd 52 c7 91 bd 39 24 fc 3c
       0.03928623 -0.03657788 -0.071180955 0.030778991
0002e0 17 2b 5c 3d 79 b2 22 be f4 fe f1 bd 55 69 82 bd
       0.05375203 -0.15888394 -0.118162066 -0.06367747
0002f0 62 7c 22 bd e6 88 71 bd e5 7e 32 bd f5 bb bf bd
       -0.039669402 -0.058968447 -0.043578047 -0.09362022
000300 14 25 ac bd 3e 4a 51 3b a9 bc 11 be bd d1 cf ba
       -0.084055096 0.003193512 -0.14232124 -0.0015855354
000310 19 a7 c6 bd 50 ca c1 3c 20 b2 af bd 9f 3b 05 bd
       -0.0969984 0.02365604 -0.085788965 -0.032527562
000320 db 88 c5 3d c4 2b 1d bd 75 1e 64 3d 61 bc 23 bb
       0.09645244 -0.038371816 0.05569311 -0.0024984109
000330 11 59 a9 3d 7b 50 9b bd ea f7 06 bd c4 8a f8 b9
       0.08268941 -0.0758371 -0.032951273 -0.00047405635
000340 78 4d 93 bd 63 fa 84 3d b5 51 6d bd 36 cc 8f bd
       -0.0719251 0.0649307 -0.05793925 -0.07021372
000350 b6 d9 1c 3c 05 a3 f5 3b e2 36 38 bc 87 b6 50 3d
       0.009573391 0.00749624 -0.011243554 0.05095532
000360 90 8d 4c 3d 4b dc 19 3e 0c 45 04 ba fe 1d 4c bd
       0.049939692 0.15025441 -0.0005045689 -0.04983329
000370 51 8f 6d 3b 05 0e b1 3c a7 b3 57 bc ca 0f 36 be
       0.0036248753 0.02161313 -0.013165391 -0.1777946
000380 9a cc eb bc 81 22 e4 bc bd 6e 7d bd 65 08 48 be
       -0.028784085 -0.027848484 -0.061873186 -0.19534452
000390 a2 0f 3d bd 3c 40 10 bd 61 fc 44 bd 5e 97 73 bc
       -0.046157487 -0.03521751 -0.04809225 -0.014867632
0003a0 b8 a8 bc bd ad 10 9a 3b e7 ef 8f bc af 6e 25 be
       -0.09211868 0.004701695 -0.017570449 -0.16155504
0003b0 cd 10 1a bd bb fd 8b bc f5 a3 13 3d 7d 0d 65 bd
       -0.03761368 -0.017088762 0.036045033 -0.055921067
0003c0 0e a9 c2 bd a5 9d 0e 3e 2e 41 ec bd 61 79 3d be
       -0.09504901 0.13927324 -0.115358695 -0.18503334
0003d0 6b 1e d8 3c 59 c4 0b be bb ff 2b 3c a4 dd cd bd
       0.026381692 -0.1364912 0.010497983 -0.1005204
0003e0 9f a3 ad 3d 53 e9 18 bb 32 03 4a 3d 6e 8b 8b 3e
       0.08478474 -0.0023332431 0.049319454 0.27254814
0003f0 01 b8 55 3c 45 03 0d 3e 29 1a 04 be 3a 24 dc 3d
       0.013044358 0.13770778 -0.12900604 0.10749097

lstm.bias_hh_l0 f4 [512]
000000 43 a8 20 be 49 a8 fb bd 4f dc 90 3b 25 dc fc bd
       -0.15689187 -0.12287957 0.004420794 -0.12346677
000010 26 8a b3 3d 8c ef 09 3d 40 af d5 3c 6b e3 f8 bd
       0.08766584 0.033675715 0.026084542 -0.121527515
000020 8e 32 aa bd ff 5a 07 be 87 41 d1 bd 75 01 8c bd
       -0.08310424 -0.13218306 -0.102175765 -0.068362154
000030 3b e4 70 3d 72 e9 9e bd 7c 4e 50 bd 1b 8d 74 3d
       0.058811408 -0.0775937 -0.0508561 0.05970488
000040 6c 9b f3 bd fd de 20 be 91 de 07 3d cf 69 e2 bd
       -0.11894879 -0.15710063 0.03317124 -0.11055338
000050 f2 6b 8f be 9f c1 d8 bd da 45 a8 bd ba 3c 8b bd
       -0.28012043 -0.10583805 -0.08216448 -0.06798692
000060 eb 51 7e bd 32 59 2c be 0d 9b cc bd 1c a5 b0 bd
       -0.06208984 -0.168309 -0.09990511 -0.08625242
000070 cf 62 26 bd d2 31 24 be a2 a1 1a be 4f 86 63 bd
       -0.040621575 -0.1603463 -0.1510072 -0.05554801
000080 7b 20 17 bd c9 72 22 3d 6b d2 a9 bd 0c 0a 0f 3d
       -0.03689621 0.03966025 -0.08292087 0.03492169
000090 a2 56 87 3d 70 74 01 be 7d e7 81 bd 10 0b 22 bd
       0.06608321 -0.12642074 -0.06342981 -0.03956133
0000a0 94 74 f1 3b c1 69 69 bd 24 82 53 bd 88 01 c6 bd
       0.0073686335 -0.05698562 -0.051637784 -0.09668261
0000b0 98 be eb bd e5 eb bf 3c c9 3e 9a 3d 96 5c cf bd
       -0.11510962 0.023427913 0.075315066 -0.10125081
0000c0 49 38 55 bc 0c d2 0e be b8 9c 17 bb c3 01 bc bd
       -0.013013908 -0.13947314 -0.0023134183 -0.091800235
0000d0 df 2b 5c bd e5 d9 38 be e6 8d e9 bd 74 7b 12 bd
       -0.053752776 -0.1805187 -0.11404018 -0.035762265
0000e0 2f 8c 7f 3c a6 bb 7d bd 1d 93 db bd 4a 62 26 be
       0.015597387 -0.061946534 -0.10721419 -0.16248432
0000f0 a5 e8 0a be fe 2f d9 bd c3 70 f0 bd 4a a5 a1 3c
       -0.1356531 -0.10604857 -0.117402576 0.019732136
000100 ef 07 22 be 00 b0 dc bc 49 b1 48 be 1d f5 a7 bc
       -0.15823339 -0.026939392 -0.19598879 -0.020502621
000110 66 ad 16 be ed 35 a0 bd 00 3b 49 bd a2 0d fc bd
       -0.14714584 -0.078227855 -0.049128532 -0.12307288
000120 5c 11 b7 bc c8 5a df bd 61 de a7 bc e3 13 34 bd
       -0.022347145 -0.10905987 -0.02049178 -0.043964278
000130 1f 3c 0b bd c5 e4 c6 bd 97 a3 b3 bd 94 34 f8 bd
       -0.033992883 -0.09711603 -0.08771437 -0.121194035
000140 74 8d 0c be c4 18 ff bc 40 46 3c be 0b 3a 87 bd
       -0.13725835 -0.031139739 -0.18386173 -0.06602868
000150 fc 47 dd bc 39 d4 12 be a2 40 2b be e1 d1 1b bd
       -0.027011864 -0.14338769 -0.16723874 -0.038041953
000160 22 53 56 3d 6b a5 16 3d 23 46 93 bd 1a 1f 34 bd
       0.052325375 0.03677885 -0.07191112 -0.043974973
000170 ef 8c ab bd 1c 70 2b bd ac 94 59 bd 74 b9 89 be
       -0.0837649 -0.041854963 -0.0531203 -0.26899302
000180 41 57 bb bd d7 45 f2 bd c7 35 8b bd 30 6b 69 be
       -0.09147502 -0.11829727 -0.067973666 -0.22794795
000190 3c 1f 16 3d 77 42 26 be 66 9f dc bd 85 76 6b 3d
       0.03665088 -0.16236292 -0.1077259 0.057486076
0001a0 5e 85 90 bd de c6 f0 3c 80 db a7 bc b1 92 2c be
       -0.07056688 0.029391702 -0.020490408 -0.16852833
0001b0 80 44 8d bd 77 52 a5 bd 66 11 a4 bd 8c c4 d4 bc
       -0.06897831 -0.080723695 -0.08011131 -0.025972627
0001c0 4b c1 d1 bd af 85 ef 3d eb b5 57 be d7 e1 23 be
       -0.10241946 0.1169542 -0.2106549 -0.1600412
0001d0 fa f2 d8 bd b5 7f 16 be be 5c 05 bd 59 b9 27 be
       -0.10593219 -0.14697154 -0.03255915 -0.16379298
0001e0 55 85 16 3d 44 16 4f 3d 86 18 c5 bd 09 d8 5a 3e
       0.03674825 0.050558344 -0.09623818 0.21371473
0001f0 bc 06 99 3d 96 d3 5d bd 7e 68 39 be 76 b3 c6 bc
       0.074719876 -0.054156862 -0.18106267 -0.024255496
000200 42 42 84 bd 00 ca 07 be 55 92 47 bd 8b 40 a3 bd
       -0.0645795 -0.1326065 -0.048723537 -0.07971295
000210 99 cb 09 3d 63 df a2 bc fb a0 06 3d 75 a8 4b be
       0.03364143 -0.01988191 0.032868367 -0.1988848
000220 83 85 74 3c 76 f3 b9 bd a1 2e fc bd cd 25 41 3a
       0.01492441 -0.090796396 -0.12313581 0.00073679985
000230 0a fa 9f bd 42 81 96 3d ab 2e c6 bd 10 e3 09 bc
       -0.07811363 0.07348873 -0.0967687 -0.008415952
000240 02 1d 7a 3b 87 e8 85 bd 06 cc ea bd 08 5d 7a bd
       0.0038164263 -0.06538492 -0.11464696 -0.061123878
000250 2d 32 76 be 83 89 c8 3c f3 80 91 3c bb 13 bd 3a
       -0.24042578 0.024479633 0.017761683 0.0014425436
000260 07 1c f8 bd 67 2d 2e be 02 5f 36 bc c3 51 a4 bd
       -0.12114721 -0.17009507 -0.01113105 -0.08023407
000270 97 ce cd 3d 01 a2 7a bd 5d 1a 3e 3c 87 c9 71 bd
       0.100491695 -0.061189655 0.011602965 -0.059030082
000280 66 4b b8 3b 25 81 bb 3d 59 90 ab bd 4c d0 35 3d
       0.0056242226 0.09155492 -0.083771415 0.0443881
000290 d0 66 0f 3e 18 d8 b5 bc 6d 0d 3e 3d 6a c6 b6 bd
       0.14004064 -0.022197768 0.046399523 -0.08924563
0002a0 fa 01 85 bd 3f 01 38 3d 58 29 ca bb 0e 4d b5 3d
       -0.064945176 0.044923063 -0.0061694793 0.08852588
0002b0 f5 76 da bd 2e c3 a3 bd de 8e 85 bd 22 9a ef 3c
       -0.106672205 -0.07996212 -0.065213904 0.029248301
0002c0 f9 60 10 3e 9a d6 42 3d f9 3e 08 bd a7 73 8b bd
       0.14099492 0.04756794 -0.03326318 -0.06809168
0002d0 c7 04 13 3e 8a 1a 19 be b4 94 ab bd 3b 5b 46 bc
       0.14357291 -0.1495153 -0.08377972 -0.012106712
0002e0 de e9 ab 3d ae b0 d6 bd a6 b2 a2 bd 17 41 97 bd
       0.08394216 -0.10482918 -0.07944231 -0.07385462
0002f0 a1 69 46 bd c0 73 cf bd b7 d1 4b be 60 8c eb bc
       -0.04844058 -0.101294994 -0.19904219 -0.02875346
000300 85 e1 4c be b4 6e 45 3c db 21 93 be 37 19 f9 3d
       -0.20007904 0.012050319 -0.28736767 0.121630125
000310 80 b6 6f 3d 00 a5 99 b8 87 13 21 be 4d 43 1e be
       0.058523655 -7.326342e-05 -0.15730105 -0.1545536
000320 67 cb c2 3c f4 8c 82 bd ac 6d 27 bd 97 4c 08 3d
       0.02377863 -0.06374541 -0.040876076 0.033276167
000330 56 f1 5d 3d fb 7c ca bd ee dd 95 3c da f3 1a ba
       0.054185234 -0.098871194 0.0182943 -0.00059109705
000340 67 c6 4f bd bc 15 a3 bd 8f 90 33 bd 6a 8b 89 bb
       -0.05072632 -0.0796313 -0.043839034 -0.0041975277
000350 4e dc 53 3d 2a af 81 bc ea 19 57 39 ea 11 d7 3d
       0.05172377 -0.015830595 0.00020513652 0.10501464
000360 0b 2d ad 3d f8 a0 d4 3d 44 c4 72 3d 72 49 0b 3c
       0.08455857 0.10382265 0.059269205 0.008501397
000370 ef 41 a0 3c 63 d0 0e 3c e7 ba 80 bd 3d 59 18 be
       0.01956269 0.008716675 -0.06285649 -0.14877792
000380 3c 1f 45 bd f8 6e b4 bd 36 de 9e 3b be c5 56 be
       -0.04812549 -0.08810228 0.004848267 -0.2097387
000390 41 4c d8 bb 3c e3 1d be 2c 12 a0 3d d9 9f 1c bd
       -0.006600887 -0.15418714 0.07815966 -0.03823838
0003a0 33 72 00 3d 98 d5 13 3e 8f e4 dc bd 3b 7c 1a be
       0.03135891 0.14436948 -0.107857816 -0.15086453
0003b0 d7 f1 44 bd d5 05 64 bd 78 fa d5 bb 15 88 be bd
       -0.0480822 -0.055669624 -0.0065301023 -0.09303299
0003c0 66 dd ff bd 62 fe b9 3d 65 a4 03 be 29 cf 56 bd
       -0.124934 0.09081723 -0.1285568 -0.052443657
0003d0 b6 4e 8f bc 19 00 40 bd 4d c9 ec 3c e2 ee f4 bd
       -0.017493587 -0.046875093 0.028904581 -0.11959626
0003e0 43 62 c4 3d 6b 92 00 3e c4 14 3b bc 08 db 56 3e
       0.095890544 0.12555854 -0.011418525 0.20981991
0003f0 36 ad 4d bd 28 88 94 3d 80 26 4f bd f8 f8 c2 3d
       -0.050214015 0.07252532 -0.050573826 0.09520143

lstm.weight_ih_l1 f4 [512, 128]
000000 eb 20 9b bb 10 6f bb bd 36 bd 44 bd 30 95 69 bd
       -0.0047341487 -0.09152043 -0.048032008 -0.057027042
000010 a0 e5 17 bd 00 d2 18 be 96 4c 83 3e 2f da 0b 3d
       -0.03708422 -0.14923859 0.25644368 0.034143623
000020 13 fa c5 3d 57 93 84 3e 24 ef 25 be 8e cb b3 bc
       0.096668385 0.2589366 -0.16204506 -0.021947648
000030 1c 80 85 be 4d f9 67 bd 99 0b 85 3d f2 98 8a 3c
       -0.26074302 -0.056634236 0.06496353 0.016918633
000040 47 43 f9 3b 72 3e 13 3d 89 8e 4d 3d fd de 16 3d
       0.007606897 0.035948224 0.05018476 0.036833752
000050 8c 32 d0 3d bf 94 7f 3d 17 9c 3d be 62 61 05 3d
       0.10165891 0.062397715 -0.18516575 0.032563575
000060 e5 8b 0e be c7 4c 47 3c ce 14 ee 3c f8 6c 84 3d
       -0.13920553 0.012164301 0.029062655 0.06466097
000070 57 ad 71 3d fa 0c df bd c8 b8 98 3c be 3a 81 bd
       0.0590032 -0.10891147 0.018642798 -0.06310032
000080 6a 4c 20 3e 09 44 d4 3b 3a d3 57 3e 5f 88 3b 3d
       0.1565415 0.006477837 0.2107667 0.04578435
000090 30 56 b9 bd 19 61 71 3e c7 20 a9 3d 3b fc 1e bd
       -0.09049642 0.23572196 0.08258205 -0.038814764
0000a0 ad f6 c5 3d 7e 43 c8 bb 0a bd cc bc 9f 79 0a 3e
       0.0966619 -0.0061115613 -0.024992485 0.13522957
0000b0 b1 42 0d be fa 64 9f 3c ea c5 d3 3d 42 27 1d 3c
       -0.13794972 0.019457329 0.103404835 0.009591879
0000c0 da f6 79 be e0 0c 07 bd 07 f6 65 bc d6 db 12 bd
       -0.24410573 -0.032971263 -0.014035708 -0.035854183
0000d0 38 2d 40 3e f5 21 25 3e 33 47 4a 3e bb 3c b7 bd
       0.1876725 0.16126235 0.19753723 -0.0894713
0000e0 13 fa 48 bd 40 f8 23 3a 92 6d 76 bd 54 d3 53 3e
       -0.049066614 0.00062549487 -0.06016309 0.20686084
0000f0 e9 14 78 3d be 9f 3a bd 8c ae 94 3d 13 9d 6a 3d
       0.060566816 -0.0455625 0.07259855 0.057278704
000100 ec e9 fb 3c ff f9 21 3d a8 db b5 3d fb b7 0e 3e
       0.030751191 0.039545055 0.08879787 0.1393737
000110 1d b2 18 3d d9 d0 62 be bc 92 94 bd d9 0f fc 3d
       0.037279237 -0.22149982 -0.0725455 0.1230771
000120 41 45 30 bd 5b 48 54 bb 02 04 8c 3d 80 de 15 3d
       -0.043034796 -0.003239176 0.06836702 0.036589146
000130 3e 80 c2 3d d4 8a 49 3d 90 78 ec bd ff ce db 3d
       0.094971165 0.049204662 -0.11546433 0.10732841
000140 58 ce c0 3d f8 ee 5d 3e eb 2c 01 bd e3 b1 c6 bd
       0.09414357 0.2167319 -0.031536978 -0.09701898
000150 00 58 f3 3d 27 4b ae 3c 19 2c 0f 3e 66 3c 8b 3d
       0.11882019 0.02127607 0.13981666 0.067986295
000160 d1 87 3d be 88 16 ff 3d d8 aa 03 be 4e 11 b0 bd
       -0.18508841 0.12455469 -0.1285814 -0.085970506
000170 e5 fd 52 be 26 e4 37 be fd a6 84 3b 90 b3 69 3d
       -0.20604666 -0.17958125 0.004048227 0.05705601
000180 29 08 d6 bc 93 6a 68 3d d2 e5 ed bd e4 12 b5 bd
       -0.026126938 0.056742262 -0.116161 -0.08841494
000190 a6 8a 3f 3c 14 3b e1 bd d4 c6 68 be d0 40 15 3e
       0.011690771 -0.109975964 -0.22732097 0.14575505
0001a0 f4 96 f4 bd 57 c1 39 be ed e2 e4 3d 43 41 9b 3d
       -0.119428545 -0.1814016 0.11176095 0.07580807
0001b0 8e 5b ca 3c 17 f5 72 bd e8 ed 4a 3e cd 07 e5 3d
       0.02470186 -0.059315767 0.19817317 0.111831285
0001c0 55 75 60 bd 35 68 6d 3d 39 21 86 3d af 98 a5 3d
       -0.054799397 0.057960708 0.065493055 0.08085763
0001d0 2b f1 d0 bd 9d a2 bb bd 85 ce ed 3a 92 49 4e 3d
       -0.10202249 -0.091618754 0.0018143213 0.05036313
0001e0 92 23 2c bd ae 04 10 3e 75 9b b8 bc 89 59 b0 3d
       -0.04202611 0.14064285 -0.022535065 0.086108275
0001f0 26 4e 80 bd 7b 68 16 3e 2b 45 3d bd aa 3e 34 3c
       -0.06264906 0.14688294 -0.04620854 0.011001268
000200 3e 91 1d 3d 9f 24 82 3d 25 aa 50 be 89 22 7b 3d
       0.038468592 0.06354641 -0.20377405 0.061312232
000210 a1 5c 05 3d 6b 94 5f 3e 7c 62 ae be 52 fd c5 3d
       0.03255904 0.2183396 -0.34059513 0.09667458
000220 61 c9 37 bd 5e e0 ff 3c ce b7 a7 bd 0b dc eb 3c
       -0.044869784 0.031234916 -0.08189355 0.028791448
000230 63 d2 03 3e b6 29 e4 bc da 90 b4 3c 25 83 cb 3d
       0.12873225 -0.02785192 0.022041727 0.09937123
000240 36 4f a7 bd 2d 87 07 bd 51 7a 92 3d cc 0e 36 3e
       -0.08169405 -0.033087898 0.07152236 0.17779082
000250 e7 24 c1 bd 39 c1 c0 3d 49 21 d3 3d 0d 6d e7 bd
       -0.09430867 0.09411854 0.10309083 -0.11300097
000260 4b cc d7 bb 47 8a 4f be 2c 88 de bc d8 70 33 be
       -0.006585633 -0.20267592 -0.027164541 -0.17523515
000270 9b 6f 5f 3d 9c 60 b2 bd 24 ab 2a 3d 60 1d 6e bd
       0.054549795 -0.08709833 0.04166712 -0.058133483
000280 22 36 58 be dd 16 8a bd 2a 91 4b 3e 57 81 01 be
       -0.211144 -0.06742642 0.19879594 -0.12646995
000290 f7 46 81 bd fb 87 1e be 14 fb f6 3d a0 24 2c bd
       -0.063123636 -0.1548156 0.12059608 -0.042027116
0002a0 d6 c2 ae bd de 57 e9 bc 85 48 22 3e f6 df 83 3a
       -0.08533256 -0.028484281 0.15847977 0.0010061252
0002b0 99 85 8a 3c a5 3b d0 bd b2 01 b9 bd aa e9 4a bb
       0.016909407 -0.10167626 -0.090335265 -0.0030962029
0002c0 31 5f a1 3e c9 6c 56 bd 4c 04 22 be 2d bd 6a 3d
       0.31517938 -0.05234984 -0.15821952 0.05730932
0002d0 d1 01 f2 bd 89 d7 90 3c cf 15 28 3e 07 7d a8 bd
       -0.11816753 0.0176809 0.1641457 -0.08226972
0002e0 59 43 67 bd 17 13 75 3c 51 eb 8c 3d ae 42 6b 3d
       -0.056460712 0.014958165 0.068808205 0.057436638
0002f0 f4 47 63 b9 60 fd d6 3c ef 0f 0b 3d 64 fe 2f 3d
       -0.00021675212 0.026243865 0.033950742 0.042967215
000300 f1 84 42 3e b7 4a 20 3c 74 2b b2 bd 3b 82 46 bc
       0.18996026 0.009783438 -0.08699694 -0.01211601
000310 98 06 9c 3d 61 08 99 bd 4e 6c 97 3d ab f8 28 3e
       0.07618445 -0.07472301 0.07393704 0.1650111
000320 88 59 14 3d 3b 44 b3 3c 91 1a a0 bb 56 6d 08 3e
       0.036218196 0.02188312 -0.0048859795 0.13322958
000330 81 8f c5 bc 87 78 48 3d 3c a7 ca bb 0a 0e b0 bb
       -0.02411628 0.04894307 -0.0061844867 -0.0053727673
000340 5f 43 b4 3c b7 b0 86 3d ce d6 3a 3e 9b 63 c8 bd
       0.022004781 0.065766744 0.18246004 -0.09784623
000350 6b 98 1b be 0c a4 92 3d 5c 37 86 3d 7c 74 ff 3c
       -0.15194862 0.07160196 0.06553528 0.031183474
000360 9c e8 97 3c e3 4e 82 be 16 41 c2 3d d0 56 bd 3c
       0.018543534 -0.2545081 0.094850704 0.023112684
000370 9f 95 41 bc a2 57 ea 3c 95 20 f0 bd 9b 9f 9b bb
       -0.011815458 0.02860624 -0.117249645 -0.004749251
000380 ce 25 8a be d0 db 7e 3d 59 90 1d be 37 6b 27 3d
       -0.26981968 0.06222135 -0.15387096 0.040873732
000390 dd 56 18 be b5 29 48 3e c3 24 41 3e dc 94 ce 3c
       -0.14876886 0.1954716 0.1886168 0.025217466
0003a0 57 fe 3e 3d 91 76 a7 3e 14 7a 89 bd 60 f6 c1 3d
       0.046629276 0.32707646 -0.06712738 0.094708204
0003b0 f9 f3 a6 3c ba 4a 5d 3e 71 29 63 3d fa 8b 0f 3e
       0.020380007 0.21610537 0.055459443 0.1401824
0003c0 20 72 44 3c d8 90 f7 bb 57 30 25 3d 66 6b 60 3d
       0.0119901 -0.0075551085 0.040329304 0.054789923
0003d0 f4 2f e6 bd 51 cf 0f 3b 83 30 dd bd 99 c2 a0 bd
       -0.11239615 0.0021943639 -0.108002685 -0.078496166
0003e0 63 fc 4f bd d9 65 03 3d 77 3e 15 be cc 0c 04 be
       -0.050777804 0.03207955 -0.1457461 -0.12895507
0003f0 d7 81 ef bd f5 06 f0 bd 7f 8d 7e bd af 53 20 bc
       -0.11694687 -0.11720077 -0.06214666 -0.009785577

lstm.weight_hh_l1 f4 [512, 128]
000000 52 21 48 bd 9d 14 c6 3d f2 6b 3a 3c b9 9e b7 3d
       -0.0488599 0.096719004 0.011378275 0.08965821
000010 f2 4d 2b 3e 42 bf 66 3c d8 39 52 3d ec 93 a1 3d
       0.16728953 0.014083685 0.051324695 0.07889542
000020 78 da c6 3c 4b 0c 77 bd 80 95 82 be 2e 1c 83 bd
       0.024274096 -0.060314458 -0.25504684 -0.06401859
000030 39 f3 c2 bd e6 8c 09 3e 34 c7 de 3c 48 c9 9d bd
       -0.09519047 0.13432655 0.027194597 -0.07704407
000040 27 08 b5 3d 2a b5 18 bd 6a 12 64 3e 06 59 7a bd
       0.088394456 -0.037282147 0.2227265 -0.061120056
000050 ca 94 e8 3b 3f 2a fc 3c 90 d6 08 3e 36 37 19 bc
       0.007097815 0.030781863 0.13363099 -0.009351542
000060 07 47 0d 3e dd 77 a6 bd 74 43 6e bd 30 54 77 3c
       0.13796626 -0.08128331 -0.058169797 0.015095755
000070 6c 01 5c 3d 99 41 78 bc db 19 94 bd 79 1f cb bd
       0.053712294 -0.015152358 -0.07231494 -0.09918112
000080 8d 14 cf 3c 6e 6c 55 3c cf ee b0 bd 96 a1 0f 3d
       0.025278354 0.01302634 -0.08639299 0.03506621
000090 c6 c0 51 3e 8d 92 9e bc 09 94 77 3d 0c dd be 3c
       0.20483693 -0.01935699 0.06044391 0.023298763
0000a0 ad dd b4 bc b7 37 a6 bc db c7 a9 bd fa ab a9 3d
       -0.02207836 -0.020290239 -0.082900725 0.08284755
0000b0 c9 95 4e 3d 27 8b c7 3c f2 0e da bb c7 c9 3f be
       0.050435815 0.024358345 -0.0066546137 -0.18729316
0000c0 2c e4 09 3e b2 25 94 3c fe 3a 0f 3c 61 f6 fa bd
       0.13465947 0.01808438 0.008742092 -0.12254024
0000d0 bb 96 4f bd 66 ae 7a bd ea d5 04 3d a9 97 7b 3d
       -0.050680857 -0.061201476 0.032430567 0.06142393
0000e0 3a c1 0a bd 34 b8 5f bd 1a 5e 83 3d 39 40 46 3b
       -0.03387568 -0.05461903 0.06414433 0.0030250682
0000f0 31 35 13 be 0d 73 b3 3d e5 94 93 bc 5e 0e 76 bd
       -0.1437576 0.087621786 -0.018015334 -0.060072295
000100 a7 e2 be 3d 2c fa e3 3c 3f 42 1c bd 83 ba 0f 3d
       0.09320574 0.027829252 -0.038149115 0.03508998
000110 98 6a f7 3b eb 62 28 bd 68 3d e4 bc 36 e2 87 bd
       0.0075505488 -0.04110996 -0.027861312 -0.06634943
000120 85 ab 99 3d 2b 7e d9 bc fd 80 8e 3d c1 53 44 bc
       0.07503418 -0.02654942 0.06958196 -0.011982859
000130 ca f3 9f 3d ec c5 fd 3c be c7 10 bd 78 43 f1 bc
       0.07810171 0.030978166 -0.03534674 -0.029451117
000140 55 e9 93 3c dc 8d d8 bc 6e 8a 79 3c a8 80 05 3c
       0.018055597 -0.026434831 0.015230758 0.00814835
000150 65 b1 39 3d f9 7f bb bd 18 40 c8 bd 08 8f 18 bd
       0.045335192 -0.09155268 -0.0977785 -0.03724578
000160 d9 f3 26 bc f3 5f 57 3e 86 28 2e bd e6 f5 2a bd
       -0.010189974 0.21032695 -0.042519115 -0.041738413
000170 21 b7 3d bb ad be b7 3d e0 d0 b1 bd 1d 7c 27 ba
       -0.0028948265 0.089719154 -0.08682418 -0.0006389039
000180 01 b1 03 be 38 5a 1d 3e c5 bb 3a be 79 33 d7 3d
       -0.1286049 0.15366447 -0.18235691 0.105078645
000190 fd d5 a1 3d 7a ca a8 3c 46 f9 99 3d 01 ce df bc
       0.07902143 0.02060436 0.07518248 -0.02731991
0001a0 26 74 90 bd 78 4d e9 3d 61 98 a4 bd 83 be fb bc
       -0.070534036 0.11391729 -0.080368765 -0.030730492
0001b0 8e c5 68 3d 08 18 b4 bd b6 da e2 3b 54 a4 ff 3c
       0.056829028 -0.08793646 0.006923045 0.031206287
0001c0 24 7e 93 3d 34 3d 70 3d af cc 34 3c 36 46 39 bd
       0.07201794 0.058652118 0.0110351285 -0.045232974
0001d0 c1 12 3a 3e 07 e0 2f 3e a8 9f 84 3d 67 2d 58 3d
       0.18171217 0.17175303 0.064757645 0.052777674
0001e0 51 0c 01 bd ff 7a 86 bc 82 54 70 3c 53 e4 0c be
       -0.031505886 -0.016416071 0.014668586 -0.13758974
0001f0 56 1f 66 bd a5 5d 12 bc d2 bb 6b bb 51 99 d0 bb
       -0.056182228 -0.008933459 -0.0035970104 -0.006365933
000200 78 25 2a 3c b7 73 b0 bc 04 19 53 bc ab 45 4f bd
       0.01038491 -0.021539552 -0.012884382 -0.05060355
000210 3f 00 35 3d de 91 42 3c ed d0 1a bc 37 67 82 bd
       0.044189688 0.011875598 -0.009449226 -0.06367343
000220 de 83 f7 bc 37 01 06 3e 30 c9 0c bc 96 73 34 bd
       -0.030214246 0.13086401 -0.008592889 -0.044055544
000230 c0 13 a8 3d f2 4a a9 bd d2 ed 5f bd 7a eb 48 3c
       0.08206892 -0.08266248 -0.054670162 0.012263173
000240 a8 64 85 bd 35 e5 d3 3c 83 b9 8b bd 7a 53 05 3d
       -0.06513339 0.02586613 -0.06822493 0.032550313
000250 0b f4 11 bc d2 09 94 bd 72 c8 1c be af a8 08 bd
       -0.008908282 -0.072284356 -0.15310839 -0.033363994
000260 0d 24 0a 3e da aa 81 3d fe a3 0a 3e c1 29 82 3d
       0.13490315 0.063314155 0.1353912 0.0635562
000270 12 8c cb 3c af 11 34 bd e9 96 20 bd 5b 98 5e 3d
       0.024847064 -0.043962177 -0.03920642 0.054344516
000280 90 7e 19 3c 63 8c cf 3d 82 7f b4 bd 9a cb ae bd
       0.009368554 0.101341985 -0.08813383 -0.08534928
000290 da 15 ee 3c 31 21 81 bd c2 bb 81 bc 07 14 ac bd
       0.029063154 -0.06305159 -0.0158366 -0.084022574
0002a0 e1 22 cc 3c e5 15 9a bb ea b2 98 3d f8 88 50 3d
       0.024918975 -0.004702317 0.07456 0.050911874
0002b0 da fe 1a bd bf 48 c2 bc d3 e4 03 be 5f 71 9a bc
       -0.0378407 -0.023716329 -0.12880258 -0.018852888
0002c0 04 37 9b 3b b7 a2 22 bd 86 b6 06 3d f6 52 58 bc
       0.004736783 -0.03970596 0.03288891 -0.013203373
0002d0 f6 da 76 3d f5 f9 32 3b 02 34 b1 bc 91 4c 07 3c
       0.06026741 0.002730963 -0.021631245 0.008258001
0002e0 80 79 31 bd 7f 61 e1 3c 4a da fd bd 15 41 1f be
       -0.043328762 0.02751231 -0.12395151 -0.1555217
0002f0 ce 39 85 3d 4c 08 40 3e 90 d4 66 3c fb 91 88 bc
       0.06505166 0.18753165 0.014088765 -0.016671171
000300 b9 d4 b3 bc 0a 98 a0 bc b0 4b 2d be 7d 24 6c 3c
       -0.02195202 -0.019603748 -0.16923404 0.014412996
000310 19 98 36 bd fb 1b e3 3c e4 c0 7a 3d 97 60 92 bd
       -0.044578645 0.027723303 0.06121911 -0.07147329
000320 f2 36 ec bd 76 37 1b bc 32 f0 83 bd 02 9d c4 bd
       -0.115339175 -0.009473672 -0.06442298 -0.09600259
000330 87 5c d0 bb e8 14 44 bd 6f 6d 67 bd dd 57 03 bd
       -0.0063586864 -0.0478715 -0.05650085 -0.032066215
000340 bc da b8 3d a5 9d 31 bd 0f 4f b1 3d 6c 95 64 3d
       0.09026095 -0.043363232 0.08657657 0.055806562
000350 93 00 c6 3d 97 1f 91 bd 0e 0f 0b bd 85 c4 ae bb
       0.09668078 -0.070861034 -0.033949904 -0.0053334855
000360 b7 c5 f0 bd 0b a8 84 bd 6f 71 92 bc 06 b7 a4 3d
       -0.11756461 -0.06477364 -0.017876355 0.080427215
000370 a4 9f 3e 3a 50 c0 b7 bd 62 b7 39 3e 6a ee 24 3d
       0.0007271713 -0.089722276 0.18136361 0.040266432
000380 59 e8 88 bc b9 77 63 3c 6d 95 a1 bd 75 6e f7 bc
       -0.016712354 0.013883525 -0.07889829 -0.030204037
000390 14 f0 9b 3b 23 60 69 3d 21 97 95 3d 76 75 0e bd
       0.004758844 0.05697645 0.07304216 -0.03477999
0003a0 ae ea c6 3c e7 28 56 3d 52 0f 0a 3d f4 8f a7 3d
       0.024281826 0.0522851 0.033706017 0.08181754
0003b0 6e a6 4b bd 6b 66 b3 bd 3f 03 f2 3c 6b 37 90 bd
       -0.049719267 -0.08759769 0.029542563 -0.0704182
0003c0 2c 5a e0 3c 61 60 d8 bd 6e ff a2 3d 28 7c dd bd
       0.027386747 -0.10565258 0.079588756 -0.108146966
0003d0 6c a9 b3 bc f2 14 06 bd 3f 00 a1 bc 5e f0 68 bd
       -0.021931373 -0.03273482 -0.019653438 -0.056869857
0003e0 21 42 8d 3c 03 87 22 be 9b fa b7 bd 3d ff 68 bc
       0.017243447 -0.15871815 -0.08983346 -0.01422101
0003f0 a5 a9 d0 3d 11 f8 06 be d3 94 57 bd 94 06 a5 3c
       0.10188607 -0.13180567 -0.052632164 0.020144738

lstm.bias_ih_l1 f4 [512]
000000 eb 46 70 bd 5f 99 0d bd 48 8a 40 be da b4 14 be
       -0.058661383 -0.034570094 -0.1880275 -0.14522114
000010 ef e8 7e bd b8 37 9a bc b2 a6 bc bd 5c 95 e3 bc
       -0.06223386 -0.018825397 -0.09211482 -0.027781181
000020 f7 6f 86 bd 6f 5c 31 be 97 e3 58 be e1 43 0e bd
       -0.06564324 -0.17320417 -0.21180569 -0.034732703
000030 3c 26 e1 bd 14 64 1b be 56 4e dc bd 62 40 2c be
       -0.10993621 -0.15174896 -0.10757129 -0.16821435
000040 e4 c7 96 bd 11 5d cb bd b8 6f d5 bd 6b 97 5c 3d
       -0.07362345 -0.099298604 -0.10421699 0.05385534
000050 65 e4 ee bd 24 40 11 be 6e 8e 7f bd 47 b5 94 bd
       -0.116646565 -0.14184624 -0.06239169 -0.072611384
000060 9c ca 47 be bc 46 00 3e 20 cb eb 3d c3 7a 04 3d
       -0.19510883 0.12526983 0.115133524 0.032343637
000070 c3 46 8a 3c ba b9 0f be 2a a3 4c 3d a2 99 d4 bd
       0.016879445 -0.14035693 0.049960293 -0.10380866
000080 b0 73 2e bc 89 11 ce bd 45 9d 8d be 10 a4 7b 3d
       -0.010647699 -0.10061938 -0.2765905 0.06143576
000090 6b 33 22 be 2c 4a 65 3c 8f 68 2a bd 24 2e 6e be
       -0.15839927 0.013994735 -0.04160362 -0.23259789
0000a0 c3 0c 6f bd ef 5d 64 be e3 c3 07 be 65 da 68 be
       -0.05836178 -0.22301458 -0.13258319 -0.22739561
0000b0 1e c5 67 be f1 2e 51 be dd d5 8a 3d 58 47 82 bd
       -0.22633788 -0.20428063 0.067790724 -0.06361264
0000c0 2b 38 50 3c 8b 23 98 bd d8 25 0a bd 6c 38 8d bd
       0.012708704 -0.07428654 -0.033727497 -0.06895527
0000d0 e1 e6 d5 bd 06 a2 30 bd 9e 87 6e be c1 95 b9 bc
       -0.10444427 -0.043123268 -0.23293921 -0.022654416
0000e0 d3 43 22 be ac 9b 02 3b f9 62 1e be c4 1c 28 be
       -0.15846185 0.0019929213 -0.15467443 -0.16417223
0000f0 95 00 2e be 93 d0 67 be 19 ce 13 be d0 e4 af bd
       -0.1699241 -0.22638159 -0.14434089 -0.085885644
000100 0f 03 24 bd cb 6f ea bd 24 7a 2a be a6 95 42 be
       -0.04004198 -0.11447104 -0.16648155 -0.19002399
000110 54 ad cb 3d 65 f5 b7 bd 46 02 35 be e6 6e ce 3c
       0.09945169 -0.08982352 -0.17676648 0.025199365
000120 25 9a 91 3d e4 39 60 3d 46 17 1e bd f7 2e 85 3d
       0.07109479 0.05474271 -0.038596414 0.065030985
000130 1e b4 51 bb b8 61 dd bd 71 8d 14 be fe 5b 2a be
       -0.0031998227 -0.10809654 -0.1450708 -0.16636655
000140 c3 b9 dd 3d b2 50 68 bd 9a d5 6d be 68 d1 fb bd
       0.10826447 -0.056717582 -0.23226014 -0.122958004
000150 b9 34 f0 bd 18 7e e2 bd 0e cb 20 bd ac 1f 8d bd
       -0.11728806 -0.11059207 -0.039256148 -0.068908066
000160 7f 99 39 be 8c 74 33 bd ed 5d de ba 79 57 87 3d
       -0.1812496 -0.04381232 -0.0016965248 0.06608481
000170 f4 fb 56 be 5c 83 69 bd 3d 89 8e be 38 31 3d 3d
       -0.2099455 -0.05701004 -0.2783908 0.046189517
000180 c1 04 c4 bb 02 21 e8 bd f3 c7 4a be 52 ac 99 bc
       -0.005982012 -0.11334421 -0.19802837 -0.018758927
000190 7a 95 15 be 16 9c f0 3d f8 55 3c be 37 14 d6 3a
       -0.14607802 0.11748521 -0.1839217 0.0016332929
0001a0 33 1a f7 3c e6 db 22 be 03 ec 49 be f3 19 33 3d
       0.03016386 -0.15904197 -0.19718938 0.04372592
0001b0 69 5f bf 3d f3 7e d4 bd 12 d5 34 be df 3c 1d bd
       0.0934437 -0.10375776 -0.17659405 -0.03838813
0001c0 02 24 0a 3d 0a bf f2 bd a8 cb e2 3d 9c 4c d8 bd
       0.033725746 -0.11852844 0.110740006 -0.10561487
0001d0 c1 af 61 bd 74 60 54 be 00 50 11 bd 99 e2 96 3c
       -0.055099253 -0.20739919 -0.035476685 0.018418597
0001e0 bf a7 6b 3d b0 60 11 bd a7 1b 61 be 87 b2 f4 bd
       0.057533022 -0.0354926 -0.21983205 -0.11948114
0001f0 4e cc 1d be 53 28 f5 bd 7d 71 88 bd f2 76 ed bd
       -0.15409967 -0.11970582 -0.06662271 -0.11594953
000200 06 d3 88 bd 94 fb 09 3e 72 cd c1 bd 80 9a 04 bd
       -0.066808745 0.13474876 -0.09463014 -0.032373905
000210 91 ab 60 3b ca ed f9 bd 41 b3 ae bd 8d c8 c7 3c
       0.003428195 -0.12203558 -0.08530284 0.024387622
000220 b0 5a ac 3d 10 c1 a9 bd 1e 0b 76 bd 6e 06 ad bd
       0.08415735 -0.08288777 -0.060069196 -0.08448492
000230 98 94 c6 3b fb 0d a1 3b f3 e3 cb bd 4a 9a 15 bd
       0.006060194 0.0049149967 -0.09955587 -0.036524095
000240 20 2f 2b 3d 73 21 43 be d1 31 be bd 93 8a 8f bd
       0.04179299 -0.19055729 -0.092868455 -0.07008853
000250 a1 65 c3 bd f7 00 d0 bd 0d 8d 7d bd d1 d2 ec bd
       -0.095408686 -0.10156434 -0.061902095 -0.115636475
000260 29 b1 c5 bd 83 d2 0d bd a2 7f ca 3d 87 17 8e 3d
       -0.09652931 -0.034624588 0.09887625 0.06938081
000270 0a a7 5a bd 80 ae 5d bd ff 42 88 3a ee 50 12 be
       -0.053381957 -0.054121494 0.0010395943 -0.14288685
000280 25 ed dd bc 1c 98 9c bc 55 db 3a be 38 76 13 3e
       -0.027090618 -0.0191155 -0.18247731 0.14400566
000290 5e e6 0a be 50 28 7c 3d 62 e5 0a 3e be 92 06 be
       -0.1356444 0.061561882 0.13564065 -0.13141915
0002a0 04 69 61 bd ae a8 2f be 24 ca 5d bd 1c 7e 14 be
       -0.05503179 -0.1715419 -0.054147854 -0.14501232
0002b0 0b 45 68 be 43 3d 34 be 6e 81 e2 bc a5 5a d9 bd
       -0.22682588 -0.17601494 -0.027649608 -0.10612992
0002c0 72 09 b4 bd e9 82 c1 bc 30 65 c3 bd 2d d7 06 be
       -0.08790864 -0.023621993 -0.09540784 -0.1316802
0002d0 2a 29 2f be 77 13 6e be 63 42 9f bd f2 26 ab 3d
       -0.17105547 -0.23249613 -0.07776334 0.083570376
0002e0 6e 38 41 be 80 40 aa ba 80 17 45 bd a8 80 26 be
       -0.18869182 -0.0012989193 -0.048118114 -0.16260016
0002f0 25 66 ee bc 6f 08 d2 bd 5f d4 12 be cc 93 82 bd
       -0.02910144 -0.10255515 -0.14338826 -0.06375846
000300 58 f0 81 bc 83 7b c1 bd 80 fd a6 bd 92 83 cc bb
       -0.015861675 -0.09447386 -0.0815382 -0.0062412703
000310 7b 9f 02 3e bc 4e fc bd 10 7c c1 ba 27 5c 39 bd
       0.1275615 -0.12319705 -0.0014761705 -0.0452539
000320 f9 e9 34 3d 54 27 73 ba f7 65 01 3d de ae 23 3d
       0.044168446 -0.00092755747 0.031591382 0.03996169
000330 44 41 c1 3b 5d 09 1a 3d 3d 21 75 bd f1 24 22 bd
       0.005897673 0.037606586 -0.05984615 -0.03958601
000340 93 5a 5f bd df 59 fe bd 83 02 95 3e 07 b7 63 be
       -0.054529738 -0.12419485 0.2910348 -0.22237788
000350 b2 c2 5f bd 0b 20 08 be 39 cc ae 3d a3 42 47 be
       -0.054629035 -0.13293473 0.08535046 -0.19459014
000360 cd 83 1d be ae 38 9a bd d2 4f 4e 3d 71 08 51 3d
       -0.1538231 -0.07530342 0.05036909 0.05103344
000370 3e ac d8 3c 1d 8c 77 bd 1e 0f 10 be e1 24 ec bc
       0.026449319 -0.060436357 -0.14068267 -0.028826179
000380 12 4d c7 3d 6e 75 27 be 5b 87 98 bd aa ec f8 bd
       0.09731497 -0.1635339 -0.07447692 -0.12154515
000390 a5 31 20 be 62 21 09 bd a0 b3 cb bd 3a 47 0b bd
       -0.15643938 -0.033479102 -0.0994637 -0.034003474
0003a0 69 e9 ec bc c9 a0 07 be 14 54 3e be db 31 2a 3d
       -0.028919892 -0.13244928 -0.18586761 0.041551452
0003b0 2b be 9e 3d e0 ac 9e bd 12 bc dc bd d2 e2 d5 3c
       0.077511154 -0.07747817 -0.10778059 0.026109133
0003c0 e0 e2 ed 3d 93 5c a3 bd 01 d2 86 3b 8b f4 9f bc
       0.116155386 -0.079766415 0.00411439 -0.019525787
0003d0 2b 8d 9d 3b ce 13 27 3c 85 5d d9 bd c8 93 03 3d
       0.0048080883 0.010197593 -0.106135406 0.032123357
0003e0 c3 d4 d9 3d fe cf 89 bc bd c3 c2 bd 21 ec 02 be
       0.10636284 -0.016822811 -0.0950999 -0.12785389
0003f0 c3 c7 50 bd 9c a8 40 be bd fa 95 3c 54 50 31 be
       -0.050971758 -0.1881432 0.018308038 -0.17315799
