experiment_testing/mz-testing/checkpoints/ptbxl/250hz/cnn1d/fold_1/best.pt (torch, 628765 bytes, 26 tensors)

features.0.weight f4 [32, 12, 7]
00000000: 046a a13d adf5 b83d 0df4 71bc 6df6 e03d
00000010: 5006 85bc fb0d bf3c d6b5 3fbd 15f0 a33d
00000020: 3f01 dd3d 6d9c 80bd e704 d43d 4b62 ed3c
00000030: a3a6 a63d 8e1c 863c acad 643d daa0 b4bc
00000040: 1522 873d 3452 88bc 5ba7 c6bd b3d2 98bc
00000050: a4c1 bfbd df1f 07bc 1d28 38bd dc15 5c3d
00000060: a9fa c7bd bb3b 77bd 4eb2 cfbc 20d1 75bd
00000070: 046c d0bc 7938 09be 8e31 ae3d 3978 bdbd
00000080: 0edc bf3d 559b df3c 25a5 e1bc b7df a73d
00000090: 7ac2 af3c 9f65 9c3d dd6e 82bc 95dc 93bd
000000a0: 9dba 4fbc 3d91 93bd 3c39 793d 26cf cd3d
000000b0: aa73 553d 303d 7fbd 85d5 353d 7cee 9d3b
000000c0: 4417 223d 9040 7ebd 71e3 d4bd 587b 1dbd
000000d0: 2e8b 98bd a589 d73d f0d4 593d d637 8c3d
000000e0: 84ea 323d b667 443c f92b d63d 015f 45bd
000000f0: 79a1 3c3d 0366 fcbc 088e a03d d468 cebd
00000100: 8836 f6bc 0717 acbd 6b55 133d 5399 d8bd
00000110: 5681 c9bd 4e2e c2bd 7e26 ea3d 6be3 3a3d
00000120: 4804 da3d 9487 babd e672 d6bd 29c5 aabd
00000130: ea49 8ebd a568 b93d ca27 ba3d 7cbb 173e
00000140: 26a9 3a3b 1804 67bc a8eb db3d 113b 653a
00000150: 51b4 f33d b602 63bc f695 4b3d 9a70 e6bd
00000160: 9bd2 a4bd 74b1 f9ba 17a1 d5bc a43a bfbb
00000170: e3fb 843d f3a1 8e3d 836d a2bd 4099 80bd
00000180: e0b7 943d d5c4 8cbd 861f b6bd ac39 13be
00000190: 8e5b 93bd fe60 643d 7bab ca3c 46c1 31bd
000001a0: 7df1 423d ba1c 06be 7d04 e6bd 0769 7abd
000001b0: 67c0 afbd d0f4 54bd e326 143e 1852 853d
000001c0: b63e 063e 3d03 26bd 604f 3cbd 1ec6 4fbd
000001d0: 4c83 87ba 8059 f6bd 0955 b1bd 4d2a 7abd
000001e0: 0d38 e2b9 57e4 fbbc 8c87 b83c cd87 25bd
000001f0: da12 5ebd c49d 17bd b76f acbd fdc0 e8bd
00000200: 6dea a03d 28a3 f6bc a70a b73d e295 173d
00000210: 68ba 98bd 13b1 b13d 4869 61bc 0b7a 19bd
00000220: f6e9 cfbd b8e0 0bbe 7af1 e13a 0bed 52bd
00000230: a6c7 b33d b0cf 54bd 967f d63d 7cf7 92bd
00000240: 3984 8abc d914 d53c e1d8 6b3d e0ce 013e
00000250: 9b19 063e ef73 85bd e40b 283d aacd 01bd
00000260: 26f4 053c d013 86bd 7790 d73d c312 a1bd
00000270: a4a7 4b3d 0a4b 9b3c dff4 413c 370f a7bd
00000280: 9182 993d fc74 1f3d 0eda b13c cd27 cbbd
00000290: 5944 0a3d bb6d 11bd e93b 90bd 36bc 9b3d
000002a0: 6a53 553c e971 cbbd bc51 ecbd d798 35bd
000002b0: 5ae8 ae3c 3e1b 5ebd 2cdb 7fbd b9d4 a93c
000002c0: 305f 3bbd 859a 1e3d 789e 823d fb64 09be
000002d0: 2a9e f1bc a81e 64bc 8ac6 213d 4729 97bb
000002e0: d6c0 c53d 2af9 a13d e24f 823d 2c5e 1fbc
000002f0: 6c34 26bd ca9f 9cbc 84ad b4bc 3373 8cbb
00000300: da98 c53d 3136 fe3d ae4b 063d 2879 a63c
00000310: 1899 373c d2de edbc 570b 74bc e070 623c
00000320: 8813 fbbd 05e8 36bd 1da7 ef3d 6c3c bf3d
00000330: 2d20 1f3d cabe 16bd 9709 6cbd 3183 d0bd
00000340: 0c81 68bd 9075 f039 26a8 e6ba a264 d0ba
00000350: a23d 08be 660d bebd be58 0fbd 0c21 d43d
00000360: 5c2e 093d a8d4 b2bd f378 dab9 5ef2 9cbd
00000370: 639a c7bd 640f 923d 2421 ccbc 68e0 0a3d
00000380: b5d7 0cbe 3ba1 303d 9ad8 503d 904a 983b
00000390: 5295 cbbd 0846 d6bd 05e1 6cbd 9b12 e13d
000003a0: 6e6e 8c3d 3930 bc3d 3b51 353d 1e1c 663c
000003b0: 3851 bbbb 8ae1 a2bd ddb5 74bd f936 aabd
000003c0: 2942 363d c698 8cbd cccf 37bd e7e9 a0bd
000003d0: 2bb1 09bd e86b 53bd bc42 7abd cdb5 d93c
000003e0: fdd9 5fbd 81ce 143d e2e6 85bd b2c1 ddbd
000003f0: 47ac 1abd 2629 b2bd a6e0 96bd d280 19be
0.07881549 0.09031234 -0.014767659 0.10984502 -0.016238362 0.023322096 -0.04680427 0.080047764
0.10791253 -0.06279836 0.103524975 0.028977534 0.08137252 0.016371038 0.05582969 -0.022049356
0.065982975 -0.01664076 -0.09699889 -0.018655157 -0.09363106 -0.008247345 -0.04496013 0.053731784
-0.097646065 -0.060359698 -0.025353577 -0.06001389 -0.02544213 -0.13400449 0.085055456 -0.09251446
0.09368144 0.027295748 -0.027544567 0.08196967 0.021455038 0.0763657 -0.015922004 -0.07219807
-0.012678769 -0.072054364 0.0608456 0.10049276 0.05211226 -0.062314212 0.04439308 0.0048196893
0.03957297 -0.06207329 -0.103949435 -0.038447708 -0.074484214 0.105243005 0.05318159 0.06846587
0.043680683 0.011987617 0.10457606 -0.048186306 0.04605243 -0.030810362 0.0783959 -0.10078588
-0.0300553 -0.084028296 0.035970133 -0.10576119 -0.09839122 -0.09481488 0.11433123 0.04562704
0.10645348 -0.09107891 -0.10471134 -0.083383866 -0.06947692 0.090531625 0.090896204 0.14817613
0.0028482168 -0.014100097 0.10738307 0.00087444583 0.11899627 -0.013855627 0.04970356 -0.11251946
-0.08047982 -0.0019050078 -0.02607779 -0.005835848 0.06493356 0.06964483 -0.07931044 -0.0627923
0.07261634 -0.0687348 -0.08892731 -0.14377469 -0.07195197 0.05575656 0.024739971 -0.04339721
0.047593582 -0.13096896 -0.11231325 -0.061135318 -0.0858162 -0.051991284 0.14467959 0.06509799
0.1310986 -0.040530432 -0.045974135 -0.05072605 -0.0010338812 -0.120287895 -0.08658797 -0.061075497
-0.0004314784 -0.03074853 0.022525571 -0.040412713 -0.054217197 -0.03701569 -0.084197454 -0.113649346
0.07857213 -0.030107096 0.08937579 0.037008174 -0.07457429 0.08676352 -0.013758011 -0.037469905
-0.101520464 -0.13659942 0.0017238103 -0.051495593 0.08778314 -0.05195588 0.10473554 -0.0717611
-0.016908752 0.026010917 0.05757988 0.12676573 0.13095705 -0.06516253 0.041026965 -0.031690277
0.008175885 -0.06546748 0.10525601 -0.07864907 0.04972042 0.01895668 0.011838167 -0.08157199
0.07495607 0.038929924 0.021710422 -0.09919701 0.033756588 -0.035505038 -0.07042677 0.07604258
0.013020376 -0.09933836 -0.11539027 -0.044335213 0.021351028 -0.0542252 -0.062464878 0.020731317
-0.045745075 0.03872158 0.06377882 -0.13417427 -0.029494364 -0.013923325 0.039495982 -0.004613075
0.09655921 0.079088524 0.06362893 -0.009727042 -0.040577337 -0.019119162 -0.022055395 -0.0042861938
0.09648295 0.1241268 0.032787018 0.020321444 0.011205934 -0.029036913 -0.014895282 0.013820857
-0.12259585 -0.044654865 0.11701796 0.093376964 0.038849045 -0.036803044 -0.057626333 -0.10181273
-0.056763694 0.00045863958 -0.001759772 -0.0015899132 -0.13304761 -0.09279899 -0.03499674 0.10357866
0.033491477 -0.08731967 -0.00041670314 -0.07663415 -0.09746244 0.07131842 -0.024918146 0.033905417
-0.1375416 0.04312251 0.050987817 0.0046475604 -0.0994059 -0.10462576 -0.057831783 0.10989877
0.06857 0.09188885 0.04426692 0.01404479 -0.005716469 -0.079531744 -0.05974375 -0.083112665
0.04449669 -0.06865077 -0.044875905 -0.07857113 -0.033616226 -0.05161658 -0.0610988 0.026575947
-0.05465125 0.03632975 -0.06538178 -0.1082796 -0.037761953 -0.08699255 -0.07367067 -0.14990547

features.0.bias f4 [32]
00000000: 89f3 79bd 198f 053d f99e b13d a713 1e3e
00000010: d508 a73c 4f80 94bd 1d19 d03d e0f6 ae3d
00000020: 6a66 783d 6a0a 97bd 14ef 06bd 547b e6bd
00000030: 6dcc 8c3d 8e0a d2bc 51b8 dfbc fe8a 583d
00000040: eae1 54bb 7501 66bc 4d9e fd3c ebe2 08bd
00000050: a241 1a3d b9a4 bbbd 9821 c7ba 6037 e6bd
00000060: a1ca e23b db95 d53d 17ea f63d 0804 b43c
00000070: d5a4 b03d 5498 5f3d 757f 7b3d 80aa 963c
-0.06102327 0.03260717 0.086729 0.15437184 0.020389954 -0.072510354 0.1016104 0.085431814
0.060644545 -0.07375033 -0.032942846 -0.11253992 0.068749286 -0.025639798 -0.027309569 0.05286693
-0.0032483288 -0.014038433 0.030959273 -0.03341953 0.03766025 -0.09162278 -0.0015192507 -0.11241031
0.006921128 0.10428973 0.12056368 0.021974578 0.08625189 0.05458863 0.06140085 0.018391848

features.1.weight f4 [32]
00000000: 051a 7f3f b7ab 813f 6c99 783f 9801 7b3f
00000010: 3425 813f 6ac1 7d3f f227 7f3f 8335 893f
00000020: baac 893f f606 7f3f b519 803f 430b 803f
00000030: 6879 873f c4c6 823f e650 793f 084e 713f
00000040: 0d7b 833f c0ad 7b3f fac4 6f3f 052c 7f3f
00000050: 53cd 733f b3ea 823f d694 823f 611e 803f
00000060: 1feb 743f 18bf 863f d330 823f d199 853f
00000070: 27d1 7c3f 6ab9 843f d7a9 723f 75a0 7c3f
0.9964908 1.0130528 0.97109103 0.98049307 1.0089478 0.9912325 0.99670327 1.0719455
1.0755837 0.99619997 1.0007845 1.0003437 1.0583925 1.0216908 0.97389066 0.9425969
1.0271927 0.98311996 0.9365994 0.99676543 0.95235175 1.0227875 1.0201671 1.0009271
0.95671266 1.0527067 1.017115 1.0437566 0.9875664 1.0369084 0.94790405 0.9868234

features.1.bias f4 [32]
00000000: f4dc a53c 42c4 873d 71c2 3bbc 5459 2c3d
00000010: 74e3 c23d 0c78 c2bd e94a c1b9 aea6 893d
00000020: 4f0b e23c f5b5 dbbd 6d71 80bc afaa e0bd
00000030: 848c 9b3d 278e 83bc c7d6 383d 7e05 0abd
00000040: 8f32 e13c 14a4 eabd b9c3 0f3d 9b6f 96bd
00000050: 0b86 ad3c b3bd 8c3d 5436 043d f532 053d
00000060: d278 b7bd c799 923d ca8b 493d 5b03 82bd
00000070: 117e 0bbe 270b 5cbc 134b 343c 8156 043c
0.02024696 0.0662923 -0.011459933 0.042077377 0.095160395 -0.094955534 -0.0003686764 0.06721245
0.027593283 -0.10728065 -0.015679086 -0.10970055 0.075951606 -0.016058994 0.045126703 -0.033696644
0.027489929 -0.11457077 0.035098765 -0.07345506 0.02118208 0.0687212 0.032278374 0.0325193
-0.089585915 0.07158237 0.04920558 -0.06348296 -0.1362231 -0.013430393 0.011004227 0.008077265

features.1.running_mean f4 [32]
00000000: ff9d 7abd 16d4 053d 6bb2 b13d 0015 1e3e
00000010: ede4 a63c e797 94bd cc40 d03d 54ca ae3d
00000020: e756 783d 19e6 96bd cd41 07bd 2e16 e6bd
00000030: 6ab2 8c3d 86f0 d0bc 67d5 dfbc 9146 583d
00000040: 8ed4 54bb 763b 65bc d503 fe3c f8dd 08bd
00000050: 8b36 1a3d 4305 bcbd edba b6ba d80c e6bd
00000060: dafb e33b 4680 d53d 69ec f63d 5c90 b53c
00000070: 18c1 b03d 0614 5f3d da47 7b3d 7eae 963c
-0.061185833 0.032672964 0.08676609 0.15437698 0.020372832 -0.072555356 0.10168609 0.08534685
0.06062975 -0.073681064 -0.033021737 -0.11234699 0.06869967 -0.025505316 -0.027323438 0.052801672
-0.0032475325 -0.013991227 0.031007687 -0.03341481 0.037649672 -0.09180691 -0.0013941206 -0.112329185
0.0069575133 0.10424857 0.120568104 0.022163562 0.0863058 0.054462455 0.06134782 0.018393751

features.1.running_var f4 [32]
00000000: 090f 393f d582 413f 5e13 b23f 2a0e 8f3f
00000010: c8fa 9c3f 36b8 9b3e 00df f83e f946 f23f
00000020: f981 193f 7c2d 833f ed55 e73f a49d c53f
00000030: e9d2 243f d1e2 d63e 5dfc 013f ea36 a83f
00000040: c01c 113f 380f 4b3f 8e0a 0c40 0c4f 213f
00000050: ea85 1a3f 9af5 ec3e 9b68 0b3f 9219 953f
00000060: 9f19 133f 5e57 e03e f5ec dc3f f25d 973f
00000070: 1780 783f 176a 353f 12af 2c3f 7601 693f
0.72288567 0.7559026 1.391216 1.1176198 1.2264032 0.3041398 0.48607635 1.8927909
0.5996395 1.0248256 1.8073097 1.5438733 0.64384323 0.41969922 0.507757 1.3141758
0.56684494 0.79320097 2.1881442 0.6301124 0.60360587 0.4628113 0.5445649 1.1648428
0.5746097 0.43816656 1.7259814 1.1825545 0.9707045 0.70865005 0.67454636 0.91017854

features.4.weight f4 [64, 32, 5]
00000000: b7cd a53b b287 743d c941 803d 5124 98bc
00000010: 6c15 67bc 6ea6 4cbd 7d1f e83c 9f9e a5bd
00000020: 8282 1c3d 9f29 ec3c a03c f63c 1b6a 113c
00000030: 66df 15bd 5929 5f3d 4704 ff3c 9cb2 cfbd
00000040: f814 0f3d 13e1 133d f047 423d db69 d8bb
00000050: d7f7 7b3d 5f78 ffbc 3131 16bd d018 8e3c
00000060: b541 8abc 7858 3abc c150 95bd 2f24 2f3d
00000070: 87cb b9bd c49e 883b 4704 ae3d 1b2a 6a3d
00000080: 1054 b23d 6ca8 23bc 9bcc 1abb 4baf 51bc
00000090: 9839 b43d 95e6 863c b767 033d 5e27 4ebd
000000a0: e90f 1c3e cbf5 1b3e 12a1 eb3b 7921 a33d
000000b0: 1aeb a5bd ccfe 10bd c3f1 9bbd ded1 c43a
000000c0: 9e5b 91bd 5543 26bd ed2b 40bd 9ad0 b73c
000000d0: b248 a7bd 5b11 63bd 88f2 3dbd 60c0 c83c
000000e0: 60dc 01bd b85e 313c 0a00 aebd 9d66 c8bd
000000f0: 80a6 6bbd 39d0 2cbd af8e 043d 90cf c7bd
00000100: 7ad5 85bd 399c c23c 6dc5 94bd 600c 9c3d
00000110: b83a f2bb 25ef d0bc a6e8 9abd 9cd0 a8bd
00000120: 12d5 91bd 86ef d7bd dd59 4fbd 020a 78bb
00000130: 1d8a bc3d 8d7f 883d f894 7c3d 2e99 853c
00000140: d5d1 12bb c87d 0f3d 5795 933c 71bb c5bd
00000150: d159 62bc 5b7d b8bd 586f 32bc 65a5 a4bc
00000160: 91e8 dd3d f50c 473d 30ea b83b bbdb a4bd
00000170: 834d a6bd 3b6c c83a 7cf2 8dbd c164 1fbb
00000180: 7f45 af3d 5f30 2ebc 0970 86bc ec2b 313d
00000190: 2002 4f3d e1b8 12bd 2c96 083d 214a 363d
000001a0: a4bc 9abd b069 2cbc 3c3f 57bc e257 38bc
000001b0: 6220 893d 618d cebd 64df 5e3d c9fe 18bd
000001c0: 7cbb 98bd 0ae5 083d 3993 2cbd e029 833c
000001d0: 8cdf 423d a5ef 8abd f268 adbd 1bf9 c6bc
000001e0: b6f3 5c3d 2746 42bb 1583 813d 6142 1a3c
000001f0: 3fc2 40bd c98d 0dbc 372f 083e 9414 6e3d
00000200: 17a7 b43c a7d3 633d 1c58 9ebd b541 f43b
00000210: 140d a7bc de12 f83c 271a 3c3d be03 753d
00000220: 8e61 453d 6cf7 19bd df1c 26bd a3fe 02b9
00000230: 3666 c5bc ee1d 2cbd 2ef0 1c3e 5ff5 703d
00000240: 7710 7cbd a3a1 b53c 3f07 913c 126b 76bd
00000250: 9f39 5d3c b462 80bd c420 04bd 1233 813d
00000260: 2cec 013d a518 1bbd 68c2 d8bd d66b 6e3a
00000270: 79a3 0b3d 6901 413d aa2f a03c 259a 5e3d
00000280: 9aba f7bc 54cf 60bd a8a3 8dbd 9420 7ebd
00000290: 6190 74bd 5cac e53d 9d57 d93c 57f1 7ebd
000002a0: c766 20bd 1b7a 6cbb ec9d 0c3d 8dcf 353d
000002b0: 67a0 983c afcd a43c 47b1 293d 15e7 4c3d
000002c0: 94db b63d 3571 b43d 15bc d03d 99ed a93c
000002d0: b5da 78bd 5fac 893c bb2c b6bc de8c 543d
000002e0: a0da 5b3c c5fe ddbc 81ab 99bd 9183 ee3c
000002f0: 0062 d13c 63e1 ce3d e4e9 f8bc 5c5e 1d3c
00000300: 535d ddbc b3fc 9ebd 0d8c 39bd a69f 293d
00000310: 4fa0 f4bc 890a b73d 6e3c 693d 6d8f 773d
00000320: 8414 863d 30e2 3b3d a5ea f43c 5fe4 073d
00000330: 23ee f1bc 45c5 78bd 31ba aebc db5f 213d
00000340: 63d9 6f3d 9775 823d 90bb 56bd e132 72bc
00000350: 5693 14bd a031 873d 0a71 edbc 732c 47bc
00000360: 588d c13d f491 143d a5ed bbbc 7caf 7dbd
00000370: ab22 60bd b739 b23d 8264 15bd 360a fc3d
00000380: 4ead 033e 4d29 fb3b e984 a1bb 4ef5 6e3d
00000390: f558 e53c 5ba6 af3d ffea 9c3d 8055 01bd
000003a0: 6b4e 7c3d 172f 163d bf81 34bd 7eec ea3c
000003b0: 3f09 80bd a9ef b2bd 5a30 0cbd d325 1a3b
000003c0: deca b73d bb5d fe3c 3ed2 de3d 2b4a 133e
000003d0: 6029 023d 7c8a 0ebd 1132 de3b a6e3 7dbd
000003e0: 53d3 35bd 2995 9dbc 7698 713d 8cdd 67bd
000003f0: 0679 72bc b2e0 59bd 7bd0 97bd 8fe2 c53c
0.0050599235 0.05969972 0.062625475 -0.018572005 -0.0141042285 -0.049963407 0.028335327 -0.08086895
0.0382104 0.02882844 0.030058205 0.008875395 -0.036590002 0.05448279 0.03112997 -0.10141489
0.034932107 0.03610332 0.047431886 -0.006604416 0.061515655 -0.031185327 -0.036668006 0.017345816
-0.016877035 -0.011373632 -0.07290793 0.042759117 -0.09072023 0.004169317 0.084969096 0.05716906
0.0870744 -0.009988885 -0.002362049 -0.012798141 0.08800048 0.016467372 0.032081332 -0.050330512
0.15240444 0.15230481 0.007190832 0.07965369 -0.08101483 -0.035399243 -0.07614472 0.0015016159
-0.07097553 -0.040591557 -0.04691689 0.022438336 -0.081681624 -0.055436473 -0.046373874 0.024505794
-0.031704307 0.010825805 -0.08496101 -0.09785197 -0.057531834 -0.042190764 0.032362636 -0.09756386
-0.06534858 0.023756133 -0.072642185 0.07619548 -0.0073922537 -0.025504658 -0.075639054 -0.08242914
-0.07120718 -0.10543732 -0.05062281 -0.0037847762 0.092060305 0.066649534 0.061665505 0.016308393
-0.0022402902 0.035032064 0.018015547 -0.09654892 -0.013815359 -0.09008285 -0.010890804 -0.020098398
0.10835374 0.04859634 0.0056431517 -0.08049723 -0.08120253 0.0015291044 -0.06931016 -0.0024321529
0.08558177 -0.01063165 -0.016410844 0.043254778 0.050539136 -0.035820846 0.03334634 0.04450429
-0.075555116 -0.010523245 -0.013137635 -0.011251422 0.0669563 -0.1008556 0.05441226 -0.037352357
-0.07457635 0.033421554 -0.04213259 0.016011178 0.047576472 -0.0678399 -0.08467282 -0.024288705
0.05394336 -0.0029643865 0.0632383 0.00941524 -0.047060248 -0.008639761 0.13299261 0.058125094
0.02205233 0.05562177 -0.07731649 0.007454122 -0.020391978 0.030282434 0.04592338 0.059818022
0.04818874 -0.037589476 -0.040554877 -0.00012492626 -0.02409659 -0.04202073 0.15325996 0.058827754
-0.06153914 0.022171801 0.01770365 -0.060160704 0.0135025075 -0.06268826 -0.03225781 0.06308569
0.03171937 -0.0378653 -0.10583955 0.00090950483 0.034091447 0.047120485 0.019553978 0.054346222
-0.030240346 -0.054885224 -0.069159806 -0.062042788 -0.059708003 0.112145156 0.026531035 -0.06224188
-0.039160516 -0.0036083523 0.034330294 0.04438739 0.018631173 0.020117609 0.04142883 0.050025064
0.089286 0.08810655 0.10192124 0.020743178 -0.06075545 0.016805826 -0.022238126 0.051892154
0.0134188235 -0.027099023 -0.07503415 0.02911547 0.025559425 0.10101583 -0.030384965 0.009605017
-0.02702204 -0.07763042 -0.04529958 0.04141202 -0.029861597 0.08937556 0.056942396 0.060439516
0.06546882 0.045870006 0.029897043 0.033176776 -0.029532498 -0.060735006 -0.021329017 0.039398056
0.058556926 0.06370085 -0.052424967 -0.014782638 -0.036273323 0.06601262 -0.028984565 -0.012156594
0.09450787 0.036272004 -0.022940466 -0.061934933 -0.054720562 0.087024145 -0.036472805 0.12306635
0.12859079 0.0076648355 -0.004929174 0.05833941 0.02799652 0.08576652 0.076620094 -0.03157568
0.061598223 0.036666002 -0.044069048 0.028677221 -0.062517636 -0.08737118 -0.0342258 0.002352108
0.08974241 0.031050554 0.10879944 0.14383762 0.03177774 -0.034800038 0.0067808707 -0.06198468
-0.044390988 -0.019236164 0.05898329 -0.056607768 -0.014799362 -0.0531928 -0.07412811 0.024155883

features.4.bias f4 [64]
00000000: cf6e 4d3d 75a7 17bd 78bd 74bc 9b32 09bd
00000010: 77f4 3ebd 32bc 6a3d 02e0 993c 9523 0e3b
00000020: 0031 9b3c a356 0f3d 3be9 4f3d bd52 0d3d
00000030: 132b c7bc 161b 8bbd 21bc 4abd ab35 6cbb
00000040: 0d3a 773d f15b 763d 7f87 873d 9569 593d
00000050: 25bb ed3c 3aca 833d 730f 83bd 7e35 c53c
00000060: ff45 59bd 0210 ca3d ec45 b53d d1a8 22bd
00000070: c09d 6a3d fc8a 593c baec cfbc 81e9 8dbd
00000080: bff2 66bd 35a5 78bc 920d 25bb b17d a9bd
00000090: f99b 813d bf97 1ebd c226 2f3d bb65 6abc
000000a0: 1f3a 393b f4b2 903d df2a 083d 377b 153d
000000b0: 15e0 05bc ba23 4bbd 3f96 0fbd f00b 63bd
000000c0: 11fe 8e3d 7a3b aabb f487 233d efb3 3fbc
000000d0: 95d4 31bd b097 fe3c 6920 b3bc 6fee 513d
000000e0: 7223 163c 95b3 f6bc ebec 013e 42ce 15bd
000000f0: 4844 7fbd fa0f 9c3d 82fa 98bc 7170 9a3d
0.050154503 -0.037024934 -0.014937751 -0.033495527 -0.04661986 0.057308383 0.018783573 0.002168869
0.018944263 0.034994733 0.050759535 0.034502733 -0.024312532 -0.067922756 -0.04949582 -0.003604273
0.060358096 0.060146276 0.06617641 0.053079206 0.029019902 0.06435056 -0.06399431 0.024073359
-0.05304527 0.098663345 0.08851227 -0.039711777 0.05727935 0.013277765 -0.025381435 -0.06929303
-0.056383844 -0.015176107 -0.002518509 -0.08275927 0.063285775 -0.038718935 0.04276157 -0.014306481
0.0028263403 0.070653826 0.03324401 0.03649446 -0.008171101 -0.04959462 -0.035055395 -0.055431306
0.06982053 -0.0051950784 0.039924577 -0.011700614 -0.043415625 0.03107819 -0.02186604 0.05125278
0.009163724 -0.030114928 0.12688033 -0.036573656 -0.062320977 0.07620235 -0.018674139 0.07540978

features.5.weight f4 [64]
00000000: 19d4 7c3f 34a3 813f 905b 783f fb16 793f
00000010: 3e5f 803f 624f 8f3f bd6f 7e3f 1732 7b3f
00000020: aaf7 7d3f 32a0 813f eacf 823f 9979 8e3f
00000030: 79fe 7c3f b07a 823f fbf2 803f fc73 933f
00000040: ac29 663f edf6 613f a179 783f 1b05 853f
00000050: f01b 803f 6636 893f c3a2 803f b3e4 663f
00000060: fd7e 6b3f 421e 823f 25fe 753f 83b0 823f
00000070: de98 823f bf46 7f3f ab25 8a3f 87e2 803f
00000080: 0a0d 7e3f aa3a 743f 39fc 703f 271f 633f
00000090: 5418 883f ae14 843f 04d7 833f a93a 613f
000000a0: 0ae3 653f 3381 7c3f 89e8 793f cabb 833f
000000b0: 91b2 893f f6f2 843f 7e6c 813f c2b8 8d3f
000000c0: ef2b 7b3f 6999 833f 493f 7b3f cd65 723f
000000d0: d345 803f b66e 803f 70bd 7a3f 7dbb 693f
000000e0: 0028 833f 0539 763f 12d8 873f 1b0f 833f
000000f0: dda7 783f 3c8c 7d3f fefb 803f 0018 8a3f
0.98761135 1.0127931 0.97014713 0.9730069 1.0029066 1.1196101 0.9938925 0.98123306
0.9920603 1.0127013 1.02197 1.1130859 0.98825794 1.0193691 1.0074152 1.1519771
0.89907336 0.88267404 0.9706059 1.0392183 1.0008526 1.0719726 1.0049671 0.9019272
0.91990644 1.0165484 0.9609092 1.0210117 1.0202901 0.99717325 1.0792745 1.0069131
0.99238646 0.95402014 0.9413486 0.8871941 1.0632424 1.0318811 1.0299993 0.87980133
0.8979956 0.9863464 0.97620445 1.0291684 1.0757619 1.0386646 1.0111234 1.1072009
0.9811391 1.0281192 0.9814344 0.94686586 1.0021309 1.0033786 0.9794531 0.9130171
1.0246582 0.96180755 1.0612814 1.0238985 0.9713114 0.99042106 1.0076902 1.0788574

features.5.bias f4 [64]
00000000: 2556 ce3c b06e acbc 6680 87bc 0cc4 be3c
00000010: ba0d 0c3c 7f23 353d 1cd9 e4bd a7aa 13bc
00000020: afda 1fbd 487e adbc d6fe 6dbd 5d0a a03d
00000030: 19b7 53bc fbc4 283d de15 cfbd 3505 e83d
00000040: dc74 80bc 6801 fabd a651 31bd adfa 9bbd
00000050: 3b05 d7bc c012 273b a49d 4abc 2a79 18bd
00000060: 25d1 81bd 110b 16bc 9e6d f4bc 3fcf 9e3d
00000070: 23ef a83c 77e3 1d3b 4eda afbb 6bb6 2c3d
00000080: 50f0 f23b a5c7 42bd 1b41 16be a245 35bd
00000090: d85d a63c 0717 703d abfb 18bc 2626 09be
000000a0: a35b cfbd 0d61 36bc f738 bfbd 1b7e e73c
000000b0: 3296 b53c 2e99 803b 43bf e1bd 7385 e13c
000000c0: 964f 7cbd 3ea4 1bbd 4392 ff3c 4eac babc
000000d0: 35fa 61bd 72af 02bd 57bb 35bd 5ad5 d0bb
000000e0: b992 8ebc c6f2 a0bd 4524 72bc fea3 a93a
000000f0: af3f a3bd 6423 5cbd fba3 3f3c ee82 133d
0.025187561 -0.021048874 -0.016540717 0.023286842 0.008548195 0.044223305 -0.11174223 -0.009012855
-0.039026912 -0.02117838 -0.05810436 0.07814477 -0.012922072 0.04120348 -0.10111593 0.11329118
-0.015680723 -0.122072995 -0.043290757 -0.07616172 -0.026247611 0.0025493354 -0.012366686 -0.037224926
-0.06338719 -0.009157912 -0.029837426 0.07754373 0.020621842 0.0024091878 -0.0053666 0.042166155
0.0074139014 -0.047553677 -0.14673273 -0.04425586 0.02030842 0.05861571 -0.009337346 -0.13393459
-0.101249 -0.011131537 -0.09337037 0.028258374 0.022166345 0.0039245104 -0.110228084 0.027529454
-0.061599337 -0.03799843 0.031197673 -0.02278724 -0.055170257 -0.0319056 -0.044368114 -0.0063730897
-0.017403947 -0.07858805 -0.014779155 0.001294255 -0.07971131 -0.05374469 0.011696811 0.036013536

features.5.running_mean f4 [64]
00000000: a4bf 18bc 9859 203f f231 0bbf 42f3 80bf
00000010: 5207 05bf 9061 5abe af23 3cbc faed 4abe
00000020: cc5e e8be 99a5 0bbf 6867 7bbf d2fe c6be
00000030: 3923 debe d573 7abe 0e2e 383f ae00 d7be
00000040: ad31 f2be 7d02 103f e398 24be 73c4 9e3d
00000050: 5f38 29bf 0ce5 37bf 1b5c 06bf a755 01bf
00000060: b3b7 383f 3801 16bd f38d 05bf e05f 16bf
00000070: fce6 bbbe 8834 2cbf 81d9 5abf 444e 45bf
00000080: 3716 56bf 0018 4cbf 27a8 9f3e d4ec 26bf
00000090: cea4 29bf 0369 19bf b7ed 8cbe 6d9b 07bf
000000a0: 9fcc 763f 57f3 83be 8c50 da3c aa46 043c
000000b0: 5ad7 bbbe ebfe 9bbf 0f85 fcbe 15bc f3be
000000c0: 0301 063f bfe6 06be 0b85 a5be 01e9 43bf
000000d0: 1f5b 673f 253b 9fbe a6ef d43e ac37 92bd
000000e0: dd64 45bf 1041 99bd 3c1b 3cbf c44c 0ebf
000000f0: f5aa 2d3d d895 4bbf 7b69 1ebf a15d 5dbf
-0.009323034 0.6263671 -0.54373085 -1.0074236 -0.51964295 -0.2132628 -0.011483117 -0.19817343
-0.45384824 -0.54549557 -0.9820466 -0.38866287 -0.43386248 -0.24458249 0.71945274 -0.41992706
-0.47303525 0.56253797 -0.16073947 0.077523135 -0.6610164 -0.7183387 -0.5248429 -0.5052132
0.721553 -0.036622256 -0.5216972 -0.58740044 -0.36699665 -0.67267656 -0.85488135 -0.7707255
-0.8362765 -0.7972412 0.31182978 -0.6520512 -0.66267097 -0.5992586 -0.27525112 -0.52971536
0.96405977 -0.2577159 0.026649736 0.008073488 -0.36687738 -1.218717 -0.49320266 -0.47604433
0.52345294 -0.1317396 -0.32328066 -0.7652741 0.90373415 -0.3109981 0.41589087 -0.07139525
-0.7710703 -0.07483113 -0.73479056 -0.55585885 0.042399365 -0.7952552 -0.618797 -0.8647099

features.5.running_var f4 [64]
00000000: 8a4e 623e 8ce2 253f 23e0 9f3f 4f16 1f3f
00000010: 85a6 203f af75 f83e 05c5 8d3e f5ef d63e
00000020: 76f5 8b3f 5840 d83e 6e0a 533f dfbe b13e
00000030: 730c bb3e 8b37 8a3e 333a ae3f 79ab 4b3f
00000040: 1e5a 513f 3501 913f 0219 303f e23c 853e
00000050: 9e22 0b3f ebac ee3e d60e 263f f7e0 c83e
00000060: 04b8 0b3f aa19 b83e b2c0 1940 5b2c a23f
00000070: 6221 183f 58d9 8b3f f524 3440 683b 723f
00000080: dafa f43f 49b1 833f 4c0a 0e3f 8a5a 843f
00000090: 9953 af3f 9f52 8b3f 7462 e43e 320b e63e
000000a0: 76ba ca3f 8e84 af3e 0fc8 ca3e c399 9e3e
000000b0: f957 a43e 55d1 853f 0a99 b53e 2402 133f
000000c0: 11ed 083f 971f 173e b492 ee3e 15ca 193f
000000d0: d8c1 473f f6f2 b63e 4f01 073f 66d0 223f
000000e0: 9e79 1e3f 32bf 853e 4faf 1340 3abe 3e3f
000000f0: ca86 543f 1329 083f bcd6 c03f 7065 5f3f
0.22100273 0.6479881 1.2490276 0.62143415 0.6275409 0.48527285 0.27689376 0.41979948
1.0934284 0.4223659 0.8243779 0.34715936 0.36532936 0.269955 1.3611511 0.7955852
0.8177813 1.1328493 0.6878816 0.26023012 0.54349697 0.466163 0.6486639 0.39234135
0.5457766 0.3595708 2.4023862 1.2669786 0.5942594 1.0925703 2.8147557 0.94621897
1.9139054 1.0288478 0.5548446 1.034013 1.3697387 1.0884589 0.44606364 0.44930416
1.5838153 0.3428082 0.39605758 0.30976686 0.32098368 1.0454508 0.35468322 0.5742514
0.53486735 0.14758144 0.465963 0.6007398 0.7803016 0.3573224 0.5273637 0.6359924
0.61904323 0.26122433 2.307575 0.7450901 0.8301817 0.53187674 1.5065532 0.87264156

features.8.weight f4 [128, 64, 5]
00000000: 064e d43b a747 a2ba 622e 4e39 d2c5 f0bc
00000010: 746f 68bb 568a 823b 424d 1fbd b9df 83bd
00000020: 84d1 eb3a 70ea 97bc 210e 56bd 4271 0b3c
00000030: 264e 10bd 0120 f1bc 4060 84bc c206 f93c
00000040: fbe7 0e3d 6c85 ee3b 2195 debc 3fd5 113d
00000050: fdf3 413d a4f7 8a3d d82d ba3d 1a1d 99bc
00000060: 8f8c 27bd a478 583d 7a8b 823d 9e2d 483d
00000070: f16d 73bd 1a7e 15be 41af d03c bad8 9ebd
00000080: cbc4 5dbd 7030 fcbc 359c ac3b 9203 eb3c
00000090: 8181 853d 18c6 703c 06d7 fb3c 8d8a 193c
000000a0: 10c9 3cbd 6de0 2e3c 9972 1c3c dfdb a2bc
000000b0: 3709 cdbd 3fc8 e13c 40f7 96bd e976 a7bd
000000c0: 5525 4ebd 5426 933d 372a 1abd 931e 0d3d
000000d0: ab09 4a3d 7b2c 823d f677 0dbc a93e 0f3c
000000e0: 74d8 103c 5b68 843c a2d1 b0bd adb0 adbd
000000f0: 016a 2dbd 7c83 c0bd 898c 05bb e7fc cb3c
00000100: ddb1 4e3d 09d0 8b3d 10e4 97bd a56e 9bbd
00000110: a130 8ebd fae7 02bd 1626 e33c 076d 65bc
00000120: cacf 5d3d 981e ff3c c01e 243b 42b3 883d
00000130: 9f7b 413d eaf1 60bd edd2 6fbd 50a2 1fbd
00000140: f60c d13c 9ad4 2abd 5655 52bd 58c2 17bc
00000150: f375 723d e38d 3fbd 2fe5 e8bc de65 1fbd
00000160: be7b 683d 1dfe 713d a738 3c3d dee3 7bbc
00000170: 742a 0abd d642 0cbd 909f 41bc 42b3 993b
00000180: 66dc 083d 8695 a33d 03ac 343d b8ee 073d
00000190: 5113 d7bd 2c79 fabc a1f5 2d3d c6e5 ebbc
000001a0: 5df8 41bc 7346 b0bb e46a edbc e10e 193d
000001b0: 6f1a d23c b04c 513d 19bb a4bd 4898 e73b
000001c0: a0e4 de3c 48ed 113c 3887 543d a58b 93bc
000001d0: f02c 7e3c 58c7 e13b 5ec1 87bc 5fb9 443d
000001e0: a7bd 71bd 880b 7dbc 69b4 213d 2b7f eabc
000001f0: 6f1c 7f3d 2348 41bd 8411 393d 6821 13bd
00000200: 0be0 b53c e9d2 4c3d c432 013c fd94 abbc
00000210: cfac 4c3d d72e 8b3d e2c5 323c 3d37 b03c
00000220: 7bb2 933c 2835 bcbb 7cb1 2dbd ecb1 8e3d
00000230: 6afa e1bc db57 e4bb e13d 66bd 9785 713c
00000240: 6748 473d 4cc0 55bd 6ee8 6abd 0239 753d
00000250: 9c8c dd3c 3742 50bd 57a4 f53c b920 a2bc
00000260: ba08 9d3c f7c2 2b3d e4c0 15bd 247f f2bb
00000270: 0de2 cfbc ad55 94bc ff9a 2dbd 80ed 093d
00000280: e511 dcbc 4679 923c 2c22 b73c 2e3d 56bc
00000290: cbd1 e8bc 8f6b d73c 01d3 ac3c c6ea 143d
000002a0: 714d 0bbd 778d a23c ac60 4cbd b072 9b3b
000002b0: f318 f23c 9dca 9d3d 538c 823d 4bb1 65bd
000002c0: 4405 2ebb df9f 6e3d 08bb 173d 59b0 443d
000002d0: aa41 9a3d c4ae 603c 46d0 a43c 27cb 82bd
000002e0: 2eaf 643c 7bfd 653d 2000 7e3d 3128 60bd
000002f0: 49e7 9abd fcf5 103a 5dde e53b c1ae 3abd
00000300: 7f26 63bc 05d6 6fbd 2f8d 903d be2d 70bd
00000310: d091 6e3b 8556 cdbc 680a d13c 5878 7b3d
00000320: 8d5e a7bc a6c4 4f3b f9a8 b9bc 66b1 b9bc
00000330: 9f1e febc 468e a5bc a5aa 1abd ce43 833c
00000340: 7ecb 03bd f1f9 f4bc 6a49 68bd 01c6 8dbd
00000350: 6b79 c5bc ca3c bf3b 93d5 a43d 7454 833c
00000360: c9a1 093d 82f0 66bd 886e cebd 1dae 6e3c
00000370: 8581 20bd fe5f 38bd 0620 80bd 42aa f8bc
00000380: 6fe4 1c3b 02c3 7cbd 881c a03d 6600 c13a
00000390: 35b4 853d 7918 bebc 7106 dfbd c0c2 94bc
000003a0: 8769 01bb 6c65 29bc ecb0 00bd 944a 84bd
000003b0: 0592 3fbd bc0a f2bc 4cce 2e3d 0224 843d
000003c0: 8216 a3bc e838 d3bd 8949 78bd fd47 913c
000003d0: fff8 a63c 5a41 ae3d 015a 2b3d fc41 b33d
000003e0: 1e5c 66bd ae81 16bd ecca 60bd 473c 1dbd
000003f0: 0f48 d23c 7fa8 58bc 124f 0ebc 6675 103a
0.0064790277 -0.0012380973 0.0001966297 -0.029391203 -0.0035466822 0.003983776 -0.03889204 -0.06439156
0.0017991518 -0.018544406 -0.052259568 0.0085108895 -0.03523078 -0.029434206 -0.016159177 0.03039873
0.034889203 0.0072790887 -0.02717072 0.035603758 0.047351826 0.06785515 0.09090775 -0.018690635
-0.04090553 0.052849427 0.06374259 0.04887163 -0.05943102 -0.14598885 0.025474193 -0.07756181
-0.054142755 -0.030784816 0.0052676448 0.028688226 0.065188415 0.014695667 0.03074218 0.009371412
-0.046090186 0.010673624 0.009548807 -0.019880233 -0.10011523 0.027561305 -0.07371378 -0.08176977
-0.05032857 0.07185045 -0.037637915 0.034452986 0.049325626 0.0635614 -0.008634558 0.008742967
0.008840669 0.016163042 -0.08633734 -0.08480964 -0.04233742 -0.09400079 -0.0020377955 0.024900867
0.050462592 0.06826789 -0.07416546 -0.07589463 -0.06942869 -0.03195951 0.027728122 -0.014003045
0.05415324 0.031142518 0.0025042742 0.06674816 0.047237035 -0.054918207 -0.058550764 -0.038973153
0.025518876 -0.04170666 -0.051350914 -0.009262644 0.059194516 -0.046766173 -0.028429596 -0.038915507
0.056758635 0.059080232 0.045952465 -0.015374152 -0.033731893 -0.034243427 -0.011817828 0.0046905586
0.033413313 0.07987504 0.044109356 0.033186644 -0.10501731 -0.030575357 0.042470578 -0.028796088
-0.011839 -0.005379492 -0.028981633 0.037367705 0.02564737 0.051098526 -0.080434985 0.007067714
0.027208626 0.00890667 0.051886767 -0.018010924 0.015513644 0.0068902187 -0.016571697 0.048028346
-0.059018757 -0.015444644 0.039478693 -0.028625092 0.062282976 -0.047187936 0.04518272 -0.03592053
0.022201559 0.050005827 0.007885639 -0.020945067 0.04996949 0.06796043 0.010911437 0.021510715
0.018029442 -0.0057436414 -0.04240559 0.0696753 -0.027585227 -0.006968481 -0.056211356 0.014741323
0.048653033 -0.05218534 -0.05735057 0.05986882 0.027044587 -0.050844397 0.02998559 -0.019790994
0.0191692 0.04193398 -0.036560908 -0.0074004102 -0.025376344 -0.01810726 -0.042384144 0.033673763
-0.026864002 0.017880093 0.022355162 -0.01307611 -0.02842035 0.026296405 0.021096708 0.03635671
-0.0340094 0.019842846 -0.04989688 0.0047438964 0.029552912 0.07704661 0.06374421 -0.056077283
-0.0026553432 0.058257934 0.0370436 0.04801974 0.07532056 0.013713542 0.020118844 -0.063864045
0.013957782 0.05614994 0.062011838 -0.05472583 -0.075636454 0.00055298186 0.007015033 -0.045576815
-0.013864159 -0.058553714 0.07058179 -0.058637373 0.003640283 -0.02506567 0.025517657 0.061394066
-0.020430828 0.0031702905 -0.02266358 -0.022667598 -0.03102046 -0.020209443 -0.037760396 0.016023543
-0.032176487 -0.029904338 -0.056710638 -0.06922532 -0.024105748 0.005836104 0.080485485 0.016031481
0.033601556 -0.05638171 -0.10079676 0.014567879 -0.03918602 -0.04501342 -0.06256108 -0.030354623
0.0023939868 -0.06170941 0.07817942 0.001472485 0.065285124 -0.023205029 -0.108899005 -0.01815927
-0.0019746737 -0.010339122 -0.031418726 -0.06459537 -0.046770114 -0.029546134 0.04267721 0.064521804
-0.019908193 -0.103135884 -0.060617004 0.017734522 0.020382402 0.085085586 0.04183388 0.0875282
-0.056240194 -0.036744766 -0.05488102 -0.038387563 0.025669126 -0.013223766 -0.008685844 0.0005510658

features.8.bias f4 [128]
00000000: f9b0 adbb 8a9b 5f3d 80b1 77bc b71d b3bb
00000010: 62fe a73d a890 8e3d a63d 47bd 90ef af3c
00000020: b6bc b73c 013e 1a3d b7ee b33d 3562 2a3d
00000030: 229d 2fbc 73ad 36bd dfe2 123d f7f4 4d3d
00000040: 1e2c 0f3d 94d0 ab3c 6b01 503c 7289 5fbd
00000050: dcb8 5fbd d8dc 16bc 2f82 c7bc 3202 5dbd
00000060: 6234 4dbd 8f3f 533c 384c c43b 521e 473d
00000070: df60 433d d5d7 59bd f855 9f3d 3d35 22bd
00000080: c0b5 413d e7dd ffbc 697d 413d 4a7f 183d
00000090: 359c 013c af6a 25bd fe9b 663d 4f83 5cbd
000000a0: 36de 5c3c 3e81 08bd 4815 9bbc 4018 7a3d
000000b0: f1b7 9abd 5365 803c adbc dcbc 35ae 963c
000000c0: f35f 7d3d a9e2 713d 0b0a 28bd 3055 103d
000000d0: cdd1 75bd c08d 5ebd d81e d53c f98b aabd
000000e0: 9776 233c f402 b73b f587 e53c 3415 8a3d
000000f0: 8c39 0dbd dc5b a63c 1ff4 84bc 79a4 863d
00000100: 4847 643d 0f58 0dbd 58d4 fc3c e5c9 f9bc
00000110: 71cc 15bd d1de 06bb 05d3 02bd 7ec7 a8bc
00000120: ec5c 703d 7e85 f23a 7ec0 5b3d 1f0d 2dbd
00000130: 69a7 8a3c 0f4a 9b3d 7541 9bbd 95df a03b
00000140: 63f3 363d 73c5 33bd 81e0 fcbc 215b 2dbd
00000150: d1df aebc 41ca 2bbd c40d 40bd aebd 3b3c
00000160: 98fc de3c d51c 333d a1dd 263c 016a 4c3d
00000170: 31d8 423d 5740 f03c fa86 c6bb b760 bbbc
00000180: 6c85 a73d 1678 b53a add7 113d aedc 68bd
00000190: 5aff ef39 1af6 273d 736d d63c b799 edbb
000001a0: 8049 7f3c ec27 733c 2ccc 31bd 4141 2dbd
000001b0: ed61 a33c 8754 833d 8c70 e03c dc76 aabc
000001c0: 2a24 71bd 7bee 8bbc 7202 d53c fb04 803d
000001d0: b8d4 87bd 6b9a c33c 29d7 05bd 6419 26ba
000001e0: 3e0d 94bb c43f 1f3d 0262 aabd ea59 65bd
000001f0: 2221 4e3d 1462 ac3b ddff edbc 991a a6bb
-0.005300638 0.054591693 -0.015118003 -0.005466189 0.082028165 0.06961185 -0.048642777 0.021476537
0.022428852 0.037656788 0.087857656 0.041597564 -0.010718616 -0.044599008 0.035860892 0.050282445
0.034954183 0.020973481 0.012695651 -0.054574437 -0.054619655 -0.009207927 -0.024354069 -0.05395717
-0.050098784 0.0128935715 0.0059905313 0.0486129 0.047699805 -0.05318435 0.07780069 -0.039601553
0.04729247 -0.031233741 0.04723874 0.037230767 0.007910778 -0.040384945 0.05630111 -0.053836163
0.013480714 -0.03332638 -0.018931046 0.061058283 -0.07554615 0.015673315 -0.026945436 0.018393615
0.061859082 0.05905405 -0.041025203 0.03523749 -0.060014535 -0.054334402 0.026015684 -0.08327479
0.0099770045 0.005585069 0.02801893 0.067423254 -0.03447871 0.020307474 -0.016229687 0.065743394
0.05573204 -0.034507807 0.030862972 -0.030491779 -0.036571924 -0.0020579586 -0.031939525 -0.020602938
0.058682367 0.0018502919 0.05365037 -0.04224884 0.01692553 0.07582485 -0.07580844 0.0049094656
0.044665705 -0.043889474 -0.03086877 -0.042323235 -0.021346958 -0.04194093 -0.046888128 0.011458797
0.027220055 0.04372867 0.010184676 0.04990578 0.047569457 0.029327555 -0.006058571 -0.022873266
0.08179745 0.0013844992 0.035606075 -0.05685108 0.00045775884 0.041006185 0.026175236 -0.0072509903
0.015581489 0.014841061 -0.043407604 -0.04229856 0.019944156 0.06412607 0.027397417 -0.02080863
-0.05887238 -0.01708149 0.026002143 0.0625095 -0.0663237 0.023877343 -0.032675896 -0.0006336181
-0.00451818 0.03887917 -0.08319475 -0.05599395 0.050324567 0.0052607153 -0.02905267 -0.0050690887

features.9.weight f4 [128]
00000000: 1c22 793f 0aac 6f3f 6c46 733f 5dd9 7f3f
00000010: e0cf 863f f297 683f 4202 753f 4106 863f
00000020: c5c7 843f ad55 6c3f caad 7d3f dd4b 7d3f
00000030: 0d15 5b3f 65c0 6f3f 3493 683f 1800 903f
00000040: e4f6 7b3f a853 763f 0f31 7a3f d20b 743f
00000050: 977a 783f ee76 733f 4bbe 673f 00f6 853f
00000060: 5d78 7f3f d9ed 7a3f 32fe 743f a559 5d3f
00000070: 5a68 623f 9672 8b3f ba9e 7d3f 6443 7b3f
00000080: 68da 7b3f cca3 723f 8d70 4f3f a81c 683f
00000090: d2c5 8a3f 9b07 653f 09d6 713f cd63 5c3f
000000a0: 96ba 813f b0a1 823f 0d7b 743f 24a2 7c3f
000000b0: d599 753f aa8d 883f a9f3 5b3f 0a02 5f3f
000000c0: 7269 833f 17ed 7d3f 5ba5 7c3f c162 673f
000000d0: ade8 6c3f 0651 773f 9396 6b3f f986 7b3f
000000e0: 53a6 6e3f c263 613f 7cfa 7a3f b912 813f
000000f0: 6e99 683f abfa 853f c288 713f 14d0 893f
00000100: b768 6c3f 27e9 833f 96d5 7a3f 6f70 823f
00000110: 954c 7e3f f33a 7f3f 6edf 7c3f 71da 683f
00000120: 95b1 7f3f 524e 873f 9a6a 6b3f bfc5 793f
00000130: adbe 653f e36f 7c3f d9b6 8c3f fd5a 643f
00000140: 9676 793f be20 7e3f ecab 673f 2f74 763f
00000150: 291a 843f d600 723f 6638 713f ea81 793f
00000160: 7eca 773f 1a31 793f cd7f 7b3f 00e7 843f
00000170: f9ab 603f e827 5e3f fb8f 703f a74f 7c3f
00000180: ec2f 833f 3329 653f 72a2 673f f6d8 7a3f
00000190: b7dd 833f e2b4 813f 3319 713f fefb 6c3f
000001a0: bb60 6a3f b784 833f b904 503f 0ac6 813f
000001b0: 609d 7d3f f9d9 813f 0802 753f 939a 843f
000001c0: 6e6b 783f fe81 673f e317 703f 4224 7b3f
000001d0: 644f 6c3f 3653 823f f301 7f3f fd77 763f
000001e0: 2679 703f d851 7f3f 549f 8f3f ef57 7f3f
000001f0: 0ea0 6b3f 544d 813f 53e7 7e3f e177 6a3f
0.9731767 0.93621886 0.9502933 0.99941045 1.0532188 0.9085685 0.9570657 1.0470659
1.0373465 0.9231823 0.99093306 0.98943883 0.85578996 0.93652946 0.90849614 1.1250029
0.984236 0.962214 0.9773111 0.95330536 0.9706206 0.9510335 0.9052474 1.0465698
0.99793035 0.98019177 0.9570037 0.8646491 0.8844048 1.0894344 0.9907032 0.98149705
0.98380136 0.94781184 0.81031114 0.90668726 1.084162 0.8946473 0.94467217 0.86089784
1.0135067 1.0205593 0.9550026 0.98684907 0.95937854 1.0668232 0.8591867 0.87112486
1.0266554 0.99189895 0.9868981 0.9038506 0.92542535 0.96608007 0.92026633 0.98252827
0.9322254 0.88042843 0.9803846 1.0083839 0.90859115 1.0467123 0.943493 1.0766625
0.9234728 1.0305527 0.97982156 1.0190562 0.99335605 0.99699324 0.98778427 0.90958315
0.99880344 1.0570776 0.91959536 0.9756736 0.89744073 0.98608226 1.0993301 0.8920134
0.9744657 0.9926871 0.90496707 0.9627103 1.0320483 0.94532526 0.9422668 0.9746386
0.96793354 0.9734055 0.98241884 1.0382996 0.8776241 0.8677964 0.93969697 0.9855904
1.0249 0.8951599 0.90482247 0.97987306 1.0302037 1.0133326 0.94179076 0.9257201
0.9155385 1.0274876 0.81257206 1.0138562 0.9906826 1.0144645 0.95706224 1.0359672
0.97038925 0.9043273 0.9378645 0.981022 0.9230864 1.0181644 0.9961235 0.9627684
0.9393486 0.9973426 1.1220498 0.9974355 0.920411 1.0101724 0.9957172 0.9158917

features.9.bias f4 [128]
00000000: 5ebf 20be 6600 b8bd a1d3 86bd 7624 6dbd
00000010: e696 ccbe b044 09be de0f 85be 57f3 95be
00000020: 4593 0dbe 0f19 c6bd 3f79 1fbe 0bf5 c3bd
00000030: 6a20 24be 26c0 08be 02a7 fdbd 38b1 a9be
00000040: 734e a4be 1daa 3dbe 6ca6 6cbd 1de2 7ebd
00000050: fbda d0be 82ba b5bd 5661 f9bd e06d 96ba
00000060: dcd3 7ebe d830 1ebe a7e2 bfbd aab6 8cbd
00000070: eacd d7bd 99b5 18be c175 dabc 723b 28be
00000080: 0686 a3bd 0eb2 6abd 6acc 46be 8d8b d5bd
00000090: 8185 c9be 5e13 9dbd 4d35 3ebe ac07 0bbe
000000a0: 948f c0bd 1d2d 80bc 7066 dabd 8556 6fbd
000000b0: 10c9 a6bd b4a6 e5bc f7f1 2ebe 60a6 f8bd
000000c0: 9d41 b5bd c126 37be 8933 1c3b a127 33be
000000d0: 75a8 d6bd 9c5f 1dbe 969b 69be e0a2 68be
000000e0: 3739 dbbd f0ce 16be 023a 97bd ef03 46be
000000f0: 2eee 36be 5af4 73be 2788 b6bd 0f44 20bd
00000100: 480d 2abe 7ead 3c3d c8b1 c23b e0c5 22be
00000110: b01d 9fbd 5abe dabe dde1 69bd 3be2 44bd
00000120: a47a 8bbd c25e 60be a622 4ebe 752f 0ebe
00000130: 0bbc 26be 1b6f 06be d569 b8be 8824 1abe
00000140: 328c 6cbd ef8b 01be cfa9 14be dbc3 42be
00000150: ddd8 6bbe 412e 76bd f06d 02be fb8f a2bd
00000160: ace8 b8bd dae1 49bd 433c 3bbe aa2d 76be
00000170: c7ba dcbd 73e0 d4bd 5a54 e2bd 14f1 70be
00000180: b14c a4bd 8a9f 69be 9b71 00be 2e86 0fbe
00000190: 23ba cf3c e8be 43bd 87de 92bd 312a 04be
000001a0: 61fb ecbd 8912 e8bd 6c94 0dbe 8808 87bd
000001b0: 5e44 47bc 7f9c 69be 6511 44bc 31e2 b3bd
000001c0: d999 5abd 3db0 0dbe da64 8cbd 1222 87be
000001d0: 7a4e 10be 3e0c a4bb 221f 84bd fb94 9bbd
000001e0: 571c 49be 10e9 43bd 1983 1cbe b33c 63bd
000001f0: 78e8 08be 99f2 adbd 251a 75bd d9f4 babd
-0.15698001 -0.08984451 -0.06583334 -0.0578961 -0.39958876 -0.13405108 -0.25988668 -0.29287216
-0.1382571 -0.09672748 -0.15573595 -0.095682226 -0.1602799 -0.13354549 -0.1238537 -0.3314302
-0.32091102 -0.18521924 -0.0577759 -0.062227357 -0.4079207 -0.08873464 -0.121767685 -0.0011476837
-0.24885505 -0.1544832 -0.093694024 -0.06870778 -0.10537322 -0.14913024 -0.026667478 -0.16428927
-0.07984547 -0.057298712 -0.19413915 -0.10427008 -0.39359668 -0.076697096 -0.1857502 -0.13577145
-0.09402385 -0.015646512 -0.1066407 -0.05843212 -0.081438184 -0.028033592 -0.1708449 -0.121411085
-0.08850405 -0.17885877 0.0023834428 -0.17495586 -0.104813494 -0.15368503 -0.22813258 -0.22718382
-0.10704272 -0.14727378 -0.07384111 -0.19337438 -0.17864296 -0.23823681 -0.08912688 -0.039127406
-0.16606629 0.046063893 0.0059416033 -0.15895796 -0.07769334 -0.42723352 -0.057100166 -0.048067313
-0.06810501 -0.21911147 -0.20130405 -0.13885291 -0.1628267 -0.13128321 -0.36018243 -0.15052998
-0.05775089 -0.12651037 -0.14517902 -0.19020025 -0.23031946 -0.060102705 -0.1273725 -0.07937618
-0.09028754 -0.049287654 -0.18284707 -0.24040857 -0.107778125 -0.10394373 -0.11051245 -0.23529464
-0.0802244 -0.22814766 -0.12543337 -0.14016029 0.025357312 -0.047789484 -0.0717135 -0.1290672
-0.11571384 -0.1133166 -0.1382615 -0.06593424 -0.012162296 -0.22813605 -0.011967038 -0.08783377
-0.053369377 -0.13836761 -0.068551734 -0.2639318 -0.14092436 -0.005006342 -0.064512506 -0.07596775
-0.19639717 -0.047829688 -0.15284385 -0.05547781 -0.1336993 -0.084935375 -0.059839386 -0.09128732

features.9.running_mean f4 [128]
00000000: 3c85 c7be 58d4 22be 329a bdbd fb5a 60be
00000010: efb5 2ebe 7a4f 98bf 7121 35bf 8a04 06bf
00000020: b26d a03c 312b 54bf b650 153d e222 c9be
00000030: 250b 4f3f 377b 40bf 271f 70be 0a21 74bf
00000040: e85e 2cbe 1a50 1abe b992 00bf a36d d3bf
00000050: 76bc ccbe 68b1 66be 911d ffbe 926f 82bf
00000060: 7c22 09bf 6dc4 0fbe 425e 133f 32d5 e33e
00000070: 3823 0bbe 48a2 163e 9a84 a2bf c7a1 ddbe
00000080: 0a0e 8fbf 6299 bdbf ea7e 4c3f 1d46 d9bd
00000090: 47f1 bd3d ad27 113f 79db 1abf 50a7 8fbf
000000a0: b6cf 23bf 3ab4 26bf 7add 7dbf c18b a1bf
000000b0: b443 6d3e 7c9f 7bbf 74f8 87bf b300 9ebf
000000c0: fd49 a8bf 363d 8ebf 10fd babf 35e0 ba3d
000000d0: 1ed6 d53e abf3 04bf 2502 58bf 98b7 a2bf
000000e0: f3c9 10bd 815e 51bf d5bc b7bf f85e ba3e
000000f0: 9092 72bf 9fe7 6b3c 05f2 a9be bc9c 9cbe
00000100: ac05 403f f182 c5bf eb98 6abf 0f3f c4bd
00000110: 76ab a13e 22b1 65be e98c c6be 9047 d4bf
00000120: f241 ecbc 600a dcbc e7bc f23f 0b6c 19bc
00000130: db6e c33e 08df 5fbd 4c65 5dbe 9c20 d43e
00000140: 1f5c 1a3e cc4e b8bf 4a1e 98bf 1028 27be
00000150: d265 593f c1f5 dbbe 0c59 ec3e 088b 43be
00000160: ef5c ad3d 1cd2 ce3d dec6 95be 9312 81bf
00000170: 5a5a 37bf fd60 f53e 6479 07bf ee91 19be
00000180: 3f86 46be f14a 7e3f 6b17 f3be 5536 b63e
00000190: 6b4f b3bf 580d aa3e eee1 8cbf dc22 9ebe
000001a0: 19d6 a1bf 5edd 65be 2ae6 773e ac4a 21bf
000001b0: cf4c c3bf a24c 5ebf 5bd3 c0bf 3c04 443f
000001c0: f38d 05c0 c185 e9be a207 42bf e2df 91be
000001d0: 24b7 e9be c320 cd3e b171 0dbf 10e1 1dbf
000001e0: 29b2 32bf c084 ecbe b818 0dbe 8ad9 aebe
000001f0: 0bc4 21bf c35e 6abe 7556 85bf 673f fcbe
-0.38968837 -0.15901315 -0.09257926 -0.21909706 -0.1706159 -1.1899254 -0.7075415 -0.52350676
0.019583557 -0.82878405 0.036453925 -0.39284426 0.8087638 -0.7518801 -0.23449384 -0.95362914
-0.16833079 -0.15069619 -0.5022388 -1.6517833 -0.39987534 -0.22528613 -0.49827245 -1.0190299
-0.53568244 -0.14039774 0.575657 0.44498593 -0.13587654 0.14710343 -1.2696717 -0.4328749
-1.1176159 -1.4812434 0.79881155 -0.10609076 0.092745356 0.56701165 -0.6049114 -1.1222935
-0.63988817 -0.65118754 -0.9916607 -1.2620775 0.23170358 -0.9829023 -1.0622697 -1.2343963
-1.314758 -1.111243 -1.4608479 0.09124795 0.4176492 -0.5193431 -0.8437827 -1.2712278
-0.035348844 -0.81784827 -1.4354502 0.3640058 -0.94754887 0.0143984845 -0.3319246 -0.3058833
0.75008655 -1.5430585 -0.91639584 -0.0958234 0.31576127 -0.22430852 -0.3877938 -1.6584339
-0.028840039 -0.026860416 1.8963898 -0.009364138 0.38170514 -0.05465606 -0.21620673 0.4143113
0.15074204 -1.4399047 -1.1884243 -0.16323876 0.8492099 -0.42960933 0.46161687 -0.19096005
0.08464991 0.10098669 -0.29253286 -1.0083793 -0.7162224 0.4792556 -0.529196 -0.14997074
-0.19387148 0.993331 -0.47478804 0.35588327 -1.4008611 0.33213305 -1.1006448 -0.3088597
-1.2643462 -0.22447726 0.24208894 -0.63004565 -1.5257815 -0.8683568 -1.50645 0.7656896
-2.086789 -0.4560986 -0.75792897 -0.28491122 -0.45647538 0.40064058 -0.55251604 -0.61671543
-0.698031 -0.4619503 -0.1377896 -0.34150344 -0.6318976 -0.22887711 -1.041701 -0.49267122

features.9.running_var f4 [128]
00000000: cd39 3d3f 7cad 8b3f 11be 1b3f d894 3d3f
00000010: 1d8b 113f c2d9 c23f 5d7c 2e3f c028 c03e
00000020: 9527 003f 9517 3c3f edac 9f3e f738 283f
00000030: 4716 763f 49ec 643f f03a 4a3f 79ee 343f
00000040: 7473 0c3f 1399 2d3f de81 1f3f a0f5 c93f
00000050: b748 123f 3ad4 483f 28ce 8e3f aec2 ca3f
00000060: 279f 163f 8dc0 303f 00ac 3c3f 6c18 1d3f
00000070: 8abf 5e3f 93eb f23e 8106 d63f 9299 183f
00000080: adf7 493f b9f4 c03f 1ef2 483f 78af 513f
00000090: 26ce d83e 0010 793f c854 ff3e b88d a53f
000000a0: 2548 2b3f 3fdb 423f 3ae5 943f 0088 d83f
000000b0: baec 7b3f cc21 9f3f bf6a 893f e790 9b3f
000000c0: 8e69 b73f fd5b 813f 6a65 0e40 b349 603f
000000d0: 92ab 563f fa71 cd3e 6118 8c3f e086 1a3f
000000e0: c559 263f c913 943f 6e94 523f 7d42 a93e
000000f0: ca73 663f 32d1 1e3f 20ec 173f c9c1 013f
00000100: ca94 8c3f 93a7 6a3f 9657 863f a7e8 153f
00000110: bb7e d63e ceb1 fa3e d099 4b3f 7115 0e40
00000120: 1060 183f 78c8 d13e 95ad 883f 1eb4 413f
00000130: b3a5 563f 3108 743f 6080 c83e af40 9e3f
00000140: d096 4b3f 029d 473f c307 403f a90b c93e
00000150: 8608 023f 2194 5f3f 4540 313f 45d1 513f
00000160: 036c 933f ef26 0c3f a2f7 043f 3895 2b3f
00000170: 5a89 9b3f 4c00 293f 077b 7c3f caae fd3e
00000180: 0e2d 023f a194 393f c8bd 0a3f e994 233f
00000190: e59f de3f b1b9 0f3f 10a4 bb3f 26bc 483f
000001a0: 14e6 c43f cd4a 1a3f 7296 583f f95b 0d3f
000001b0: 1ddf db3f 0f29 683f e50b 943f 6b7a 683f
000001c0: dfd9 0940 c242 5f3f 0932 493f b692 403f
000001d0: 5849 663f af6c ff3e dc27 723f 5bb6 7e3f
000001e0: c8b8 7b3f 900e 4d3f 798a 093f 1cc2 403f
000001f0: 3133 ef3e 49c5 523f 4a48 973f faee 253f
0.7391632 1.0912318 0.60836893 0.7405524 0.56852895 1.5222704 0.68158513 0.3753109
0.500604 0.73473483 0.3118662 0.6571192 0.9612774 0.8942304 0.7899618 0.7067638
0.5486367 0.678117 0.62307537 1.5778084 0.57142204 0.7844883 1.1156664 1.5840662
0.588366 0.6904381 0.7369995 0.6136539 0.87011015 0.47445354 1.6720735 0.5960933
0.7889355 1.5074683 0.7849444 0.8190837 0.4234478 0.9729004 0.4986937 1.2933874
0.6690696 0.76115793 1.1632454 1.6916504 0.9840809 1.2432189 1.0735701 1.2153596
1.4329088 1.0106198 2.2249398 0.87612456 0.83855546 0.4012602 1.094494 0.6036205
0.6498073 1.1568538 0.82257736 0.3305854 0.9002043 0.62037957 0.59344673 0.5068632
1.0982907 0.9166195 1.0495479 0.58558124 0.41893563 0.4896378 0.79531574 2.2200587
0.5952158 0.40973258 1.0677973 0.7566546 0.83846587 0.95325 0.39160442 1.236349
0.79526997 0.7797395 0.75011843 0.39266708 0.50794256 0.873354 0.6923869 0.81959945
1.1517338 0.5474691 0.5194036 0.67024565 1.2151291 0.6601608 0.98625225 0.49547416
0.5085 0.72492415 0.54195833 0.63899094 1.7392546 0.5614272 1.4659443 0.7841209
1.5382714 0.60270387 0.8460456 0.55218464 1.7177464 0.9068765 1.156613 0.90811795
2.1539228 0.8721124 0.7859197 0.75223863 0.89955664 0.49887607 0.9459207 0.99497
0.9832883 0.80100346 0.5372692 0.7529619 0.46718743 0.82332283 1.1818936 0.64817774
