experiment_testing/mz-testing/checkpoints/ptbxl/250hz/cnn1d/fold_1/last.pt (torch, 628765 bytes, 26 tensors)

features.0.weight f4 [32, 12, 7]
000000 6a 91 a1 3d 1e 2d b9 3d 50 4f 70 bc de e6 e1 3d
       0.07889064 0.090418085 -0.014667347 0.110303625
000010 c5 6b 83 bc 69 2c c0 3c d2 ce 3f bd 13 07 a3 3d
       -0.0160426 0.023458676 -0.0468281 0.07960334
000020 9f d1 db 3d 6b e4 81 bd 04 2b d3 3d 08 af e8 3c
       0.107333414 -0.063423954 0.10310939 0.028403774
000030 c6 5c a5 3d fa dc 80 3c 2a 5c 63 3d aa 2d b9 bc
       0.08074336 0.01573037 0.055507816 -0.022604782
000040 fb 96 85 3d 84 b4 8f bc e8 68 c8 bd ce ad 9e bc
       0.06522938 -0.017542131 -0.09785634 -0.019369986
000050 47 ba c0 bd 21 60 07 bc c6 a4 37 bd 2e 91 5c 3d
       -0.094105296 -0.008262665 -0.044834875 0.05384939
000060 cb df c8 bd 17 cf 77 bd a1 18 d0 bc 6a 9a 75 bd
       -0.0980831 -0.06050023 -0.025402369 -0.059961714
000070 50 8d cc bc 53 81 08 be b4 e0 af 3d 30 5a bb bd
       -0.024969727 -0.13330583 0.085877806 -0.09148061
000080 77 94 c1 3d 28 7e e5 3c 9d f3 dd bc 39 71 a7 3d
       0.094521455 0.028014258 -0.027093703 0.081758924
000090 fb 7c ac 3c 0f 22 9b 3d 6a a0 88 bc 37 bf 95 bd
       0.02105569 0.075748555 -0.016678054 -0.07311862
0000a0 e2 1a 5f bc 48 62 95 bd f4 87 78 3d 6e e4 cd 3d
       -0.013617249 -0.07294136 0.06067653 0.10053335
0000b0 6b c0 55 3d 3d f3 7e bd 1f 29 36 3d 4a 2e a2 3b
       0.052185457 -0.06224369 0.04447281 0.0049493657
0000c0 63 c6 22 3d 4b 20 7d bd 73 e8 d3 bd 09 25 1b bd
       0.039739978 -0.061798375 -0.103470705 -0.037877116
0000d0 1a 69 97 bd dd 97 d8 3d d5 b5 5b 3d f1 10 8d 3d
       -0.073930934 0.105758406 0.053640205 0.06887997
0000e0 e0 6f 30 3d 08 5e 41 3c d0 57 d6 3d 1f 73 44 bd
       0.043075442 0.011802204 0.10465968 -0.04796135
0000f0 da bc 3d 3d 5c 15 fa bc c3 34 a1 3d b1 e1 cf bd
       0.04632268 -0.030527763 0.078713916 -0.10150469
000100 f5 6a fa bc e7 c8 ac bd bb 4f 12 3d 72 ff d8 bd
       -0.03056858 -0.084367566 0.03572057 -0.10595597
000110 74 d8 c9 bd 95 80 c2 bd 00 48 eb 3d 7e 9f 3d 3d
       -0.09855738 -0.09497181 0.11488342 0.04629468
000120 d7 93 db 3d 96 fd b8 bd 44 11 d5 bd d4 a2 a9 bd
       0.107215576 -0.09032743 -0.10403684 -0.0828301
000130 a7 56 8d bd 9b 05 b8 3d 06 e1 b8 3d 3c 4e 17 3e
       -0.06901293 0.08985444 0.09027295 0.14775938
000140 ae 8e 25 3b 4c 5a 6c bc 25 10 db 3d 89 d6 cd 39
       0.0025262046 -0.014425825 0.10696439 0.00039260488
000150 8f d1 f2 3d a4 a9 6b bc cb d2 48 3d 17 eb e7 bd
       0.118563764 -0.014383707 0.049029153 -0.11324137
000160 f2 43 a6 bd e6 c7 34 bb 27 bc dc bc 76 b9 d9 bb
       -0.08118428 -0.002758497 -0.026945187 -0.006644423
000170 c9 b1 83 3d 33 e9 8d 3d 68 c0 a2 bd d2 b5 80 bd
       0.06430394 0.06929245 -0.07946855 -0.062846795
000180 55 0a 95 3d 0a 3f 8b bd 3d 10 b7 bd b8 ad 13 be
       0.07277361 -0.06799133 -0.08938644 -0.14421737
000190 78 91 93 bd 5e f5 64 3d 5f 75 cd 3c d6 ba 2e bd
       -0.0720548 0.055898063 0.025080381 -0.04265865
0001a0 5e db 47 3d 70 84 05 be 0c fe e4 bd 83 be 78 bd
       0.04879319 -0.13038802 -0.11181268 -0.06072856
0001b0 89 03 af bd af 85 53 bd 7a 85 14 3e 50 82 85 3d
       -0.08545596 -0.051641162 0.14504042 0.06518996
0001c0 9c c0 06 3e 96 9f 24 bd c3 da 3c bd e5 b4 51 bd
       0.13159412 -0.040191256 -0.046107065 -0.051197905
0001d0 5f 58 e9 ba 1a d0 f8 bd 8e 81 b4 bd 31 2e 7c bd
       -0.0017802826 -0.12149067 -0.08813773 -0.06156749
0001e0 57 db 58 ba 98 85 fc bc 93 ec b9 3c 8e 2c 24 bd
       -0.000827243 -0.030825421 0.022695815 -0.040081553
0001f0 c9 34 5b bd 44 0c 12 bd 0f b5 ab bd 50 59 e7 bd
       -0.053517137 -0.03565623 -0.083841436 -0.11296332
000200 3a 0e a3 3d aa 13 eb bc af 9b ba 3d ec 85 1f 3d
       0.07961698 -0.0286959 0.091117255 0.038946077
000210 ec 5b 94 bd 8d db b2 3d e6 ed 56 bc e3 25 17 bd
       -0.07244095 0.08733282 -0.013118243 -0.036901366
000220 b5 7d ce bd 15 f6 0a be ef 7e 2e 3b e4 29 4f bd
       -0.100825705 -0.13570435 0.0026625951 -0.05057706
000230 ab 65 b5 3d cc 1b 50 bd 4a 86 d9 3d e8 3b 8f bd
       0.08857282 -0.05080776 0.10621317 -0.06993848
000240 5c 38 73 bc fc ae e5 3c fb 3d 73 3d ad 15 02 3e
       -0.01484498 0.02803754 0.05938528 0.12703581
000250 8c c1 06 3e 88 0f 83 bd 44 ba 2f 3d f1 ab ee bc
       0.1315977 -0.06399447 0.042902246 -0.029134722
000260 54 85 36 3c 3a e4 7f bd ab 09 d5 3d ef 8a a3 bd
       0.011140186 -0.062473513 0.10402235 -0.07985484
000270 75 e2 47 3d 5c 92 96 3c f5 2b 3e 3c 40 3c a7 bd
       0.04879995 0.018380336 0.01160716 -0.08165789
000280 74 46 99 3d 85 ef 22 3d e4 57 b9 3c 7f bc c8 bd
       0.07484141 0.039779205 0.022624917 -0.09801578
000290 72 70 10 3d c4 32 0a bd 80 83 8c bd ca 7d 9f 3d
       0.035263486 -0.03373982 -0.06861019 0.07787664
0002a0 37 d4 54 3c 43 0a cc bd 65 e5 ed bd 7d 82 38 bd
       0.012990049 -0.09962895 -0.11616019 -0.04504632
0002b0 bd b2 a9 3c e8 b1 61 bd 9d ce 80 bd 6c a1 a8 3c
       0.020715112 -0.055101305 -0.06289408 0.020584784
0002c0 2b b7 3b bd 62 51 1e 3d 60 b3 82 3d 3c 2e 09 be
       -0.04582898 0.03865183 0.06381869 -0.13396543
0002d0 c0 84 ee bc 3c 74 5b bc cb 47 22 3d 3e 7f 8f bb
       -0.029116035 -0.013394412 0.03961925 -0.004379182
0002e0 3d 82 c6 3d e1 be a2 3d 0c 25 83 3d e3 92 17 bc
       0.0969281 0.079465635 0.064035505 -0.009251329
0002f0 63 ed 24 bd a9 11 9a bc 10 ff b0 bc bb 40 69 bb
       -0.040265452 -0.01880725 -0.021605998 -0.003559156
000300 c3 0a c7 3d 39 7c ff 3d 6d 11 09 3d bd d5 a9 3c
       0.097188495 0.124748655 0.033463884 0.020731801
000310 ce 3c 3a 3c 08 4f ee bc 92 ab 7b bc bc 29 5b 3c
       0.011367036 -0.02909042 -0.01536073 0.0133766495
000320 63 05 fc bd 2a 62 39 bd 17 1a ef 3d c9 ab bf 3d
       -0.12305715 -0.045259632 0.11674898 0.09358937
000330 40 59 20 3d 7c 64 15 bd ca a2 6a bd a8 bc cf bd
       0.039147615 -0.036472782 -0.057284154 -0.10143405
000340 d5 7b 66 bd 46 14 6a 3a c5 86 f6 b9 bf 7e 63 b9
       -0.05627044 0.00089294126 -0.00047021187 -0.00021695624
000350 19 c9 06 be b7 7e bb bd 80 44 0b bd 95 aa d5 3d
       -0.1316265 -0.09155028 -0.034000874 0.104329266
000360 0f 93 0a 3d 78 d3 b0 bd 52 bc 16 3a ca e7 9a bd
       0.033831652 -0.086340845 0.0005750108 -0.075637415
000370 66 13 c6 bd 40 0d 93 3d 6e 06 ca bc a4 66 0a 3d
       -0.09671669 0.071802616 -0.024661269 0.033789292
000380 76 c1 0b be f0 b9 34 3d 53 4f 54 3d 5e 95 ad 3b
       -0.13648018 0.044122636 0.051833462 0.005297347
000390 b3 ac ca bd e8 bc d5 bd 0a bf 6c bd 72 f8 e1 3d
       -0.09896221 -0.10436422 -0.057799377 0.11033715
0003a0 2d 8d 8d 3d 72 90 bd 3d 2d af 38 3d b2 89 75 3c
       0.06911693 0.092560664 0.045088936 0.014986442
0003b0 cb 8c 98 bb 26 cc a0 bd ca 4b 79 bd 96 b3 ac bd
       -0.0046554557 -0.07851438 -0.060863294 -0.08432691
0003c0 42 d6 30 3d e3 5b 8f bd 05 b2 3c bd 90 05 a3 bd
       0.043173082 -0.06999948 -0.04606821 -0.07960045
0003d0 3b c6 0d bd 4c 47 53 bd 01 1e 7a bd a6 31 da 3c
       -0.034612875 -0.051581666 -0.06106377 0.026635002
0003e0 83 63 5f bd 90 da 15 3d 89 05 85 bd aa b6 dc bd
       -0.05453826 0.03658539 -0.06495196 -0.10777028
0003f0 49 dc 1d bd 73 a8 b3 bd ab e6 97 bd 06 4f 1a be
       -0.03854016 -0.087723635 -0.07417043 -0.15069208

features.0.bias f4 [32]
000000 85 bf 78 bd a0 91 05 3d c9 0a b1 3d d8 ee 1d 3e
       -0.060729522 0.032609582 0.08644635 0.15423143
000010 c5 37 a4 3c 69 31 95 bd e7 21 cf 3d 65 f5 ac 3d
       0.020046124 -0.07284815 0.10113888 0.08445243
000020 f6 b9 78 3d c9 fe 96 bd c0 86 06 bd e4 3e e7 bd
       0.06072422 -0.07372815 -0.03284335 -0.11291292
000030 0d c8 8e 3d ce f6 d2 bc 6d 75 e1 bc 8d 2c 5e 3d
       0.069717504 -0.025752451 -0.027521813 0.054241706
000040 f2 24 44 bb 78 c4 85 bc 12 0a 01 3d b8 5d 0a bd
       -0.0029929248 -0.016329035 0.031503744 -0.033780783
000050 65 b0 17 3d a8 09 bb bd 0f b0 c3 ba 36 cf e5 bd
       0.037033457 -0.09132701 -0.0014929789 -0.11221163
000060 d6 32 c7 3b 5f 94 d4 3d 5d a0 f7 3d 41 40 b6 3c
       0.006079058 0.10379862 0.12091134 0.022247436
000070 cc 10 b1 3d 4c 7b 5f 3d 0a 67 7a 3d d1 20 96 3c
       0.08645782 0.054560944 0.061133422 0.018326195

features.1.weight f4 [32]
000000 b7 66 7f 3f e4 d8 81 3f ea 96 78 3f 9e af 7a 3f
       0.99766105 1.0144315 0.97105277 0.9792422
000010 6e 1e 81 3f 5c ee 7d 3f b4 cf 7e 3f 4d 65 89 3f
       1.0087411 0.9919183 0.9953568 1.073404
000020 9b 9f 89 3f 0c 12 7f 3f c8 e4 7f 3f ef 1a 80 3f
       1.0751833 0.9963691 0.9995847 1.000822
000030 c4 8c 87 3f 4f 00 83 3f f7 8f 79 3f bc 79 71 3f
       1.0589833 1.0234469 0.974853 0.94326377
000040 67 35 83 3f 29 8a 7b 3f e1 b1 6f 3f 86 69 7f 3f
       1.0250672 0.9825769 0.93630797 0.9977039
000050 5a 12 74 3f dc fd 82 3f a3 95 82 3f 20 0a 80 3f
       0.953405 1.0233722 1.0201916 1.000309
000060 10 08 75 3f 36 ab 86 3f 3a f5 81 3f a7 7f 85 3f
       0.9571543 1.0521 1.0152962 1.0429581
000070 1b a5 7c 3f 55 88 84 3f 22 b5 72 3f c6 a8 7c 3f
       0.9868943 1.0354105 0.94807637 0.9869503

features.1.bias f4 [32]
000000 bf f1 9c 3c 3f 10 8b 3d c8 c0 3a bc 93 fb 2d 3d
       0.019158242 0.06790208 -0.011398502 0.042476248
000010 7b db c2 3d 8b 5c c1 bd cd 8a 5c ba 9c 39 89 3d
       0.09514519 -0.09441479 -0.0008413017 0.06700441
000020 04 a5 e6 3c 8e 7e de bd 0e 03 88 bc 44 41 e2 bd
       0.028154857 -0.10863982 -0.01660302 -0.11047605
000030 40 b6 99 3d f1 27 8e bc 8c 5c 38 3d 7c a3 09 bd
       0.075054646 -0.01735303 0.045010135 -0.033603176
000040 13 c4 ca 3c 95 28 eb bd 19 5b 0e 3d 48 0a 97 bd
       0.024751699 -0.1148235 0.034754846 -0.07375008
000050 5f a6 b9 3c 6d ba 88 3d 2d 54 fd 3c aa db 01 3d
       0.02266234 0.06676183 0.030923927 0.03170363
000060 07 9a b8 bd 3b 67 92 3d 14 60 4b 3d 7b f5 83 bd
       -0.090137534 0.07148596 0.049652174 -0.06443306
000070 5b c3 0d be ab ab 7a bc ab 6e 2f 3c bb 97 d0 3b
       -0.13844053 -0.015299718 0.010707538 0.006365744

features.1.running_mean f4 [32]
000000 c9 91 78 bd e3 d1 05 3d 99 1c b1 3d 12 f5 1d 3e
       -0.060685907 0.032670867 0.08648033 0.15425518
000010 07 cd a3 3c 71 46 95 bd f3 1a cf 3d 14 d1 ac 3d
       0.019995226 -0.07288826 0.10112562 0.08438316
000020 59 9e 78 3d dc fc 96 bd a7 d5 06 bd ed 4b e7 bd
       0.060697887 -0.07372448 -0.0329186 -0.112937786
000030 72 b3 8e 3d 04 16 d2 bc 46 7e e1 bc 7e 11 5e 3d
       0.0696782 -0.025645263 -0.027526032 0.0542159
000040 48 ed 44 bb a5 1e 85 bc 40 11 01 3d f4 5d 0a bd
       -0.0030048657 -0.016249964 0.03151059 -0.033781007
000050 60 d3 17 3d 67 10 bb bd c0 18 c5 ba 1d c7 e5 bd
       0.037066817 -0.09133988 -0.0015037283 -0.112196185
000060 78 2b c7 3b 22 7f d4 3d 70 c0 f7 3d f0 f6 b5 3c
       0.00607818 0.10375811 0.120972514 0.022212476
000070 f5 34 b1 3d 91 31 5f 3d d2 2e 7a 3d 72 75 96 3c
       0.08652679 0.05449063 0.061079808 0.01836655

features.1.running_var f4 [32]
000000 b7 11 31 3f e4 71 43 3f 2b 8c bc 3f d4 0c 9b 3f
       0.69167656 0.7634566 1.4730276 1.211329
000010 47 ab 9b 3f 1f 15 9a 3e 3c 9a ef 3e 06 6d f6 3f
       1.2161645 0.3009424 0.4679736 1.9252021
000020 c9 f2 18 3f 07 6a 7b 3f bb b9 e0 3f 28 f3 cd 3f
       0.5974546 0.9820866 1.755668 1.608983
000030 aa ec 21 3f a3 8e dc 3e ad 65 06 3f cd 1f a6 3f
       0.63251746 0.43077573 0.52498895 1.2978455
000040 c3 6b 17 3f 62 51 4c 3f bf e1 0f 40 1b 1b 1c 3f
       0.59148806 0.7981168 2.2481534 0.6097886
000050 a3 d8 18 3f 33 c8 fa 3e b4 13 07 3f db db 8f 3f
       0.5970556 0.48980865 0.5276444 1.123897
000060 3f 18 12 3f 60 1a e1 3e 91 3b e6 3f 75 92 9b 3f
       0.57068247 0.43965435 1.7986928 1.215407
000070 7c 25 76 3f 59 25 46 3f 72 72 36 3f fb 6b 65 3f
       0.96150947 0.7740074 0.7126838 0.8961789

features.4.weight f4 [64, 32, 5]
000000 e2 01 ca 3b 38 b8 76 3d fb 77 80 3d 03 79 95 bc
       0.006164775 0.06023428 0.062728845 -0.01824618
000010 7b c7 65 bc 89 74 4f bd f6 9e e2 3c b4 76 a4 bd
       -0.014024611 -0.050648246 0.02766369 -0.08030453
000020 ed ee 22 3d 22 50 f8 3c 35 27 f7 3c 25 b6 10 3c
       0.03977864 0.030311648 0.030170063 0.008832489
000030 84 07 13 bd 61 3b 64 3d 64 71 07 3d c8 24 cf bd
       -0.03589584 0.05572069 0.033067122 -0.10114437
000040 c9 63 0e 3d 6c b0 15 3d 2a 87 46 3d a6 b2 9b bb
       0.03476313 0.036545202 0.048468746 -0.004751521
000050 04 f9 7a 3d a1 24 02 bd c9 4b 17 bd 5e 72 8e 3c
       0.061272636 -0.031773213 -0.03693751 0.017388519
000060 cb ca 87 bc b0 79 3b bc 44 69 95 bd bc 59 2e 3d
       -0.016576191 -0.011442587 -0.072954684 0.042566046
000070 54 77 ba bd 56 06 93 3b 36 b0 ac 3d 2b f6 67 3d
       -0.09104791 0.0044868393 0.08432047 0.05663125
000080 01 32 b2 3d 58 6f 28 bc c8 94 34 bb 71 1f 47 bc
       0.08700944 -0.010280453 -0.00275545 -0.012153492
000090 d0 b5 b4 3d c5 ed 88 3c a9 d7 05 3d a4 7a 4a bd
       0.088237405 0.01671494 0.032676373 -0.049433365
0000a0 1b 63 1c 3e 04 c5 1b 3e f4 d3 e8 3b bc 58 a3 3d
       0.1527218 0.15211874 0.007105345 0.07975909
0000b0 cc 2b a6 bd f9 e7 0e bd e2 16 9b bd 76 7d c3 3a
       -0.08113822 -0.034889195 -0.07572724 0.001491471
0000c0 18 41 91 bd 6b 65 24 bd ec ea 3f bd 53 bb b4 3c
       -0.07092494 -0.040135782 -0.0468549 0.02206198
0000d0 10 d4 a7 bd 52 b9 63 bd 35 b7 3e bd 1d ce cd 3c
       -0.081947446 -0.055596657 -0.04656144 0.025122697
0000e0 b8 fe fe bc 8c 49 3b 3c 8e cb ac bd 61 1a c7 bd
       -0.031127319 0.011431109 -0.084372625 -0.09721828
0000f0 dd d5 6a bd 22 8f 2d bd 70 57 03 3d 4c 5e c7 bd
       -0.057332862 -0.04237283 0.03206581 -0.097347826
000100 87 db 83 bd e5 be c3 3c dc 11 92 bd 47 a0 9e 3d
       -0.06438356 0.023894737 -0.07132313 0.07745414
000110 47 e1 d8 bb f7 fd d4 bc da e0 97 bd f7 e6 a5 bd
       -0.006618652 -0.026000006 -0.07415934 -0.08100694
000120 ca 0b 90 bd 6b 2c d7 bd 67 eb 4f bd eb 78 6d bb
       -0.070334986 -0.10506519 -0.050761607 -0.0036235403
000130 47 88 bd 3d ea d0 88 3d 95 5f 7a 3d 75 1e 77 3c
       0.092545085 0.06680472 0.06112631 0.015082945
000140 f4 73 24 bb 59 a4 0e 3d 42 fb 8d 3c 69 73 c6 bd
       -0.0025093528 0.034824703 0.017331723 -0.096899815
000150 77 58 55 bc ac dc b8 bd e2 8d 43 bc 34 70 ac bc
       -0.01302158 -0.09026465 -0.011935683 -0.021049596
000160 d7 37 dd 3d 44 1c 46 3d 48 b7 c8 3b 3c f6 a2 bd
       0.10801666 0.0483668 0.0061253645 -0.07957122
000170 e9 8b a3 bd 41 01 1f 3b e8 e9 8d bd 47 4d 09 bb
       -0.0798567 0.0024262222 -0.0692938 -0.0020950602
000180 22 4a b0 3d e4 28 18 bc 59 87 77 bc 6b 54 33 3d
       0.0860789 -0.009287093 -0.015107953 0.04378168
000190 a6 15 51 3d 76 28 12 bd ed cd 0c 3d e7 5f 3a 3d
       0.051046036 -0.035683118 0.034376074 0.045501616
0001a0 83 06 98 bd d2 db 16 bc f9 80 3e bc 43 64 22 bc
       -0.07423117 -0.009207683 -0.011627429 -0.0099116
0001b0 7c 44 89 3d dd 9d d1 bd b5 8d 5f 3d e7 25 17 bd
       0.067025155 -0.10235188 0.0545785 -0.03690138
0001c0 71 07 98 bd 42 c7 09 3d 9c e4 29 bd b5 bf 83 3c
       -0.07423294 0.033637293 -0.041477785 0.016082624
0001d0 91 70 43 3d 7a 6c 8a bd 2d 99 ac bd 0f 4a c5 bc
       0.047714774 -0.067589715 -0.084276535 -0.024083165
0001e0 08 30 61 3d 48 9a 07 bb 82 9c 81 3d f3 d5 09 3c
       0.054977447 -0.0020691324 0.063286796 0.008412826
0001f0 3e ed 44 bd 55 35 06 bc 6e 64 08 3e 38 89 6f 3d
       -0.048077814 -0.008191426 0.13319561 0.05848047
000200 2a a7 bb 3c c0 b7 68 3d dc 24 9f bd 90 fb e5 3b
       0.022906858 0.056815863 -0.07770702 0.007018514
000210 09 d3 a5 bc 68 98 fc 3c 62 79 3f 3d 47 e7 78 3d
       -0.020242231 0.030834392 0.04674662 0.06076744
000220 eb 9d 48 3d 5f d2 16 bd 60 6b 24 bd 40 4c 04 3a
       0.048978727 -0.03682172 -0.040141463 0.00050467625
000230 b3 73 cc bc 8d ce 2c bd 00 a8 1c 3e 21 0c 6d 3d
       -0.024957513 -0.04218917 0.15298462 0.057872895
000240 06 0f 81 bd a0 7c c2 3c d9 a0 99 3c b8 ea 71 bd
       -0.063016936 0.023741066 0.018753456 -0.059061736
000250 5e e4 6b 3c 01 93 7c bd 8d 3a 03 bd e9 75 81 3d
       0.014397709 -0.06166363 -0.03203826 0.06321318
000260 c6 24 00 3d 89 44 20 bd 57 af da bd cf f2 86 3a
       0.03128507 -0.03912786 -0.10677975 0.0010295751
000270 58 5d 0c 3d fb ff 40 3d 51 23 a6 3c bf d2 63 3d
       0.034268707 0.047119122 0.020280512 0.055620905
000280 c7 00 02 bd b7 74 65 bd 7c 90 8e bd 6d 98 7e bd
       -0.031739023 -0.05601951 -0.06961152 -0.062157083
000290 b6 87 74 bd 07 bc e1 3d 80 a8 ca 3c 75 7d 81 bd
       -0.059699737 0.110221915 0.02473855 -0.06322757
0002a0 ae 9e 20 bd 5b e4 60 bb e6 45 12 3d ab de 3a 3d
       -0.03921383 -0.0034315798 0.03571119 0.04562251
0002b0 18 28 a2 3c 7a 37 ae 3c 16 60 2e 3d bb db 50 3d
       0.019794509 0.021266688 0.042572103 0.0509908
0002c0 4a 2f b8 3d 5a e8 b5 3d 98 9d d2 3d 9a 35 b2 3c
       0.08993395 0.08882208 0.10283965 0.021754075
0002d0 5d 11 73 bd c2 da 97 3c 03 76 a9 bc 24 99 5a 3d
       -0.05934273 0.018536929 -0.020686155 0.053368703
0002e0 56 3d 77 3c ba 31 e1 bc 87 7a 9a bd f0 a1 e9 3c
       0.015090307 -0.027489532 -0.075429015 0.0285196
0002f0 b5 98 c9 3c d6 18 cd 3d a6 cb f3 bc c7 1f 22 3c
       0.02460895 0.10014503 -0.029760193 0.009895272
000300 34 48 d8 bc c5 6a 9d bd ad 75 35 bd c4 83 2f 3d
       -0.026401617 -0.0768638 -0.044301677 0.04285027
000310 0f 01 ec bc 58 7a b8 3d c9 87 6c 3d a2 88 7c 3d
       -0.028809099 0.0900771 0.057746682 0.06165374
000320 be 7e 88 3d b7 7a 41 3d 77 52 00 3d b3 9f 0d 3d
       0.06664799 0.04723617 0.031328645 0.03457613
000330 b5 78 e6 bc 5c 78 79 bd 1d e2 ad bc f5 b1 22 3d
       -0.02813373 -0.0609058 -0.021225983 0.039720494
000340 fc 43 72 3d 38 9c 83 3d cd d2 52 bd f3 ca 60 bc
       0.059146866 0.06426281 -0.051470567 -0.013720262
000350 51 01 10 bd b5 75 89 3d bd c6 e3 bc 7f eb 53 bc
       -0.035157505 0.06711904 -0.027804727 -0.012934565
000360 79 1c c0 3d 52 9f 11 3d 79 92 c0 bc fa e9 7e bd
       0.09380431 0.03555233 -0.023507344 -0.062234856
000370 b5 3e 5d bd 09 ea b2 3d d8 fd 15 bd 41 ed fb 3d
       -0.05401488 0.08736045 -0.036619037 0.12301112
000380 62 13 04 3e c3 89 d5 3b 0c 22 a6 bb c8 6a 71 3d
       0.12898019 0.0065166666 -0.0050699767 0.058939725
000390 a9 c5 ea 3c 65 24 af 3d 74 34 9e 3d c2 f3 fa bc
       0.028658705 0.085518636 0.077248484 -0.03063381
0003a0 5d d5 7f 3d 47 19 19 3d 85 f2 32 bd e2 56 e5 3c
       0.06245934 0.037377622 -0.043688316 0.02799553
0003b0 4b 02 81 bd 85 31 b4 bd 2f 28 10 bd 30 f8 9f 3a
       -0.062992655 -0.087985076 -0.035194572 0.0012204703
0003c0 d1 7f b6 3d c9 bc f1 3c 37 89 da 3d 41 a4 11 3e
       0.08911098 0.029508965 0.10670703 0.14222814
0003d0 f3 c3 fd 3c 6c 3d 15 bd 86 85 b2 3b 77 07 80 bd
       0.030977225 -0.03643553 0.005448046 -0.06251424
0003e0 60 1c 35 bd 30 0a 9c bc 8a cc 6d 3d bb 47 69 bd
       -0.044216514 -0.019047827 0.05805639 -0.056953173
0003f0 9d e5 70 bc bc f7 59 bd 29 6b 99 bd a0 10 b9 3c
       -0.014703182 -0.053214774 -0.07491142 0.022590935

features.4.bias f4 [64]
000000 ca 57 4f 3d e6 27 18 bd 0b 61 77 bc 9c 16 08 bd
       0.05062083 -0.037147425 -0.01509882 -0.033224687
000010 dd f8 40 bd 6d cc 68 3d 59 4e 9b 3c 25 67 cd 3a
       -0.047112335 0.05683558 0.018958258 0.0015670998
000020 7b 9c 9a 3c 3a a4 0d 3d 59 e4 53 3d 14 a0 0b 3d
       0.018873444 0.034580447 0.05173144 0.03408821
000030 bb 94 c6 bc 21 c7 89 bd 0b 0b 4b bd 35 b4 7e bb
       -0.024240842 -0.06727434 -0.04957108 -0.0038864736
000040 1d 73 78 3d d9 a9 76 3d 5f 82 88 3d 67 6e 58 3d
       0.060656656 0.060220573 0.06665491 0.052839663
000050 4b 99 f6 3c 43 3e 83 3d 04 9c 83 bd 30 70 c4 3c
       0.030102393 0.0640836 -0.06426242 0.023979276
000060 5c 4c 59 bd 96 66 c9 3d 7d 60 b3 3d 48 08 25 bd
       -0.053051338 0.0983402 0.08758638 -0.0402911
000070 b3 22 6e 3d 6d fc 55 3c dd 70 c9 bc 3c 02 8d bd
       0.05813856 0.013060671 -0.02458995 -0.06885192
000080 a3 66 68 bd 39 2e 68 bc c4 4c 14 bb ae 53 a8 bd
       -0.056738507 -0.014171177 -0.0022628764 -0.08219086
000090 03 5b 81 3d 9f d9 20 bd b5 da 2d 3d 66 3d 6e bc
       0.06316187 -0.03927004 0.042444903 -0.014541006
0000a0 78 a2 0c 3b 0d f1 90 3d a3 7e 0a 3d db 78 15 3d
       0.0021459144 0.07077227 0.033812176 0.03649221
0000b0 ef 06 08 bc 4f 80 49 bd 36 45 0f bd 5f a1 63 bd
       -0.008302434 -0.04919463 -0.034978114 -0.055573817
0000c0 eb 62 8f 3d cc b4 aa bb 91 5c 22 3d b6 a3 3c bc
       0.07001289 -0.005209541 0.03963906 -0.011513641
0000d0 cd 30 28 bd 59 73 00 3d e4 77 ab bc 3a 8d 53 3d
       -0.041062165 0.031360004 -0.020931192 0.051648356
0000e0 10 6a 12 3c f4 e7 f4 bc 26 ff 01 3e f8 29 16 bd
       0.00893642 -0.02989576 0.12694988 -0.03666112
0000f0 01 e6 7f bd 50 e6 9a 3d 2e 27 9f bc 10 99 98 3d
       -0.06247521 0.0756346 -0.019427862 0.07451069

features.5.weight f4 [64]
000000 0a cb 7c 3f ad 90 81 3f 90 5d 78 3f 8c 02 79 3f
       0.98747313 1.0122277 0.97017765 0.9726951
000010 31 58 80 3f e4 68 8f 3f bc 8f 7e 3f 17 2e 7b 3f
       1.0026914 1.1203885 0.9943807 0.981172
000020 f5 06 7e 3f 5c a4 81 3f 4c b7 82 3f 2d 86 8e 3f
       0.99229366 1.0128284 1.0212188 1.1134697
000030 78 b9 7c 3f 6b 61 82 3f 29 f4 80 3f 07 4f 93 3f
       0.987205 1.018598 1.0074512 1.1508492
000040 20 75 66 3f 2f 45 62 3f 01 d8 78 3f 93 1d 85 3f
       0.9002247 0.88386816 0.97204596 1.039965
000050 94 3c 80 3f 59 f0 88 3f 39 a9 80 3f 22 54 67 3f
       1.0018487 1.0698348 1.0051643 0.9036275
000060 22 27 6c 3f 4c 10 82 3f 09 f8 75 3f 33 53 82 3f
       0.9224721 1.0161223 0.96081597 1.018164
000070 85 8e 82 3f 90 5c 7f 3f e7 24 8a 3f fb ae 80 3f
       1.0199744 0.99750614 1.0792512 1.00534
000080 4c 41 7e 3f 3e 9d 74 3f 92 dd 70 3f 3e 21 63 3f
       0.99318385 0.9555243 0.9408809 0.887226
000090 1c eb 87 3f fb e3 83 3f f7 ea 83 3f 44 83 61 3f
       1.0618625 1.0303949 1.030608 0.8809092
0000a0 c3 19 66 3f 95 d5 7c 3f 55 cc 79 3f 84 e1 83 3f
       0.8988306 0.987634 0.9757741 1.0303197
0000b0 c9 ab 89 3f 53 e9 84 3f e5 6e 81 3f ea 82 8d 3f
       1.075555 1.0383705 1.0111967 1.1055577
0000c0 61 ff 7a 3f 51 9b 83 3f da 0e 7b 3f b0 8c 72 3f
       0.9804593 1.0281774 0.98069537 0.9474592
0000d0 f3 42 80 3f 78 81 80 3f 2b dc 7a 3f 79 1b 6a 3f
       1.0020431 1.0039511 0.979922 0.9144817
0000e0 5e 13 83 3f 6b 0c 76 3f a3 c0 87 3f 99 30 83 3f
       1.0240285 0.961127 1.0605663 1.0249206
0000f0 cf bf 78 3f 7d 72 7d 3f b8 ec 80 3f aa 09 8a 3f
       0.97167677 0.9900282 1.0072241 1.0784199

features.5.bias f4 [64]
000000 2c c0 bc 3c 98 22 b0 bc f0 fc 89 bc cc 3c c1 3c
       0.023040853 -0.02150087 -0.016844243 0.02358856
000010 b7 e4 0a 3c a8 e0 3a 3d 9a 5e e3 bd 83 76 0e bc
       0.008477381 0.045624405 -0.11102028 -0.008695248
000020 80 ab 23 bd bd 20 af bc c3 32 73 bd 29 42 9f 3d
       -0.039958477 -0.021377916 -0.059374582 0.07776291
000030 d6 49 6b bc a0 53 1b 3d 72 bd ce bd 2e ed e4 3d
       -0.014360866 0.037921548 -0.100947276 0.11178051
000040 9b 4d 71 bc 37 eb f8 bd 57 f9 31 bd fb 41 9a bd
       -0.014727975 -0.12154239 -0.04345068 -0.07532116
000050 b6 0f de bc b3 ca 8e 3a fd c9 5a bc 77 62 14 bd
       -0.027107101 0.0010894149 -0.013353822 -0.036226716
000060 45 d5 7d bd 48 df 1a bc ca fd f8 bc cb 33 a0 3d
       -0.061970968 -0.009452648 -0.030394454 0.07822379
000070 97 08 ad 3c 6a ee 37 3b f5 51 cc bb 7e 6d 28 3d
       0.02112226 0.002806569 -0.006235356 0.041120045
000080 b0 c0 ea 3b ba 0c 42 bd ca fa 16 be f3 6f 36 bd
       0.0071640834 -0.04737542 -0.14744106 -0.044540357
000090 61 e5 98 3c 3e 8e 6c 3d 03 72 21 bc 96 ab 09 be
       0.018664064 0.05775284 -0.009853843 -0.13444361
0000a0 64 b3 ce bd d3 ad 19 bc a4 0b c1 bd 0c 2f e9 3c
       -0.1009281 -0.009379822 -0.094260484 0.028464817
0000b0 31 ef c1 3c d2 d6 91 3b 33 7a e2 bd 0d 3f d1 3c
       0.023673626 0.0044506574 -0.11058464 0.02554276
0000c0 8f c9 80 bd 6c 2a 1f bd 03 24 f1 3c 2b 78 bd bc
       -0.06288444 -0.038858816 0.029436117 -0.02312859
0000d0 9a de 64 bd d2 f5 01 bd 49 fe 37 bd 55 40 e0 bb
       -0.055876352 -0.031728573 -0.04492024 -0.0068436065
0000e0 fb 39 9a bc 51 54 a2 bd 76 56 7f bc d5 d0 04 3b
       -0.018826475 -0.07926238 -0.015584579 0.0020266075
0000f0 36 f4 a3 bd bc 17 62 bd 13 36 3e 3c e7 32 09 3d
       -0.08005564 -0.055198416 0.011609572 0.03349581

features.5.running_mean f4 [64]
000000 a9 de 1a 3c 8c 2f 21 3f 2f 61 0a bf f4 c0 82 bf
       0.0094525 0.62963176 -0.5405454 -1.0215135
000010 7b ca 09 bf 78 03 81 be 71 5d 21 3c b5 2c 64 be
       -0.53824586 -0.2519796 0.009848938 -0.2228268
000020 55 6e ee be 41 c2 07 bf 65 4c 78 bf 0a 50 ca be
       -0.46568552 -0.5303078 -0.9699157 -0.3951419
000030 87 aa e5 be 08 d7 83 be 19 5f 33 3f c6 37 e4 be
       -0.44856665 -0.25749993 0.7006698 -0.44573802
000040 8b b1 f1 be 01 49 0a 3f 17 b3 01 be db 74 74 3d
       -0.47205767 0.54017645 -0.12665974 0.059681755
000050 8a 34 2c bf e3 c1 34 bf 08 62 06 bf 50 5d ed be
       -0.6726767 -0.7060835 -0.52493334 -0.46360254
000060 b2 f5 38 3f 22 3a 08 bd 17 79 08 bf d0 38 19 bf
       0.722499 -0.033258565 -0.5330977 -0.59852314
000070 fe 71 bf be 90 3b 36 bf 16 21 5c bf 17 ca 4a bf
       -0.37391657 -0.71184635 -0.85987985 -0.79214615
000080 40 0a 54 bf e4 3f 44 bf ec 94 97 3e 2c da 27 bf
       -0.8282814 -0.7665999 0.29605806 -0.6556728
000090 14 89 29 bf 4a a1 1d bf 2a 72 83 be 2a 8b ea be
       -0.6622479 -0.6157423 -0.25673038 -0.458093
0000a0 73 2c 7a 3f 49 11 74 be 9f f1 4d 3c 8e 1a 70 3c
       0.97724074 -0.23834719 0.012569814 0.014654769
0000b0 85 68 bf be 62 69 9b bf 78 9b 03 bf 7d f9 f8 be
       -0.3738443 -1.2141535 -0.514091 -0.48627844
0000c0 99 a9 0e 3f 25 9c 02 be db 78 aa be 7a 28 40 bf
       0.55727535 -0.12754877 -0.3329533 -0.7506176
0000d0 6f fd 6c 3f 97 53 95 be 2b 8d d9 3e a6 03 18 bd
       0.9257421 -0.29165336 0.42490515 -0.037112854
0000e0 6e 0a 45 bf 91 3d ce bd 4c de 40 bf bf fc 11 bf
       -0.7696904 -0.100703366 -0.753392 -0.57026285
0000f0 1a d3 90 3c b6 20 47 bf e7 7e 23 bf 8d b4 57 bf
       0.017678786 -0.7778429 -0.6386551 -0.84259874

features.5.running_var f4 [64]
000000 d4 0e 65 3e a9 04 25 3f f7 fc a1 3f 2c e9 1d 3f
       0.22368938 0.64460236 1.2655324 0.6168392
000010 ad 29 1e 3f e0 bd fb 3e 23 2a 84 3e 64 92 d6 3e
       0.6178234 0.491683 0.25813398 0.41908562
000020 92 55 8d 3f 56 37 cd 3e 2c fe 54 3f e7 54 af 3e
       1.1041739 0.4008128 0.83200336 0.34244463
000030 c4 65 bb 3e c5 ae 89 3e 3f 71 ab 3f 70 ca 4f 3f
       0.3660108 0.2689115 1.3393935 0.8116827
000040 b2 da 52 3f 71 0d 96 3f 67 33 24 3f 9b db 86 3e
       0.8236495 1.1722852 0.64140934 0.2633942
000050 76 b5 07 3f 34 1d e8 3e c6 84 27 3f 77 ff c2 3e
       0.5301126 0.4533478 0.6543697 0.3808553
000060 9c b0 09 3f f6 64 c3 3e 35 69 1a 40 ee db a7 3f
       0.5378511 0.38162965 2.4126713 1.3113992
000070 a5 e1 19 3f 6c f8 8d 3f 49 dd 35 40 c9 2b 77 3f
       0.6010993 1.1091437 2.8416312 0.96551186
000080 69 3e f0 3f 0b 16 7b 3f bb 25 13 3f 7a e8 81 3f
       1.8769046 0.9808051 0.5747945 1.0149071
000090 3c f7 ad 3f 41 da 89 3f f3 25 d1 3e 8c df d3 3e
       1.3591075 1.0769731 0.40849265 0.4138149
0000a0 bc 2e ca 3f b2 a1 a0 3e 48 fb d6 3e 04 b9 90 3e
       1.5795512 0.31373364 0.41988587 0.28266156
0000b0 0a 9f 9d 3e 39 b1 84 3f b8 5d c1 3e a6 a6 1e 3f
       0.307854 1.0366584 0.37766814 0.61973035
0000c0 c8 e6 04 3f da 03 10 3e 67 99 e9 3e f5 9a 15 3f
       0.51914644 0.14063969 0.4562485 0.5843957
0000d0 50 7f 46 3f a4 28 ac 3e a4 ec 01 3f 4d e2 1f 3f
       0.77538013 0.33624756 0.5075171 0.6245468
0000e0 b1 14 19 3f cd 9d 88 3e 79 1a 17 40 e4 9d 40 3f
       0.597972 0.26682892 2.3609908 0.7524092
0000f0 1b 64 55 3f 9b ce 00 3f 19 2c c5 3f 11 7c 56 3f
       0.83355874 0.50315255 1.5404083 0.8378306

features.8.weight f4 [128, 64, 5]
000000 9a 12 b8 3b 5e 34 1f bb 4d a1 c5 b8 f4 72 ec bc
       0.005617452 -0.0024292688 -9.4237366e-05 -0.028863408
000010 48 c5 7e bb df cd 80 3b e5 58 1f bd c8 79 84 bd
       -0.0038874913 0.0039307917 -0.038903136 -0.064685404
000020 ae 90 e7 3a 61 0e 99 bc b6 56 57 bd d2 83 04 3c
       0.0017667019 -0.018683614 -0.05257293 0.008088069
000030 f0 00 12 bd d4 97 f4 bc 7a 6c 84 bc 6c f4 f4 3c
       -0.035645425 -0.029857554 -0.016165007 0.029901706
000040 2e 6f 0c 3d d4 25 d9 3b 43 5f e3 bc 92 27 0f 3d
       0.034285717 0.006626824 -0.027755385 0.034949847
000050 63 68 40 3d 4c e9 8a 3d d0 07 ba 3d 07 30 9a bc
       0.04697455 0.06782779 0.09083521 -0.01882173
000060 1a bc 27 bd 46 1c 54 3d 69 44 80 3d 59 22 44 3d
       -0.040950872 0.051784776 0.06263048 0.04788432
000070 c1 2c 77 bd 03 96 16 be bc 72 d3 3c bd 66 9e bd
       -0.060345415 -0.14705662 0.025811546 -0.077344395
000080 63 64 5c bd d1 e7 fb bc f0 1f 8b 3b a7 ec df 3c
       -0.053806674 -0.030750187 0.0042457506 0.027334524
000090 e3 ef 83 3d f0 0b 70 3c de d6 fc 3c 11 d0 14 3c
       0.06442239 0.014651284 0.030864175 0.00908281
0000a0 57 0b 40 bd 58 34 24 3c 91 2d 10 3c ef d7 a8 bc
       -0.046885815 0.010022245 0.008799926 -0.020610778
0000b0 51 25 cf bd 1c ef e3 3c 03 1e 97 bd d6 b9 a7 bd
       -0.101145394 0.027823977 -0.07378771 -0.08189742
0000c0 57 4a 4b bd 2a dd 94 3d c5 9f 19 bd 8d eb 0c 3d
       -0.049631443 0.07268746 -0.037505884 0.034404326
0000d0 bb b7 48 3d df 33 81 3d c5 01 15 bc 6a 32 12 3c
       0.049003344 0.06308722 -0.00909466 0.008923152
0000e0 a2 5e 0e 3c ba c0 81 3c c6 aa b1 bd eb 1d ae bd
       0.008689554 0.01583897 -0.086751506 -0.085018
0000f0 2c 15 2e bd 45 44 c2 bd f6 08 73 bb 7a 0b bc 3c
       -0.04250066 -0.09485678 -0.0037084199 0.022954691
000100 07 4a 49 3d 89 0a 8a 3d d8 8d 99 bd fd 41 9c bd
       0.049142864 0.06740291 -0.07497758 -0.07629774
000110 17 7a 90 bd 7f ab 07 bd 67 44 e4 3c ae 9a 60 bc
       -0.07054537 -0.033122536 0.027864648 -0.0137087535
000120 09 a3 62 3d 10 2d 06 3d ac 26 42 3b 23 87 86 3d
       0.055331264 0.03275782 0.00296251 0.06568744
000130 ad 03 3b 3d 96 de 66 bd 07 b3 74 bd f9 53 25 bd
       0.045657802 -0.05636462 -0.059741046 -0.040363286
000140 9d ec cd 3c 53 03 2d bd 3a a5 52 bd 58 1a 09 bc
       0.02513724 -0.0422395 -0.051427104 -0.008368097
000150 44 c0 76 3d 1e 47 40 bd 79 36 e5 bc 62 ec 17 bd
       0.060241953 -0.046942823 -0.027980076 -0.037090667
000160 22 ff 6d 3d a2 ad 72 3d 28 a5 3a 3d c1 1a 83 bc
       0.05810464 0.05924762 0.04556766 -0.016003968
000170 57 a9 0c bd 58 19 0c bd 69 8a 2e bc d6 d6 9c 3b
       -0.034341183 -0.034203857 -0.010653117 0.0047863526
000180 e0 f6 0c 3d df d1 a4 3d 57 bc 34 3d f6 2c 07 3d
       0.034415126 0.08047842 0.044124927 0.033001862
000190 b1 71 d7 bd 1e e7 fa bc f4 3e 2c 3d 48 72 f0 bc
       -0.10519732 -0.030627783 0.042052224 -0.029351369
0001a0 16 4a 48 bc 11 29 ba bb 07 3e f1 bc a8 49 18 3d
       -0.012224695 -0.005681165 -0.029448522 0.03717962
0001b0 1a a8 d0 3c 42 34 50 3d 6a 81 a5 bd 2b bc d7 3b
       0.025470782 0.050831087 -0.080813244 0.0065837107
0001c0 b0 83 d6 3c 9f ef fe 3b f7 93 50 3d b1 7c 95 bc
       0.02618584 0.00778003 0.05092236 -0.018247934
0001d0 7b 7f 75 3c e1 18 d7 3b cc 03 85 bc dd 70 47 3d
       0.014984007 0.006564245 -0.016237162 0.04869162
0001e0 ac 4d 71 bd e6 f7 73 bc 40 2f 28 3d 2f 00 e0 bc
       -0.058911964 -0.014890647 0.041060686 -0.027343838
0001f0 a0 4f 80 3d 78 ad 3e bd 13 b7 3e 3d c4 48 11 bd
       0.06265187 -0.04655215 0.046561312 -0.035469785
000200 1f 12 b3 3c a0 7d 4a 3d bd b9 01 3c 54 58 ab bc
       0.021859227 0.04943621 0.007917819 -0.020916142
000210 9d 3e 4c 3d 14 e5 8a 3d b8 dc 2d 3c e7 20 ab 3c
       0.0498644 0.067819744 0.0106117055 0.020889712
000220 7d fe 95 3c cd 8a aa bb 92 ae 2d bd 94 ca 8e 3d
       0.018309826 -0.0052045346 -0.04240281 0.069722325
000230 72 6b df bc 68 a6 ee bb dd 63 67 bd 7f 60 6b 3c
       -0.027272914 -0.0072830208 -0.05649172 0.014366268
000240 57 be 45 3d 43 46 56 bd 77 46 6b bd cd 02 74 3d
       0.048277225 -0.0523131 -0.057440247 0.059572984
000250 6f a1 da 3c 36 4d 50 bd 1f 34 f0 3c d4 ec a7 bc
       0.026688306 -0.050854884 0.029321728 -0.02049867
000260 4d 2e 97 3c 39 dd 2a 3d f1 f3 15 bd 93 12 06 bc
       0.018454695 0.04171488 -0.036609594 -0.008183139
000270 47 19 d8 bc a4 fd 9b bc 12 89 31 bd 56 db 04 3d
       -0.02637924 -0.019041844 -0.04334361 0.032435738
000280 fe 25 db bc 77 1f 92 3c 87 dd b6 3c cc 33 56 bc
       -0.026751515 0.01783727 0.02232243 -0.013073873
000290 64 30 ea bc 28 51 d6 3c 4a fd b0 3c 75 19 17 3d
       -0.028587528 0.026161745 0.021605153 0.036889512
0002a0 43 c6 09 bd e4 e0 a5 3c ff 1f 4f bd c2 65 89 3b
       -0.033636343 0.020248838 -0.050567623 0.0041930387
0002b0 ce 82 f8 3c 64 b1 9e 3d c2 fe 81 3d 6a eb 62 bd
       0.03033581 0.07748678 0.06347419 -0.05540029
0002c0 2f 0f da ba 53 4c 73 3d dd 5b 1a 3d 33 bc 43 3d
       -0.0016636605 0.05939896 0.037685264 0.047786903
0002d0 e2 db 98 3d 92 f6 54 3c d2 bf 9f 3c 92 0b 84 bd
       0.07463814 0.01299824 0.019500647 -0.06447519
0002e0 34 3b 52 3c 87 10 66 3d d6 c0 7e 3d 83 25 61 bd
       0.012831498 0.056168105 0.06219562 -0.054967415
0002f0 db 0b 9c bd b7 47 a4 b7 c0 8e ef 3b 03 11 3c bd
       -0.07619449 -1.9583718e-05 0.0073107183 -0.04591466
000300 19 ae 73 bc 73 2e 74 bd ab 9b 8e 3d cd f0 6c bd
       -0.014873051 -0.05961461 0.06963285 -0.057846833
000310 d6 11 91 3b ef c6 c3 bc 72 cb dc 3c 7f 75 80 3d
       0.004427175 -0.02389857 0.026952479 0.062724106
000320 0d 4c a5 bc ff b4 71 3b c4 8f af bc 42 31 ad bc
       -0.020177865 0.0036881564 -0.021430857 -0.021141652
000330 16 5f f7 bc 39 b0 a9 bc 41 31 1f bd 64 39 6d 3c
       -0.030196708 -0.020713912 -0.03886533 0.014479015
000340 f8 d2 0b bd 09 fd 00 bd 89 2f 66 bd c3 61 8c bd
       -0.034136742 -0.031491313 -0.056197677 -0.06854584
000350 73 da bf bc 45 76 bc 3b 47 13 a4 3d 7c 10 85 3c
       -0.023419594 0.0057514035 0.08011489 0.016243212
000360 67 a2 08 3d 49 e9 68 bd 36 45 cf bd 22 1a 63 3c
       0.033358004 -0.056863103 -0.10120623 0.013861211
000370 f1 5b 21 bd b0 3d 3c bd 67 02 83 bd 25 f7 00 bd
       -0.039394323 -0.045957267 -0.063969426 -0.031485695
000380 80 fa 7c 3a 93 c1 7c bd 40 23 a0 3d 83 df b9 3a
       0.00096503645 -0.061708044 0.078192234 0.0014180992
000390 40 ac 85 3d f0 ed be bc 81 95 e0 bd 17 45 9a bc
       0.06526995 -0.023306817 -0.109660156 -0.018831773
0003a0 d1 d2 57 bb 28 f6 45 bc 1c 6d 08 bd e4 8b 83 bd
       -0.0032932053 -0.012082614 -0.03330718 -0.064231664
0003b0 fb 52 3f bd 9f 1a f3 bc ec 36 2d 3d b0 6a 82 3d
       -0.046709996 -0.02967578 0.042288706 0.06368005
0003c0 82 2b a6 bc f8 d4 d2 bd d8 39 75 bd c1 93 91 3c
       -0.020284418 -0.10294527 -0.059869617 0.01777065
0003d0 c1 38 9e 3c fc 27 ad 3d 19 ae 29 3d 56 85 b4 3d
       0.019314172 0.08454892 0.041425798 0.08814494
0003e0 56 ac 65 bd 5b 0c 16 bd 70 6c 5e bd cb 24 1c bd
       -0.056072555 -0.036632877 -0.054302633 -0.038121026
0003f0 b0 78 d2 3c 3a b5 63 bc cb 1f 18 bc c4 61 26 3a
       0.025692314 -0.013898188 -0.009284924 0.00063469657

features.8.bias f4 [128]
000000 82 ba 8f bb 68 05 5f 3d 47 fd 78 bc 16 a9 b5 bb
       -0.004386247 0.054448515 -0.015197105 -0.0055438383
000010 38 20 a6 3d cd f4 8e 3d 28 c1 47 bd 54 06 af 3c
       0.08111614 0.06980286 -0.048768193 0.021365322
000020 8a f8 bb 3c 53 f0 1b 3d 87 02 b4 3d 24 d3 26 3d
       0.022945661 0.038070988 0.087895446 0.040728703
000030 6c b9 2b bc ae 47 39 bd c4 61 13 3d 31 37 4f 3d
       -0.01048122 -0.045234375 0.03598191 0.050589744
000040 76 31 11 3d ec 5f a9 3c c5 c2 56 3c 43 10 5f bd
       0.03544756 0.020675622 0.01310796 -0.054458868
000050 9e 0c 5b bd 6b c0 f8 bb b4 80 c5 bc 7c 7e 62 bd
       -0.05347883 -0.0075912974 -0.024109222 -0.055296406
000060 85 76 50 bd 74 34 28 3c 41 d8 8f 3b 87 a9 46 3d
       -0.05089428 0.010266412 0.004389793 0.048501518
000070 fd 66 44 3d 09 21 5a bd 62 41 9e 3d 74 4c 22 bd
       0.04794978 -0.05325416 0.077273145 -0.039623693
000080 1a 4b 43 3d f1 18 03 bd 79 71 41 3d 70 03 19 3d
       0.047679044 -0.032006208 0.047227357 0.037356794
000090 6c be 01 3c fc df 24 bd 3a 5d 68 3d b4 53 5c bd
       0.007918935 -0.04025267 0.056729533 -0.053790763
0000a0 de 45 63 3c 64 e5 06 bd 47 e7 9d bc 20 14 7a 3d
       0.013871638 -0.032933608 -0.01927532 0.06105435
0000b0 e5 eb 99 bd d7 d0 82 3c 9e 03 dd bc 66 21 95 3c
       -0.075156964 0.015968723 -0.026979264 0.018204402
0000c0 dc ff 7e 3d 95 8c 74 3d 53 60 26 bd f0 03 10 3d
       0.062255725 0.059704382 -0.040619206 0.035160005
0000d0 d1 90 76 bd 7c 26 5e bd df d6 ca 3c c6 77 aa bd
       -0.0601967 -0.05423592 0.024760662 -0.08323626
0000e0 29 78 27 3c 6f 86 bd 3b cb 19 f0 3c 25 cc 89 3d
       0.0102215195 0.005783848 0.029309174 0.067283906
0000f0 c2 80 0d bd 04 2e a6 3c f7 d8 76 bc 0b db 81 3d
       -0.03454662 0.020285614 -0.015066377 0.06340607
000100 a3 9a 64 3d a9 57 10 bd 10 2c fc 3c 57 bf f1 bc
       0.055811536 -0.03523985 0.03078273 -0.029510183
000110 95 1f 16 bd dc d3 f9 ba 31 a0 07 bd 5a 09 a8 bc
       -0.036651213 -0.0019060331 -0.033111755 -0.020512272
000120 21 e0 71 3d 90 3d 1b 3b 44 2a 5d 3d 25 0b 2b bd
       0.059051637 0.0023687817 0.053995386 -0.041758675
000130 69 83 86 3c f8 b2 9a 3d 3a 9c 9f bd ce 3b 97 3b
       0.016420083 0.07553667 -0.0779347 0.0046152836
000140 03 b0 37 3d 84 76 33 bd 94 09 fb bc 8f 26 2f bd
       0.044845592 -0.043814197 -0.030644216 -0.04276138
000150 da 9c b8 bc ea a0 2a bd 7e f2 3c bd 70 fb 3d 3c
       -0.02253573 -0.041657366 -0.046129696 0.011595592
000160 0b 27 de 3c fd ac 33 3d 9e 85 24 3c 7a b3 4a 3d
       0.027118227 0.043866146 0.010041622 0.04948757
000170 a5 36 44 3d e8 4f f1 3c 12 86 d3 bb ce f2 bd bc
       0.047903676 0.029457048 -0.0064551914 -0.023187067
000180 e5 78 a8 3d eb 93 e3 3a 1c 38 12 3d 54 c9 66 bd
       0.08226184 0.0017362809 0.03569804 -0.056344345
000190 eb 5e d0 3a 03 a1 27 3d 0c 42 d4 3c 33 8b ac bb
       0.0015897428 0.040925037 0.0259104 -0.0052656173
0001a0 a2 42 80 3c 2f 37 67 3c ce 9c 30 bd 13 8b 2a bd
       0.015656773 0.014112278 -0.04311829 -0.041636538
0001b0 ad 4d a3 3c b6 38 83 3d ff 94 d9 3c 95 34 a2 bc
       0.0199345 0.06407301 0.026560305 -0.019800464
0001c0 7c 1a 71 bd ad e3 8b bc 79 71 d5 3c 7f c3 7f 3d
       -0.058863148 -0.017076338 0.026055085 0.0624423
0001d0 0c 59 8a bd 16 0f d9 3c 5f a6 02 bd 6e 02 66 ba
       -0.067552656 0.026496451 -0.031896945 -0.0008774166
0001e0 ce d7 67 bb 48 8d 1e 3d b5 d4 a9 bd a6 b4 65 bd
       -0.0035376432 0.038708955 -0.08292524 -0.056080483
0001f0 1a b5 4e 3d 9f dd cd 3b 8f 85 f2 bc 29 53 b9 bb
       0.05046568 0.006282523 -0.029604701 -0.0056556654

features.9.weight f4 [128]
000000 5a 00 79 3f cb d5 6f 3f 34 38 73 3f d1 ca 7f 3f
       0.9726616 0.936856 0.95007634 0.9991885
000010 bd a8 86 3f 7f a2 68 3f 2c 26 75 3f d7 ef 85 3f
       1.0520245 0.9087295 0.9576137 1.0463818
000020 ea dc 84 3f 3e 97 6c 3f 1b e1 7d 3f bf 7c 7d 3f
       1.0379918 0.9241828 0.9917161 0.9901847
000030 d2 5b 5b 3f aa da 6f 3f 6f de 68 3f 00 d6 8f 3f
       0.8568698 0.9369303 0.90964407 1.1237183
000040 02 92 7b 3f a6 4b 76 3f 0c 1b 7a 3f d2 46 74 3f
       0.98269665 0.9620918 0.9769752 0.95420563
000050 7b c7 77 3f 4e 8f 73 3f ff 55 67 3f ae ff 85 3f
       0.9678876 0.9514054 0.90365595 1.0468652
000060 44 80 7f 3f cd 0a 7b 3f cc 50 75 3f 60 a3 5d 3f
       0.9980509 0.98063356 0.9582641 0.86577415
000070 73 7b 62 3f 68 8d 8b 3f 7f 9e 7d 3f 95 9c 7b 3f
       0.8846962 1.0902529 0.9906997 0.982858
000080 91 d9 7b 3f 2d 60 72 3f 95 a9 4f 3f a2 34 68 3f
       0.98378855 0.94678 0.81118137 0.9070531
000090 a0 97 8a 3f d1 fb 64 3f e1 98 71 3f af 60 5c 3f
       1.0827522 0.8944674 0.943739 0.8608503
0000a0 c5 a2 81 3f fe 8d 82 3f 1a 5f 74 3f 2b 8d 7c 3f
       1.0127798 1.0199583 0.95457613 0.98652905
0000b0 8f fc 75 3f 0b 90 88 3f 2b 23 5c 3f 0c ef 5e 3f
       0.960885 1.0668958 0.8599116 0.87083507
0000c0 9f 44 83 3f 09 78 7d 3f e4 74 7c 3f 27 14 67 3f
       1.0255316 0.99011284 0.9861586 0.90265125
0000d0 81 0b 6d 3f 36 0f 77 3f cb 0a 6c 3f 0c 09 7b 3f
       0.9259568 0.96507585 0.9220397 0.9806068
0000e0 48 c5 6e 3f 31 5b 61 3f 55 92 7a 3f 69 05 81 3f
       0.9326978 0.8802977 0.97879535 1.0079776
0000f0 97 23 68 3f b5 07 86 3f 66 84 71 3f fa da 89 3f
       0.90679306 1.0471102 0.9434265 1.0769951
000100 1f 1c 6c 3f e9 e1 83 3f 2a 2d 7b 3f 48 b3 82 3f
       0.9223041 1.0303317 0.9811579 1.0210962
000110 d8 d1 7e 3f f1 d7 7e 3f 00 c1 7c 3f 98 80 68 3f
       0.99538946 0.9954825 0.98731995 0.9082122
000120 fb c6 7f 3f 73 20 87 3f 07 98 6b 3f e4 ac 79 3f
       0.99912995 1.0556778 0.9202885 0.97529435
000130 01 0f 66 3f 1a f8 7b 3f 09 84 8c 3f 49 64 64 3f
       0.89866644 0.9842545 1.0977794 0.89215523
000140 a5 a0 79 3f 03 c4 7d 3f 7b 0a 68 3f 0d a2 76 3f
       0.9751075 0.99127215 0.9064099 0.9634102
000150 32 50 84 3f 8e 16 72 3f 48 66 71 3f ef 70 79 3f
       1.0336974 0.94565666 0.94296694 0.9743795
000160 b7 be 77 3f e7 2f 79 3f ce 72 7b 3f 3e b1 84 3f
       0.9677538 0.9733872 0.98222053 1.036659
000170 64 9e 60 3f d3 ae 5e 3f 93 c6 70 3f 76 fc 7b 3f
       0.87741685 0.8698551 0.94053 0.984321
000180 c8 44 83 3f bb 8e 65 3f 1e a6 67 3f d8 52 7b 3f
       1.0255365 0.89670914 0.9048785 0.98173285
000190 d3 df 83 3f a9 97 81 3f 13 c8 70 3f 74 0a 6d 3f
       1.0302681 1.0124408 0.9405529 0.92594075
0001a0 53 b4 6a 3f 9b 70 83 3f 57 ed 4f 3f 76 0d 82 3f
       0.916814 1.026874 0.81221527 1.0160358
0001b0 43 9c 7d 3f e9 b5 81 3f 94 4e 75 3f c6 8e 84 3f
       0.9906656 1.013364 0.95823026 1.0356071
0001c0 9c 71 78 3f 59 34 67 3f 27 1a 70 3f e8 17 7b 3f
       0.97048354 0.9031425 0.93789905 0.98083353
0001d0 38 70 6c 3f 04 41 82 3f ac ff 7e 3f 4b 72 76 3f
       0.9235873 1.0176091 0.99608874 0.9626815
0001e0 01 a8 70 3f 0b 46 7f 3f b4 ca 8f 3f e5 cd 7f 3f
       0.94006354 0.9971625 1.1233735 0.99923545
0001f0 86 b5 6b 3f 1e 3c 81 3f fe 8c 7e 3f 7c 5b 6a 3f
       0.9207386 1.0096471 0.99433887 0.91545844

features.9.bias f4 [128]
000000 94 8b 21 be 86 d5 b7 bd bb fe 85 bd d8 5b 6f bd
       -0.15775901 -0.08976273 -0.065427266 -0.0584372
000010 9f 30 cd be 04 27 09 be eb d3 84 be a4 ab 96 be
       -0.40076157 -0.1339379 -0.2594293 -0.29427826
000020 45 05 0d be 2b 17 c6 bd c3 bc 1e be e8 db c5 bd
       -0.13771541 -0.09672388 -0.15501694 -0.096610844
000030 2a 5c 25 be e3 a8 08 be 31 3a fb bd 69 b9 aa be
       -0.16148439 -0.13345675 -0.122669585 -0.33344582
000040 0b 5f a5 be 28 a2 3f be f9 73 71 bd 6e 98 79 bd
       -0.32299075 -0.18714201 -0.05894849 -0.060936384
000050 7d 5b d2 be 86 09 b6 bd 8c 5a fd bd 3c 49 d9 b8
       -0.41085425 -0.08888535 -0.12370786 -0.00010361007
000060 1c d4 7f be 0a b6 1f be 6c 1c c1 bd 19 9f 8c bd
       -0.24983257 -0.15596786 -0.09429249 -0.06866283
000070 04 0b da bd cf 96 17 be c7 44 d6 bc 01 7a 28 be
       -0.10646632 -0.14803623 -0.026155842 -0.16452791
000080 9a 95 a5 bd ba d3 6a bd 79 62 46 be 39 5c d5 bd
       -0.08085175 -0.057330824 -0.19373502 -0.10417981
000090 2b 41 ca be 0a 14 9c bd 21 cd 3f be ab c0 0a be
       -0.39502844 -0.0762101 -0.18730594 -0.1355006
0000a0 f7 3a c2 bd a5 37 8f bc 78 96 d9 bd 70 b5 6f bd
       -0.09483903 -0.017482588 -0.10624403 -0.05852264
0000b0 43 20 a5 bd 26 01 dd bc 7e 2f 2e be 3e 55 f9 bd
       -0.08062794 -0.026978087 -0.17010304 -0.12174462
0000c0 0b cd b5 bd 13 35 38 be 1c 16 4c 3b 64 09 35 be
       -0.088769995 -0.17988996 0.0031141108 -0.17679363
0000d0 ae 0d d8 bd a6 a6 1f be 5b 56 69 be 90 9a 6a be
       -0.10549484 -0.15590915 -0.22786848 -0.22910523
0000e0 ed 8e dc bd 88 89 17 be 1f d8 98 bd 8c d7 47 be
       -0.107694484 -0.14798558 -0.07463097 -0.19515818
0000f0 47 22 38 be 02 95 75 be 9a 20 b9 bd 76 79 2b bd
       -0.17981826 -0.23982623 -0.090394214 -0.04186388
000100 93 ea 2a be 92 56 42 3d 40 e5 cd 3b 4d 95 21 be
       -0.16691045 0.04744584 0.0062834322 -0.1577961
000110 6b 47 9d bd 3c 83 db be b0 a3 6a bd b5 af 49 bd
       -0.076796375 -0.4287356 -0.05728501 -0.049239833
000120 e0 0c 8b bd e2 28 61 be 74 ac 4f be 94 08 10 be
       -0.06789565 -0.21988252 -0.2028063 -0.14065772
000130 c6 d5 27 be e2 5c 08 be 44 38 b9 be be af 1b be
       -0.16390142 -0.13316682 -0.3617574 -0.15203759
000140 66 43 6d bd 8b 2e 01 be 33 4a 14 be 30 0c 44 be
       -0.057925604 -0.12615411 -0.1448143 -0.19145274
000150 88 0e 6c be f2 36 7a bd 32 99 04 be d0 9a a3 bd
       -0.23052418 -0.061087556 -0.12949064 -0.079885125
000160 6b db b9 bd ee 0d 4d bd b6 51 3b be a1 f1 77 be
       -0.09075054 -0.050062113 -0.18292889 -0.24213268
000170 fe 61 dc bd 98 1f d1 bd 7e 67 e2 bd 08 49 73 be
       -0.10760878 -0.10211104 -0.11054896 -0.23758328
000180 3f 76 a6 bd 2b 84 6b be ad 5b 00 be 88 06 0e be
       -0.081280224 -0.22999637 -0.12534972 -0.13869679
000190 a4 ce d3 3c be e1 3b bd ed c6 94 bd 6f d5 04 be
       0.02585537 -0.04586958 -0.072645046 -0.12972043
0001a0 13 1b eb bd 76 d6 e7 bd 5e ba 0e be ab 6c 85 bd
       -0.11479773 -0.11320202 -0.13938281 -0.065148674
0001b0 ca 3c 37 bc 1c f3 69 be d3 8e 30 bc 36 7c b5 bd
       -0.011183927 -0.22846645 -0.010776239 -0.08861582
0001c0 5d bf 5b bd b3 ce 0f be 54 b4 8d bd 4a eb 87 be
       -0.053649295 -0.14043693 -0.069191605 -0.265467
0001d0 f3 22 11 be fa f2 3b bb f9 02 83 bd 74 8a 9d bd
       -0.14173488 -0.002867876 -0.06397051 -0.076924235
0001e0 46 6f 49 be b5 24 47 bd 96 25 1c be 12 1f 61 bd
       -0.19671354 -0.04861899 -0.15248713 -0.05496127
0001f0 24 54 0a be 9d 9c ac bd bc 8a 7e bd 2e a3 bd bd
       -0.1350866 -0.08428309 -0.062144026 -0.0925964

features.9.running_mean f4 [128]
000000 f8 f4 d2 be cf 70 40 be 53 a0 b2 bd 12 b6 82 be
       -0.4120252 -0.18793033 -0.08721986 -0.25529534
000010 a1 fc 10 be e9 9d 9a bf a4 46 3b bf 65 da fc be
       -0.1415887 -1.207944 -0.73154664 -0.49385372
000020 4a 04 ec 3b 30 7a 51 bf 38 ff ba 3c 16 c4 d5 be
       0.0072026597 -0.8182707 0.022826776 -0.41751164
000030 4c 1f 4f 3f 0c 7a 42 bf 92 e9 45 be 92 69 76 bf
       0.8090713 -0.7596748 -0.19327381 -0.9625484
000040 6a 70 1b be 32 e8 ea bd a1 69 05 bf 33 ca ca bf
       -0.15179601 -0.11470069 -0.521143 -1.5842956
000050 90 a9 c6 be 3d 0f 67 be 7e 6e 07 bf 5e f9 82 bf
       -0.3880124 -0.22564407 -0.5290297 -1.0232351
000060 e8 8a 10 bf 27 fa 32 be 8f 14 13 3f 2f 32 e4 3e
       -0.56461954 -0.17478238 0.57453245 0.44569537
000070 c1 5d 04 be ca 11 fa 3d b9 47 a1 bf a7 bf d7 be
       -0.1292639 0.12210424 -1.2600013 -0.42138407
000080 1b 02 94 bf 2e 93 bf bf ef 33 54 3f fe 24 05 be
       -1.1563143 -1.4966791 0.82891744 -0.13002393
000090 7f a9 0c 3e 55 9c 1b 3f 51 d5 20 bf dd 7d 8e bf
       0.13736533 0.6078542 -0.62825495 -1.113216
0000a0 36 da 2d bf 42 e7 25 bf ee c9 80 bf 2c f0 a4 bf
       -0.6791109 -0.64805996 -1.0061624 -1.2885795
0000b0 ba f9 85 3e 71 23 72 bf 84 ef 82 bf 2d 42 a0 bf
       0.2616709 -0.9458533 -1.0229344 -1.2520195
0000c0 ad 1e a6 bf 4e 54 8c bf 07 f4 bd bf d6 55 63 3d
       -1.2978112 -1.0963228 -1.4840096 0.05550178
0000d0 83 26 d3 3e 16 00 0f bf ad da 56 bf fe ec a4 bf
       0.4124032 -0.55859506 -0.8392742 -1.2884824
0000e0 12 70 07 bd f6 53 58 bf 69 a7 b9 bf ab 90 b7 3e
       -0.033065863 -0.84503114 -1.4504215 0.3585256
0000f0 c2 46 6d bf 5a db d2 ba 26 8f ad be a9 d8 90 be
       -0.9268609 -0.00160871 -0.33898276 -0.282903
000100 cf d3 3e 3f 64 40 c3 bf 0d 2f 59 bf cf 0e ce bd
       0.74541944 -1.5254025 -0.8483742 -0.10061418
000110 dc 4c 97 3e 06 7b 4b be 0f 11 d7 be 6e bb da bf
       0.29550827 -0.19871148 -0.42005202 -1.7088449
000120 4e c3 76 bc 22 9c 37 3c c2 63 f6 3f 63 dc 34 3c
       -0.015061213 0.011206659 1.9249194 0.011038872
000130 04 72 cb 3e 95 38 b8 bd f7 a0 43 be 34 f2 d5 3e
       0.39735425 -0.08995167 -0.19104372 0.4178635
000140 61 20 17 3e cc f8 b7 bf 5b a4 93 bf 08 59 54 be
       0.14758445 -1.4372802 -1.1534532 -0.20737088
000150 16 19 5c 3f 66 ab dd be c4 95 fb 3e cc 3b 5b be
       0.8597578 -0.4329483 0.491377 -0.2140953
000160 7d 23 7d 3d 44 70 c9 3d 5b 65 9f be c6 db 80 bf
       0.061801422 0.09835866 -0.31132016 -1.006707
000170 cf 35 36 bf 9e 91 f5 3e b6 1b 07 bf 6b 74 32 be
       -0.71175855 0.4796266 -0.5277666 -0.17427222
000180 2e 13 3e be ed 46 7f 3f c2 a1 02 bf 1c e7 bc 3e
       -0.18562004 0.997176 -0.5102807 0.36895072
000190 c2 be b0 bf 5d 0b c0 3e 69 0a 94 bf c4 40 a7 be
       -1.3808215 0.3750867 -1.1565677 -0.326666
0001a0 f2 11 9c bf 88 0d 71 be 1b e3 5a 3e ca 5c 25 bf
       -1.2192976 -0.23540318 0.21375696 -0.6459471
0001b0 45 45 bf bf 23 30 5a bf 05 64 bb bf ef 06 49 3f
       -1.4943014 -0.852297 -1.4639899 0.78526205
0001c0 a3 cb 02 c0 79 2c fa be 00 5a 47 bf ac fb 9d be
       -2.043679 -0.48862055 -0.77871704 -0.30856073
0001d0 02 94 d8 be d4 54 ea 3e aa 53 08 bf d2 e1 20 bf
       -0.4230042 0.45767844 -0.5325266 -0.62844574
0001e0 ce 94 30 bf eb 03 f6 be 3e 6f 18 be 21 0e b4 be
       -0.6897706 -0.48049864 -0.14886186 -0.3516703
0001f0 b0 72 23 bf 61 61 6d be c8 40 8d bf c8 93 05 bf
       -0.63846874 -0.23181678 -1.1035395 -0.5217862
