models/ecg_1dcnn_afib_balanced.pth (torch, 344328 bytes, 21 tensors)

features.0.weight f4 [32, 12, 7]
000000 f5 21 be bc eb 7e be bd 8d 22 ef bd 27 a3 82 3c
       -0.023209551 -0.093015514 -0.11676512 0.015946938
000010 fe b3 0b bb db 27 49 bd a1 f8 9e 3c da d8 7c bd
       -0.0021317 -0.049110275 0.019405665 -0.061730243
000020 c5 f1 47 bd 9d d8 d4 bd cb 55 06 be 5f 06 ad bc
       -0.048814554 -0.10392878 -0.13118665 -0.021121202
000030 60 13 00 be 3e c8 0a be d8 ab c5 bd 13 78 a3 bd
       -0.12507391 -0.13552949 -0.09651917 -0.07981887
000040 8c d0 25 3d a2 d0 21 3c 94 c4 7c 3d 78 c4 a7 bb
       0.04048209 0.009876402 0.06171091 -0.0051198564
000050 ad 3f bb bc 85 0f 36 3d 95 d8 8a 3d 54 54 7f 3d
       -0.022857511 0.044448394 0.06779591 0.06233628
000060 d2 db 31 3d 09 60 97 3d 0a 4a c1 3d 47 a2 6f 3d
       0.043422528 0.07391364 0.0943795 0.05850437
000070 72 cd 03 be 5b 9a 04 be d0 ef b7 3b f5 13 03 be
       -0.1287134 -0.12949507 0.0056133047 -0.12800582
000080 45 e4 c0 3d 95 fb 41 bd 82 00 9c 3c 2c 74 b0 3d
       0.09418539 -0.047359068 0.01904321 0.08615908
000090 e8 13 ab 3d 08 6e bf bb e7 22 00 3d 3e e1 33 3d
       0.08353406 -0.005841974 0.031283285 0.04391598
0000a0 ba 5a 5c bd 0f 9a 2a bd 8a a0 6f 3c 26 0a 94 3c
       -0.05379746 -0.041650828 0.014625678 0.018071245
0000b0 82 0b bb 3b 88 3d 9c bb 72 81 b0 3b 95 f7 db 3d
       0.005708159 -0.0047680773 0.005386525 0.10740582
0000c0 d5 74 ce bc 28 58 20 be 6a 01 8c 3c 2a 42 4e 3b
       -0.025202194 -0.15658629 0.017090518 0.0031472542
0000d0 58 c4 11 be 7c 9a aa 3d 2c 4c a9 bd 51 38 92 bc
       -0.14235055 0.08330247 -0.08266482 -0.01784912
0000e0 74 25 35 3c 54 bb 2f 3d 16 ee 46 bd e9 50 4b bd
       0.011056293 0.04290326 -0.0485669 -0.04963771
0000f0 ae 5b 74 3d ad 51 1c bd 14 0a 98 3d 04 e7 c2 bb
       0.059657745 -0.03816383 0.07423797 -0.0059479494
000100 4a f3 d9 bc 22 95 83 3d 5c 02 8c bd 9f 5d 83 bd
       -0.026605267 0.06424929 -0.068363875 -0.06414341
000110 2b 63 cd 3a db e7 98 3d 4d 28 20 bd 85 ce cf bd
       0.0015669813 0.07466098 -0.039100934 -0.10146812
000120 17 d0 83 bd ed 43 24 bc 12 40 b3 3d 80 21 09 bd
       -0.06436174 -0.01002596 0.08752455 -0.033479214
000130 79 c8 a9 bd ef 0d 74 3b 60 c4 bf 3d 0a 76 9f bd
       -0.0829019 0.003723975 0.093636274 -0.07786186
000140 48 c3 a1 bc ef 4d 8c bd 2e 7a a0 bd 49 18 a5 3d
       -0.019746438 -0.06850802 -0.07835804 0.08061273
000150 c1 fb 82 3c 5d d5 25 bd 0d a8 98 bd 91 dc eb bc
       0.015989186 -0.040486682 -0.07453928 -0.028791698
000160 89 e0 b8 bd ff 12 59 bd eb cc ea bb 25 0c 92 bd
       -0.09027202 -0.05299663 -0.0071655414 -0.07131223
000170 59 b8 92 bc d3 12 9c bc b3 8d 2e 3d 43 33 2b be
       -0.01791017 -0.019051945 0.042615604 -0.16718774
000180 d9 02 43 bd ff b2 92 bc bc 79 21 bc f0 00 12 3c
       -0.047610138 -0.017907618 -0.009855684 0.008911356
000190 99 1e b2 3d d5 0d a4 bd 75 b5 96 bd a7 21 01 3e
       0.08697242 -0.08010451 -0.07358829 0.12610494
0001a0 5c c1 cd 3c ea cf 08 3d c3 36 a2 bd 81 7b d9 bd
       0.025116615 0.033401407 -0.07920601 -0.106192596
0001b0 a2 ba 6d bc 6b 8f 00 be 8d fe 44 be 26 66 15 3c
       -0.014509829 -0.1255471 -0.19237728 0.009118592
0001c0 e4 93 9a bd 3f 2e bf bd 3f 83 05 bd 02 0b 78 39
       -0.07547739 -0.093349926 -0.03259587 0.00023655224
0001d0 66 3a 52 bd 3a a1 ea bc 6d b7 53 3d ca 64 b8 3c
       -0.051325224 -0.028641332 0.0516886 0.022508997
0001e0 56 f4 84 bd 81 e4 af bd ef 55 50 bc 91 0e 10 bc
       -0.06491916 -0.085885055 -0.012715801 -0.008792535
0001f0 39 c6 32 bd c0 7d de bc 11 15 19 3e a9 ff 92 bd
       -0.04364607 -0.027159572 0.14949442 -0.071776696
000200 e0 a7 ad bd 13 00 ba 3d 8a c3 d0 3d 7e e8 3a bb
       -0.08479285 0.090820454 0.10193546 -0.0028519924
000210 03 f2 0b be 94 77 3a bc 1c f1 e4 bd 6f 8e 60 3c
       -0.13666539 -0.011381049 -0.111788005 0.013705834
000220 fb 60 10 3e ae d6 b5 bc d1 72 3b 3d d5 11 19 3c
       0.14099495 -0.022197094 0.045763794 0.00934263
000230 a2 66 fb bb 9d e3 03 3e 0c 98 c1 bc 71 9a 94 bd
       -0.007672147 0.12879796 -0.023632072 -0.0725602
000240 42 32 53 3d b9 a1 82 bd c6 69 e4 3c 5c ee 27 3c
       0.0515616 -0.063785024 0.027882468 0.0102497
000250 4d 9b 87 3d 15 36 9d bd 0a c6 c0 bd 53 29 f5 bc
       0.06621418 -0.07676331 -0.09412773 -0.029926931
000260 ab d0 d6 bb 93 f7 ea 3d e2 81 c9 bd 6c 03 20 bd
       -0.006555637 0.11473002 -0.09839226 -0.039065763
000270 4f 0b 56 3d 31 5e be bd be a4 91 3c b8 9b f5 3d
       0.05225688 -0.09295309 0.01777875 0.119925916
000280 54 ba b6 bd cc e4 88 3c c1 01 f7 bc e3 82 ed bd
       -0.08922258 0.016710661 -0.030152204 -0.1159723
000290 72 a2 57 bd e3 77 8f 3c 86 cf ab bc 11 7a 4b 3c
       -0.052645154 0.017513221 -0.020972978 0.01241924
0002a0 7c 12 de bd 5d 82 8d bd 54 ab b5 3c 5b b7 c0 bd
       -0.10843369 -0.069096304 0.022176422 -0.09409972
0002b0 c0 75 14 38 6b 22 33 bc 4c cf e3 bc 41 d6 ab bc
       3.5395613e-05 -0.010933499 -0.027808808 -0.020976188
0002c0 46 c3 34 3c 86 f6 ac bd a9 23 07 be 42 9c 08 be
       0.011032885 -0.08445458 -0.13197197 -0.13340858
0002d0 c1 46 27 3d 41 68 b3 bd 2b f1 93 3d b0 74 51 3d
       0.04083896 -0.08760119 0.072237335 0.051136672
0002e0 4a 64 ea 3d c2 fb 8d bd 3d 76 93 bd 7e 71 e6 3d
       0.1144491 -0.069327846 -0.072002865 0.11252116
0002f0 a7 48 03 3d 3b 42 81 bd 37 19 d6 3d d3 4d 01 be
       0.03205171 -0.063114606 0.10454028 -0.12627344
000300 f2 98 75 bd b2 7a 49 bd cc af 3f 3d 25 08 a9 bd
       -0.059960313 -0.049189277 0.046798512 -0.082535066
000310 57 8d c7 bd a8 1e 9a 3d 6e b6 e1 ba 40 1b 89 3d
       -0.09743755 0.075253785 -0.0017220506 0.06694651
000320 6a c8 0f be 10 5e 86 bd 4c e6 19 3d c9 a4 58 3d
       -0.14041296 -0.0656091 0.037573144 0.052891526
000330 ea 26 63 3d 0d e9 d9 bc ea 31 b7 3d 89 a5 3f 3b
       0.055457033 -0.026600385 0.08945067 0.0029242954
000340 ee dc 0e bd 42 43 9a 3d 71 75 7f 3d c6 72 59 bd
       -0.034878664 0.0753236 0.06236786 -0.053087972
000350 d4 05 2d bd db 61 01 3d 4a f3 85 3d 14 7b b4 bb
       -0.042241886 0.031587463 0.06540544 -0.005507836
000360 c8 1f 9e 3d f8 14 3a 3d bd e7 43 bd 78 70 0a be
       0.077209055 0.045430154 -0.047828425 -0.13519466
000370 d0 c6 0e 3e 93 6b b9 3c af 82 0d be a3 3f 96 3d
       0.13943028 0.022634303 -0.13819383 0.073363565
000380 a1 c3 81 bd f8 06 4e bd be 90 11 be 40 8c 83 bd
       -0.063361414 -0.050299615 -0.14215371 -0.06423235
000390 57 2b f6 bd b5 ad df bd c4 aa 9c bd 9c 80 81 bd
       -0.12019985 -0.10921804 -0.076497585 -0.063233584
0003a0 6b 06 93 bd ec de 9c bd c2 73 d8 3c 32 0b 9c 3b
       -0.071789585 -0.076597065 0.026422385 0.004762077
0003b0 d4 09 ab 3d b4 3e e0 3c f8 bf a7 bd 87 ea bf 3d
       0.08351484 0.02737365 -0.08190912 0.093709044
0003c0 d8 17 1b 3c a8 33 b2 3d 91 f8 c4 3d 53 93 bd 3d
       0.009466134 0.08701259 0.09617723 0.092566155
0003d0 42 71 3d bd 4e 17 1a 3d c5 61 e3 bd 00 50 0d 3d
       -0.04625059 0.03761988 -0.111026324 0.034500122
0003e0 2f 79 05 3e 49 c2 b7 bc 3c 94 e9 3c c7 12 3c bc
       0.13034509 -0.02243151 0.028513066 -0.011479086
0003f0 19 0d 94 bd b8 3c 24 3c 55 cd df 3c ad d9 ce bc
       -0.07229061 0.010024242 0.02731959 -0.02525028

features.0.bias f4 [32]
000000 cb 37 be 3d ed 30 00 be 72 3f 3b 3d 24 3f b3 3d
       0.092879854 -0.12518664 0.045714803 0.087522775
000010 cd 55 96 bb 9b f2 c8 3c 38 21 43 bd 31 bf 0a 3e
       -0.004587865 0.024529746 -0.0476391 0.13549496
000020 c9 ef f1 3d 0f 8d e2 3d e7 22 d6 3d c0 3c d6 bc
       0.118133135 0.11062061 0.10455876 -0.026152015
000030 2a ae c8 3d 5f 18 0a 3c ba f0 10 be 4f 4b 29 3d
       0.09798844 0.008428662 -0.1415433 0.041331585
000040 06 c0 1f 3d d9 af 06 be 19 4a b1 bc 80 43 df bb
       0.039001487 -0.13153018 -0.021641778 -0.0068134665
000050 a2 68 18 bd b8 8b 44 3e d9 43 1a 3d 2e fb 9c 3c
       -0.03720916 0.19193923 0.03766236 0.01916274
000060 d8 07 df bd 7b 6b 32 3e 5c 90 70 3d f0 d8 48 bd
       -0.10890168 0.17423813 0.05873142 -0.049035013
000070 c4 74 28 3d d4 a4 94 bc e6 66 3b 3d 14 09 e7 3d
       0.04112698 -0.018145002 0.04575243 0.112810284

features.1.weight f4 [32]
000000 95 5f 82 3f 79 8b 87 3f 94 69 88 3f 97 f1 7e 3f
       1.0185419 1.0589439 1.065722 0.99587387
000010 8b 44 74 3f 33 0e 74 3f 48 fa 83 3f 20 73 71 3f
       0.9541709 0.95334166 1.0310755 0.9431629
000020 09 c4 63 3f 44 2c 85 3f 0e b3 71 3f 82 61 81 3f
       0.88971 1.0404134 0.9441384 1.0107882
000030 cf b9 73 3f 9d 69 78 3f c3 dd 7d 3f 92 4c 7d 3f
       0.95205396 0.97036153 0.99166507 0.9894496
000040 3c a8 74 3f 76 79 7b 3f a8 ba 82 3f 75 69 7d 3f
       0.95569205 0.9823221 1.0213213 0.9898904
000050 06 5b 87 3f 2c 6c 86 3f 77 8a 86 3f cf 43 80 3f
       1.0574653 1.0501761 1.0511006 1.0020694
000060 ad 71 7c 3f ed 2d 74 3f b2 f4 7e 3f 2c 98 76 3f
       0.98610955 0.9538258 0.99592125 0.96325946
000070 29 db 7a 3f f7 ac 79 3f c5 a8 91 3f 12 4f 84 3f
       0.9799066 0.9752955 1.1379629 1.033663

features.1.bias f4 [32]
000000 90 c6 10 3d 27 c9 01 3d da 6c ad 3c 96 7b 1c bd
       0.035345614 0.031685974 0.021170069 -0.0382038
000010 ed 2d 80 bc 18 ad 35 bc 4c 4e 57 bc 7f e7 f6 bd
       -0.0156469 -0.011088632 -0.013141226 -0.12055873
000020 64 a0 b4 bd 4d 02 92 3d dd d6 6a bc e5 60 d7 3c
       -0.088196546 0.07129345 -0.014333454 0.02629132
000030 88 b9 30 bc 75 c9 97 bd 3a 90 1f 3c e8 f5 46 3d
       -0.010786422 -0.07411472 0.009738976 0.04857436
000040 b4 02 6a bc 9f 55 19 3b 66 4f b7 3c dd 6d 3a 3c
       -0.014282871 0.0023396981 0.022376727 0.0113787325
000050 da ce 39 3d cc 44 f9 3c a7 2c c1 3a e5 f3 9a 3c
       0.045363285 0.030428313 0.0014738039 0.018915126
000060 b5 3f 04 bb 26 e6 8e 3b 8a 55 04 bc ca 7b 02 bd
       -0.0020179574 0.004360932 -0.008077035 -0.031856336
000070 32 2c 30 bc 45 4b 91 bc 05 fb ae 3d 09 f4 56 3d
       -0.0107527245 -0.017736087 0.08543972 0.052478824

features.1.running_mean f4 [32]
000000 b9 b2 bb 3d c9 02 00 be 4f 17 39 3d af 0c b3 3d
       0.09164948 -0.12501062 0.045188244 0.087426536
000010 71 52 97 bb 02 d3 c9 3c 09 bc 44 bd c3 81 0b 3e
       -0.004617982 0.02463675 -0.048030887 0.13623719
000020 d4 9c f1 3d 5a 7a e2 3d 38 bb d5 3d 02 93 d8 bc
       0.11797491 0.11058493 0.104361 -0.026437286
000030 78 21 c9 3d 64 22 0a 3c 7e b8 11 be 55 6f 29 3d
       0.09820837 0.008431051 -0.14230534 0.04136594
000040 6d 63 1f 3d 0d aa 06 be 60 7a b5 bc 34 07 e7 bb
       0.03891318 -0.13150807 -0.02215308 -0.007050419
000050 46 dd 16 bd 24 a0 44 3e e3 4f 1b 3d 68 f0 a6 3c
       -0.036832117 0.19201714 0.037917983 0.020378307
000060 f4 71 de bd fa c7 32 3e d8 2f 71 3d f8 c0 49 bd
       -0.108615786 0.17459098 0.058883518 -0.049256295
000070 db ab 2b 3d 08 00 93 bc b4 df 39 3d b1 6e e6 3d
       0.04191194 -0.01794435 0.045379356 0.112515815

features.1.running_var f4 [32]
000000 a7 fb cd 3e c4 65 df 3e dd 9f f8 3e 79 d6 03 3f
       0.40231058 0.4363233 0.48559466 0.51499134
000010 ba 87 c8 3e 80 be d7 3e 6d 2b ee 3e d8 17 e7 3e
       0.3916605 0.42137527 0.46517506 0.4513538
000020 21 c6 e4 3e b2 8a 06 3f 64 d0 fc 3e 33 6b da 3e
       0.4468241 0.5255538 0.4937774 0.42659912
000030 6e 47 e0 3e bd 88 db 3e 4a 92 ea 3e d8 fb d6 3e
       0.43804497 0.4287776 0.45814735 0.41989017
000040 cd c8 cd 3e c3 3f e8 3e ca c3 e5 3e 49 e1 cc 3e
       0.4019226 0.45361146 0.44875938 0.4001563
000050 28 9a 05 3f a5 d7 e8 3e df e9 e1 3e d6 ed f6 3e
       0.5218835 0.45477024 0.44123742 0.4822833
000060 5a 35 d1 3e fc 85 d5 3e d4 8e f8 3e 5f a3 bc 3e
       0.40861017 0.41703784 0.4854647 0.36843392
000070 b6 7b dd 3e ea 51 f0 3e 82 36 03 3f 4c 06 0a 3f
       0.43258446 0.46937495 0.5125505 0.5391586

features.4.weight f4 [64, 32, 7]
000000 b0 a8 3e 3d c9 8c 11 3d 1a 0d fa 3c 8d f8 b6 3d
       0.04654759 0.035534654 0.030523825 0.08934126
000010 74 f4 0c 3d 0c 09 34 3c 13 cb c3 3c d4 5a 70 3c
       0.034412816 0.010988485 0.023900544 0.014670093
000020 d1 27 c6 3b 88 e9 00 3a 08 ea 45 3d 7d 8c 9e bb
       0.006047227 0.00049176114 0.048318893 -0.004838525
000030 ef c1 51 3d 47 c4 f8 bc 26 57 65 bb 68 de d8 3d
       0.05121034 -0.03036703 -0.0034994571 0.105892956
000040 e1 a8 55 3d f3 49 6b 3d a7 f8 8f 3d 32 e1 3b 3d
       0.05216301 0.05744357 0.070298485 0.04586906
000050 11 12 50 3b 45 7a c2 3d 56 e7 a8 3d 15 82 18 3d
       0.003174905 0.09495977 0.08247249 0.03723343
000060 74 35 a2 3c f2 47 73 3c 83 8c 81 3d e7 78 f7 3c
       0.019800879 0.014848696 0.063256286 0.030209018
000070 09 64 6b bd 04 03 cb bc 7e eb 36 3d 50 54 0b 3d
       -0.057468448 -0.024781711 0.044658177 0.034015954
000080 cf 0f 48 3d d5 c4 08 bc de 49 6d bd 23 f3 87 bd
       0.0488432 -0.00834771 -0.057931773 -0.066381715
000090 57 30 16 3d 5a df 9a 3d 61 bf 96 bb 0a 5b eb 3c
       0.036667194 0.07562132 -0.004600451 0.028729934
0000a0 4c 18 6b bc 50 92 7a bd b2 42 90 3d 8f 57 97 3d
       -0.014349055 -0.06117469 0.07043971 0.07389747
0000b0 a8 38 94 bc 6d be 20 3d 17 25 b3 bc dd 2e 01 bd
       -0.018093422 0.039244104 -0.021868272 -0.031538833
0000c0 50 70 f1 bc 6b 52 92 bb b7 c3 25 bd 91 18 94 bc
       -0.0294725 -0.0044653914 -0.04046985 -0.01807812
0000d0 56 b1 48 3c c0 eb 2f bd ff 7a 81 3c a2 f8 66 bd
       0.012249311 -0.042949438 0.01580572 -0.05638946
0000e0 2e 71 f1 bb 7a c7 23 3d 30 ff 50 3d 6a 9c b9 3d
       -0.0073682284 0.039985158 0.051024616 0.09063037
0000f0 d8 2e c7 3d a7 0f 2b 3d a5 0a 17 3d 7a 12 03 3b
       0.097257316 0.041762974 0.036875386 0.0020000027
000100 f3 98 82 3d f6 01 47 3d 44 13 39 3d 50 69 0c 3d
       0.06376829 0.048585854 0.04518439 0.03428012
000110 27 87 cd bc 93 a4 99 bd b7 0c 8f bc eb b6 68 bd
       -0.02508886 -0.07502093 -0.017462118 -0.05681507
000120 7d ff 3a bd 1e 9c 07 bc 75 47 b5 3c 97 90 88 bb
       -0.04565381 -0.008276967 0.0221288 -0.004167627
000130 5c 09 89 bd 7b 9a 0d 3d 93 b6 8b 3d ef 06 6d bd
       -0.06691238 0.034571152 0.06821933 -0.05786794
000140 57 bd 9e bc ae cf 21 bd 06 12 98 bd 65 19 4c bd
       -0.019377394 -0.0395047 -0.07425313 -0.049828906
000150 35 e1 00 3d 5d e7 eb 3c 49 c1 34 bd c1 cc 35 3c
       0.031464774 0.028796846 -0.044129644 0.01109618
000160 66 55 86 bc 1e b7 34 3d de bb e1 bb b2 d7 99 bd
       -0.016398143 0.044119947 -0.0068888506 -0.07511844
000170 49 ff 9e 3c 57 ba d2 bc 75 66 b0 bd 6b 36 05 bd
       0.019408839 -0.02572362 -0.08613292 -0.0325226
000180 ac 02 e8 bd 92 63 b3 bd 4e 12 58 3b 87 48 33 bd
       -0.113286346 -0.08759226 0.0032969895 -0.04377034
000190 8e 13 c5 3c 46 8f 45 3b 09 4d 1d 3b 26 8d cc bc
       0.024057176 0.0030145212 0.0024002215 -0.024969649
0001a0 f2 4e 0d 3c 5a b9 6a 3c 57 7a e7 bb 16 64 97 bd
       0.008624779 0.014326418 -0.0070641446 -0.07392137
0001b0 0f 45 34 bd a8 fd 54 3d a4 9e e5 bc ab dd 24 bd
       -0.044011172 0.051999718 -0.028029747 -0.04025046
0001c0 2f ef 00 bb 2b 8c 3e 3d fe db 01 bd 25 fc 93 bd
       -0.0019673815 0.046520393 -0.03170394 -0.07225827
0001d0 9a a1 02 3d c0 62 51 3d 50 b2 b1 bc a2 9a 13 bd
       0.031892397 0.051119566 -0.021691471 -0.03603614
0001e0 3a ff cf 3c 66 cc e3 3c b1 0f 75 bd 03 50 35 bc
       0.025390256 0.027807426 -0.059829418 -0.01106644
0001f0 fd 68 a5 bd 8f 9b a6 bd ca ca ad 3d fc 15 85 3d
       -0.080766656 -0.08135139 0.084859446 0.06498334
000200 39 1e 93 3d ad 55 4b 3b 3d 6b b8 3a 27 37 ee bb
       0.07183499 0.0031026409 0.0014070045 -0.0072697583
000210 94 58 02 3e 5f 3a 12 bd 99 46 c1 3d 62 5e ae 3d
       0.12729102 -0.0357002 0.094372936 0.08514096
000220 83 18 41 3c 05 5b 84 3c a5 a8 85 3a ee 35 f8 bb
       0.011785629 0.016156683 0.0010197355 -0.0075747883
000230 0a a7 7d bd 6d fc 06 bd 39 97 29 bb 01 a5 6e 3b
       -0.06192688 -0.032955576 -0.002587749 0.0036414268
000240 b2 eb ab bd 80 d0 76 bd 24 12 a0 bd 02 ab 23 3d
       -0.08394565 -0.060257435 -0.0781596 0.039958008
000250 fd 60 86 3d f9 91 20 3d 7d c0 d2 3c fc 79 0a 3d
       0.06561468 0.03920171 0.025726551 0.03380774
000260 cf 31 98 3c 32 56 8b 3c 2e 07 57 3d 93 eb 2a 3d
       0.018578438 0.017008875 0.05249708 0.041728567
000270 bf 79 41 bd f5 e5 43 bb 78 99 c9 3a 66 d5 81 3d
       -0.047235247 -0.0029891704 0.001538082 0.06339531
000280 3a 49 ca b9 f9 57 b4 bd f4 38 ca bc 69 e9 89 bd
       -0.00038583 -0.08805842 -0.02468536 -0.067339726
000290 4c 0b a2 3b d4 bf eb bd fb 37 40 bd 86 2a a6 bd
       0.0049451943 -0.11511198 -0.046928387 -0.081135795
0002a0 c7 fd e0 3d d8 02 0b bd 23 4a a3 3d 27 80 5a 3d
       0.10985904 -0.03393826 0.07973125 0.05334487
0002b0 0c 40 8d 3c 02 7e 0c bc e8 ac ca 3d 90 8d 2e bd
       0.017242454 -0.0085749645 0.098962605 -0.042615473
0002c0 c8 dc 85 bd 25 1a a1 3d 07 cf 4c 3d 07 3e 11 bd
       -0.06536251 0.07866315 0.050002124 -0.035459545
0002d0 0a a9 29 3d 97 90 bb 3c 89 8f 32 bd 45 83 c0 3c
       0.041420974 0.022896094 -0.043593917 0.023500094
0002e0 17 e1 c3 bb d9 94 fb 3c 58 83 81 3c 24 8d 6e 3d
       -0.0059777605 0.030710625 0.0158097 0.05824007
0002f0 16 35 c2 bd da 04 0c bc f6 ac b0 3c e9 8c 46 bc
       -0.094827816 -0.008546079 0.02156685 -0.012118557
000300 84 6a 23 3c 57 e4 87 3c 8e 3c 9b 3d 30 d5 0c bd
       0.009974126 0.016588373 0.07579909 -0.034383
000310 b6 57 83 3d e9 87 92 3d 0b da 64 bd f7 18 d8 bd
       0.06413214 0.07154829 -0.055872004 -0.10551637
000320 a3 b1 4d 3c d6 21 26 bd 3b c1 c6 bc 04 05 77 bd
       0.012554559 -0.040559612 -0.024262061 -0.060307518
000330 37 41 5a 3a a0 80 fd 3c 92 44 9a 3a 31 92 6e 3a
       0.0008325758 0.030945122 0.0011769703 0.0009100764
000340 43 b8 a6 3c 6c 1c 8a 3b 7e 44 88 3c 42 47 f0 3c
       0.020351535 0.004214814 0.016634222 0.029330853
000350 d5 74 89 3d ac 5b 6e 3d f4 0d 82 3c fa a9 cc 3d
       0.06711737 0.058192894 0.015875794 0.09993358
000360 64 2b 10 bc 15 f8 8c bd 48 3c ae bd 6c a8 90 3c
       -0.008799408 -0.068832554 -0.085075915 0.017658435
000370 7d a5 66 3c bb 53 01 bd 6e be f5 3c 58 d1 d6 bd
       0.014077541 -0.031573992 0.02999803 -0.10489148
000380 4d ec a4 3d 62 e6 5a 3d 65 be 99 3d 77 b9 7f 3d
       0.08052883 0.053442366 0.07507018 0.062432732
000390 7c 4d ac bc f9 7d db 3d 0a 75 0b bd b0 76 e5 bb
       -0.021033041 0.10717387 -0.034047164 -0.007002674
0003a0 ed a0 60 bd 0c 6c 02 3d 49 8b f2 3b 9f 8d 4a 3d
       -0.05484097 0.031841323 0.007401858 0.049451467
0003b0 c0 ce ae 38 42 5a e9 bb 65 98 16 3e 21 73 86 bc
       8.335477e-05 -0.0071213553 0.14706571 -0.01641232
0003c0 44 38 df 3d ab 95 c9 3c c2 fe 34 3d 8a 2a 3c 3b
       0.10899404 0.0246075 0.04418827 0.0028711879
0003d0 75 b5 a1 3d 08 69 f0 3d a7 77 21 3b 6b bc bb 3d
       0.07895938 0.11738783 0.0024637969 0.09166797
0003e0 f3 22 55 3d 87 a1 6e 3d 99 17 34 bd f6 31 3f bd
       0.052035283 0.058259513 -0.043967817 -0.046678506
0003f0 cd b6 3c 3d cc ff fd 3c e1 d4 33 3c 13 78 9a 3d
       0.04607277 0.031005763 0.010976047 0.075424336

features.4.bias f4 [64]
000000 fa f0 35 bd 43 aa a6 bd 5e 20 65 bd e0 f9 2c 3d
       -0.044419266 -0.081379436 -0.05593907 0.042230487
000010 09 b4 11 3d bd 4a 06 bd 70 ad d9 bd 61 e6 06 bd
       0.035572086 -0.03278612 -0.10628784 -0.03293455
000020 f7 7a 3d 3d b7 4b 69 bd 55 e7 a2 bc e8 8c 5a bd
       0.046259847 -0.056956973 -0.019885698 -0.053357035
000030 7e ff 76 bb a0 68 2e 3d e6 6b 04 3d 2a 5a e0 bc
       -0.0037688906 0.042580247 0.032329462 -0.027386744
000040 19 74 73 3d 93 40 96 3d ed 7a 22 bd df c8 08 3d
       0.05943689 0.07336535 -0.039668012 0.03339469
000050 84 f0 89 bd e5 6a 9e 3d d0 10 08 bd 20 ca 3d bd
       -0.06735328 0.07735232 -0.03321916 -0.04633534
000060 e1 1b 1a 3e d2 60 bf 3d d7 c1 18 3d 39 d9 df bc
       0.15049697 0.09344639 0.037294235 -0.02732526
000070 17 94 2e be c4 24 54 bd 57 87 32 3d 4e 77 cd 3b
       -0.1704868 -0.051792875 0.0435861 0.0062703257
000080 5c 86 27 3b ea 50 5b 3c 42 6e 5e bd 2e 6e 89 3d
       0.0025562262 0.013385991 -0.05430437 0.06710468
000090 66 47 aa 3d 72 9a 6f 3c 1a a9 c3 bc 5a b9 19 bc
       0.083143994 0.014624225 -0.023884345 -0.00938257
0000a0 c7 53 3c 3d 99 6c dd bc e4 c6 e9 3c 17 a5 8a 3c
       0.045978334 -0.027029322 0.028537221 0.016924424
0000b0 57 72 07 3e ca 7b c4 bc 31 49 01 3d 67 c9 99 3d
       0.13227211 -0.023984808 0.03156394 0.075091176
0000c0 66 99 0f 3d 84 b8 61 3d 2e cd a4 3c ee e0 29 3d
       0.0350584 0.05510761 0.020117369 0.041474275
0000d0 91 34 a9 bd c7 6d 75 3d 14 b8 a9 3c 9a 8f 8d 3d
       -0.08261979 0.059919145 0.020717658 0.069121554
0000e0 5b fd 1d bd 46 76 94 bd e8 1a 05 bc d0 64 4f bd
       -0.038571697 -0.07249121 -0.008124091 -0.05063325
0000f0 88 3b 03 bd 76 c1 9d bc 86 8d 9e bd 14 9f 26 bd
       -0.032039195 -0.019257288 -0.07741837 -0.040679052

features.5.weight f4 [64]
000000 ab 6b 71 3f 01 11 67 3f dd 59 72 3f 6b 26 8c 3f
       0.94304913 0.9026032 0.9466837 1.0949224
000010 c8 f9 81 3f 02 2e 80 3f 51 ac 70 3f b0 dd 7a 3f
       1.0154352 1.001404 0.94012934 0.9799452
000020 35 c9 7d 3f 49 92 88 3f 27 a4 88 3f f4 bf 84 3f
       0.9913514 1.0669643 1.0675095 1.037108
000030 5f 35 81 3f de d6 86 3f 49 60 79 3f e1 70 6f 3f
       1.0094413 1.0534322 0.97412544 0.93531615
000040 b2 76 7b 3f 95 ac 77 3f 1e f8 76 3f 12 78 80 3f
       0.9822799 0.96747714 0.96472347 1.0036643
000050 9a cc 6c 3f 68 6d 8e 3f 39 d4 89 3f 5f ab 87 3f
       0.924997 1.1127138 1.076789 1.0599173
000060 22 24 6d 3f ea de 85 3f cf 26 7c 3f fb cd 63 3f
       0.9263326 1.0458653 0.9849672 0.88986176
000070 ec 88 8e 3f cf b9 6f 3f fd 5f 89 3f cf a7 63 3f
       1.1135535 0.93642896 1.0732418 0.8892793
000080 74 c1 76 3f 7e 74 73 3f 84 60 89 3f c7 c6 5f 3f
       0.96388936 0.9509963 1.0732579 0.87412685
000090 6c d0 80 3f c3 d5 89 3f 14 77 8a 3f 76 6a 6e 3f
       1.0063605 1.076836 1.081759 0.93131196
0000a0 c6 64 72 3f 6c 22 74 3f e0 08 75 3f 7a 05 72 3f
       0.9468502 0.95365024 0.9571667 0.94539607
0000b0 bd 59 7b 3f 4e 76 86 3f 43 a3 84 3f 6e 18 78 3f
       0.98183805 1.0504854 1.0362324 0.96912277
0000c0 4b 21 75 3f b7 c3 83 3f 0e 1d 87 3f c1 fa 75 3f
       0.95753926 1.0294102 1.0555742 0.96085745
0000d0 cf 6e 80 3f 5d cf 76 3f ea 1d 83 3f 4a 82 75 3f
       1.0033816 0.9641016 1.0243504 0.9590193
0000e0 18 d6 84 3f ba f9 5e 3f f1 0c 80 3f fa 6a 84 3f
       1.0377836 0.870998 1.0003949 1.0345147
0000f0 91 f6 6c 3f ed ad 87 3f 0b 42 7d 3f 67 c2 78 3f
       0.9256373 1.0599953 0.989289 0.97171634

features.5.bias f4 [64]
000000 84 88 f8 bc 3d 7c 53 bd 8b c0 06 bd a4 74 6d 3d
       -0.030338533 -0.051632155 -0.032898467 0.057972565
000010 e1 de 91 3d 0e 48 42 3d c5 cf 0b bd 9e 9d c9 bb
       0.07122589 0.047431998 -0.03413369 -0.0061528226
000020 1e 21 fd bb 36 38 03 bc b2 ba af 3d 57 c8 7b 3c
       -0.007724895 -0.008009007 0.08580531 0.015367589
000030 40 b7 22 3d ac 4c 35 3d df b2 02 bd 06 6d ef bc
       0.039725542 0.044262573 -0.031908866 -0.029226791
000040 cb e1 59 3d 69 8c 34 bd c3 19 17 3c 14 59 2d 3c
       0.05319385 -0.044079218 0.009222451 0.01058032
000050 7f d9 27 bd c0 1d 01 3d 10 8c c8 3d f0 d7 81 3d
       -0.040978905 0.031522512 0.0979234 0.06340015
000060 cd 69 b5 3c 2d 8a ad bc 92 95 b4 3c a4 ca 04 be
       0.022145176 -0.021184051 0.022043977 -0.12967926
000070 a8 b8 76 3d 82 49 32 bd 2f 94 9c 3d 9c 12 5b bd
       0.060234696 -0.043527134 0.07645451 -0.053484544
000080 0d a5 3e bd 67 72 4c 3d c7 57 db 3d 27 6f d7 bd
       -0.046544123 0.04991379 0.107101016 -0.105192475
000090 84 5c e6 bc bf 74 93 3d 33 f6 d9 3d da 78 ba bd
       -0.028120287 0.07200002 0.10642662 -0.09105082
0000a0 c3 48 87 bd 68 be ab bd 5f 92 8e bc 6f 87 05 bd
       -0.06605675 -0.083859265 -0.01740378 -0.032599863
0000b0 a5 c4 05 bd 73 90 18 3d 87 ca d6 3c 85 3a e6 bc
       -0.032658238 0.037247133 0.02621962 -0.028104076
0000c0 e8 bf 59 ba bd 9f 71 3d b4 8a d4 3c 6f 02 f4 bc
       -0.00083064893 0.05899023 0.025945045 -0.029786317
0000d0 23 1c 63 3b 36 bc 4d bd 14 6c a1 3d 8a 34 9e bc
       0.0034654222 -0.05022832 0.078819424 -0.019312162
0000e0 ab ab 63 3d 44 e0 ba bd da 01 47 3c 11 13 1e 3c
       0.055583637 -0.091248065 0.012146438 0.0096481005
0000f0 e0 7e 68 39 ea 70 a6 3d 02 22 d3 bc c1 9a a7 3c
       0.00022172509 0.081270054 -0.025773052 0.020459535

features.5.running_mean f4 [64]
000000 0d ae 19 3f f1 27 81 bd ef ac 99 be 32 70 f0 3e
       0.60031205 -0.06306446 -0.3001475 0.46960598
000010 fc 0f 81 bf 86 8b 69 be 06 ed ba 3e e0 3b 85 3f
       -1.0083003 -0.2280713 0.3650896 1.0408897
000020 02 72 fb be 40 8f 39 3f 46 99 98 3f 54 6f 91 3d
       -0.4911042 0.7248421 1.1921775 0.07101312
000030 51 29 29 be b5 60 57 3d 1c 04 2e bf 17 01 69 3f
       -0.16519667 0.05258246 -0.6797502 0.9101729
000040 a1 b6 83 bf 12 25 a7 bd 92 4f d0 3e 06 59 e6 3e
       -1.0290109 -0.081613675 0.40685707 0.44989794
000050 6b 42 54 3f 7b 0b 93 3e 72 52 3d 3f 8c 9a af 3f
       0.82913846 0.28719696 0.73953927 1.3719039
000060 b4 3c 44 be d7 a7 9a 3f b0 c6 98 bf 38 39 04 3f
       -0.19163781 1.2082471 -1.1935635 0.5164981
000070 86 fa 78 3d f3 51 62 bf 7d 8a 1a 3d c0 0a 1f 3f
       0.060785793 -0.88406295 0.03772973 0.6212578
000080 28 d6 20 3f c5 eb 8e 3e 74 d0 65 be bb 1f 36 be
       0.62826777 0.27914253 -0.224428 -0.17785542
000090 82 98 a0 be b0 40 e1 3e e3 93 00 3f f1 cc 85 3f
       -0.31366354 0.43994665 0.5022566 1.0453168
0000a0 d0 3f c1 3f d4 c3 4e bf c8 55 e0 3d cf 79 9c bf
       1.5097599 -0.8076756 0.109538615 -1.2224673
0000b0 22 d1 8d 3e 0a 9a e4 be 81 45 53 bf 67 22 87 3f
       0.27698618 -0.44648772 -0.8252793 1.0557374
0000c0 13 61 23 bf ee 2c 11 3f d4 b9 99 be 27 b6 e4 3d
       -0.6382 0.5670918 -0.30024588 0.11167555
0000d0 6e 47 cf ba f4 c0 ee be 3b 60 8d 3d fa 42 77 3e
       -0.0015814134 -0.46631587 0.0690312 0.24146643
0000e0 30 a2 fe bd 68 b8 5c 3e c9 4b af 3e 0a 69 18 bd
       -0.124332786 0.2155472 0.34237507 -0.037209548
0000f0 cc 7f a0 be 7f 8c 06 be 96 6a 1a 40 43 e3 e6 be
       -0.313475 -0.13139533 2.4127555 -0.45095262

features.5.running_var f4 [64]
000000 df 5f 0d 3f d1 a5 c6 3e 24 03 ac 3e 1f e9 2a 3f
       0.5522441 0.38798383 0.33596146 0.66761965
000010 a8 a0 46 3f b3 d2 e3 3e cb 1f fe 3e cb ff e4 3e
       0.7758889 0.44496688 0.4963363 0.44726405
000020 bd 3c f1 3e 87 a7 21 3f ee c2 0b 3f 13 d5 0e 3f
       0.47116652 0.6314625 0.54594314 0.55793875
000030 cf 01 cd 3e f2 c8 e4 3e ae b6 c3 3e e7 17 fd 3e
       0.40040442 0.4468456 0.3822531 0.494323
000040 59 9b cf 3e 09 ef c5 3e 9f 61 e4 3e 29 c5 06 3f
       0.40548208 0.38658932 0.4460573 0.5264459
000050 fa 2b a8 3e 5f 74 4f 3f e7 27 1e 3f 79 92 17 3f
       0.3284605 0.81036943 0.61779636 0.59207875
000060 74 ed f3 3e 9f b5 0e 3f cd 0b d6 3e ec 83 ce 3e
       0.476421 0.5574588 0.41805878 0.40335023
000070 de ef 46 3f 66 18 c7 3e 85 01 13 3f 0e 10 a1 3e
       0.7770976 0.38885802 0.57424194 0.3145756
000080 50 1a cf 3e b4 46 f4 3e 31 18 08 3f 76 e0 c6 3e
       0.40449762 0.47710192 0.53161913 0.38843125
000090 50 08 18 3f 0f a8 ef 3e e6 4e 1e 3f 0b bd db 3e
       0.59387684 0.46807906 0.6183914 0.42917666
0000a0 67 b9 1e 3f ed 75 de 3e c9 d6 df 3e 38 20 e6 3e
       0.6200165 0.43449345 0.43718556 0.44946456
0000b0 7a a9 0d 3f 53 80 1c 3f 56 67 20 3f 8a 2a 02 3f
       0.55336726 0.6113331 0.6265768 0.5084616
0000c0 18 4d e8 3e 4e a5 11 3f a7 81 01 3f ce c1 ed 3e
       0.45371318 0.5689286 0.5058846 0.46436924
0000d0 fe 56 f5 3e 38 b8 ca 3e 59 ca 1c 3f ff 0e cd 3e
       0.47917932 0.39593673 0.6124626 0.40050504
0000e0 0c 8e 34 3f e1 61 b6 3e e2 e6 e6 3e 01 f9 f8 3e
       0.70529246 0.3562155 0.45098025 0.48627475
0000f0 6e c0 db 3e c5 6e 4b 3f 95 40 00 3f 4d 0f cb 3e
       0.4292025 0.79465896 0.50098544 0.3966011

features.8.weight f4 [128, 64, 7]
000000 b8 ca 79 bc cb 0a f1 3b 36 4c bc 3c c4 af a1 bc
       -0.015246086 0.007356023 0.022985559 -0.019737132
000010 3b 84 c4 bc 34 89 1e 3d 06 e8 58 3d df 28 13 bd
       -0.023988834 0.038705066 0.05295565 -0.03592765
000020 af 12 2f bc ff 00 30 3c 28 ac 88 bc 3d f4 16 bd
       -0.010685607 0.010742425 -0.016683653 -0.036854018
000030 a6 a9 8c bd f0 1d b8 ba a0 37 68 bc 19 e1 51 3d
       -0.06868295 -0.0014047008 -0.014173418 0.05124006
000040 d1 8f c7 3c 13 92 fa 3b a1 20 36 3c f1 0c 2c 3c
       0.02436057 0.007646808 0.011116178 0.010501132
000050 7f 18 83 3d 6c 18 c6 3b 5c b9 93 3d 15 78 90 3d
       0.06401157 0.006045392 0.07213089 0.07054154
000060 76 e7 74 3d 66 95 aa 3d a5 5d 0c 3c 9c d4 30 3d
       0.05979105 0.08329277 0.0085672485 0.04317151
000070 bb 02 39 3d 87 a6 27 3d 13 f1 70 3d e9 54 3a bc
       0.04516862 0.040930297 0.058823656 -0.011372783
000080 1c 46 03 bc 69 22 26 bd f1 b1 cf bc f1 2f 2e bb
       -0.008012321 -0.04056016 -0.025353404 -0.0026578868
000090 2b d9 31 bc fa 3c ae bc 1e 65 58 bd 0b ce 18 bd
       -0.010855 -0.02126931 -0.052830808 -0.037305873
0000a0 25 1d 60 3c 67 9c df bc 61 24 df 3c e6 95 c8 bc
       0.013678824 -0.027296258 0.027239027 -0.02448554
0000b0 44 82 1f 3d fb 55 4c bd 4f 11 57 bc 1c 54 74 3d
       0.03894259 -0.049886685 -0.013126685 0.059650525
0000c0 96 33 4f bc cc 36 f9 bc e5 f8 3d bd a3 3c 0f bd
       -0.012646576 -0.030421637 -0.046379942 -0.034969937
0000d0 3f df f9 bb 85 e8 08 3d a1 4b 1a bd 1e 6c 8a bc
       -0.00762549 0.033424873 -0.03766978 -0.016897257
0000e0 3a 8f b7 bd c3 97 1e bd 76 3f e6 3c 2e d2 3f bd
       -0.08962865 -0.03871895 0.028106432 -0.046831302
0000f0 a6 69 8b bc 49 13 87 bd 42 5c 37 bd ee 6f 6c bb
       -0.01701815 -0.06595475 -0.04476572 -0.0036077457
000100 cd 5a b5 bc b6 1f 5e bd 5e 08 ab bd dd 92 8f bc
       -0.022138024 -0.05422946 -0.08351205 -0.017526085
000110 8c d8 df bc 78 81 51 3c 2b 74 9d bc 18 f5 3f 3d
       -0.027324937 0.012787215 -0.019220432 0.0468646
000120 ba e1 1c 3c 49 f5 b7 bc b0 49 7e bb 63 a4 73 bc
       0.009575302 -0.022455828 -0.0038801245 -0.014870736
000130 f2 38 94 3c 4c a8 62 bd 69 76 74 3c a4 5d 74 3c
       0.01809356 -0.05533628 0.014920809 0.014914904
000140 31 c8 85 bc 42 62 1c bd 36 c4 5b bd 49 e2 19 bd
       -0.01633081 -0.038179643 -0.05365392 -0.037569318
000150 f7 22 c6 3c c7 11 74 3c 1d f8 e9 3c 8e e9 b3 bb
       0.024186594 0.014896817 0.028560692 -0.0054904884
000160 6e 9c 49 3d cd 12 39 bd dc 68 35 3d 94 45 83 3d
       0.04922145 -0.045183945 0.044289455 0.06409755
000170 82 b6 fb 3b 60 51 18 3d 62 f1 0d 3d 95 3b 3b 3d
       0.0076816687 0.03718698 0.03465403 0.04571112
000180 29 36 19 3c c0 d8 8f 3c ed 30 35 bd ab b8 88 3b
       0.009351292 0.01755941 -0.044236112 0.0041724048
000190 47 ba 00 bc 1e 7d ab 39 3b 25 84 bc 7a c7 2b bd
       -0.007856912 0.0003270888 -0.016131034 -0.041938283
0001a0 b4 7d 5f bc 91 9a 83 3c a2 46 ae bc ac 35 85 3c
       -0.01364081 0.016064914 -0.021273915 0.016260944
0001b0 a3 93 8c 3d ec 2c 3d 3d f7 1a a0 3c 3c 20 58 3b
       0.06864097 0.04618542 0.019544108 0.0032978198
0001c0 a5 99 b9 bc 64 b6 6a bc bb bf 97 bd c4 b4 10 3d
       -0.022656271 -0.014325712 -0.074096166 0.03532864
0001d0 2e 88 42 3b ba 9a 74 3c 56 c5 ca 3c 9f 19 bf bc
       0.002968322 0.014929468 0.0247523 -0.023327647
0001e0 06 85 e9 bc 7c a3 68 3b 1e e9 06 3b 05 0d 2f bc
       -0.028505813 0.0035497835 0.0020585726 -0.010684256
0001f0 2b 9d 45 3d 83 83 87 bc 5e ab aa bc 6d 17 af bd
       0.04824559 -0.016542202 -0.020833667 -0.0854939
000200 11 3d 8a 3a 0c 22 f0 bc 65 94 fe 3b 4d 6a cf 3c
       0.0010546764 -0.02931311 0.007769155 0.025319243
000210 bb 12 19 3c 83 8b e2 bb a0 b3 b7 bd 69 ed 24 3c
       0.009342845 -0.0069136037 -0.089698076 0.010066369
000220 cd d7 43 bd 97 56 06 3d 3b 92 5c 3d ab 1d 6f bd
       -0.047813226 0.032797422 0.053850394 -0.058377903
000230 ef b5 2f 3d 3d 5d 32 3d cd 68 9b 3c d0 e4 2d bd
       0.042898115 0.04354595 0.018970871 -0.04245454
000240 71 ad cb 3c 29 72 87 3d 1b d6 90 3d fe ae fa 3b
       0.024862977 0.06613571 0.070720874 0.007650255
000250 fb 49 7f 3c 97 3d 1e 3d a9 e3 0a bc ee ce 37 3d
       0.015581603 0.038632955 -0.00847713 0.044875078
000260 40 c2 16 3d 0c 0b fa 3c 82 2e 87 3c af b1 42 3d
       0.036806345 0.030522846 0.016501669 0.047532734
000270 14 27 1e 3d 57 a5 74 3d 35 09 63 3d df 1c 2f ba
       0.038611487 0.059727993 0.055428702 -0.00066800223
000280 53 d9 20 bb b8 df a1 bd 77 78 4d bd f3 01 98 3c
       -0.0024543598 -0.07903999 -0.050163712 0.018555617
000290 6c 7c d7 3c b4 41 46 3a 50 dc 45 3c dc 22 de 3c
       0.026304446 0.0007562891 0.012076452 0.027116232
0002a0 74 e6 35 bd ac a9 63 bc 2a bc e0 3b 83 23 2a 3c
       -0.04440923 -0.013895433 0.0068583684 0.010384443
0002b0 92 6c 6b bd 40 a1 4b ba 30 c5 39 bd 4b e4 8d bd
       -0.057476588 -0.00077678636 -0.04535407 -0.06928309
0002c0 97 b9 6d 3d 05 c5 93 bd 5a bc c1 b9 de e8 12 bd
       0.05803832 -0.07215313 -0.00036952161 -0.03586661
0002d0 76 2a ff bc c4 34 12 3d b4 d8 bc bd 72 37 29 bd
       -0.031148177 0.035694852 -0.0922102 -0.041312642
0002e0 df fb 83 3d cb 8a 97 3b 3f 9c 04 bc 3c 42 ae 3c
       0.06444525 0.0046246997 -0.008093893 0.021271817
0002f0 a9 4a 48 39 75 a0 76 bc 34 df b6 bc d4 c7 6a 3c
       0.000191013 -0.015052904 -0.022323228 0.014329869
000300 43 14 53 3c c0 7e 80 bd d2 cc 23 3d 62 37 6f bd
       0.012883249 -0.06274176 0.039990254 -0.058402427
000310 14 ab 92 3d ca 48 4d 3d dc 32 ee 3c 15 70 88 3d
       0.07161537 0.050118245 0.029076986 0.06662003
000320 9f e8 94 3d 1c f7 88 3c e6 a9 05 3d ff 3d 2a 3b
       0.072709315 0.016719393 0.03263273 0.0025976894
000330 1f 65 7f 3c e5 69 6f bd ce b5 51 bd 9f 2e ff bc
       0.015588074 -0.0584506 -0.051198773 -0.03115016
000340 16 33 63 3c 5e 13 aa bd 39 d2 30 3d 6b dc 0d 3d
       0.01386716 -0.08304475 0.043169234 0.034634035
000350 21 fd 68 3d 76 9c 38 3d 20 76 4f 3c 4d ab b4 3c
       0.056882028 0.045071088 0.012662441 0.022054339
000360 24 49 b5 3d de ea 3d bc ff e4 35 3d 5c 39 51 bd
       0.08851841 -0.011591641 0.04440784 -0.051080093
000370 f0 b6 0b bd 27 62 a0 3c 5e 39 81 bd 8d 48 9f bc
       -0.03411001 0.019578053 -0.0630977 -0.019443775
000380 aa 05 3b bd f0 67 91 3c bc a7 70 3c 00 78 33 bc
       -0.0456597 0.017749757 0.0146884285 -0.010953903
000390 a3 82 39 bd 5c 6a e8 bb e3 2b ae 3b 49 dc c0 bd
       -0.0452906 -0.007092757 0.0053152903 -0.09417016
0003a0 5c e5 6f bd 08 1c 41 3d 91 8d 97 bd 2a 9f 1a bd
       -0.058568344 0.047145873 -0.074000485 -0.037749447
0003b0 a4 bd 0f 3c 27 a7 53 bd 84 c2 b3 bb 72 2c 0b 3b
       0.008773241 -0.05167308 -0.0054858346 0.0021236208
0003c0 87 33 e5 bb 06 b9 cf bc 0b f8 79 3d 3c 9b 7e bd
       -0.006994668 -0.02535678 0.061027568 -0.06215976
0003d0 8f e9 49 bd 8d 61 85 3c 8e 19 2f bd 54 a8 a5 3d
       -0.049295004 0.016281867 -0.04274898 0.08088747
0003e0 dd b5 98 3c 45 ce 4b 3d e1 49 02 3c 15 0f 2c 3d
       0.018641407 0.04975726 0.007952184 0.04200657
0003f0 1d 7c 7d bc 07 0a 07 bd cb 2f d5 3b 46 4c 00 bd
       -0.015471485 -0.032968547 0.0065059415 -0.03132274

features.8.bias f4 [128]
000000 ae a8 28 3b 9a 39 be 3c 60 3e 60 3c 62 fb e2 3c
       0.0025735307 0.023220826 0.013686746 0.02770776
000010 13 43 a2 bc 1d 69 0e bc 43 d4 84 3c 3e 25 f1 bc
       -0.019807374 -0.008692053 0.016214496 -0.029436704
000020 fc 54 63 3c f9 b0 da bc 4f 11 88 3d 39 9e 07 bc
       0.013875242 -0.026695715 0.06643926 -0.008277469
000030 0b 87 03 bd 4b d0 16 bd 91 8a 1b bd 14 fd ca bc
       -0.03211121 -0.036819737 -0.037973944 -0.02477888
000040 01 28 a0 ba 1e 15 ad 3d ef 1d f3 3c b4 77 63 bc
       -0.0012218953 0.084512934 0.02967736 -0.01388352
000050 9b 57 a7 39 2e 36 11 bc 3c 57 18 3d 03 9e 92 3c
       0.00031917993 -0.008863015 0.03719257 0.017897611
000060 b6 ef aa bd 24 22 b5 bc 40 10 86 bb 55 fd 48 bd
       -0.083465025 -0.022111006 -0.0040912926 -0.04906972
000070 ad 51 13 bd 1b c1 4b bc 3b 35 fd 3c 57 00 00 3d
       -0.035966564 -0.012436177 0.030909171 0.031250324
000080 b7 38 52 bc 88 6e 75 bd 47 a3 93 39 6f 01 9e 3c
       -0.012830905 -0.059919864 0.00028159676 0.019287793
000090 a4 07 9f 3c db ca d5 bc b9 ce 22 3d 91 a2 5a 3d
       0.019412823 -0.026097706 0.039747927 0.05337769
0000a0 96 e1 61 bb 51 ed 2e bd 01 e2 d3 ba 7d 55 ed 3c
       -0.0034466735 -0.04270679 -0.0016165377 0.028971428
0000b0 98 58 e0 3a 55 fe 13 3c 84 37 3f bd 57 1b ac 3d
       0.0017116247 0.009032805 -0.046683803 0.08403652
0000c0 04 b5 a6 3c 9c b2 8b 3c bd 50 8e 3c b4 5c b6 bc
       0.020349987 0.017052941 0.017372483 -0.022261001
0000d0 00 74 10 bc ab 38 f5 3c 3f 01 33 bd 15 0e 3a 3c
       -0.008816719 0.029934248 -0.04370236 0.0113558965
0000e0 6f 19 2e bc a8 23 45 3d ab 02 b8 3c 32 86 94 3c
       -0.010626181 0.048129708 0.02246221 0.018130396
0000f0 5b 94 30 3d 03 4c 8f bb 2d 7e 0b bd 6d 79 13 bc
       0.043110233 -0.004373075 -0.034055877 -0.009001118
000100 88 c3 07 3d 9f 94 0a 3d 9a 75 7d 3d 81 0e 4c bd
       0.033145458 0.033833142 0.06187973 -0.04981852
000110 c3 81 92 3d 03 19 4b bc 48 d0 a6 bd 4d 8a 52 3b
       0.07153656 -0.0123961 -0.08145195 0.003212589
000120 24 36 25 3d 47 6d 0c 3d 28 58 e3 3c a4 85 92 bb
       0.040334836 0.034283902 0.027751997 -0.0044714976
000130 8d 08 4d bd fc 8d 2c bc 6d ac c4 bc c9 64 24 bd
       -0.050056983 -0.010531899 -0.024008 -0.04013518
000140 1b ff 8d 3d 10 4b 27 bc 04 9f c1 bc 0d 73 e5 bc
       0.06933423 -0.010210767 -0.023635395 -0.028008962
000150 4d 8e 3e bd 69 ee 3b 3d 7e ab 17 3c 9c 33 1d 3d
       -0.046522427 0.045881663 0.0092571955 0.038379297
000160 88 61 12 3d 17 16 c7 bc 5f 09 91 3c e0 ab c0 bc
       0.035737544 -0.024302525 0.017704664 -0.023519456
000170 6b f3 b8 3c 34 ae a0 3d ca db 19 3d 73 22 9a bc
       0.022577008 0.078457266 0.037563123 -0.018815255
000180 98 7b b7 3d 2b ec ad 3c 8f da 45 bd fa c3 1c 3d
       0.089591205 0.021230778 -0.048304137 0.038272835
000190 f9 2c f5 3c ba 84 6e bb fb ee 6f 3c 4b 18 cf 3c
       0.029928671 -0.003639503 0.01464438 0.025280138
0001a0 4a 99 10 3d 1c 21 85 3b 25 5a 9a bd 56 f8 1a 3d
       0.035302438 0.004062785 -0.07536725 0.037834488
0001b0 e4 8e 60 bd 4d 2b 31 b8 9b d4 28 bb f7 d2 d7 3c
       -0.05482377 -4.2240415e-05 -0.0025761488 0.026345713
0001c0 bd ca 0c 3c b4 b0 e8 bc c6 46 2f bd da e4 aa 3b
       0.008593258 -0.028404571 -0.042792104 0.0052152695
0001d0 8c f1 18 3d 51 a0 34 3b 87 17 97 bc a4 e4 32 3d
       0.037339732 0.0027561376 -0.018443836 0.04367508
0001e0 66 bf 17 bd 0c c9 4d bd 69 10 2d ba 3d 6d 23 3d
       -0.037047766 -0.05024056 -0.00066018716 0.0398991
0001f0 2e f2 52 3d 29 f8 6d 3c 4a c0 27 3d 96 f8 77 3d
       0.05150049 0.014524498 0.040954866 0.060539804

features.9.weight f4 [128]
000000 ae 17 83 3f cb 8d 61 3f f8 d7 53 3f 05 3b 75 3f
       1.0241601 0.88106984 0.8275142 0.9579318
000010 e5 fc 81 3f f3 00 71 3f c6 d5 78 3f 76 79 59 3f
       1.0155302 0.94142073 0.9720119 0.8495096
000020 83 3a 7f 3f 73 a3 80 3f d1 58 79 3f c6 4a 6c 3f
       0.99698657 1.0049881 0.9740115 0.92301595
000030 1e 20 5c 3f cf 36 78 3f 57 ac 5a 3f af 7c 73 3f
       0.85986507 0.9695863 0.8541922 0.9511213
000040 31 0c 7d 3f 9e 05 70 3f d6 27 71 3f 35 2f 63 3f
       0.9884673 0.9375857 0.9420141 0.8874391
000050 fa 5f 77 3f a4 6a 7c 3f 3b d7 57 3f 61 f3 77 3f
       0.96630824 0.9860022 0.8431279 0.9685574
000060 8f bc 7d 3f 6d 3a 78 3f f1 e0 77 3f 27 3b 84 3f
       0.9911584 0.9696415 0.9682761 1.0330552
000070 31 a0 64 3f 20 ab 89 3f 61 9e 6f 3f 2d 0a 80 3f
       0.8930693 1.0755348 0.9360104 1.0003105
000080 53 a4 8b 3f 73 76 74 3f 4a 4e 73 3f 49 c0 7e 3f
       1.0909523 0.9549324 0.95041335 0.99512154
000090 3b 03 6c 3f aa 50 73 3f bf cc 7d 3f 0a 34 6b 3f
       0.9219243 0.9504496 0.9914054 0.9187628
0000a0 a7 f8 71 3f 74 c7 7e 3f 4f c6 7d 3f a6 03 80 3f
       0.9452004 0.9952309 0.9913072 1.0001113
0000b0 a0 f4 64 3f 62 b8 71 3f 12 b8 79 3f 34 61 83 3f
       0.8943577 0.9442197 0.97546494 1.0264039
0000c0 46 fa 7a 3f 2f 91 78 3f 5a 59 80 3f d5 ad 66 3f
       0.98038137 0.9709653 1.0027268 0.90108997
0000d0 94 f7 68 3f 02 ae 80 3f 17 66 84 3f 33 95 80 3f
       0.91002774 1.0053103 1.0343655 1.0045532
0000e0 17 55 75 3f 5e 75 7d 3f 13 b8 5d 3f 3f cd 80 3f
       0.9583296 0.99007213 0.86609 1.0062636
0000f0 e8 fc 6d 3f ef 57 61 3f e9 83 7b 3f c8 06 74 3f
       0.9296403 0.880248 0.98248154 0.9532285
000100 40 43 62 3f 06 4c 91 3f 30 2e 6f 3f 42 c0 75 3f
       0.88383865 1.1351326 0.9342985 0.9599649
000110 21 a3 82 3f 3b 63 7a 3f bf 7b 77 3f fd 5b 7c 3f
       1.0206033 0.97807664 0.96673197 0.9857786
000120 05 cc 75 3f cf 52 67 3f 3c ac 4b 3f b8 a1 87 3f
       0.96014434 0.9036073 0.79559684 1.0596228
000130 5d b6 72 3f 82 ff 69 3f a0 4e 64 3f 6f 29 73 3f
       0.94809514 0.914055 0.8918247 0.949851
000140 29 dd 78 3f 51 69 5e 3f 47 d4 67 3f 34 02 7d 3f
       0.97212464 0.8687945 0.90558285 0.98831487
000150 a7 f6 65 3f ad 90 62 3f cd 89 7b 3f f1 1b 76 3f
       0.89829487 0.8850201 0.9825714 0.96136385
000160 58 03 6e 3f da 07 81 3f 12 b6 73 3f a9 2a 6a 3f
       0.9297385 1.0080521 0.9519969 0.91471344
000170 7d ca 72 3f b3 a2 7a 3f e4 06 7a 3f d5 ce 7a 3f
       0.9484022 0.9790451 0.97666764 0.9797185
000180 60 75 74 3f 88 9c 6e 3f 22 1b 7b 3f d0 40 82 3f
       0.954916 0.932076 0.98088276 1.0176029
000190 ca 66 72 3f ce d9 79 3f 96 96 72 3f 85 ff 74 3f
       0.94688094 0.9759797 0.94761026 0.9570239
0001a0 78 a5 7d 3f 49 a1 87 3f f3 d1 71 3f 40 dd 75 3f
       0.9908061 1.0596095 0.9446098 0.96040726
0001b0 09 e8 73 3f 0d a7 71 3f cd 83 6f 3f fb f6 83 3f
       0.9527593 0.94395524 0.9356049 1.0309747
0001c0 da f0 83 3f 25 c1 7f 3f 28 df 7b 3f a5 9e 64 3f
       1.0307877 0.9990409 0.98387384 0.8930457
0001d0 f5 26 7b 3f 0b 6a 77 3f 9f 54 88 3f 47 12 83 3f
       0.9810632 0.96646184 1.0650824 1.0239953
0001e0 2c 25 77 3f 4e 2f 7a 3f cb 03 84 3f 93 32 88 3f
       0.96541095 0.9772843 1.0313658 1.0640434
0001f0 fb 9d 82 3f 6f 75 82 3f 9b b0 88 3f 66 bf 88 3f
       1.0204462 1.0192088 1.0678896 1.068341

features.9.bias f4 [128]
000000 5f b0 a6 3c 2f 3b fa bd c8 62 2d be 0b 6b 2f bd
       0.020347772 -0.122183196 -0.16932213 -0.042826694
000010 21 d6 90 3c 60 90 6a bd 66 2e bf bc 97 a6 14 be
       0.01768023 -0.057266593 -0.023337554 -0.14516674
000020 8b 7c d5 bb 8a e7 c1 3b 0f 0d d8 bc 41 3c 9b bd
       -0.006515091 0.005917494 -0.026373414 -0.07579852
000030 65 da 12 be be 42 08 bd 23 b8 17 be 7b 2a 3b bd
       -0.14341123 -0.033266775 -0.14816336 -0.04569481
000040 05 81 31 bc c4 b3 87 bd e4 cc 62 bd 63 71 e3 bd
       -0.010833983 -0.066260844 -0.05537118 -0.11105611
000050 e1 17 11 bd 71 06 45 bc 8a ae 1f be 78 62 10 bd
       -0.035423163 -0.0120254615 -0.15593925 -0.035250157
000060 0a f1 02 bc 45 f3 d6 bc 1d 3e 01 bd 58 c0 0b 3d
       -0.0079920385 -0.026239047 -0.031553376 0.03411898
000070 9c b9 df bd 0c 81 a4 3d 8d 53 7b bd ae fb 10 bb
       -0.10924074 0.08032426 -0.061358977 -0.002212267
000080 9d 8e c7 3d 2c be 37 bd ec 40 61 bd be 3e 2b bb
       0.09743998 -0.044859096 -0.054993555 -0.0026129927
000090 9b e7 9c bd 08 36 39 bd 6c dd dd bb 8e d2 a4 bd
       -0.07661363 -0.045217544 -0.0067707803 -0.080479726
0000a0 96 6b 5f bd 07 a4 a7 bb fd 53 86 bb 6a 0f ae 3a
       -0.05454596 -0.005115989 -0.0040993677 0.001327974
0000b0 f1 4f df bd a5 f2 63 bd 82 fd be bc e5 8c e9 3c
       -0.109039195 -0.055651326 -0.023314241 0.028509567
0000c0 d7 14 c8 bc a0 25 f6 bc 55 96 b3 3b d0 35 cb bd
       -0.024424 -0.030047238 0.0054805675 -0.09922373
0000d0 1f 87 b7 bd 32 1d ab 3a dd 5b e9 3c 93 8c e4 3a
       -0.08961319 0.0013054966 0.028486187 0.0017436914
0000e0 b8 46 2b bd 84 4c 09 bc 71 ec 06 be 68 16 35 3c
       -0.04181549 -0.008380059 -0.13176133 0.011052705
0000f0 3e c3 97 bd 11 fa f4 bd c3 83 a3 bc 2f 1d 3f bd
       -0.07410286 -0.11961759 -0.01996029 -0.04665869
000100 5b 2e f7 bd 27 70 11 3e 2f 99 8c bd 32 98 1e bd
       -0.120693885 0.14202939 -0.06865155 -0.038719364
000110 6a 02 b0 3c 66 d2 97 bc 11 8e 09 bd 8f e4 3b bc
       0.021485526 -0.018532943 -0.03358275 -0.011468067
000120 b8 bb 20 bd 0e 51 c1 bd 3f b4 51 be 89 ee 77 3d
       -0.039241523 -0.09439288 -0.20478915 0.06053022
000130 6e e4 59 bd 74 56 b0 bd 69 49 e8 bd c7 a6 47 bd
       -0.053196363 -0.086102396 -0.11342127 -0.048743036
000140 a2 6f dc bc b8 54 02 be 56 a8 c7 bd d6 f7 4c bc
       -0.0269087 -0.1272763 -0.097489044 -0.012510261
000150 d4 51 ca bd 01 b7 f8 bd dd 12 9b bc e5 26 11 bd
       -0.09878889 -0.1214428 -0.018929893 -0.035437483
000160 d1 5b 93 bd d0 ab 0d 3c b5 04 45 bd 0f 76 b3 bd
       -0.07195247 0.00864692 -0.048100192 -0.08762752
000170 d9 03 41 bd 54 f7 a8 bc b7 46 d8 bc 72 60 91 bc
       -0.04712281 -0.020625748 -0.026400907 -0.017746184
000180 73 90 4e bd 94 fe 8c bd 13 07 a5 bc 39 86 af 3c
       -0.050430726 -0.068844944 -0.020144975 0.021426307
000190 c1 ba 5f bd df 7f b9 bc cd 74 61 bd 32 8a 3d bd
       -0.05462146 -0.022643982 -0.05504303 -0.04627437
0001a0 5c 94 fc bb dd 13 83 3d d2 c7 64 bd c9 e0 26 bd
       -0.0077081155 0.06400273 -0.055854626 -0.040741716
0001b0 76 6e 4d bd 2c 77 67 bd 75 89 85 bd 7d f0 e8 3c
       -0.050154172 -0.056510136 -0.065203585 0.028434986
0001c0 88 45 0a 3d f6 59 f5 3a a6 ef 32 bc 7e 84 e5 bd
       0.033757716 0.0018718827 -0.010921394 -0.112069115
0001d0 37 70 9e bc 63 df 16 bd ea e5 8e 3d d7 f4 b2 3c
       -0.019340618 -0.036834132 0.069774464 0.021845264
0001e0 d8 00 02 bd 37 79 d8 bc 75 19 05 3d 1c 5a 8a 3d
       -0.031739086 -0.026424987 0.03249498 0.06755468
0001f0 30 0a a5 3c 3e 75 a4 3c a0 48 8f 3d f9 6d 8c 3d
       0.02014646 0.020075437 0.06996274 0.06856913

features.9.running_mean f4 [128]
000000 b4 2a ac 3e a4 78 f2 3f 82 2a 0b bf fd 02 9a 3f
       0.3362633 1.8943067 -0.54361737 1.2032162
000010 50 23 b2 3f 16 11 0b 3e 8a d8 42 bf b2 ad 8f 3f
       1.3917027 0.13580737 -0.7611166 1.1224883
000020 49 fa 30 3f 4c a1 9a be 13 1a dc 3e ac 40 13 c0
       0.69131905 -0.30201185 0.42988643 -2.3008223
000030 b5 ae a2 c0 16 3e a2 bf b1 f4 6e 3e ae e9 b1 be
       -5.0838265 -1.2675197 0.2333553 -0.34748596
000040 73 a1 cc 3e 1e 66 87 3f f3 6a 14 3e 14 46 c7 be
       0.39966926 1.0578039 0.14493923 -0.38920653
000050 81 8e 1e c0 5b 23 ed 3d 4d 04 6c 3d c0 f8 c7 be
       -2.4774477 0.11579009 0.05762129 -0.3905697
000060 74 89 18 3f 6f 8b 94 bf 6a b3 89 bf 14 26 96 3f
       0.59584737 -1.1605052 -1.0757878 1.173037
000070 fe c9 0f c0 84 a2 cd bf 17 a4 93 3e 63 88 e4 3f
       -2.2467036 -1.6065221 0.28836128 1.7854122
000080 19 76 08 be 0e 81 e6 bd 03 18 05 bf 36 dd ca 3f
       -0.133263 -0.11255084 -0.51989764 1.5848758
000090 cf 30 6d 3f 4c b4 54 3f e5 43 d1 3f da 8c 55 3e
       0.926526 0.8308761 1.6348845 0.20854512
0000a0 97 8e d6 bf 67 10 42 40 11 ac 2e c0 87 25 2f bf
       -1.6762265 3.0322511 -2.729252 -0.6841664
0000b0 5d 25 69 40 0d 9e 8b 3f 61 26 f1 3e d4 a6 36 be
       3.6429055 1.0907608 0.47099593 -0.17837077
0000c0 36 e6 da be 8c 4b 82 3e b8 4c 34 bf 6a dc 9c bf
       -0.42753762 0.25448263 -0.70429564 -1.2254765
0000d0 a7 6d 80 be fc ba 69 bf f4 96 41 40 ea ed 13 40
       -0.25083658 -0.9130094 3.0248384 2.3113961
0000e0 ca ab 95 bf 1a 9d 0d bf ee 37 5c bf 1c ef 06 3f
       -1.1693051 -0.5531784 -0.8602284 0.527086
0000f0 25 39 22 40 c8 b2 51 be f6 28 03 3f be 36 ad 3e
       2.5347378 -0.20478356 0.51234376 0.33830827
000100 28 b4 83 3f fa 64 1c bf d2 f3 88 3f 66 83 23 bf
       1.0289354 -0.6109158 1.0699408 -0.63872373
000110 59 7c 9a 3d ba d7 d2 bf 58 67 b0 bf bf f2 c9 bd
       0.07543249 -1.6472085 -1.3781538 -0.09860753
000120 3c 01 d8 bf 6e e5 9c 3f fb 87 17 c0 85 55 c2 3d
       -1.6875377 1.2257516 -2.3676746 0.09488968
000130 5f 9c 7b bf e9 b9 03 c0 47 27 9d bf ea 91 4c 3e
       -0.9828548 -2.058222 -1.2277611 0.19977537
000140 ff 05 82 3f e9 05 85 3f b9 cb fe be dd 51 02 3f
       1.015808 1.0392429 -0.49764803 0.50906163
000150 84 21 9d bf 00 48 4a c0 a7 9f a9 3f 99 1a 61 3f
       -1.2275853 -3.1606445 1.3251847 0.8793121
000160 fa c7 d5 bf a9 e5 19 bf 38 7d f6 be 23 1c 07 c0
       -1.6701653 -0.6011606 -0.4814241 -2.1110923
000170 2c fd ce bf ef 18 96 bf 0e aa 07 3f 1f 4f e9 be
       -1.6171012 -1.1726359 0.5299386 -0.45568177
000180 07 7f 2f 3f 7c a2 bd be 1a 19 9f bf de a4 dc bf
       0.68553203 -0.37038028 -1.2429535 -1.7237813
000190 e7 64 4d bf 48 f6 9d be e8 5c a2 bf f8 2d bf 3f
       -0.8023209 -0.3085196 -1.2684603 1.4935904
0001a0 9e ac f7 3f 57 2f 95 bf ed 91 67 bd e2 27 c7 be
       1.9349554 -1.1655072 -0.05653565 -0.38897616
0001b0 ef 3a ce 3f 50 ef 95 3e 9f 38 65 3f 93 b5 d9 be
       1.6111735 0.29284143 0.8953952 -0.42521343
0001c0 4b 5d 9a 3f f4 fa 4d c0 91 97 3c bd 1f 52 7a c0
       1.2059721 -3.218442 -0.046042982 -3.9112623
0001d0 cb 54 79 3f 64 d6 ff 3d 3e ff 01 3f 90 c6 7c 3e
       0.9739501 0.12492064 0.50780094 0.2468512
0001e0 87 fa 1c c0 a1 ce 59 3f 7b b6 a1 3f 4d 68 24 3f
       -2.452791 0.85080916 1.2633814 0.6422165
0001f0 52 6e cc bd c6 86 48 3f 4b da 2c 3f a5 ed c2 3e
       -0.099819794 0.7833065 0.6752059 0.38071933
